maddpg_pytorch/models/cache_data/model/run52/incremental/model_ep7001.pt (torch, 690099 bytes, 168 tensors)

fc1.weight f4 [64, 1]
0.079308294 -0.61747736 -0.8866832 -0.024499316 -2.7175825 0.15931028 -0.06363987 0.32454354
-0.2843999 -0.9502167 -0.18687455 -0.034220617 -0.071332976 -1.6874568 -0.07290876 -0.072549805
-0.13847566 -0.0039948225 0.087541565 0.05552169 -0.08476218 -2.3241837 -0.16761565 -0.10549073
-1.75609 0.047856204 -0.006957834 0.99718004 -1.3810896 -0.16859564 -0.13763884 0.093312606
-0.024865884 -0.54933393 -1.5716773 -0.94430315 -0.030158775 -2.0060272 -0.07596189 -1.0526686
1.335693 -0.42309844 -0.17237936 -0.29719314 -1.5774103 -0.00928331 0.079595014 -0.10254792
-0.1231002 -0.1096344 -1.0832313 -1.3948612 -0.042873763 -0.08670652 0.13879503 0.081949495
-0.04682362 0.0051176464 -0.11768416 0.05723422 -0.009737894 -0.03946245 0.41074485 0.106858015
00000000: 636c a23d ff12 1ebf acfd 62bf cab2 c8bc
00000010: dfec 2dc0 3c22 233e 9f55 82bd 922a a63e
00000020: dd9c 91be 6741 73bf 0b5c 3fbe eb2a 0cbd
00000030: 0617 92bd 96fe d7bf 3051 95bd fe94 94bd
00000040: 90cc 0dbe 00e7 82bb fe48 b33d b66a 633d
00000050: cb97 adbd 6dbf 14c0 70a3 2bbe 860b d8bd
00000060: 8fc7 e0bf de04 443d 8bfe e3bb 3147 7f3f
00000070: 8bc7 b0bf 56a4 2cbe 32f1 0cbe ae1a bf3d
00000080: 8ab3 cbbc 26a1 0cbf b92c c9bf dabd 71bf
00000090: 890f f7bc c062 00c0 e891 9bbd d8bd 86bf
000000a0: fdf7 aa3f 5ca0 d8be 3784 30be b329 98be
000000b0: 95e8 c9bf 0619 18bc b602 a33d a504 d2bd
000000c0: f51b fcbd 0088 e0bd 53a7 8abf d08a b2bf
000000d0: 669c 2fbd 3093 b1bd 4920 0e3e 23d5 a73d
000000e0: 20ca 3fbd eeb1 a73b 6504 f1bd 6e6e 6a3d
000000f0: b08b 1fbc 61a3 21bd 264d d23e 60d8 da3d

fc1.bias f4 [64]
-1.1158538 -0.79585284 -0.7049978 -0.064182736 0.08056192 -1.3160889 -0.17981328 -1.6151178
-0.5403617 -0.9191299 -0.3035503 -0.09422463 -0.13216631 -0.3006872 -0.92611206 -0.22026405
-1.0208582 -0.754509 -1.2124399 -0.63554657 -0.14185378 0.64398956 -0.88898194 -0.5941777
-0.25088775 -0.32361272 -0.061266772 -2.724153 -0.17769264 -0.53097486 -1.0833 -2.0290692
-0.058667824 -0.71249866 -0.71675634 -0.9394275 -0.11475526 -0.28351054 -0.17891207 -0.7351311
-0.2394626 -0.85042953 -0.37449014 -0.4049897 -0.1817347 -0.110919744 -0.48716 -0.7290479
-0.16735812 -0.663581 -0.7332062 -0.29560006 -0.5057984 -0.20351934 -2.064333 -2.1237323
-0.6047716 -0.66963595 -0.15346467 -0.84750336 -0.08634296 -1.3477015 -2.051914 -1.4974476
00000000: 4cd4 8ebf 03bd 4bbf bc7a 34bf 3d72 83bd
00000010: a6fd a43d 9a75 a8bf f920 38be 2ebc cebf
00000020: 2555 0abf 194c 6bbf f26a 9bbe d8f8 c0bd
00000030: 9b56 07be acf3 99be ae15 6dbf e68c 61be
00000040: 7bab 82bf 8027 41bf 3b31 9bbf 2eb3 22bf
00000050: 1e42 11be 80dc 243f 5294 63bf 081c 18bf
00000060: 5c74 80be 91b0 a5be def2 7abd 8658 2ec0
00000070: 0ff5 35be f8ed 07bf 93a9 8abf 45dc 01c0
00000080: ac4d 70bd 5066 36bf 587d 37bf 527e 70bf
00000090: ce04 ebbd 4b28 91be ba34 37be 8d31 3cbf
000000a0: af35 75be c0b5 59bf 2cbd bfbe cf5a cfbe
000000b0: a918 3abe e429 e3bd 096d f9be e2a2 3abf
000000c0: ed5f 2bbe 72e0 29bf 67b3 3bbf e458 97be
000000d0: 017c 01bf 6067 50be 081e 04c0 3beb 07c0
000000e0: 50d2 1abf 436d 2bbf d825 1dbe fbf5 58bf
000000f0: 94d4 b0bd 7c81 acbf 8f52 03c0 5dac bfbf

fc2.weight f4 [64, 64]
0.072021365 0.010746537 -0.18009663 -0.22818954 0.0856796 0.082831696 -0.06343543 -0.005998991
-0.09169516 -0.056971766 -0.55278724 -0.15018438 -0.3634192 -0.15756747 -0.07661903 -0.10681332
0.038685977 -0.028304413 -0.094590984 -0.045500804 -0.035949983 0.051417656 -0.04233159 -0.018194454
-0.071397 -0.20707725 -0.5532891 -0.080452025 -0.12999356 -0.4998794 0.088871196 -0.12819608
-0.5615196 0.018269636 0.026970005 0.06486844 -0.6422591 -0.2488279 -0.37185183 -0.15012006
-0.1904519 -0.05697012 -0.5014588 -0.13317896 -0.10551896 -0.31722757 0.11213762 -0.227499
-0.06337962 0.003980443 -0.1209538 -0.053358406 -0.43781534 -0.14380702 -0.10768737 -0.024691075
-0.08062348 0.08885789 -0.518914 -0.09743534 -0.047759492 -0.14972562 0.04472646 -0.15357432
-0.15006807 -0.21741073 -0.21870495 -0.13737933 -0.16095929 -0.033809282 0.16737157 -0.1596407
0.016241739 -0.59058785 0.05864426 -0.05348833 0.030189116 -0.2007425 -0.009735331 0.24689156
0.02124931 0.05892451 -0.10199066 -0.06880654 0.2437519 0.0011560152 0.108982995 -0.008811037
-0.35815245 -0.13150826 -0.09051151 0.102695875 -0.19377366 -0.16515091 -0.008490732 -0.22253387
-0.18398601 -0.18412428 -0.1295022 -0.13678566 -0.15159537 -0.23171541 -0.17541367 -0.24268654
-0.1316806 -0.02662827 -0.3367992 0.10877755 -0.21129017 -0.1399217 -0.19664927 0.0942583
-0.023736754 -0.010949552 -0.04188495 0.0072704116 -0.38043135 0.14609429 -0.26543915 -0.24603806
-0.08321117 0.00601311 -0.2693886 0.06956045 -0.12769033 -0.04376805 -0.078496665 -0.19435601
-0.2809307 -0.52141154 -1.4168931 -0.081419945 -1.8714539 -0.037511647 0.09547234 -0.7144892
0.12212425 -2.4010117 0.077770084 -0.07153366 0.10641923 -0.9721767 0.035353497 0.244739
0.029732242 0.10367778 -0.36747572 -0.24909347 0.11625183 -4.4577813 -0.05921507 0.7183125
-1.7484566 0.09974794 0.030588726 -0.9476351 -0.9883068 -0.22962365 -0.05886276 -0.40122968
0.2745081 -0.34384778 -0.8253989 -2.0285904 0.29913723 -2.5658724 0.13373324 0.7986535
-4.1244125 0.0017213821 0.14175545 0.007788445 0.6890983 -0.15379149 0.47568318 0.0035541125
0.3622339 -0.047710195 -0.67309177 0.6682995 0.27342153 0.3125441 -0.7055085 -0.5924304
-0.11751327 -0.04398428 0.36428303 -0.13149765 0.5387936 -0.25309062 -0.05681283 -0.41475493
-0.15491702 -0.13481216 -0.106201366 -0.134543 0.052165568 -0.18649398 -0.22291291 -0.05412291
-0.20930593 -0.10969221 -0.02646209 -0.0012005522 0.027792143 -0.22246411 0.0010868162 -0.18252401
-0.069914594 -0.07031919 -0.0525855 -0.11833391 -0.22514443 -0.08810744 -0.10356602 -0.035578262
-0.15347654 -0.145069 -0.124100596 -0.28393358 -0.19501373 -0.16154335 0.10303644 -0.07337819
-0.13406253 -0.13143474 -0.008153591 0.003852134 0.025474062 0.12653911 -0.029629368 -0.14808622
-0.16994841 -0.12246022 -0.024670798 -0.053385418 -0.111966416 -0.07222816 -0.20558275 -0.18021114
-0.121260986 -0.025300056 -0.20073718 -0.12022066 -0.09229792 -0.1806661 -0.06778937 -0.08114407
-0.046100378 0.033057433 -0.043185104 -0.0037353372 -0.15182257 -0.16809528 -0.09217881 -0.11771736
00000000: f07f 933d 3e12 303c 406b 38be 85aa 69be
00000010: c978 af3d aaa3 a93d 6fea 81bd 2f93 c4bb
00000020: acca bbbd 3a5b 69bd 7783 0dbf efc9 19be
00000030: 1512 babe 5e59 21be 70ea 9cbd f1c0 dabd
00000040: 3075 1e3d a8de e7bc ebb8 c1bd 0d5f 3abd
00000050: 4a40 13bd 529b 523d e463 2dbd 890c 95bc
00000060: 9738 92bd 0f0c 54be 5ba4 0dbf 08c4 a4bd
00000070: 081d 05be 31f0 ffbe 1a02 b63d d545 03be
00000080: c0bf 0fbf 34aa 953c 33f0 dc3c bfd9 843d
00000090: 186b 24bf becc 7ebe 5d63 bebe 13b9 19be
000000a0: d305 43be 8059 69bd 9b5f 00bf 1160 08be
000000b0: 531a d8bd a76b a2be 69a8 e53d 7ff5 68be
000000c0: 2dcd 81bd 606e 823b a0b6 f7bd 588e 5abd
000000d0: 5529 e0be 2642 13be 328b dcbd f044 cabc
000000e0: ec1d a5bd 20fb b53d 8cd7 04bf 2e8c c7bd
000000f0: 759f 43bd ac51 19be 1833 373d 9642 1dbe
00000100: 72ab 19be eba0 5ebe 31f4 5fbe 2bad 0cbe
00000110: 83d2 24be 9a7b 0abd 7463 2b3e da78 23be
00000120: 650d 853c c430 17bf f734 703d 9416 5bbd
00000130: 2a4f f73c 718f 4dbe f080 1fbc 24d1 7c3e
00000140: 0813 ae3c d45a 713d 7be0 d0bd 71ea 8cbd
00000150: 199a 793e 6f85 973a 7a32 df3d 2b5c 10bc
00000160: c25f b7be 1aaa 06be 195e b9bd 3752 d23d
00000170: 9a6c 46be 521d 29be b61c 0bbc ebdf 63be
00000180: d466 3cbe 138b 3cbe 3a9c 04be 8a11 0cbe
00000190: d13b 1bbe ce46 6dbe a49f 33be d282 78be
000001a0: 47d7 06be 8823 dabc f270 acbe c4c6 de3d
000001b0: 735c 58be a247 0fbe 6d5e 49be 7f0a c13d
000001c0: 9573 c2bc c065 33bc 8e8f 2bbd a23c ee3b
000001d0: e6c7 c2be be99 153e a4e7 87be 67f1 7bbe
000001e0: 9e6a aabd 9f09 c53b 4ded 89be b675 8e3d
000001f0: 41c1 02be 2046 33bd dcc2 a0bd 4305 47be
00000200: 26d6 8fbe 3a7b 05bf c15c b5bf 80bf a6bd
00000210: cd8b efbf d0a5 19bd 0187 c33d c4e8 36bf
00000220: 471c fa3d 2daa 19c0 ec45 9f3d 3d80 92bd
00000230: 53f2 d93d 92e0 78bf d4ce 103d dc9c 7a3e
00000240: 0891 f33c 0455 d43d c725 bcbe 5c12 7fbe
00000250: 7015 ee3d 25a6 8ec0 808b 72bd 54e3 373f
00000260: 6dcd dfbf a648 cc3d 3595 fa3c 3798 72bf
00000270: ad01 7dbf 7622 6bbe 141a 71bd fa6d cdbe
00000280: 538c 8c3e d10c b0be 584d 53bf 6dd4 01c0
00000290: 8428 993e 4137 24c0 5ef1 083e 8e74 4c3f
000002a0: 30fb 83c0 00a0 e13a 5728 113e 3636 ff3b
000002b0: bf68 303f 847b 1dbe bf8c f33e 1dec 683b
000002c0: b976 b93e c46b 43bd be4f 2cbf ad15 2b3f
000002d0: e8fd 8b3e c805 a03e 349c 34bf 85a9 17bf
000002e0: ccaa f0bd dc28 34bd 4e83 ba3e 52a7 06be
000002f0: 61ee 093f 1895 81be 92b4 68bd c25a d4be
00000300: 91a2 1ebe 330c 0abe 1a80 d9bd a4c5 09be
00000310: 90ab 553d 47f8 3ebe 4843 64be fcaf 5dbd
00000320: 4b54 56be 4fa6 e0bd 06c7 d8bc d95b 9dba
00000330: 59ac e33c a2cd 63be 8073 8e3a 93e7 3abe
00000340: 622f 8fbd 8203 90bd e563 57bd 0d59 f2bd
00000350: 438c 66be ac71 b4bd 6c1a d4bd 83ba 11bd
00000360: f428 1dbe f88c 14be 7428 febd be5f 91be
00000370: aeb1 47be 9f6b 25be c504 d33d 4e47 96bd
00000380: b047 09be d496 06be a496 05bc 1674 7c3b
00000390: fbae d03c 7893 013e 4ab9 f2bc eaa3 17be
000003a0: f506 2ebe 6ccc fabd 6a1a cabc abaa 5abd
000003b0: a64e e5bd 5cec 93bd 4984 52be 4589 38be
000003c0: ae57 f8bd 1042 cfbc 0c8e 4dbe 4036 f6bd
000003d0: b106 bdbd 8900 39be 27d5 8abd dd2e a6bd
000003e0: c0d3 3cbd 3b67 073d dde2 30bd 8fcc 74bb
000003f0: 6077 1bbe 2b21 2cbe 3ec8 bcbd cd15 f1bd

fc2.bias f4 [64]
-0.34189153 -0.26891363 -0.08556954 -0.23664549 -0.4759974 -0.10332926 -0.35545123 -0.28584635
-0.27465123 -0.022233842 -0.22371627 -0.03166336 -1.1447898 0.66517323 0.10786192 -0.18902075
-0.07292008 -0.28721935 -0.32639232 -0.39567402 -0.5226682 -0.16157158 -0.22717157 -0.086522855
-0.06985431 -0.14278838 -0.24162447 -0.3827616 -0.31142098 -0.41615 -0.8639836 -0.55187947
-0.5848509 -0.18228085 0.07114492 -0.21527505 -0.0319274 -0.05459659 -0.43882936 0.5147135
-0.04782278 -0.4641125 -0.32861832 -0.38252056 -0.12717272 -0.13440992 -0.7025606 -0.18051358
-0.79581976 -0.48604703 -0.1172018 -0.17341445 -0.12899356 -0.37001747 -0.10433082 -0.049411204
-0.12324322 -0.26452827 -0.099261954 -0.11141988 1.8652544 -0.5628014 -0.24818349 -0.20906101
00000000: 680c afbe 0caf 89be 153f afbd 3253 72be
00000010: eeb5 f3be 4b9e d3bd b4fd b5be 745a 92be
00000020: 169f 8cbe bf23 b6bc e115 65be 70b1 01bd
00000030: 7988 92bf cb48 2a3f b6e6 dc3d a88e 41be
00000040: 1f57 95bd 6a0e 93be e51c a7be c995 cabe
00000050: 95cd 05bf 0573 25be aa9f 68be e532 b1bd
00000060: c70f 8fbd 1e37 12be 686c 77be 54f9 c3be
00000070: 9272 9fbe 9d11 d5be 072e 5dbf f947 0dbf
00000080: cab8 15bf d5a7 3abe 6eb4 913d 1071 5cbe
00000090: 4ec6 02bd ada0 5fbd 3eae e0be 44c4 033f
000000a0: d2e1 43bd 27a0 edbe a940 a8be bcd9 c3be
000000b0: 9139 02be c1a2 09be 03db 33bf 8dd8 38be
000000c0: d8ba 4bbf 28db f8be 7f07 f0bd 8f93 31be
000000d0: e316 04be ee72 bdbe 66ab d5bd 6763 4abd
000000e0: f166 fcbd 4070 87be da49 cbbd 1b30 e4bd
000000f0: a8c0 ee3f c113 10bf d023 7ebe 1714 56be

fc3.weight f4 [32, 64]
-0.21239363 -0.11042666 0.4174736 0.0013805974 -1.6431003 -0.048044294 0.012897637 0.17900053
-0.027612155 0.060253654 0.17566346 1.3501287 1.3330842 0.95050853 0.20330584 -0.13577218
-2.5579865 -0.8093581 0.09627254 0.11274532 -0.01556834 1.2432811 0.1278132 0.08583809
0.12786436 -0.32647926 -0.16488436 0.036642358 -0.21729761 0.002294194 0.32555553 -0.08575234
0.023762332 1.8115615 -0.7708283 2.643595 0.65314656 -0.0028328751 -0.39156014 0.15462343
2.213026 0.6082433 -0.034884907 0.08268668 -0.3950597 -0.113334715 -0.84640944 0.57935596
0.43044323 -0.5660898 0.024970818 0.0019643975 1.7951782 0.20778847 -0.07151102 0.25266668
-0.15758061 -0.10378943 -0.06486087 0.093505464 2.4076898 -0.2129391 -0.077593714 -0.16026613
0.16356441 0.4277053 -0.86119545 -0.10232955 -0.20306735 0.024631709 0.37070534 0.20914187
-0.26027164 -0.22003391 -0.001039872 -1.5007212 -0.36550486 0.32450274 1.1112995 -0.017187143
-2.270262 -0.26896542 -0.23814073 -0.16162272 0.48717847 0.46192813 -0.04509873 0.051056407
-0.109129906 0.03659285 -0.031192642 -0.05489477 0.3370462 0.020126289 -1.2823961 -0.10988242
0.21047395 2.0037425 -2.3673196 -0.6659347 0.7200039 0.08450258 0.17100118 -0.37598297
0.63251144 -0.9262704 -0.15014558 -0.0037176933 0.154853 0.16137144 -0.45247492 0.32031438
0.37539834 0.019431667 -0.088519074 -0.25586128 1.54326 -0.28302822 0.075285114 0.07801705
-0.21056403 0.009129382 -0.14809874 -0.33878657 0.5200397 -0.12904383 0.118588865 -0.10454898
0.0019434309 -0.60096383 -0.3832576 0.043283343 -0.9728194 -0.076838456 -0.13392521 0.23911512
0.44342124 -0.16866483 -0.06389605 1.4887601 2.8023775 3.0047927 -0.3394835 0.013540471
0.052895427 0.08615799 0.051811077 -0.041620716 0.072509885 -1.5151882 0.064578086 -0.022486594
0.12610203 -0.19248109 -0.24516465 0.08011277 -0.23207454 0.034182426 0.8752054 0.06535061
0.0010226528 -0.89411277 1.3119848 -0.7140232 -1.5038295 0.10580218 -0.18381396 1.4466469
-1.0225705 0.03253348 -0.097990245 -0.049901687 -0.16540535 0.067174755 0.7266757 -0.99372166
-0.03801288 1.5700246 0.11784677 0.21650514 0.74664503 0.12008107 0.04165947 -0.17267953
0.28752673 0.03641693 0.051031552 0.10378098 0.63159233 -0.09368748 0.023785219 -0.21565986
-0.040350027 0.22814962 0.9633597 0.10714301 0.94132406 -0.007906615 -0.3750502 -0.34345984
-0.7430492 -0.7749992 0.005568494 -1.4628828 2.3280103 0.20655856 3.6077845 0.064410225
-0.07414571 -0.014367683 0.1850493 0.03296604 0.13052125 1.3883982 -0.18727022 0.013997502
0.026141906 0.19581571 0.11761922 0.16706552 0.009402941 -0.31586885 -0.64299995 0.074553974
-0.011962764 -0.9889219 -3.3098612 -0.73526657 0.63761294 -0.14552236 0.56914204 2.7158794
-2.5230777 -0.20117943 -0.1704589 -0.062404253 -0.29193002 0.020146228 0.12118549 0.19173749
-0.3208603 -1.1328082 -0.027177786 0.072158575 0.20326169 -0.09619472 0.16676433 -0.0018175311
0.05048035 0.06805903 -0.12600084 -0.006700438 -3.2934723 0.095713705 0.45590642 -0.21470015
00000000: b77d 59be 5f27 e2bd 1abf d53e 29f5 b43a
00000010: 1c51 d2bf 18ca 44bd 9c50 533c ea4b 373e
00000020: e332 e2bc 89cc 763d 1fe1 333e 04d1 ac3f
00000030: 81a2 aa3f 8754 733f 682f 503e dd07 0bbe
00000040: 0db6 23c0 1832 4fbf 8a2a c53d 05e7 e63d
00000050: 5a12 7fbc d623 9f3f 77e1 023e e1cb af3d
00000060: e0ee 023e 4a28 a7be 72d7 28be 4c16 163d
00000070: 4483 5ebe 305a 163b 37af a63e ec9e afbd
00000080: 39a9 c23c 3fe1 e73f 0155 45bf a930 2940
00000090: 9d34 273f c2a7 39bb 927a c8be 9b55 1e3e
000000a0: 38a2 0d40 d5b5 1b3f 7ae3 0ebd a257 a93d
000000b0: 4445 cabe 081c e8bd 4aae 58bf ac50 143f
000000c0: 0e63 dc3e 43eb 10bf 9a8f cc3c 1fbd 003b
000000d0: 66c8 e53f 80c6 543e 5f74 92bd 875d 813e
000000e0: d05c 21be 8d8f d4bd c7d5 84bd cb7f bf3d
000000f0: 9717 1a40 b50c 5abe 74e9 9ebd ce1c 24be
00000100: 6e7d 273e 30fc da3e 4e77 5cbf 2892 d1bd
00000110: e3f0 4fbe 70c8 c93c 17cd bd3e 4929 563e
00000120: 5342 85be 9250 61be 504c 88ba a217 c0bf
00000130: 7423 bbbe 3925 a63e 103f 8e3f 0dcc 8cbc
00000140: f94b 11c0 d6b5 89be 2adb 73be 6d80 25be
00000150: 756f f93e d881 ec3e 72b9 38bd 8620 513d
00000160: 807f dfbd 62e2 153d b687 ffbc 57d9 60bd
00000170: 5291 ac3e e3df a43c 8e25 a4bf 090a e1bd
00000180: 7c86 573e 513d 0040 2a82 17c0 b27a 2abf
00000190: 2d52 383f b00f ad3d ef1a 2f3e d780 c0be
000001a0: 45ec 213f 0f20 6dbf c3bf 19be 8ba4 73bb
000001b0: c991 1e3e 8e3e 253e cbaa e7be 3f00 a43e
000001c0: 3634 c03e 292f 9f3c 7d49 b5bd 4000 83be
000001d0: 8b89 c53f 13e9 90be 152f 9a3d 67c7 9f3d
000001e0: 199e 57be 6793 153c 32a7 17be 6f75 adbe
000001f0: 5221 053f 1124 04be b8de f23d c71d d6bd
00000200: b8ba fe3a c4d8 19bf 573a c4be e049 313d
00000210: b10a 79bf 7b5d 9dbd b123 09be 98da 743e
00000220: 1c08 e33e 79b6 2cbe efdb 82bd b18f be3f
00000230: 275a 3340 864e 4040 c8d0 adbe dad8 5d3c
00000240: e0a8 583d 9a73 b03d da37 543d 7c7a 2abd
00000250: 1080 943d b0f1 c1bf 8441 843d ce35 b8bc
00000260: e420 013e c319 45be 710c 7bbe 2a12 a43d
00000270: f3a4 6dbe df02 0c3d 760d 603f 8ad6 853d
00000280: 890a 863a 93e4 64bf 1eef a73f 39ca 36bf
00000290: 7c7d c0bf d0ae d83d ba39 3cbe ba2b b93f
000002a0: 97e3 82bf d441 053d 1caf c8bd b665 4cbd
000002b0: 0560 29be eb92 893d 6b07 3a3f 8b64 7ebf
000002c0: 65b3 1bbd 91f6 c83f a659 f13d 86b3 5d3e
000002d0: 2124 3f3f 10ed f53d 1fa3 2a3d e7d2 30be
000002e0: b436 933e eb29 153d 7606 513d 1f8b d43d
000002f0: 09b0 213f 39df bfbd 38d9 c23c f0d5 5cbe
00000300: 1246 25bd 0ea0 693e be9e 763f cb6d db3d
00000310: 9dfa 703f bf8a 01bc 9406 c0be f8d9 afbe
00000320: 7938 3ebf 5966 46bf ea77 b63b be3f bbbf
00000330: 1ffe 1440 1684 533e f1e5 6640 82e9 833d
00000340: b5d9 97bd 6e66 6bbc 907d 3d3e 6607 073d
00000350: 5da7 053e 08b7 b13f c4c3 3fbe c755 653c
00000360: 8d27 d63c ea83 483e 58e2 f03d 3913 2b3e
00000370: cb0e 1a3c 90b9 a1be a59b 24bf c1af 983d
00000380: 78ff 43bc fc29 7dbf c4d4 53c0 6e3a 3cbf
00000390: 9a3a 233f d003 15be 4bb3 113f f8d0 2d40
000003a0: 1b7a 21c0 fb01 4ebe c78c 2ebe 9a9b 7fbd
000003b0: da77 95be b409 a53c 1930 f83d d556 443e
000003c0: cd47 a4be dcff 90bf f3a3 debc e0c7 933d
000003d0: d523 503e bd01 c5bd 45c4 2a3e 393a eeba
000003e0: 7cc4 4e3d 8862 8b3d 5d06 01be 598f dbbb
000003f0: 40c8 52c0 8c05 c43d 916c e93e 5bda 5bbe

fc3.bias f4 [32]
-1.6573792 -1.171623 -2.0477622 3.2105691 -0.36638135 -1.4337043 -2.0415912 0.46599743
-2.1950483 1.4173026 -1.2304746 -0.10748573 0.17651163 2.3147938 -1.0228084 -1.2614019
-1.0772711 -1.1136857 -0.07166206 -0.49987137 -0.56861 -0.98034984 0.5834505 -4.9226794
-2.2944193 -0.15782525 0.44031683 0.29437506 2.3549016 -2.7019296 -0.944927 3.6599505
00000000: 0025 d4bf bef7 95bf 890e 03c0 f779 4d40
00000010: 5696 bbbe 9f83 b7bf 6ea9 02c0 3797 ee3e
00000020: ac7b 0cc0 2c6a b53f 3180 9dbf 7a21 dcbd
00000030: 77bf 343e 9525 1440 63eb 82bf 9e75 a1bf
00000040: 05e4 89bf 418d 8ebf 8fc3 92bd 24ef ffbe
00000050: 6d90 11bf 35f8 7abf 035d 153f 9786 9dc0
00000060: c4d7 12c0 f19c 21be 3571 e13e 54b8 963e
00000070: b5b6 1640 6aec 2cc0 bce6 71bf a13c 6a40

in_fn.weight f4 [33]
2.237235 0.34869498 0.15478118 0.3865083 0.764196 0.36247426 0.24285878 0.23685668
0.17400661 0.18502967 0.2610083 0.5786889 -0.21956444 0.2835558 0.21447784 0.29929277
0.5168898 0.1886628 -0.15605398 0.16702487 0.49289426 0.17930795 -0.3075091 0.2785151
0.64222795 -0.62552583 0.22173624 0.25260222 0.76018703 0.45792368 0.53722525 0.4935788
0.74447024
00000000: dc2e 0f40 2688 b23e f57e 1e3e 6ae4 c53e
00000010: 59a2 433f 3a96 b93e f9af 783e 8f8a 723e
00000020: ca2e 323e 6b78 3d3e e1a2 853e f524 143f
00000030: 80d5 60be 3a2e 913e 14a0 5b3e e73c 993e
00000040: e452 043f d230 413e 9dcc 1fbe 9108 2b3e
00000050: a35c fc3e 819c 373e d571 9dbe 8899 8e3e
00000060: 0d69 243f 7622 20bf d30e 633e 1455 813e
00000070: 9e9b 423f f974 ea3e 9887 093f 5cb6 fc3e
00000080: 9a95 3e3f

in_fn.bias f4 [33]
0.18145412 0.033061266 0.027111128 -0.03549657 0.8551719 0.09005763 -0.028535636 0.029265651
-0.029176747 0.0049810614 -0.018741703 0.19626537 0.053079724 0.059309006 -0.026247952 -0.029469721
0.061015226 -0.058626886 0.049749482 -0.0061914325 -0.015591002 0.046578385 -0.031581443 0.012806552
0.20702408 -0.08757275 -0.007023226 -0.04757847 0.15416348 0.10057992 0.94801736 0.07848659
0.19049473
00000000: 1ccf 393e 406b 073d 2818 de3c da64 11bd
00000010: 8cec 5a3f 2270 b83d 91c3 e9bc 85be ef3c
00000020: 1304 efbc 2c38 a33b 3388 99bc caf9 483e
00000030: 206a 593d 00ee 723d f205 d7bc 7c6a f1bc
00000040: 1aeb 793d bf22 70bd 1dc6 4b3d 80e1 cabb
00000050: 6771 7fbc fac8 3e3d 8b5b 01bd 93d2 513c
00000060: 1ffe 533e 5859 b3bd 1723 e6bb a4e1 42bd
00000070: 08dd 1d3e d8fc cd3d 44b1 723f 94bd a03d
00000080: 0d11 433e

in_fn.running_mean f4 [33]
2.1989706 0.0077653574 0.0047184285 0.012779507 0.08020198 0.01709008 0.029010784 0.036444716
0.006629165 0.0072783683 0.014991929 0.012782104 0.0050692437 0.018258192 0.029814605 0.0063781766
0.0275462 0.009813247 0.0057251365 0.006152426 0.01402837 0.01197109 0.026922049 0.0066075027
0.06151004 0.020939507 0.014675719 0.010776509 0.12284808 0.036692817 0.0997521 0.045325927
0.18950064
00000000: efbb 0c40 8a74 fe3b 0c9d 9a3b 2361 513c
00000010: f040 a43d 7f00 8c3c 06a8 ed3c 0e47 153d
00000020: 7739 d93b 617f ee3b b5a0 753c 086c 513c
00000030: e61b a63b 3492 953c c23d f43c 0600 d13b
00000040: 92a8 e13c bec7 203c ed99 bb3b 4a9a c93b
00000050: 40d7 653c 6422 443c a18b dc3c c083 d83b
00000060: f4f1 7b3d 5489 ab3c 6d72 703c f48f 303c
00000070: c697 fb3d 354b 163d d44a cc3d aea7 393d
00000080: 750c 423e

in_fn.running_var f4 [33]
6.717914 0.0077034794 0.004695536 0.01248694 0.07285098 0.016494494 0.028064055 0.03509429
0.0065849833 0.0072235814 0.014713258 0.012597613 0.0050425082 0.017830782 0.028561203 0.0063246028
0.02670156 0.009705246 0.0056828884 0.0061110673 0.013701623 0.0114478795 0.024185104 0.006558036
0.053542342 0.02008416 0.013780393 0.010649174 0.10757982 0.03507467 0.08964382 0.04259579
0.1522209
00000000: 27f9 d640 786d fc3b 03dd 993b 0696 4c3c
00000010: e532 953d 761f 873c 97e6 e53c 08bf 0f3d
00000020: d8c6 d73b cbb3 ec3b e00f 713c 3866 4e3c
00000030: a03b a53b dc11 923c 2ff9 e93c 9d3e cf3b
00000040: 3bbd da3c c102 1f3c 8637 ba3b 593f c83b
00000050: c67c 603c e38f 3b3c d71f c63c cbe4 d63b
00000060: 374f 5b3d 8987 a43c 28c7 613c e079 2e3c
00000070: cf52 dc3d 75aa 0f3d 2e97 b73d ec78 2e3d
00000080: ccdf 1b3e

fc1.weight f4 [64, 33]
-0.2311981 -0.48225287 -0.20646483 0.13709846 -1.4170322 -0.08080382 0.2537709 -0.061672926
0.043065444 0.081109464 0.04114864 -0.5641974 0.28538725 -0.017005946 -0.3463129 0.15021145
0.174578 0.104952164 -0.27302286 0.20590678 0.12402127 0.1523754 -0.017590776 0.33061063
0.4095663 -0.05139617 0.23042339 -0.05385116 0.23928604 0.43618405 -1.285834 -0.55511504
0.32518834 -0.6169084 -0.0351745 0.3302242 -0.5618661 -0.46231568 -0.08529063 0.69655514
0.004191892 -0.029526932 0.0020387997 -0.863224 -0.57263786 0.25515792 -0.2931643 -0.81218505
-0.4025959 -0.30847147 1.0402372 0.20917459 -0.4614262 -0.9733164 -0.1499407 0.34005493
-0.21123411 -0.166056 0.67974585 -0.28537086 -0.13611881 -0.012482249 -0.22052108 -0.63311094
-0.1310884 -0.20971055 -2.1202075 0.38953266 -0.33681548 -0.44861516 0.28777024 0.38563448
-0.21473306 -0.6567163 0.5067766 -0.82179886 0.3620362 -0.6098911 0.14120302 0.14372742
0.29961202 0.098453015 -0.31446028 -0.05352055 0.07534397 -0.29430488 0.5535243 0.38513806
0.35018492 0.23647416 -0.12101163 -0.34796166 0.1830889 0.20172161 -0.1751818 0.07990131
-0.84432167 -0.5018321 0.30525324 -1.4128838 -0.2908197 -0.2580942 -0.013970687 -1.5132976
-0.6049259 0.10989121 0.15012982 -0.105175965 0.23419988 -0.047861487 -0.79937375 -0.06835251
-0.4830939 -0.48469552 0.08562684 -0.37483004 0.07944346 0.07309976 0.09446629 -0.055234082
-0.17324047 0.1074746 0.15860422 0.3234084 0.8834866 0.11347715 -0.032972842 1.0433353
1.0335963 -0.7594523 -0.23891868 0.064335376 -2.0975156 -0.35223964 -0.2537351 0.34980252
-1.4327725 -0.65752554 0.6437528 0.41932297 -0.23148225 0.3804779 -0.45429716 -0.79157555
-0.31855446 -0.3569574 -0.59356344 0.7487998 0.027801882 -0.0925376 0.49373966 -0.38176832
0.6539683 -0.39368308 -0.5161893 1.048568 0.061455857 -0.4807324 0.3051824 0.77489716
0.3683762 0.17730133 -0.39254457 0.90604895 -0.25878218 -0.9866003 0.3649867 0.13763072
0.051835883 -1.2339263 -0.6928818 -0.022362974 -0.1651203 -0.5422016 -0.4509945 -0.79850763
-1.2979002 0.052059215 0.223084 -0.9345858 0.48098168 -0.5219165 -0.4579622 -0.04903173
-0.30883673 -0.4094374 -0.23859921 -0.42757577 -0.031819668 0.3841415 -0.27195367 0.5715983
-0.20908363 -0.09766792 -0.82254285 -1.14052 -0.9327687 -0.37264165 -1.5827746 -0.31294796
-0.1589798 -0.022307977 -1.7466487 -0.6034371 0.12175456 -0.20861416 -0.16656475 -0.019230423
0.16282126 -0.98326373 -0.11832916 0.06539621 -0.46345568 0.08414861 -0.30583984 0.32437932
-0.006658708 -0.07804008 0.9906691 0.47673 0.32493982 -0.3909084 0.13642246 -0.04336433
0.2370262 -0.36607394 0.4628871 -0.5778854 -2.4449139 -0.8124951 0.80192083 -0.27120745
-0.34448558 -0.0147303175 0.27134773 -0.8207928 -0.44863224 0.18085971 0.14456339 0.2844983
0.17777568 0.013781148 -0.15160318 0.3938106 -0.07974075 -0.3267804 0.093673095 -0.03194462
0.08918838 -0.2561257 -0.005544372 0.25202754 0.025658734 0.05274353 0.07277811 0.027288955
00000000: 32bf 6cbe d9e9 f6be 846b 53be 8a63 0c3e
00000010: 5061 b5bf 797c a5bd 42ee 813e c09c 7cbd
00000020: 6465 303d b81c a63d 7a8b 283d 3e6f 10bf
00000030: 471e 923e 0e50 8bbc ed4f b1be 08d1 193e
00000040: 93c4 323e 29f1 d63d a7c9 8bbe 3ad9 523e
00000050: ddfe fd3d 4c08 1c3e 881a 90bc cc45 a93e
00000060: adb2 d13e ca84 52bd 1cf4 6b3e 0993 5cbd
00000070: 6607 753e 8453 df3e 3596 a4bf 051c 0ebf
00000080: 167f a63e b5ed 1dbf 2313 10bd 2513 a93e
00000090: 75d6 0fbf a4b4 ecbe dbac aebd 7051 323f
000000a0: 245c 893b 77e2 f1bc 629d 053b 40fc 5cbf
000000b0: 6598 12bf 0fa4 823e a219 96be 5ceb 4fbf
000000c0: 0d21 cebe f9ef 9dbe 7e26 853f dd31 563e
000000d0: 0e40 ecbe 432b 79bf 0e8a 19be ae1b ae3e
000000e0: c14d 58be 960a 2abe d303 2e3f 211c 92be
000000f0: bb62 0bbe 5982 4cbc 47d0 61be 8f13 22bf
00000100: 0a3c 06be 5dbe 56be 7bb1 07c0 d370 c73e
00000110: 1473 acbe e3b0 e5be 9f56 933e e271 c53e
00000120: fce2 5bbe 8f1e 28bf 1cbc 013f 6961 52bf
00000130: cf5c b93e d321 1cbf 8697 103e 482d 133e
00000140: bf66 993e bca1 c93d f000 a1be 5d38 5bbd
00000150: f04d 9a3d 21af 96be c5b3 0d3f d130 c53e
00000160: 704b b33e 4826 723e f2d4 f7bd 0828 b2be
00000170: a87b 3b3e 1c90 4e3e dc62 33be 4ca3 a33d
00000180: 7725 58bf 1278 00bf 274a 9c3e 60d9 b4bf
00000190: 52e6 94be ec24 84be 4fe5 64bc bcb3 c1bf
000001a0: 6cdc 1abf a50e e13d a2bb 193e 7f66 d7bd
000001b0: 18d2 6f3e 680a 44bd c2a3 4cbf 67fc 8bbd
000001c0: 1558 f7be 032a f8be 205d af3d b9e9 bfbe
000001d0: 41b3 a23d 54b5 953d 8b77 c13d 223d 62bd
000001e0: f365 31be a51b dc3d 2569 223e c995 a53e
000001f0: 2e2c 623f b566 e83d 880e 07bd 038c 853f
00000200: e24c 843f 776b 42bf 19a7 74be 44c2 833d
00000210: b23d 06c0 c158 b4be 91e9 81be 5119 b33e
00000220: 1765 b7bf 9853 28bf fccc 243f 80b1 d63e
00000230: af09 6dbe 00ce c23e a399 e8be b2a4 4abf
00000240: 9219 a3be 1fc3 b6be c6f3 17bf 58b1 3f3f
00000250: c6c0 e33c 5a84 bdbd 72cb fc3e 2377 c3be
00000260: 776a 273f d490 c9be fb24 04bf 7a37 863f
00000270: 23b9 7b3d 8f22 f6be de40 9c3e a95f 463f
00000280: ce9b bc3e 7b8e 353e 9afb c8be d3f2 673f
00000290: 197f 84be d691 7cbf 89df ba3e 11ef 0c3e
000002a0: dd51 543d 4cf1 9dbf b460 31bf 8e32 b7bc
000002b0: 4c15 29be b9cd 0abf c0e8 e6be ff6a 4cbf
000002c0: 9821 a6bf 0b3c 553d 2270 643e 0441 6fbf
000002d0: 3b43 f63e 529c 05bf 057a eabe 7fd5 48bd
000002e0: d91f 9ebe c7a1 d1be 5a53 74be 36eb dabe
000002f0: 5755 02bd 32ae c43e 833d 8bbe 4454 123f
00000300: 051a 56be 1e06 c8bd 2b92 52bf 8ffc 91bf
00000310: eec9 6ebf e3ca bebe 5c98 cabf b73a a0be
00000320: 9acb 22be 38bf b6bc 2f92 dfbf db7a 1abf
00000330: 745a f93d f39e 55be f38f 2abe 1f89 9dbc
00000340: 9eba 263e 2cb7 7bbf 8f56 f2bd 73ee 853d
00000350: 104a edbe 1b56 ac3d 0a97 9cbe 0c15 a63e
00000360: 4b31 dabb 7ad3 9fbd 7d9c 7d3f f415 f43e
00000370: 835e a63e 2525 c8be 54b2 0b3e cc9e 31bd
00000380: ffb6 723e 0b6e bbbe 8aff ec3e 4cf0 13bf
00000390: 7879 1cc0 aeff 4fbf af4a 4d3f b4db 8abe
000003a0: 6a60 b0be 6e57 71bc 17ee 8a3e 7a1f 52bf
000003b0: 20b3 e5be 4a33 393e 6d08 143e c3a9 913e
000003c0: d40a 363e 53ca 613c dd3d 1bbe 8ba1 c93e
000003d0: 1e4f a3bd c34f a7be aed7 bf3d 5dd8 02bd
000003e0: 66a8 b63d e822 83be 90ad b5bb c109 813e
000003f0: 4432 d23c 9a09 583d b10c 953d 168d df3c

fc1.bias f4 [64]
-1.0270513 -0.5206421 -1.416734 -1.6692495 -1.7517296 -0.6693614 -2.5173893 -1.0321239
-1.0603477 -0.7442164 -0.19342202 -1.1684893 -1.3065419 -0.26625726 -2.4926362 -0.67464143
-0.33020526 -1.3555918 -1.2330688 0.20095223 -1.1915473 -1.1843709 -1.02539 -0.95836854
-1.1832836 -2.1586683 -1.216421 -1.4687598 -1.3104393 -0.17434402 -1.5324548 -0.9232755
0.20667396 -0.9362504 -0.88049394 -1.3118459 -1.2066095 -1.1611165 -1.8880397 -1.0231249
-0.153024 -2.1354957 0.028690772 -1.0863502 -2.2732732 -2.3722537 -1.7615632 -0.9496787
-0.7257829 -2.6556904 -1.199848 -1.0239925 -1.9018233 -2.0037138 -1.1486901 -1.483972
-1.2905936 -1.1917 -2.4765425 -0.80447805 -1.3254038 -1.924139 -1.549767 -1.30666
00000000: 6b76 83bf cd48 05bf 8a57 b5bf f8a9 d5bf
00000010: ad38 e0bf 455b 2bbf e81c 21c0 a31c 84bf
00000020: 79b9 87bf f784 3ebf 6c10 46be 0f91 95bf
00000030: c43c a7bf df52 88be 5a87 1fc0 4db5 2cbf
00000040: aa10 a9be 0884 adbf 33d5 9dbf 6cc6 4d3e
00000050: 9f84 98bf 7799 97bf fb3f 83bf a457 75bf
00000060: d675 97bf 9f27 0ac0 afb3 9bbf 5200 bcbf
00000070: 7abc a7bf 3d87 32be 7b27 c4bf c85b 6cbf
00000080: 57a2 533e 1bae 6fbf 0d68 61bf 91ea a7bf
00000090: 2e72 9abf 779f 94bf 49ab f1bf c2f5 82bf
000000a0: 53b2 1cbe f6ab 08c0 e908 eb3c 860d 8bbf
000000b0: 4f7d 11c0 01d3 17c0 e77a e1bf 251e 73bf
000000c0: e8cc 39bf d5f6 29c0 9f94 99bf 3012 83bf
000000d0: f26e f3bf d93c 00c0 4708 93bf cbf2 bdbf
000000e0: 2c32 a5bf a089 98bf ac7f 1ec0 46f2 4dbf
000000f0: d5a6 a9bf 304a f6bf c45e c6bf a340 a7bf

fc2.weight f4 [64, 64]
-0.09980689 0.04191103 -0.05148782 -0.16659687 -0.01782681 -0.045080543 -0.008229055 0.06944848
-0.12496623 -0.10442596 -0.33349028 -0.46068725 5.5367993e-05 -0.34212524 -0.01055188 -0.2396081
-0.29650092 0.033074602 -0.04807977 -0.4864646 -0.17763127 -0.22725144 -0.27903244 -0.04469555
-0.025831498 -0.0967853 -0.08224117 -0.15466347 -0.06274659 -0.20493236 -0.06002251 -0.26763275
-0.17250611 -0.094242424 -0.009286009 0.04311674 0.016195398 -0.121905856 -0.25000322 0.019192498
-0.13121697 0.05228562 -0.028968327 0.09302267 -0.14213067 -0.021146253 -0.1982842 -0.030991515
-0.20815141 0.013637627 -0.057776526 -0.0044815093 -0.09103619 -0.03698873 -0.19249791 -0.20543979
-0.02901846 -0.07642582 0.070454344 -0.048182245 -0.0032260644 -0.20501634 0.09823387 0.059574027
-0.31390545 -0.68029094 -0.77541476 -0.2864264 -0.39039174 -0.8775869 0.025366751 0.011097963
-0.19153161 -0.33483362 0.15444937 0.13272384 -0.24119273 -0.2744168 0.1129404 -0.083860874
-0.9157521 -0.36532238 -1.3264376 -0.47417516 -0.079174764 -0.026236402 -0.9508572 -0.11948389
-0.53767854 -0.31290042 -0.23841365 0.17406756 -0.10581378 -0.4218321 -0.31478426 -0.18289708
-0.5230733 -0.6336055 -0.10567438 -0.08532521 0.020109074 -0.10482741 -0.181568 -0.25091094
-0.6067415 0.34043553 -0.2778888 0.023494374 -0.090061 0.003974619 -0.44815254 -0.19529852
-0.13820106 -0.19808109 -0.04848362 -0.5406846 -0.21529718 -0.38166887 -0.42877784 -0.080481954
-0.4204712 -0.18735732 -0.09855905 -1.0959749 -0.16951059 -0.29368713 -0.17095642 -0.0055625886
-0.21733029 -0.78934866 -0.5661573 -0.11957676 -0.3168848 -0.21016929 -0.18830559 -0.30896217
-0.22378072 -0.16204818 -0.64409596 -0.31884125 -0.03145086 -0.68785036 -0.48143896 0.014501475
-0.28996477 -0.16110583 -0.4111318 -0.19229949 -0.1648514 -0.27283505 -0.27802178 -0.039775595
-0.34378883 -0.6562428 0.0524906 -0.014846642 0.09091466 -0.23448311 0.028882729 -0.13925163
0.010755414 -0.36199516 0.18319203 0.028855676 -0.07951655 -0.14748923 -0.22982173 0.054564524
-0.04253802 0.023593191 -0.023090186 -0.003751683 0.1495016 -0.022627065 -0.32377315 0.055545326
0.08964472 -0.13477448 0.0043598516 -0.14985688 -0.6566765 -0.026310636 -0.3267109 -0.10511783
-1.0024557 0.00079637836 0.30446532 -0.03558428 -0.13633499 -0.41061795 -0.020484528 0.08332237
-0.34382978 -0.18942016 -0.45369118 -0.1927714 -0.5461971 0.5510977 -0.2246262 0.090428
-0.34692717 0.015511061 0.26677993 -0.7063441 -0.24125616 -0.45986867 -0.41474658 -0.14263642
-0.032832284 0.0418125 -0.3545653 -1.3644588 -0.09170633 -0.15665792 -0.41716567 -0.61875165
-0.05608852 -0.1321143 -0.27373344 -0.0664689 -0.0052410434 -0.4468563 -0.13147654 -0.18683338
-1.0027114 0.19531964 -0.05475222 -0.04602224 -0.16638601 -0.06466193 -0.47233048 0.23760825
-0.41117504 -0.14912438 -0.18766424 -0.050547104 0.2459135 -0.09731708 0.48824498 -0.122617155
0.03521866 -0.15472285 -0.029273108 -0.30119157 -0.20304382 -0.1664742 -0.43853197 -0.07062586
-0.13428532 0.07981738 -0.11163416 -0.44478783 -0.08883895 -0.18603328 0.08566784 -0.36153543
00000000: 8e67 ccbd e6aa 2b3d e4e4 52bd 5f98 2abe
00000010: 8809 92bc 60a6 38bd 29d3 06bc 013b 8e3d
00000020: 4bee ffbd 47dd d5bd 3dbf aabe 33df ebbe
00000030: ee3a 6838 0a2b afbe cbe1 2cbc d35b 75be
00000040: f8ce 97be 3c79 073d 4bef 44bd e311 f9be
00000050: f9e4 35be 9ab4 68be 57dd 8ebe ae12 37bd
00000060: 949c d3bc 5f37 c6bd 0f6e a8bd 1a60 1ebe
00000070: 4981 80bd cad9 51be 2ada 75bd 2907 89be
00000080: 71a5 30be 2c02 c1bd 5824 18bc 2e9b 303d
00000090: 36ac 843c c7a9 f9bd 6c00 80be 9639 9d3c
000000a0: be5d 06be 7229 563d fc4e edbc ab82 be3d
000000b0: b48a 11be e83a adbc 030b 4bbe ebe1 fdbc
000000c0: a525 55be 5a70 5f3c 14a7 6cbd a0d9 92bb
000000d0: 2f71 babd 7f81 17bd 2c1e 45be cf5e 52be
000000e0: 1fb8 edbc 2485 9cbd 5e4a 903d bf5a 45bd
000000f0: 616c 53bb ceef 51be d72e c93d e503 743d
00000100: 37b8 a0be 8c27 2ebf 9581 46bf 7ba6 92be
00000110: 6de1 c7be 89a9 60bf efcd cf3c 3bd4 353c
00000120: dd20 44be 506f abbe fa27 1e3e c2e8 073e
00000130: 3afb 76be 5c80 8cbe 4c4d e73d 40bf abbd
00000140: bb6e 6abf 890b bbbe b5c8 a9bf 16c7 f2be
00000150: 6126 a2bd b9ed d6bc 616b 73bf f8b3 f4bd
00000160: 4da5 09bf 7c34 a0be b522 74be c43e 323e
00000170: e5b4 d8bd 61fa d7be 672b a1be 5f49 3bbe
00000180: 22e8 05bf f833 22bf cf6b d8bd fcbe aebd
00000190: c9bb a43c c1af d6bd f6ec 39be 6677 80be
000001a0: 6953 1bbf 914d ae3e 7147 8ebe 4677 c03c
000001b0: e771 b8bd 853d 823b 4074 e5be 56fc 47be
000001c0: 9484 0dbe c5d5 4abe c396 46bd 4e6a 0abf
000001d0: dd76 5cbe 1a6a c3be c588 dbbe b9d3 a4bd
000001e0: 0048 d7be 99da 3fbe 54d9 c9bd e848 8cbf
000001f0: 2f94 2dbe 295e 96be 330f 2fbe 6046 b6bb
00000200: d58b 5ebe c112 4abf afef 10bf a9e4 f4bd
00000210: b93e a2be 9e36 57be 2ed3 40be 4a30 9ebe
00000220: c626 65be f5ef 25be 79e3 24bf 293f a3be
00000230: 9ed2 00bd f616 30bf 2b7f f6be 9897 6d3c
00000240: 4376 94be edf8 24be de7f d2be 28ea 44be
00000250: cece 28be 09b1 8bbe df58 8ebe bceb 22bd
00000260: 1705 b0be 87ff 27bf 6200 573d 543f 73bc
00000270: 7731 ba3d 571c 70be 799b ec3c fb97 0ebe
00000280: 7a37 303c 6e57 b9be b196 3b3e bd62 ec3c
00000290: 93d9 a2bd 6b07 17be 6356 6bbe 0d7f 5f3d
000002a0: 593c 2ebd 8246 c13c a127 bdbc ccde 75bb
000002b0: f316 193e 655c b9bc 98c5 a5be 7f83 633d
000002c0: a797 b73d 5202 0abe 16dd 8e3b 1574 19be
000002d0: f31b 28bf 6789 d7bc a746 a7be 0448 d7bd
000002e0: 7850 80bf 0cc4 503a e1e2 9b3e d2c0 11bd
000002f0: 669b 0bbe 843c d2be 2bcf a7bc eba4 aa3d
00000300: 750a b0be 5cf7 41be 364a e8be de65 45be
00000310: 93d3 0bbf bd14 0d3f 6904 66be 5132 b93d
00000320: 70a0 b1be 1b22 7e3c 6197 883e f8d2 34bf
00000330: db0b 77be e873 ebbe aa59 d4be 480f 12be
00000340: 257b 06bd 9643 2b3d 9589 b5be 96a6 aebf
00000350: 87d0 bbbd ef6a 20be bd96 d5be 8266 1ebf
00000360: 13bd 65bd f948 07be ca26 8cbe d920 88bd
00000370: 0fbd abbb 59ca e4be c9a1 06be 4051 3fbe
00000380: d958 80bf df01 483e dd43 60bd d181 3cbd
00000390: 1861 2abe 796d 84bd 4dd5 f1be 944f 733e
000003a0: 8985 d2be 10b4 18be 0e2b 40be 7b0a 4fbd
000003b0: c0d0 7b3e 2d4e c7bd 3ffb f93e b41e fbbd
000003c0: 7141 103d ab6f 1ebe 28ce efbc c835 9abe
000003d0: b8ea 4fbe 3678 2abe 4387 e0be 4aa4 90bd
000003e0: 1782 09be 4b77 a33d 73a0 e4bd 3bbb e3be
000003f0: 32f1 b5bd 827f 3ebe 9f72 af3d 2c1b b9be

fc2.bias f4 [64]
-0.2236474 -0.5162163 -0.48411492 -0.8963367 -0.122858286 -0.5034278 -0.34239152 -0.13066263
-0.28521276 -0.16527893 -0.110605456 -0.53629416 0.6006379 -0.1894958 -1.0881156 -0.3449252
-0.4411668 -0.50710404 0.40540615 0.6769617 0.024696661 -0.21391913 -0.10188097 -0.60781145
-0.5090429 -0.01689893 -0.07625217 -0.82450134 1.4433076 0.9500826 -0.4986968 -0.4321151
-0.4874851 -0.046119004 -0.4124771 -0.2417886 -0.1991434 -0.31866348 -0.11274062 -0.14833847
-0.8030161 -0.091938265 -0.2164039 0.5278911 -0.21689728 -0.4171539 -0.22484969 -0.53062165
-0.15063415 -0.27711594 0.330897 -0.35940528 -0.58506054 -0.2370706 -0.7177864 -0.4303
-0.34592557 0.97604686 -0.17093457 -0.42651045 -0.05975327 0.19650601 -0.051561393 -0.45710856
00000000: d303 65be c026 04bf e9dd f7be 5276 65bf
00000010: 209d fbbd a5e0 00bf f14d afbe 6dcc 05be
00000020: 6807 92be e13e 29be 1d85 e2bd 934a 09bf
00000030: 68c3 193f 300b 42be 5f47 8bbf 099a b0be
00000040: 9de0 e1be 92d1 01bf 6591 cf3e 5d4d 2d3f
00000050: a750 ca3c 9e0d 5bbe f8a6 d0bd 8899 1bbf
00000060: a350 02bf a06f 8abc 192a 9cbd 8512 53bf
00000070: 4ebe b83f 9d38 733f 3055 ffbe 313e ddbe
00000080: a697 f9be 48e7 3cbd 3330 d3be 6e97 77be
00000090: 3fec 4bbe dc27 a3be 8ee4 e6bd 0ae6 17be
000000a0: 7792 4dbf 214a bcbd fc98 5dbe df23 073f
000000b0: 521a 5ebe 3295 d5be ff3e 66be d2d6 07bf
000000c0: d73f 1abe 24e2 8dbe 556b a93e f803 b8be
000000d0: 87c6 15bf a3c2 72be d9c0 37bf 4850 dcbe
000000e0: 281d b1be 35de 793f 7909 2fbe 945f dabe
000000f0: d8bf 74bd df38 493e 0a32 53bd 220a eabe

fc3.weight f4 [1, 64]
0.10851966 0.031309 0.062783115 -0.072810546 -0.010983765 -0.1491553 -0.31065717 -0.033438347
-0.021228533 -0.038982283 -0.058484912 -0.29938954 0.5416852 -0.12491087 0.014126801 0.019291228
0.13993351 -0.1989893 0.20510407 0.07783675 -0.5257354 0.014750405 -0.0037884528 0.20585276
0.0546645 -0.020102724 -0.036786035 -0.18857698 0.09703206 -0.11582145 0.069826595 -0.2453788
-0.084384575 -0.0047609974 -0.11018019 -0.1276554 -0.012898176 0.09777236 -0.010552809 -0.067631714
-0.23717012 0.018750004 -0.2766019 -0.14457467 -0.23885669 0.07238999 0.032951668 -0.2285966
-0.15350354 0.047240056 0.104001366 0.11888189 0.17422716 -0.014133254 0.082659766 0.20748912
0.2774171 -0.17036293 0.0043668286 0.015437042 -0.001679152 -0.02103883 0.00081824197 0.08638884
00000000: 8e3f de3d de3d 003d 6f94 803d b21d 95bd
00000010: 40f5 33bc 2bbc 18be 750e 9fbe a6f6 08bd
00000020: 76e7 adbc e3ab 1fbd e08d 6fbd 9649 99be
00000030: e2ab 0a3f 45d1 ffbd 1974 673c a308 9e3c
00000040: bb4a 0f3e dac3 4bbe cd06 523e e068 9f3d
00000050: 9896 06bf afab 713c b147 78bb 11cb 523e
00000060: e2e7 5f3d 78ae a4bc f4ac 16bd 531a 41be
00000070: bfb8 c63d cc33 edbd 3f01 8f3d 9544 7bbe
00000080: d2d1 acbd 2402 9cbb 27a6 e1bd 19b8 02be
00000090: df52 53bc e03c c83d b0e5 2cbc 7f82 8abd
000000a0: b9dc 72be 9c99 993c c49e 8dbe 620b 14be
000000b0: d996 74be 3441 943d 54f8 063d 3a15 6abe
000000c0: 0830 1dbe ca7e 413d abfe d43d 5978 f33d
000000d0: 9b68 323e 2a8f 67bc 8649 a93d 0778 543e
000000e0: 9d09 8e3e 9f73 2ebe 9d17 8f3b a6eb 7c3c
000000f0: fe16 dcba a059 acbc 4a7f 563a a2ec b03d

fc1.weight f4 [64, 1]
0.0793089 -0.6174838 -1.059979 -0.024499303 -2.570818 0.1593107 -0.06364031 0.3245461
-0.28440234 -1.1375532 -0.18687488 -0.034220364 -0.07133378 -1.5237309 -0.07290876 -0.07255047
-0.13847439 -0.0039948225 0.087541796 0.055521965 -0.08476272 -2.4180233 -0.16761565 -0.10549027
-1.760248 0.04785606 -0.0069578015 1.0050986 -1.1117424 -0.16859563 -0.13763843 0.093313016
-0.024866056 -0.54933774 -1.5782586 -1.1543427 -0.030158954 -1.8135598 -0.07596209 -1.2035561
1.3134648 -0.42309844 -0.17237905 -0.29719055 -1.5340496 -0.009283293 0.07959501 -0.10254729
-0.12310047 -0.1096344 -1.225762 -1.3013511 -0.042873476 -0.08670733 0.13879624 0.08195013
-0.04682362 0.005117646 -0.11768464 0.05723448 -0.009737872 -0.039462227 0.41074643 0.10685819
00000000: b46c a23d 6b13 1ebf 64ad 87bf c3b2 c8bc
00000010: 4888 24c0 5822 233e da55 82bd e82a a63e
00000020: 2f9d 91be 589b 91bf 215c 3fbe a72a 0cbd
00000030: 7217 92bd 9d09 c3bf 3051 95bd 5795 94bd
00000040: 3bcc 0dbe 00e7 82bb 1d49 b33d 006b 633d
00000050: 1498 adbd e5c0 1ac0 70a3 2bbe 480b d8bd
00000060: ce4f e1bf b704 443d 45fe e3bb 12a7 803f
00000070: 934d 8ebf 55a4 2cbe 17f1 0cbe e51a bf3d
00000080: e6b3 cbbc 66a1 0cbf 6104 cabf 80c1 93bf
00000090: e90f f7bc ba22 e8bf 0392 9bbd 200e 9abf
000000a0: 9d1f a83f 5ca0 d8be 2284 30be 5c29 98be
000000b0: bd5b c4bf f418 18bc b502 a33d 5004 d2bd
000000c0: 191c fcbd 0088 e0bd c5e5 9cbf ac92 a6bf
000000d0: 199c 2fbd 9d93 b1bd 9a20 0e3e 78d5 a73d
000000e0: 20ca 3fbd edb1 a73b a504 f1bd b46e 6a3d
000000f0: 988b 1fbc 25a3 21bd 5b4d d23e 77d8 da3d

fc1.bias f4 [64]
-1.1158537 -0.79585093 -0.62550116 -0.06418272 -0.29594335 -1.3160897 -0.17981324 -1.6151146
-0.54036134 -0.81689394 -0.30355036 -0.09422424 -0.13216524 -0.3660916 -0.92611206 -0.22026397
-1.0208558 -0.75450915 -1.2124372 -0.6355441 -0.1418525 0.69395864 -0.88898194 -0.5941725
-0.37658653 -0.32361034 -0.061266743 -2.7010984 -0.33607978 -0.5309736 -1.0832976 -2.0290515
-0.058667608 -0.7124938 -0.7973811 -0.81020117 -0.11475507 -0.5210193 -0.17891172 -0.67189914
-0.20629805 -0.85042953 -0.3744889 -0.40498862 -0.23913833 -0.11091951 -0.48715967 -0.729046
-0.16735734 -0.663581 -0.6672018 -0.32173136 -0.5057966 -0.20351952 -2.0643137 -2.1237276
-0.6047716 -0.669632 -0.15346348 -0.8474984 -0.086343005 -1.3476921 -2.051916 -1.497443
00000000: 4bd4 8ebf e3bc 4bbf d820 20bf 3b72 83bd
00000010: e385 97be a175 a8bf f620 38be 13bc cebf
00000020: 1f55 0abf f61f 51bf f46a 9bbe a3f8 c0bd
00000030: 5356 07be 5c70 bbbe ae15 6dbf e18c 61be
00000040: 67ab 82bf 8327 41bf 2431 9bbf 05b3 22bf
00000050: c841 11be 46a7 313f 5294 63bf b01b 18bf
00000060: f3cf c0be 41b0 a5be d6f2 7abd ccde 2cc0
00000070: a612 acbe e3ed 07bf 7fa9 8abf fbdb 01c0
00000080: 724d 70bd fe65 36bf 2b21 4cbf 5869 4fbf
00000090: b504 ebbd 8561 05bf a234 37be 9501 2cbf
000000a0: cc3f 53be c0b5 59bf 02bd bfbe ab5a cfbe
000000b0: aee0 74be c529 e3bd fe6c f9be c2a2 3abf
000000c0: b95f 2bbe 72e0 29bf bdcd 2abf f9b9 a4be
000000d0: e37b 01bf 6c67 50be b71d 04c0 27eb 07c0
000000e0: 50d2 1abf 016d 2bbf 8825 1dbe a8f5 58bf
000000f0: 9ad4 b0bd 2d81 acbf 9752 03c0 36ac bfbf

fc2.weight f4 [64, 64]
0.072021365 0.010746588 -0.18009636 -0.22818841 0.08567989 0.082831696 -0.06343543 -0.0059989574
-0.09169476 -0.05697148 -0.55278295 -0.15018374 -0.36341733 -0.15756728 -0.07661903 -0.106812745
0.038685977 -0.028304413 -0.094590805 -0.045500554 -0.035949647 0.05141781 -0.04233159 -0.01819443
-0.07139638 -0.20707643 -0.5532896 -0.080452025 -0.12999265 -0.4998793 0.088871196 -0.12819557
-0.56151503 0.018269679 0.026970102 0.06486891 -0.6422556 -0.24882802 -0.37185138 -0.15011966
-0.19045119 -0.05697012 -0.5014559 -0.13317852 -0.10551858 -0.31722668 0.11213842 -0.22749849
-0.06337955 0.003980443 -0.12095322 -0.053358316 -0.43781295 -0.14380604 -0.10768744 -0.024691075
-0.08062348 0.088858314 -0.51890963 -0.09743534 -0.0477592 -0.14972478 0.04472646 -0.15357375
-0.15006751 -0.21741039 -0.2187038 -0.13737915 -0.16095878 -0.033809092 0.16737223 -0.15964003
0.016241815 -0.5905843 0.058644507 -0.05348833 0.030189315 -0.20074193 -0.009735331 0.24689087
0.02124931 0.05892451 -0.10199073 -0.06880655 0.2437512 0.0011560227 0.108982995 -0.008811019
-0.35815126 -0.1315081 -0.09051086 0.102695554 -0.19377266 -0.16515048 -0.008490829 -0.22253342
-0.18398556 -0.18412414 -0.12950091 -0.1367846 -0.15159488 -0.23171552 -0.17541292 -0.24268577
-0.13167946 -0.02662827 -0.33679786 0.10877746 -0.21128899 -0.1399213 -0.19664858 0.094257765
-0.023736736 -0.010949552 -0.041884784 0.007270446 -0.3804315 0.14609484 -0.26543912 -0.24603704
-0.08321117 0.0060131596 -0.26938793 0.069559805 -0.12769042 -0.04376792 -0.07849605 -0.1943553
-0.28093037 -0.52140707 -1.4168932 -0.081419654 -1.8714505 -0.03751203 0.09547221 -0.7144846
0.12212444 -2.4010086 0.077770345 -0.07153347 0.10641935 -0.9721736 0.035353497 0.24473915
0.029732242 0.10367778 -0.36747342 -0.24909326 0.11625189 -4.4577403 -0.05921507 0.7183171
-1.7484503 0.09974809 0.030588852 -0.94764024 -0.9883026 -0.22962339 -0.05886318 -0.40122756
0.27450797 -0.34384614 -0.825397 -2.0285747 0.29913664 -2.5658514 0.13373432 0.79865825
-4.1244307 0.0017213827 0.14175563 0.0077884486 0.68910486 -0.15379278 0.47568575 0.003554105
0.36223713 -0.047710195 -0.6730891 0.6683028 0.27342018 0.3125447 -0.7055081 -0.59243196
-0.117513284 -0.043984357 0.3642816 -0.13149767 0.53879964 -0.25308904 -0.05681278 -0.41475782
-0.15491635 -0.13481168 -0.10620105 -0.13454197 0.052165568 -0.18649343 -0.22291191 -0.054122746
-0.20930564 -0.10969166 -0.026461974 -0.0012005516 0.027792275 -0.22246338 0.0010868162 -0.18252376
-0.069914594 -0.07031919 -0.05258532 -0.11833359 -0.2251441 -0.08810744 -0.10356602 -0.035578236
-0.1534754 -0.14506817 -0.12410034 -0.2839315 -0.19501245 -0.1615429 0.103036046 -0.073378235
-0.13406216 -0.13143359 -0.008153598 0.0038521516 0.025474211 0.12653856 -0.02962922 -0.14808565
-0.16994716 -0.12246022 -0.024670666 -0.05338514 -0.11196632 -0.072227865 -0.20558184 -0.1802111
-0.121260926 -0.025300056 -0.20073597 -0.12022008 -0.09229751 -0.18066558 -0.0677888 -0.08114398
-0.046100378 0.033057697 -0.043184914 -0.0037353174 -0.15182137 -0.16809495 -0.0921783 -0.11771743
00000000: f07f 933d 7512 303c 2e6b 38be 39aa 69be
00000010: f078 af3d aaa3 a93d 6fea 81bd e792 c4bb
00000020: 76ca bbbd ed5a 69bd 2f83 0dbf c4c9 19be
00000030: d611 babe 5159 21be 70ea 9cbd a4c0 dabd
00000040: 3075 1e3d a8de e7bc d3b8 c1bd ca5e 3abd
00000050: f03f 13bd 7b9b 523d e463 2dbd 7c0c 95bc
00000060: 4438 92bd d80b 54be 63a4 0dbf 08c4 a4bd
00000070: cb1c 05be 2ef0 ffbe 1a02 b63d b345 03be
00000080: 73bf 0fbf 4baa 953c 67f0 dc3c fed9 843d
00000090: dd6a 24bf c6cc 7ebe 4e63 bebe f8b8 19be
000000a0: a305 43be 8059 69bd 6a5f 00bf f35f 08be
000000b0: 201a d8bd 896b a2be d4a8 e53d 5df5 68be
000000c0: 23cd 81bd 606e 823b 52b6 f7bd 408e 5abd
000000d0: 0529 e0be e441 13be 3c8b dcbd f044 cabc
000000e0: ec1d a5bd 59fb b53d 43d7 04bf 2e8c c7bd
000000f0: 279f 43bd 7451 19be 1833 373d 7042 1dbe
00000100: 4cab 19be d4a0 5ebe e4f3 5fbe 1fad 0cbe
00000110: 61d2 24be 677b 0abd a063 2b3e ad78 23be
00000120: 8e0d 853c 8830 17bf 3935 703d 9416 5bbd
00000130: 954f f73c 4b8f 4dbe f080 1fbc f6d0 7c3e
00000140: 0813 ae3c d45a 713d 84e0 d0bd 73ea 8cbd
00000150: ea99 793e af85 973a 7a32 df3d 185c 10bc
00000160: 9a5f b7be 0faa 06be c25d b9bd 0c52 d23d
00000170: 576c 46be 351d 29be 1e1d 0bbc cddf 63be
00000180: b666 3cbe 0a8b 3cbe e39b 04be 4311 0cbe
00000190: b03b 1bbe d546 6dbe 729f 33be 9e82 78be
000001a0: fbd6 06be 8823 dabc c570 acbe b8c6 de3d
000001b0: 245c 58be 8747 0fbe 3f5e 49be 370a c13d
000001c0: 8b73 c2bc c065 33bc 618f 2bbd ec3c ee3b
000001d0: ebc7 c2be e399 153e a3e7 87be 22f1 7bbe
000001e0: 9e6a aabd 0a0a c53b 37ed 89be 5f75 8e3d
000001f0: 47c1 02be fe45 33bd 89c2 a0bd 1305 47be
00000200: 1bd6 8fbe ef7a 05bf c25c b5bf 59bf a6bd
00000210: b18b efbf 37a6 19bd ef86 c33d 76e8 36bf
00000220: 611c fa3d 20aa 19c0 0f46 9f3d 2480 92bd
00000230: 63f2 d93d 5ee0 78bf d4ce 103d e69c 7a3e
00000240: 0891 f33c 0455 d43d 7a25 bcbe 4e12 7fbe
00000250: 7915 ee3d cfa5 8ec0 808b 72bd a1e3 373f
00000260: 38cd dfbf ba48 cc3d 7995 fa3c 8d98 72bf
00000270: 6601 7dbf 6522 6bbe 851a 71bd b36d cdbe
00000280: 4f8c 8c3e 9a0c b0be 384d 53bf 2bd4 01c0
00000290: 7028 993e e936 24c0 a6f1 083e de74 4c3f
000002a0: 56fb 83c0 05a0 e13a 6328 113e 3e36 ff3b
000002b0: 2d69 303f db7b 1dbe 158d f33e fdeb 683b
000002c0: 2577 b93e c46b 43bd 914f 2cbf e415 2b3f
000002d0: bbfd 8b3e dc05 a03e 2e9c 34bf 9fa9 17bf
000002e0: ceaa f0bd f128 34bd 1e83 ba3e 53a7 06be
000002f0: c6ee 093f e394 81be 85b4 68bd 235b d4be
00000300: 64a2 1ebe 130c 0abe f07f d9bd 5fc5 09be
00000310: 90ab 553d 22f8 3ebe 0543 64be d0af 5dbd
00000320: 3854 56be 05a6 e0bd c8c6 d8bc d45b 9dba
00000330: a0ac e33c 71cd 63be 8073 8e3a 82e7 3abe
00000340: 622f 8fbd 8203 90bd b463 57bd e258 f2bd
00000350: 2d8c 66be ac71 b4bd 6c1a d4bd 7cba 11bd
00000360: a828 1dbe c08c 14be 5228 febd 785f 91be
00000370: 58b1 47be 816b 25be 9004 d33d 5447 96bd
00000380: 9747 09be 8796 06be ab96 05bc 6174 7c3b
00000390: 4baf d03c 5393 013e fab8 f2bc c4a3 17be
000003a0: a106 2ebe 6ccc fabd 231a cabc 60aa 5abd
000003b0: 994e e5bd 34ec 93bd 0c84 52be 4289 38be
000003c0: a657 f8bd 1042 cfbc bb8d 4dbe f235 f6bd
000003d0: 7a06 bdbd 6600 39be dbd4 8abd d12e a6bd
000003e0: c0d3 3cbd 8267 073d aae2 30bd 3acc 74bb
000003f0: 1077 1bbe 1521 2cbe fac7 bcbd d615 f1bd

fc2.bias f4 [64]
-0.34189108 -0.2689111 -0.08556888 -0.23664483 -0.47599572 -0.103328854 -0.35545117 -0.2858448
-0.27465102 -0.022233766 -0.22371508 -0.031663325 -1.1447859 0.5839114 0.29735747 -0.18902068
-0.072920024 -0.2872187 -0.3263909 -0.3956724 -0.5226647 -0.16157122 -0.22717066 -0.086522564
-0.0698541 -0.14278829 -0.24162331 -0.38275906 -0.31142116 -0.41614962 -0.8639791 -0.28101236
-0.5848503 -0.37610042 0.14652368 -0.21527505 -0.031927075 -0.054596603 -0.4388292 0.81230056
-0.04782253 -0.46411052 -0.32861713 -0.38252065 -0.12717186 -0.13440935 -0.7025577 -0.18051359
-0.79581517 -0.48604506 -0.11720185 -0.17341319 -0.12899278 -0.37001556 -0.10433021 -0.049410995
-0.12324278 -0.26452717 -0.099261574 -0.11141945 1.7162249 -0.5627966 -0.2481828 -0.20905977
00000000: 590c afbe b7ae 89be bd3e afbd 0653 72be
00000010: b6b5 f3be 149e d3bd b2fd b5be 405a 92be
00000020: 0f9f 8cbe 9623 b6bc 9115 65be 67b1 01bd
00000030: 5888 92bf 387b 153f 3d3f 983e a38e 41be
00000040: 1857 95bd 540e 93be b51c a7be 9395 cabe
00000050: 5bcd 05bf ed72 25be 6d9f 68be be32 b1bd
00000060: ab0f 8fbd 1837 12be 1a6c 77be fff8 c3be
00000070: 9872 9fbe 9011 d5be bc2d 5dbf dae0 8fbe
00000080: c0b8 15bf 3c90 c0be 4e0a 163e 1071 5cbe
00000090: f7c5 02bd b0a0 5fbd 39ae e0be eef2 4f3f
000000a0: 8fe1 43bd e59f edbe 8140 a8be bfd9 c3be
000000b0: 5739 02be 9ba2 09be d2da 33bf 8ed8 38be
000000c0: 8bba 4bbf e6da f8be 8607 f0bd 3a93 31be
000000d0: af16 04be ae72 bdbe 14ab d5bd 2f63 4abd
000000e0: b666 fcbd 1b70 87be a749 cbbd e12f e4bd
000000f0: 42ad db3f 7013 10bf a223 7ebe c413 56be
