maddpg_pytorch/models/cache_data/model/run52/incremental/model_ep8001.pt (torch, 690099 bytes, 168 tensors)

fc1.weight f4 [64, 1]
0.079308294 -0.61747736 -0.8501339 -0.024499316 -2.3744786 0.15931028 -0.06363987 0.19339268
-0.2843999 -0.9068694 -0.18687455 -0.034220617 -0.071332976 -1.3052958 -0.07290876 -0.072549805
-0.13847566 -0.0039948225 0.087541565 0.05552169 -0.08476218 -2.434471 -0.16761565 -0.10549073
-1.443809 0.047856204 -0.006957834 1.2708163 -1.1046681 -0.16859564 -0.13763884 0.093312606
-0.024865884 -0.54933393 -1.5498078 -0.8879386 -0.030158775 -1.8058202 -0.07596189 -1.0270758
1.6638175 -0.42309844 -0.17237936 -0.29719314 -1.1221074 -0.00928331 0.079595014 -0.10254792
-0.1231002 -0.1096344 -1.0562404 -1.0671064 -0.042873763 -0.08670652 0.13879503 0.081949495
-0.04682362 0.0051176464 -0.11768416 0.05723422 -0.009737894 -0.03946245 0.30600712 0.106858015
00000000: 636c a23d ff12 1ebf 60a2 59bf cab2 c8bc
00000010: 75f7 17c0 3c22 233e 9f55 82bd bb08 463e
00000020: dd9c 91be 9828 68bf 0b5c 3fbe eb2a 0cbd
00000030: 0617 92bd ef13 a7bf 3051 95bd fe94 94bd
00000040: 90cc 0dbe 00e7 82bb fe48 b33d b66a 633d
00000050: cb97 adbd 5fce 1bc0 70a3 2bbe 860b d8bd
00000060: bcce b8bf de04 443d 8bfe e3bb 1caa a23f
00000070: c465 8dbf 56a4 2cbe 32f1 0cbe ae1a bf3d
00000080: 8ab3 cbbc 26a1 0cbf 1a60 c6bf f24f 63bf
00000090: 890f f7bc 1e25 e7bf e891 9bbd 3877 83bf
000000a0: f9f7 d43f 5ca0 d8be 3784 30be b329 98be
000000b0: 37a1 8fbf 0619 18bc b602 a33d a504 d2bd
000000c0: f51b fcbd 0088 e0bd e332 87bf f196 88bf
000000d0: 669c 2fbd 3093 b1bd 4920 0e3e 23d5 a73d
000000e0: 20ca 3fbd eeb1 a73b 6504 f1bd 6e6e 6a3d
000000f0: b08b 1fbc 61a3 21bd f7ac 9c3e 60d8 da3d

fc1.bias f4 [64]
-1.1158538 -0.79585284 -0.7214642 -0.064182736 -0.5800409 -1.3160889 -0.17981328 -1.7614405
-0.5403617 -0.94113404 -0.3035503 -0.09422463 -0.13216631 -0.7137741 -0.92611206 -0.22026405
-1.0208582 -0.754509 -1.2124399 -0.63554657 -0.14185378 0.6859171 -0.88898194 -0.5941777
-0.70912224 -0.32361272 -0.061266772 -2.0699787 -0.60437924 -0.53097486 -1.0833 -2.0290692
-0.058667824 -0.71249866 -0.7169197 -0.9712386 -0.11475526 -0.7007128 -0.17891207 -0.74656993
0.042292938 -0.85042953 -0.37449014 -0.4049897 -0.5529729 -0.110919744 -0.48716 -0.7290479
-0.16735812 -0.663581 -0.7459076 -0.59983975 -0.5057984 -0.20351934 -2.064333 -2.1237323
-0.6047716 -0.66963595 -0.15346467 -0.84750336 -0.08634296 -1.3477015 -2.1164114 -1.4974476
00000000: 4cd4 8ebf 03bd 4bbf e1b1 38bf 3d72 83bd
00000010: 8f7d 14bf 9a75 a8bf f920 38be e276 e1bf
00000020: 2555 0abf 29ee 70bf f26a 9bbe d8f8 c0bd
00000030: 9b56 07be e6b9 36bf ae15 6dbf e68c 61be
00000040: 7bab 82bf 8027 41bf 3b31 9bbf 2eb3 22bf
00000050: 1e42 11be 4398 2f3f 5294 63bf 081c 18bf
00000060: 0989 35bf 91b0 a5be def2 7abd 887a 04c0
00000070: 99b8 1abf f8ed 07bf 93a9 8abf 45dc 01c0
00000080: ac4d 70bd 5066 36bf 0d88 37bf 18a3 78bf
00000090: ce04 ebbd ea61 33bf ba34 37be 351f 3fbf
000000a0: 5c3b 2d3d c0b5 59bf 2cbd bfbe cf5a cfbe
000000b0: a28f 0dbf e429 e3bd 096d f9be e2a2 3abf
000000c0: ed5f 2bbe 72e0 29bf cdf3 3ebf 198f 19bf
000000d0: 017c 01bf 6067 50be 081e 04c0 3beb 07c0
000000e0: 50d2 1abf 436d 2bbf d825 1dbe fbf5 58bf
000000f0: 94d4 b0bd 7c81 acbf 4973 07c0 5dac bfbf

fc2.weight f4 [64, 64]
0.072021365 0.010746537 -0.18009663 -0.22818954 0.0856796 0.082831696 -0.06343543 -0.005998991
-0.09169516 -0.056971766 -0.55278724 -0.15018438 -0.3634192 -0.15756747 -0.07661903 -0.10681332
0.038685977 -0.028304413 -0.094590984 -0.045500804 -0.035949983 0.051417656 -0.04233159 -0.018194454
-0.071397 -0.20707725 -0.5532891 -0.080452025 -0.12999356 -0.4998794 0.088871196 -0.12819608
-0.5615196 0.018269636 0.026970005 0.06486844 -0.6422591 -0.2488279 -0.37185183 -0.15012006
-0.1904519 -0.05697012 -0.5014588 -0.13317896 -0.10551896 -0.31722757 0.11213762 -0.227499
-0.06337962 0.003980443 -0.1209538 -0.053358406 -0.43781534 -0.14380702 -0.10768737 -0.024691075
-0.08062348 0.08885789 -0.518914 -0.09743534 -0.047759492 -0.14972562 0.04472646 -0.15357432
-0.15006807 -0.21741073 -0.21870495 -0.13737933 -0.16095929 -0.033809282 0.16737157 -0.1596407
0.016241739 -0.59058785 0.05864426 -0.05348833 0.030189116 -0.2007425 -0.009735331 0.24689156
0.02124931 0.05892451 -0.10199066 -0.06880654 0.2437519 0.0011560152 0.108982995 -0.008811037
-0.35815245 -0.13150826 -0.09051151 0.102695875 -0.19377366 -0.16515091 -0.008490732 -0.22253387
-0.18398601 -0.18412428 -0.1295022 -0.13678566 -0.15159537 -0.23171541 -0.17541367 -0.24268654
-0.1316806 -0.02662827 -0.3367992 0.10877755 -0.21129017 -0.1399217 -0.19664927 0.0942583
-0.023736754 -0.010949552 -0.04188495 0.0072704116 -0.38043135 0.14609429 -0.26543915 -0.24603806
-0.08321117 0.00601311 -0.2693886 0.06956045 -0.12769033 -0.04376805 -0.078496665 -0.19435601
-0.2809307 -0.52141154 -1.4168931 -0.081419945 -1.8714539 -0.037511647 0.09547234 -0.7144892
0.12212425 -2.4010117 0.077770084 -0.07153366 0.10641923 -0.9721767 0.035353497 0.244739
0.029732242 0.10367778 -0.36747572 -0.24909347 0.11625183 -4.4577813 -0.05921507 0.7183125
-1.7484566 0.09974794 0.030588726 -0.9476351 -0.9883068 -0.22962365 -0.05886276 -0.40122968
0.2745081 -0.34384778 -0.8253989 -2.0285904 0.29913723 -2.5658724 0.13373324 0.7986535
-4.1244125 0.0017213821 0.14175545 0.007788445 0.6890983 -0.15379149 0.47568318 0.0035541125
0.3622339 -0.047710195 -0.67309177 0.6682995 0.27342153 0.3125441 -0.7055085 -0.5924304
-0.11751327 -0.04398428 0.36428303 -0.13149765 0.5387936 -0.25309062 -0.05681283 -0.41475493
-0.15491702 -0.13481216 -0.106201366 -0.134543 0.052165568 -0.18649398 -0.22291291 -0.05412291
-0.20930593 -0.10969221 -0.02646209 -0.0012005522 0.027792143 -0.22246411 0.0010868162 -0.18252401
-0.069914594 -0.07031919 -0.0525855 -0.11833391 -0.22514443 -0.08810744 -0.10356602 -0.035578262
-0.15347654 -0.145069 -0.124100596 -0.28393358 -0.19501373 -0.16154335 0.10303644 -0.07337819
-0.13406253 -0.13143474 -0.008153591 0.003852134 0.025474062 0.12653911 -0.029629368 -0.14808622
-0.16994841 -0.12246022 -0.024670798 -0.053385418 -0.111966416 -0.07222816 -0.20558275 -0.18021114
-0.121260986 -0.025300056 -0.20073718 -0.12022066 -0.09229792 -0.1806661 -0.06778937 -0.08114407
-0.046100378 0.033057433 -0.043185104 -0.0037353372 -0.15182257 -0.16809528 -0.09217881 -0.11771736
00000000: f07f 933d 3e12 303c 406b 38be 85aa 69be
00000010: c978 af3d aaa3 a93d 6fea 81bd 2f93 c4bb
00000020: acca bbbd 3a5b 69bd 7783 0dbf efc9 19be
00000030: 1512 babe 5e59 21be 70ea 9cbd f1c0 dabd
00000040: 3075 1e3d a8de e7bc ebb8 c1bd 0d5f 3abd
00000050: 4a40 13bd 529b 523d e463 2dbd 890c 95bc
00000060: 9738 92bd 0f0c 54be 5ba4 0dbf 08c4 a4bd
00000070: 081d 05be 31f0 ffbe 1a02 b63d d545 03be
00000080: c0bf 0fbf 34aa 953c 33f0 dc3c bfd9 843d
00000090: 186b 24bf becc 7ebe 5d63 bebe 13b9 19be
000000a0: d305 43be 8059 69bd 9b5f 00bf 1160 08be
000000b0: 531a d8bd a76b a2be 69a8 e53d 7ff5 68be
000000c0: 2dcd 81bd 606e 823b a0b6 f7bd 588e 5abd
000000d0: 5529 e0be 2642 13be 328b dcbd f044 cabc
000000e0: ec1d a5bd 20fb b53d 8cd7 04bf 2e8c c7bd
000000f0: 759f 43bd ac51 19be 1833 373d 9642 1dbe
00000100: 72ab 19be eba0 5ebe 31f4 5fbe 2bad 0cbe
00000110: 83d2 24be 9a7b 0abd 7463 2b3e da78 23be
00000120: 650d 853c c430 17bf f734 703d 9416 5bbd
00000130: 2a4f f73c 718f 4dbe f080 1fbc 24d1 7c3e
00000140: 0813 ae3c d45a 713d 7be0 d0bd 71ea 8cbd
00000150: 199a 793e 6f85 973a 7a32 df3d 2b5c 10bc
00000160: c25f b7be 1aaa 06be 195e b9bd 3752 d23d
00000170: 9a6c 46be 521d 29be b61c 0bbc ebdf 63be
00000180: d466 3cbe 138b 3cbe 3a9c 04be 8a11 0cbe
00000190: d13b 1bbe ce46 6dbe a49f 33be d282 78be
000001a0: 47d7 06be 8823 dabc f270 acbe c4c6 de3d
000001b0: 735c 58be a247 0fbe 6d5e 49be 7f0a c13d
000001c0: 9573 c2bc c065 33bc 8e8f 2bbd a23c ee3b
000001d0: e6c7 c2be be99 153e a4e7 87be 67f1 7bbe
000001e0: 9e6a aabd 9f09 c53b 4ded 89be b675 8e3d
000001f0: 41c1 02be 2046 33bd dcc2 a0bd 4305 47be
00000200: 26d6 8fbe 3a7b 05bf c15c b5bf 80bf a6bd
00000210: cd8b efbf d0a5 19bd 0187 c33d c4e8 36bf
00000220: 471c fa3d 2daa 19c0 ec45 9f3d 3d80 92bd
00000230: 53f2 d93d 92e0 78bf d4ce 103d dc9c 7a3e
00000240: 0891 f33c 0455 d43d c725 bcbe 5c12 7fbe
00000250: 7015 ee3d 25a6 8ec0 808b 72bd 54e3 373f
00000260: 6dcd dfbf a648 cc3d 3595 fa3c 3798 72bf
00000270: ad01 7dbf 7622 6bbe 141a 71bd fa6d cdbe
00000280: 538c 8c3e d10c b0be 584d 53bf 6dd4 01c0
00000290: 8428 993e 4137 24c0 5ef1 083e 8e74 4c3f
000002a0: 30fb 83c0 00a0 e13a 5728 113e 3636 ff3b
000002b0: bf68 303f 847b 1dbe bf8c f33e 1dec 683b
000002c0: b976 b93e c46b 43bd be4f 2cbf ad15 2b3f
000002d0: e8fd 8b3e c805 a03e 349c 34bf 85a9 17bf
000002e0: ccaa f0bd dc28 34bd 4e83 ba3e 52a7 06be
000002f0: 61ee 093f 1895 81be 92b4 68bd c25a d4be
00000300: 91a2 1ebe 330c 0abe 1a80 d9bd a4c5 09be
00000310: 90ab 553d 47f8 3ebe 4843 64be fcaf 5dbd
00000320: 4b54 56be 4fa6 e0bd 06c7 d8bc d95b 9dba
00000330: 59ac e33c a2cd 63be 8073 8e3a 93e7 3abe
00000340: 622f 8fbd 8203 90bd e563 57bd 0d59 f2bd
00000350: 438c 66be ac71 b4bd 6c1a d4bd 83ba 11bd
00000360: f428 1dbe f88c 14be 7428 febd be5f 91be
00000370: aeb1 47be 9f6b 25be c504 d33d 4e47 96bd
00000380: b047 09be d496 06be a496 05bc 1674 7c3b
00000390: fbae d03c 7893 013e 4ab9 f2bc eaa3 17be
000003a0: f506 2ebe 6ccc fabd 6a1a cabc abaa 5abd
000003b0: a64e e5bd 5cec 93bd 4984 52be 4589 38be
000003c0: ae57 f8bd 1042 cfbc 0c8e 4dbe 4036 f6bd
000003d0: b106 bdbd 8900 39be 27d5 8abd dd2e a6bd
000003e0: c0d3 3cbd 3b67 073d dde2 30bd 8fcc 74bb
000003f0: 6077 1bbe 2b21 2cbe 3ec8 bcbd cd15 f1bd

fc2.bias f4 [64]
-0.34189153 -0.26891363 -0.08556954 -0.23664549 -0.4759974 -0.10332926 -0.35545123 -0.28584635
-0.27465123 -0.022233842 -0.22371627 -0.03166336 -1.1447898 -0.10381614 -0.12907076 -0.18902075
-0.07292008 -0.28721935 -0.32639232 -0.39567402 -0.5226682 -0.16157158 -0.22717157 -0.086522855
-0.06985431 -0.14278838 -0.24162447 -0.3827616 -0.31142098 -0.41615 -0.8639836 -0.74485654
-0.5848509 0.88936955 0.6942808 -0.21527505 -0.0319274 -0.05459659 -0.43882936 1.3548028
-0.04782278 -0.4641125 -0.32861832 -0.38252056 -0.12717272 -0.13440992 -0.7025606 -0.18051358
-0.79581976 -0.48604703 -0.1172018 -0.17341445 -0.12899356 -0.37001747 -0.10433082 -0.049411204
-0.12324322 -0.26452827 -0.099261954 -0.11141988 0.7387675 -0.5628014 -0.24818349 -0.20906101
00000000: 680c afbe 0caf 89be 153f afbd 3253 72be
00000010: eeb5 f3be 4b9e d3bd b4fd b5be 745a 92be
00000020: 169f 8cbe bf23 b6bc e115 65be 70b1 01bd
00000030: 7988 92bf 8e9d d4bd 202b 04be a88e 41be
00000040: 1f57 95bd 6a0e 93be e51c a7be c995 cabe
00000050: 95cd 05bf 0573 25be aa9f 68be e532 b1bd
00000060: c70f 8fbd 1e37 12be 686c 77be 54f9 c3be
00000070: 9272 9fbe 9d11 d5be 072e 5dbf ebae 3ebf
00000080: cab8 15bf b9ad 633f 63bc 313f 1071 5cbe
00000090: 4ec6 02bd ada0 5fbd 3eae e0be 2e6a ad3f
000000a0: d2e1 43bd 27a0 edbe a940 a8be bcd9 c3be
000000b0: 9139 02be c1a2 09be 03db 33bf 8dd8 38be
000000c0: d8ba 4bbf 28db f8be 7f07 f0bd 8f93 31be
000000d0: e316 04be ee72 bdbe 66ab d5bd 6763 4abd
000000e0: f166 fcbd 4070 87be da49 cbbd 1b30 e4bd
000000f0: de1f 3d3f c113 10bf d023 7ebe 1714 56be

fc3.weight f4 [32, 64]
-0.21239363 -0.11042666 0.4174736 0.0013805974 -1.6431003 -0.048044294 0.012897637 0.17900053
-0.027612155 0.060253654 0.17566346 1.3501287 1.3330842 -0.40297526 0.22394459 -0.13577218
-2.5579865 -0.8093581 0.09627254 0.11274532 -0.01556834 1.2432811 0.1278132 0.08583809
0.12786436 -0.32647926 -0.16488436 0.036642358 -0.21729761 0.002294194 0.32555553 -0.18889141
0.023762332 1.2578156 -1.3387384 2.643595 0.65314656 -0.0028328751 -0.39156014 1.004134
2.213026 0.6082433 -0.034884907 0.08268668 -0.3950597 -0.113334715 -0.84640944 0.57935596
0.43044323 -0.5660898 0.024970818 0.0019643975 1.7951782 0.20778847 -0.07151102 0.25266668
-0.15758061 -0.10378943 -0.06486087 0.093505464 1.547618 -0.2129391 -0.077593714 -0.16026613
0.16356441 0.4277053 -0.86119545 -0.10232955 -0.20306735 0.024631709 0.37070534 0.20914187
-0.26027164 -0.22003391 -0.001039872 -1.5007212 -0.36550486 -0.5574488 1.1115748 -0.017187143
-2.270262 -0.26896542 -0.23814073 -0.16162272 0.48717847 0.46192813 -0.04509873 0.051056407
-0.109129906 0.03659285 -0.031192642 -0.05489477 0.3370462 0.020126289 -1.2823961 -0.23648375
0.21047395 0.69718707 0.117712475 -0.6659347 0.7200039 0.08450258 0.17100118 -0.3202496
0.63251144 -0.9262704 -0.15014558 -0.0037176933 0.154853 0.16137144 -0.45247492 0.32031438
0.37539834 0.019431667 -0.088519074 -0.25586128 1.54326 -0.28302822 0.075285114 0.07801705
-0.21056403 0.009129382 -0.14809874 -0.33878657 1.0264075 -0.12904383 0.118588865 -0.10454898
0.0019434309 -0.60096383 -0.3832576 0.043283343 -0.9728194 -0.076838456 -0.13392521 0.23911512
0.44342124 -0.16866483 -0.06389605 1.4887601 2.8023775 2.195472 -0.33214828 0.013540471
0.052895427 0.08615799 0.051811077 -0.041620716 0.072509885 -1.5151882 0.064578086 -0.022486594
0.12610203 -0.19248109 -0.24516465 0.08011277 -0.23207454 0.034182426 0.8752054 -0.0037171072
0.0010226528 -3.5562258 2.5348902 -0.7140232 -1.5038295 0.10580218 -0.18381396 1.5416389
-1.0225705 0.03253348 -0.097990245 -0.049901687 -0.16540535 0.067174755 0.7266757 -0.99372166
-0.03801288 1.5700246 0.11784677 0.21650514 0.74664503 0.12008107 0.04165947 -0.17267953
0.28752673 0.03641693 0.051031552 0.10378098 2.2416265 -0.09368748 0.023785219 -0.21565986
-0.040350027 0.22814962 0.9633597 0.10714301 0.94132406 -0.007906615 -0.3750502 -0.34345984
-0.7430492 -0.7749992 0.005568494 -1.4628828 2.3280103 -0.26058915 3.608228 0.064410225
-0.07414571 -0.014367683 0.1850493 0.03296604 0.13052125 1.3883982 -0.18727022 0.013997502
0.026141906 0.19581571 0.11761922 0.16706552 0.009402941 -0.31586885 -0.64299995 0.24631767
-0.011962764 -0.03732006 -1.5927938 -0.73526657 0.63761294 -0.14552236 0.56914204 5.0049515
-2.5230777 -0.20117943 -0.1704589 -0.062404253 -0.29193002 0.020146228 0.12118549 0.19173749
-0.3208603 -1.1328082 -0.027177786 0.072158575 0.20326169 -0.09619472 0.16676433 -0.0018175311
0.05048035 0.06805903 -0.12600084 -0.006700438 -2.3647928 0.095713705 0.45590642 -0.21470015
00000000: b77d 59be 5f27 e2bd 1abf d53e 29f5 b43a
00000010: 1c51 d2bf 18ca 44bd 9c50 533c ea4b 373e
00000020: e332 e2bc 89cc 763d 1fe1 333e 04d1 ac3f
00000030: 81a2 aa3f c652 cebe bb51 653e dd07 0bbe
00000040: 0db6 23c0 1832 4fbf 8a2a c53d 05e7 e63d
00000050: 5a12 7fbc d623 9f3f 77e1 023e e1cb af3d
00000060: e0ee 023e 4a28 a7be 72d7 28be 4c16 163d
00000070: 4483 5ebe 305a 163b 37af a63e c06c 41be
00000080: 39a9 c23c 1a00 a13f c85b abbf a930 2940
00000090: 9d34 273f c2a7 39bb 927a c8be 7787 803f
000000a0: 38a2 0d40 d5b5 1b3f 7ae3 0ebd a257 a93d
000000b0: 4445 cabe 081c e8bd 4aae 58bf ac50 143f
000000c0: 0e63 dc3e 43eb 10bf 9a8f cc3c 1fbd 003b
000000d0: 66c8 e53f 80c6 543e 5f74 92bd 875d 813e
000000e0: d05c 21be 8d8f d4bd c7d5 84bd cb7f bf3d
000000f0: 5918 c63f b50c 5abe 74e9 9ebd ce1c 24be
00000100: 6e7d 273e 30fc da3e 4e77 5cbf 2892 d1bd
00000110: e3f0 4fbe 70c8 c93c 17cd bd3e 4929 563e
00000120: 5342 85be 9250 61be 504c 88ba a217 c0bf
00000130: 7423 bbbe f7b4 0ebf 1548 8e3f 0dcc 8cbc
00000140: f94b 11c0 d6b5 89be 2adb 73be 6d80 25be
00000150: 756f f93e d881 ec3e 72b9 38bd 8620 513d
00000160: 807f dfbd 62e2 153d b687 ffbc 57d9 60bd
00000170: 5291 ac3e e3df a43c 8e25 a4bf cc28 72be
00000180: 7c86 573e da7a 323f 3d13 f13d b27a 2abf
00000190: 2d52 383f b00f ad3d ef1a 2f3e c1f7 a3be
000001a0: 45ec 213f 0f20 6dbf c3bf 19be 8ba4 73bb
000001b0: c991 1e3e 8e3e 253e cbaa e7be 3f00 a43e
000001c0: 3634 c03e 292f 9f3c 7d49 b5bd 4000 83be
000001d0: 8b89 c53f 13e9 90be 152f 9a3d 67c7 9f3d
000001e0: 199e 57be 6793 153c 32a7 17be 6f75 adbe
000001f0: 5261 833f 1124 04be b8de f23d c71d d6bd
00000200: b8ba fe3a c4d8 19bf 573a c4be e049 313d
00000210: b10a 79bf 7b5d 9dbd b123 09be 98da 743e
00000220: 1c08 e33e 79b6 2cbe efdb 82bd b18f be3f
00000230: 275a 3340 9d82 0c40 570f aabe dad8 5d3c
00000240: e0a8 583d 9a73 b03d da37 543d 7c7a 2abd
00000250: 1080 943d b0f1 c1bf 8441 843d ce35 b8bc
00000260: e420 013e c319 45be 710c 7bbe 2a12 a43d
00000270: f3a4 6dbe df02 0c3d 760d 603f b69a 73bb
00000280: 890a 863a 3499 63c0 a43b 2240 39ca 36bf
00000290: 7c7d c0bf d0ae d83d ba39 3cbe 6c54 c53f
000002a0: 97e3 82bf d441 053d 1caf c8bd b665 4cbd
000002b0: 0560 29be eb92 893d 6b07 3a3f 8b64 7ebf
000002c0: 65b3 1bbd 91f6 c83f a659 f13d 86b3 5d3e
000002d0: 2124 3f3f 10ed f53d 1fa3 2a3d e7d2 30be
000002e0: b436 933e eb29 153d 7606 513d 1f8b d43d
000002f0: cf76 0f40 39df bfbd 38d9 c23c f0d5 5cbe
00000300: 1246 25bd 0ea0 693e be9e 763f cb6d db3d
00000310: 9dfa 703f bf8a 01bc 9406 c0be f8d9 afbe
00000320: 7938 3ebf 5966 46bf ea77 b63b be3f bbbf
00000330: 1ffe 1440 f16b 85be 35ed 6640 82e9 833d
00000340: b5d9 97bd 6e66 6bbc 907d 3d3e 6607 073d
00000350: 5da7 053e 08b7 b13f c4c3 3fbe c755 653c
00000360: 8d27 d63c ea83 483e 58e2 f03d 3913 2b3e
00000370: cb0e 1a3c 90b9 a1be a59b 24bf b33a 7c3e
00000380: 78ff 43bc ebdc 18bd abe0 cbbf 6e3a 3cbf
00000390: 9a3a 233f d003 15be 4bb3 113f 9028 a040
000003a0: 1b7a 21c0 fb01 4ebe c78c 2ebe 9a9b 7fbd
000003b0: da77 95be b409 a53c 1930 f83d d556 443e
000003c0: cd47 a4be dcff 90bf f3a3 debc e0c7 933d
000003d0: d523 503e bd01 c5bd 45c4 2a3e 393a eeba
000003e0: 7cc4 4e3d 8862 8b3d 5d06 01be 598f dbbb
000003f0: c458 17c0 8c05 c43d 916c e93e 5bda 5bbe

fc3.bias f4 [32]
-0.43727043 0.088124305 0.703871 1.7515156 2.3650057 -2.097249 -0.86433727 -1.3896779
-2.1290789 -1.824873 1.6254586 -1.9015594 -1.4117647 -0.55609053 -0.3372589 1.6228546
-1.0254956 0.005648443 -2.120793 3.3573315 -1.885163 -1.3705798 -2.098586 -2.7339685
-2.5635602 -0.7553746 0.4183035 0.32817906 3.0643203 -3.4094145 -2.4704187 0.77342135
00000000: e9e1 dfbe 847a b43d e430 343f aa31 e03f
00000010: 415c 1740 5439 06c0 3545 5dbf f7e0 b1bf
00000020: d442 08c0 7095 e9bf 070f d03f 4c66 f3bf
00000030: b5b4 b4bf f35b 0ebf 33ad acbe b3b9 cf3f
00000040: 7143 83bf 9316 b93b 13bb 07c0 85de 5640
00000050: 054d f1bf 296f afbf 3c4f 06c0 57f9 2ec0
00000060: 5f11 24c0 3b60 41bf e02b d63e 1607 a83e
00000070: d31d 4440 d933 5ac0 571b 1ec0 f1fe 453f

in_fn.weight f4 [33]
2.1496615 0.3190931 0.27289027 0.23488894 0.7498168 0.58875436 0.26553693 0.5726428
0.18885182 0.22553866 0.45813003 0.6127775 -0.3389754 0.24916002 0.2639818 0.26524997
0.6575998 0.34119964 -0.15026161 -0.07396361 0.757136 0.3852083 -0.31083328 0.026332404
0.57523733 -0.73263365 0.21406975 0.30517212 0.75322056 0.6245754 0.66418606 0.78296846
0.7312925
00000000: 0e94 0940 2c60 a33e 46b8 8b3e ba86 703e
00000010: fef3 3f3f 9bb8 163f 75f4 873e b898 123f
00000020: 5f62 413e 9bf3 663e 0590 ea3e fcde 1c3f
00000030: 2f8e adbe ce23 7f3e 9f28 873e d8ce 873e
00000040: 7658 283f b8b1 ae3e 2ede 19be 3c7a 97bd
00000050: aad3 413f 063a c53e 8a25 9fbe 0eb7 d73c
00000060: c142 133f e18d 3bbf 1a35 5b3e 853f 9c3e
00000070: 10d3 403f 2ce4 1f3f 1908 2a3f 9f70 483f
00000080: fc35 3b3f

in_fn.bias f4 [33]
0.090465926 0.01779352 -0.052703764 0.0127745895 0.9571994 0.06653783 0.016301382 0.13040158
0.0521425 -0.0044070845 0.08038833 0.16277987 -0.022753516 -0.010147151 0.022146903 0.03887423
0.09175476 -0.007882221 0.0994634 0.04271636 0.06443811 0.052543953 -0.015432732 0.05065833
0.12659386 -0.08058325 0.05864227 0.06583095 0.15066805 0.15570472 0.7839031 0.18056396
0.345523
00000000: 3346 b93d b7c3 913c e7df 57bd 834c 513c
00000010: 050b 753f fc44 883d 7a8a 853c fe87 053e
00000020: 6093 553d 4e69 90bb a3a2 a43d c4af 263e
00000030: 9565 babc 3c40 26bc 6c6d b53c 963a 1f3d
00000040: ebe9 bb3d 6e24 01bc 78b3 cb3d 5af7 2e3d
00000050: 21f8 833d 5438 573d 92d9 7cbc 1c7f 4f3d
00000060: d2a1 013e d508 a5bd e032 703d 61d2 863d
00000070: ba48 1a3e 0f71 1f3e e0ad 483f c2e5 383e
00000080: 64e8 b03e

in_fn.running_mean f4 [33]
2.1273885 0.0055579306 0.004217716 0.07796652 0.06928185 0.033260543 0.01798126 0.016161364
0.0023113263 0.009330307 0.012468989 0.064798206 0.0053914753 0.006235427 0.010376595 0.0060262266
0.017482402 0.009670667 0.0049069696 0.0035437618 0.03985987 0.010316186 0.00620116 0.006821688
0.15897053 0.023005396 0.0047436757 0.004554736 0.044685002 0.026841555 0.11540323 0.071132705
0.11049474
00000000: 2227 0840 4d1f b63b c434 8a3b e9ac 9f3d
00000010: a4e3 8d3d 353c 083d 6f4d 933c d664 843c
00000020: 9f79 173b 25de 183c bb4a 4c3c ecb4 843d
00000030: f9aa b03b 8e52 cc3b 9802 2a3c a777 c53b
00000040: 4137 8f3c b871 1e3c a5ca a03b 753e 683b
00000050: 1a44 233d 3805 293c 1a33 cb3b 7788 df3b
00000060: 2cc9 223e d075 bc3c d670 9b3b e53f 953b
00000070: 9f07 373d d2e2 db3c 8758 ec3d 06ae 913d
00000080: 114b e23d

in_fn.running_var f4 [33]
6.314991 0.005524442 0.0041994755 0.068032965 0.063990265 0.03148846 0.017634759 0.015659254
0.0023042387 0.009203256 0.012318731 0.059071116 0.0053566094 0.0061706174 0.010256853 0.0059865876
0.016959097 0.009578327 0.0048773023 0.0035237784 0.037646927 0.0101443725 0.006136194 0.0067661535
0.12712535 0.02225066 0.004709413 0.004524152 0.042530425 0.02567788 0.101952076 0.06573063
0.097642325
00000000: 6814 ca40 6106 b53b c19b 893b de54 8b3d
00000010: 540d 833d 0bfa 003d c576 903c d647 803c
00000020: b602 173b 41c9 163c 81d4 493c 8ef4 713d
00000030: 7f86 af3b e432 ca3b 5c0c 283c 232b c43b
00000040: ceed 8a3c 6aee 1c3c c7d1 9f3b 31ef 663b
00000050: aa33 1a3d 9534 263c 2012 c93b 9cb6 dd3b
00000060: 262d 023e 0447 b63c 6b51 9a3b 563f 943b
00000070: 6234 2e3d 6b5a d23c 40cc d03d c89d 863d
00000080: b3f8 c73d

fc1.weight f4 [64, 33]
-0.2311981 -0.48225287 -0.20646483 0.13709846 -1.4170322 -0.08080382 0.2537709 -0.061672926
0.043065444 0.081109464 0.04114864 -0.5641974 0.28538725 -0.017005946 -0.3463129 0.15021145
0.174578 0.104952164 -0.27302286 0.20590678 0.12402127 0.1523754 -0.017590776 0.33061063
0.4095663 -0.05139617 0.23042339 -0.05385116 0.23928604 0.43618405 -1.285834 -0.55511504
0.32518834 -1.0665855 0.4024958 0.28024736 -0.58852345 -0.7818666 -0.3360564 0.35628965
0.00039163296 0.015075036 0.24461614 -0.39660275 -0.87344265 0.13201138 -0.1803936 -0.3447111
-0.47099194 -0.10741727 1.277264 0.16266535 0.4835815 -0.7855598 -0.18163285 0.25454077
-0.05876746 0.06056349 0.24986322 0.008636176 0.05215214 -0.070271 -0.5443864 -0.9379766
-0.2884787 -0.8008488 -2.071075 0.543651 -0.80304587 -0.39530438 0.31643376 1.1444482
-0.41934 -0.43428215 0.28751692 -0.7877825 0.10926341 -0.7101581 -0.709464 -0.10483885
0.3781231 0.1763518 -0.4149271 -0.21358939 0.20603245 -0.41440699 0.079160795 0.20261885
0.44177538 0.15362073 0.22582816 -0.04297591 -0.08525788 0.4526847 -0.32998654 -0.05675219
-0.7309549 -0.6432052 0.48854244 -1.4088432 -0.45117202 -0.3304177 -0.24560325 -1.4391243
-0.6701927 -0.024655905 -0.028738694 0.033265553 0.123920046 -0.034046885 -0.74347895 0.14274558
-0.6466752 -0.21927024 -0.03352154 -0.34045187 0.004375436 0.16198753 0.11477554 -0.13700539
-0.1086306 0.033058386 0.055067983 0.010321833 0.9547195 0.12991284 -0.1575391 0.93196285
1.6044328 -0.6777549 -0.08789341 0.08271288 -2.2450185 -0.078753665 -0.6918294 0.19661534
-1.3650897 -0.664226 0.33171812 0.5797043 -0.06223882 0.5428622 -0.41646564 -0.7937159
-0.41705546 -0.6055407 -0.6311878 0.33692575 0.37003198 0.057575796 0.6478512 0.31461686
-0.45309064 -0.6515018 -0.5323606 0.9883173 -0.39730278 -0.40930283 0.5129262 0.68794644
0.37473252 -0.021556368 -0.2230248 1.0209285 -0.31778064 -1.360332 0.54317653 0.3719731
0.12175925 -1.4143287 -0.40015787 -0.09300603 -0.20526953 -0.9035227 -0.55639553 -0.59193873
-1.4280548 -0.24014656 -0.08485436 -0.6017276 0.25836867 -0.2060245 -0.41472065 0.065086074
0.018289743 -0.16067013 0.35943288 -0.090258665 -0.046733048 0.2708509 -0.4762173 0.52765363
-0.015614993 -0.07163284 -0.60512733 -1.3300714 -0.8440996 -0.46464318 -1.5630888 -0.29613516
-0.15150502 -0.019186895 -1.7692676 -0.55819905 0.16828524 -0.19292721 -0.1825531 -0.020483097
0.16528726 -1.015744 -0.12618874 0.06295619 -0.46215045 0.08560981 -0.2894863 0.32458815
-0.024832722 -0.07480998 0.8585549 0.4759707 0.31275555 -0.3945166 0.1408357 -0.058393646
0.239812 -0.33104345 0.4805066 -0.5788249 -2.4674191 -0.8088424 0.8028877 -0.27120745
-0.34448558 -0.0147303175 0.27134773 -0.8207928 -0.44863224 0.18085971 0.14456339 0.2844983
0.17777568 0.013781148 -0.15160318 0.3938106 -0.07974075 -0.3267804 0.093673095 -0.03194462
0.08918838 -0.2561257 -0.005544372 0.25202754 0.025658734 0.05274353 0.07277811 0.027288955
00000000: 32bf 6cbe d9e9 f6be 846b 53be 8a63 0c3e
00000010: 5061 b5bf 797c a5bd 42ee 813e c09c 7cbd
00000020: 6465 303d b81c a63d 7a8b 283d 3e6f 10bf
00000030: 471e 923e 0e50 8bbc ed4f b1be 08d1 193e
00000040: 93c4 323e 29f1 d63d a7c9 8bbe 3ad9 523e
00000050: ddfe fd3d 4c08 1c3e 881a 90bc cc45 a93e
00000060: adb2 d13e ca84 52bd 1cf4 6b3e 0993 5cbd
00000070: 6607 753e 8453 df3e 3596 a4bf 051c 0ebf
00000080: 167f a63e e085 88bf ee13 ce3e 957c 8f3e
00000090: 79a9 16bf 6928 48bf 960f acbe 996b b63e
000000a0: 1654 cd39 49fd 763c a77c 7a3e 840f cbbe
000000b0: f099 5fbf fe2d 073e 1ab9 38be f97d b0be
000000c0: db25 f1be 96fd dbbd 637d a33f bf91 263e
000000d0: ff97 f73e 721a 49bf f6fd 39be 2b53 823e
000000e0: 26b6 70bd 6c11 783d 25dc 7f3e bf7e 0d3c
000000f0: 7b9d 553d 3eea 8fbd e85c 0bbf 3c1f 70bf
00000100: 7bb3 93be 6d04 4dbf 7e8c 04c0 b62c 0b3f
00000110: 6a94 4dbf 5665 cabe 9b03 a23e 477d 923f
00000120: bcb3 d6be 3b5a debe 6b35 933e 1dac 49bf
00000130: 7fc5 df3d eccc 35bf 6f9f 35bf c0b5 d6bd
00000140: 5a99 c13e 9195 343e 5371 d4be 2db7 5abe
00000150: 2cfa 523e 272d d4be 0e1f a23d 517b 4f3e
00000160: 6230 e23e c14e 1d3e 7f3f 673e 8207 30bd
00000170: af9b aebd 4ac6 e73e fff3 a8be fc74 68bd
00000180: dc1f 3bbf 19a9 24bf 3c22 fa3e f954 b4bf
00000190: 0500 e7be 822c a9be 6b7f 7bbe 3a35 b8bf
000001a0: c091 2bbf 2efb c9bc 696d ebbc 7641 083d
000001b0: cbc9 fd3d bf74 0bbd a354 3ebf e62b 123e
000001c0: 828c 25bf 6188 60be e24d 09bd b54f aebe
000001d0: d15f 8f3b 0fe0 253e 700f eb3d 244b 0cbe
000001e0: b879 debd 3b68 073d f78e 613d e81c 293c
000001f0: 7f68 743f df07 053e ee51 21be 1e95 6e3f
00000200: 0e5e cd3f 5881 2dbf 7601 b4bd 5f65 a93d
00000210: 62ae 0fc0 9a49 a1bd bb1b 31bf 8855 493e
00000220: 42bb aebf b70a 2abf f5d6 a93e 8067 143f
00000230: 22ee 7ebd 04f9 0a3f fc3a d5be f730 4bbf
00000240: 4b88 d5be b704 1bbf 8695 21bf 8881 ac3e
00000250: d574 bd3e 99d4 6b3d 94d9 253f 7615 a13e
00000260: 7ffb e7be d2c8 26bf c948 08bf 5d02 7d3f
00000270: 456b cbbe 2490 d1be 224f 033f 421d 303f
00000280: f1dc bf3e fb96 b0bc 9d60 64be c9ad 823f
00000290: 25b4 a2be 5c1f aebf 9e0d 0b3f 4273 be3e
000002a0: ea5c f93d b908 b5bf 7ee1 ccbe f279 bebd
000002b0: 2d32 52be 434d 67bf f06f 0ebf 4c89 17bf
000002c0: 80ca b6bf fbe8 75be 1fc8 adbd d20a 1abf
000002d0: e648 843e 16f8 52be 4456 d4be d94b 853d
000002e0: 5fd4 953c b686 24be 9607 b83e 89d9 b8bd
000002f0: 276b 3fbd f8ac 8a3e c1d2 f3be 4f14 073f
00000300: 07d6 7fbc 3db4 92bd a0e9 1abf c83f aabf
00000310: e916 58bf b6e5 edbe 4b13 c8bf 079f 97be
00000320: 2224 1bbe d62d 9dbc 5c77 e2bf 22e6 0ebf
00000330: f752 2c3e b68e 45be 33ef 3abe 2bcc a7bc
00000340: 1041 293e e603 82bf 9f37 01be 2def 803d
00000350: fc9e ecbe 3254 af3d 8c37 94be 6b30 a63e
00000360: fe6d cbbc fa35 99bd 41ca 5b3f 6eb2 f33e
00000370: 7f21 a03e 14fe c9be 3c37 103e 2d2e 6fbd
00000380: 4791 753e 877e a9be f604 f63e de2d 14bf
00000390: 32ea 1dc0 4c10 4fbf 0c8a 4d3f b4db 8abe
000003a0: 6a60 b0be 6e57 71bc 17ee 8a3e 7a1f 52bf
000003b0: 20b3 e5be 4a33 393e 6d08 143e c3a9 913e
000003c0: d40a 363e 53ca 613c dd3d 1bbe 8ba1 c93e
000003d0: 1e4f a3bd c34f a7be aed7 bf3d 5dd8 02bd
000003e0: 66a8 b63d e822 83be 90ad b5bb c109 813e
000003f0: 4432 d23c 9a09 583d b10c 953d 168d df3c

fc1.bias f4 [64]
-1.0270513 -0.83947563 -1.268481 -1.6165118 -1.7121439 -0.8687026 -2.5372174 -1.0321239
-1.2387881 -0.87850344 -0.2060962 -1.2372208 -1.3065419 -0.36210984 -2.5823934 -0.67464143
-0.5759632 -1.4679291 -1.2830973 0.2065903 -1.2856176 -1.2424943 -1.1651212 -1.0698314
-1.0795718 -2.4284596 -1.216421 -1.4687598 -1.3104393 -0.36114535 -1.560338 -0.939516
0.088896565 -1.1590087 -0.88049394 -1.4034218 -1.2573445 -1.3200252 -2.0553567 -1.019489
0.031624954 -2.226674 -0.036773264 -1.0863502 -2.3703935 -2.702523 -1.9683241 -0.9496787
-1.1895386 -2.9044578 -1.2241466 -1.074009 -1.992669 -2.0037138 -1.4507705 -1.5099851
-1.4814795 -1.1917 -2.7918074 -0.9640469 -1.3254038 -2.2527032 -1.6087945 -1.30666
00000000: 6b76 83bf e0e7 56bf 965d a2bf dce9 cebf
00000010: 8827 dbbf 4b63 5ebf c561 22c0 a31c 84bf
00000020: 9c90 9ebf 9ae5 60bf e20a 53be 405d 9ebf
00000030: c43c a7bf 7666 b9be ef45 25c0 4db5 2cbf
00000040: 5372 13bf 1ae5 bbbf 883c a4bf 688c 533e
00000050: 1e8f a4bf 0e0a 9fbf b122 95bf 3cf0 88bf
00000060: 692f 8abf e26b 1bc0 afb3 9bbf 5200 bcbf
00000070: 7abc a7bf 0be8 b8be 28b9 c7bf 1f84 70bf
00000080: 670f b63d 665a 94bf 0d68 61bf 53a3 b3bf
00000090: aaf0 a0bf 96f6 a8bf f78a 03c0 9e7e 82bf
000000a0: 2b89 013d d481 0ec0 909f 16bd 860d 8bbf
000000b0: 87b4 17c0 23f6 2cc0 0bf2 fbbf 251e 73bf
000000c0: cd42 98bf a3e2 39c0 d6b0 9cbf 2079 89bf
000000d0: c70f ffbf d93c 00c0 d9b2 b9bf 3147 c1bf
000000e0: 1fa1 bdbf a089 98bf f9ac 32c0 c7cb 76bf
000000f0: d5a6 a9bf 4a2c 10c0 faec cdbf a340 a7bf

fc2.weight f4 [64, 64]
-0.09980689 0.04191103 -0.05148782 -0.16659687 -0.01782681 -0.045080543 -0.008229055 0.06944848
-0.12496623 -0.10442596 -0.33349028 -0.46068725 5.5367993e-05 -0.34212524 -0.01055188 -0.2396081
-0.29650092 0.033074602 -0.04807977 -0.4864646 -0.17763127 -0.22725144 -0.27903244 -0.04469555
-0.025831498 -0.0967853 -0.08224117 -0.15466347 -0.06274659 -0.20493236 -0.06002251 -0.26763275
-0.17250611 -0.094242424 -0.009286009 0.04311674 0.016195398 -0.121905856 -0.25000322 0.019192498
-0.13121697 0.05228562 -0.028968327 0.09302267 -0.14213067 -0.021146253 -0.1982842 -0.030991515
-0.20815141 0.013637627 -0.057776526 -0.0044815093 -0.09103619 -0.03698873 -0.19249791 -0.20543979
-0.02901846 -0.07642582 0.070454344 -0.048182245 -0.0032260644 -0.20501634 0.09823387 0.059574027
-0.31390545 -0.68029094 -0.77541476 -0.2864264 -0.39039174 -0.8775869 0.025366751 0.011097963
-0.19153161 -0.33483362 -0.14615102 0.13272384 -0.24119273 -0.2744168 0.1129404 -0.083860874
-0.9157521 -0.36532238 -1.3264376 -0.47417516 -0.079174764 -0.026236402 -0.9508572 -0.11948389
-0.53767854 -0.31290042 -0.23841365 0.17406756 -0.10581378 -0.4218321 -0.31478426 -0.18289708
-0.5230733 -0.6336055 -0.10567438 -0.08532521 0.020109074 -0.10482741 -0.181568 -0.25091094
-0.6067415 0.34043553 -0.2778888 0.023494374 -0.090061 0.003974619 -0.44815254 -0.19529852
-0.13820106 -0.19808109 -0.04848362 -0.5406846 -0.21529718 -0.38166887 -0.42877784 -0.080481954
-0.4204712 -0.18735732 -0.09855905 -1.0959749 -0.16951059 -0.29368713 -0.17095642 -0.0055625886
-0.21733029 -0.78934866 -0.5661573 -0.11957676 -0.3168848 -0.21016929 -0.18830559 -0.30896217
-0.22378072 -0.16204818 -0.64409596 -0.31884125 -0.03145086 -0.68785036 -0.48143896 0.014501475
-0.28996477 -0.16110583 -0.4111318 -0.19229949 -0.1648514 -0.27283505 -0.27802178 -0.039775595
-0.34378883 -0.6562428 0.0524906 -0.014846642 0.09091466 -0.23448311 0.028882729 -0.13925163
0.010755414 -0.36199516 0.18319203 0.028855676 -0.07951655 -0.14748923 -0.22982173 0.054564524
-0.04253802 0.023593191 -0.023090186 -0.003751683 0.1495016 -0.022627065 -0.32377315 0.055545326
0.08964472 -0.13477448 0.0043598516 -0.14985688 -0.6566765 -0.026310636 -0.3267109 -0.10511783
-1.0024557 0.00079637836 0.30446532 -0.03558428 -0.13633499 -0.41061795 -0.020484528 0.08332237
-0.34382978 -0.08435379 -0.22624314 -0.1927714 -0.5212613 0.49911183 -0.2246262 0.090428
-0.34692717 -0.05302636 0.42180216 -0.7986473 -0.24125616 -0.45802468 -0.41474658 -0.14263642
-0.39138094 0.0418125 -0.26661667 -1.6425362 -0.09170633 -0.15665792 -0.38157105 -0.61875165
-0.048472274 0.031092556 -0.27373344 -0.0664689 -0.0052410434 -0.43540582 -0.13147654 -0.18683338
-1.411168 0.18845238 -0.05475222 -0.04602224 -0.16638601 -0.06466193 -0.6997714 0.23760825
-0.57972234 0.1663434 -0.3951803 -0.050547104 0.2459135 -0.09731708 0.48498645 -0.122617155
0.03521866 -0.15472285 -0.029273108 0.011278715 -0.20304382 -0.1664742 -0.1194076 -0.07062586
-0.13428532 0.07981738 -0.11163416 -0.61601055 -0.08883895 -0.19562817 0.08566784 -0.36153543
00000000: 8e67 ccbd e6aa 2b3d e4e4 52bd 5f98 2abe
00000010: 8809 92bc 60a6 38bd 29d3 06bc 013b 8e3d
00000020: 4bee ffbd 47dd d5bd 3dbf aabe 33df ebbe
00000030: ee3a 6838 0a2b afbe cbe1 2cbc d35b 75be
00000040: f8ce 97be 3c79 073d 4bef 44bd e311 f9be
00000050: f9e4 35be 9ab4 68be 57dd 8ebe ae12 37bd
00000060: 949c d3bc 5f37 c6bd 0f6e a8bd 1a60 1ebe
00000070: 4981 80bd cad9 51be 2ada 75bd 2907 89be
00000080: 71a5 30be 2c02 c1bd 5824 18bc 2e9b 303d
00000090: 36ac 843c c7a9 f9bd 6c00 80be 9639 9d3c
000000a0: be5d 06be 7229 563d fc4e edbc ab82 be3d
000000b0: b48a 11be e83a adbc 030b 4bbe ebe1 fdbc
000000c0: a525 55be 5a70 5f3c 14a7 6cbd a0d9 92bb
000000d0: 2f71 babd 7f81 17bd 2c1e 45be cf5e 52be
000000e0: 1fb8 edbc 2485 9cbd 5e4a 903d bf5a 45bd
000000f0: 616c 53bb ceef 51be d72e c93d e503 743d
00000100: 37b8 a0be 8c27 2ebf 9581 46bf 7ba6 92be
00000110: 6de1 c7be 89a9 60bf efcd cf3c 3bd4 353c
00000120: dd20 44be 506f abbe 9da8 15be c2e8 073e
00000130: 3afb 76be 5c80 8cbe 4c4d e73d 40bf abbd
00000140: bb6e 6abf 890b bbbe b5c8 a9bf 16c7 f2be
00000150: 6126 a2bd b9ed d6bc 616b 73bf f8b3 f4bd
00000160: 4da5 09bf 7c34 a0be b522 74be c43e 323e
00000170: e5b4 d8bd 61fa d7be 672b a1be 5f49 3bbe
00000180: 22e8 05bf f833 22bf cf6b d8bd fcbe aebd
00000190: c9bb a43c c1af d6bd f6ec 39be 6677 80be
000001a0: 6953 1bbf 914d ae3e 7147 8ebe 4677 c03c
000001b0: e771 b8bd 853d 823b 4074 e5be 56fc 47be
000001c0: 9484 0dbe c5d5 4abe c396 46bd 4e6a 0abf
000001d0: dd76 5cbe 1a6a c3be c588 dbbe b9d3 a4bd
000001e0: 0048 d7be 99da 3fbe 54d9 c9bd e848 8cbf
000001f0: 2f94 2dbe 295e 96be 330f 2fbe 6046 b6bb
00000200: d58b 5ebe c112 4abf afef 10bf a9e4 f4bd
00000210: b93e a2be 9e36 57be 2ed3 40be 4a30 9ebe
00000220: c626 65be f5ef 25be 79e3 24bf 293f a3be
00000230: 9ed2 00bd f616 30bf 2b7f f6be 9897 6d3c
00000240: 4376 94be edf8 24be de7f d2be 28ea 44be
00000250: cece 28be 09b1 8bbe df58 8ebe bceb 22bd
00000260: 1705 b0be 87ff 27bf 6200 573d 543f 73bc
00000270: 7731 ba3d 571c 70be 799b ec3c fb97 0ebe
00000280: 7a37 303c 6e57 b9be b196 3b3e bd62 ec3c
00000290: 93d9 a2bd 6b07 17be 6356 6bbe 0d7f 5f3d
000002a0: 593c 2ebd 8246 c13c a127 bdbc ccde 75bb
000002b0: f316 193e 655c b9bc 98c5 a5be 7f83 633d
000002c0: a797 b73d 5202 0abe 16dd 8e3b 1574 19be
000002d0: f31b 28bf 6789 d7bc a746 a7be 0448 d7bd
000002e0: 7850 80bf 0cc4 503a e1e2 9b3e d2c0 11bd
000002f0: 669b 0bbe 843c d2be 2bcf a7bc eba4 aa3d
00000300: 750a b0be aec1 acbd 48ac 67be de65 45be
00000310: 6171 05bf 968b ff3e 6904 66be 5132 b93d
00000320: 70a0 b1be 2b32 59bd 74f6 d73e 2674 4cbf
00000330: db0b 77be 3682 eabe aa59 d4be 480f 12be
00000340: 1563 c8be 9643 2b3d fb81 88be a03e d2bf
00000350: 87d0 bbbd ef6a 20be 485d c3be 8266 1ebf
00000360: dd8a 46bd d1b5 fe3c ca26 8cbe d920 88bd
00000370: 0fbd abbb 83ed debe c9a1 06be 4051 3fbe
00000380: 27a1 b4bf a9f9 403e dd43 60bd d181 3cbd
00000390: 1861 2abe 796d 84bd 3824 33bf 944f 733e
000003a0: af68 14bf ed55 2a3e 1355 cabe 7b0a 4fbd
000003b0: c0d0 7b3e 2d4e c7bd 2550 f83e b41e fbbd
000003c0: 7141 103d ab6f 1ebe 28ce efbc 5cca 383c
000003d0: b8ea 4fbe 3678 2abe f98b f4bd 4aa4 90bd
000003e0: 1782 09be 4b77 a33d 73a0 e4bd deb2 1dbf
000003f0: 32f1 b5bd c052 48be 9f72 af3d 2c1b b9be

fc2.bias f4 [64]
-0.2236474 -0.6407708 -0.48411492 -0.82697964 -0.122858286 -0.5034278 -0.34239152 -0.2179033
-0.2916969 -0.20211722 -0.583073 -0.53629416 0.24055792 -0.1894958 -1.1325494 -0.3449252
-0.4411668 -0.8244149 0.5046887 0.5029882 -0.2024674 -0.21391913 -0.10188097 -0.60781145
-0.5090429 -0.01689893 -0.07625217 -0.82450134 1.3004193 0.9940575 -0.4986968 -0.4321151
-0.4874851 -0.046119004 -0.4124771 -0.2625278 -0.1991434 -0.31866348 -0.11274062 -0.14833847
-0.8030161 -0.091938265 -0.2164039 0.9178445 -0.21689728 -0.4171539 -0.28153756 -0.8401176
-0.15063415 -0.27711594 0.044692084 -0.5799892 -0.58506054 -0.2370706 -0.8389561 -0.4303
-0.34592557 1.1196626 -0.17093457 -0.42651045 -0.05975327 0.0030622198 -0.051561393 -0.45710856
00000000: d303 65be 8e09 24bf e9dd f7be f0b4 53bf
00000010: 209d fbbd a5e0 00bf f14d afbe 0b22 5fbe
00000020: 4c59 95be d1f7 4ebe 4644 15bf 934a 09bf
00000030: d154 763e 300b 42be 61f7 90bf 099a b0be
00000040: 9de0 e1be db0c 53bf 4733 013f d6c3 003f
00000050: 9d53 4fbe 9e0d 5bbe f8a6 d0bd 8899 1bbf
00000060: a350 02bf a06f 8abc 192a 9cbd 8512 53bf
00000070: 2474 a63f 8d7a 7e3f 3055 ffbe 313e ddbe
00000080: a697 f9be 48e7 3cbd 3330 d3be 0b6a 86be
00000090: 3fec 4bbe dc27 a3be 8ee4 e6bd 0ae6 17be
000000a0: 7792 4dbf 214a bcbd fc98 5dbe dbf7 6a3f
000000b0: 521a 5ebe 3295 d5be b125 90be f211 57bf
000000c0: d73f 1abe 24e2 8dbe 0c0f 373d 2c7a 14bf
000000d0: 87c6 15bf a3c2 72be d4c5 56bf 4850 dcbe
000000e0: 281d b1be 1b51 8f3f 7909 2fbe 945f dabe
000000f0: d8bf 74bd 86af 483b 0a32 53bd 220a eabe

fc3.weight f4 [1, 64]
0.10851966 0.029880628 0.062783115 -0.0058782655 -0.010983765 -0.1491553 -0.31065717 0.014259341
-0.02014639 0.0007467076 -0.14706005 -0.29938954 0.25719443 -0.12491087 0.022657251 0.019291228
0.13993351 -0.10699635 0.21804622 0.09063547 -0.21880327 0.014750405 -0.0037884528 0.20585276
0.0546645 -0.020102724 -0.036786035 -0.18857698 0.11046388 -0.12466181 0.069826595 -0.2453788
-0.084384575 -0.0047609974 -0.11018019 0.22612679 -0.012898176 0.09777236 -0.010552809 -0.067631714
-0.23717012 0.018750004 -0.2766019 -0.15333726 -0.23885669 0.07238999 -0.054088727 -0.21625467
-0.15350354 0.047240056 0.050356515 -0.18063726 0.17422716 -0.014133254 0.012241269 0.20748912
0.2774171 -0.068231024 0.0043668286 0.015437042 -0.001679152 0.054680794 0.00081824197 0.08638884
00000000: 8e3f de3d 38c8 f43c 6f94 803d 779e c0bb
00000010: 40f5 33bc 2bbc 18be 750e 9fbe 03a0 693c
00000020: 0b0a a5bc b3be 433a e996 16be 9649 99be
00000030: fdae 833e 45d1 ffbd b39b b93c a308 9e3c
00000040: bb4a 0f3e e720 dbbd 8247 5f3e 179f b93d
00000050: f70d 60be afab 713c b147 78bb 11cb 523e
00000060: e2e7 5f3d 78ae a4bc f4ac 16bd 531a 41be
00000070: e33a e23d b14e ffbd 3f01 8f3d 9544 7bbe
00000080: d2d1 acbd 2402 9cbb 27a6 e1bd c88d 673e
00000090: df52 53bc e03c c83d b0e5 2cbc 7f82 8abd
000000a0: b9dc 72be 9c99 993c c49e 8dbe 7104 1dbe
000000b0: d996 74be 3441 943d 248c 5dbd dd71 5dbe
000000c0: 0830 1dbe ca7e 413d a242 4e3d f9f8 38be
000000d0: 9b68 323e 2a8f 67bc 9b8f 483c 0778 543e
000000e0: 9d09 8e3e b5bc 8bbd 9d17 8f3b a6eb 7c3c
000000f0: fe16 dcba f8f8 5f3d 4a7f 563a a2ec b03d

fc1.weight f4 [64, 1]
0.0793089 -0.6174838 -0.85013884 -0.024499303 -2.5387866 0.1593107 -0.06364031 0.19339415
-0.28440234 -0.9068706 -0.18687488 -0.034220364 -0.07133378 -1.6326549 -0.07290876 -0.07255047
-0.13847439 -0.0039948225 0.087541796 0.055521965 -0.08476272 -2.224284 -0.16761565 -0.10549027
-1.6655452 0.04785606 -0.0069578015 1.2966692 -1.340093 -0.16859563 -0.13763843 0.093313016
-0.024866056 -0.54933774 -1.5498722 -0.88794017 -0.030158954 -1.9403757 -0.07596209 -1.0270784
1.5638176 -0.42309844 -0.17237905 -0.29719055 -1.4410701 -0.009283293 0.07959501 -0.10254729
-0.12310047 -0.1096344 -1.0562489 -1.3926134 -0.042873476 -0.08670733 0.13879624 0.08195013
-0.04682362 0.005117646 -0.11768464 0.05723448 -0.009737872 -0.039462227 0.30600902 0.10685819
00000000: b46c a23d 6b13 1ebf b3a2 59bf c3b2 c8bc
00000010: 7b7b 22c0 5822 233e da55 82bd 1e09 463e
00000020: 2f9d 91be ac28 68bf 215c 3fbe a72a 0cbd
00000030: 7217 92bd d6fa d0bf 3051 95bd 5795 94bd
00000040: 3bcc 0dbe 00e7 82bb 1d49 b33d 006b 633d
00000050: 1498 adbd ab5a 0ec0 70a3 2bbe 480b d8bd
00000060: 9630 d5bf b704 443d 45fe e3bb 42f9 a53f
00000070: 2b88 abbf 55a4 2cbe 17f1 0cbe e51a bf3d
00000080: e6b3 cbbc 66a1 0cbf 3662 c6bf 0c50 63bf
00000090: e90f f7bc 3b5e f8bf 0392 9bbd 4e77 83bf
000000a0: 2d2b c83f 5ca0 d8be 2284 30be 5c29 98be
000000b0: fc74 b8bf f418 18bc b502 a33d 5004 d2bd
000000c0: 191c fcbd 0088 e0bd 2a33 87bf 2841 b2bf
000000d0: 199c 2fbd 9d93 b1bd 9a20 0e3e 78d5 a73d
000000e0: 20ca 3fbd edb1 a73b a504 f1bd b46e 6a3d
000000f0: 988b 1fbc 25a3 21bd 37ad 9c3e 77d8 da3d

fc1.bias f4 [64]
-1.1158537 -0.79585093 -0.7214643 -0.06418272 -0.34317654 -1.3160897 -0.17981324 -1.7614323
-0.54036134 -0.9411315 -0.30355036 -0.09422424 -0.13216524 -0.3775596 -0.92611206 -0.22026397
-1.0208558 -0.75450915 -1.2124372 -0.6355441 -0.1418525 0.6279584 -0.88898194 -0.5941725
-0.38496527 -0.32361034 -0.061266743 -2.1119792 -0.31391838 -0.5309736 -1.0832976 -2.0290515
-0.058667608 -0.7124938 -0.7168366 -0.9712378 -0.11475507 -0.47001457 -0.17891172 -0.74656975
0.009066721 -0.85042953 -0.3744889 -0.40498862 -0.29483122 -0.11091951 -0.48715967 -0.729046
-0.16735734 -0.663581 -0.74590814 -0.31692144 -0.5057966 -0.20351952 -2.0643137 -2.1237276
-0.6047716 -0.669632 -0.15346348 -0.8474984 -0.086343005 -1.3476921 -2.116408 -1.497443
00000000: 4bd4 8ebf e3bc 4bbf e2b1 38bf 3b72 83bd
00000010: d6b4 afbe a175 a8bf f620 38be 9d76 e1bf
00000020: 1f55 0abf feed 70bf f46a 9bbe a3f8 c0bd
00000030: 5356 07be 7e4f c1be ae15 6dbf e18c 61be
00000040: 67ab 82bf 8327 41bf 2431 9bbf 05b3 22bf
00000050: c841 11be e2c1 203f 5294 63bf b01b 18bf
00000060: 2b1a c5be 41b0 a5be d6f2 7abd ab2a 07c0
00000070: e9b9 a0be e3ed 07bf 7fa9 8abf fbdb 01c0
00000080: 724d 70bd fe65 36bf 9a82 37bf 0aa3 78bf
00000090: b504 ebbd c0a5 f0be a234 37be 321f 3fbf
000000a0: 968c 143c c0b5 59bf 02bd bfbe ab5a cfbe
000000b0: 1ef4 96be c529 e3bd fe6c f9be c2a2 3abf
000000c0: b95f 2bbe 72e0 29bf d6f3 3ebf 8743 a2be
000000d0: e37b 01bf 6c67 50be b71d 04c0 27eb 07c0
000000e0: 50d2 1abf 016d 2bbf 8825 1dbe a8f5 58bf
000000f0: 9ad4 b0bd 2d81 acbf 3b73 07c0 36ac bfbf

fc2.weight f4 [64, 64]
0.072021365 0.010746588 -0.18009636 -0.22818841 0.08567989 0.082831696 -0.06343543 -0.0059989574
-0.09169476 -0.05697148 -0.55278295 -0.15018374 -0.36341733 -0.15756728 -0.07661903 -0.106812745
0.038685977 -0.028304413 -0.094590805 -0.045500554 -0.035949647 0.05141781 -0.04233159 -0.01819443
-0.07139638 -0.20707643 -0.5532896 -0.080452025 -0.12999265 -0.4998793 0.088871196 -0.12819557
-0.56151503 0.018269679 0.026970102 0.06486891 -0.6422556 -0.24882802 -0.37185138 -0.15011966
-0.19045119 -0.05697012 -0.5014559 -0.13317852 -0.10551858 -0.31722668 0.11213842 -0.22749849
-0.06337955 0.003980443 -0.12095322 -0.053358316 -0.43781295 -0.14380604 -0.10768744 -0.024691075
-0.08062348 0.088858314 -0.51890963 -0.09743534 -0.0477592 -0.14972478 0.04472646 -0.15357375
-0.15006751 -0.21741039 -0.2187038 -0.13737915 -0.16095878 -0.033809092 0.16737223 -0.15964003
0.016241815 -0.5905843 0.058644507 -0.05348833 0.030189315 -0.20074193 -0.009735331 0.24689087
0.02124931 0.05892451 -0.10199073 -0.06880655 0.2437512 0.0011560227 0.108982995 -0.008811019
-0.35815126 -0.1315081 -0.09051086 0.102695554 -0.19377266 -0.16515048 -0.008490829 -0.22253342
-0.18398556 -0.18412414 -0.12950091 -0.1367846 -0.15159488 -0.23171552 -0.17541292 -0.24268577
-0.13167946 -0.02662827 -0.33679786 0.10877746 -0.21128899 -0.1399213 -0.19664858 0.094257765
-0.023736736 -0.010949552 -0.041884784 0.007270446 -0.3804315 0.14609484 -0.26543912 -0.24603704
-0.08321117 0.0060131596 -0.26938793 0.069559805 -0.12769042 -0.04376792 -0.07849605 -0.1943553
-0.28093037 -0.52140707 -1.4168932 -0.081419654 -1.8714505 -0.03751203 0.09547221 -0.7144846
0.12212444 -2.4010086 0.077770345 -0.07153347 0.10641935 -0.9721736 0.035353497 0.24473915
0.029732242 0.10367778 -0.36747342 -0.24909326 0.11625189 -4.4577403 -0.05921507 0.7183171
-1.7484503 0.09974809 0.030588852 -0.94764024 -0.9883026 -0.22962339 -0.05886318 -0.40122756
0.27450797 -0.34384614 -0.825397 -2.0285747 0.29913664 -2.5658514 0.13373432 0.79865825
-4.1244307 0.0017213827 0.14175563 0.0077884486 0.68910486 -0.15379278 0.47568575 0.003554105
0.36223713 -0.047710195 -0.6730891 0.6683028 0.27342018 0.3125447 -0.7055081 -0.59243196
-0.117513284 -0.043984357 0.3642816 -0.13149767 0.53879964 -0.25308904 -0.05681278 -0.41475782
-0.15491635 -0.13481168 -0.10620105 -0.13454197 0.052165568 -0.18649343 -0.22291191 -0.054122746
-0.20930564 -0.10969166 -0.026461974 -0.0012005516 0.027792275 -0.22246338 0.0010868162 -0.18252376
-0.069914594 -0.07031919 -0.05258532 -0.11833359 -0.2251441 -0.08810744 -0.10356602 -0.035578236
-0.1534754 -0.14506817 -0.12410034 -0.2839315 -0.19501245 -0.1615429 0.103036046 -0.073378235
-0.13406216 -0.13143359 -0.008153598 0.0038521516 0.025474211 0.12653856 -0.02962922 -0.14808565
-0.16994716 -0.12246022 -0.024670666 -0.05338514 -0.11196632 -0.072227865 -0.20558184 -0.1802111
-0.121260926 -0.025300056 -0.20073597 -0.12022008 -0.09229751 -0.18066558 -0.0677888 -0.08114398
-0.046100378 0.033057697 -0.043184914 -0.0037353174 -0.15182137 -0.16809495 -0.0921783 -0.11771743
00000000: f07f 933d 7512 303c 2e6b 38be 39aa 69be
00000010: f078 af3d aaa3 a93d 6fea 81bd e792 c4bb
00000020: 76ca bbbd ed5a 69bd 2f83 0dbf c4c9 19be
00000030: d611 babe 5159 21be 70ea 9cbd a4c0 dabd
00000040: 3075 1e3d a8de e7bc d3b8 c1bd ca5e 3abd
00000050: f03f 13bd 7b9b 523d e463 2dbd 7c0c 95bc
00000060: 4438 92bd d80b 54be 63a4 0dbf 08c4 a4bd
00000070: cb1c 05be 2ef0 ffbe 1a02 b63d b345 03be
00000080: 73bf 0fbf 4baa 953c 67f0 dc3c fed9 843d
00000090: dd6a 24bf c6cc 7ebe 4e63 bebe f8b8 19be
000000a0: a305 43be 8059 69bd 6a5f 00bf f35f 08be
000000b0: 201a d8bd 896b a2be d4a8 e53d 5df5 68be
000000c0: 23cd 81bd 606e 823b 52b6 f7bd 408e 5abd
000000d0: 0529 e0be e441 13be 3c8b dcbd f044 cabc
000000e0: ec1d a5bd 59fb b53d 43d7 04bf 2e8c c7bd
000000f0: 279f 43bd 7451 19be 1833 373d 7042 1dbe
00000100: 4cab 19be d4a0 5ebe e4f3 5fbe 1fad 0cbe
00000110: 61d2 24be 677b 0abd a063 2b3e ad78 23be
00000120: 8e0d 853c 8830 17bf 3935 703d 9416 5bbd
00000130: 954f f73c 4b8f 4dbe f080 1fbc f6d0 7c3e
00000140: 0813 ae3c d45a 713d 84e0 d0bd 73ea 8cbd
00000150: ea99 793e af85 973a 7a32 df3d 185c 10bc
00000160: 9a5f b7be 0faa 06be c25d b9bd 0c52 d23d
00000170: 576c 46be 351d 29be 1e1d 0bbc cddf 63be
00000180: b666 3cbe 0a8b 3cbe e39b 04be 4311 0cbe
00000190: b03b 1bbe d546 6dbe 729f 33be 9e82 78be
000001a0: fbd6 06be 8823 dabc c570 acbe b8c6 de3d
000001b0: 245c 58be 8747 0fbe 3f5e 49be 370a c13d
000001c0: 8b73 c2bc c065 33bc 618f 2bbd ec3c ee3b
000001d0: ebc7 c2be e399 153e a3e7 87be 22f1 7bbe
000001e0: 9e6a aabd 0a0a c53b 37ed 89be 5f75 8e3d
000001f0: 47c1 02be fe45 33bd 89c2 a0bd 1305 47be
00000200: 1bd6 8fbe ef7a 05bf c25c b5bf 59bf a6bd
00000210: b18b efbf 37a6 19bd ef86 c33d 76e8 36bf
00000220: 611c fa3d 20aa 19c0 0f46 9f3d 2480 92bd
00000230: 63f2 d93d 5ee0 78bf d4ce 103d e69c 7a3e
00000240: 0891 f33c 0455 d43d 7a25 bcbe 4e12 7fbe
00000250: 7915 ee3d cfa5 8ec0 808b 72bd a1e3 373f
00000260: 38cd dfbf ba48 cc3d 7995 fa3c 8d98 72bf
00000270: 6601 7dbf 6522 6bbe 851a 71bd b36d cdbe
00000280: 4f8c 8c3e 9a0c b0be 384d 53bf 2bd4 01c0
00000290: 7028 993e e936 24c0 a6f1 083e de74 4c3f
000002a0: 56fb 83c0 05a0 e13a 6328 113e 3e36 ff3b
000002b0: 2d69 303f db7b 1dbe 158d f33e fdeb 683b
000002c0: 2577 b93e c46b 43bd 914f 2cbf e415 2b3f
000002d0: bbfd 8b3e dc05 a03e 2e9c 34bf 9fa9 17bf
000002e0: ceaa f0bd f128 34bd 1e83 ba3e 53a7 06be
000002f0: c6ee 093f e394 81be 85b4 68bd 235b d4be
00000300: 64a2 1ebe 130c 0abe f07f d9bd 5fc5 09be
00000310: 90ab 553d 22f8 3ebe 0543 64be d0af 5dbd
00000320: 3854 56be 05a6 e0bd c8c6 d8bc d45b 9dba
00000330: a0ac e33c 71cd 63be 8073 8e3a 82e7 3abe
00000340: 622f 8fbd 8203 90bd b463 57bd e258 f2bd
00000350: 2d8c 66be ac71 b4bd 6c1a d4bd 7cba 11bd
00000360: a828 1dbe c08c 14be 5228 febd 785f 91be
00000370: 58b1 47be 816b 25be 9004 d33d 5447 96bd
00000380: 9747 09be 8796 06be ab96 05bc 6174 7c3b
00000390: 4baf d03c 5393 013e fab8 f2bc c4a3 17be
000003a0: a106 2ebe 6ccc fabd 231a cabc 60aa 5abd
000003b0: 994e e5bd 34ec 93bd 0c84 52be 4289 38be
000003c0: a657 f8bd 1042 cfbc bb8d 4dbe f235 f6bd
000003d0: 7a06 bdbd 6600 39be dbd4 8abd d12e a6bd
000003e0: c0d3 3cbd 8267 073d aae2 30bd 3acc 74bb
000003f0: 1077 1bbe 1521 2cbe fac7 bcbd d615 f1bd

fc2.bias f4 [64]
-0.34189108 -0.2689111 -0.08556888 -0.23664483 -0.47599572 -0.103328854 -0.35545117 -0.2858448
-0.27465102 -0.022233766 -0.22371508 -0.031663325 -1.1447859 0.17611116 -0.12907027 -0.18902068
-0.072920024 -0.2872187 -0.3263909 -0.3956724 -0.5226647 -0.16157122 -0.22717066 -0.086522564
-0.0698541 -0.14278829 -0.24162331 -0.38275906 -0.31142116 -0.41614962 -0.8639791 -0.74485314
-0.5848503 0.9684008 0.7043163 -0.21527505 -0.031927075 -0.054596603 -0.4388292 1.4118831
-0.04782253 -0.46411052 -0.32861713 -0.38252065 -0.12717186 -0.13440935 -0.7025577 -0.18051359
-0.79581517 -0.48604506 -0.11720185 -0.17341319 -0.12899278 -0.37001556 -0.10433021 -0.049410995
-0.12324278 -0.26452717 -0.099261574 -0.11141945 0.9374965 -0.5627966 -0.2481828 -0.20905977
00000000: 590c afbe b7ae 89be bd3e afbd 0653 72be
00000010: b6b5 f3be 149e d3bd b2fd b5be 405a 92be
00000020: 0f9f 8cbe 9623 b6bc 9115 65be 67b1 01bd
00000030: 5888 92bf 7c56 343e ff2a 04be a38e 41be
00000040: 1857 95bd 540e 93be b51c a7be 9395 cabe
00000050: 5bcd 05bf ed72 25be 6d9f 68be be32 b1bd
00000060: ab0f 8fbd 1837 12be 1a6c 77be fff8 c3be
00000070: 9872 9fbe 9011 d5be bc2d 5dbf b2ae 3ebf
00000080: c0b8 15bf 1de9 773f 134e 343f 1071 5cbe
00000090: f7c5 02bd b0a0 5fbd 39ae e0be 96b8 b43f
000000a0: 8fe1 43bd e59f edbe 8140 a8be bfd9 c3be
000000b0: 5739 02be 9ba2 09be d2da 33bf 8ed8 38be
000000c0: 8bba 4bbf e6da f8be 8607 f0bd 3a93 31be
000000d0: af16 04be ae72 bdbe 14ab d5bd 2f63 4abd
000000e0: b666 fcbd 1b70 87be a749 cbbd e12f e4bd
000000f0: c5ff 6f3f 7013 10bf a223 7ebe c413 56be
