maddpg_pytorch/models/cache_data/model/run52/incremental/model_ep3001.pt (torch, 690099 bytes, 168 tensors)

fc1.weight f4 [64, 1]
00000000: 165c 643e b024 5bbf e09b 8fbf cab2 c8bc
00000010: b9f1 0ac0 7b0d be3e 9f55 82bd 28ce e93e
00000020: b7c6 11bd 1fe5 4ebf 57ae a8bd eb2a 0cbd
00000030: 0617 92bd 57d0 90be 3051 95bd fe94 94bd
00000040: 306c 143e 00e7 82bb 0168 603e b66a 633d
00000050: cb97 adbd 4728 b7bf 70a3 2bbe ced6 873d
00000060: e8da 92bf 1e6b 8dbd 8bfe e3bb 1190 843f
00000070: 0abf 7cbf 7707 cb3d 27dc 373e 20b7 f43e
00000080: 8ab3 cbbc 26a1 0cbf 36fa 97bf 1adb 54bf
00000090: 890f f7bc f543 90bf e891 9bbd 09cb 03bf
000000a0: 9a9c d93f 5ca0 d8be 3784 30be b1ff a63c
000000b0: 2dc4 cbbe be3a c23c d83f 0dbe 1bec 94bd
000000c0: 57d0 f4bd 0088 e0bd 863d 91bf d90a dfbe
000000d0: 3ec0 763c 3093 b1bd e92b d33e 2b97 083f
000000e0: 20ca 3fbd 97ba a8be e174 0ebe ef73 463e
000000f0: b08b 1fbc db88 8d3e dc90 de3e c43c c23e
0.22300753 -0.85602856 -1.1219444 -0.024499316 -2.1710036 0.3711966 -0.06363987 0.45665097
-0.0355899 -0.8081836 -0.08236378 -0.034220617 -0.071332976 -0.2828395 -0.07290876 -0.072549805
0.14494395 -0.0039948225 0.21914674 0.05552169 -0.08476218 -1.4309167 -0.16761565 0.066327676
-1.1473055 -0.069051966 -0.006957834 1.0356466 -0.98729 0.09913533 0.17955075 0.47795963
-0.024865884 -0.54933393 -1.1873233 -0.8314682 -0.030158775 -1.1270739 -0.07596189 -0.5148168
1.7000916 -0.42309844 -0.17237936 0.020385595 -0.39798108 0.023709651 -0.13793886 -0.07271596
-0.119538 -0.1096344 -1.13469 -0.43562964 0.015060483 -0.08670652 0.41244438 0.53355664
-0.04682362 -0.32954857 -0.13911773 0.19380163 -0.009737894 0.27643475 0.43469894 0.37936985

fc1.bias f4 [64]
00000000: 60e2 76bf 9303 08bf c557 4c3d 3d72 83bd
00000010: 6b23 17bf afe4 9bbf f920 38be dfbc babf
00000020: fa4c 1dbd fba3 54bf 14ca b9bd d8f8 c0bd
00000030: 9b56 07be b51c 84be ae15 6dbf e68c 61be
00000040: e2ff 33bf 8027 41bf 5de6 36bf 2eb3 22bf
00000050: 1e42 11be 711d 42bf 5294 63bf a06f a5be
00000060: 80a4 25bf b8d4 8dbd def2 7abd c61e d3bf
00000070: 6f06 4f3f 68a0 adbe 0d83 44bf 4d87 dbbf
00000080: ac4d 70bd 5066 36bf 6ddc 28bf 45ce 54bf
00000090: ce04 ebbd aab8 29bf ba34 37be f2f6 cfbe
000000a0: db2e 5ebf c0b5 59bf 2cbd bfbe ed3e b4bd
000000b0: c9e7 bebe bd9e d5bd 8c30 2bbe 9c68 b4bd
000000c0: 734c 07be 72e0 29bf 7e5f 86be a6b7 c7be
000000d0: 038e 94bd 6067 50be 97aa e1bf 279f dbbf
000000e0: 50d2 1abf 2957 bcbe 9180 0fbe 40bf 3ebf
000000f0: 94d4 b0bd e0a0 78bf 88d8 c2bf 5bf8 a2bf
-0.9643917 -0.53130454 0.04988839 -0.064182736 -0.5903842 -1.2179164 -0.17981328 -1.4588889
-0.03840349 -0.83062714 -0.090717465 -0.09422463 -0.13216631 -0.25803152 -0.92611206 -0.22026405
-0.7031232 -0.754509 -0.71445256 -0.63554657 -0.14185378 -0.75826174 -0.88898194 -0.32311726
-0.6470413 -0.069253385 -0.061266772 -1.6493766 0.8086919 -0.33911443 -0.7676247 -1.7150666
-0.058667824 -0.71249866 -0.65961343 -0.8312724 -0.11475526 -0.662974 -0.17891207 -0.40618092
-0.86790246 -0.85042953 -0.37449014 -0.08801065 -0.37286213 -0.104306675 -0.16717738 -0.08809015
-0.13212757 -0.663581 -0.2624473 -0.390073 -0.07253649 -0.20351934 -1.7630185 -1.7157944
-0.6047716 -0.36785248 -0.14013888 -0.74510574 -0.08634296 -0.97120476 -1.522233 -1.2732042

fc2.weight f4 [64, 64]
00000000: f07f 933d 3e12 303c 406b 38be 85aa 69be
00000010: c978 af3d aaa3 a93d 6fea 81bd 2f93 c4bb
00000020: acca bbbd 3a5b 69bd 7783 0dbf efc9 19be
00000030: 1512 babe 5e59 21be 70ea 9cbd f1c0 dabd
00000040: 3075 1e3d a8de e7bc ebb8 c1bd 0d5f 3abd
00000050: 4a40 13bd 529b 523d e463 2dbd 890c 95bc
00000060: 9738 92bd 0f0c 54be 5ba4 0dbf 08c4 a4bd
00000070: 081d 05be 31f0 ffbe 1a02 b63d d545 03be
00000080: c0bf 0fbf 34aa 953c 33f0 dc3c bfd9 843d
00000090: 186b 24bf becc 7ebe 5d63 bebe 13b9 19be
000000a0: d305 43be 8059 69bd 9b5f 00bf 1160 08be
000000b0: 531a d8bd a76b a2be 69a8 e53d 7ff5 68be
000000c0: 2dcd 81bd 606e 823b a0b6 f7bd 588e 5abd
000000d0: 5529 e0be 2642 13be 328b dcbd f044 cabc
000000e0: ec1d a5bd 20fb b53d 8cd7 04bf 2e8c c7bd
000000f0: 759f 43bd ac51 19be 1833 373d 9642 1dbe
00000100: 72ab 19be eba0 5ebe 31f4 5fbe 2bad 0cbe
00000110: 83d2 24be 9a7b 0abd 7463 2b3e da78 23be
00000120: 650d 853c c430 17bf f734 703d 9416 5bbd
00000130: 2a4f f73c 718f 4dbe f080 1fbc 24d1 7c3e
00000140: 0813 ae3c d45a 713d 7be0 d0bd 71ea 8cbd
00000150: 199a 793e 6f85 973a 7a32 df3d 2b5c 10bc
00000160: c25f b7be 1aaa 06be 195e b9bd 3752 d23d
00000170: 9a6c 46be 521d 29be b61c 0bbc ebdf 63be
00000180: d466 3cbe 138b 3cbe 3a9c 04be 8a11 0cbe
00000190: d13b 1bbe ce46 6dbe a49f 33be d282 78be
000001a0: 47d7 06be 8823 dabc f270 acbe c4c6 de3d
000001b0: 735c 58be a247 0fbe 6d5e 49be 7f0a c13d
000001c0: 9573 c2bc c065 33bc 8e8f 2bbd a23c ee3b
000001d0: e6c7 c2be be99 153e a4e7 87be 67f1 7bbe
000001e0: 9e6a aabd 9f09 c53b 4ded 89be b675 8e3d
000001f0: 41c1 02be 2046 33bd dcc2 a0bd 4305 47be
00000200: 26d6 8fbe 3a7b 05bf 3525 aebf 80bf a6bd
00000210: 40fe ecbf f1d7 60be 0187 c33d c4e8 36bf
00000220: 471c fa3d 2daa 19c0 ec45 9f3d 3d80 92bd
00000230: 53f2 d93d 62f9 4c3f d4ce 103d dc9c 7a3e
00000240: 0891 f33c 0455 d43d c725 bcbe 5c12 7fbe
00000250: 7015 ee3d 0b9e 0fc0 808b 72bd 54e3 373f
00000260: 6dcd dfbf a648 cc3d 3595 fa3c 3798 72bf
00000270: 482c c7be 7622 6bbe 141a 71bd fa6d cdbe
00000280: 538c 8c3e d10c b0be 584d 53bf 6dd4 01c0
00000290: 8428 993e 4137 24c0 5ef1 083e 8e74 4c3f
000002a0: 418d 22c0 00a0 e13a 5728 113e 3636 ff3b
000002b0: bf68 303f 847b 1dbe bf8c f33e 1dec 683b
000002c0: b976 b93e c46b 43bd 07bf 2bbf ad15 2b3f
000002d0: e8fd 8b3e c805 a03e 349c 34bf 85a9 17bf
000002e0: ccaa f0bd dc28 34bd 4e83 ba3e 52a7 06be
000002f0: 61ee 093f 1895 81be 92b4 68bd c25a d4be
00000300: 91a2 1ebe 330c 0abe 1a80 d9bd a4c5 09be
00000310: 90ab 553d 47f8 3ebe 4843 64be fcaf 5dbd
00000320: 4b54 56be 4fa6 e0bd 06c7 d8bc d95b 9dba
00000330: 59ac e33c a2cd 63be 8073 8e3a 93e7 3abe
00000340: 622f 8fbd 8203 90bd e563 57bd 0d59 f2bd
00000350: 438c 66be ac71 b4bd 6c1a d4bd 83ba 11bd
00000360: f428 1dbe f88c 14be 7428 febd be5f 91be
00000370: aeb1 47be 9f6b 25be c504 d33d 4e47 96bd
00000380: b047 09be d496 06be a496 05bc 1674 7c3b
00000390: fbae d03c 7893 013e 4ab9 f2bc eaa3 17be
000003a0: f506 2ebe 6ccc fabd 6a1a cabc abaa 5abd
000003b0: a64e e5bd 5cec 93bd 4984 52be 4589 38be
000003c0: ae57 f8bd 1042 cfbc 0c8e 4dbe 4036 f6bd
000003d0: b106 bdbd 8900 39be 27d5 8abd dd2e a6bd
000003e0: c0d3 3cbd 3b67 073d dde2 30bd 8fcc 74bb
000003f0: 6077 1bbe 2b21 2cbe 3ec8 bcbd cd15 f1bd
0.072021365 0.010746537 -0.18009663 -0.22818954 0.0856796 0.082831696 -0.06343543 -0.005998991
-0.09169516 -0.056971766 -0.55278724 -0.15018438 -0.3634192 -0.15756747 -0.07661903 -0.10681332
0.038685977 -0.028304413 -0.094590984 -0.045500804 -0.035949983 0.051417656 -0.04233159 -0.018194454
-0.071397 -0.20707725 -0.5532891 -0.080452025 -0.12999356 -0.4998794 0.088871196 -0.12819608
-0.5615196 0.018269636 0.026970005 0.06486844 -0.6422591 -0.2488279 -0.37185183 -0.15012006
-0.1904519 -0.05697012 -0.5014588 -0.13317896 -0.10551896 -0.31722757 0.11213762 -0.227499
-0.06337962 0.003980443 -0.1209538 -0.053358406 -0.43781534 -0.14380702 -0.10768737 -0.024691075
-0.08062348 0.08885789 -0.518914 -0.09743534 -0.047759492 -0.14972562 0.04472646 -0.15357432
-0.15006807 -0.21741073 -0.21870495 -0.13737933 -0.16095929 -0.033809282 0.16737157 -0.1596407
0.016241739 -0.59058785 0.05864426 -0.05348833 0.030189116 -0.2007425 -0.009735331 0.24689156
0.02124931 0.05892451 -0.10199066 -0.06880654 0.2437519 0.0011560152 0.108982995 -0.008811037
-0.35815245 -0.13150826 -0.09051151 0.102695875 -0.19377366 -0.16515091 -0.008490732 -0.22253387
-0.18398601 -0.18412428 -0.1295022 -0.13678566 -0.15159537 -0.23171541 -0.17541367 -0.24268654
-0.1316806 -0.02662827 -0.3367992 0.10877755 -0.21129017 -0.1399217 -0.19664927 0.0942583
-0.023736754 -0.010949552 -0.04188495 0.0072704116 -0.38043135 0.14609429 -0.26543915 -0.24603806
-0.08321117 0.00601311 -0.2693886 0.06956045 -0.12769033 -0.04376805 -0.078496665 -0.19435601
-0.2809307 -0.52141154 -1.3605105 -0.081419945 -1.8515091 -0.21957375 0.09547234 -0.7144892
0.12212425 -2.4010117 0.077770084 -0.07153366 0.10641923 0.8006803 0.035353497 0.244739
0.029732242 0.10367778 -0.36747572 -0.24909347 0.11625183 -2.2440212 -0.05921507 0.7183125
-1.7484566 0.09974794 0.030588726 -0.9476351 -0.3890097 -0.22962365 -0.05886276 -0.40122968
0.2745081 -0.34384778 -0.8253989 -2.0285904 0.29913723 -2.5658724 0.13373324 0.7986535
-2.5398715 0.0017213821 0.14175545 0.007788445 0.6890983 -0.15379149 0.47568318 0.0035541125
0.3622339 -0.047710195 -0.6708836 0.6682995 0.27342153 0.3125441 -0.7055085 -0.5924304
-0.11751327 -0.04398428 0.36428303 -0.13149765 0.5387936 -0.25309062 -0.05681283 -0.41475493
-0.15491702 -0.13481216 -0.106201366 -0.134543 0.052165568 -0.18649398 -0.22291291 -0.05412291
-0.20930593 -0.10969221 -0.02646209 -0.0012005522 0.027792143 -0.22246411 0.0010868162 -0.18252401
-0.069914594 -0.07031919 -0.0525855 -0.11833391 -0.22514443 -0.08810744 -0.10356602 -0.035578262
-0.15347654 -0.145069 -0.124100596 -0.28393358 -0.19501373 -0.16154335 0.10303644 -0.07337819
-0.13406253 -0.13143474 -0.008153591 0.003852134 0.025474062 0.12653911 -0.029629368 -0.14808622
-0.16994841 -0.12246022 -0.024670798 -0.053385418 -0.111966416 -0.07222816 -0.20558275 -0.18021114
-0.121260986 -0.025300056 -0.20073718 -0.12022066 -0.09229792 -0.1806661 -0.06778937 -0.08114407
-0.046100378 0.033057433 -0.043185104 -0.0037353372 -0.15182257 -0.16809528 -0.09217881 -0.11771736

fc2.bias f4 [64]
00000000: 680c afbe 0caf 89be 20d7 403f 3253 72be
00000010: eeb5 f3be 4b9e d3bd b4fd b5be 745a 92be
00000020: 169f 8cbe bf23 b6bc e115 65be d025 913f
00000030: e4f7 9dbe e564 8c3f 4f36 7f3f a88e 41be
00000040: 1948 213f 6a0e 93be e51c a7be 0e79 a8bd
00000050: 16d3 54be 0573 25be aa9f 68be e532 b1bd
00000060: c70f 8fbd 1e37 12be 686c 77be 14b6 85bd
00000070: 9272 9fbe 9d11 d5be eacd a2be 79a8 b0be
00000080: cab8 15bf 9aa3 edbd 0715 7b3f 7119 a23e
00000090: 4ec6 02bd ada0 5fbd 3eae e0be 3853 b8be
000000a0: 0fd4 813f 34aa 1bbe a940 a8be bcd9 c3be
000000b0: 9139 02be c1a2 09be 03db 33bf 8dd8 38be
000000c0: d8ba 4bbf f356 40be 7f07 f0bd 8f93 31be
000000d0: edd9 b13e ee72 bdbe 66ab d5bd 6763 4abd
000000e0: f166 fcbd 4070 87be da49 cbbd 1b30 e4bd
000000f0: eecb 95be 9407 a0be d023 7ebe 1714 56be
-0.34189153 -0.26891363 0.75328255 -0.23664549 -0.4759974 -0.10332926 -0.35545123 -0.28584635
-0.27465123 -0.022233842 -0.22371627 1.1339664 -0.30853188 1.096829 0.99692243 -0.18902075
0.6300064 -0.28721935 -0.32639232 -0.08226214 -0.20783648 -0.16157158 -0.22717157 -0.086522855
-0.06985431 -0.14278838 -0.24162447 -0.06528869 -0.31142098 -0.41615 -0.31797725 -0.34503534
-0.5848509 -0.1160347 0.9807896 0.31660035 -0.0319274 -0.05459659 -0.43882936 -0.3600099
1.014284 -0.15201646 -0.32861832 -0.38252056 -0.12717272 -0.13440992 -0.7025606 -0.18051358
-0.79581976 -0.18783168 -0.1172018 -0.17341445 0.34736577 -0.37001747 -0.10433082 -0.049411204
-0.12324322 -0.26452827 -0.099261954 -0.11141988 -0.29257149 -0.31255782 -0.24818349 -0.20906101

fc3.weight f4 [32, 64]
00000000: b77d 59be 5f27 e2bd 3e08 fc3e 29f5 b43a
00000010: 1c51 d2bf 18ca 44bd 9c50 533c ea4b 373e
00000020: e332 e2bc 89cc 763d 1fe1 333e 0513 b83f
00000030: 3409 2dbf 96a1 6f3e 21e3 0940 dd07 0bbe
00000040: c5d2 24c0 1832 4fbf 8a2a c53d c633 e63d
00000050: 8dbc 6ebc d623 9f3f 77e1 023e e1cb af3d
00000060: e0ee 023e 4a28 a7be 72d7 28be bcd2 053d
00000070: 4483 5ebe 305a 163b 5fb6 f33e 51d7 9ebc
00000080: 39a9 c23c 5b4a f2bd 7cdd d8bf c714 2940
00000090: 9d34 273f c2a7 39bb 927a c8be 3f9a b93d
000000a0: cc34 1a40 1849 d7bc 7ae3 0ebd a257 a93d
000000b0: 4445 cabe 081c e8bd 4aae 58bf ac50 143f
000000c0: 0e63 dc3e b2cc 10bf 9a8f cc3c 1fbd 003b
000000d0: dae3 0a40 80c6 543e 5f74 92bd 875d 813e
000000e0: d05c 21be 8d8f d4bd c7d5 84bd cb7f bf3d
000000f0: d0ee 9cbb 4b8e 83be 74e9 9ebd ce1c 24be
00000100: 6e7d 273e 30fc da3e 485f 31bf 2892 d1bd
00000110: e3f0 4fbe 70c8 c93c 17cd bd3e 4929 563e
00000120: 5342 85be 9250 61be 504c 88ba bf60 b0bf
00000130: 3217 173e e314 c2be c8c1 b6be 0dcc 8cbc
00000140: c66a 10c0 d6b5 89be 2adb 73be c851 17be
00000150: 3dee f93e d881 ec3e 72b9 38bd 8620 513d
00000160: 807f dfbd 62e2 153d b687 ffbc 2c92 39bd
00000170: 5291 ac3e e3df a43c 4096 10bf f1a7 8d3d
00000180: 7c86 573e 3ef4 023e 07b7 ec3e 04b5 27bf
00000190: 2d52 383f b00f ad3d ef1a 2f3e cebd 703e
000001a0: d402 fa3f 0616 173d c3bf 19be 8ba4 73bb
000001b0: c991 1e3e 8e3e 253e cbaa e7be 3f00 a43e
000001c0: 3634 c03e c2ca 983c 7d49 b5bd 4000 83be
000001d0: 96ed 473f 13e9 90be 152f 9a3d 67c7 9f3d
000001e0: 199e 57be 6793 153c 32a7 17be 6f75 adbe
000001f0: 93ed 733d f712 6c3c b8de f23d c71d d6bd
00000200: b8ba fe3a c4d8 19bf 238a 0b3f e049 313d
00000210: b10a 79bf 7b5d 9dbd b123 09be 98da 743e
00000220: 1c08 e33e 79b6 2cbe efdb 82bd 4201 06bd
00000230: 3ca0 5c3e de0e d3be 4354 0fc0 dad8 5d3c
00000240: 99f6 a7bd 9a73 b03d da37 543d 1451 0c3e
00000250: 3726 8f3d b0f1 c1bf 8441 843d ce35 b8bc
00000260: e420 013e c319 45be 710c 7bbe 4e21 a03d
00000270: f3a4 6dbe df02 0c3d d29b 20bf 9229 41bd
00000280: 890a 863a af25 89bd d950 a43e a31b 61bf
00000290: 7c7d c0bf d0ae d83d ba39 3cbe 6d36 58be
000002a0: 3aa7 863e 6ccc 3cbe 1caf c8bd b665 4cbd
000002b0: 0560 29be eb92 893d 6b07 3a3f 8b64 7ebf
000002c0: 65b3 1bbd a715 c93f a659 f13d 86b3 5d3e
000002d0: ae91 2240 10ed f53d 1fa3 2a3d e7d2 30be
000002e0: b436 933e eb29 153d 7606 513d 1f8b d43d
000002f0: 6451 f93d 71b6 08be 38d9 c23c f0d5 5cbe
00000300: 1246 25bd 0ea0 693e cb4e 1240 cb6d db3d
00000310: 9dfa 703f bf8a 01bc 9406 c0be f8d9 afbe
00000320: 7938 3ebf 5966 46bf ea77 b63b d3fb da3d
00000330: 649f 993f f75c b9bf 99b1 0e40 82e9 833d
00000340: f633 c7bd 6e66 6bbc 907d 3d3e 01b7 05be
00000350: 5f9d 073e 08b7 b13f c4c3 3fbe c755 653c
00000360: 8d27 d63c ea83 483e 58e2 f03d 8ca3 c43d
00000370: cb0e 1a3c 90b9 a1be f9cb 21bf e2b9 ccbe
00000380: 78ff 43bc a211 dd3c a80c 6ebf ec28 3ebf
00000390: 9a3a 233f d003 15be 4bb3 113f 6d90 ba3d
000003a0: d272 9ebf acd3 2bbe c78c 2ebe 9a9b 7fbd
000003b0: da77 95be b409 a53c 1930 f83d d556 443e
000003c0: cd47 a4be 461b 91bf f3a3 debc e0c7 933d
000003d0: 819e b53f bd01 c5bd 45c4 2a3e 393a eeba
000003e0: 7cc4 4e3d 8862 8b3d 5d06 01be 598f dbbb
000003f0: 7d11 f3bd 0e65 8abe 916c e93e 5bda 5bbe
-0.21239363 -0.11042666 0.49225038 0.0013805974 -1.6431003 -0.048044294 0.012897637 0.17900053
-0.027612155 0.060253654 0.17566346 1.4380804 -0.6759217 0.23401484 2.1544878 -0.13577218
-2.5753644 -0.8093581 0.09627254 0.11240344 -0.014571321 1.2432811 0.1278132 0.08583809
0.12786436 -0.32647926 -0.16488436 0.032671675 -0.21729761 0.002294194 0.47600076 -0.01938978
0.023762332 -0.118305884 -1.6942592 2.6418931 0.65314656 -0.0028328751 -0.39156014 0.09062623
2.4094725 -0.026279971 -0.034884907 0.08268668 -0.3950597 -0.113334715 -0.84640944 0.57935596
0.43044323 -0.5656234 0.024970818 0.0019643975 2.170157 0.20778847 -0.07151102 0.25266668
-0.15758061 -0.10378943 -0.06486087 0.093505464 -0.004789211 -0.25694498 -0.077593714 -0.16026613
0.16356441 0.4277053 -0.6928601 -0.10232955 -0.20306735 0.024631709 0.37070534 0.20914187
-0.26027164 -0.22003391 -0.001039872 -1.3779525 0.14754942 -0.3790656 -0.35694718 -0.017187143
-2.256517 -0.26896542 -0.23814073 -0.14777291 0.48814574 0.46192813 -0.04509873 0.051056407
-0.109129906 0.03659285 -0.031192642 -0.045305416 0.3370462 0.020126289 -0.56479263 0.06916798
0.21047395 0.12788484 0.4623339 -0.6551058 0.7200039 0.08450258 0.17100118 0.23509905
1.9532113 0.036886238 -0.15014558 -0.0037176933 0.154853 0.16137144 -0.45247492 0.32031438
0.37539834 0.01865137 -0.088519074 -0.25586128 0.780969 -0.28302822 0.075285114 0.07801705
-0.21056403 0.009129382 -0.14809874 -0.33878657 0.05955274 0.014408818 0.118588865 -0.10454898
0.0019434309 -0.60096383 0.54507655 0.043283343 -0.9728194 -0.076838456 -0.13392521 0.23911512
0.44342124 -0.16866483 -0.06389605 -0.032716043 0.215455 -0.4122228 -2.239518 0.013540471
-0.08201332 0.08615799 0.051811077 0.13702804 0.06989711 -1.5151882 0.064578086 -0.022486594
0.12610203 -0.19248109 -0.24516465 0.07818852 -0.23207454 0.034182426 -0.6273776 -0.047158785
0.0010226528 -0.06696641 0.32092932 -0.87932795 -1.5038295 0.10580218 -0.18381396 -0.21114512
0.2629946 -0.18437356 -0.097990245 -0.049901687 -0.16540535 0.067174755 0.7266757 -0.99372166
-0.03801288 1.5709733 0.11784677 0.21650514 2.5401416 0.12008107 0.04165947 -0.17267953
0.28752673 0.03641693 0.051031552 0.10378098 0.12173727 -0.13350846 0.023785219 -0.21565986
-0.040350027 0.22814962 2.2860591 0.10714301 0.94132406 -0.007906615 -0.3750502 -0.34345984
-0.7430492 -0.7749992 0.005568494 0.10692563 1.2001767 -1.4481496 2.2295897 0.064410225
-0.09726708 -0.014367683 0.1850493 -0.13058092 0.13243626 1.3883982 -0.18727022 0.013997502
0.026141906 0.19581571 0.11761922 0.096015066 0.009402941 -0.31586885 -0.6320186 -0.39985567
-0.011962764 0.026985947 -0.9298806 -0.7428119 0.63761294 -0.14552236 0.56914204 0.09109578
-1.237879 -0.16779965 -0.1704589 -0.062404253 -0.29193002 0.020146228 0.12118549 0.19173749
-0.3208603 -1.1336448 -0.027177786 0.072158575 1.4188997 -0.09619472 0.16676433 -0.0018175311
0.05048035 0.06805903 -0.12600084 -0.006700438 -0.1186857 -0.27030224 0.45590642 -0.21470015

fc3.bias f4 [32]
00000000: a555 00c0 addd 3d3c 6e57 62bd 8456 31bf
00000010: ab9a 273e 603d adbe 33d4 d93d abfd a03d
00000020: 4a4c 1c3f b88e f03f 8611 6a3f 230b ccbf
00000030: e234 593e 32a1 39bf d450 163f 5052 83be
00000040: e35f 43bd 803b 7bbf 4da9 9dbe 7b34 db3f
00000050: 0eeb d5bf 2c91 49bf 35e3 003f c8b6 dcbf
00000060: 0ad7 25bf 0049 6fbf 0080 b5bd d903 993d
00000070: dcff 02bf 4057 783f ff34 13bf 957a 043f
-2.0052273 0.011588496 -0.05525916 -0.6927264 0.16367595 -0.33835888 0.10636177 0.07860883
0.6105391 1.8793554 0.9143299 -1.5940899 0.2121158 -0.7251159 0.58717084 -0.25648737
-0.047698867 -0.98137665 -0.3079323 1.7125391 -1.6712358 -0.7873714 0.5034669 -1.724328
-0.6478125 -0.93470764 -0.08862305 0.07471437 -0.5117166 0.9700813 -0.5750274 0.51749545

in_fn.weight f4 [33]
00000000: b7c1 0440 a297 b33e 9edb 2a3e 2a3e 5a3e
00000010: d4d6 a93e 8df5 733e aff6 47be 0f23 0e3e
00000020: 3f64 ac3e e7f6 7f3e d55e fa3e 5d45 fc3e
00000030: 036e 1ebd 508a c33e 4e4a ff3e 2a0d b13e
00000040: 0210 873e 3c02 ce3e 26b4 d9bd 776b 003e
00000050: b0dc e53e 4ab4 443a 9065 913e 0cc0 993e
00000060: 1cbc 143f d4c0 1d3e c11c 16be a4a2 e13e
00000070: 87f1 153f b060 1b3f 0011 533f 665f 0f3f
00000080: a448 ad3e
2.0743234 0.35076624 0.1668534 0.21312776 0.33171713 0.23824139 -0.19527696 0.13880561
0.33670232 0.2499653 0.48900476 0.4927167 -0.038679134 0.38191462 0.49861377 0.34580356
0.263794 0.4023608 -0.10630064 0.12540995 0.44894934 0.0007503672 0.283978 0.30029333
0.5809953 0.1540559 -0.14659406 0.44069397 0.58571666 0.6069441 0.82447815 0.5600494
0.33844483

in_fn.bias f4 [33]
00000000: d1ad 76bd 9bdd bc3d 5a8c 363d 0958 a8bd
00000010: 7637 223f 9783 a33d 86de 633c bf85 40bd
00000020: 104f e63a ca53 3abc ac7a 983d 3b5f 5b3e
00000030: fcf5 02bd 038a 473d e45f d23d 7a67 de3c
00000040: d758 933d 7997 5b3d cd7c ddbb f054 dd3c
00000050: ad6f 843d 6e20 4bbb 332e a03d b4ce 3a3d
00000060: aeb7 353d 92b4 48bc 9808 b9bb 1c08 b53d
00000070: 1c37 353e dbca f03d 3be7 2d3f d1ba ea3d
00000080: 1cc6 2abd
-0.060224358 0.092219554 0.044567443 -0.082199164 0.63365877 0.07984083 0.013908034 -0.04700255
0.001757117 -0.011372516 0.07445273 0.21423046 -0.03197287 0.048715603 0.10272196 0.02714895
0.07194679 0.053611252 -0.006759262 0.02701804 0.06466613 -0.0030994671 0.07821312 0.045607284
0.044364624 -0.012250083 -0.0056467764 0.08839437 0.17696804 0.117574416 0.67930955 0.11461414
-0.041692838

in_fn.running_mean f4 [33]
00000000: a4a8 1040 8a20 b63c ea40 f73b f3f5 863c
00000010: d19e eb3c e8fa a33c 5f00 5b3b 9ae7 723c
00000020: 0c64 b13c 8696 173c eb6f 9e3c 5031 273d
00000030: 40c4 613b 83c2 453d fb80 763d 49f8 393c
00000040: 95c4 083d 3bee 8a3c 028e 373b 31f4 7d3b
00000050: cf1b a03d 1418 813b 87c8 d83b fc41 ae3c
00000060: b113 a13d 15ab 993b 052b f23b fd83 dd3c
00000070: 1b43 e23d 0421 f33c 5d48 113e 3f6c eb3c
00000080: 117e 9d3d
2.260293 0.022232313 0.00754558 0.0164747 0.028762253 0.020017102 0.003341697 0.014825726
0.021654151 0.009252196 0.019340476 0.040818512 0.003444925 0.048281204 0.0601816 0.0113507
0.0333906 0.0169593 0.0028008227 0.0038750286 0.07817804 0.003939638 0.0066157016 0.021271698
0.07865084 0.004689584 0.0073903822 0.027040476 0.110479556 0.029678829 0.1418776 0.02873814
0.07690061

in_fn.running_var f4 [33]
00000000: f4b8 e040 c906 b23c 77dd f43b 32a2 843c
00000010: f847 e43c 7830 a03c 3856 5a3b 0044 6f3c
00000020: 4347 ac3c 3235 163c b9b2 9a3c 3a04 203d
00000030: af05 613b bf68 393d 90e0 633d 45e4 363c
00000040: 35ff 033d 107c 883c 56fd 363b 7ffe 7c3b
00000050: 32bb 8f3d 019e 803b fc47 d73b 5339 aa3c
00000060: 2f8c 933d 46e1 983b bb4c f03b e67d d73c
00000070: 4c74 c63d b808 ea3c b188 f73d 9d23 e33c
00000080: ae5b 913d
7.0225773 0.021731751 0.0074726897 0.016190622 0.027866349 0.019554362 0.003331555 0.014603615
0.021030074 0.009167956 0.01888405 0.03906653 0.0034335663 0.04526591 0.05563408 0.011162822
0.032225806 0.01666072 0.0027921996 0.003860384 0.070181265 0.0039250855 0.0065698605 0.020779287
0.07204472 0.0046655266 0.0073333657 0.02630515 0.096901506 0.02856861 0.12086619 0.027726943
0.07097565

fc1.weight f4 [64, 33]
00000000: 82be 70be 0dd9 86bd 177f 8e3d 3ec7 e63d
00000010: 7456 77bf d036 5bbd b423 a53d 33de f93d
00000020: c804 ff3d 1459 49bd 86e5 903d e9cc 54be
00000030: dc06 fd3d 0bf4 7bbd 079c acbd 5e80 0f3e
00000040: cdf9 f33d b349 9e3c 5589 5abe a0b1 923d
00000050: d7b0 e13b faef dbbc 36cd 7fbc 9d0c bb3e
00000060: c685 063e e056 003d 2161 d83d a335 debc
00000070: 2daa 5c3e 6429 1c3f c082 43bf 4198 60be
00000080: d9ce 3dbd 82d5 f3be 0ccc 09bf 2c2d e73e
00000090: 9da3 f9bd 0760 adbe 626c 86be 36ec 1c3f
000000a0: fb18 32bd 7174 fdba 0a32 a33e b6f1 7ebe
000000b0: 3ce3 afbe 16c4 aa3e 7df6 4abd 9fe2 b6be
000000c0: 1ad4 5fbe 4401 a9be f53f 4c3f 7562 2fbf
000000d0: 4e42 5fbe c52b a8be 0d31 0f3f bc44 4fbe
000000e0: 9a64 1ebe 5f64 86be f2bd b4be baff 903e
000000f0: 3ea5 e0be 3775 9ebe 0183 1dbd 2bff 06bf
00000100: 3ecc c0be 6d7b a9be 6910 dbbf 48fe 97be
00000110: 6add 813e 4575 85be d81e 3c3e e63d 41bf
00000120: 9722 4e3e e514 1e3e faba 52bd 4dad 35bf
00000130: cb16 793e 7c95 a7be 9fe7 b6bb cd19 9bbd
00000140: df50 84bd c8f9 83be 417e 433e 9396 7dbd
00000150: 1c97 4dbe ad23 843e c336 1b3e d425 18bd
00000160: 5e88 06be e8a3 aabe d3df 503c 5bbe 1f3d
00000170: d5bc 7a3e 91b2 0a3e b0e1 0cbf 3a58 e5bc
00000180: 5075 3abf 1fad bfbe 72b4 4f3e ca1f 95bf
00000190: 1980 cfbd 293a b0bd 7429 2c3f e27d 8abf
000001a0: 7e96 32be 730d 343e e142 0a3d 5560 cbbc
000001b0: 67a2 1c3f 323c 163f 973e cabe a343 25bf
000001c0: cbf9 c0bd 3fd1 a0be 6ee2 183f a4df 90be
000001d0: 920a aebd 1187 1ebe ce84 a93e cbdd e3bd
000001e0: 6dd4 8cbd a4a3 f73e 19a5 503f be72 fbbd
000001f0: d0a6 4f3f 1105 0e3f c91f 4bbe 3d84 f53e
00000200: 2d0e 7d3f 48cc bbbe 5263 a5be 281d eabd
00000210: ec9f d1bf 63a7 1ebc 173d 313e d1cf 76be
00000220: 64dd 7abf 4cec 57bf 34d8 153f e9da 563f
00000230: f15f dc3e 6dd7 633e 5aa8 02be 7880 3abe
00000240: 15f9 84be a40b bbbd a6cf 37bf 04be ec3e
00000250: 4b53 58be 91ef 9abc 14bd f93e 3f9a 01bf
00000260: 9c41 233f 2a54 97be 08fb 7c3e 4519 893e
00000270: d608 b2be 27bd d6be a932 80bc d751 43bf
00000280: 5a48 833e 5061 693f 18ba 1c3f 0449 1c3e
00000290: 744d 6cbe 7f0a 3abf 3890 a33e 975b 943e
000002a0: 8c60 a6bd e96e 30bf b706 a33b c05b ee3e
000002b0: 00d8 83be ff83 f3bd 552f 55be f9c9 ebbe
000002c0: 74eb 00bf 8ae9 943d 1d46 963e 75c9 b7be
000002d0: 270a 9abe 6208 35bf f707 90bf 6d6e 853d
000002e0: 8dd6 9b3e 4aec f6bd 1750 b53e f0f9 093d
000002f0: deb7 4bbe 2d2e d5be 54da cb3e 75dd 143e
00000300: 7fcc 12bf 894f 86be f5d7 f83e 543c 02bf
00000310: 787d 23bf fc6e 27bf 2636 d8bf fa80 19bf
00000320: dda6 32be 909e fd3e 84bf 87bf 0bca dfbe
00000330: 7c50 f23d 8357 efbd cf53 8d3e 6e3b b43e
00000340: 934d 053d 8b41 01bf 47dd 7c3e 4822 1dbe
00000350: ba79 17bf d021 35bd 9e78 d9bd 41ea e53e
00000360: f6fe 55be e8d1 e6bd d453 f33b 16d6 103c
00000370: f5d3 7e3e a4c4 c43e 37e6 513d 5c74 1fbb
00000380: 2b99 1b3e aada b8be d62e 2d3d e38f 4f3e
00000390: 86ae debf dd42 9ebe 3034 683e ef71 42be
000003a0: 7c7a 44be 78f8 c73d c61b 5a3e 9dfd b7be
000003b0: c6fa 8bbe 6f1c 193e 74e3 193e 6be0 b13e
000003c0: 2f79 1dbe 7408 ab3c 5ee3 48bd 76bd c53e
000003d0: cbaf 13bd f959 5fbe 2005 9abc 7289 12bd
000003e0: dad2 403d 4c68 20be 68bc aebd ff59 8abc
000003f0: bc96 79bc 5e6d 9f3e ef4f f23b 4755 94bd
-0.23510173 -0.06584368 0.06957834 0.11268471 -0.9661629 -0.05351907 0.080634505 0.12200584
0.12452084 -0.049157217 0.07075028 -0.20781292 0.12354824 -0.061512034 -0.08428197 0.14013812
0.1191288 0.019322252 -0.2134145 0.071627855 0.006887536 -0.026847828 -0.015612891 0.3653306
0.13136968 0.03133285 0.10565401 -0.027125185 0.21549292 0.6100066 -0.76371384 -0.2193308
-0.046339843 -0.4762383 -0.53826976 0.4515165 -0.1218941 -0.33862326 -0.26254565 0.6129793
-0.043480854 -0.001933707 0.31874114 -0.24896893 -0.34353054 0.33352727 -0.049551476 -0.35719773
-0.21858254 -0.33008778 0.7978509 -0.6850961 -0.21802637 -0.32845894 0.5593422 -0.20241064
-0.15468064 -0.26248452 -0.35301167 0.28320104 -0.4387607 -0.30948803 -0.038455013 -0.52733105
-0.37655824 -0.3310198 -1.7114383 -0.2968619 0.25364238 -0.26066032 0.18371141 -0.75485075
0.20130382 0.15437658 -0.051447846 -0.7096756 0.24325101 -0.32731235 -0.0055818106 -0.075732805
-0.064607374 -0.25776505 0.19091131 -0.061911177 -0.20077175 0.25808468 0.15157609 -0.03714545
-0.13137957 -0.33328176 0.012748676 0.038999896 0.24486096 0.1354468 -0.5503187 -0.027996171
-0.72835255 -0.37436768 0.20283678 -1.1650326 -0.101318546 -0.08604843 0.6725075 -1.0819666
-0.1744022 0.17583255 0.033755187 -0.024826208 0.61185306 0.586856 -0.39500877 -0.6455633
-0.09422644 -0.31409642 0.59720504 -0.28295624 -0.0849811 -0.15481211 0.33109134 -0.11126288
-0.068764545 0.48367035 0.8150192 -0.12277745 0.8111391 0.5547648 -0.19836344 0.47952452
0.98849756 -0.36679292 -0.32302338 -0.11431342 -1.6376929 -0.009683463 0.1730846 -0.24102713
-0.97994065 -0.84344935 0.58533025 0.8392778 0.43041947 0.22250147 -0.12759534 -0.1821307
-0.25971285 -0.0913308 -0.7180122 0.4623872 -0.21125524 -0.018913062 0.48777068 -0.50625986
0.63771987 -0.295564 0.24705136 0.26777092 -0.34772366 -0.41941187 -0.015649157 -0.7629675
0.25641137 0.9116411 0.61221457 0.15262228 -0.23076421 -0.72672266 0.31945968 0.28976128
-0.081238836 -0.68919235 0.0049751657 0.46554375 -0.25750732 -0.11890411 -0.20818837 -0.4605253
-0.5035927 0.072711065 0.29350367 -0.35895887 -0.3008587 -0.70715916 -1.1252431 0.06515203
0.30437127 -0.12056787 0.35412666 0.033685625 -0.19894359 -0.41636792 0.3981501 0.14537604
-0.57343286 -0.26232556 0.48602262 -0.50873303 -0.63863325 -0.65403724 -1.6891525 -0.5996243
-0.17446466 0.49535036 -1.0605321 -0.43708834 0.118317574 -0.116866134 0.27603003 0.3520159
0.032544684 -0.50490636 0.24693786 -0.15345109 -0.59170115 -0.0442217 -0.10618709 0.44905284
-0.20898041 -0.11270505 0.0074257646 0.008840105 0.24885543 0.38431275 0.05124494 -0.002433083
0.15195148 -0.36104327 0.042280994 0.20269732 -1.739701 -0.30910388 0.22676158 -0.18988775
-0.19187349 0.097641885 0.21299657 -0.3593568 -0.27339762 0.14952253 0.15028173 0.3474153
-0.15378259 0.020878054 -0.04904496 0.3862111 -0.03605632 -0.21811666 -0.018801272 -0.03577561
0.047076084 -0.15664786 -0.085320294 -0.016888617 -0.015233692 0.31138128 0.0073947827 -0.07242828

fc1.bias f4 [64]
00000000: ec4f 1bbf d23e ffbe 5b65 9dbf c6bf 94bf
00000010: f50a 94bf 33c4 45be e9ce d7bf 7c79 19bf
00000020: 5132 e0be 6fb5 35bf 3501 30be 5293 30bf
00000030: d48f 8fbe 74c3 34bf da0a b7bf 79ac 1cbf
00000040: e2ad 143e f749 62bf c826 38bf 7730 1e3d
00000050: 1448 4bbf 511e 33bf ce52 4cbf e65b c1be
00000060: 3ca9 86bf 9044 c6bf 45c6 7dbf 2501 80bf
00000070: 37e8 66bf 2c0c 233e cfc2 7fbf a5b7 33bf
00000080: 7bb3 143d 8654 0fbf 079c 34bf 0695 0dbf
00000090: 936c 43bf e28f 0bbf e626 89bf 92a1 b4be
000000a0: 698f 2abe 47cd ccbf ee5a 24bf a566 63bf
000000b0: 02fc 8ebf 89da f3bf 8286 a3bf f50a 23bf
000000c0: 59bf fabe 96d0 fbbf 28a5 4cbf 0cea ddbe
000000d0: dcaf a7bf c5a1 a6bf 9726 98be 34ff 32bf
000000e0: 1139 efbe 78fa 71bf 957d bdbf c7b5 eabe
000000f0: d631 2cbf 7e02 46bf 3441 77bf fe43 57bf
-0.60668826 -0.49852616 -1.2296556 -1.1621025 -1.1565844 -0.19313125 -1.6860019 -0.59950995
-0.43788388 -0.7097997 -0.1718796 -0.6897479 -0.2803942 -0.7061074 -1.4300187 -0.6120067
0.14519456 -0.8839411 -0.71934175 0.03862044 -0.7940686 -0.69968134 -0.7981385 -0.37765425
-1.0520396 -1.5489674 -0.9913066 -1.0000349 -0.9019808 0.15922612 -0.9990663 -0.70202094
0.03630398 -0.5598835 -0.7055058 -0.55305517 -0.76337546 -0.5451642 -1.0714996 -0.35279518
-0.16656269 -1.6000146 -0.6420125 -0.888285 -1.1170657 -1.9051067 -1.2775424 -0.63688594
-0.48974112 -1.967303 -0.7993951 -0.43342626 -1.3100543 -1.3018118 -0.29716942 -0.6992066
-0.46723226 -0.9452281 -1.480395 -0.4584181 -0.67263544 -0.7734755 -0.9658387 -0.8408812

fc2.weight f4 [64, 64]
00000000: 8e67 ccbd e6aa 2b3d e4e4 52bd 5f98 2abe
00000010: 8809 92bc 60a6 38bd 29d3 06bc 013b 8e3d
00000020: 4bee ffbd 47dd d5bd 3dbf aabe 33df ebbe
00000030: ee3a 6838 0a2b afbe cbe1 2cbc d35b 75be
00000040: f8ce 97be 3c79 073d 4bef 44bd e311 f9be
00000050: f9e4 35be 9ab4 68be 57dd 8ebe ae12 37bd
00000060: 949c d3bc 5f37 c6bd 0f6e a8bd 1a60 1ebe
00000070: 4981 80bd cad9 51be 2ada 75bd 2907 89be
00000080: 71a5 30be 2c02 c1bd 5824 18bc 2e9b 303d
00000090: 36ac 843c c7a9 f9bd 6c00 80be 9639 9d3c
000000a0: be5d 06be 7229 563d fc4e edbc ab82 be3d
000000b0: b48a 11be e83a adbc 030b 4bbe ebe1 fdbc
000000c0: a525 55be 5a70 5f3c 14a7 6cbd a0d9 92bb
000000d0: 2f71 babd 7f81 17bd 2c1e 45be cf5e 52be
000000e0: 1fb8 edbc 2485 9cbd 5e4a 903d bf5a 45bd
000000f0: 616c 53bb ceef 51be d72e c93d e503 743d
00000100: 37b8 a0be 4113 42bf 07a2 46bf 7ba6 92be
00000110: dd55 a6bd 89a9 60bf efcd cf3c 3bd4 353c
00000120: dd20 44be 506f abbe a647 303e cfa3 823e
00000130: 3afb 76be ef93 b8bd 4c4d e73d 40bf abbd
00000140: 2e09 f7be 890b bbbe 57a0 8bbf 16c7 f2be
00000150: 6126 a2bd b9ed d6bc d8df f5be f8b3 f4bd
00000160: 51dc efbe 82da f43d b522 74be 296d 313e
00000170: e5b4 d8bd 1cf1 2f3c 672b a1be 5f49 3bbe
00000180: 22e8 05bf b979 98be cf6b d8bd fcbe aebd
00000190: c9bb a43c c1af d6bd f6ec 39be 6677 80be
000001a0: 98b5 d5be 84fa 943e 7147 8ebe 4677 c03c
000001b0: e771 b8bd 853d 823b c622 b4be 56fc 47be
000001c0: 9484 0dbe c5d5 4abe c396 46bd bd52 ccbd
000001d0: dd76 5cbe 014c 97be c588 dbbe 6c1d 8abe
000001e0: 4649 2ebe 99da 3fbe 4057 61be 0047 8bbf
000001f0: 2f94 2dbe 295e 96be 330f 2fbe 8f8f 403d
00000200: d58b 5ebe 71e0 92be 5571 81be 4fb3 2a3b
00000210: 4bca 09bd bd1e 1bbe d814 73be 4a30 9ebe
00000220: 1103 223d e9d6 0f3d 3ed6 89be 916f b93c
00000230: eeae 5cbe 8f24 80be 02f5 92be 9897 6d3c
00000240: 8527 a73d edf8 24be f3d0 103e 1a59 26be
00000250: cece 28be 09b1 8bbe df24 873a 527e 943b
00000260: 9d33 07bd 600b 85bc 6200 573d 543f 73bc
00000270: 7731 ba3d 50ea 88be b33c 82bc fb97 0ebe
00000280: 43a0 2f3d ec48 c4bd b196 3b3e 8b78 0a3d
00000290: ba6e 9dbb 6b07 17be 8096 63be 25ca 86be
000002a0: 3cad abbe 8246 c13c 185b 3d3d ccde 75bb
000002b0: a6d3 20bd c57c 033c 2a7f 4dbc 7f83 633d
000002c0: a797 b73d 56d0 14bc 16dd 8e3b 8409 513d
000002d0: 3c31 59be ad9e d8bb d55d 9dbe 0b32 c8bc
000002e0: 9891 1fbf 0cc4 503a 10ed aa3d 548c 733e
000002f0: 59d4 003e 075a a8bc 2bcf a7bc e2f8 c33d
00000300: 750a b0be dd56 673e 9e52 97be de65 45be
00000310: 0d0f c3be cd9e 4fbd 6904 66be 5132 b93d
00000320: 70a0 b1be 1b22 7e3c 468d 723e b810 17bf
00000330: db0b 77be b6e5 3fbe d2a3 c8bd 480f 12be
00000340: 4da2 edbd 9643 2b3d 23be 1cbd b4b2 3ebf
00000350: 87d0 bbbd fa27 22be 527f fcbe 8266 1ebf
00000360: f171 f6bc 07d9 28bd ca26 8cbe d920 88bd
00000370: 0fbd abbb 196d 99be c9a1 06be 4051 3fbe
00000380: 257c 2fbf d27d babc dd43 60bd d181 3cbd
00000390: 1861 2abe 796d 84bd 7bcb 29be 944f 733e
000003a0: dcbf bfbe 10b4 18be 51a3 51be 7b0a 4fbd
000003b0: 87a7 39be 2d4e c7bd e06d 4a3e b41e fbbd
000003c0: 7141 103d d899 7bbe 28ce efbc c835 9abe
000003d0: b8ea 4fbe 3678 2abe 4387 e0be 4aa4 90bd
000003e0: e8bb 53be 4b77 a33d 73a0 e4bd 8ac9 02bf
000003f0: 32f1 b5bd b676 06be 9f72 af3d 2c1b b9be
-0.09980689 0.04191103 -0.05148782 -0.16659687 -0.01782681 -0.045080543 -0.008229055 0.06944848
-0.12496623 -0.10442596 -0.33349028 -0.46068725 5.5367993e-05 -0.34212524 -0.01055188 -0.2396081
-0.29650092 0.033074602 -0.04807977 -0.4864646 -0.17763127 -0.22725144 -0.27903244 -0.04469555
-0.025831498 -0.0967853 -0.08224117 -0.15466347 -0.06274659 -0.20493236 -0.06002251 -0.26763275
-0.17250611 -0.094242424 -0.009286009 0.04311674 0.016195398 -0.121905856 -0.25000322 0.019192498
-0.13121697 0.05228562 -0.028968327 0.09302267 -0.14213067 -0.021146253 -0.1982842 -0.030991515
-0.20815141 0.013637627 -0.057776526 -0.0044815093 -0.09103619 -0.03698873 -0.19249791 -0.20543979
-0.02901846 -0.07642582 0.070454344 -0.048182245 -0.0032260644 -0.20501634 0.09823387 0.059574027
-0.31390545 -0.7581063 -0.77590984 -0.2864264 -0.08121846 -0.8775869 0.025366751 0.011097963
-0.19153161 -0.33483362 0.17214832 0.255156 -0.24119273 -0.09012591 0.1129404 -0.083860874
-0.4824919 -0.36532238 -1.0908307 -0.47417516 -0.079174764 -0.026236402 -0.48022342 -0.11948389
-0.46847776 0.119557396 -0.23841365 0.17326798 -0.10581378 0.010738637 -0.31478426 -0.18289708
-0.5230733 -0.29780367 -0.10567438 -0.08532521 0.020109074 -0.10482741 -0.181568 -0.25091094
-0.41740108 0.29097378 -0.2778888 0.023494374 -0.090061 0.003974619 -0.3518278 -0.19529852
-0.13820106 -0.19808109 -0.04848362 -0.099767186 -0.21529718 -0.29550174 -0.42877784 -0.26975572
-0.17020139 -0.18735732 -0.2200594 -1.0881042 -0.16951059 -0.29368713 -0.17095642 0.04701191
-0.21733029 -0.2868686 -0.25281778 0.0026046818 -0.033640187 -0.15148444 -0.2373842 -0.30896217
0.039553706 0.035117064 -0.26921266 0.022636207 -0.21551105 -0.25027892 -0.2870255 0.014501475
0.081618346 -0.16110583 0.14142208 -0.16244927 -0.1648514 -0.27283505 0.0010310671 0.00453166
-0.033008207 -0.016240776 0.0524906 -0.014846642 0.09091466 -0.26741266 -0.015898084 -0.13925163
0.042877447 -0.09584221 0.18319203 0.033806365 -0.0048044594 -0.14748923 -0.2222538 -0.263261
-0.33530605 0.023593191 0.046229452 -0.003751683 -0.039264344 0.008025353 -0.012542525 0.055545326
0.08964472 -0.009082874 0.0043598516 0.051034465 -0.21210188 -0.0066107125 -0.3073565 -0.024437925
-0.62331533 0.00079637836 0.08345997 0.23784 0.12581004 -0.02055074 -0.020484528 0.09568955
-0.34382978 0.2259173 -0.2955522 -0.1927714 -0.3809742 -0.050688554 -0.2246262 0.090428
-0.34692717 0.015511061 0.23686704 -0.59009886 -0.24125616 -0.18739972 -0.09796871 -0.14263642
-0.11603222 0.0418125 -0.038267266 -0.7449143 -0.09170633 -0.15835562 -0.49315888 -0.61875165
-0.030083628 -0.0412226 -0.27373344 -0.0664689 -0.0052410434 -0.29966047 -0.13147654 -0.18683338
-0.68548805 -0.022765074 -0.05475222 -0.04602224 -0.16638601 -0.06466193 -0.16581528 0.23760825
-0.37451065 -0.14912438 -0.20472457 -0.050547104 -0.18130313 -0.09731708 0.19768476 -0.122617155
0.03521866 -0.24570405 -0.029273108 -0.30119157 -0.20304382 -0.1664742 -0.43853197 -0.07062586
-0.2067715 0.07981738 -0.11163416 -0.51088774 -0.08883895 -0.13131222 0.08566784 -0.36153543

fc2.bias f4 [64]
00000000: d303 65be 6080 8bbe f839 84be bc18 11bf
00000010: a3cc bcbd 4af9 08be 0120 3bbd f073 6a3e
00000020: 1b06 a5bc 0dae 7cbe b443 b5bd e95e 57bd
00000030: 3ed9 953e 1c34 fc3d 9366 aebe f0e2 43be
00000040: 53b5 3cbd 3123 e6bc 3bce 093d 6b89 39be
00000050: d6ff c53e 9bfa 863d 8782 bebd b1d3 22be
00000060: c832 dcbd 9bc1 16bc 2751 16bd 9fc9 13bf
00000070: 9dd2 e83e 4c17 35be 3e04 87be c0b4 cdbd
00000080: e6c2 7d3e 42cf 19bd 3330 d3be 0a2b 09be
00000090: 3fec 4bbe dc27 a3be 85c9 a9bd 0ae6 17be
000000a0: 3389 fbbe 214a bcbd 7791 a53b 43df 0a3f
000000b0: f138 d3bd 9cb3 6bbd 8a2b 4c3e 45fb 54be
000000c0: f49d 12be 24e2 8dbe c0b0 7e3f 0aa5 d7bd
000000d0: 87c6 15bf 29c5 a9bd 4cce 7abe ab04 91be
000000e0: e032 0bbe 6b93 ad3e ff0c 0dbe 5fb3 11be
000000f0: d8bf 74bd 4b2a c93e 6a61 0ebd b85e 45bd
-0.2236474 -0.2724638 -0.25825477 -0.56678367 -0.09218719 -0.13376346 -0.04568482 0.22895789
-0.020144513 -0.2467577 -0.08850804 -0.052580748 0.29267305 0.123146266 -0.34062633 -0.19129539
-0.04607136 -0.028092952 0.033643942 -0.18118827 0.3867175 0.06590768 -0.0930224 -0.15901066
-0.10751873 -0.009201433 -0.036698487 -0.57729524 0.45473185 -0.17684668 -0.26370424 -0.10044241
0.24781379 -0.037551172 -0.4124771 -0.13395324 -0.1991434 -0.31866348 -0.0829039 -0.14833847
-0.49128112 -0.091938265 0.005052741 0.5424692 -0.10313595 -0.057544336 0.19938484 -0.20798977
-0.14318067 -0.27711594 0.9948845 -0.105295256 -0.58506054 -0.082895584 -0.24492759 -0.28323874
-0.13593626 0.33901533 -0.13774489 -0.14228581 -0.05975327 0.3929008 -0.03476087 -0.048186034

fc3.weight f4 [1, 64]
00000000: 8e3f de3d 1366 6b3b 0c41 c0bb 9c51 5abc
00000010: 976b 8ebc c047 1639 4f14 1dbb aa5e 3ebe
00000020: 08ec 8abb 612c 6b3e 1fe2 76bd 9968 17ba
00000030: 11c6 e03d e24d 973d 3f32 97bc 5612 c53c
00000040: 5403 8ebc 138c b33c fad1 333e 178d d13d
00000050: efce 00be 43d3 3e3e cb57 b6bb 1a16 5a3b
00000060: be06 31bd 1d18 a5bc 3ccf 2fbd f76b 48be
00000070: e6eb c93d 0133 2dbe 9e96 49bb 0c83 86bb
00000080: b892 38be e08e 173c 27a6 e1bd 7d13 2ebe
00000090: df52 53bc e03c c83d d5ea 52bc 7f82 8abd
000000a0: 7420 9f3d 9c99 993c 6f8e a8bd cb4b 38be
000000b0: 1467 6b3c e99d 6ebb def5 2d3e bb8a 63ba
000000c0: c8a6 a83c ca7e 413d 01df 643e 7ced 683e
000000d0: 9b68 323e d51f c4bc 8a8f 20bc b7bf 383d
000000e0: 7739 e1bc 1ffd 8ebd 8dff 9f3c 5d81 9d3c
000000f0: fe16 dcba 1bbe 52be 657c ac3b 359d f7ba
0.10851966 0.0035918995 -0.005867129 -0.013325121 -0.017385287 0.00014331844 -0.0023968404 -0.18590799
-0.004239563 0.22966148 -0.06027424 -0.0005775779 0.10975278 0.07387902 -0.018456576 0.024056595
-0.017335571 0.021917379 0.17560568 0.10231989 -0.12578939 0.18635277 -0.005564665 0.0033277334
-0.04321932 -0.0201531 -0.042922243 -0.19572435 0.09859447 -0.16913988 -0.003075994 -0.0041049775
-0.18024719 0.009250373 -0.11018019 -0.16999622 -0.012898176 0.09777236 -0.012873371 -0.067631714
0.07769862 0.018750004 -0.08230292 -0.17997663 0.014367837 -0.003641004 0.16988322 -0.0008680035
0.02058734 0.047240056 0.22350694 0.22746843 0.17422716 -0.02394096 -0.009799847 0.04510471
-0.027493222 -0.06981873 0.019531036 0.019226724 -0.001679152 -0.20580332 0.0052638524 -0.0018891456

fc1.weight f4 [64, 1]
00000000: 685c 643e 5fd7 5cbf b6ba 87bf c3b2 c8bc
00000010: ee60 0cc0 c10d be3e da55 82bd 29ce e93e
00000020: 98c6 11bd 7ae5 4ebf a8ae a8bd a72a 0cbd
00000030: 7217 92bd f8e3 90be 3051 95bd 5795 94bd
00000040: 306c 143e 00e7 82bb 4c68 603e 006b 633d
00000050: 1498 adbd 532f b4bf 70a3 2bbe 3ad7 873d
00000060: 774c 92bf 5a6b 8dbd 45fe e3bb 2c81 823f
00000070: 8c29 87bf a207 cb3d 35dc 373e 85b7 f43e
00000080: e6b3 cbbc c3a1 0cbf 08ae 96bf 43db 54bf
00000090: e90f f7bc f855 90bf 0392 9bbd 668a 01bf
000000a0: 07ba cd3f 5ca0 d8be 2284 30be 69ff a63c
000000b0: 9cc9 cbbe e63a c23c fe3f 0dbe 10ec 94bd
000000c0: 22d0 f4bd 0088 e0bd 4d80 93bf 7193 dfbe
000000d0: 3ac0 763c 9d93 b1bd 032c d33e 6a97 083f
000000e0: 20ca 3fbd c4ba a8be fa74 0ebe 2674 463e
000000f0: 988b 1fbc 0a89 8d3e 3391 de3e da3c c23e
0.22300875 -0.8626613 -1.0603855 -0.024499303 -2.193416 0.37119868 -0.06364031 0.456651
-0.035589784 -0.80818903 -0.08236438 -0.034220364 -0.07133378 -0.28298926 -0.07290876 -0.07255047
0.14494395 -0.0039948225 0.21914786 0.055521965 -0.08476272 -1.4076942 -0.16761565 0.06632848
-1.1429585 -0.06905241 -0.0069578015 1.019567 -1.0559554 0.09913565 0.17955096 0.47796264
-0.024866056 -0.5493433 -1.177186 -0.83147067 -0.030158954 -1.1276236 -0.07596209 -0.50601804
1.6072396 -0.42309844 -0.17237905 0.02038546 -0.39802253 0.023709726 -0.13793942 -0.07271588
-0.11953761 -0.1096344 -1.1523529 -0.43667176 0.015060479 -0.08670733 0.41244516 0.5335604
-0.04682362 -0.3295499 -0.1391181 0.19380245 -0.009737872 0.27643615 0.43470153 0.3793705

fc1.bias f4 [64]
00000000: 36e2 76bf 9584 07bf fc1a 42bd 3b72 83bd
00000010: 91ad 0fbf 70e4 9bbf f620 38be edbc babf
00000020: fc4c 1dbd cca3 54bf f6c9 b9bd a3f8 c0bd
00000030: 5356 07be f713 84be ae15 6dbf e18c 61be
00000040: e2ff 33bf 8327 41bf 1ee6 36bf 05b3 22bf
00000050: c841 11be 2c33 4abf 5294 63bf 696f a5be
00000060: 3cb9 27bf 6fd4 8dbd d6f2 7abd 1681 c8bf
00000070: 7b3a 423f 49a0 adbe e382 44bf 1487 dbbf
00000080: 724d 70bd a165 36bf 74f7 2bbf fccd 54bf
00000090: b504 ebbd 7e66 2abf a234 37be 5b1b d2be
000000a0: 09a9 5fbf c0b5 59bf 02bd bfbe d23e b4bd
000000b0: 7ce5 bebe 949e d5bd 7530 2bbe 9e68 b4bd
000000c0: 2b4c 07be 72e0 29bf 2423 85be e66c c7be
000000d0: ec8d 94bd 6c67 50be 91aa e1bf e89e dbbf
000000e0: 50d2 1abf 1657 bcbe 8f80 0fbe 1abf 3ebf
000000f0: 9ad4 b0bd b2a0 78bf 53d8 c2bf 29f8 a2bf
-0.9643892 -0.5293668 -0.047389016 -0.06418272 -0.56124216 -1.2179089 -0.17981324 -1.4588906
-0.038403496 -0.83062434 -0.09071724 -0.09422424 -0.13216524 -0.25796482 -0.92611206 -0.22026397
-0.7031232 -0.75450915 -0.7144488 -0.6355441 -0.1418525 -0.7898433 -0.88898194 -0.32311562
-0.6551702 -0.06925284 -0.061266743 -1.5664394 0.75870484 -0.3391135 -0.7676222 -1.7150598
-0.058667608 -0.71248823 -0.6717446 -0.8312681 -0.11475507 -0.6656264 -0.17891172 -0.41036496
-0.873673 -0.85042953 -0.3744889 -0.088010445 -0.37284458 -0.10430637 -0.16717704 -0.08809017
-0.1321265 -0.663581 -0.26003373 -0.3895027 -0.07253632 -0.20351952 -1.7630178 -1.7157869
-0.6047716 -0.3678519 -0.14013885 -0.7451035 -0.086343005 -0.971202 -1.5222267 -1.2731982

fc2.weight f4 [64, 64]
00000000: f07f 933d 7512 303c 2e6b 38be 39aa 69be
00000010: f078 af3d aaa3 a93d 6fea 81bd e792 c4bb
00000020: 76ca bbbd ed5a 69bd 2f83 0dbf c4c9 19be
00000030: d611 babe 5159 21be 70ea 9cbd a4c0 dabd
00000040: 3075 1e3d a8de e7bc d3b8 c1bd ca5e 3abd
00000050: f03f 13bd 7b9b 523d e463 2dbd 7c0c 95bc
00000060: 4438 92bd d80b 54be 63a4 0dbf 08c4 a4bd
00000070: cb1c 05be 2ef0 ffbe 1a02 b63d b345 03be
00000080: 73bf 0fbf 4baa 953c 67f0 dc3c fed9 843d
00000090: dd6a 24bf c6cc 7ebe 4e63 bebe f8b8 19be
000000a0: a305 43be 8059 69bd 6a5f 00bf f35f 08be
000000b0: 201a d8bd 896b a2be d4a8 e53d 5df5 68be
000000c0: 23cd 81bd 606e 823b 52b6 f7bd 408e 5abd
000000d0: 0529 e0be e441 13be 3c8b dcbd f044 cabc
000000e0: ec1d a5bd 59fb b53d 43d7 04bf 2e8c c7bd
000000f0: 279f 43bd 7451 19be 1833 373d 7042 1dbe
00000100: 4cab 19be d4a0 5ebe e4f3 5fbe 1fad 0cbe
00000110: 61d2 24be 677b 0abd a063 2b3e ad78 23be
00000120: 8e0d 853c 8830 17bf 3935 703d 9416 5bbd
00000130: 954f f73c 4b8f 4dbe f080 1fbc f6d0 7c3e
00000140: 0813 ae3c d45a 713d 84e0 d0bd 73ea 8cbd
00000150: ea99 793e af85 973a 7a32 df3d 185c 10bc
00000160: 9a5f b7be 0faa 06be c25d b9bd 0c52 d23d
00000170: 576c 46be 351d 29be 1e1d 0bbc cddf 63be
00000180: b666 3cbe 0a8b 3cbe e39b 04be 4311 0cbe
00000190: b03b 1bbe d546 6dbe 729f 33be 9e82 78be
000001a0: fbd6 06be 8823 dabc c570 acbe b8c6 de3d
000001b0: 245c 58be 8747 0fbe 3f5e 49be 370a c13d
000001c0: 8b73 c2bc c065 33bc 618f 2bbd ec3c ee3b
000001d0: ebc7 c2be e399 153e a3e7 87be 22f1 7bbe
000001e0: 9e6a aabd 0a0a c53b 37ed 89be 5f75 8e3d
000001f0: 47c1 02be fe45 33bd 89c2 a0bd 1305 47be
00000200: 1bd6 8fbe ef7a 05bf 71e0 86bf 59bf a6bd
00000210: 8b48 e8bf a1d7 60be ef86 c33d 76e8 36bf
00000220: 611c fa3d 20aa 19c0 0f46 9f3d 2480 92bd
00000230: 63f2 d93d 4bf9 4c3f d4ce 103d e69c 7a3e
00000240: 0891 f33c 0455 d43d 7a25 bcbe 4e12 7fbe
00000250: 7915 ee3d 3e9e 0fc0 808b 72bd a1e3 373f
00000260: 38cd dfbf ba48 cc3d 7995 fa3c 9dad 72bf
00000270: c660 8bbe 6522 6bbe 851a 71bd b36d cdbe
00000280: 4f8c 8c3e 9a0c b0be 384d 53bf 2bd4 01c0
00000290: 7028 993e e936 24c0 a6f1 083e de74 4c3f
000002a0: c1af 11c0 05a0 e13a 6328 113e 3e36 ff3b
000002b0: 2d69 303f db7b 1dbe 158d f33e fdeb 683b
000002c0: 2577 b93e c46b 43bd 7ea0 28bf e415 2b3f
000002d0: bbfd 8b3e dc05 a03e 2e9c 34bf 9fa9 17bf
000002e0: ceaa f0bd f128 34bd 1e83 ba3e 53a7 06be
000002f0: c6ee 093f e394 81be 85b4 68bd 235b d4be
00000300: 64a2 1ebe 130c 0abe f07f d9bd 5fc5 09be
00000310: 90ab 553d 22f8 3ebe 0543 64be d0af 5dbd
00000320: 3854 56be 05a6 e0bd c8c6 d8bc d45b 9dba
00000330: a0ac e33c 71cd 63be 8073 8e3a 82e7 3abe
00000340: 622f 8fbd 8203 90bd b463 57bd e258 f2bd
00000350: 2d8c 66be ac71 b4bd 6c1a d4bd 7cba 11bd
00000360: a828 1dbe c08c 14be 5228 febd 785f 91be
00000370: 58b1 47be 816b 25be 9004 d33d 5447 96bd
00000380: 9747 09be 8796 06be ab96 05bc 6174 7c3b
00000390: 4baf d03c 5393 013e fab8 f2bc c4a3 17be
000003a0: a106 2ebe 6ccc fabd 231a cabc 60aa 5abd
000003b0: 994e e5bd 34ec 93bd 0c84 52be 4289 38be
000003c0: a657 f8bd 1042 cfbc bb8d 4dbe f235 f6bd
000003d0: 7a06 bdbd 6600 39be dbd4 8abd d12e a6bd
000003e0: c0d3 3cbd 8267 073d aae2 30bd 3acc 74bb
000003f0: 1077 1bbe 1521 2cbe fac7 bcbd d615 f1bd
0.072021365 0.010746588 -0.18009636 -0.22818841 0.08567989 0.082831696 -0.06343543 -0.0059989574
-0.09169476 -0.05697148 -0.55278295 -0.15018374 -0.36341733 -0.15756728 -0.07661903 -0.106812745
0.038685977 -0.028304413 -0.094590805 -0.045500554 -0.035949647 0.05141781 -0.04233159 -0.01819443
-0.07139638 -0.20707643 -0.5532896 -0.080452025 -0.12999265 -0.4998793 0.088871196 -0.12819557
-0.56151503 0.018269679 0.026970102 0.06486891 -0.6422556 -0.24882802 -0.37185138 -0.15011966
-0.19045119 -0.05697012 -0.5014559 -0.13317852 -0.10551858 -0.31722668 0.11213842 -0.22749849
-0.06337955 0.003980443 -0.12095322 -0.053358316 -0.43781295 -0.14380604 -0.10768744 -0.024691075
-0.08062348 0.088858314 -0.51890963 -0.09743534 -0.0477592 -0.14972478 0.04472646 -0.15357375
-0.15006751 -0.21741039 -0.2187038 -0.13737915 -0.16095878 -0.033809092 0.16737223 -0.15964003
0.016241815 -0.5905843 0.058644507 -0.05348833 0.030189315 -0.20074193 -0.009735331 0.24689087
0.02124931 0.05892451 -0.10199073 -0.06880655 0.2437512 0.0011560227 0.108982995 -0.008811019
-0.35815126 -0.1315081 -0.09051086 0.102695554 -0.19377266 -0.16515048 -0.008490829 -0.22253342
-0.18398556 -0.18412414 -0.12950091 -0.1367846 -0.15159488 -0.23171552 -0.17541292 -0.24268577
-0.13167946 -0.02662827 -0.33679786 0.10877746 -0.21128899 -0.1399213 -0.19664858 0.094257765
-0.023736736 -0.010949552 -0.041884784 0.007270446 -0.3804315 0.14609484 -0.26543912 -0.24603704
-0.08321117 0.0060131596 -0.26938793 0.069559805 -0.12769042 -0.04376792 -0.07849605 -0.1943553
-0.28093037 -0.52140707 -1.0537244 -0.081419654 -1.8147138 -0.21957256 0.09547221 -0.7144846
0.12212444 -2.4010086 0.077770345 -0.07153347 0.10641935 0.8006789 0.035353497 0.24473915
0.029732242 0.10367778 -0.36747342 -0.24909326 0.11625189 -2.2440333 -0.05921507 0.7183171
-1.7484503 0.09974809 0.030588852 -0.9479616 -0.2722227 -0.22962339 -0.05886318 -0.40122756
0.27450797 -0.34384614 -0.825397 -2.0285747 0.29913664 -2.5658514 0.13373432 0.79865825
-2.2763522 0.0017213827 0.14175563 0.0077884486 0.68910486 -0.15379278 0.47568575 0.003554105
0.36223713 -0.047710195 -0.6586989 0.6683028 0.27342018 0.3125447 -0.7055081 -0.59243196
-0.117513284 -0.043984357 0.3642816 -0.13149767 0.53879964 -0.25308904 -0.05681278 -0.41475782
-0.15491635 -0.13481168 -0.10620105 -0.13454197 0.052165568 -0.18649343 -0.22291191 -0.054122746
-0.20930564 -0.10969166 -0.026461974 -0.0012005516 0.027792275 -0.22246338 0.0010868162 -0.18252376
-0.069914594 -0.07031919 -0.05258532 -0.11833359 -0.2251441 -0.08810744 -0.10356602 -0.035578236
-0.1534754 -0.14506817 -0.12410034 -0.2839315 -0.19501245 -0.1615429 0.103036046 -0.073378235
-0.13406216 -0.13143359 -0.008153598 0.0038521516 0.025474211 0.12653856 -0.02962922 -0.14808565
-0.16994716 -0.12246022 -0.024670666 -0.05338514 -0.11196632 -0.072227865 -0.20558184 -0.1802111
-0.121260926 -0.025300056 -0.20073597 -0.12022008 -0.09229751 -0.18066558 -0.0677888 -0.08114398
-0.046100378 0.033057697 -0.043184914 -0.0037353174 -0.15182137 -0.16809495 -0.0921783 -0.11771743

fc2.bias f4 [64]
00000000: 590c afbe b7ae 89be 8fe0 5e3f 0653 72be
00000010: 3eb5 f3be 149e d3bd b2fd b5be 405a 92be
00000020: 0f9f 8cbe 9623 b6bc 9115 65be 45a6 863f
00000030: 2b56 82be 5911 8f3f d90a 843f a38e 41be
00000040: c56a 273f 540e 93be b51c a7be c178 a8bd
00000050: 10d3 54be ed72 25be 6d9f 68be be32 b1bd
00000060: ab0f 8fbd 1837 12be 1a6c 77be 14b6 85bd
00000070: 9872 9fbe 8510 d5be 83fb 8fbe 76a8 b0be
00000080: c0b8 15bf 69a3 edbd b84d 5f3f dfde ae3e
00000090: f2c4 02bd b0a0 5fbd 39ae e0be 609c a5be
000000a0: ac3f 6e3f 3caa 1bbe 563e 9dbe 93f7 c1be
000000b0: 5739 02be 9ba2 09be d2da 33bf 8ed8 38be
000000c0: 8bba 4bbf eb56 40be 8607 f0bd 3a93 31be
000000d0: 2f49 c83e ae72 bdbe 14ab d5bd 2f63 4abd
000000e0: b666 fcbd 1b70 87be a749 cbbd e12f e4bd
000000f0: e4cb 95be 6d07 a0be a223 7ebe c413 56be
-0.34189108 -0.2689111 0.870614 -0.23664483 -0.47599214 -0.103328854 -0.35545117 -0.2858448
-0.27465102 -0.022233766 -0.22371508 1.0519491 -0.25456366 1.1177169 1.031581 -0.18902068
0.6539729 -0.2872187 -0.3263909 -0.08226157 -0.20783639 -0.16157122 -0.22717066 -0.086522564
-0.0698541 -0.14278829 -0.24162331 -0.06528869 -0.31142116 -0.41614166 -0.28121576 -0.34503525
-0.5848503 -0.11603434 0.87227964 0.34154412 -0.031926103 -0.054596603 -0.4388292 -0.32345867
0.93065906 -0.15201658 -0.3071162 -0.37884197 -0.12717186 -0.13440935 -0.7025577 -0.18051359
-0.79581517 -0.18783157 -0.11720185 -0.17341319 0.39118335 -0.37001556 -0.10433021 -0.049410995
-0.12324278 -0.26452717 -0.099261574 -0.11141945 -0.2925712 -0.31255665 -0.2481828 -0.20905977
