maddpg_pytorch/models/cache_data/model/run52/incremental/model_ep6001.pt (torch, 690099 bytes, 168 tensors)

fc1.weight f4 [64, 1]
0.079308294 -0.61747736 -1.1033273 -0.024499316 -2.0802736 0.27203798 -0.06363987 0.34314924
-0.2843999 -1.3109064 -0.18687455 -0.034220617 -0.071332976 -1.4393289 -0.07290876 -0.072549805
0.14494395 -0.0039948225 0.087541565 0.05552169 -0.08476218 -3.0263164 -0.16761565 0.066327676
-1.4991236 0.047856204 -0.006957834 1.1115144 -1.2778891 0.074483894 -0.13763884 0.36841378
-0.024865884 -0.54933393 -1.5904298 -1.3286824 -0.030158775 -1.5418655 -0.07596189 -1.2304499
1.2478979 -0.42309844 -0.17237936 -0.29719314 -1.1827967 -0.00928331 0.079595014 -0.10254792
-0.1231002 -0.1096344 -1.2464713 -1.1178592 0.015060483 -0.08670652 0.13879503 0.081949495
-0.04682362 0.0051176464 -0.11768416 0.05723422 -0.009737894 -0.03946245 0.42590258 0.106858015
00000000: 636c a23d ff12 1ebf d439 8dbf cab2 c8bc
00000010: 3423 05c0 9048 8b3e 9f55 82bd 42b1 af3e
00000020: dd9c 91be c8cb a7bf 0b5c 3fbe eb2a 0cbd
00000030: 0617 92bd ee3b b8bf 3051 95bd fe94 94bd
00000040: 306c 143e 00e7 82bb fe48 b33d b66a 633d
00000050: cb97 adbd 2baf 41c0 70a3 2bbe ced6 873d
00000060: 48e3 bfbf de04 443d 8bfe e3bb 1b46 8e3f
00000070: df91 a3bf 038b 983d 32f1 0cbe bba0 bc3e
00000080: 8ab3 cbbc 26a1 0cbf 3493 cbbf 4412 aabf
00000090: 890f f7bc d95b c5bf e891 9bbd 627f 9dbf
000000a0: 1ebb 9f3f 5ca0 d8be 3784 30be b329 98be
000000b0: e265 97bf 0619 18bc b602 a33d a504 d2bd
000000c0: f51b fcbd 0088 e0bd 5f8c 9fbf 0316 8fbf
000000d0: 3ec0 763c 3093 b1bd 4920 0e3e 23d5 a73d
000000e0: 20ca 3fbd eeb1 a73b 6504 f1bd 6e6e 6a3d
000000f0: b08b 1fbc 61a3 21bd e70f da3e 60d8 da3d

fc1.bias f4 [64]
-1.1158538 -0.79585284 -0.5162714 -0.064182736 -0.92446196 -1.2703177 -0.17981328 -1.6063167
-0.5403617 -0.61378735 -0.3035503 -0.09422463 -0.13216631 -0.040456887 -0.92611206 -0.22026405
-0.7031232 -0.754509 -1.2124399 -0.63554657 -0.14185378 0.27330098 -0.88898194 -0.32311726
-0.7062725 -0.32361272 -0.061266772 -2.405805 0.11632314 -0.34498903 -1.0833 -1.787051
-0.058667824 -0.71249866 -0.7418791 -0.6150711 -0.11475526 -0.7253354 -0.17891207 -0.57942665
-0.35948336 -0.85042953 -0.37449014 -0.4049897 0.104492016 -0.110919744 -0.48716 -0.7290479
-0.16735812 -0.663581 -0.5854085 -0.037468545 -0.07253649 -0.20351934 -2.064333 -2.1237323
-0.6047716 -0.66963595 -0.15346467 -0.84750336 -0.08634296 -1.3477015 -2.042654 -1.4974476
00000000: 4cd4 8ebf 03bd 4bbf 5d2a 04bf 3d72 83bd
00000010: 8aa9 6cbf c599 a2bf f920 38be c99b cdbf
00000020: 2555 0abf 2b21 1dbf f26a 9bbe d8f8 c0bd
00000030: 9b56 07be 1fb6 25bd ae15 6dbf e68c 61be
00000040: e2ff 33bf 8027 41bf 3b31 9bbf 2eb3 22bf
00000050: 1e42 11be 1bee 8b3e 5294 63bf a06f a5be
00000060: 46ce 34bf 91b0 a5be def2 7abd b6f8 19c0
00000070: d43a ee3d 67a2 b0be 93a9 8abf 16be e4bf
00000080: ac4d 70bd 5066 36bf caeb 3dbf 4d75 1dbf
00000090: ce04 ebbd 95af 39bf ba34 37be 4e55 14bf
000000a0: 340e b8be c0b5 59bf 2cbd bfbe cf5a cfbe
000000b0: e9ff d53d e429 e3bd 096d f9be e2a2 3abf
000000c0: ed5f 2bbe 72e0 29bf 55dd 15bf 9e78 19bd
000000d0: 038e 94bd 6067 50be 081e 04c0 3beb 07c0
000000e0: 50d2 1abf 436d 2bbf d825 1dbe fbf5 58bf
000000f0: 94d4 b0bd 7c81 acbf d8ba 02c0 5dac bfbf

fc2.weight f4 [64, 64]
0.072021365 0.010746537 -0.18009663 -0.22818954 0.0856796 0.082831696 -0.06343543 -0.005998991
-0.09169516 -0.056971766 -0.55278724 -0.15018438 -0.3634192 -0.15756747 -0.07661903 -0.10681332
0.038685977 -0.028304413 -0.094590984 -0.045500804 -0.035949983 0.051417656 -0.04233159 -0.018194454
-0.071397 -0.20707725 -0.5532891 -0.080452025 -0.12999356 -0.4998794 0.088871196 -0.12819608
-0.5615196 0.018269636 0.026970005 0.06486844 -0.6422591 -0.2488279 -0.37185183 -0.15012006
-0.1904519 -0.05697012 -0.5014588 -0.13317896 -0.10551896 -0.31722757 0.11213762 -0.227499
-0.06337962 0.003980443 -0.1209538 -0.053358406 -0.43781534 -0.14380702 -0.10768737 -0.024691075
-0.08062348 0.08885789 -0.518914 -0.09743534 -0.047759492 -0.14972562 0.04472646 -0.15357432
-0.15006807 -0.21741073 -0.21870495 -0.13737933 -0.16095929 -0.033809282 0.16737157 -0.1596407
0.016241739 -0.59058785 0.05864426 -0.05348833 0.030189116 -0.2007425 -0.009735331 0.24689156
0.02124931 0.05892451 -0.10199066 -0.06880654 0.2437519 0.0011560152 0.108982995 -0.008811037
-0.35815245 -0.13150826 -0.09051151 0.102695875 -0.19377366 -0.16515091 -0.008490732 -0.22253387
-0.18398601 -0.18412428 -0.1295022 -0.13678566 -0.15159537 -0.23171541 -0.17541367 -0.24268654
-0.1316806 -0.02662827 -0.3367992 0.10877755 -0.21129017 -0.1399217 -0.19664927 0.0942583
-0.023736754 -0.010949552 -0.04188495 0.0072704116 -0.38043135 0.14609429 -0.26543915 -0.24603806
-0.08321117 0.00601311 -0.2693886 0.06956045 -0.12769033 -0.04376805 -0.078496665 -0.19435601
-0.2809307 -0.52141154 -1.4168931 -0.081419945 -1.8714539 -0.037511647 0.09547234 -0.7144892
0.12212425 -2.4010117 0.077770084 -0.07153366 0.10641923 -0.9721767 0.035353497 0.244739
0.029732242 0.10367778 -0.36747572 -0.24909347 0.11625183 -4.4577813 -0.05921507 0.7183125
-1.7484566 0.09974794 0.030588726 -0.9476351 -0.9883068 -0.22962365 -0.05886276 -0.40122968
0.2745081 -0.34384778 -0.8253989 -2.0285904 0.29913723 -2.5658724 0.13373324 0.7986535
-4.13427 0.0017213821 0.14175545 0.007788445 0.6890983 -0.15379149 0.47568318 0.0035541125
0.3622339 -0.047710195 -0.67309177 0.6682995 0.27342153 0.3125441 -0.7055085 -0.5924304
-0.11751327 -0.04398428 0.36428303 -0.13149765 0.5387936 -0.25309062 -0.05681283 -0.41475493
-0.15491702 -0.13481216 -0.106201366 -0.134543 0.052165568 -0.18649398 -0.22291291 -0.05412291
-0.20930593 -0.10969221 -0.02646209 -0.0012005522 0.027792143 -0.22246411 0.0010868162 -0.18252401
-0.069914594 -0.07031919 -0.0525855 -0.11833391 -0.22514443 -0.08810744 -0.10356602 -0.035578262
-0.15347654 -0.145069 -0.124100596 -0.28393358 -0.19501373 -0.16154335 0.10303644 -0.07337819
-0.13406253 -0.13143474 -0.008153591 0.003852134 0.025474062 0.12653911 -0.029629368 -0.14808622
-0.16994841 -0.12246022 -0.024670798 -0.053385418 -0.111966416 -0.07222816 -0.20558275 -0.18021114
-0.121260986 -0.025300056 -0.20073718 -0.12022066 -0.09229792 -0.1806661 -0.06778937 -0.08114407
-0.046100378 0.033057433 -0.043185104 -0.0037353372 -0.15182257 -0.16809528 -0.09217881 -0.11771736
00000000: f07f 933d 3e12 303c 406b 38be 85aa 69be
00000010: c978 af3d aaa3 a93d 6fea 81bd 2f93 c4bb
00000020: acca bbbd 3a5b 69bd 7783 0dbf efc9 19be
00000030: 1512 babe 5e59 21be 70ea 9cbd f1c0 dabd
00000040: 3075 1e3d a8de e7bc ebb8 c1bd 0d5f 3abd
00000050: 4a40 13bd 529b 523d e463 2dbd 890c 95bc
00000060: 9738 92bd 0f0c 54be 5ba4 0dbf 08c4 a4bd
00000070: 081d 05be 31f0 ffbe 1a02 b63d d545 03be
00000080: c0bf 0fbf 34aa 953c 33f0 dc3c bfd9 843d
00000090: 186b 24bf becc 7ebe 5d63 bebe 13b9 19be
000000a0: d305 43be 8059 69bd 9b5f 00bf 1160 08be
000000b0: 531a d8bd a76b a2be 69a8 e53d 7ff5 68be
000000c0: 2dcd 81bd 606e 823b a0b6 f7bd 588e 5abd
000000d0: 5529 e0be 2642 13be 328b dcbd f044 cabc
000000e0: ec1d a5bd 20fb b53d 8cd7 04bf 2e8c c7bd
000000f0: 759f 43bd ac51 19be 1833 373d 9642 1dbe
00000100: 72ab 19be eba0 5ebe 31f4 5fbe 2bad 0cbe
00000110: 83d2 24be 9a7b 0abd 7463 2b3e da78 23be
00000120: 650d 853c c430 17bf f734 703d 9416 5bbd
00000130: 2a4f f73c 718f 4dbe f080 1fbc 24d1 7c3e
00000140: 0813 ae3c d45a 713d 7be0 d0bd 71ea 8cbd
00000150: 199a 793e 6f85 973a 7a32 df3d 2b5c 10bc
00000160: c25f b7be 1aaa 06be 195e b9bd 3752 d23d
00000170: 9a6c 46be 521d 29be b61c 0bbc ebdf 63be
00000180: d466 3cbe 138b 3cbe 3a9c 04be 8a11 0cbe
00000190: d13b 1bbe ce46 6dbe a49f 33be d282 78be
000001a0: 47d7 06be 8823 dabc f270 acbe c4c6 de3d
000001b0: 735c 58be a247 0fbe 6d5e 49be 7f0a c13d
000001c0: 9573 c2bc c065 33bc 8e8f 2bbd a23c ee3b
000001d0: e6c7 c2be be99 153e a4e7 87be 67f1 7bbe
000001e0: 9e6a aabd 9f09 c53b 4ded 89be b675 8e3d
000001f0: 41c1 02be 2046 33bd dcc2 a0bd 4305 47be
00000200: 26d6 8fbe 3a7b 05bf c15c b5bf 80bf a6bd
00000210: cd8b efbf d0a5 19bd 0187 c33d c4e8 36bf
00000220: 471c fa3d 2daa 19c0 ec45 9f3d 3d80 92bd
00000230: 53f2 d93d 92e0 78bf d4ce 103d dc9c 7a3e
00000240: 0891 f33c 0455 d43d c725 bcbe 5c12 7fbe
00000250: 7015 ee3d 25a6 8ec0 808b 72bd 54e3 373f
00000260: 6dcd dfbf a648 cc3d 3595 fa3c 3798 72bf
00000270: ad01 7dbf 7622 6bbe 141a 71bd fa6d cdbe
00000280: 538c 8c3e d10c b0be 584d 53bf 6dd4 01c0
00000290: 8428 993e 4137 24c0 5ef1 083e 8e74 4c3f
000002a0: f14b 84c0 00a0 e13a 5728 113e 3636 ff3b
000002b0: bf68 303f 847b 1dbe bf8c f33e 1dec 683b
000002c0: b976 b93e c46b 43bd be4f 2cbf ad15 2b3f
000002d0: e8fd 8b3e c805 a03e 349c 34bf 85a9 17bf
000002e0: ccaa f0bd dc28 34bd 4e83 ba3e 52a7 06be
000002f0: 61ee 093f 1895 81be 92b4 68bd c25a d4be
00000300: 91a2 1ebe 330c 0abe 1a80 d9bd a4c5 09be
00000310: 90ab 553d 47f8 3ebe 4843 64be fcaf 5dbd
00000320: 4b54 56be 4fa6 e0bd 06c7 d8bc d95b 9dba
00000330: 59ac e33c a2cd 63be 8073 8e3a 93e7 3abe
00000340: 622f 8fbd 8203 90bd e563 57bd 0d59 f2bd
00000350: 438c 66be ac71 b4bd 6c1a d4bd 83ba 11bd
00000360: f428 1dbe f88c 14be 7428 febd be5f 91be
00000370: aeb1 47be 9f6b 25be c504 d33d 4e47 96bd
00000380: b047 09be d496 06be a496 05bc 1674 7c3b
00000390: fbae d03c 7893 013e 4ab9 f2bc eaa3 17be
000003a0: f506 2ebe 6ccc fabd 6a1a cabc abaa 5abd
000003b0: a64e e5bd 5cec 93bd 4984 52be 4589 38be
000003c0: ae57 f8bd 1042 cfbc 0c8e 4dbe 4036 f6bd
000003d0: b106 bdbd 8900 39be 27d5 8abd dd2e a6bd
000003e0: c0d3 3cbd 3b67 073d dde2 30bd 8fcc 74bb
000003f0: 6077 1bbe 2b21 2cbe 3ec8 bcbd cd15 f1bd

fc2.bias f4 [64]
-0.34189153 -0.26891363 -0.023556279 -0.23664549 -0.4759974 -0.10332926 -0.35545123 -0.28584635
-0.27465123 -0.022233842 -0.22371627 -0.03166336 -1.1447898 0.96701175 0.73057 -0.18902075
-0.07292008 -0.28721935 -0.32639232 -0.39567402 -0.5226682 -0.16157158 -0.22717157 -0.086522855
-0.06985431 -0.14278838 -0.24162447 -0.3827616 -0.31142098 -0.41615 -0.8639836 -0.34503534
-0.5848509 -0.015563593 0.7156545 -0.21527505 -0.0319274 -0.05459659 -0.43882936 0.7693369
0.22694837 -0.4641125 -0.32861832 -0.38252056 -0.12717272 -0.13440992 -0.7025606 -0.18051358
-0.79581976 -0.18783168 -0.1172018 -0.17341445 -0.12899356 -0.37001747 -0.10433082 -0.049411204
-0.12324322 -0.26452827 -0.099261954 -0.11141988 1.7365004 -0.5628014 -0.24818349 -0.20906101
00000000: 680c afbe 0caf 89be 19f9 c0bc 3253 72be
00000010: eeb5 f3be 4b9e d3bd b4fd b5be 745a 92be
00000020: 169f 8cbe bf23 b6bc e115 65be 70b1 01bd
00000030: 7988 92bf 158e 773f a306 3b3f a88e 41be
00000040: 1f57 95bd 6a0e 93be e51c a7be c995 cabe
00000050: 95cd 05bf 0573 25be aa9f 68be e532 b1bd
00000060: c70f 8fbd 1e37 12be 686c 77be 54f9 c3be
00000070: 9272 9fbe 9d11 d5be 072e 5dbf 79a8 b0be
00000080: cab8 15bf 71fe 7ebc 2235 373f 1071 5cbe
00000090: 4ec6 02bd ada0 5fbd 3eae e0be 43f3 443f
000000a0: 2765 683e 27a0 edbe a940 a8be bcd9 c3be
000000b0: 9139 02be c1a2 09be 03db 33bf 8dd8 38be
000000c0: d8ba 4bbf f356 40be 7f07 f0bd 8f93 31be
000000d0: e316 04be ee72 bdbe 66ab d5bd 6763 4abd
000000e0: f166 fcbd 4070 87be da49 cbbd 1b30 e4bd
000000f0: a545 de3f c113 10bf d023 7ebe 1714 56be

fc3.weight f4 [32, 64]
-0.21239363 -0.11042666 0.41589433 0.0013805974 -1.6431003 -0.048044294 0.012897637 0.17900053
-0.027612155 0.060253654 0.17566346 1.3501287 1.3330842 0.011069788 0.28443804 -0.13577218
-2.5579865 -0.8093581 0.09627254 0.11274532 -0.01556834 1.2432811 0.1278132 0.08583809
0.12786436 -0.32647926 -0.16488436 0.036642358 -0.21729761 0.002294194 0.32555553 -0.01938978
0.023762332 0.9053699 -0.36404094 2.643595 0.65314656 -0.0028328751 -0.39156014 1.1866578
2.211432 0.6082433 -0.034884907 0.08268668 -0.3950597 -0.113334715 -0.84640944 0.57935596
0.43044323 -0.5656234 0.024970818 0.0019643975 1.7951782 0.20778847 -0.07151102 0.25266668
-0.15758061 -0.10378943 -0.06486087 0.093505464 0.7514999 -0.2129391 -0.077593714 -0.16026613
0.16356441 0.4277053 -0.8613475 -0.10232955 -0.20306735 0.024631709 0.37070534 0.20914187
-0.26027164 -0.22003391 -0.001039872 -1.5007212 -0.36550486 -0.74150854 1.327694 -0.017187143
-2.270262 -0.26896542 -0.23814073 -0.16162272 0.48717847 0.46192813 -0.04509873 0.051056407
-0.109129906 0.03659285 -0.031192642 -0.05489477 0.3370462 0.020126289 -1.2823961 0.06916798
0.21047395 -0.12380171 -1.437123 -0.6659347 0.7200039 0.08450258 0.17100118 0.45313126
0.64705503 -0.9262704 -0.15014558 -0.0037176933 0.154853 0.16137144 -0.45247492 0.32031438
0.37539834 0.01865137 -0.088519074 -0.25586128 1.54326 -0.28302822 0.075285114 0.07801705
-0.21056403 0.009129382 -0.14809874 -0.33878657 1.8518232 -0.12904383 0.118588865 -0.10454898
0.0019434309 -0.60096383 -0.3827578 0.043283343 -0.9728194 -0.076838456 -0.13392521 0.23911512
0.44342124 -0.16866483 -0.06389605 1.4887601 2.8023775 3.3481314 -0.60641086 0.013540471
0.052895427 0.08615799 0.051811077 -0.041620716 0.072509885 -1.5151882 0.064578086 -0.022486594
0.12610203 -0.19248109 -0.24516465 0.08011277 -0.23207454 0.034182426 0.8752054 -0.047158785
0.0010226528 -1.4976112 1.5203964 -0.7140232 -1.5038295 0.10580218 -0.18381396 1.7366979
-1.0123596 0.03253348 -0.097990245 -0.049901687 -0.16540535 0.067174755 0.7266757 -0.99372166
-0.03801288 1.5709733 0.11784677 0.21650514 0.74664503 0.12008107 0.04165947 -0.17267953
0.28752673 0.03641693 0.051031552 0.10378098 -0.048455965 -0.09368748 0.023785219 -0.21565986
-0.040350027 0.22814962 0.96333194 0.10714301 0.94132406 -0.007906615 -0.3750502 -0.34345984
-0.7430492 -0.7749992 0.005568494 -1.4628828 2.3280103 0.08113847 3.9048553 0.064410225
-0.07414571 -0.014367683 0.1850493 0.03296604 0.13052125 1.3883982 -0.18727022 0.013997502
0.026141906 0.19581571 0.11761922 0.16706552 0.009402941 -0.31586885 -0.64299995 -0.39985567
-0.011962764 1.4835603 -2.839222 -0.73526657 0.63761294 -0.14552236 0.56914204 -3.2055128
-2.529732 -0.20117943 -0.1704589 -0.062404253 -0.29193002 0.020146228 0.12118549 0.19173749
-0.3208603 -1.1336448 -0.027177786 0.072158575 0.20326169 -0.09619472 0.16676433 -0.0018175311
0.05048035 0.06805903 -0.12600084 -0.006700438 -0.23698783 0.095713705 0.45590642 -0.21470015
00000000: b77d 59be 5f27 e2bd 1af0 d43e 29f5 b43a
00000010: 1c51 d2bf 18ca 44bd 9c50 533c ea4b 373e
00000020: e332 e2bc 89cc 763d 1fe1 333e 04d1 ac3f
00000030: 81a2 aa3f 0e5e 353c dda1 913e dd07 0bbe
00000040: 0db6 23c0 1832 4fbf 8a2a c53d 05e7 e63d
00000050: 5a12 7fbc d623 9f3f 77e1 023e e1cb af3d
00000060: e0ee 023e 4a28 a7be 72d7 28be 4c16 163d
00000070: 4483 5ebe 305a 163b 37af a63e 51d7 9ebc
00000080: 39a9 c23c 52c6 673f 9363 babe a930 2940
00000090: 9d34 273f c2a7 39bb 927a c8be 67e4 973f
000000a0: 1a88 0d40 d5b5 1b3f 7ae3 0ebd a257 a93d
000000b0: 4445 cabe 081c e8bd 4aae 58bf ac50 143f
000000c0: 0e63 dc3e b2cc 10bf 9a8f cc3c 1fbd 003b
000000d0: 66c8 e53f 80c6 543e 5f74 92bd 875d 813e
000000e0: d05c 21be 8d8f d4bd c7d5 84bd cb7f bf3d
000000f0: 4c62 403f b50c 5abe 74e9 9ebd ce1c 24be
00000100: 6e7d 273e 30fc da3e 4581 5cbf 2892 d1bd
00000110: e3f0 4fbe 70c8 c93c 17cd bd3e 4929 563e
00000120: 5342 85be 9250 61be 504c 88ba a217 c0bf
00000130: 7423 bbbe 81d3 3dbf e1f1 a93f 0dcc 8cbc
00000140: f94b 11c0 d6b5 89be 2adb 73be 6d80 25be
00000150: 756f f93e d881 ec3e 72b9 38bd 8620 513d
00000160: 807f dfbd 62e2 153d b687 ffbc 57d9 60bd
00000170: 5291 ac3e e3df a43c 8e25 a4bf f1a7 8d3d
00000180: 7c86 573e c08b fdbd a5f3 b7bf b27a 2abf
00000190: 2d52 383f b00f ad3d ef1a 2f3e d200 e83e
000001a0: 66a5 253f 0f20 6dbf c3bf 19be 8ba4 73bb
000001b0: c991 1e3e 8e3e 253e cbaa e7be 3f00 a43e
000001c0: 3634 c03e c2ca 983c 7d49 b5bd 4000 83be
000001d0: 8b89 c53f 13e9 90be 152f 9a3d 67c7 9f3d
000001e0: 199e 57be 6793 153c 32a7 17be 6f75 adbe
000001f0: 8b08 ed3f 1124 04be b8de f23d c71d d6bd
00000200: b8ba fe3a c4d8 19bf d5f8 c3be e049 313d
00000210: b10a 79bf 7b5d 9dbd b123 09be 98da 743e
00000220: 1c08 e33e 79b6 2cbe efdb 82bd b18f be3f
00000230: 275a 3340 c947 5640 be3d 1bbf dad8 5d3c
00000240: e0a8 583d 9a73 b03d da37 543d 7c7a 2abd
00000250: 1080 943d b0f1 c1bf 8441 843d ce35 b8bc
00000260: e420 013e c319 45be 710c 7bbe 2a12 a43d
00000270: f3a4 6dbe df02 0c3d 760d 603f 9229 41bd
00000280: 890a 863a b9b1 bfbf 599c c23f 39ca 36bf
00000290: 7c7d c0bf d0ae d83d ba39 3cbe 1e4c de3f
000002a0: 0095 81bf d441 053d 1caf c8bd b665 4cbd
000002b0: 0560 29be eb92 893d 6b07 3a3f 8b64 7ebf
000002c0: 65b3 1bbd a715 c93f a659 f13d 86b3 5d3e
000002d0: 2124 3f3f 10ed f53d 1fa3 2a3d e7d2 30be
000002e0: b436 933e eb29 153d 7606 513d 1f8b d43d
000002f0: c379 46bd 39df bfbd 38d9 c23c f0d5 5cbe
00000300: 1246 25bd 0ea0 693e ec9c 763f cb6d db3d
00000310: 9dfa 703f bf8a 01bc 9406 c0be f8d9 afbe
00000320: 7938 3ebf 5966 46bf ea77 b63b be3f bbbf
00000330: 1ffe 1440 ed2b a63d 26e9 7940 82e9 833d
00000340: b5d9 97bd 6e66 6bbc 907d 3d3e 6607 073d
00000350: 5da7 053e 08b7 b13f c4c3 3fbe c755 653c
00000360: 8d27 d63c ea83 483e 58e2 f03d 3913 2b3e
00000370: cb0e 1a3c 90b9 a1be a59b 24bf e2b9 ccbe
00000380: 78ff 43bc 4ee5 bd3f d0b5 35c0 6e3a 3cbf
00000390: 9a3a 233f d003 15be 4bb3 113f 1f27 4dc0
000003a0: 21e7 21c0 fb01 4ebe c78c 2ebe 9a9b 7fbd
000003b0: da77 95be b409 a53c 1930 f83d d556 443e
000003c0: cd47 a4be 461b 91bf f3a3 debc e0c7 933d
000003d0: d523 503e bd01 c5bd 45c4 2a3e 393a eeba
000003e0: 7cc4 4e3d 8862 8b3d 5d06 01be 598f dbbb
000003f0: f0ac 72be 8c05 c43d 916c e93e 5bda 5bbe

fc3.bias f4 [32]
-2.556685 -0.80326676 -2.5137384 2.1073008 -0.5034697 -2.1952906 -1.7751396 1.2194606
-2.4536614 0.48772347 -1.848422 0.64101803 -0.22713652 2.0195177 -0.058904123 1.6094117
-1.1649871 -0.0009737445 -1.5464395 -0.023879139 1.2060678 -1.2590892 0.6246368 -3.5739956
-1.5500971 -1.721314 1.1253288 -0.66295356 1.3610823 -2.0103383 -0.5631388 4.263899
00000000: baa0 23c0 e4a2 4dbf 17e1 20c0 04de 0640
00000010: 64e3 00bf a47f 0cc0 c637 e3bf 4917 9c3f
00000020: ca08 1dc0 e4b6 f93e 1899 ecbf c219 243f
00000030: 7a96 68be c73f 0140 7345 71bd 3401 ce3f
00000040: 4c1e 95bf e342 7fba bbf1 c5bf 2f9e c3bc
00000050: 6e60 9a3f d629 a1bf 33e8 1f3f 58bc 64c0
00000060: 9569 c6bf 0454 dcbf c60a 903f 53b7 29bf
00000070: f237 ae3f 62a9 00c0 dd29 10bf dc71 8840

in_fn.weight f4 [33]
2.0935504 0.17994036 0.2089876 0.4249551 0.41819897 0.20894617 0.29688498 0.23491529
0.260397 0.23092844 0.17950538 0.198483 -0.1550936 0.1554873 0.35912356 0.45362553
0.32090363 0.22445954 -0.22869495 0.16690812 0.32960254 0.55135274 -0.2509734 0.27765933
0.6092904 -0.40805414 0.2304839 0.4136609 0.79575104 0.31539384 0.5657252 0.2652342
0.7904879
00000000: bbfc 0540 4942 383e d800 563e b793 d93e
00000010: 2d1e d63e fcf5 553e 4f01 983e a28d 703e
00000020: c152 853e 8178 6c3e 42d0 373e 213f 4b3e
00000030: dbd0 1ebe 1038 1f3e 0bdf b73e 9b41 e83e
00000040: 7b4d a43e b9d8 653e 022f 6abe f6e9 2a3e
00000050: aac1 a83e 7425 0d3f 967f 80be 5d29 8e3e
00000060: 75fa 1b3f 79ec d0be f903 6c3e 5dcb d33e
00000070: 57b6 4b3f 4d7b a13e 5ed3 103f c7cc 873e
00000080: 6a5d 4a3f

in_fn.bias f4 [33]
0.17457002 -0.027440043 -0.00862051 -0.07647672 0.8059357 0.074771024 -0.032411445 0.00012530806
0.017900787 -0.036412485 0.0714022 0.14301993 0.022739224 -0.022949252 0.12977503 0.0051856684
0.06888474 -0.031678457 -0.07693462 0.039749514 0.061115768 0.054614127 -0.035258505 -0.023562554
0.16176447 0.021542054 -0.010844274 0.11671147 0.11363844 0.0964092 0.9283674 0.107893124
0.20098357
00000000: 7cc2 323e f1c9 e0bc 0a3d 0dbc d49f 9cbd
00000010: cd51 4e3f 8d21 993d ddc1 04bd 2065 0339
00000020: aca4 923c 4225 15bd 513b 923d d173 123e
00000030: 9c47 ba3c 1200 bcbc bfe3 043e 8aec a93b
00000040: 7113 8d3d 45c1 01bd e68f 9dbd 63d0 223d
00000050: 8754 7a3d 10b3 5f3d 396b 10bd 4206 c1bc
00000060: 96a5 253e f678 b03c 2fac 31bc 6c06 ef3d
00000070: 45bb e83d 3072 c53d 7ca9 6d3f 12f7 dc3d
00000080: a3ce 4d3e

in_fn.running_mean f4 [33]
2.262802 0.0032970244 0.0061194585 0.017763864 0.038186125 0.012565874 0.010456618 0.07552693
0.008973793 0.010067113 0.007023939 0.013516643 0.0065108035 0.007723454 0.020006672 0.010193852
0.01762495 0.0049182656 0.0076380367 0.0023641028 0.014670635 0.010273135 0.014664848 0.014500666
0.1548663 0.014574638 0.005420759 0.020950796 0.11740694 0.04655067 0.09165698 0.0094125355
0.20457359
00000000: bfd1 1040 e412 583b bd85 c83b 8685 913c
00000010: 0e69 1c3d 18e1 4d3c 3c52 2b3c ddad 9a3d
00000020: d106 133c 88f0 243c 1229 e63b e974 5d3c
00000030: 9458 d53b 0715 fd3b 08e5 a33c 1d04 273c
00000040: 3362 903c 6729 a13b 7f48 fa3b 10ef 1a3b
00000050: 1a5d 703c a750 283c d544 703c 3494 6d3c
00000060: 4595 1e3e 76ca 6e3c 9fa0 b13b 01a1 ab3c
00000070: 0d73 f03d eaab 3e3d a8b6 bb3d 0937 1a3c
00000080: bd7b 513e

in_fn.running_var f4 [33]
6.9976177 0.0032756254 0.00608082 0.0174306 0.03671616 0.012322163 0.010346845 0.06617473
0.008890482 0.009961499 0.0069672633 0.013328558 0.006470168 0.007643277 0.019525623 0.010090841
0.01730744 0.004877818 0.0075514796 0.002357156 0.014358438 0.010165914 0.014437873 0.014220724
0.129052 0.014325701 0.0053903465 0.020436745 0.10325116 0.044339314 0.08217217 0.009325459
0.16224219
00000000: 7cec df40 e0ab 563b 9e41 c73b 9eca 8e3c
00000010: af63 163d e6e2 493c d085 293c 9e86 873d
00000020: 62a9 113c 8e35 233c a44d e43b 0660 5a3c
00000030: b403 d43b 7474 fa3b 33f4 9f3c 0e54 253c
00000040: 55c8 8d3c 1ad6 9f3b 6772 f73b 847a 1a3b
00000050: a73f 6b3c ef8e 263c d48c 6c3c 0afe 683c
00000060: 3526 043e 58b6 6a3c 81a1 b03b f66a a73c
00000070: 5875 d33d 249d 353d e249 a83d cfc9 183c
00000080: d122 263e

fc1.weight f4 [64, 33]
-0.2311981 -0.48225287 -0.20646483 0.13709846 -1.4170322 -0.08080382 0.2537709 -0.061672926
0.043065444 0.081109464 0.04114864 -0.5641974 0.28538725 -0.017005946 -0.3463129 0.15021145
0.174578 0.104952164 -0.27302286 0.20590678 0.12402127 0.1523754 -0.017590776 0.33061063
0.4095663 -0.05139617 0.23042339 -0.05385116 0.23928604 0.43618405 -1.285834 -0.55511504
0.32518834 -0.4905157 0.049753282 0.6088985 -0.49112585 -0.4672231 -0.005800924 0.567106
0.022969987 -0.2063686 0.0877983 -0.7958118 -0.4874781 0.7684594 -0.30643058 -0.93343335
-0.3611336 -0.0062906947 0.871098 0.1787896 -0.5148463 -0.8289575 -0.050496273 0.19929285
0.10385259 -0.10419992 0.33368388 -0.101472005 -0.16081953 0.027851403 -0.2828022 -0.63985646
-0.15052162 -0.237589 -1.9324702 0.33317086 0.33311108 -0.42417604 0.21198525 0.23404382
-0.579018 -0.8723088 0.31861156 -0.69707596 0.48361865 -0.01361949 -0.3350889 0.13492098
-0.06704124 0.05594006 0.20910656 -0.15803447 -0.016883219 -0.66590244 -0.09505523 -0.20351204
0.0825185 -0.14209396 -0.30634424 -0.45871386 -0.039362907 0.19156489 -0.055907357 0.331426
-0.91496605 -0.7297357 0.48021865 -1.3345995 -0.24370669 -0.16694935 0.0421332 -1.4763722
-0.45133764 -0.05908384 -0.036528036 -0.074275225 0.39095467 -0.011826082 -0.7031507 -0.022960663
-0.18295325 -0.5066124 0.113846354 -0.4821565 0.10839685 -0.04983585 0.054430723 -0.2234016
0.0919172 0.4692653 -0.14981547 0.2883283 0.9786665 0.11334703 -0.24042097 0.9681153
1.2208655 -0.73128575 -0.048678853 -0.010880678 -1.8876457 0.05140634 -0.8903708 -0.16423899
-1.1500123 -0.7853213 0.6592548 0.98528326 0.10369107 0.37019333 0.228881 -0.6488965
-0.47483653 0.23370859 -0.56996155 0.566163 0.18522167 -0.32030904 0.5296384 -0.3514969
0.7410031 0.15637623 0.05794561 0.946629 -0.23060293 -0.3420966 0.14841081 0.5200541
0.56523657 0.41329008 -0.033005334 0.6684847 -0.0592104 -0.784304 0.6962962 0.06358372
-0.11965301 -0.93806875 -0.667839 -0.13635013 -0.22215375 -0.66303205 -0.672607 -0.6963709
-0.99480754 0.31382218 0.20925753 -0.90478647 0.4680971 -0.5543546 -0.6972194 -0.04849265
-0.22582397 -0.5826254 -0.07080358 -0.47545236 0.29091337 0.28544325 -0.048680972 1.0127811
-0.5598288 -0.46713826 -0.609856 -0.8295557 -0.82420343 -0.5203591 -1.7367224 -0.46063113
-0.20796172 -0.09103135 -1.5711645 -0.4421293 -0.0040887296 -0.29967263 -0.07622925 -0.12256799
0.17083573 -0.806569 0.07407681 0.008062194 -0.30871692 0.12275611 -0.20134045 0.30990332
0.07795449 -0.050171997 0.8761849 1.033744 0.4611705 -0.44977984 0.098631516 0.018758727
0.221182 -0.5457931 0.056402195 -0.4184771 -2.2371502 -0.6906339 0.7820866 -0.27120745
-0.34448558 -0.0147303175 0.27134773 -0.8207928 -0.44863224 0.18085971 0.14456339 0.2844983
0.17777568 0.013781148 -0.15160318 0.3938106 -0.07974075 -0.3267804 0.093673095 -0.03194462
0.08918838 -0.2561257 -0.005544372 0.25202754 0.025658734 0.05274353 0.07277811 0.027288955
00000000: 32bf 6cbe d9e9 f6be 846b 53be 8a63 0c3e
00000010: 5061 b5bf 797c a5bd 42ee 813e c09c 7cbd
00000020: 6465 303d b81c a63d 7a8b 283d 3e6f 10bf
00000030: 471e 923e 0e50 8bbc ed4f b1be 08d1 193e
00000040: 93c4 323e 29f1 d63d a7c9 8bbe 3ad9 523e
00000050: ddfe fd3d 4c08 1c3e 881a 90bc cc45 a93e
00000060: adb2 d13e ca84 52bd 1cf4 6b3e 0993 5cbd
00000070: 6607 753e 8453 df3e 3596 a4bf 051c 0ebf
00000080: 167f a63e e024 fbbe 19ca 4b3d c6e0 1b3f
00000090: d974 fbbe de37 efbe ad15 bebb dc2d 113f
000000a0: 8e2b bc3c 4a52 53be 98cf b33d 52ba 4bbf
000000b0: bb96 f9be c1b9 443f 78e4 9cbe 7df5 6ebf
000000c0: 81e6 b8be 2c22 cebb 4700 5f3f 9f14 373e
000000d0: f8cc 03bf 8f36 54bf 2ed5 4ebd 6d13 4c3e
000000e0: abb0 d43d c566 d5bd 9dd8 aa3e 8ed0 cfbd
000000f0: e0ad 24be a028 e43c 73cb 90be a2cd 23bf
00000100: 5722 1abe 884a 73be 2f5b f7bf 5f95 aa3e
00000110: 898d aa3e 9a2d d9be a912 593e 2fa9 6f3e
00000120: 863a 14bf a14f 5fbf 0e21 a33e 9273 32bf
00000130: dd9c f73e 4824 5fbc c690 abbe ba28 0a3e
00000140: eb4c 89bd 6821 653d 0820 563e cad3 21be
00000150: ad4e 8abc 9578 2abf 51ac c2bd 7665 50be
00000160: 76ff a83d 1481 11be 27d9 9cbe 8bdc eabe
00000170: 003b 21bd 9629 443e 1dff 64bd abb0 a93e
00000180: 373b 6abf f5cf 3abf 38df f53e 28d4 aabf
00000190: 3f8e 79be c5f4 2abe dd93 2c3d c4f9 bcbf
000001a0: ba15 e7be e601 72bd 6c9e 15bd 9c1d 98bd
000001b0: 362b c83e 2fc2 41bc af01 34bf 0018 bcbc
000001c0: 1958 3bbe 5ab1 01bf 4728 e93d 37dd f6be
000001d0: 2bff dd3d ad20 4cbd c0f2 5e3d 64c3 64be
000001e0: 163f bc3d 8b43 f03e 3a69 19be c49f 933e
000001f0: e389 7a3f 7d22 e83d ea30 76be 68d6 773f
00000200: 5245 9c3f 8b35 3bbf 7a63 47bd df44 32bc
00000210: 609e f1bf 748f 523d 57ef 63bf 442e 28be
00000220: 9a33 93bf d10a 49bf ecc4 283f 863b 7c3f
00000230: fc5b d43d fb89 bd3e c85f 6a3e 151e 26bf
00000240: c61d f3be 4e51 6f3e 00e9 11bf 0ff0 103f
00000250: c0aa 3d3e 8cff a3be 6296 073f 67f7 b3be
00000260: 61b2 3d3f 1721 203e 6058 6d3d 4756 723f
00000270: 2d23 6cbe 4927 afbe 01f9 173e 4422 053f
00000280: 58b3 103f c29a d33e 9a30 07bd d021 2b3f
00000290: 9b86 72bd 26c8 48bf 7840 323f 2e38 823d
000002a0: a30c f5bd 4625 70bf 7ff7 2abf 5e9f 0bbe
000002b0: 467c 63be 78bc 29bf f92f 2cbf 5d45 32bf
000002c0: b5ab 7ebf 4dad a03e 9b47 563e 16a0 67bf
000002d0: 6caa ef3e 2fea 0dbf f87c 32bf 3ba0 46bd
000002e0: 663e 67be f026 15bf 7801 91bd 7e6e f3be
000002f0: 99f2 943e 9e25 923e b365 47bd d0a2 813f
00000300: f150 0fbf bf2c efbe 861f 1cbf c35d 54bf
00000310: fffe 52bf 4136 05bf eb4c debf d8d7 ebbe
00000320: ebf3 54be a56e babd eb1b c9bf c65e e2be
00000330: c0fa 85bb b16e 99be 151e 9cbd ed04 fbbd
00000340: 90ef 2e3e 4e7b 4ebf 95b5 973d 4b17 043c
00000350: 2510 9ebe 8e67 fb3d 312c 4ebe a6ab 9e3e
00000360: 9ba6 9f3d 2781 4dbd a74d 603f b951 843f
00000370: 8a1e ec3e 8b49 e6be 52ff c93d e7ab 993c
00000380: 897d 623e 19b9 0bbf fd05 673d a142 d6be
00000390: 782d 0fc0 62cd 30bf d436 483f b4db 8abe
000003a0: 6a60 b0be 6e57 71bc 17ee 8a3e 7a1f 52bf
000003b0: 20b3 e5be 4a33 393e 6d08 143e c3a9 913e
000003c0: d40a 363e 53ca 613c dd3d 1bbe 8ba1 c93e
000003d0: 1e4f a3bd c34f a7be aed7 bf3d 5dd8 02bd
000003e0: 66a8 b63d e822 83be 90ad b5bb c109 813e
000003f0: 4432 d23c 9a09 583d b10c 953d 168d df3c

fc1.bias f4 [64]
-1.0270513 -0.53020203 -1.3552033 -1.6135124 -1.4648187 -0.39501575 -2.3560398 -1.0321239
-0.8788714 -0.87808436 -0.34831983 -0.97741264 -0.9681138 -0.54583824 -2.377705 -0.6599982
0.031865302 -1.0751709 -1.1885178 0.27711552 -1.1911865 -1.1694713 -1.1013857 -0.769613
-1.1514975 -1.9175873 -1.2170506 -1.1595783 -1.3103967 -0.092164285 -1.4019848 -0.92295766
0.007146868 -0.84618276 -0.88049394 -1.2603037 -1.098012 -1.0895476 -1.4751296 -0.94282943
0.05987863 -2.118157 -0.15399057 -1.0863404 -1.9809794 -2.3219302 -1.6488175 -0.821494
-0.4629569 -2.4555018 -1.1983063 -1.0015343 -1.8007377 -1.9788547 -1.0340041 -1.1954575
-1.1165944 -1.1917 -2.372253 -0.6507112 -1.1263795 -1.698838 -1.3969649 -1.302587
00000000: 6b76 83bf 52bb 07bf 4d77 adbf 9387 cebf
00000010: 2e7f bbbf 813f cabe 5bc9 16c0 a31c 84bf
00000020: b7fd 60bf 23ca 60bf fa56 b2be b737 7abf
00000030: 4ed6 77bf 0ebc 0bbf 522c 18c0 a4f5 28bf
00000040: 3185 023d 339f 89bf 5a21 98bf 16e2 8d3e
00000050: cd78 98bf 3cb1 95bf 35fa 8cbf 5c05 45bf
00000060: 4564 93bf 8073 f5bf 50c8 9bbf 106d 94bf
00000070: 14bb a7bf a1c0 bcbd 3d74 b3bf f446 6cbf
00000080: 4630 ea3b 6f9f 58bf 0d68 61bf a251 a1bf
00000090: a88b 8cbf 4c76 8bbf 0cd1 bcbf 455d 71bf
000000a0: 4b43 753d e28f 07c0 b4af 1dbe 340d 8bbf
000000b0: bc90 fdbf 819a 14c0 740c d3bf 6e4d 52bf
000000c0: b008 edbe f126 1dc0 1a62 99bf 4732 80bf
000000d0: 937e e6bf 1c4b fdbf 3f5a 84bf c004 99bf
000000e0: 91ec 8ebf a089 98bf fed2 17c0 0295 26bf
000000f0: 342d 90bf 8673 d9bf bfcf b2bf 2cbb a6bf

fc2.weight f4 [64, 64]
-0.09980689 0.04191103 -0.05148782 -0.16659687 -0.01782681 -0.045080543 -0.008229055 0.06944848
-0.12496623 -0.10442596 -0.33349028 -0.46068725 5.5367993e-05 -0.34212524 -0.01055188 -0.2396081
-0.29650092 0.033074602 -0.04807977 -0.4864646 -0.17763127 -0.22725144 -0.27903244 -0.04469555
-0.025831498 -0.0967853 -0.08224117 -0.15466347 -0.06274659 -0.20493236 -0.06002251 -0.26763275
-0.17250611 -0.094242424 -0.009286009 0.04311674 0.016195398 -0.121905856 -0.25000322 0.019192498
-0.13121697 0.05228562 -0.028968327 0.09302267 -0.14213067 -0.021146253 -0.1982842 -0.030991515
-0.20815141 0.013637627 -0.057776526 -0.0044815093 -0.09103619 -0.03698873 -0.19249791 -0.20543979
-0.02901846 -0.07642582 0.070454344 -0.048182245 -0.0032260644 -0.20501634 0.09823387 0.059574027
-0.31390545 -0.68029094 -0.77541476 -0.2864264 -0.39039174 -0.8775869 0.025366751 0.011097963
-0.19153161 -0.33483362 0.15444937 0.13272384 -0.24119273 -0.2744168 0.1129404 -0.083860874
-0.9157521 -0.36532238 -1.3264376 -0.47417516 -0.079174764 -0.026236402 -0.9508572 -0.11948389
-0.53767854 -0.31290042 -0.23841365 0.17406756 -0.10581378 -0.4218321 -0.31478426 -0.18289708
-0.5230733 -0.6336055 -0.10567438 -0.08532521 0.020109074 -0.10482741 -0.181568 -0.25091094
-0.6067415 0.34043553 -0.2778888 0.023494374 -0.090061 0.003974619 -0.44815254 -0.19529852
-0.13820106 -0.19808109 -0.04848362 -0.5406846 -0.21529718 -0.38166887 -0.42877784 -0.080481954
-0.4204712 -0.18735732 -0.09855905 -1.0959749 -0.16951059 -0.29368713 -0.17095642 -0.0055625886
-0.21733029 -0.78934866 -0.5661573 -0.11957676 -0.3168848 -0.21016929 -0.18830559 -0.30896217
-0.22378072 -0.16204818 -0.64409596 -0.31884125 -0.03145086 -0.68785036 -0.48143896 0.014501475
-0.28996477 -0.16110583 -0.4111318 -0.19229949 -0.1648514 -0.27283505 -0.27802178 -0.039775595
-0.34378883 -0.6562428 0.0524906 -0.014846642 0.09091466 -0.23448311 0.028882729 -0.13925163
0.010755414 -0.36199516 0.18319203 0.028855676 -0.07951655 -0.14748923 -0.22982173 0.054564524
-0.04253802 0.023593191 -0.023090186 -0.003751683 0.1495016 -0.022627065 -0.32377315 0.055545326
0.08964472 -0.13477448 0.0043598516 -0.14985688 -0.6566765 -0.026310636 -0.3267109 -0.10511783
-1.0024557 0.00079637836 0.30446532 -0.03558428 -0.13633499 -0.41061795 -0.020484528 0.08332237
-0.34382978 -0.18890116 -0.44907677 -0.1927714 -0.5383623 0.52635443 -0.2246262 0.090428
-0.34692717 0.015511061 0.2182843 -0.7059207 -0.24125616 -0.49933937 -0.41431847 -0.14263642
-0.037209604 0.0418125 -0.3441355 -1.3508304 -0.09170633 -0.15665367 -0.41828042 -0.61875165
-0.055939786 -0.13189818 -0.27373344 -0.0664689 -0.0052410434 -0.43369246 -0.13147654 -0.18683338
-1.0022832 0.19524105 -0.05475222 -0.04602224 -0.16638601 -0.06466193 -0.47167048 0.23760825
-0.45990786 -0.14912438 -0.18768723 -0.050547104 0.18459997 -0.09731708 0.44248942 -0.122617155
0.03521866 -0.17899624 -0.029273108 -0.30119157 -0.20304382 -0.1664742 -0.43853197 -0.07062586
-0.14325303 0.07981738 -0.11163416 -0.44051033 -0.08883895 -0.18588603 0.08566784 -0.36153543
00000000: 8e67 ccbd e6aa 2b3d e4e4 52bd 5f98 2abe
00000010: 8809 92bc 60a6 38bd 29d3 06bc 013b 8e3d
00000020: 4bee ffbd 47dd d5bd 3dbf aabe 33df ebbe
00000030: ee3a 6838 0a2b afbe cbe1 2cbc d35b 75be
00000040: f8ce 97be 3c79 073d 4bef 44bd e311 f9be
00000050: f9e4 35be 9ab4 68be 57dd 8ebe ae12 37bd
00000060: 949c d3bc 5f37 c6bd 0f6e a8bd 1a60 1ebe
00000070: 4981 80bd cad9 51be 2ada 75bd 2907 89be
00000080: 71a5 30be 2c02 c1bd 5824 18bc 2e9b 303d
00000090: 36ac 843c c7a9 f9bd 6c00 80be 9639 9d3c
000000a0: be5d 06be 7229 563d fc4e edbc ab82 be3d
000000b0: b48a 11be e83a adbc 030b 4bbe ebe1 fdbc
000000c0: a525 55be 5a70 5f3c 14a7 6cbd a0d9 92bb
000000d0: 2f71 babd 7f81 17bd 2c1e 45be cf5e 52be
000000e0: 1fb8 edbc 2485 9cbd 5e4a 903d bf5a 45bd
000000f0: 616c 53bb ceef 51be d72e c93d e503 743d
00000100: 37b8 a0be 8c27 2ebf 9581 46bf 7ba6 92be
00000110: 6de1 c7be 89a9 60bf efcd cf3c 3bd4 353c
00000120: dd20 44be 506f abbe fa27 1e3e c2e8 073e
00000130: 3afb 76be 5c80 8cbe 4c4d e73d 40bf abbd
00000140: bb6e 6abf 890b bbbe b5c8 a9bf 16c7 f2be
00000150: 6126 a2bd b9ed d6bc 616b 73bf f8b3 f4bd
00000160: 4da5 09bf 7c34 a0be b522 74be c43e 323e
00000170: e5b4 d8bd 61fa d7be 672b a1be 5f49 3bbe
00000180: 22e8 05bf f833 22bf cf6b d8bd fcbe aebd
00000190: c9bb a43c c1af d6bd f6ec 39be 6677 80be
000001a0: 6953 1bbf 914d ae3e 7147 8ebe 4677 c03c
000001b0: e771 b8bd 853d 823b 4074 e5be 56fc 47be
000001c0: 9484 0dbe c5d5 4abe c396 46bd 4e6a 0abf
000001d0: dd76 5cbe 1a6a c3be c588 dbbe b9d3 a4bd
000001e0: 0048 d7be 99da 3fbe 54d9 c9bd e848 8cbf
000001f0: 2f94 2dbe 295e 96be 330f 2fbe 6046 b6bb
00000200: d58b 5ebe c112 4abf afef 10bf a9e4 f4bd
00000210: b93e a2be 9e36 57be 2ed3 40be 4a30 9ebe
00000220: c626 65be f5ef 25be 79e3 24bf 293f a3be
00000230: 9ed2 00bd f616 30bf 2b7f f6be 9897 6d3c
00000240: 4376 94be edf8 24be de7f d2be 28ea 44be
00000250: cece 28be 09b1 8bbe df58 8ebe bceb 22bd
00000260: 1705 b0be 87ff 27bf 6200 573d 543f 73bc
00000270: 7731 ba3d 571c 70be 799b ec3c fb97 0ebe
00000280: 7a37 303c 6e57 b9be b196 3b3e bd62 ec3c
00000290: 93d9 a2bd 6b07 17be 6356 6bbe 0d7f 5f3d
000002a0: 593c 2ebd 8246 c13c a127 bdbc ccde 75bb
000002b0: f316 193e 655c b9bc 98c5 a5be 7f83 633d
000002c0: a797 b73d 5202 0abe 16dd 8e3b 1574 19be
000002d0: f31b 28bf 6789 d7bc a746 a7be 0448 d7bd
000002e0: 7850 80bf 0cc4 503a e1e2 9b3e d2c0 11bd
000002f0: 669b 0bbe 843c d2be 2bcf a7bc eba4 aa3d
00000300: 750a b0be 4e6f 41be 64ed e5be de65 45be
00000310: 1dd2 09bf 2abf 063f 6904 66be 5132 b93d
00000320: 70a0 b1be 1b22 7e3c eb85 5f3e 38b7 34bf
00000330: db0b 77be 69a9 ffbe 8d21 d4be 480f 12be
00000340: 1969 18bd 9643 2b3d 8732 b0be 03e8 acbf
00000350: 87d0 bbbd d269 20be da28 d6be 8266 1ebf
00000360: 1e21 65bd 5110 07be ca26 8cbe d920 88bd
00000370: 0fbd abbb f00c debe c9a1 06be 4051 3fbe
00000380: d14a 80bf 45ed 473e dd43 60bd d181 3cbd
00000390: 1861 2abe 796d 84bd cb7e f1be 944f 733e
000003a0: 0b79 ebbe 10b4 18be 1531 40be 7b0a 4fbd
000003b0: c607 3d3e 2d4e c7bd f98d e23e b41e fbbd
000003c0: 7141 103d ca4a 37be 28ce efbc c835 9abe
000003d0: b8ea 4fbe 3678 2abe 4387 e0be 4aa4 90bd
000003e0: ecb0 12be 4b77 a33d 73a0 e4bd 928a e1be
000003f0: 32f1 b5bd e858 3ebe 9f72 af3d 2c1b b9be

fc2.bias f4 [64]
-0.2236474 -0.5162163 -0.48411492 -0.90489477 -0.122858286 -0.43620843 -0.050495375 -0.1110814
-0.030028807 -0.16445942 -0.110605456 -0.53629416 0.4430264 -0.14294933 -0.8303762 -0.3449252
-0.39256018 -0.50710404 0.48113585 0.47557428 -0.034790237 -0.21391913 -0.10188097 -0.15962562
-0.5090429 -0.01689893 -0.040181365 -0.82450134 1.4300534 0.7006878 -0.28259495 -0.4321151
-0.4622032 -0.046119004 -0.4124771 -0.2417886 -0.1991434 -0.31866348 -0.11274062 -0.14833847
-0.49128112 -0.091938265 -0.2164039 0.14832126 -0.21689728 -0.28503633 -0.19103384 -0.53062165
-0.15063415 -0.27711594 0.5351718 -0.2055557 -0.58506054 -0.2370706 -0.6232891 -0.4303
-0.34592557 1.0745394 -0.17093457 -0.42651045 -0.05975327 0.32089 -0.051561393 -0.45710856
00000000: d303 65be c026 04bf e9dd f7be 2fa7 67bf
00000010: 209d fbbd b656 dfbe 3dd4 4ebd a57e e3bd
00000020: f9fe f5bc 0d68 28be 1d85 e2bd 934a 09bf
00000030: 5bd4 e23e 4f61 12be 8993 54bf 099a b0be
00000040: a6fd c8be 92d1 01bf 7057 f63e 797e f33e
00000050: 3580 0ebd 9e0d 5bbe f8a6 d0bd e674 23be
00000060: a350 02bf a06f 8abc 3795 24bd 8512 53bf
00000070: fd0b b73f 4760 333f 49b0 90be 313e ddbe
00000080: e6a5 ecbe 48e7 3cbd 3330 d3be 6e97 77be
00000090: 3fec 4bbe dc27 a3be 8ee4 e6bd 0ae6 17be
000000a0: 3389 fbbe 214a bcbd fc98 5dbe 87e1 173e
000000b0: 521a 5ebe 48f0 91be 609e 43be d2d6 07bf
000000c0: d73f 1abe 24e2 8dbe 0501 093f 327d 52be
000000d0: 87c6 15bf a3c2 72be e08f 1fbf 4850 dcbe
000000e0: 281d b1be 828a 893f 7909 2fbe 945f dabe
000000f0: d8bf 74bd b24b a43e 0a32 53bd 220a eabe

fc3.weight f4 [1, 64]
0.10851966 0.031309 0.062783115 -0.019181846 -0.010983765 0.18610199 0.0046945214 -0.028400974
-0.0034908701 0.074043244 -0.058484912 -0.29938954 0.17242539 -0.13217393 -0.022571938 0.019291228
0.1425925 -0.1989893 0.18293455 0.20535472 -0.056228425 0.014750405 -0.0037884528 0.0028728007
0.0546645 -0.020102724 -0.042837743 -0.18857698 0.11614451 -0.19013287 0.0043067676 -0.2453788
-0.08847146 -0.0047609974 -0.11018019 -0.1276554 -0.012898176 0.09777236 -0.010552809 -0.067631714
0.07769862 0.018750004 -0.2766019 -0.16904095 -0.23885669 -0.052754365 0.033102557 -0.2285966
-0.15350354 0.047240056 0.054985367 0.034206636 0.17422716 -0.014133254 0.08547859 0.20748912
0.2774171 -0.12334847 0.0043668286 0.015437042 -0.001679152 -0.05257687 0.00081824197 0.08638884
00000000: 8e3f de3d de3d 003d 6f94 803d 3f23 9dbc
00000010: 40f5 33bc 8591 3e3e 80d4 993b 29a9 e8bc
00000020: 15c7 64bb fca3 973d e08d 6fbd 9649 99be
00000030: 4890 303e 9a58 07be c9e8 b8bc a308 9e3c
00000040: c503 123e dac3 4bbe 3253 3b3e 8248 523e
00000050: c74f 66bd afab 713c b147 78bb 9945 3c3b
00000060: e2e7 5f3d 78ae a4bc a176 2fbd 531a 41be
00000070: 2cdd ed3d 31b2 42be c91f 8d3b 9544 7bbe
00000080: 8630 b5bd 2402 9cbb 27a6 e1bd 19b8 02be
00000090: df52 53bc e03c c83d b0e5 2cbc 7f82 8abd
000000a0: 7420 9f3d 9c99 993c c49e 8dbe 1219 2dbe
000000b0: d996 74be f614 58bd 8c96 073d 3a15 6abe
000000c0: 0830 1dbe ca7e 413d 5638 613d 421c 0c3d
000000d0: 9b68 323e 2a8f 67bc 660f af3d 0778 543e
000000e0: 9d09 8e3e 1f9e fcbd 9d17 8f3b a6eb 7c3c
000000f0: fe16 dcba d85a 57bd 4a7f 563a a2ec b03d

fc1.weight f4 [64, 1]
0.07931359 -0.6174838 -1.1024106 -0.024499303 -2.0790768 0.2720403 -0.06364031 0.3431517
-0.28440234 -1.3099637 -0.18687488 -0.034220364 -0.07133378 -1.4366429 -0.07290876 -0.07255047
0.14494395 -0.0039948225 0.087541796 0.055521965 -0.08476272 -3.0250692 -0.16761565 0.06632848
-1.4986616 0.04785606 -0.0069578015 1.0934186 -1.273271 0.07448464 -0.13763835 0.36841515
-0.024866056 -0.54933774 -1.589978 -1.3277453 -0.030158954 -1.541287 -0.07596209 -1.2298205
1.2316637 -0.42309844 -0.17237905 -0.29719055 -1.2012377 -0.009282214 0.079501815 -0.10250364
-0.12310047 -0.1096344 -1.2459114 -1.1331395 0.015060479 -0.08670733 0.13879625 0.08261464
-0.04682362 0.0049724905 -0.11768464 0.05723468 -0.009737872 -0.039462227 0.42590532 0.10685819
00000000: 2a6f a23d 6b13 1ebf ca1b 8dbf c3b2 c8bc
00000010: 980f 05c0 de48 8b3e da55 82bd 94b1 af3e
00000020: 2f9d 91be e4ac a7bf 215c 3fbe a72a 0cbd
00000030: 7217 92bd eae3 b7bf 3051 95bd 5795 94bd
00000040: 306c 143e 00e7 82bb 1d49 b33d 006b 633d
00000050: 1498 adbd bc9a 41c0 70a3 2bbe 3ad7 873d
00000060: 25d4 bfbf b704 443d 45fe e3bb 24f5 8b3f
00000070: 8bfa a2bf 678b 983d 11f1 0cbe e9a0 bc3e
00000080: e6b3 cbbc 66a1 0cbf 6684 cbbf 8ff3 a9bf
00000090: e90f f7bc e448 c5bf 0392 9bbd c26a 9dbf
000000a0: 28a7 9d3f 5ca0 d8be 2284 30be 5c29 98be
000000b0: 28c2 99bf 6d14 18bc d9d1 a23d 6eed d1bd
000000c0: 191c fcbd 0088 e0bd 067a 9fbf b70a 91bf
000000d0: 3ac0 763c 9d93 b1bd 9b20 0e3e dd31 a93d
000000e0: 20ca 3fbd 46f0 a23b a504 f1bd e96e 6a3d
000000f0: 988b 1fbc 25a3 21bd 4310 da3e 77d8 da3d

fc1.bias f4 [64]
-1.1158537 -0.79585093 -0.51688415 -0.06418272 -0.9258367 -1.2703134 -0.17981324 -1.6063169
-0.54036134 -0.61465496 -0.30355036 -0.09422424 -0.13216524 -0.033426702 -0.92611206 -0.22026397
-0.7031232 -0.75450915 -1.2124372 -0.6355441 -0.1418525 0.27037343 -0.88898194 -0.32311562
-0.706381 -0.32361034 -0.061266743 -2.4413197 0.105605185 -0.34498757 -1.0832976 -1.7870504
-0.058667608 -0.7124938 -0.7419578 -0.6159425 -0.11475507 -0.7255917 -0.17891172 -0.5797751
-0.20923172 -0.85042953 -0.3744889 -0.40498862 0.12157436 -0.11091951 -0.48701185 -0.7287277
-0.16735734 -0.663581 -0.5856512 -0.013467066 -0.07253632 -0.20351952 -2.0643137 -2.1230807
-0.6047716 -0.66949886 -0.15346348 -0.8474984 -0.086343005 -1.3476921 -2.0426414 -1.497443
00000000: 4bd4 8ebf e3bc 4bbf 8552 04bf 3b72 83bd
00000010: a203 6dbf a199 a2bf f620 38be cb9b cdbf
00000020: 1f55 0abf 075a 1dbf f46a 9bbe a3f8 c0bd
00000030: 5356 07be 70ea 08bd ae15 6dbf e18c 61be
00000040: e2ff 33bf 8327 41bf 2431 9bbf 05b3 22bf
00000050: c841 11be 636e 8a3e 5294 63bf 696f a5be
00000060: 63d5 34bf 41b0 a5be d6f2 7abd 953e 1cc0
00000070: 8847 d83d 36a2 b0be 7fa9 8abf 11be e4bf
00000080: 724d 70bd fe65 36bf f2f0 3dbf 68ae 1dbf
00000090: b504 ebbd 61c0 39bf a234 37be 246c 14bf
000000a0: d740 56be c0b5 59bf 02bd bfbe ab5a cfbe
000000b0: fafb f83d c529 e3bd 9e59 f9be e68d 3abf
000000c0: b95f 2bbe 72e0 29bf 3ded 15bf f8a4 5cbc
000000d0: ec8d 94bd 6c67 50be b71d 04c0 8ee0 07c0
000000e0: 50d2 1abf 4764 2bbf 8825 1dbe a8f5 58bf
000000f0: 9ad4 b0bd 2d81 acbf a3ba 02c0 36ac bfbf

fc2.weight f4 [64, 64]
0.072021365 0.010746588 -0.18009636 -0.22818841 0.08567989 0.082831696 -0.06343543 -0.0059989574
-0.09169476 -0.05697148 -0.55278295 -0.15018374 -0.36341733 -0.15756728 -0.07661903 -0.106812745
0.038685977 -0.028304413 -0.094590805 -0.045500554 -0.035949647 0.05141781 -0.04233159 -0.01819443
-0.07139638 -0.20707643 -0.5532896 -0.080452025 -0.12999265 -0.4998793 0.088871196 -0.12819557
-0.56151503 0.018269679 0.026970102 0.06486891 -0.6422556 -0.24882802 -0.37185138 -0.15011966
-0.19045119 -0.05697012 -0.5014559 -0.13317852 -0.10551858 -0.31722668 0.11213842 -0.22749849
-0.06337955 0.003980443 -0.12095322 -0.053358316 -0.43781295 -0.14380604 -0.10768744 -0.024691075
-0.08062348 0.088858314 -0.51890963 -0.09743534 -0.0477592 -0.14972478 0.04472646 -0.15357375
-0.15006751 -0.21741039 -0.2187038 -0.13737915 -0.16095878 -0.033809092 0.16737223 -0.15964003
0.016241815 -0.5905843 0.058644507 -0.05348833 0.030189315 -0.20074193 -0.009735331 0.24689087
0.02124931 0.05892451 -0.10199073 -0.06880655 0.2437512 0.0011560227 0.108982995 -0.008811019
-0.35815126 -0.1315081 -0.09051086 0.102695554 -0.19377266 -0.16515048 -0.008490829 -0.22253342
-0.18398556 -0.18412414 -0.12950091 -0.1367846 -0.15159488 -0.23171552 -0.17541292 -0.24268577
-0.13167946 -0.02662827 -0.33679786 0.10877746 -0.21128899 -0.1399213 -0.19664858 0.094257765
-0.023736736 -0.010949552 -0.041884784 0.007270446 -0.3804315 0.14609484 -0.26543912 -0.24603704
-0.08321117 0.0060131596 -0.26938793 0.069559805 -0.12769042 -0.04376792 -0.07849605 -0.1943553
-0.28093037 -0.52140707 -1.4168932 -0.081419654 -1.8714505 -0.03751203 0.09547221 -0.7144846
0.12212444 -2.4010086 0.077770345 -0.07153347 0.10641935 -0.9721736 0.035353497 0.24473915
0.029732242 0.10367778 -0.36747342 -0.24909326 0.11625189 -4.4577403 -0.05921507 0.7183171
-1.7484503 0.09974809 0.030588852 -0.94764024 -0.9883026 -0.22962339 -0.05886318 -0.40122756
0.27450797 -0.34384614 -0.825397 -2.0285747 0.29913664 -2.5658514 0.13373432 0.79865825
-4.258298 0.0017213827 0.14175563 0.0077884486 0.68910486 -0.15379278 0.47568575 0.003554105
0.36223713 -0.047710195 -0.6730891 0.6683028 0.27342018 0.3125447 -0.7055081 -0.59243196
-0.117513284 -0.043984357 0.3642816 -0.13149767 0.53879964 -0.25308904 -0.05681278 -0.41475782
-0.15491635 -0.13481168 -0.10620105 -0.13454197 0.052165568 -0.18649343 -0.22291191 -0.054122746
-0.20930564 -0.10969166 -0.026461974 -0.0012005516 0.027792275 -0.22246338 0.0010868162 -0.18252376
-0.069914594 -0.07031919 -0.05258532 -0.11833359 -0.2251441 -0.08810744 -0.10356602 -0.035578236
-0.1534754 -0.14506817 -0.12410034 -0.2839315 -0.19501245 -0.1615429 0.103036046 -0.073378235
-0.13406216 -0.13143359 -0.008153598 0.0038521516 0.025474211 0.12653856 -0.02962922 -0.14808565
-0.16994716 -0.12246022 -0.024670666 -0.05338514 -0.11196632 -0.072227865 -0.20558184 -0.1802111
-0.121260926 -0.025300056 -0.20073597 -0.12022008 -0.09229751 -0.18066558 -0.0677888 -0.08114398
-0.046100378 0.033057697 -0.043184914 -0.0037353174 -0.15182137 -0.16809495 -0.0921783 -0.11771743
00000000: f07f 933d 7512 303c 2e6b 38be 39aa 69be
00000010: f078 af3d aaa3 a93d 6fea 81bd e792 c4bb
00000020: 76ca bbbd ed5a 69bd 2f83 0dbf c4c9 19be
00000030: d611 babe 5159 21be 70ea 9cbd a4c0 dabd
00000040: 3075 1e3d a8de e7bc d3b8 c1bd ca5e 3abd
00000050: f03f 13bd 7b9b 523d e463 2dbd 7c0c 95bc
00000060: 4438 92bd d80b 54be 63a4 0dbf 08c4 a4bd
00000070: cb1c 05be 2ef0 ffbe 1a02 b63d b345 03be
00000080: 73bf 0fbf 4baa 953c 67f0 dc3c fed9 843d
00000090: dd6a 24bf c6cc 7ebe 4e63 bebe f8b8 19be
000000a0: a305 43be 8059 69bd 6a5f 00bf f35f 08be
000000b0: 201a d8bd 896b a2be d4a8 e53d 5df5 68be
000000c0: 23cd 81bd 606e 823b 52b6 f7bd 408e 5abd
000000d0: 0529 e0be e441 13be 3c8b dcbd f044 cabc
000000e0: ec1d a5bd 59fb b53d 43d7 04bf 2e8c c7bd
000000f0: 279f 43bd 7451 19be 1833 373d 7042 1dbe
00000100: 4cab 19be d4a0 5ebe e4f3 5fbe 1fad 0cbe
00000110: 61d2 24be 677b 0abd a063 2b3e ad78 23be
00000120: 8e0d 853c 8830 17bf 3935 703d 9416 5bbd
00000130: 954f f73c 4b8f 4dbe f080 1fbc f6d0 7c3e
00000140: 0813 ae3c d45a 713d 84e0 d0bd 73ea 8cbd
00000150: ea99 793e af85 973a 7a32 df3d 185c 10bc
00000160: 9a5f b7be 0faa 06be c25d b9bd 0c52 d23d
00000170: 576c 46be 351d 29be 1e1d 0bbc cddf 63be
00000180: b666 3cbe 0a8b 3cbe e39b 04be 4311 0cbe
00000190: b03b 1bbe d546 6dbe 729f 33be 9e82 78be
000001a0: fbd6 06be 8823 dabc c570 acbe b8c6 de3d
000001b0: 245c 58be 8747 0fbe 3f5e 49be 370a c13d
000001c0: 8b73 c2bc c065 33bc 618f 2bbd ec3c ee3b
000001d0: ebc7 c2be e399 153e a3e7 87be 22f1 7bbe
000001e0: 9e6a aabd 0a0a c53b 37ed 89be 5f75 8e3d
000001f0: 47c1 02be fe45 33bd 89c2 a0bd 1305 47be
00000200: 1bd6 8fbe ef7a 05bf c25c b5bf 59bf a6bd
00000210: b18b efbf 37a6 19bd ef86 c33d 76e8 36bf
00000220: 611c fa3d 20aa 19c0 0f46 9f3d 2480 92bd
00000230: 63f2 d93d 5ee0 78bf d4ce 103d e69c 7a3e
00000240: 0891 f33c 0455 d43d 7a25 bcbe 4e12 7fbe
00000250: 7915 ee3d cfa5 8ec0 808b 72bd a1e3 373f
00000260: 38cd dfbf ba48 cc3d 7995 fa3c 8d98 72bf
00000270: 6601 7dbf 6522 6bbe 851a 71bd b36d cdbe
00000280: 4f8c 8c3e 9a0c b0be 384d 53bf 2bd4 01c0
00000290: 7028 993e e936 24c0 a6f1 083e de74 4c3f
000002a0: fa43 88c0 05a0 e13a 6328 113e 3e36 ff3b
000002b0: 2d69 303f db7b 1dbe 158d f33e fdeb 683b
000002c0: 2577 b93e c46b 43bd 914f 2cbf e415 2b3f
000002d0: bbfd 8b3e dc05 a03e 2e9c 34bf 9fa9 17bf
000002e0: ceaa f0bd f128 34bd 1e83 ba3e 53a7 06be
000002f0: c6ee 093f e394 81be 85b4 68bd 235b d4be
00000300: 64a2 1ebe 130c 0abe f07f d9bd 5fc5 09be
00000310: 90ab 553d 22f8 3ebe 0543 64be d0af 5dbd
00000320: 3854 56be 05a6 e0bd c8c6 d8bc d45b 9dba
00000330: a0ac e33c 71cd 63be 8073 8e3a 82e7 3abe
00000340: 622f 8fbd 8203 90bd b463 57bd e258 f2bd
00000350: 2d8c 66be ac71 b4bd 6c1a d4bd 7cba 11bd
00000360: a828 1dbe c08c 14be 5228 febd 785f 91be
00000370: 58b1 47be 816b 25be 9004 d33d 5447 96bd
00000380: 9747 09be 8796 06be ab96 05bc 6174 7c3b
00000390: 4baf d03c 5393 013e fab8 f2bc c4a3 17be
000003a0: a106 2ebe 6ccc fabd 231a cabc 60aa 5abd
000003b0: 994e e5bd 34ec 93bd 0c84 52be 4289 38be
000003c0: a657 f8bd 1042 cfbc bb8d 4dbe f235 f6bd
000003d0: 7a06 bdbd 6600 39be dbd4 8abd d12e a6bd
000003e0: c0d3 3cbd 8267 073d aae2 30bd 3acc 74bb
000003f0: 1077 1bbe 1521 2cbe fac7 bcbd d615 f1bd

fc2.bias f4 [64]
-0.34189108 -0.2689111 0.25434574 -0.23664483 -0.47599572 -0.103328854 -0.35545117 -0.2858448
-0.27465102 -0.022233766 -0.22371508 -0.031663325 -1.1447859 1.0711294 0.5869046 -0.18902068
-0.072920024 -0.2872187 -0.3263909 -0.3956724 -0.5226647 -0.16157122 -0.22717066 -0.086522564
-0.0698541 -0.14278829 -0.24162331 -0.38275906 -0.31142116 -0.41614962 -0.8639791 -0.34503525
-0.5848503 -0.017576756 0.35037243 -0.21527505 -0.031927075 -0.054596603 -0.4388292 0.82299644
0.46206674 -0.46411052 -0.32861713 -0.38252065 -0.12717186 -0.13440935 -0.7025577 -0.18051359
-0.79581517 -0.18783157 -0.11720185 -0.17341319 -0.12899278 -0.37001556 -0.10433021 -0.049410995
-0.12324278 -0.26452717 -0.099261574 -0.11141945 1.7035315 -0.5627966 -0.2481828 -0.20905977
00000000: 590c afbe b7ae 89be 9b39 823e 0653 72be
00000010: b6b5 f3be 149e d3bd b2fd b5be 405a 92be
00000020: 0f9f 8cbe 9623 b6bc 9115 65be 67b1 01bd
00000030: 5888 92bf c51a 893f 613f 163f a38e 41be
00000040: 1857 95bd 540e 93be b51c a7be 9395 cabe
00000050: 5bcd 05bf ed72 25be 6d9f 68be be32 b1bd
00000060: ab0f 8fbd 1837 12be 1a6c 77be fff8 c3be
00000070: 9872 9fbe 9011 d5be bc2d 5dbf 76a8 b0be
00000080: c0b8 15bf 21fd 8fbc 0464 b33e 1071 5cbe
00000090: f7c5 02bd b0a0 5fbd 39ae e0be e5af 523f
000000a0: 0394 ec3e e59f edbe 8140 a8be bfd9 c3be
000000b0: 5739 02be 9ba2 09be d2da 33bf 8ed8 38be
000000c0: 8bba 4bbf eb56 40be 8607 f0bd 3a93 31be
000000d0: af16 04be ae72 bdbe 14ab d5bd 2f63 4abd
000000e0: b666 fcbd 1b70 87be a749 cbbd e12f e4bd
000000f0: 520d da3f 7013 10bf a223 7ebe c413 56be
