maddpg_pytorch/models/cache_data/model/run52/incremental/model_ep1001.pt (torch, 690099 bytes, 168 tensors)

fc1.weight f4 [64, 1]
00000000: 165c 643e 140c 60bf 4415 33bf cab2 c8bc
00000010: 6eec e6bf 7b0d be3e 9f55 82bd 28bc 473f
00000020: b7c6 11bd 9ae6 70bf 57ae a8bd eb2a 0cbd
00000030: 477c 07be 0f5d 16bf 3051 95bd fe94 94bd
00000040: 306c 143e 00e7 82bb 0168 603e b66a 633d
00000050: cb97 adbd a645 94bf 70a3 2bbe 1bbd e7be
00000060: 9721 5cbf 1e6b 8dbd 8bfe e3bb 26c0 c83f
00000070: a7d4 a3bf 6dac f83d 27dc 373e b1a7 2c3f
00000080: 5cd2 06bd 63a2 74bf afd1 bbbf 493a 7cbf
00000090: 0976 953d 7737 3bbf e891 9bbd b7e1 f7be
000000a0: a217 ff3f 5ca0 d8be 9068 50bd b1ff a63c
000000b0: 4f43 22bf be3a c23c d83f 0dbe 1bec 94bd
000000c0: 7f7f 06bf 0088 e0bd e13f 90bf cf25 18bf
000000d0: f450 cabd 3093 b1bd 29ec 6e3f 54e4 623f
000000e0: 20ca 3fbd e158 65bf d7d3 92be ef73 463e
000000f0: 0e0c b63e db88 8d3e 1e41 d33e f9cf 2b3f
0.22300753 -0.8751843 -0.69954324 -0.024499316 -1.8040903 0.3711966 -0.06363987 0.7802148
-0.0355899 -0.9410187 -0.08236378 -0.034220617 -0.13231002 -0.58735746 -0.07290876 -0.072549805
0.14494395 -0.0039948225 0.21914674 0.05552169 -0.08476218 -1.1583755 -0.16761565 -0.45261464
-0.85988754 -0.069051966 -0.006957834 1.5683639 -1.2799271 0.121422626 0.17955075 0.67443377
-0.032915458 -0.9556028 -1.4673365 -0.98526436 0.07297904 -0.7313151 -0.07596189 -0.48414394
1.9929087 -0.42309844 -0.05088097 0.020385595 -0.63383955 0.023709651 -0.13793886 -0.07271596
-0.52538294 -0.1096344 -1.1269494 -0.5943269 -0.09878722 -0.08670652 0.933291 0.8862965
-0.04682362 -0.89588743 -0.28677246 0.19380163 0.35556072 0.27643475 0.41260618 0.67114216

fc1.bias f4 [64]
00000000: 60e2 76bf 0ae4 efbe 2072 d2be 3d72 83bd
00000010: 459e 70bf afe4 9bbf f920 38be 6a6a 4bbf
00000020: fa4c 1dbd 27e6 fdbe 14ca b9bd d8f8 c0bd
00000030: 0611 24bc c940 153e ae15 6dbf e68c 61be
00000040: e2ff 33bf 8027 41bf 5de6 36bf 2eb3 22bf
00000050: 1e42 11be 3e59 26bf 5294 63bf 87ad b23d
00000060: ce07 03bf b8d4 8dbd def2 7abd bc8b 41bf
00000070: 5337 023e 1ca3 13be 0d83 44bf f196 b6bf
00000080: 8a35 603e 00be 95be 8174 553d d723 02bf
00000090: 30f7 023f 322f e0be ba34 37be 0fd1 d13d
000000a0: b8f5 c1be c0b5 59bf 86e0 b03e ed3e b4bd
000000b0: 9176 393e bd9e d5bd 8c30 2bbe 9c68 b4bd
000000c0: 897e 133e 72e0 29bf 2946 e73d 5883 1e3e
000000d0: 505e d03d 6067 50be 0b92 b8bf 0519 afbf
000000e0: 50d2 1abf 8012 d03d e4a8 893e 40bf 3ebf
000000f0: 67b0 c23e e0a0 78bf d8e8 a0bf f796 8bbf
-0.9643917 -0.46853667 -0.41102695 -0.064182736 -0.939915 -1.2179164 -0.17981328 -0.7945925
-0.03840349 -0.49589655 -0.090717465 -0.09422463 -0.010013824 0.14575495 -0.92611206 -0.22026405
-0.7031232 -0.754509 -0.71445256 -0.63554657 -0.14185378 -0.6497992 -0.88898194 0.08724504
-0.51183784 -0.069253385 -0.061266772 -0.7560384 0.12716417 -0.1441769 -0.7676247 -1.4264814
0.21895424 -0.2924652 0.05211306 -0.5083594 0.5115843 -0.43786007 -0.17891207 0.10244953
-0.3788278 -0.85042953 0.34546298 -0.08801065 0.18111636 -0.104306675 -0.16717738 -0.08809015
0.14403738 -0.663581 0.11292679 0.15479791 0.10174239 -0.20351934 -1.4419569 -1.367951
-0.6047716 0.101597786 0.26886666 -0.74510574 0.3802521 -0.97120476 -1.2571058 -1.0905446

fc2.weight f4 [64, 64]
00000000: f07f 933d be0f 4a3e a7e2 f1bb 85aa 69be
00000010: 468d 713e aaa3 a93d 6fea 81bd 2f93 c4bb
00000020: acca bbbd e294 113e 7783 0dbf efc9 19be
00000030: 1512 babe d86f aabd 70ea 9cbd f1c0 dabd
00000040: 3075 1e3d a8de e7bc ebb8 c1bd 0d5f 3abd
00000050: 4a40 13bd d381 e13d e463 2dbd 40fa b93c
00000060: 44e9 a83d 0f0c 54be 5ba4 0dbf 08c4 a4bd
00000070: c798 11bd 31f0 ffbe 1a02 b63d d545 03be
00000080: c0bf 0fbf adb6 883d 1f0a 193e 5de6 0f3e
00000090: f2fb 0fbf 933c 7f3b 5d63 bebe 763d b5bd
000000a0: d305 43be 8059 69bd 3861 edbe 1160 08be
000000b0: 16e9 5fbd a76b a2be 69a8 e53d 7ff5 68be
000000c0: 66c2 3fbd 606e 823b a49f 0bbd 0126 52bc
000000d0: 5529 e0be 2642 13be 328b dcbd f044 cabc
000000e0: ec1d a5bd ae57 153e d325 f7be 2e8c c7bd
000000f0: 759f 43bd ac51 19be 1833 373d 9642 1dbe
00000100: 72ab 19be eba0 5ebe 31f4 5fbe 2bad 0cbe
00000110: 83d2 24be 9a7b 0abd 7463 2b3e da78 23be
00000120: 650d 853c c430 17bf f734 703d 9416 5bbd
00000130: 2a4f f73c 718f 4dbe f080 1fbc 24d1 7c3e
00000140: 0813 ae3c d45a 713d 7be0 d0bd 71ea 8cbd
00000150: 199a 793e 6f85 973a 7a32 df3d 2b5c 10bc
00000160: c25f b7be 1aaa 06be 195e b9bd 3752 d23d
00000170: 9a6c 46be 521d 29be b61c 0bbc ebdf 63be
00000180: d466 3cbe 138b 3cbe 3a9c 04be 8a11 0cbe
00000190: d13b 1bbe ce46 6dbe a49f 33be d282 78be
000001a0: 47d7 06be 8823 dabc f270 acbe c4c6 de3d
000001b0: 735c 58be a247 0fbe 6d5e 49be 7f0a c13d
000001c0: 9573 c2bc c065 33bc 8e8f 2bbd a23c ee3b
000001d0: e6c7 c2be be99 153e a4e7 87be 67f1 7bbe
000001e0: 9e6a aabd 9f09 c53b 4ded 89be b675 8e3d
000001f0: 41c1 02be 2046 33bd dcc2 a0bd 4305 47be
00000200: 26d6 8fbe ef58 d7bf f935 e9bf 80bf a6bd
00000210: 834f 06c0 f1d7 60be 0187 c33d 87a5 a0be
00000220: 471c fa3d caa2 09c0 ec45 9f3d 3d80 92bd
00000230: 574d d23d 5e53 4b3f d4ce 103d dc9c 7a3e
00000240: 0891 f33c 0455 d43d c725 bcbe 5c12 7fbe
00000250: 7015 ee3d 34fe d5bf 808b 72bd ce8b 563f
00000260: 0016 07c0 a648 cc3d 3595 fa3c 56a3 2cbf
00000270: 40c2 11bf 3f34 66be 141a 71bd fa6d cdbe
00000280: bd6d fe3c 3618 12be 5aff 94bf f641 febf
00000290: d619 143e 5e8f eabf 5ef1 083e 58cd 563f
000002a0: 9ace e5bf 00a0 e13a 9c92 9d3d 3636 ff3b
000002b0: 2488 773f 847b 1dbe bf8c f33e 1dec 683b
000002c0: 52f3 263f c46b 43bd 4e4a e3be 13f1 553f
000002d0: aa3d 303e c805 a03e 349c 34bf 85a9 17bf
000002e0: ccaa f0bd 0988 99be 9482 9a3e 52a7 06be
000002f0: 0926 b93e 1895 81be 92b4 68bd c25a d4be
00000300: 91a2 1ebe 330c 0abe 1a80 d9bd a4c5 09be
00000310: 90ab 553d 47f8 3ebe 4843 64be fcaf 5dbd
00000320: 4b54 56be 4fa6 e0bd 06c7 d8bc d95b 9dba
00000330: 59ac e33c a2cd 63be 8073 8e3a 93e7 3abe
00000340: 622f 8fbd 8203 90bd e563 57bd 0d59 f2bd
00000350: 438c 66be ac71 b4bd 6c1a d4bd 83ba 11bd
00000360: f428 1dbe f88c 14be 7428 febd be5f 91be
00000370: aeb1 47be 9f6b 25be c504 d33d 4e47 96bd
00000380: b047 09be d496 06be a496 05bc 1674 7c3b
00000390: fbae d03c 7893 013e 4ab9 f2bc eaa3 17be
000003a0: f506 2ebe 6ccc fabd 6a1a cabc abaa 5abd
000003b0: a64e e5bd 5cec 93bd 4984 52be 4589 38be
000003c0: ae57 f8bd 1042 cfbc 0c8e 4dbe 4036 f6bd
000003d0: b106 bdbd 8900 39be 27d5 8abd dd2e a6bd
000003e0: c0d3 3cbd 3b67 073d dde2 30bd 8fcc 74bb
000003f0: 6077 1bbe 2b21 2cbe 3ec8 bcbd cd15 f1bd
0.072021365 0.19732568 -0.0073817554 -0.22818954 0.23589048 0.082831696 -0.06343543 -0.005998991
-0.09169516 0.1421695 -0.55278724 -0.15018438 -0.3634192 -0.08322114 -0.07661903 -0.10681332
0.038685977 -0.028304413 -0.094590984 -0.045500804 -0.035949983 0.1101109 -0.04233159 0.022702336
0.08247617 -0.20707725 -0.5532891 -0.080452025 -0.03554609 -0.4998794 0.088871196 -0.12819608
-0.5615196 0.06675468 0.14945267 0.1405272 -0.56243813 0.0038946017 -0.37185183 -0.08849613
-0.1904519 -0.05697012 -0.46363235 -0.13317896 -0.054665647 -0.31722757 0.11213762 -0.227499
-0.046816252 0.003980443 -0.034087792 -0.012826444 -0.43781534 -0.14380702 -0.10768737 -0.024691075
-0.08062348 0.14584228 -0.48271045 -0.09743534 -0.047759492 -0.14972562 0.04472646 -0.15357432
-0.15006807 -0.21741073 -0.21870495 -0.13737933 -0.16095929 -0.033809282 0.16737157 -0.1596407
0.016241739 -0.59058785 0.05864426 -0.05348833 0.030189116 -0.2007425 -0.009735331 0.24689156
0.02124931 0.05892451 -0.10199066 -0.06880654 0.2437519 0.0011560152 0.108982995 -0.008811037
-0.35815245 -0.13150826 -0.09051151 0.102695875 -0.19377366 -0.16515091 -0.008490732 -0.22253387
-0.18398601 -0.18412428 -0.1295022 -0.13678566 -0.15159537 -0.23171541 -0.17541367 -0.24268654
-0.1316806 -0.02662827 -0.3367992 0.10877755 -0.21129017 -0.1399217 -0.19664927 0.0942583
-0.023736754 -0.010949552 -0.04188495 0.0072704116 -0.38043135 0.14609429 -0.26543915 -0.24603806
-0.08321117 0.00601311 -0.2693886 0.06956045 -0.12769033 -0.04376805 -0.078496665 -0.19435601
-0.2809307 -1.6824015 -1.8219596 -0.081419945 -2.098603 -0.21957375 0.09547234 -0.31376287
0.12212425 -2.1505609 0.077770084 -0.07153366 0.10268658 0.79424083 0.035353497 0.244739
0.029732242 0.10367778 -0.36747572 -0.24909347 0.11625183 -1.6718202 -0.05921507 0.83807075
-2.1107178 0.09974794 0.030588726 -0.6743673 -0.56937027 -0.22480868 -0.05886276 -0.40122968
0.031058187 -0.14267048 -1.1640427 -1.986388 0.1446298 -1.8325002 0.13373324 0.8390708
-1.7953675 0.0017213821 0.07693979 0.007788445 0.9669211 -0.15379149 0.47568318 0.0035541125
0.6521503 -0.047710195 -0.44392627 0.83570975 0.17211023 0.3125441 -0.7055085 -0.5924304
-0.11751327 -0.299866 0.30177748 -0.13149765 0.3616183 -0.25309062 -0.05681283 -0.41475493
-0.15491702 -0.13481216 -0.106201366 -0.134543 0.052165568 -0.18649398 -0.22291291 -0.05412291
-0.20930593 -0.10969221 -0.02646209 -0.0012005522 0.027792143 -0.22246411 0.0010868162 -0.18252401
-0.069914594 -0.07031919 -0.0525855 -0.11833391 -0.22514443 -0.08810744 -0.10356602 -0.035578262
-0.15347654 -0.145069 -0.124100596 -0.28393358 -0.19501373 -0.16154335 0.10303644 -0.07337819
-0.13406253 -0.13143474 -0.008153591 0.003852134 0.025474062 0.12653911 -0.029629368 -0.14808622
-0.16994841 -0.12246022 -0.024670798 -0.053385418 -0.111966416 -0.07222816 -0.20558275 -0.18021114
-0.121260986 -0.025300056 -0.20073718 -0.12022066 -0.09229792 -0.1806661 -0.06778937 -0.08114407
-0.046100378 0.033057433 -0.043185104 -0.0037353372 -0.15182257 -0.16809528 -0.09217881 -0.11771736

fc2.bias f4 [64]
00000000: 882a 87be 0caf 89be 7aee 293f 3253 72be
00000010: 3652 973e 4b9e d3bd b4fd b5be 745a 92be
00000020: 169f 8cbe 4b05 a93c e115 65be 9637 e4bd
00000030: 0aa5 153f ac60 da3c e4d0 aebc a88e 41be
00000040: 287b 253f 3345 5abe c455 0cbd 0e79 a8bd
00000050: 16d3 54be 89c1 49bc 0bfd b4b9 e532 b1bd
00000060: c70f 8fbd 365b 1abd 686c 77be 14b6 85bd
00000070: dc84 59be b66e cebd 309d d5be ad15 82be
00000080: 4654 a8be 9aa3 edbd e220 753f d3d0 673f
00000090: 1812 80bd ada0 5fbd 3eae e0be d5dd 0ebe
000000a0: 1870 373d 34aa 1bbe e1e7 4bbc 618c c9bd
000000b0: 9139 02be 4cba 84bc 03db 33bf 8dd8 38be
000000c0: 8ab8 b1bd 9ac1 fdbd 7f07 f0bd 8f93 31be
000000d0: f26e 5d3c ee72 bdbe 66ab d5bd 0c23 893a
000000e0: f166 fcbd 4070 87be dc32 2d3c 1b30 e4bd
000000f0: eecb 95be 93cf 48be b9ed 49ba 1714 56be
-0.26399636 -0.26891363 0.6637951 -0.23664549 0.2955491 -0.10332926 -0.35545123 -0.28584635
-0.27465123 0.020632407 -0.22371627 -0.11143415 0.58454955 0.026657425 -0.021339841 -0.18902075
0.64641047 -0.2131546 -0.03426148 -0.08226214 -0.20783648 -0.012314209 -0.00034520807 -0.086522855
-0.06985431 -0.03768464 -0.24162447 -0.06528869 -0.21242088 -0.1007971 -0.41721487 -0.25407162
-0.32876796 -0.1160347 0.957533 0.90553015 -0.06253451 -0.05459659 -0.43882936 -0.1395181
0.044784635 -0.15201646 -0.012445421 -0.09841228 -0.12717272 -0.016202115 -0.7025606 -0.18051358
-0.08677776 -0.12390442 -0.1172018 -0.17341445 0.013515221 -0.37001747 -0.10433082 0.0010462715
-0.12324322 -0.26452827 0.010571208 -0.11141988 -0.29257149 -0.19610433 -0.0007702965 -0.20906101

fc3.weight f4 [32, 64]
00000000: 90d5 5bbe 5f27 e2bd 80dc af3f 29f5 b43a
00000010: b1a3 7d3e 18ca 44bd 9c50 533c ea4b 373e
00000020: e332 e2bc fa14 233d 1fe1 333e 6aea efbd
00000030: 4bf8 57bf dede db3c eeb3 50bd dd07 0bbe
00000040: 36c6 0dbf a530 4fbf 5cb1 b9bd c633 e63d
00000050: 8dbc 6ebc e090 b63c 77e1 023e e1cb af3d
00000060: e0ee 023e 7027 a7be 72d7 28be bcd2 053d
00000070: 1950 5fbe 4a9a 37be cd16 28be 124b e6bc
00000080: 52a6 99bd 5b4a f2bd 0a09 88bf bb6b 8f3e
00000090: c872 973d c2a7 39bb 927a c8be 35a5 5d3e
000000a0: 1dc4 70bd 1849 d7bc f11a 0bbd 17cb a93d
000000b0: 4445 cabe a598 e7bd 4aae 58bf ac50 143f
000000c0: 98a4 7abd 80c1 b6bd 9a8f cc3c 1fbd 003b
000000d0: d01b 8b3e 80c6 543e 5f74 92bd 604a 813e
000000e0: d05c 21be 8d8f d4bd 58e2 84bd cb7f bf3d
000000f0: d0ee 9cbb e68e 83be bce0 9ebd ce1c 24be
00000100: 0030 283e 30fc da3e fed4 a33e 2892 d1bd
00000110: 465b abbd 70c8 c93c 17cd bd3e 4929 563e
00000120: 5342 85be 9975 643d 504c 88ba 8ec0 c9bc
00000130: 581e 4c3f 6f35 e8bc cc81 143c 0dcc 8cbc
00000140: 0800 5abf 09ac 89be 905d a13c c851 17be
00000150: 3dee f93e c892 303d 5ab9 38bd 8620 513d
00000160: 807f dfbd 55e1 153d b687 ffbc 2c92 39bd
00000170: a267 ac3e 6ec1 4fbb 9acd 053e a66c 923d
00000180: 5327 6b3e 3ef4 023e 0193 083f c633 42bf
00000190: 2842 70bd b00f ad3d ef1a 2f3e d8b0 553e
000001a0: 0aa3 d2bd 0616 173d a78f 21be 011e 983c
000001b0: c991 1e3e b839 253e cbaa e7be 3f00 a43e
000001c0: 4464 10bd b49f f6bd 7d49 b5bd 4000 83be
000001d0: 9f44 20be 13e9 90be 152f 9a3d c3be 9f3d
000001e0: 199e 57be 6793 153c 0007 18be 6f75 adbe
000001f0: 93ed 733d 3e08 6c3c 44dd f23d c71d d6bd
00000200: d77d 09bb c4d8 19bf b5b2 923f e049 313d
00000210: 8f2f 22bf 7b5d 9dbd b123 09be 98da 743e
00000220: 1c08 e33e 60bc b0bd efdb 82bd c9b3 c4bd
00000230: b9db 273d 512f 493d 7ca1 3f3d dad8 5d3c
00000240: 0087 443f 1a56 b03d b66a cf3d 1451 0c3e
00000250: 3726 8f3d ef29 1fbd 3841 843d ce35 b8bc
00000260: e420 013e 3219 45be 710c 7bbe 4e21 a03d
00000270: 4c02 6ebe dd84 293e 6751 50be df25 69bd
00000280: 81f0 53bc af25 89bd ab58 2b3f 4a1c e1bd
00000290: 68e3 893c d0ae d83d ba39 3cbe 4efc a6be
000002a0: fe5b 80bb 6ccc 3cbe 3dd4 dbbd 3dba b2bd
000002b0: 0560 29be e357 893d 6b07 3a3f 8b64 7ebf
000002c0: ca56 2ebe c4b1 273d a659 f13d 86b3 5d3e
000002d0: 42a3 953e 10ed f53d 1fa3 2a3d 59c6 30be
000002e0: b436 933e eb29 153d 5bc7 503d 1f8b d43d
000002f0: 6451 f93d b2bb 08be b623 c33c f0d5 5cbe
00000300: ccb8 ebbc 0ea0 693e 17e2 ad3d cb6d db3d
00000310: 736f b4bc bf8a 01bc 9406 c0be f8d9 afbe
00000320: 7938 3ebf 757d b83c ea77 b63b d932 333c
00000330: 58d1 3e3e 4fa8 27be cc25 763c 82e9 833d
00000340: 904a 0a3d e54c 6dbc 605a 083d 01b7 05be
00000350: 5f9d 073e 26c0 f5bd bdc3 3fbe c755 653c
00000360: 8d27 d63c a785 483e 58e2 f03d 8ca3 c43d
00000370: 2c25 173c de6b 46bd 1b03 b6be dea0 f7be
00000380: 0ca2 0ebd a211 dd3c 24ad 4ebd fd92 213e
00000390: d0d1 053c d003 15be 4bb3 113f fcd9 323e
000003a0: 1547 09be acd3 2bbe 5510 38be 77a4 80bd
000003b0: da77 95be 41f7 0e3d 1930 f83d d556 443e
000003c0: ae5e 223c 14ef ff3d f3a3 debc e0c7 933d
000003d0: d28b f5bd bd01 c5bd 45c4 2a3e baaa 64bb
000003e0: 7cc4 4e3d 8862 8b3d eebb c2bd 598f dbbb
000003f0: 7d11 f3bd c331 8abe f493 e93e 5bda 5bbe
-0.21468186 -0.11042666 1.3739166 0.0013805974 0.24769475 -0.048044294 0.012897637 0.17900053
-0.027612155 0.039814927 0.17566346 -0.11714633 -0.8436324 0.02683967 -0.050952844 -0.13577218
-0.5538057 -0.809336 -0.09067032 0.11240344 -0.014571321 0.022285879 0.1278132 0.08583809
0.12786436 -0.32647276 -0.16488436 0.032671675 -0.21807899 -0.1792995 -0.16414948 -0.028111968
-0.07502426 -0.118305884 -1.0627759 0.2801188 0.0739494 -0.0028328751 -0.39156014 0.21645053
-0.05878078 -0.026279971 -0.03396124 0.082906894 -0.3950597 -0.113084115 -0.84640944 0.57935596
-0.061192125 -0.08923626 0.024970818 0.0019643975 0.27169657 0.20778847 -0.07151102 0.25252056
-0.15758061 -0.10378943 -0.06488484 0.093505464 -0.004789211 -0.2569496 -0.077577084 -0.16026613
0.1642456 0.4277053 0.31998438 -0.10232955 -0.083670184 0.024631709 0.37070534 0.20914187
-0.26027164 0.055776212 -0.001039872 -0.02462795 0.797338 -0.028345792 0.009064149 -0.017187143
-0.851563 -0.26889065 0.019697934 -0.14777291 0.48814574 0.04310873 -0.04509864 0.051056407
-0.109129906 0.036591846 -0.031192642 -0.045305416 0.33672816 -0.0031700986 0.13066712 0.07149629
0.2296422 0.12788484 0.5334931 -0.7586025 -0.05865684 0.08450258 0.17100118 0.20868242
-0.102850035 0.036886238 -0.15777455 0.018568994 0.154853 0.16135299 -0.45247492 0.32031438
-0.03525187 -0.1204218 -0.088519074 -0.25586128 -0.15651177 -0.28302822 0.075285114 0.07800057
-0.21056403 0.009129382 -0.1484642 -0.33878657 0.05955274 0.014406262 0.11858609 -0.10454898
-0.0020979547 -0.60096383 1.1460787 0.043283343 -0.6335382 -0.076838456 -0.13392521 0.23911512
0.44342124 -0.0862968 -0.06389605 -0.09604604 0.04098103 0.04911739 0.046784863 0.013540471
0.76768494 0.086101726 0.10127775 0.13702804 0.06989711 -0.03885835 0.06457752 -0.022486594
0.12610203 -0.19247892 -0.24516465 0.07818852 -0.23243064 0.1655459 -0.20343553 -0.056920882
-0.012935759 -0.06696641 0.6693217 -0.10991724 0.016832069 0.10580218 -0.18381396 -0.32614368
-0.0039172163 -0.18437356 -0.107338406 -0.087269284 -0.16540535 0.06706216 0.7266757 -0.99372166
-0.17025295 0.040941015 0.11784677 0.21650514 0.29226118 0.12008107 0.04165947 -0.17263164
0.28752673 0.03641693 0.05097137 0.10378098 0.12173727 -0.1335285 0.02382074 -0.21565986
-0.028774641 0.22814962 0.08490389 0.10714301 -0.0220258 -0.007906615 -0.3750502 -0.34345984
-0.7430492 0.02252076 0.005568494 0.010937416 0.18634546 -0.16372798 0.01502366 0.064410225
0.033762515 -0.014483665 0.033289313 -0.13058092 0.13243626 -0.1199954 -0.18727012 0.013997502
0.026141906 0.19582234 0.11761922 0.096015066 0.009225171 -0.048442714 -0.35549244 -0.4836492
-0.03482251 0.026985947 -0.05045809 0.15778728 0.008167699 -0.14552236 0.56914204 0.17465967
-0.13406022 -0.16779965 -0.1797498 -0.06281369 -0.29193002 0.03490377 0.12118549 0.19173749
0.009910269 0.124967724 -0.027177786 0.072158575 -0.11989559 -0.09619472 0.16676433 -0.00348918
0.05048035 0.06805903 -0.09508501 -0.006700438 -0.1186857 -0.2699109 0.45620692 -0.21470015

fc3.bias f4 [32]
00000000: c855 98bd 650a f3be a767 9c3e 84ab 823e
00000010: 8f95 bbbd f046 fabe 007e a3be 297c 28bf
00000020: 9418 283e 5d29 58bd e82e 0c3f 2806 5abf
00000030: 9555 0e3f fbfb 93be b069 d73d 4021 c2be
00000040: 3784 8fbe 9f80 c3be 19b1 9bbe b33f 513d
00000050: 4bba 17bf 017c 26be b5f0 803f 290b 603f
00000060: 26d7 dabd 9e0e e1bd 4179 1b3f 3e67 0a3e
00000070: 9e35 71bf b0bd 813f ada6 10bf 792c 563d
-0.074382365 -0.47468868 0.3054783 0.2552148 -0.091593854 -0.48882246 -0.31932068 -0.65814453
0.16415626 -0.052773822 0.54759073 -0.85165644 0.5559934 -0.28903183 0.10518205 -0.37915993
-0.2803056 -0.38184068 -0.30408552 0.05108614 -0.59268636 -0.16258241 1.0073458 0.8751703
-0.106855676 -0.10989116 0.60731894 0.13515946 -0.9422244 1.0136013 -0.5650433 0.052288506

in_fn.weight f4 [33]
00000000: f96f 0140 a01a b03e bc08 e63e 9a35 ed3e
00000010: 6dab 0d3e 2051 153f f250 813e 7a2e 863e
00000020: 1da6 743d 7333 ea3e eb3c e23e bcaa 243f
00000030: c92c 073e 7a00 bf3e 5041 ee3e adad bf3e
00000040: 4178 5c3e 60e0 0f3f fcc0 ba3d bd80 863e
00000050: 8f51 0d3e 9eb7 953e de4c c03e 2d42 353f
00000060: 8752 573f 1213 62be 88f0 373e 79a3 af3e
00000070: b2d8 243f 972b e03e 74e5 573f 6dcd 043f
00000080: 7eb8 043f
2.0224593 0.34395313 0.4492854 0.46329957 0.13834925 0.5832691 0.2525707 0.26207334
0.05972873 0.45742378 0.44187102 0.6432302 0.13200678 0.3730505 0.46534204 0.37437192
0.21530248 0.56201744 0.0911884 0.26270095 0.13800643 0.2924165 0.37558645 0.708041
0.841103 -0.22077587 0.17962849 0.34304407 0.6439315 0.43783256 0.8433449 0.51875955
0.5184401

in_fn.bias f4 [33]
00000000: d52d 2fbd d0dc 353d c75f 89bb 13e4 a8be
00000010: 1982 d03e 7004 c93d a5dc 63be 5870 69be
00000020: e616 d9bd 280d 723d 9fd5 f0bb 2be9 543e
00000030: 54d8 f2bc a8e8 aa3d 12a0 173e 3c7a 1d3d
00000040: 8ac0 52bd 4f38 c83c ceec 263d f475 5bbd
00000050: c052 4a3d 46ac 153d decc 9b3c 5499 e83d
00000060: 8498 a2bd 8c67 403d 454c f8bd a337 6c3e
00000070: 1b9c 363d 6478 0dbd 51b9 003f e8d9 693e
00000080: f394 c3bd
-0.04276832 0.044400036 -0.0041923258 -0.32986507 0.40724257 0.098152995 -0.22252138 -0.22796762
-0.10600071 0.059094578 -0.0073496844 0.20792072 -0.029644169 0.08345157 0.14807156 0.03844665
-0.05145315 0.024440913 0.04075318 -0.053579286 0.049395323 0.036541246 0.019018587 0.1135737
-0.07939246 0.04697375 -0.12123922 0.23068099 0.044582468 -0.03453864 0.5028277 0.22837031
-0.09549894

in_fn.running_mean f4 [33]
00000000: 624e 1240 258c 1a3c ee2b 8f3c 254e ba3c
00000010: db82 033c c8ac 0a3d 5b77 4c3c 1e8f 1d3c
00000020: f895 193c 8cb2 413c e115 a73c 0f78 b93d
00000030: 5f8e ef3b 0a16 873c a6ac be3c cdf1 ce3c
00000040: 673b 1b3d 101f f33b 6982 913b c087 d73b
00000050: 2e0e ae3b eb1d f93b 426b 153c 21ac 483d
00000060: e8fe 233e f988 723c 254f 843c 2d70 1c3d
00000070: c4b0 7d3d e002 a83c f81e f23d d62e e13c
00000080: b4c6 c63d
2.286034 0.009432827 0.017477002 0.02274234 0.008026804 0.033856183 0.012479628 0.009616641
0.009374134 0.011822354 0.020396175 0.090561025 0.007310673 0.016490001 0.023275685 0.025261784
0.037898447 0.0074194744 0.004440595 0.006577462 0.005311749 0.0076024435 0.009119811 0.04899228
0.16015208 0.014803165 0.01615102 0.038192917 0.061936155 0.020509183 0.11822313 0.027488153
0.09705868

in_fn.running_var f4 [33]
00000000: 0bcb de40 2efe 183c fe30 8c3c b9f6 b53c
00000010: ca46 023c ba68 053d faa3 493c 981d 1c3c
00000020: 5f57 173c e957 3f3c 51f7 a23c 1d67 a53d
00000030: 184d ed3b 6baa 843c 4fc5 b73c 4bb8 c83c
00000040: dc88 133d 5918 f13b 00e2 903b dc18 d63b
00000050: c810 ad3b dc4f f63b 40f3 133c eed0 3e3d
00000060: c85b 073e bc7a 6d3c 710d 823c 6b10 153d
00000070: c924 663d c012 a23c d531 d53d 5430 d63c
00000080: 578b b03d
6.9622855 0.009337945 0.017113205 0.022212373 0.007951448 0.03257058 0.012307161 0.00952854
0.0092371395 0.011678674 0.01989332 0.08076308 0.0072418563 0.016194543 0.022432951 0.02450194
0.03601919 0.007357639 0.0044214725 0.006533725 0.0052815415 0.007516844 0.009030163 0.04658597
0.13218606 0.014494594 0.01587555 0.03639261 0.056187425 0.019784331 0.10409895 0.026146092
0.08620327

fc1.weight f4 [64, 33]
00000000: cf55 62be cc1e 2dbd 9e1d 37bc 68be b53d
00000010: 054d 11bf e51b e0bc 3ed1 d53d 55b0 743d
00000020: 7fd1 9f3d 36d1 86bd 2b17 2b3e 22d8 bfbd
00000030: bfb4 3b3d 232a 1dbd 46c2 81bd 1545 2c3e
00000040: 490c 7a3d e5b3 023c 63ad bebd b446 b93d
00000050: eac2 e13b ff6d e43c aa7a a9bd ab74 e33e
00000060: b342 923d 7a4b 083d d1a7 cd3b 3580 ad3b
00000070: 7b93 3c3e 3f52 e33e 1411 8ebe c716 e3bd
00000080: 7c12 6b3d 9ead bebe 54dd 42be d00f 913e
00000090: e093 953e 4fd4 f4bd 140c 833e ac3d b43d
000000a0: dca1 403d 5077 443e 0253 e83e 1831 15be
000000b0: 787b a2be 05bb 6c3e 35e5 71be fa5d 96be
000000c0: f97f 32bd 7b00 e8bd 4fe6 b13e f4e3 09be
000000d0: 7d68 5bbe ec5d 6a3c 8f89 3cbe 48b9 40be
000000e0: 4e29 91bd 55ed 18be 1cdd c23c fe0f 04bc
000000f0: 04e4 1ebe a072 21be 5c7c c6bd e693 c0be
00000100: 41c5 29be f7f3 38be 6fd1 b3bf 3713 0fbe
00000110: 07d7 7b3d ef9d 453e 78c5 28bb 0824 d5be
00000120: bbf2 ab3e e8b8 0a3e 2ad7 9dbc 3913 fabe
00000130: 3fcd 45bd 0a6f 44be 4b09 493e efae 203e
00000140: 1181 8a3e 2fb4 c83d 3df9 073d 63cb b83d
00000150: de06 4f3b 34b8 de3d 37b9 6e3d 69db 56bc
00000160: 9ebc 723e d452 1a3e d818 be3d 1498 053e
00000170: 54ab 2d3e d3e2 103e 08c8 8cbe 9513 31bd
00000180: 6d30 65be 6e8b 23bb 3c8c 1d3e 119a 37bf
00000190: c888 e03d b7cd 0cbe 8ae0 983e d224 42bf
000001a0: ab85 bfbd 0c8f db3e 8d2c 813e 5796 183e
000001b0: 2d1f 823e 08b7 9f3e 8bbd f4bd 7848 233b
000001c0: 2e2f 49bd 54c6 e2bd b318 023f 7c91 40be
000001d0: 67e6 c7bd 6264 8ebd a2c5 f93e a2c9 91bc
000001e0: 6329 bd3d bf1a 8e3e 5946 a73e 8e27 1abd
000001f0: a03b e53d ed97 6f3e 6703 233a d6b6 0d3f
00000200: c83a d73e c0eb 1dbe 767c 51be 3d38 16be
00000210: b381 9fbf 432e 7d3b 7dfc 083d 7706 903e
00000220: 91b3 39bf 5452 b7be c178 183f 47be fd3e
00000230: d95a a53e ab20 d63e 2ad1 71bc 3326 15be
00000240: feef c1bd 083e 92be a827 f93c 3721 16bf
00000250: 506c b43b 44fc 87be f236 54be 322a 84be
00000260: bc0c 223e da83 babe ce47 9fbd 4950 603e
00000270: 3f07 b5be f0d7 323e 9abc 1dbe 7276 22be
00000280: d189 8dbc 8633 653f b5b8 9f3e 5e58 f23e
00000290: a50a 133e ea1d e8be 4587 de3d 9473 703e
000002a0: 44ed d53e 5011 b0be c9ed 293e b328 a43e
000002b0: 18ab 383e 0c1c 81be d30a 1f3e 3e65 a8be
000002c0: 157e c2be 8aba 2a3e c56a ff3d 74b2 ccbe
000002d0: 2cda 00be 0879 2ebf dd67 d6be 0ccc 993d
000002e0: c96d d53d 863d be3d 2558 b53d 6f69 04bd
000002f0: 7c6f 2abe c6a9 b4be 4afb f43d 858b 14bd
00000300: 1d0f 07bf b237 34bd 25d0 08be 358d cdbe
00000310: 9c28 f1be 58da c3be 797a c0be 6ba9 7bbd
00000320: ea1c 173d df34 403d 27e6 45bd e19a b4bb
00000330: 64d6 933d 2144 733e ee61 943d 187b 80bd
00000340: 8bd5 0abd 31bd 06bc 1f4a 173d 0dcc bb3d
00000350: 0fb5 543d c428 8ebb c665 cc3d 645e 6e3e
00000360: 6c55 573e 7e99 d0bc 3e02 4f3b db07 873d
00000370: ac8e debc c4ff b93e dde2 933d f610 773e
00000380: 2445 db3d 67bf 133d f83e 2a3e 2c14 6b3d
00000390: 190a d6be 43e3 12bc 0ac6 b73d 11ce a9be
000003a0: 83a1 2bbe f03a 223e 5ca1 6f3e 59dc a6bd
000003b0: f521 33be 279c 813d 6bd6 b53c 4f54 353e
000003c0: bcf0 20be 0e3d 973d aca4 38bb 49d0 ba3e
000003d0: 7a60 28bd 5213 14be b647 32be e312 66bd
000003e0: 2283 ae3d 95f1 17be 1862 24bd dab2 55bd
000003f0: 8874 513d aa46 a63e 6dd4 64bc 93db 14bd
-0.22103046 -0.0422657 -0.011176495 0.08874208 -0.5675815 -0.027357051 0.104403004 0.059738476
0.0780363 -0.065828726 0.16708057 -0.09367396 0.04582667 -0.038370263 -0.06335883 0.16823228
0.061046872 0.0079774605 -0.09310415 0.09046689 0.0068896906 0.027884481 -0.082753494 0.44424948
0.07141628 0.033275105 0.006276109 0.0052948245 0.18415634 0.44398686 -0.27747405 -0.11088329
0.057390675 -0.37241834 -0.19029742 0.28332376 0.29214382 -0.11954557 0.25595152 0.088008255
0.04702936 0.19186139 0.4537583 -0.14569509 -0.31734824 0.23118217 -0.23622592 -0.29368573
-0.043579075 -0.11328217 0.34746024 -0.13465863 -0.21426578 0.014304619 -0.1841185 -0.18820679
-0.07087956 -0.14934285 0.023787074 -0.008060453 -0.15516669 -0.15766382 -0.096916884 -0.37612838
-0.16579153 -0.18061815 -1.4048289 -0.13972174 0.061484363 0.19298528 -0.0025752466 -0.41629052
0.33583626 0.13547099 -0.019267637 -0.4884279 -0.04829144 -0.19182983 0.19632451 0.15691732
0.27051595 0.09799992 0.033196677 0.09023168 0.0031589787 0.10874978 0.058282103 -0.013113835
0.23704764 0.15070659 0.09282082 0.13046294 0.16959888 0.14149027 -0.27496362 -0.043231566
-0.22381754 -0.0024954933 0.15385526 -0.7171946 0.10963589 -0.13750349 0.2985881 -0.75837433
-0.09351667 0.42882574 0.25229302 0.149011 0.2541441 0.3119433 -0.11950215 0.002491502
-0.04911726 -0.11072984 0.5081894 -0.18805498 -0.09760743 -0.0695274 0.48783594 -0.017796341
0.092364095 0.2775478 0.32670859 -0.03763538 0.11193013 0.23397799 0.00062184635 0.5535711
0.42037034 -0.15421963 -0.20457634 -0.1466989 -1.2461456 0.003863231 0.033443917 0.28129932
-0.7253962 -0.35805 0.59559256 0.49559233 0.32295874 0.418218 -0.014759341 -0.14565353
-0.09469603 -0.2856295 0.030414417 -0.5864443 0.005506076 -0.2655965 -0.20724085 -0.25813442
0.1582517 -0.3642872 -0.077773675 0.21905626 -0.3535709 0.17465186 -0.15403977 -0.15865496
-0.01727763 0.89531744 0.31195608 0.47333044 0.1435953 -0.45335323 0.10865644 0.2348159
0.41782582 -0.34388208 0.16594614 0.320623 0.18034017 -0.2521671 0.15531473 -0.32889742
-0.37986818 0.16672722 0.124715365 -0.399799 -0.12583226 -0.6815343 -0.41876116 0.07509622
0.104213305 0.092890784 0.08854703 -0.03232711 -0.1664409 -0.35285777 0.11961992 -0.03626587
-0.52757436 -0.043998428 -0.13360651 -0.40146795 -0.47101295 -0.3825252 -0.3759344 -0.061440866
0.03689281 0.04692542 -0.048315194 -0.005511627 0.07218626 0.23756458 0.07245241 -0.06273478
-0.033895057 -0.008223818 0.03693592 0.09169779 0.051930483 -0.0043383557 0.09980349 0.23278195
0.2102868 -0.025463816 0.003158703 0.06593295 -0.02716764 0.36327946 0.07221005 0.24127564
0.10706547 0.036071207 0.16625583 0.057392284 -0.4180458 -0.008965316 0.0897332 -0.3316503
-0.1676083 0.15842795 0.23401397 -0.08147497 -0.17493422 0.06328612 0.022196969 0.17707942
-0.15716833 0.07384692 -0.0028174324 0.36487034 -0.041107632 -0.14460495 -0.17410168 -0.056170356
0.08521105 -0.1483825 -0.040132612 -0.05217252 0.051136523 0.32475787 -0.013966662 -0.036342215

fc1.bias f4 [64]
00000000: 7cfa 9bbe 30b2 77be dae2 66bf 81f0 52bf
00000010: 0d45 49bf 3e4b 1c3c cc6e 22bf a61d 92be
00000020: 196e dabd 5cf1 9bbe b86e 673e 2a1c 31bf
00000030: fe85 9cbe a4b3 b7be 8a6d 1bbf 54b8 97be
00000040: dea4 1bbe c716 afbe d045 06bf 9787 6b3d
00000050: 56ae 7abe fcc3 09be 46cf dcbe 38f2 16be
00000060: cbd1 1abf e66a 7cbf c027 39bf 5909 3fbf
00000070: 951a a0be bc8b 503c 9e62 33bf 7aac c6be
00000080: 1541 d13d fd84 b7be 882c ccbe 5724 9ebe
00000090: 4093 16be 650d 39be 33d0 01bf 5ff5 17bd
000000a0: 33db c0be e8c6 35bf 41d4 2cbf a51c 57bf
000000b0: 34ae afbe 2063 14bf d9c7 16bf 0d97 81be
000000c0: 60ea 5abe bc12 97bf 5aa4 42be b2b9 e7be
000000d0: 8cb0 4abf 06f1 2abf 5729 063b 89ab 6ebe
000000e0: 4297 fcbe 020d c4be d81d 34bf 956c eebe
000000f0: 235e 01bf a996 f7be 0240 4ebf 12e1 09bf
-0.30464542 -0.24189067 -0.901899 -0.8239823 -0.7862099 0.0095394235 -0.6345031 -0.28538245
-0.10665531 -0.3045758 0.2260083 -0.691836 -0.30570978 -0.35879242 -0.6071402 -0.2963282
-0.1519961 -0.34197065 -0.52450275 0.057502355 -0.24480566 -0.13453668 -0.43126887 -0.14740837
-0.6047637 -0.98600614 -0.7232628 -0.7462364 -0.3127028 0.012728628 -0.7007235 -0.38803464
0.102174915 -0.3584365 -0.39877725 -0.308871 -0.14704609 -0.18071516 -0.5070831 -0.03709924
-0.37667236 -0.7100663 -0.67511374 -0.84028083 -0.34312594 -0.5796375 -0.58898693 -0.25310555
-0.2137847 -1.1802592 -0.19008008 -0.45258862 -0.7917564 -0.6677402 0.0020471418 -0.23307623
-0.4933415 -0.38291174 -0.7035804 -0.46567217 -0.50534266 -0.48357132 -0.8056642 -0.53859055

fc2.weight f4 [64, 64]
00000000: 8e67 ccbd e6aa 2b3d e4e4 52bd 5f98 2abe
00000010: 8809 92bc 60a6 38bd 29d3 06bc 013b 8e3d
00000020: 4bee ffbd 47dd d5bd 3dbf aabe 33df ebbe
00000030: ee3a 6838 0a2b afbe cbe1 2cbc d35b 75be
00000040: f8ce 97be 3c79 073d 4bef 44bd e311 f9be
00000050: f9e4 35be 9ab4 68be 57dd 8ebe ae12 37bd
00000060: 949c d3bc 5f37 c6bd 0f6e a8bd 1a60 1ebe
00000070: 4981 80bd cad9 51be 2ada 75bd 2907 89be
00000080: 71a5 30be 2c02 c1bd 5824 18bc 2e9b 303d
00000090: 36ac 843c c7a9 f9bd 6c00 80be 9639 9d3c
000000a0: be5d 06be 7229 563d fc4e edbc ab82 be3d
000000b0: b48a 11be e83a adbc 030b 4bbe ebe1 fdbc
000000c0: a525 55be 5a70 5f3c 14a7 6cbd a0d9 92bb
000000d0: 2f71 babd 7f81 17bd 2c1e 45be cf5e 52be
000000e0: 1fb8 edbc 2485 9cbd 5e4a 903d bf5a 45bd
000000f0: 616c 53bb ceef 51be d72e c93d e503 743d
00000100: 37b8 a0be 4c5a 49bf 9cc2 ecbe 8b6c 8cbe
00000110: d729 4cbd 0d26 27bf 84e3 d03c e2b5 5f3c
00000120: 4291 11be c61b 85be 67aa c13e 1caa c23e
00000130: 8356 d23d 2d41 87bd b4a6 cf3d 8df2 abbd
00000140: f722 a0be 1811 b3be 248c 6dbf d421 b1be
00000150: 6126 a2bd 1b5c aebc 9ee4 adbe 89dc a9bd
00000160: 5502 d2be 25fc 753e ca03 9cbe fb32 733e
00000170: da9f f8bd b135 483e 697c a0be e878 0ebe
00000180: ad08 06bf 91ad 9fbe 6539 d4bd b193 a9bd
00000190: e2e6 c33d c1af d6bd f6ec 39be 51c1 82be
000001a0: c854 46be 74e0 a23e 9804 88be 4677 c03c
000001b0: e771 b8bd a6a8 c8bc cc6f bdbe d3ec 51be
000001c0: df9d bcbd 1f7f 19be f95f 42bc bd52 ccbd
000001d0: 9665 5abe 4246 7cbe 73b8 d8be d932 f4bd
000001e0: e7d1 90be e536 2abd 2d6b 1ebe dc09 5dbf
000001f0: 46b2 30be e9db 4abe 769e 2ebe 8f8f 403d
00000200: 0a50 51be 6b22 92be cd3b 46be cb06 aa3b
00000210: 02a4 e9bb 52d5 15be 85c4 50be 0c8e 9ebe
00000220: 5a5f 413d 01be 9a3d f91c 86be 57a2 8a3d
00000230: 471c 6ebe 8f1f 3ebe 2e60 87be 16d8 9d3c
00000240: d0b6 1b3e 843c 21be dabf 633e b134 f5bd
00000250: d8d4 1ebe 9af6 88be 6e13 f63c d0cb 203d
00000260: 542d 84ba 3b46 ebbb 4452 563d 543f 73bc
00000270: db7d c13d 0bff 4ebe d50c 77bc d695 14be
00000280: a8b7 833d add6 b6bd b196 3b3e 8b78 0a3d
00000290: 584d d43c 8e05 dfbd 2a75 2abe 7c94 86be
000002a0: 21d1 acbe fbb7 5d3d a443 613d ccde 75bb
000002b0: 82b5 0abd 55d4 803c 8f4e d23b 7f83 633d
000002c0: 9eab b93d b35d 353d 2d15 933b b27c 6e3d
000002d0: 63f7 3bbe eb69 f33b 7d61 9cbe a673 e0bc
000002e0: 1a72 1fbf af2c d83b 4d11 b63d ce85 7b3e
000002f0: 59d4 003e a038 39bc ee1f cdbc 40d7 de3d
00000300: e61e 16be b402 2fbd f78f a4bd 361f eeba
00000310: 20e3 12be 646d ea3d 8bea 4dbe b899 183c
00000320: 401c b0bc 2957 86bc 30ca 083c 9242 88be
00000330: efe5 c6bd 6751 32be d2a3 c8bd ea03 cfbd
00000340: 2dcd b2bd 98db 2dbe 8e2a 98bb 3c99 e0bd
00000350: 87d0 bbbd 6997 05be 44b5 2ebe 10bf 73be
00000360: b373 89bd 9bfb 633d ca26 8cbe 7fec 8bbd
00000370: 0fbd abbb 1014 f9bd c9a1 06be a435 9c3d
00000380: 5f1c 74be 86bb 19bd dd43 60bd c2e6 32bd
00000390: bbe9 17be 01d8 ce3d 1b12 3fbe 47e5 e63d
000003a0: 57f4 93be 10b4 18be 7a5a 313d 7b0a 4fbd
000003b0: e4f2 61be 3971 c8bd 7c12 583e b3ad fcbd
000003c0: 24a7 933d 3feb 32be eca7 0c3d a1ce 16be
000003d0: 46fd ac3d 586a 16be 3b1e f9bd 776c 0a3d
000003e0: b79d 843d 3117 773d 73a0 e4bd b3b1 27bd
000003f0: 32f1 b5bd ffdf 1abd 864b 103d 4a42 683d
-0.09980689 0.04191103 -0.05148782 -0.16659687 -0.01782681 -0.045080543 -0.008229055 0.06944848
-0.12496623 -0.10442596 -0.33349028 -0.46068725 5.5367993e-05 -0.34212524 -0.01055188 -0.2396081
-0.29650092 0.033074602 -0.04807977 -0.4864646 -0.17763127 -0.22725144 -0.27903244 -0.04469555
-0.025831498 -0.0967853 -0.08224117 -0.15466347 -0.06274659 -0.20493236 -0.06002251 -0.26763275
-0.17250611 -0.094242424 -0.009286009 0.04311674 0.016195398 -0.121905856 -0.25000322 0.019192498
-0.13121697 0.05228562 -0.028968327 0.09302267 -0.14213067 -0.021146253 -0.1982842 -0.030991515
-0.20815141 0.013637627 -0.057776526 -0.0044815093 -0.09103619 -0.03698873 -0.19249791 -0.20543979
-0.02901846 -0.07642582 0.070454344 -0.048182245 -0.0032260644 -0.20501634 0.09823387 0.059574027
-0.31390545 -0.7865341 -0.46242225 -0.27426562 -0.04984459 -0.65292436 0.025499113 0.013654204
-0.14215568 -0.25997752 0.3782532 0.38020408 0.10270407 -0.06604228 0.10139218 -0.08395872
-0.31276676 -0.3497398 -0.9279196 -0.3459612 -0.079174764 -0.021284154 -0.33963484 -0.08294017
-0.41017404 0.24021967 -0.3047164 0.23749916 -0.12139864 0.19551732 -0.31344917 -0.1391331
-0.5235699 -0.31187108 -0.1036251 -0.08280123 0.09565522 -0.10482741 -0.181568 -0.25538114
-0.19368279 0.3181187 -0.26566005 0.023494374 -0.090061 -0.02449448 -0.36999357 -0.20500498
-0.09209799 -0.14989899 -0.011863702 -0.099767186 -0.21327814 -0.24636176 -0.42328224 -0.11923761
-0.28285143 -0.041556258 -0.15470572 -0.8634317 -0.17255506 -0.19810452 -0.17052636 0.04701191
-0.20440689 -0.28541884 -0.1935875 0.005188798 -0.007130147 -0.14632156 -0.20387466 -0.30967748
0.047210075 0.075557716 -0.2619398 0.06769245 -0.23252974 -0.18566726 -0.26440567 0.019268077
0.15206456 -0.15745741 0.22241154 -0.11972941 -0.15510881 -0.26750642 0.030038562 0.03925687
-0.001008431 -0.007180003 0.05232455 -0.014846642 0.09447833 -0.20214479 -0.015078743 -0.14510283
0.06431514 -0.08927665 0.18319203 0.033806365 0.025915787 -0.10889731 -0.16646257 -0.2628516
-0.33753303 0.054130536 0.054996148 -0.003751683 -0.033864506 0.015726248 0.0064180563 0.055545326
0.090659365 0.04427881 0.0044886083 0.058224387 -0.1835609 0.007428398 -0.30543128 -0.027398895
-0.6228348 0.0065971236 0.088900186 0.24562761 0.12581004 -0.011305004 -0.02503964 0.108808994
-0.14660224 -0.042727187 -0.080352716 -0.001816726 -0.14344454 0.11446646 -0.20109002 0.009313993
-0.021497846 -0.016398983 0.0083489865 -0.2661329 -0.09711825 -0.17413865 -0.09796871 -0.101081684
-0.087305404 -0.169783 -0.004643745 -0.10966727 -0.09170633 -0.1304604 -0.17061335 -0.23803353
-0.06711521 0.05565987 -0.27373344 -0.068322174 -0.0052410434 -0.1216203 -0.13147654 0.07627419
-0.23838948 -0.037532352 -0.05475222 -0.0436771 -0.14835255 0.10099793 -0.1865925 0.112742
-0.28897354 -0.14912438 0.043299176 -0.050547104 -0.22065312 -0.097872205 0.21100801 -0.12337818
0.07209614 -0.17472552 0.03433983 -0.1472726 0.084467456 -0.14689004 -0.12163969 0.033794846
0.06475394 0.06032485 -0.11163416 -0.04094095 -0.08883895 -0.037811276 0.035228275 0.056703843

fc2.bias f4 [64]
00000000: d303 65be e22b 39bd 10e2 42be 4890 f9bd
00000010: c0f3 7abd 670a f9bd d732 393c e3ef e1bb
00000020: 5a78 8b3d b5e0 a1be 6e45 ba3d 0b7b 98bc
00000030: 9f73 a53e 98a2 223d 5a7a 8abe 6d44 34be
00000040: 77d0 cebc 0a07 d9bb c987 fabd 899d 72be
00000050: f392 173f 1016 293c 5e9f a5bd e107 1bbe
00000060: 64df c3bd 1bf2 183b e9ca 2f3e 2445 2fbe
00000070: 31c3 543e 4846 04bf f61b 81be 9295 96bd
00000080: 16e2 e23c 488f 293b 9690 c3be 1658 e93d
00000090: 19f6 2fbe 22ae 84be b360 8cbd cd94 ebbd
000000a0: 3389 fbbe 1ba4 60bd 0265 633e 0f1f 153f
000000b0: cdd9 a0bd ec65 a4bd 85fe a33e d448 50be
000000c0: e6f1 03be b9bd abbe 604b 083f b4fb b0bc
000000d0: d2f0 94be 76be 9cbd 4cce 7abe ad8f 1ebe
000000e0: 99e2 cdbd 0c61 bf3e 0488 09be 5fb3 11be
000000f0: d8bf 74bd 09e0 f93e 107a d5bc 93ab 27bd
-0.2236474 -0.045207866 -0.19031549 -0.121857226 -0.061267614 -0.12160187 0.011303625 -0.006895052
0.068100646 -0.3161675 0.09095274 -0.018613359 0.32314774 0.039705843 -0.27046472 -0.17604227
-0.025245888 -0.0066231536 -0.1223293 -0.23692907 0.592086 0.0103202015 -0.080870375 -0.15139724
-0.09564093 0.0023337665 0.17167248 -0.17116219 0.20777585 -0.5166974 -0.25216645 -0.07352747
0.027695697 0.0025872756 -0.38196248 0.11393754 -0.17183723 -0.25914103 -0.068543814 -0.11502991
-0.49128112 -0.054844003 0.222065 0.58250517 -0.07854042 -0.080272526 0.3203012 -0.20340282
-0.12885246 -0.33543184 0.53240013 -0.021604396 -0.2908998 -0.07653515 -0.24492759 -0.15484495
-0.10052986 0.37378728 -0.13430792 -0.14228581 -0.05975327 0.48803738 -0.02605918 -0.04093511

fc3.weight f4 [1, 64]
00000000: 8e3f de3d e704 8a3d 4d32 3abc 1a21 f3bb
00000010: 3bf0 df3b e9b8 253c 45c5 c6bc f1b7 c8bd
00000020: 0fad 643c b8e0 203e e219 cabb f3c6 7abc
00000030: eeaa 263e 0278 fabb e4db 0e3d 0f1c 12ba
00000040: 6aa5 703b dfa8 fa3c 1707 223e ac57 243d
00000050: 453c 33be 5f06 7e3c 1e86 64bc 5e72 223c
00000060: 5557 31bd 704d a0bc c445 94bd 2f49 673d
00000070: c6ed a63d b25f 10bd 1b68 ae3b 91f7 03bb
00000080: 8e8a d0bc 687b bf3b cc4b e7bd 195e c0bd
00000090: fb12 5bbc e910 d73d bf05 80bc 8334 053d
000000a0: 7420 9f3d 49f0 193d 866f 96bd 6432 c2bd
000000b0: 42c1 953c 2f31 04bb 8cc4 233e 5ea4 503b
000000c0: a8dc ab3c b19b c73d cb85 343e 00c2 3d3e
000000d0: 79d6 fc3d 8128 c4bc 8a8f 20bc a487 5ebd
000000e0: ff10 e6bc c2f4 9ebd fc3d da3c 5d81 9d3c
000000f0: fe16 dcba 79e8 0dbe 2d12 e03b f864 2d3a
0.10851966 0.06739216 -0.011364532 -0.0074197175 0.0068340576 0.010114887 -0.024263987 -0.09800709
0.013957276 0.15710723 -0.0061676363 -0.015306222 0.16276142 -0.0076437006 0.034877673 -0.0005573639
0.0036719688 0.030598102 0.15823017 0.040122673 -0.1750346 0.015504449 -0.013947992 0.009914963
-0.043296177 -0.019568175 -0.07239869 0.056466278 0.081508204 -0.035247512 0.005322469 -0.0020136575
-0.025456693 0.0058435686 -0.11293754 -0.09392948 -0.0133712245 0.10501272 -0.01562774 0.032520782
0.07769862 0.03758267 -0.0734549 -0.094822675 0.018280629 -0.0020170917 0.15992945 0.0031836252
0.02097924 0.09746493 0.17629163 0.18531036 0.12345595 -0.023945095 -0.009799847 -0.054328576
-0.028084276 -0.077615276 0.026640885 0.019226724 -0.001679152 -0.13858213 0.006838104 0.0006614472

fc1.weight f4 [64, 1]
00000000: 685c 643e e438 57bf 38a2 2ebf c3b2 c8bc
00000010: 0103 e5bf c10d be3e 8f5a 82bd d0ab 3f3f
00000020: 98c6 11bd c8b4 6ebf a8ae a8bd a72a 0cbd
00000030: 483f 8cbd 2117 1abf 3051 95bd 569c 94bd
00000040: 306c 143e 00e7 82bb cb7e 603e 006b 633d
00000050: a59b adbd c7b4 91bf 70a3 2bbe 435e f5be
00000060: 9bc7 5fbf 5a6b 8dbd 65fb e3bb c5c7 b23f
00000070: ef1e a2bf fac7 0c3e 35dc 373e f0c3 2a3f
00000080: 759c 843c 8b5a 72bf 36ca b8bf 31f2 77bf
00000090: 8a3e e33d a7cb 36bf 2f95 9bbd e9bb 02bf
000000a0: 54c0 f53f 5ca0 d8be ab66 2abb 69ff a63c
000000b0: 68de 13bf f52d c33c 44e7 0ebe 74e9 94bd
000000c0: 7180 f2be 0088 e0bd 5395 8fbf 4ce0 0cbf
000000d0: 9af9 23bd 6f9a b1bd 7052 733f a3d1 663f
000000e0: 20ca 3fbd a770 65bf 7fb1 64be 2674 463e
000000f0: 3bdb b03e 0a89 8d3e 7f41 d33e af32 293f
0.22300875 -0.84071183 -0.68216276 -0.024499303 -1.7891542 0.37119868 -0.06364929 0.7487154
-0.035589784 -0.932446 -0.08236438 -0.034220364 -0.068480074 -0.6019154 -0.07290876 -0.07256381
0.14494395 -0.0039948225 0.21923368 0.055521965 -0.084769525 -1.1383294 -0.16761565 -0.47923478
-0.8741395 -0.06905241 -0.006957459 1.3967215 -1.266569 0.1374816 0.17955096 0.66705227
0.016187886 -0.9466941 -1.443671 -0.9685393 0.11095913 -0.714045 -0.07596814 -0.5106798
1.9199319 -0.42309844 -0.0026001136 0.02038546 -0.5776124 0.023825625 -0.13955408 -0.0727109
-0.47363618 -0.1096344 -1.1217445 -0.5502975 -0.04003296 -0.08672034 0.95047665 0.9016363
-0.04682362 -0.8962502 -0.22333334 0.19380245 0.3454226 0.27643615 0.41260907 0.6609296

fc1.bias f4 [64]
00000000: 36e2 76bf 5a40 e8be e977 c5be 3b72 83bd
00000010: 155b 66bf 70e4 9bbf 151d 38be 42e4 54bf
00000020: fc4c 1dbd 2206 e8be c5c9 b9bd a3f8 c0bd
00000030: dd6c 3cbc c574 333e ae15 6dbf c686 61be
00000040: e2ff 33bf 8327 41bf 9ce2 36bf 05b3 22bf
00000050: d63e 11be 88d9 1fbf 5294 63bf 1c44 d43d
00000060: 6b36 e7be 6fd4 8dbd fef1 7abd ff2d 7cbf
00000070: b705 833d 5a6c 07be e382 44bf 2999 b6bf
00000080: 9703 733e 4a06 8cbe 3ea2 1d3c a5ee f3be
00000090: 2c75 083f 6a72 d6be 3c32 37be 2b8d bf3d
000000a0: 13b7 dbbe c0b5 59bf 9d6a bc3e d23e b4bd
000000b0: 8fb9 983e 3e59 d5bd d2fe 29be c862 b4bd
000000c0: e0cc 8b3e 72e0 29bf 76ae 4f3d 55ce 883e
000000d0: 690f 0d3e 0062 50be 6faa b5bf e32f acbf
000000e0: 50d2 1abf 76ea 293d 904c ab3e 1abf 3ebf
000000f0: 8dd7 ab3e b2a0 78bf d1e8 a0bf 59dd 8bbf
-0.9643892 -0.45361596 -0.38568047 -0.06418272 -0.8998273 -1.2179089 -0.17979844 -0.83160794
-0.038403496 -0.4531718 -0.090716876 -0.09422424 -0.011500564 0.17525013 -0.92611206 -0.22024068
-0.7031232 -0.75450915 -0.7143953 -0.6355441 -0.14184126 -0.624413 -0.88898194 0.10364553
-0.45158705 -0.06925284 -0.061265938 -0.98507684 0.063975744 -0.13224927 -0.7676222 -1.4265491
0.23731838 -0.27348548 0.009621201 -0.4764301 0.5330379 -0.41884166 -0.17890257 0.093530975
-0.42913112 -0.85042953 0.3680009 -0.088010445 0.2982907 -0.10417412 -0.16601112 -0.088079035
0.27304745 -0.663581 0.05070349 0.2671992 0.1377541 -0.20349884 -1.4192637 -1.3452114
-0.6047716 0.041483365 0.3345685 -0.7451035 0.3356289 -0.971202 -1.257105 -1.0926925

fc2.weight f4 [64, 64]
00000000: f07f 933d fa0f 4a3e 86e2 f1bb 39aa 69be
00000010: fa8c 713e aaa3 a93d 6fea 81bd e792 c4bb
00000020: 76ca bbbd fb94 113e 2f83 0dbf c4c9 19be
00000030: d611 babe e16f aabd 70ea 9cbd a4c0 dabd
00000040: 3075 1e3d a8de e7bc d3b8 c1bd ca5e 3abd
00000050: f03f 13bd f081 e13d e463 2dbd 65fa b93c
00000060: a4e9 a83d d80b 54be 63a4 0dbf 08c4 a4bd
00000070: 8098 11bd 2ef0 ffbe 1a02 b63d b345 03be
00000080: 73bf 0fbf 0eb7 883d 5b0a 193e 82e6 0f3e
00000090: 9bfb 0fbf e13c 7f3b 4e63 bebe 1e3d b5bd
000000a0: a305 43be 8059 69bd 0161 edbe f35f 08be
000000b0: f4e8 5fbd 896b a2be d4a8 e53d 5df5 68be
000000c0: 16c2 3fbd 606e 823b 979f 0bbd e825 52bc
000000d0: 0529 e0be e441 13be 3c8b dcbd f044 cabc
000000e0: ec1d a5bd df57 153e ca25 f7be 2e8c c7bd
000000f0: 279f 43bd 7451 19be 1833 373d 7042 1dbe
00000100: 4cab 19be a69a 5ebe b1ec 5fbe 1fad 0cbe
00000110: bec8 24be 677b 0abd 6a64 2b3e de77 23be
00000120: 8e0d 853c 9a2d 17bf 3935 703d 9416 5bbd
00000130: 954f f73c bf87 4dbe f080 1fbc aecf 7c3e
00000140: 0813 ae3c d45a 713d b2de d0bd 73ea 8cbd
00000150: 7994 793e fe26 9b3a 7a32 df3d 1bf7 0fbc
00000160: 1e5a b7be 0faa 06be c25d b9bd 9651 d23d
00000170: 0468 46be 4b17 29be 1e1d 0bbc 86de 63be
00000180: a060 3cbe c686 3cbe 2697 04be bd09 0cbe
00000190: 3135 1bbe 613b 6dbe 039e 33be 8b7c 78be
000001a0: add3 06be 8823 dabc 546d acbe b8c6 de3d
000001b0: 0e56 58be 5e43 0fbe 2e56 49be 8a04 c13d
000001c0: a351 c2bc c065 33bc 5e7e 2bbd f2ba ee3b
000001d0: 71c4 c2be 299a 153e 25e7 87be f3ef 7bbe
000001e0: 9e6a aabd 5a99 c53b c9e8 89be 5f75 8e3d
000001f0: 5cbb 02be fe45 33bd 89c2 a0bd aa03 47be
00000200: 1bd6 8fbe 508a dabf 219f ecbf 59bf a6bd
00000210: 08ad 0dc0 a1d7 60be ef86 c33d 3da5 a0be
00000220: 611c fa3d e2ca 15c0 0f46 9f3d 2480 92bd
00000230: 8454 323e 8cf8 533f d4ce 103d e69c 7a3e
00000240: 0891 f33c 0455 d43d 7a25 bcbe 4e12 7fbe
00000250: 5015 ee3d b199 d7bf 808b 72bd a3a0 5d3f
00000260: a2ee 11c0 ba48 cc3d b795 fa3c d95c 2cbf
00000270: 2144 0cbf d83f 67be 851a 71bd b36d cdbe
00000280: 18a3 433d 6987 07be 78d0 91bf 7274 08c0
00000290: 26f3 263e 3a49 edbf def1 083e c0c7 5d3f
000002a0: eee1 e7bf 05a0 e13a 4ef9 c23d 3e36 ff3b
000002b0: 2b3f 823f 2f7d 1dbe 54a9 f33e 6fe2 683b
000002c0: 3b6d 333f c46b 43bd eb2b d9be 7318 623f
000002d0: 86f1 493e dc05 a03e 199c 34bf c1a9 17bf
000002e0: ceaa f0bd dfd6 90be 4c64 aa3e 53a7 06be
000002f0: 84a9 c13e e394 81be 85b4 68bd 235b d4be
00000300: 64a2 1ebe 130c 0abe f07f d9bd 5fc5 09be
00000310: 90ab 553d 22f8 3ebe 0543 64be d0af 5dbd
00000320: 3854 56be 05a6 e0bd c8c6 d8bc d45b 9dba
00000330: a0ac e33c 71cd 63be 8073 8e3a 82e7 3abe
00000340: 622f 8fbd 8203 90bd b463 57bd e258 f2bd
00000350: 2d8c 66be ac71 b4bd 6c1a d4bd 7cba 11bd
00000360: a828 1dbe c08c 14be 5228 febd 785f 91be
00000370: 58b1 47be 816b 25be 9004 d33d 5447 96bd
00000380: 9747 09be 8796 06be ab96 05bc 6174 7c3b
00000390: 4baf d03c 5393 013e fab8 f2bc c4a3 17be
000003a0: a106 2ebe 6ccc fabd 231a cabc 60aa 5abd
000003b0: 994e e5bd 34ec 93bd 0c84 52be 4289 38be
000003c0: a657 f8bd 1042 cfbc bb8d 4dbe f235 f6bd
000003d0: 7a06 bdbd 6600 39be dbd4 8abd d12e a6bd
000003e0: c0d3 3cbd 8267 073d aae2 30bd 3acc 74bb
000003f0: 1077 1bbe 1521 2cbe fac7 bcbd d615 f1bd
0.072021365 0.19732657 -0.00738174 -0.22818841 0.23588935 0.082831696 -0.06343543 -0.0059989574
-0.09169476 0.14216988 -0.55278295 -0.15018374 -0.36341733 -0.083221205 -0.07661903 -0.106812745
0.038685977 -0.028304413 -0.094590805 -0.045500554 -0.035949647 0.11011112 -0.04233159 0.022702405
0.082476884 -0.20707643 -0.5532896 -0.080452025 -0.035545826 -0.4998793 0.088871196 -0.12819557
-0.56151503 0.0667554 0.14945357 0.14052776 -0.56243294 0.0038946199 -0.37185138 -0.08849548
-0.19045119 -0.05697012 -0.4636307 -0.13317852 -0.05466552 -0.31722668 0.11213842 -0.22749849
-0.046815954 0.003980443 -0.034087744 -0.01282642 -0.43781295 -0.14380604 -0.10768744 -0.024691075
-0.08062348 0.14584301 -0.48271018 -0.09743534 -0.0477592 -0.14972478 0.04472646 -0.15357375
-0.15006751 -0.21738681 -0.21867634 -0.13737915 -0.16092202 -0.033809092 0.16737524 -0.15963694
0.016241815 -0.5905396 0.058644507 -0.05348833 0.030189315 -0.20071314 -0.009735331 0.24688599
0.02124931 0.05892451 -0.10198726 -0.06880655 0.24373044 0.0011837182 0.108982995 -0.008786942
-0.3581094 -0.1315081 -0.09051086 0.102694675 -0.19375616 -0.16512792 -0.008490829 -0.22252855
-0.18396235 -0.18410787 -0.12948284 -0.1367559 -0.1515701 -0.23167183 -0.17540745 -0.2426626
-0.13166685 -0.02662827 -0.3367716 0.10877746 -0.21126577 -0.13990542 -0.19661781 0.09424694
-0.023720568 -0.010949552 -0.04186856 0.007285469 -0.38040498 0.14609589 -0.26543537 -0.24603252
-0.08321117 0.006030244 -0.26935413 0.069559805 -0.12766784 -0.04376792 -0.07849605 -0.19434991
-0.28093037 -1.707346 -1.8486062 -0.081419654 -2.213686 -0.21957256 0.09547221 -0.31376067
0.12212444 -2.340508 0.077770345 -0.07153347 0.17415053 0.8280113 0.035353497 0.24473915
0.029732242 0.10367778 -0.36747342 -0.24909326 0.11625159 -1.6843778 -0.05921507 0.8657324
-2.28019 0.09974809 0.030588968 -0.67329174 -0.54791456 -0.22582948 -0.05886318 -0.40122756
0.04776296 -0.13235249 -1.1391745 -2.1321073 0.16303691 -1.8537972 0.13373515 0.8663292
-1.8115823 0.0017213827 0.09520207 0.0077884486 1.0175527 -0.15379785 0.47590125 0.0035535356
0.7008855 -0.047710195 -0.4241632 0.88318557 0.1972104 0.3125447 -0.70550686 -0.592434
-0.117513284 -0.28288934 0.33279645 -0.13149767 0.37824643 -0.25308904 -0.05681278 -0.41475782
-0.15491635 -0.13481168 -0.10620105 -0.13454197 0.052165568 -0.18649343 -0.22291191 -0.054122746
-0.20930564 -0.10969166 -0.026461974 -0.0012005516 0.027792275 -0.22246338 0.0010868162 -0.18252376
-0.069914594 -0.07031919 -0.05258532 -0.11833359 -0.2251441 -0.08810744 -0.10356602 -0.035578236
-0.1534754 -0.14506817 -0.12410034 -0.2839315 -0.19501245 -0.1615429 0.103036046 -0.073378235
-0.13406216 -0.13143359 -0.008153598 0.0038521516 0.025474211 0.12653856 -0.02962922 -0.14808565
-0.16994716 -0.12246022 -0.024670666 -0.05338514 -0.11196632 -0.072227865 -0.20558184 -0.1802111
-0.121260926 -0.025300056 -0.20073597 -0.12022008 -0.09229751 -0.18066558 -0.0677888 -0.08114398
-0.046100378 0.033057697 -0.043184914 -0.0037353174 -0.15182137 -0.16809495 -0.0921783 -0.11771743

fc2.bias f4 [64]
00000000: 2f2a 87be f1a9 89be d4c0 2e3f 0653 72be
00000010: 6382 4d3e a25c d3bd 72c3 b5be 405a 92be
00000020: 928a 8bbe 6005 a93c 9115 65be 4d37 e4bd
00000030: 9bf6 ee3e ef60 da3c 95d0 aebc a38e 41be
00000040: a6f1 493f 811b 5abe c455 0cbd c178 a8bd
00000050: 10d3 54be 77c1 49bc 83f8 b4b9 be32 b1bd
00000060: ab0f 8fbd 3421 0dbd 1a6c 77be 14b6 85bd
00000070: b06e 59be bb6e cebd 8464 c1be 6715 82be
00000080: 0954 a8be 69a3 edbd 8ba5 783f 9ab7 5f3f
00000090: 1812 80bd b0a0 5fbd 39ae e0be cf96 fcbd
000000a0: 6570 373d 3caa 1bbe dbe7 4bbc 578c c9bd
000000b0: 5739 02be f7b9 84bc ad2b 22bf 8ed8 38be
000000c0: 56b8 b1bd 9ac1 fdbd 8607 f0bd 3a93 31be
000000d0: 5b6f 5d3c 936b bdbe 14ab d5bd 4223 893a
000000e0: b666 fcbd 8a5f 87be e832 2d3c e12f e4bd
000000f0: e4cb 95be 47cf 48be 9bed 49ba c413 56be
-0.2639937 -0.26887468 0.6826298 -0.23664483 0.2006927 -0.10320403 -0.35500675 -0.2858448
-0.27254158 0.020632446 -0.22371508 -0.1114336 0.4667252 0.02665755 -0.021339694 -0.18902068
0.7888435 -0.21299554 -0.03426148 -0.08226157 -0.20783639 -0.012314192 -0.0003451743 -0.086522564
-0.0698541 -0.034455493 -0.24162331 -0.06528869 -0.2123363 -0.10079714 -0.37772 -0.25406954
-0.32876614 -0.11603434 0.971276 0.8738953 -0.06253451 -0.054596603 -0.4388292 -0.12333452
0.044784922 -0.15201658 -0.012445415 -0.09841221 -0.12717186 -0.016201956 -0.63347894 -0.18051359
-0.086777374 -0.12390442 -0.11720185 -0.17341319 0.013515319 -0.36996135 -0.10433021 0.0010462778
-0.12324278 -0.26440078 0.010571219 -0.11141945 -0.2925712 -0.1961032 -0.00077029475 -0.20905977
