maddpg_pytorch/models/cache_data/model/run52/incremental/model_ep2001.pt (torch, 690099 bytes, 168 tensors)

fc1.weight f4 [64, 1]
00000000: 165c 643e 3fc5 53bf 800d 82bf cab2 c8bc
00000010: 14ca 11c0 7b0d be3e 9f55 82bd cb4d e93e
00000020: b7c6 11bd e507 61bf 57ae a8bd eb2a 0cbd
00000030: 0617 92bd 81ca 8fbe 3051 95bd fe94 94bd
00000040: 306c 143e 00e7 82bb 0168 603e b66a 633d
00000050: cb97 adbd 4fe7 bcbf 70a3 2bbe ced6 873d
00000060: d89c 98bf 1e6b 8dbd 8bfe e3bb fa4a ae3f
00000070: c2fc 78bf 7707 cb3d 27dc 373e 20b7 f43e
00000080: 8ab3 cbbc 27ac 59bf 45de abbf 1f4c 73bf
00000090: 890f f7bc 936e 95bf e891 9bbd 09b8 08bf
000000a0: a347 f63f 5ca0 d8be 3784 30be b1ff a63c
000000b0: 6243 dfbe be3a c23c d83f 0dbe 1bec 94bd
000000c0: 57d0 f4bd 0088 e0bd 71e7 aebf e7d3 f2be
000000d0: 3ec0 763c 3093 b1bd e92b d33e d091 0a3f
000000e0: 20ca 3fbd 3bcc c1be e174 0ebe ef73 463e
000000f0: b08b 1fbc db88 8d3e dc90 de3e c43c c23e
0.22300753 -0.8272285 -1.016037 -0.024499316 -2.2779589 0.3711966 -0.06363987 0.45567164
-0.0355899 -0.8790267 -0.08236378 -0.034220617 -0.071332976 -0.28084186 -0.07290876 -0.072549805
0.14494395 -0.0039948225 0.21914674 0.05552169 -0.08476218 -1.475809 -0.16761565 0.066327676
-1.1922865 -0.069051966 -0.006957834 1.3616631 -0.9726068 0.09913533 0.17955075 0.47795963
-0.024865884 -0.8502831 -1.3427206 -0.95038027 -0.030158775 -1.167437 -0.07596189 -0.53405815
1.9240612 -0.42309844 -0.17237936 0.020385595 -0.43606097 0.023709651 -0.13793886 -0.07271596
-0.119538 -0.1096344 -1.366438 -0.47427294 0.015060483 -0.08670652 0.41244438 0.5412874
-0.04682362 -0.37851128 -0.13911773 0.19380163 -0.009737894 0.27643475 0.43469894 0.37936985

fc1.bias f4 [64]
00000000: 60e2 76bf 39df eebe e7a2 b4be 3d72 83bd
00000010: 1483 1dbf afe4 9bbf f920 38be 46cd babf
00000020: fa4c 1dbd d5d9 48bf 14ca b9bd d8f8 c0bd
00000030: 9b56 07be ccc3 65be ae15 6dbf e68c 61be
00000040: e2ff 33bf 8027 41bf 5de6 36bf 2eb3 22bf
00000050: 1e42 11be c05f 07bf 5294 63bf a06f a5be
00000060: 0419 dabe b8d4 8dbd def2 7abd 36d2 d6be
00000070: 5db9 2f3f 68a0 adbe 0d83 44bf 4d87 dbbf
00000080: ac4d 70bd c0a2 b3be 5562 e3be af92 3ebf
00000090: ce04 ebbd e96f e3be ba34 37be dcf4 cfbe
000000a0: 3028 e8be c0b5 59bf 2cbd bfbe ed3e b4bd
000000b0: 6b14 b6be bd9e d5bd 8c30 2bbe 9c68 b4bd
000000c0: 734c 07be 72e0 29bf b603 6c3d 2c92 c2be
000000d0: 038e 94bd 6067 50be 97aa e1bf 19f0 dabf
000000e0: 50d2 1abf c271 b2be 9180 0fbe 40bf 3ebf
000000f0: 94d4 b0bd e0a0 78bf 88d8 c2bf 5bf8 a2bf
-0.9643917 -0.4665468 -0.35280535 -0.064182736 -0.61528134 -1.2179164 -0.17981328 -1.4593894
-0.03840349 -0.78457385 -0.090717465 -0.09422463 -0.13216631 -0.22437972 -0.92611206 -0.22026405
-0.7031232 -0.754509 -0.71445256 -0.63554657 -0.14185378 -0.5288048 -0.88898194 -0.32311726
-0.4259721 -0.069253385 -0.061266772 -0.41957253 0.68642217 -0.33911443 -0.7676247 -1.7150666
-0.058667824 -0.35085106 -0.4441096 -0.7444257 -0.11475526 -0.44421318 -0.17891207 -0.406165
-0.4534316 -0.85042953 -0.37449014 -0.08801065 -0.35562453 -0.104306675 -0.16717738 -0.08809015
-0.13212757 -0.663581 0.057620727 -0.38002145 -0.07253649 -0.20351934 -1.7630185 -1.7104522
-0.6047716 -0.34852415 -0.14013888 -0.74510574 -0.08634296 -0.97120476 -1.522233 -1.2732042

fc2.weight f4 [64, 64]
00000000: f07f 933d 3e12 303c 406b 38be 85aa 69be
00000010: c978 af3d aaa3 a93d 6fea 81bd 2f93 c4bb
00000020: acca bbbd 3a5b 69bd 7783 0dbf efc9 19be
00000030: 1512 babe 5e59 21be 70ea 9cbd f1c0 dabd
00000040: 3075 1e3d a8de e7bc ebb8 c1bd 0d5f 3abd
00000050: 4a40 13bd 529b 523d e463 2dbd 890c 95bc
00000060: 9738 92bd 0f0c 54be 5ba4 0dbf 08c4 a4bd
00000070: 081d 05be 31f0 ffbe 1a02 b63d d545 03be
00000080: c0bf 0fbf 34aa 953c 33f0 dc3c bfd9 843d
00000090: 186b 24bf becc 7ebe 5d63 bebe 13b9 19be
000000a0: d305 43be 8059 69bd 9b5f 00bf 1160 08be
000000b0: 531a d8bd a76b a2be 69a8 e53d 7ff5 68be
000000c0: 2dcd 81bd 606e 823b a0b6 f7bd 588e 5abd
000000d0: 5529 e0be 2642 13be 328b dcbd f044 cabc
000000e0: ec1d a5bd 20fb b53d 8cd7 04bf 2e8c c7bd
000000f0: 759f 43bd ac51 19be 1833 373d 9642 1dbe
00000100: 72ab 19be eba0 5ebe 31f4 5fbe 2bad 0cbe
00000110: 83d2 24be 9a7b 0abd 7463 2b3e da78 23be
00000120: 650d 853c c430 17bf f734 703d 9416 5bbd
00000130: 2a4f f73c 718f 4dbe f080 1fbc 24d1 7c3e
00000140: 0813 ae3c d45a 713d 7be0 d0bd 71ea 8cbd
00000150: 199a 793e 6f85 973a 7a32 df3d 2b5c 10bc
00000160: c25f b7be 1aaa 06be 195e b9bd 3752 d23d
00000170: 9a6c 46be 521d 29be b61c 0bbc ebdf 63be
00000180: d466 3cbe 138b 3cbe 3a9c 04be 8a11 0cbe
00000190: d13b 1bbe ce46 6dbe a49f 33be d282 78be
000001a0: 47d7 06be 8823 dabc f270 acbe c4c6 de3d
000001b0: 735c 58be a247 0fbe 6d5e 49be 7f0a c13d
000001c0: 9573 c2bc c065 33bc 8e8f 2bbd a23c ee3b
000001d0: e6c7 c2be be99 153e a4e7 87be 67f1 7bbe
000001e0: 9e6a aabd 9f09 c53b 4ded 89be b675 8e3d
000001f0: 41c1 02be 2046 33bd dcc2 a0bd 4305 47be
00000200: 26d6 8fbe 3a7b 05bf 210b eebf 80bf a6bd
00000210: 14e5 dbbf f1d7 60be 0187 c33d c4e8 36bf
00000220: 471c fa3d 2daa 19c0 ec45 9f3d 3d80 92bd
00000230: 53f2 d93d 4bfb 483f d4ce 103d dc9c 7a3e
00000240: 0891 f33c 0455 d43d c725 bcbe 5c12 7fbe
00000250: 7015 ee3d dd99 10c0 808b 72bd 54e3 373f
00000260: afdf ddbf a648 cc3d 3595 fa3c 72d9 60bf
00000270: b60e 493e 7622 6bbe 141a 71bd fa6d cdbe
00000280: 538c 8c3e aa83 a1be 2b28 57bf 6dd4 01c0
00000290: 8428 993e 205c 22c0 5ef1 083e 8e74 4c3f
000002a0: e1b4 05c0 00a0 e13a 5728 113e 3636 ff3b
000002b0: bf68 303f 847b 1dbe bf8c f33e 1dec 683b
000002c0: b976 b93e c46b 43bd e4ae 34be ad15 2b3f
000002d0: e8fd 8b3e c805 a03e 349c 34bf 85a9 17bf
000002e0: ccaa f0bd dc28 34bd 4e83 ba3e 52a7 06be
000002f0: 61ee 093f 1895 81be 92b4 68bd c25a d4be
00000300: 91a2 1ebe 330c 0abe 1a80 d9bd a4c5 09be
00000310: 90ab 553d 47f8 3ebe 4843 64be fcaf 5dbd
00000320: 4b54 56be 4fa6 e0bd 06c7 d8bc d95b 9dba
00000330: 59ac e33c a2cd 63be 8073 8e3a 93e7 3abe
00000340: 622f 8fbd 8203 90bd e563 57bd 0d59 f2bd
00000350: 438c 66be ac71 b4bd 6c1a d4bd 83ba 11bd
00000360: f428 1dbe f88c 14be 7428 febd be5f 91be
00000370: aeb1 47be 9f6b 25be c504 d33d 4e47 96bd
00000380: b047 09be d496 06be a496 05bc 1674 7c3b
00000390: fbae d03c 7893 013e 4ab9 f2bc eaa3 17be
000003a0: f506 2ebe 6ccc fabd 6a1a cabc abaa 5abd
000003b0: a64e e5bd 5cec 93bd 4984 52be 4589 38be
000003c0: ae57 f8bd 1042 cfbc 0c8e 4dbe 4036 f6bd
000003d0: b106 bdbd 8900 39be 27d5 8abd dd2e a6bd
000003e0: c0d3 3cbd 3b67 073d dde2 30bd 8fcc 74bb
000003f0: 6077 1bbe 2b21 2cbe 3ec8 bcbd cd15 f1bd
0.072021365 0.010746537 -0.18009663 -0.22818954 0.0856796 0.082831696 -0.06343543 -0.005998991
-0.09169516 -0.056971766 -0.55278724 -0.15018438 -0.3634192 -0.15756747 -0.07661903 -0.10681332
0.038685977 -0.028304413 -0.094590984 -0.045500804 -0.035949983 0.051417656 -0.04233159 -0.018194454
-0.071397 -0.20707725 -0.5532891 -0.080452025 -0.12999356 -0.4998794 0.088871196 -0.12819608
-0.5615196 0.018269636 0.026970005 0.06486844 -0.6422591 -0.2488279 -0.37185183 -0.15012006
-0.1904519 -0.05697012 -0.5014588 -0.13317896 -0.10551896 -0.31722757 0.11213762 -0.227499
-0.06337962 0.003980443 -0.1209538 -0.053358406 -0.43781534 -0.14380702 -0.10768737 -0.024691075
-0.08062348 0.08885789 -0.518914 -0.09743534 -0.047759492 -0.14972562 0.04472646 -0.15357432
-0.15006807 -0.21741073 -0.21870495 -0.13737933 -0.16095929 -0.033809282 0.16737157 -0.1596407
0.016241739 -0.59058785 0.05864426 -0.05348833 0.030189116 -0.2007425 -0.009735331 0.24689156
0.02124931 0.05892451 -0.10199066 -0.06880654 0.2437519 0.0011560152 0.108982995 -0.008811037
-0.35815245 -0.13150826 -0.09051151 0.102695875 -0.19377366 -0.16515091 -0.008490732 -0.22253387
-0.18398601 -0.18412428 -0.1295022 -0.13678566 -0.15159537 -0.23171541 -0.17541367 -0.24268654
-0.1316806 -0.02662827 -0.3367992 0.10877755 -0.21129017 -0.1399217 -0.19664927 0.0942583
-0.023736754 -0.010949552 -0.04188495 0.0072704116 -0.38043135 0.14609429 -0.26543915 -0.24603806
-0.08321117 0.00601311 -0.2693886 0.06956045 -0.12769033 -0.04376805 -0.078496665 -0.19435601
-0.2809307 -0.52141154 -1.8597146 -0.081419945 -1.7179284 -0.21957375 0.09547234 -0.7144892
0.12212425 -2.4010117 0.077770084 -0.07153366 0.10641923 0.7850844 0.035353497 0.244739
0.029732242 0.10367778 -0.36747572 -0.24909347 0.11625183 -2.259391 -0.05921507 0.7183125
-1.7333888 0.09974794 0.030588726 -0.87831795 0.19634518 -0.22962365 -0.05886276 -0.40122968
0.2745081 -0.31545764 -0.84045666 -2.0285904 0.29913723 -2.5368729 0.13373324 0.7986535
-2.089165 0.0017213821 0.14175545 0.007788445 0.6890983 -0.15379149 0.47568318 0.0035541125
0.3622339 -0.047710195 -0.1764484 0.6682995 0.27342153 0.3125441 -0.7055085 -0.5924304
-0.11751327 -0.04398428 0.36428303 -0.13149765 0.5387936 -0.25309062 -0.05681283 -0.41475493
-0.15491702 -0.13481216 -0.106201366 -0.134543 0.052165568 -0.18649398 -0.22291291 -0.05412291
-0.20930593 -0.10969221 -0.02646209 -0.0012005522 0.027792143 -0.22246411 0.0010868162 -0.18252401
-0.069914594 -0.07031919 -0.0525855 -0.11833391 -0.22514443 -0.08810744 -0.10356602 -0.035578262
-0.15347654 -0.145069 -0.124100596 -0.28393358 -0.19501373 -0.16154335 0.10303644 -0.07337819
-0.13406253 -0.13143474 -0.008153591 0.003852134 0.025474062 0.12653911 -0.029629368 -0.14808622
-0.16994841 -0.12246022 -0.024670798 -0.053385418 -0.111966416 -0.07222816 -0.20558275 -0.18021114
-0.121260986 -0.025300056 -0.20073718 -0.12022066 -0.09229792 -0.1806661 -0.06778937 -0.08114407
-0.046100378 0.033057433 -0.043185104 -0.0037353372 -0.15182257 -0.16809528 -0.09217881 -0.11771736

fc2.bias f4 [64]
00000000: 680c afbe 0caf 89be e592 613f 3253 72be
00000010: dab3 80be 4b9e d3bd b4fd b5be 745a 92be
00000020: 169f 8cbe e38a 1f3c e115 65be 9637 e4bd
00000030: 1268 94be 0e88 b5bf 7e65 543f a88e 41be
00000040: 3f22 053f 6a0e 93be e51c a7be 0e79 a8bd
00000050: 16d3 54be 0573 25be aa9f 68be e532 b1bd
00000060: c70f 8fbd 1e37 12be 686c 77be 14b6 85bd
00000070: 9272 9fbe b66e cebd f5c1 ccbd 79a8 b0be
00000080: cab8 15bf 9aa3 edbd 89ae 303f caf9 a73f
00000090: 64a1 bd3d ada0 5fbd 3eae e0be d5dd 0ebe
000000a0: 5756 a63f 34aa 1bbe e1e7 4bbc 618c c9bd
000000b0: 9139 02be c1a2 09be 03db 33bf 8dd8 38be
000000c0: d8ba 4bbf f356 40be 7f07 f0bd 8f93 31be
000000d0: 02ff 553f ee72 bdbe 66ab d5bd 6763 4abd
000000e0: f166 fcbd 4070 87be da49 cbbd 1b30 e4bd
000000f0: eecb 95be 5499 6abe d023 7ebe 1714 56be
-0.34189153 -0.26891363 0.8811477 -0.23664549 -0.25137216 -0.10332926 -0.35545123 -0.28584635
-0.27465123 0.009737703 -0.22371627 -0.11143415 -0.2898565 -1.4182146 0.82967365 -0.18902075
0.5200538 -0.28721935 -0.32639232 -0.08226214 -0.20783648 -0.16157158 -0.22717157 -0.086522855
-0.06985431 -0.14278838 -0.24162447 -0.06528869 -0.31142098 -0.1007971 -0.09997932 -0.34503534
-0.5848509 -0.1160347 0.6901632 1.3123105 0.092592984 -0.05459659 -0.43882936 -0.1395181
1.2995099 -0.15201646 -0.012445421 -0.09841228 -0.12717272 -0.13440992 -0.7025606 -0.18051358
-0.79581976 -0.18783168 -0.1172018 -0.17341445 0.83592236 -0.37001747 -0.10433082 -0.049411204
-0.12324322 -0.26452827 -0.099261954 -0.11141988 -0.29257149 -0.22910053 -0.24818349 -0.20906101

fc3.weight f4 [32, 64]
00000000: b77d 59be 5f27 e2bd 3c2a d8be 29f5 b43a
00000010: 9813 cbbf 18ca 44bd 9c50 533c ea4b 373e
00000020: e332 e2bc c3b9 793d 1fe1 333e 6aea efbd
00000030: 194f 19bf 1307 d2bd dd0f 67bf dd07 0bbe
00000040: 7421 b2bf 1832 4fbf 8a2a c53d c633 e63d
00000050: 8dbc 6ebc d623 9f3f 77e1 023e e1cb af3d
00000060: e0ee 023e 4a28 a7be 72d7 28be bcd2 053d
00000070: 4483 5ebe 4a9a 37be b79f e43f 51d7 9ebc
00000080: 39a9 c23c 5b4a f2bd cf62 9ebf 67fb 913e
00000090: 2b58 273f c2a7 39bb 927a c8be 35a5 5d3e
000000a0: 9ac2 3ebf 1849 d7bc f11a 0bbd 17cb a93d
000000b0: 4445 cabe 081c e8bd 4aae 58bf ac50 143f
000000c0: 0e63 dc3e b2cc 10bf 9a8f cc3c 1fbd 003b
000000d0: e4c2 923f 80c6 543e 5f74 92bd 875d 813e
000000e0: d05c 21be 8d8f d4bd c7d5 84bd cb7f bf3d
000000f0: d0ee 9cbb 208e 83be 74e9 9ebd ce1c 24be
00000100: 6e7d 273e 30fc da3e 7c70 f3be 2892 d1bd
00000110: 9a67 cfbc 70c8 c93c 17cd bd3e 4929 563e
00000120: 5342 85be 7b4f 61be 504c 88ba 8ec0 c9bc
00000130: 7b22 df3d 5d69 23be d373 fd3e 0dcc 8cbc
00000140: de7e 70bf d6b5 89be 2adb 73be c851 17be
00000150: 3dee f93e d881 ec3e 72b9 38bd 8620 513d
00000160: 807f dfbd 62e2 153d b687 ffbc 2c92 39bd
00000170: 5291 ac3e 6ec1 4fbb e13f 613e f1a7 8d3d
00000180: 7c86 573e 3ef4 023e dae2 533f d632 04bf
00000190: 315e 383f b00f ad3d ef1a 2f3e d8b0 553e
000001a0: 051d 53be 0616 173d a78f 21be 011e 983c
000001b0: c991 1e3e 8e3e 253e cbaa e7be 3f00 a43e
000001c0: 3634 c03e c2ca 983c 7d49 b5bd 4000 83be
000001d0: 6121 88be 13e9 90be 152f 9a3d 67c7 9f3d
000001e0: 199e 57be 6793 153c 32a7 17be 6f75 adbe
000001f0: 93ed 733d d310 6c3c b8de f23d c71d d6bd
00000200: b8ba fe3a c4d8 19bf adc8 803f e049 313d
00000210: b793 78bf 7b5d 9dbd b123 09be 98da 743e
00000220: 1c08 e33e c1b5 2cbe efdb 82bd c9b3 c4bd
00000230: ad31 f33d 37a7 1a3f 3c79 94be dad8 5d3c
00000240: a3e3 043e 9a73 b03d da37 543d 1451 0c3e
00000250: 3726 8f3d b0f1 c1bf 8441 843d ce35 b8bc
00000260: e420 013e c319 45be 710c 7bbe 4e21 a03d
00000270: f3a4 6dbe dd84 293e 96e7 59bf 9229 41bd
00000280: 890a 863a af25 89bd a6d7 d53e 3219 42be
00000290: 68a9 c0bf d0ae d83d ba39 3cbe 4efc a6be
000002a0: 9d6a ae3f 6ccc 3cbe 3dd4 dbbd 3dba b2bd
000002b0: 0560 29be eb92 893d 6b07 3a3f 8b64 7ebf
000002c0: 65b3 1bbd a715 c93f a659 f13d 86b3 5d3e
000002d0: 2ff7 dd3e 10ed f53d 1fa3 2a3d e7d2 30be
000002e0: b436 933e eb29 153d 7606 513d 1f8b d43d
000002f0: 6451 f93d 71b6 08be 38d9 c23c f0d5 5cbe
00000300: 1246 25bd 0ea0 693e ef2b b53f cb6d db3d
00000310: 7e00 e83f bf8a 01bc 9406 c0be f8d9 afbe
00000320: 7938 3ebf 0b68 46bf ea77 b63b d932 333c
00000330: 2ffa 9e3f 674e 09bf 536e da3e 82e9 833d
00000340: 95a9 973c 6e66 6bbc 907d 3d3e 01b7 05be
00000350: 5f9d 073e 08b7 b13f c4c3 3fbe c755 653c
00000360: 8d27 d63c ea83 483e 58e2 f03d 8ca3 c43d
00000370: cb0e 1a3c de6b 46bd 2e88 f7be e2b9 ccbe
00000380: 78ff 43bc a211 dd3c b700 bbbe 8f88 f6be
00000390: 812d 233f d003 15be 4bb3 113f fcd9 323e
000003a0: 2c2f 67bf acd3 2bbe 5510 38be 77a4 80bd
000003b0: da77 95be b409 a53c 1930 f83d d556 443e
000003c0: cd47 a4be 461b 91bf f3a3 debc e0c7 933d
000003d0: 0d54 c13f bd01 c5bd 45c4 2a3e 393a eeba
000003e0: 7cc4 4e3d 8862 8b3d 5d06 01be 598f dbbb
000003f0: 7d11 f3bd 9564 8abe 916c e93e 5bda 5bbe
-0.21239363 -0.11042666 -0.42219722 0.0013805974 -1.5865355 -0.048044294 0.012897637 0.17900053
-0.027612155 0.06096817 0.17566346 -0.11714633 -0.5988632 -0.102552556 -0.9025858 -0.13577218
-1.3916459 -0.8093581 0.09627254 0.11240344 -0.014571321 1.2432811 0.1278132 0.08583809
0.12786436 -0.32647926 -0.16488436 0.032671675 -0.21729761 -0.1792995 1.7861241 -0.01938978
0.023762332 -0.118305884 -1.2373904 0.28512117 0.6536891 -0.0028328751 -0.39156014 0.21645053
-0.7451569 -0.026279971 -0.03396124 0.082906894 -0.3950597 -0.113334715 -0.84640944 0.57935596
0.43044323 -0.5656234 0.024970818 0.0019643975 1.1465726 0.20778847 -0.07151102 0.25266668
-0.15758061 -0.10378943 -0.06486087 0.093505464 -0.004789211 -0.2569437 -0.077593714 -0.16026613
0.16356441 0.4277053 -0.47546756 -0.10232955 -0.025317956 0.024631709 0.37070534 0.20914187
-0.26027164 -0.22002976 -0.001039872 -0.02462795 0.108952485 -0.15958162 0.4950243 -0.017187143
-0.93943584 -0.26896542 -0.23814073 -0.14777291 0.48814574 0.46192813 -0.04509873 0.051056407
-0.109129906 0.03659285 -0.031192642 -0.045305416 0.3370462 -0.0031700986 0.21997024 0.06916798
0.21047395 0.12788484 0.82768023 -0.5164007 0.72018725 0.08450258 0.17100118 0.20868242
-0.20616539 0.036886238 -0.15777455 0.018568994 0.154853 0.16137144 -0.45247492 0.32031438
0.37539834 0.01865137 -0.088519074 -0.25586128 -0.26587966 -0.28302822 0.075285114 0.07801705
-0.21056403 0.009129382 -0.14809874 -0.33878657 0.05955274 0.014408308 0.118588865 -0.10454898
0.0019434309 -0.60096383 1.0061241 0.043283343 -0.97100395 -0.076838456 -0.13392521 0.23911512
0.44342124 -0.16866209 -0.06389605 -0.09604604 0.11874709 0.604114 -0.28998744 0.013540471
0.12977462 0.08615799 0.051811077 0.13702804 0.06989711 -1.5151882 0.064578086 -0.022486594
0.12610203 -0.19248109 -0.24516465 0.07818852 -0.23207454 0.1655459 -0.85119 -0.047158785
0.0010226528 -0.06696641 0.4176609 -0.18954924 -1.5051699 0.10580218 -0.18381396 -0.32614368
1.3626286 -0.18437356 -0.107338406 -0.087269284 -0.16540535 0.067174755 0.7266757 -0.99372166
-0.03801288 1.5709733 0.11784677 0.21650514 0.4335265 0.12008107 0.04165947 -0.17267953
0.28752673 0.03641693 0.051031552 0.10378098 0.12173727 -0.13350846 0.023785219 -0.21565986
-0.040350027 0.22814962 1.4154032 0.10714301 1.812515 -0.007906615 -0.3750502 -0.34345984
-0.7430492 -0.77502507 0.005568494 0.010937416 1.24201 -0.5363526 0.42662296 0.064410225
0.01851348 -0.014367683 0.1850493 -0.13058092 0.13243626 1.3883982 -0.18727022 0.013997502
0.026141906 0.19581571 0.11761922 0.096015066 0.009402941 -0.048442714 -0.48346084 -0.39985567
-0.011962764 0.026985947 -0.36523983 -0.4815106 0.6374131 -0.14552236 0.56914204 0.17465967
-0.90306354 -0.16779965 -0.1797498 -0.06281369 -0.29193002 0.020146228 0.12118549 0.19173749
-0.3208603 -1.1336448 -0.027177786 0.072158575 1.5103775 -0.09619472 0.16676433 -0.0018175311
0.05048035 0.06805903 -0.12600084 -0.006700438 -0.1186857 -0.27029863 0.45590642 -0.21470015

fc3.bias f4 [32]
00000000: 1057 80bf bae0 e3be e56b 173f f040 a8be
00000010: 9e89 133f 1517 57bf 1510 8cbe 7863 5d3e
00000020: 31d5 42be 54e9 c23f d69e 873f 6479 babf
00000030: a201 e33d 066d dabf 729a dd3e 1095 01bf
00000040: e292 10bf a263 9dbe 8555 cdbe 727f 903f
00000050: a40d 77bf 167f 47bf 5654 a83f 0c9f 823f
00000060: 1d6e 053f 1edf 81bf 6972 60be 1b75 1b3f
00000070: 9ba5 59bf a6eb ce3e ba78 c5be 1abb 44be
-1.0026569 -0.4450739 0.5914901 -0.32862043 0.5763186 -0.84019595 -0.2735602 0.21619976
-0.19026639 1.5227456 1.0595348 -1.4568295 0.11084296 -1.7064521 0.43281895 -0.50618076
-0.56474125 -0.30740076 -0.4010431 1.1288893 -0.9650519 -0.7792829 1.3150737 1.0204787
0.52121145 -1.0146215 -0.21918644 0.60725564 -0.8501832 0.4041416 -0.3856867 -0.19211999

in_fn.weight f4 [33]
00000000: 8a2c 0140 24ea b03e f2b9 8e3e e610 af3e
00000010: 88ea ad3e 5613 b53e c968 04bd 4871 a23e
00000020: 5c66 c83e d447 c73e 2da6 cc3e 8a40 173f
00000030: 83a3 97bd 7ab7 d23e aa7b 9c3e 03ee dd3e
00000040: f805 9a3e 136f 953e b1a2 41bd b13d 4b3e
00000050: d032 9f3e 44d1 b23e 06fc 903e 147a 123f
00000060: 8816 3b3f edb6 41be dc1e 243e 86a0 eb3e
00000070: 8b6f 153f e39e df3e beba 433f bd2b 113f
00000080: 9d21 f13e
2.0183434 0.34553635 0.2787624 0.3419258 0.33967996 0.35366315 -0.032326493 0.31727052
0.39140594 0.38921988 0.39970532 0.59082854 -0.07404234 0.41155607 0.30563098 0.4334565
0.3008268 0.29186305 -0.047274295 0.19847752 0.31093454 0.34925282 0.2831728 0.57217526
0.73081255 -0.18917437 0.16027397 0.46020907 0.58373326 0.43675908 0.7645682 0.56707364
0.47095957

in_fn.bias f4 [33]
00000000: 6b5d 95bd f481 5f3d e936 a53a 8cea 40be
00000010: ab13 0d3f a7ed 173e ed22 f9bd a7a4 babd
00000020: 29a6 1fbe c4b2 5a3d b075 94bd cc36 743e
00000030: 299e e2bc 96b6 b13d 3e7f d33d 8ab9 5bbc
00000040: f65f b0bd 2506 773d 05ff 0d3c f154 a83c
00000050: 916d 933d 0158 203d c5c4 01bc e62b cc3d
00000060: d5c0 35bc dff2 9dbc c2d0 4fbd 94d8 e73d
00000070: 2893 1f3e 56e0 ad3b bf52 1a3f d2ce 5a3e
00000080: b446 4abd
-0.07293209 0.054567292 0.0012604865 -0.18839473 0.55108136 0.14836751 -0.12164865 -0.09113436
-0.15590729 0.05339314 -0.072490096 0.23849028 -0.027663307 0.08677404 0.10327004 -0.013410935
-0.08612053 0.060308594 0.008666758 0.020548316 0.071986325 0.039146427 -0.007920449 0.099693105
-0.011093338 -0.019280849 -0.050736196 0.11320606 0.1558348 0.005306284 0.6028251 0.21367958
-0.049383834

in_fn.running_mean f4 [33]
00000000: 4b6a 1340 e325 993c 1c5c 213c 38c1 923c
00000010: 2786 213d 6581 d53c 3354 ca3b 7e86 153c
00000020: 245d 8b3c b236 5f3c 440d 1f3d ff0f 093d
00000030: b552 ae3b 93f8 5d3c 4c9f c03c 0946 ac3c
00000040: 930a 1e3d 68fe 013c e18f 8f3b 1e95 c33b
00000050: 44e1 a13c 8fff 273c 5f82 a63b aba0 3a3d
00000060: 709c 063e 15c8 023c 3a7c c13b df3e af3c
00000070: 3aab 083e e3a4 be3c d10d e03d 9453 5a3d
00000080: 1a5e a93d
2.3033626 0.018694824 0.009848621 0.0179144 0.03943458 0.026062677 0.006174588 0.009126304
0.017012186 0.01362388 0.03883101 0.03346252 0.005319918 0.013548034 0.023513459 0.02102949
0.038584303 0.00793419 0.0043811654 0.005968704 0.019760735 0.010253801 0.0050814594 0.04556338
0.13145614 0.007982274 0.0059047015 0.021392284 0.13346568 0.023271983 0.10940135 0.053302363
0.082699016

in_fn.running_var f4 [33]
00000000: 12a9 e640 7cd6 953c 6102 1f3c a80b 903c
00000010: da25 193d df93 cf3c dfbc c83b f8f5 133c
00000020: cfd4 883c 9e1c 5c3c d7dd 173d 998e 033d
00000030: 0368 ad3b 04ab 5a3c d4f1 bb3c ac41 a73c
00000040: 8285 163d 8fd3 003c 88d3 8e3b d263 c23b
00000050: d48a 9e3c 1dff 253c 2997 a53b f3ea 313d
00000060: 1fbd e63d b2a8 013c 63fe bf3b 4cbe a83c
00000070: 9247 ec3d fc26 ba3c 9fa0 c33d 8535 4e3d
00000080: cdab 9a3d
7.2081385 0.01829075 0.009705157 0.017583683 0.037389614 0.025339065 0.006126031 0.0090308115
0.016703038 0.013434557 0.037076797 0.032118414 0.00529194 0.013346437 0.022942461 0.020417057
0.036748417 0.0078629395 0.0043587126 0.0059323097 0.019353308 0.0101316245 0.00505342 0.043436956
0.11266541 0.007913755 0.0058591827 0.020598553 0.115370885 0.022723667 0.095521204 0.05034401
0.075523

fc1.weight f4 [64, 33]
00000000: f71e 8dbe e27a 1abc c76f 013d c209 ca3d
00000010: 35e3 3ebf 59e6 0cbd 4f79 303e fe27 6e3d
00000020: c4a1 bf3d a13c 87bd 297e 6d3d a3b2 08be
00000030: 57ce 6dbc 7fba 42bd ce56 abbd b481 0f3e
00000040: f34b b13d dd7f 1d3c 1d05 c6bd fb7c 513d
00000050: f19a 39bc e7d5 673d 6c43 7bbd c6bc d63e
00000060: c7f0 043d cae4 783c a82f 803d 9682 86bc
00000070: 680d 6d3e ceb1 cd3e 40aa fabe 518d 1dbe
00000080: d9a4 03be 40a8 13bf d5f7 d0be fad3 163f
00000090: 25ed 9c3e 8a86 7ebe 0afc e8bd 9304 743d
000000a0: bd2f 933c a049 103d 2cac d43e 7e45 9fbe
000000b0: 109a 8bbe 07c9 bf3e f928 47be db43 b6be
000000c0: e25d aabe 0de8 32be f644 eb3e 915b abbe
000000d0: a582 55be 14ae 21be 539f d33d 4ae8 95be
000000e0: 6470 3abe c6cd ffbd 5ce3 9d3e 6916 b03e
000000f0: 6b2b cbbe 58a6 a7be b387 85be 280f aabe
00000100: ba61 60be 8a4b 9ebe e01f c1bf 08a5 44be
00000110: 1e62 103e 4ad4 c73d 6928 933d 3777 31bf
00000120: ad78 f83d 681b ca3d e101 bc3d 2e8c 1dbf
00000130: 743a 2dbe 1b0e a5be 3897 083e 5eae 053d
00000140: 4c53 c53c b555 8a3e a6fb 9e3c 39ea 473e
00000150: efb0 803d a8c7 3e3e d812 88be 4151 4dbe
00000160: 1722 3d3d c2f5 373e 2adc ebbc 890b 83bc
00000170: 6385 b33e 1317 453f d3ee b4be de87 3bbd
00000180: 484f b6be d894 b5be 2db0 653d 405c 5ebf
00000190: e94f ab3d 0db9 b4bd 5b4e a63e c8e4 7dbf
000001a0: 14f2 fbbd 4880 9f3e 143e 6c3d af3f 4d3e
000001b0: 9d75 c63e 12db 213e 2368 95be cf79 38bd
000001c0: 9d70 cabd a19a 50be 36ab 7b3f 189e 24be
000001d0: a585 1dbd 1c58 94bb 59f8 a23e 9a86 26bd
000001e0: 5468 29bd e0ca 863e a9ec 2f3f 4f61 8cbc
000001f0: 04a4 3a3e 14d2 b73e 3f82 90bd 0fcf 1a3f
00000200: 8d49 0d3f 912b 8dbe bb5b 7bbe 1299 50bd
00000210: ec58 a4bf 7823 653d be79 133e b099 acbd
00000220: 5e13 64bf 6d61 d1be 63ba cd3e 1d0a c13e
00000230: eced ef3e 408a 263f e8d5 853d 4e6b 10bf
00000240: ee4e babe dd89 fdbe b70b a2be 54bd 2ebe
00000250: 5124 4dbd b5ce 603e 9d00 503e 11ef 15bf
00000260: f59f 9e3c bc7f f8be 87a8 8fbd 98b8 8a3e
00000270: 29bb b2be 077e c03e a1a4 8f3a e094 92bd
00000280: 313b 2fbc 4aed 953f 8409 fb3e ff8b a83e
00000290: 29c1 233d 9c7d 0cbf 125b 5b3e 260d 9c3e
000002a0: 8c55 b03e 687a 0abf 3547 4dbe 98c2 883e
000002b0: 3f8b aebd 64f5 67be 07ba 0b3e 8575 01bf
000002c0: 8a08 0dbf a3ef e9bd ffb4 503e 8b35 1abf
000002d0: beb5 bebe 0529 1abf 6a6c 50bf e580 463e
000002e0: 99e1 55bd 90bf 3d3d 852d 6a3e df37 6a3e
000002f0: 395a 9abe 1dc7 f1be 22c1 c03e 05ae 1e3e
00000300: 4634 21bf 7bb9 17be d6d2 32be cdd8 acbe
00000310: dec6 06bf b823 2dbf bcea e1be e7df 8ebe
00000320: 242a ab3b d3f3 af3d dc9d b7be cfdd 03bd
00000330: ab5b 053e b3ea 473e 714b 343e 50ea debd
00000340: da24 0d3e b16a 67bd f498 473a f4fa 0c3d
00000350: 0669 a23b 6a50 e83d 270e ae3d f269 733e
00000360: 8d89 ab3c 18c5 d93d 276a 573d 9641 e73c
00000370: fb2f c03c 3aa0 ed3e a746 ce3d 7e78 2e3e
00000380: 3c9e 803e 92f3 a4bd f2e8 343e 1b32 f43d
00000390: eae2 80bf 913c bdbc 7d54 5d3d 730a 53be
000003a0: ab91 42be 7a0d f63d 9c97 483e 4872 5abe
000003b0: 9678 7dbe 40e3 e63d 0ed0 fb3d 49b7 f63e
000003c0: adaa 2fbe c99f 323c ef2b febc 10d4 c13e
000003d0: 2444 02bd 18e8 2fbe 6b11 e4bd 8ca7 ccbd
000003e0: 7b83 483d f62e 02be dad8 adbd 7a2a a8bc
000003f0: 2d30 2fbc 2017 093f ec09 7e3a 7542 e6bd
-0.27562687 -0.009428712 0.03160074 0.098651424 -0.7456544 -0.034399364 0.17233776 0.05814361
0.09357026 -0.06603361 0.057981644 -0.13349395 -0.014514527 -0.047541138 -0.08366166 0.14014322
0.08657064 0.0096130045 -0.09668944 0.05114458 -0.011328445 0.056600478 -0.061343595 0.41940898
0.032456186 0.015191266 0.0625909 -0.01641969 0.23149645 0.40174717 -0.48958015 -0.15385939
-0.12855853 -0.57678604 -0.4081408 0.589172 0.30649677 -0.2485601 -0.11376198 0.059574675
0.0179671 0.035226464 0.41537607 -0.31107706 -0.27265978 0.3745806 -0.19449224 -0.35598645
-0.33274752 -0.17471333 0.4595105 -0.33468297 -0.20850618 -0.15789062 0.10333123 -0.29278785
-0.18206936 -0.1249042 0.30837524 0.34392098 -0.39681563 -0.32744098 -0.26080093 -0.33214688
-0.2191228 -0.30917007 -1.5087852 -0.1920358 0.14099929 0.09757288 0.07185442 -0.6932253
0.12132392 0.098685086 0.09180046 -0.6154202 -0.1691683 -0.32237324 0.13338935 0.032636993
0.02408757 0.27018514 0.019407105 0.19522943 0.062837474 0.1863085 -0.26576877 -0.20050527
0.04617509 0.17964843 -0.028791506 -0.015996711 0.35062703 0.76988333 -0.35338458 -0.04578387
-0.35607362 -0.3546512 0.056076217 -0.8685951 0.08364851 -0.08824358 0.32481655 -0.9917722
-0.12302032 0.31152558 0.05767639 0.20043825 0.38761607 0.15806225 -0.29181013 -0.04503804
-0.098847605 -0.20371486 0.9830812 -0.16075933 -0.03845753 -0.004527105 0.318301 -0.04065571
-0.04135926 0.26326656 0.6872049 -0.017136244 0.1822663 0.35902464 -0.070560925 0.60472196
0.55190355 -0.275723 -0.24546711 -0.05092723 -1.2839637 0.05594203 0.1440191 -0.08427751
-0.8909205 -0.40894642 0.40181264 0.37703028 0.46861207 0.650547 0.0653494 -0.56413734
-0.36388344 -0.49519244 -0.31649563 -0.1706441 -0.050083462 0.21953852 0.20312734 -0.5856791
0.019363383 -0.48534954 -0.07014566 0.2709396 -0.34908417 0.3759615 0.0010959097 -0.07157302
-0.010695265 1.171304 0.49030697 0.3291931 0.039979134 -0.54879165 0.2142146 0.3047878
0.34440267 -0.5409303 -0.20046695 0.26710963 -0.08522653 -0.22652203 0.13645183 -0.50569946
-0.55091155 -0.1142266 0.20381545 -0.6023795 -0.37248033 -0.6021884 -0.81415427 0.19385107
-0.0522171 0.046325266 0.22868927 0.22872876 -0.3014696 -0.47222224 0.3764735 0.1549607
-0.6297039 -0.14816849 -0.1746324 -0.33759156 -0.526472 -0.6763263 -0.441244 -0.279052
0.0052235294 0.08591428 -0.35862625 -0.032193955 0.1302325 0.19523124 0.17606904 -0.10884535
0.13783589 -0.056498233 0.00076140394 0.034419015 0.0049563674 0.11343463 0.08498793 0.23770884
0.020939613 0.10633296 0.05259147 0.028229516 0.023460379 0.46411306 0.100720696 0.17038152
0.25120723 -0.0805427 0.17666987 0.11923619 -1.0069249 -0.02310017 0.054035652 -0.20609455
-0.1900088 0.12014289 0.19589084 -0.21332657 -0.24753031 0.11273813 0.12295543 0.4818671
-0.17154951 0.010902354 -0.031026809 0.37857103 -0.031803265 -0.1717838 -0.11136135 -0.099928945
0.048953515 -0.12713227 -0.08488627 -0.020528067 -0.010692638 0.5355091 0.00096908095 -0.112431444

fc1.bias f4 [64]
00000000: fd9c ddbe aa2f 97be 8e09 8cbf 5da3 85bf
00000010: 5e21 84bf f362 f3bd b9e9 7ebf ea44 e4be
00000020: 7262 46be e4bb d6be 39fe eb3d 6282 11bf
00000030: af7b cebe d0e9 d0be 8dd8 87bf 1304 e1be
00000040: 7307 d1bd c1cc 2cbf 6c99 2abf c557 eb3d
00000050: b9aa c5be ec98 cabe bfd0 13bf 0305 32be
00000060: 5bed 64bf ea2b aebf 7641 5cbf b254 69bf
00000070: c1d2 ffbe 2321 293e ba47 75bf 199b cfbe
00000080: 3961 863d 426a 09bf 821e 2cbf 216d f3be
00000090: cdd5 e0be fd98 90be 0671 1ebf e4db 65be
000000a0: 1e31 f6bd 6b12 acbf b89a 52bf c0fd 56bf
000000b0: 2114 37bf f05b bdbf d435 84bf 3688 d4be
000000c0: ed43 d2be bb0e c1bf 514e 0dbf 60f5 febe
000000d0: e5b1 8dbf acdf 8ebf ffbb debd bd06 0fbf
000000e0: b792 12bf e86e 40bf a3a0 89bf 6676 04bf
000000f0: 70ea 17bf 300f 04bf 533f 6ebf 70df 29bf
-0.43283835 -0.29528552 -1.0940416 -1.044048 -1.0322683 -0.118841074 -0.9957538 -0.44583827
-0.19373491 -0.41940224 0.115230985 -0.56839573 -0.40328738 -0.40803385 -1.0612961 -0.4394842
-0.10206499 -0.6749993 -0.66640353 0.1149135 -0.38606814 -0.39569795 -0.57740396 -0.17384724
-0.89424676 -1.3607152 -0.86037385 -0.9114486 -0.4996548 0.16516547 -0.9581257 -0.40548018
0.065615125 -0.5367776 -0.6723405 -0.47544196 -0.43913117 -0.2824172 -0.6189121 -0.22447163
-0.12021087 -1.3443121 -0.8226733 -0.8398094 -0.7151509 -1.4793682 -1.0328927 -0.4151017
-0.41067448 -1.508262 -0.55197626 -0.4979658 -1.1069914 -1.1162009 -0.10875701 -0.55869657
-0.5725512 -0.7516923 -1.0752147 -0.5174316 -0.593421 -0.51585674 -0.93065375 -0.66356564

fc2.weight f4 [64, 64]
00000000: 8e67 ccbd e6aa 2b3d e4e4 52bd 5f98 2abe
00000010: 8809 92bc 60a6 38bd 29d3 06bc 013b 8e3d
00000020: 4bee ffbd 47dd d5bd 3dbf aabe 33df ebbe
00000030: ee3a 6838 0a2b afbe cbe1 2cbc d35b 75be
00000040: f8ce 97be 3c79 073d 4bef 44bd e311 f9be
00000050: f9e4 35be 9ab4 68be 57dd 8ebe ae12 37bd
00000060: 949c d3bc 5f37 c6bd 0f6e a8bd 1a60 1ebe
00000070: 4981 80bd cad9 51be 2ada 75bd 2907 89be
00000080: 71a5 30be 2c02 c1bd 5824 18bc 2e9b 303d
00000090: 36ac 843c c7a9 f9bd 6c00 80be 9639 9d3c
000000a0: be5d 06be 7229 563d fc4e edbc ab82 be3d
000000b0: b48a 11be e83a adbc 030b 4bbe ebe1 fdbc
000000c0: a525 55be 5a70 5f3c 14a7 6cbd a0d9 92bb
000000d0: 2f71 babd 7f81 17bd 2c1e 45be cf5e 52be
000000e0: 1fb8 edbc 2485 9cbd 5e4a 903d bf5a 45bd
000000f0: 616c 53bb ceef 51be d72e c93d e503 743d
00000100: 37b8 a0be 9e6c 41bf 9372 41bf 7ba6 92be
00000110: dd55 a6bd a9aa 60bf efcd cf3c 3bd4 353c
00000120: c620 44be fd5e a5be e892 983e cfa3 823e
00000130: bc58 76be df93 b8bd 4c4d e73d 40bf abbd
00000140: f22e f5be 890b bbbe 7a36 8bbf 01fe d0be
00000150: 6126 a2bd b9ed d6bc d8df f5be 3a47 e3bd
00000160: 51dc efbe 93da f43d b522 74be 296d 313e
00000170: e5b4 d8bd aa6b 7b3d 672b a1be 5f49 3bbe
00000180: 22e8 05bf b979 98be cf6b d8bd fcbe aebd
00000190: 06c1 013d c1af d6bd f6ec 39be 6677 80be
000001a0: 4af1 d2be 84fa 943e 7147 8ebe 4677 c03c
000001b0: e771 b8bd 853d 823b c622 b4be 56fc 47be
000001c0: 9484 0dbe 7abd 51be c396 46bd bd52 ccbd
000001d0: 9665 5abe 014c 97be bd37 dbbe 5b1d 8abe
000001e0: 6fe5 35be 99da 3fbe 4057 61be 40f9 8cbf
000001f0: 2f94 2dbe 83d4 98be 330f 2fbe 8f8f 403d
00000200: d58b 5ebe 71e0 92be a941 7bbe 4fb3 2a3b
00000210: 880a d4bc 88d7 15be 28e3 72be 2071 9ebe
00000220: 8167 223d e04a 3e3d 9abb 86be 916f b93c
00000230: eeae 5cbe d01d 80be 02f5 92be 9897 6d3c
00000240: 5963 fb3d edf8 24be 6217 313e 9466 24be
00000250: cece 28be 09b1 8bbe 773f 8a3a 4169 b43b
00000260: 643a 06bd 6a50 83bc 6200 573d 543f 73bc
00000270: 7731 ba3d 07ef 78be b33c 82bc fb97 0ebe
00000280: 4578 303d df63 babd b196 3b3e 8b78 0a3d
00000290: d85b 8fbb 6b07 17be 9db3 60be 4ddc 86be
000002a0: 3cad abbe 8246 c13c bf36 523d ccde 75bb
000002b0: a6d3 20bd c57c 033c 2a7f 4dbc 7f83 633d
000002c0: 2ee0 b73d 56d0 14bc 16dd 8e3b 2042 533d
000002d0: 3c31 59be ad9e d8bb 608b 9cbe 4f94 c8bc
000002e0: 0491 1fbf 6fe7 ca3b 10ed aa3d 6114 803e
000002f0: 59d4 003e 7ab3 a6bc 2bcf a7bc e2f8 c33d
00000300: f70b 96be 7edc e03e 4ec5 56be 6f10 04be
00000310: 7cdc c2be 253e 8a3d 6904 66be ea3a da3d
00000320: 70a0 b1be b805 5c3d 0859 223e b810 17bf
00000330: db0b 77be b6e5 3fbe d2a3 c8bd 480f 12be
00000340: b0b5 4cbe 9643 2b3d 0395 5d3d d7ef 3cbf
00000350: 87d0 bbbd fa27 22be 3e28 f2be c998 17bf
00000360: f171 f6bc 07d9 28bd ca26 8cbe d920 88bd
00000370: 0fbd abbb 623d c1bd c9a1 06be 4051 3fbe
00000380: 257c 2fbf 3dde 893a dd43 60bd d181 3cbd
00000390: ad2c b1bc 796d 84bd 7bcb 29be 944f 733e
000003a0: a95e cdbe 10b4 18be f86c 51be 7b0a 4fbd
000003b0: 87a7 39be 2d4e c7bd e06d 4a3e b41e fbbd
000003c0: 7141 103d 3feb 32be 28ce efbc f90f 99be
000003d0: 9324 1abe 3678 2abe fa21 75be 4aa4 90bd
000003e0: 04cf 35be 4b77 a33d 73a0 e4bd 8087 a8be
000003f0: 32f1 b5bd 537c 06be 9f72 af3d 73e4 d3bd
-0.09980689 0.04191103 -0.05148782 -0.16659687 -0.01782681 -0.045080543 -0.008229055 0.06944848
-0.12496623 -0.10442596 -0.33349028 -0.46068725 5.5367993e-05 -0.34212524 -0.01055188 -0.2396081
-0.29650092 0.033074602 -0.04807977 -0.4864646 -0.17763127 -0.22725144 -0.27903244 -0.04469555
-0.025831498 -0.0967853 -0.08224117 -0.15466347 -0.06274659 -0.20493236 -0.06002251 -0.26763275
-0.17250611 -0.094242424 -0.009286009 0.04311674 0.016195398 -0.121905856 -0.25000322 0.019192498
-0.13121697 0.05228562 -0.028968327 0.09302267 -0.14213067 -0.021146253 -0.1982842 -0.030991515
-0.20815141 0.013637627 -0.057776526 -0.0044815093 -0.09103619 -0.03698873 -0.19249791 -0.20543979
-0.02901846 -0.07642582 0.070454344 -0.048182245 -0.0032260644 -0.20501634 0.09823387 0.059574027
-0.31390545 -0.7555636 -0.7556545 -0.2864264 -0.08121846 -0.87760407 0.025366751 0.011097963
-0.19153127 -0.32299033 0.2979958 0.255156 -0.24057287 -0.09012579 0.1129404 -0.083860874
-0.4788738 -0.36532238 -1.0876 -0.4081879 -0.079174764 -0.026236402 -0.48022342 -0.1109757
-0.46847776 0.11955752 -0.23841365 0.17326798 -0.10581378 0.061381973 -0.31478426 -0.18289708
-0.5230733 -0.29780367 -0.10567438 -0.08532521 0.031678222 -0.10482741 -0.181568 -0.25091094
-0.41199714 0.29097378 -0.2778888 0.023494374 -0.090061 0.003974619 -0.3518278 -0.19529852
-0.13820106 -0.20482436 -0.04848362 -0.099767186 -0.21327814 -0.29550174 -0.42815962 -0.2697552
-0.17763303 -0.18735732 -0.2200594 -1.1013565 -0.16951059 -0.29849634 -0.17095642 0.04701191
-0.21733029 -0.2868686 -0.24536766 0.0026046818 -0.025883928 -0.14633 -0.23719466 -0.30945683
0.03964949 0.046458125 -0.26315004 0.022636207 -0.21551105 -0.25022745 -0.2870255 0.014501475
0.122748084 -0.16110583 0.17294076 -0.16054755 -0.1648514 -0.27283505 0.0010547478 0.0055057113
-0.03277053 -0.016029555 0.0524906 -0.014846642 0.09091466 -0.24309932 -0.015898084 -0.13925163
0.043083448 -0.0910108 0.18319203 0.033806365 -0.0043749623 -0.14748923 -0.21943517 -0.2633995
-0.33530605 0.023593191 0.05132174 -0.003751683 -0.039264344 0.008025353 -0.012542525 0.055545326
0.08978306 -0.009082874 0.0043598516 0.051576734 -0.21210188 -0.0066107125 -0.30575085 -0.024484782
-0.6233065 0.00619214 0.08345997 0.25015548 0.12581004 -0.020349253 -0.020484528 0.09568955
-0.29306003 0.43918222 -0.20973703 -0.12896894 -0.3805884 0.067501344 -0.2246262 0.10655768
-0.34692717 0.05371639 0.15854275 -0.59009886 -0.24125616 -0.18739972 -0.09796871 -0.14263642
-0.19991183 0.0418125 0.054097187 -0.73803467 -0.09170633 -0.15835562 -0.47296327 -0.59217507
-0.030083628 -0.0412226 -0.27373344 -0.0664689 -0.0052410434 -0.09435536 -0.13147654 -0.18683338
-0.68548805 0.0010518503 -0.05475222 -0.04602224 -0.021627748 -0.06466193 -0.16581528 0.23760825
-0.40111282 -0.14912438 -0.20451725 -0.050547104 -0.18130313 -0.09731708 0.19768476 -0.122617155
0.03521866 -0.17472552 -0.029273108 -0.29895 -0.15053014 -0.1664742 -0.23938742 -0.07062586
-0.17754751 0.07981738 -0.11163416 -0.32915878 -0.08883895 -0.13133363 0.08566784 -0.103463076

fc2.bias f4 [64]
00000000: d303 65be 2d55 12be 08f5 71be 24ed d8be
00000010: a3cc bcbd 9037 02be e6bb e7bc 41a8 333e
00000020: a78c 79bc b690 bfbe b443 b5bd e7dc 5cbd
00000030: de8d 953e 5ac8 363e 8804 95be f0e2 43be
00000040: 13b6 1ebd 1819 3cbd a819 f8bd 6d56 60be
00000050: ddea 1c3f 6cb2 1ebe 729f a5bd e107 1bbe
00000060: 64df c3bd 9bc1 16bc 30b2 1a3e 9fc9 13bf
00000070: fe3d 883e 1914 88be 3e04 87be 35b2 c6bd
00000080: 3e29 ac3e 190e 84bc 3330 d3be 5822 ce3e
00000090: a8bf 35be 6fbc 8dbe cc0f 8ebd 0ae6 17be
000000a0: 3389 fbbe 214a bcbd 750e b43e d781 073f
000000b0: 7a74 a5bd 39df b9bd d77c 113e 1da1 53be
000000c0: ea9d 12be 6684 a7bd e7d8 273f d6a9 d7bc
000000d0: 87c6 15bf 29c5 a9bd 4cce 7abe ec23 1fbe
000000e0: e032 0bbe 4245 c33e 0488 09be 5fb3 11be
000000f0: d8bf 74bd 099d ae3e 6a61 0ebd a1ca 2ebd
-0.2236474 -0.14290304 -0.23628628 -0.42368424 -0.09218719 -0.12716508 -0.02828784 0.17544653
-0.015231288 -0.37415093 -0.08850804 -0.053921606 0.292098 0.17849866 -0.2910502 -0.19129539
-0.03874786 -0.04592237 -0.121142685 -0.21907969 0.6129587 -0.1549775 -0.080870524 -0.15139724
-0.09564093 -0.009201433 0.15107036 -0.57729524 0.26609796 -0.26577833 -0.26370424 -0.09701959
0.33625215 -0.016120004 -0.4124771 0.40260577 -0.17748892 -0.27682826 -0.06936607 -0.14833847
-0.49128112 -0.091938265 0.3516728 0.52932495 -0.08078857 -0.090757795 0.14207779 -0.20666929
-0.14318052 -0.0817955 0.6556534 -0.026326101 -0.58506054 -0.082895584 -0.24492759 -0.15541047
-0.13593626 0.38138777 -0.13430792 -0.14228581 -0.05975327 0.34104183 -0.03476087 -0.04267371

fc3.weight f4 [1, 64]
00000000: 8e3f de3d ea37 673d 4281 9b3b 1b49 a73d
00000010: 976b 8ebc 6c8b 043b 2d33 2b3c 9544 29be
00000020: a9db 2abc e406 403e 1fe2 76bd 2edb 103b
00000030: 327b 373a a3e4 bdbd c79d b83b 5612 c53c
00000040: be98 8ebc e6e5 f53c b7a5 103e 38bf 863d
00000050: ef9d d3bd df5e fb3d a985 64bc 5e72 223c
00000060: 5557 31bd 1d18 a5bc 3e37 dfbd f76b 48be
00000070: feb1 9b3d 3a44 19be 9e96 49bb 97f6 abbb
00000080: 42a0 bdbd f2a9 a73b 27a6 e1bd 7a8d 72be
00000090: f12f 8cbc cc43 d43d fdc5 7fbc 7f82 8abd
000000a0: 7420 9f3d 9c99 993c e3b5 96be d27e e7bd
000000b0: 8c28 8b3c 76e3 563b cca2 f83d 964a 123b
000000c0: c8a6 a83c 2254 6a3c 0864 173e 0370 803e
000000d0: 9b68 323e d51f c4bc 8a8f 20bc 227e 5ebd
000000e0: 7739 e1bc 8aaa 17be fc3d da3c 5d81 9d3c
000000f0: fe16 dcba c8da dfbd 657c ac3b a4fb e8b8
0.10851966 0.05644981 0.0047456333 0.08168241 -0.017385287 0.0020224703 0.010449213 -0.16530068
-0.010428348 0.18752629 -0.06027424 0.0022103298 0.00069992535 -0.092721246 0.005634043 0.024056595
-0.017406818 0.03001685 0.14125715 0.06579441 -0.10332858 0.122739546 -0.013947883 0.009914963
-0.043296177 -0.0201531 -0.108992085 -0.19572435 0.07602309 -0.14967433 -0.003075994 -0.0052479017
-0.092590824 0.0051166946 -0.11018019 -0.23686782 -0.017112704 0.10364494 -0.015611169 -0.067631714
0.07769862 0.018750004 -0.29435644 -0.11303486 0.016987108 0.0032789386 0.12140426 0.0022322289
0.02058734 0.014302285 0.14784253 0.25085458 0.17422716 -0.02394096 -0.009799847 -0.05431951
-0.027493222 -0.14811149 0.026640885 0.019226724 -0.001679152 -0.10930401 0.0052638524 -0.00011109494

fc1.weight f4 [64, 1]
00000000: 685c 643e 1604 56bf e9df 74bf c3b2 c8bc
00000010: 1098 0bc0 c10d be3e da55 82bd 154e e93e
00000020: 98c6 11bd 6c78 61bf a8ae a8bd a72a 0cbd
00000030: 7217 92bd 2f7d 90be 3051 95bd 5795 94bd
00000040: 306c 143e 00e7 82bb 4c68 603e 006b 633d
00000050: 1498 adbd 5323 b4bf 70a3 2bbe 9423 893d
00000060: be7b 91bf 5a6b 8dbd 45fe e3bb e7ee b53f
00000070: 5ed3 53bf a207 cb3d 35dc 373e 85b7 f43e
00000080: e6b3 cbbc f65e 53bf 9867 a9bf c979 73bf
00000090: 4b10 f7bc d831 8dbf 0392 9bbd a7ac 11bf
000000a0: c483 f23f 5ca0 d8be 2284 30be 69ff a63c
000000b0: 5c3f eebe e63a c23c fe3f 0dbe 10ec 94bd
000000c0: 22d0 f4bd 0088 e0bd a81f a5bf 1092 00bf
000000d0: 3ac0 763c 9d93 b1bd 032c d33e 6440 0b3f
000000e0: 20ca 3fbd c2cc c1be fa74 0ebe 2674 463e
000000f0: 988b 1fbc 0a89 8d3e 3391 de3e da3c c23e
0.22300875 -0.83599985 -0.9565416 -0.024499303 -2.1811562 0.37119868 -0.06364031 0.45567384
-0.035589784 -0.88074374 -0.08236438 -0.034220364 -0.07133378 -0.28220508 -0.07290876 -0.07255047
0.14494395 -0.0039948225 0.21914786 0.055521965 -0.08476272 -1.407328 -0.16761565 0.06696239
-1.1365888 -0.06905241 -0.0069578015 1.4213532 -0.82744396 0.09913565 0.17955096 0.47796264
-0.024866056 -0.82566774 -1.3234739 -0.95107704 -0.030159136 -1.1030836 -0.07596209 -0.5690407
1.8946462 -0.42309844 -0.17237905 0.02038546 -0.46532714 0.023709726 -0.13793942 -0.07271588
-0.11953761 -0.1096344 -1.2900286 -0.50222874 0.015060479 -0.08670733 0.41244516 0.5439513
-0.04682362 -0.3785153 -0.1391181 0.19380245 -0.009737872 0.27643615 0.43470153 0.3793705

fc1.bias f4 [64]
00000000: 36e2 76bf a3f8 ebbe cfa5 cdbe 3b72 83bd
00000010: 7e30 3cbf 70e4 9bbf f620 38be f2cc babf
00000020: fc4c 1dbd 8474 48bf f6c9 b9bd a3f8 c0bd
00000030: 5356 07be 97d2 64be ae15 6dbf e18c 61be
00000040: e2ff 33bf 8327 41bf 1ee6 36bf 05b3 22bf
00000050: c841 11be 5b00 1abf 5294 63bf 2832 a5be
00000060: 1899 f1be 6fd4 8dbd d6f2 7abd 078b eebe
00000070: cc03 473f 49a0 adbe e382 44bf 1487 dbbf
00000080: 724d 70bd ac7a c3be 83d4 e9be bb5e 3ebf
00000090: b504 ebbd 6173 fdbe a234 37be 08bd c5be
000000a0: 9edd 11bf c0b5 59bf 02bd bfbe d23e b4bd
000000b0: 1281 acbe 949e d5bd 7530 2bbe 9e68 b4bd
000000c0: 2b4c 07be 72e0 29bf ddf2 223e 868c b9be
000000d0: ec8d 94bd 6c67 50be 91aa e1bf 5db3 dabf
000000e0: 50d2 1abf 6c71 b2be 8f80 0fbe 1abf 3ebf
000000f0: 9ad4 b0bd b2a0 78bf 53d8 c2bf 29f8 a2bf
-0.9643892 -0.46088132 -0.40165564 -0.06418272 -0.73511493 -1.2179089 -0.17981324 -1.4593794
-0.038403496 -0.7830279 -0.09071724 -0.09422424 -0.13216524 -0.22345959 -0.92611206 -0.22026397
-0.7031232 -0.75450915 -0.7144488 -0.6355441 -0.1418525 -0.6015679 -0.88898194 -0.3226483
-0.47187114 -0.06925284 -0.061266743 -0.46590444 0.7774017 -0.3391135 -0.7676222 -1.7150598
-0.058667608 -0.3817953 -0.45669946 -0.743633 -0.11475507 -0.4950209 -0.17891172 -0.38620782
-0.56978786 -0.85042953 -0.3744889 -0.088010445 -0.33692223 -0.10430637 -0.16717704 -0.08809017
-0.1321265 -0.663581 0.15912957 -0.36240023 -0.07253632 -0.20351952 -1.7630178 -1.7085987
-0.6047716 -0.3485216 -0.14013885 -0.7451035 -0.086343005 -0.971202 -1.5222267 -1.2731982

fc2.weight f4 [64, 64]
00000000: f07f 933d 7512 303c 2e6b 38be 39aa 69be
00000010: f078 af3d aaa3 a93d 6fea 81bd e792 c4bb
00000020: 76ca bbbd ed5a 69bd 2f83 0dbf c4c9 19be
00000030: d611 babe 5159 21be 70ea 9cbd a4c0 dabd
00000040: 3075 1e3d a8de e7bc d3b8 c1bd ca5e 3abd
00000050: f03f 13bd 7b9b 523d e463 2dbd 7c0c 95bc
00000060: 4438 92bd d80b 54be 63a4 0dbf 08c4 a4bd
00000070: cb1c 05be 2ef0 ffbe 1a02 b63d b345 03be
00000080: 73bf 0fbf 4baa 953c 67f0 dc3c fed9 843d
00000090: dd6a 24bf c6cc 7ebe 4e63 bebe f8b8 19be
000000a0: a305 43be 8059 69bd 6a5f 00bf f35f 08be
000000b0: 201a d8bd 896b a2be d4a8 e53d 5df5 68be
000000c0: 23cd 81bd 606e 823b 52b6 f7bd 408e 5abd
000000d0: 0529 e0be e441 13be 3c8b dcbd f044 cabc
000000e0: ec1d a5bd 59fb b53d 43d7 04bf 2e8c c7bd
000000f0: 279f 43bd 7451 19be 1833 373d 7042 1dbe
00000100: 4cab 19be d4a0 5ebe e4f3 5fbe 1fad 0cbe
00000110: 61d2 24be 677b 0abd a063 2b3e ad78 23be
00000120: 8e0d 853c 8830 17bf 3935 703d 9416 5bbd
00000130: 954f f73c 4b8f 4dbe f080 1fbc f6d0 7c3e
00000140: 0813 ae3c d45a 713d 84e0 d0bd 73ea 8cbd
00000150: ea99 793e af85 973a 7a32 df3d 185c 10bc
00000160: 9a5f b7be 0faa 06be c25d b9bd 0c52 d23d
00000170: 576c 46be 351d 29be 1e1d 0bbc cddf 63be
00000180: b666 3cbe 0a8b 3cbe e39b 04be 4311 0cbe
00000190: b03b 1bbe d546 6dbe 729f 33be 9e82 78be
000001a0: fbd6 06be 8823 dabc c570 acbe b8c6 de3d
000001b0: 245c 58be 8747 0fbe 3f5e 49be 370a c13d
000001c0: 8b73 c2bc c065 33bc 618f 2bbd ec3c ee3b
000001d0: ebc7 c2be e399 153e a3e7 87be 22f1 7bbe
000001e0: 9e6a aabd 0a0a c53b 37ed 89be 5f75 8e3d
000001f0: 47c1 02be fe45 33bd 89c2 a0bd 1305 47be
00000200: 1bd6 8fbe 6032 05bf 6060 efbf 59bf a6bd
00000210: 84e3 e3bf a1d7 60be ef86 c33d 76e8 36bf
00000220: 611c fa3d c2a6 19c0 0f46 9f3d 2480 92bd
00000230: 63f2 d93d 9511 493f d4ce 103d e69c 7a3e
00000240: 0891 f33c 0455 d43d 7a25 bcbe 4e12 7fbe
00000250: 7915 ee3d 909c 10c0 808b 72bd 74e4 373f
00000260: 6cca e7bf ba48 cc3d 7995 fa3c 8cd3 30bf
00000270: a2f2 643e 6522 6bbe 851a 71bd b36d cdbe
00000280: 4f8c 8c3e 84db a0be c1e1 56bf a9d1 01c0
00000290: 7028 993e b26a 22c0 a6f1 083e 8fbe 4c3f
000002a0: 0872 f2bf 05a0 e13a 6328 113e 3e36 ff3b
000002b0: 06a9 303f db7b 1dbe 158d f33e fdeb 683b
000002c0: 2577 b93e c46b 43bd 0802 3bbe fb53 2b3f
000002d0: bbfd 8b3e dc05 a03e 2e9c 34bf 9fa9 17bf
000002e0: ceaa f0bd f128 34bd 1e83 ba3e 53a7 06be
000002f0: c6ee 093f e394 81be 85b4 68bd 235b d4be
00000300: 64a2 1ebe 130c 0abe f07f d9bd 5fc5 09be
00000310: 90ab 553d 22f8 3ebe 0543 64be d0af 5dbd
00000320: 3854 56be 05a6 e0bd c8c6 d8bc d45b 9dba
00000330: a0ac e33c 71cd 63be 8073 8e3a 82e7 3abe
00000340: 622f 8fbd 8203 90bd b463 57bd e258 f2bd
00000350: 2d8c 66be ac71 b4bd 6c1a d4bd 7cba 11bd
00000360: a828 1dbe c08c 14be 5228 febd 785f 91be
00000370: 58b1 47be 816b 25be 9004 d33d 5447 96bd
00000380: 9747 09be 8796 06be ab96 05bc 6174 7c3b
00000390: 4baf d03c 5393 013e fab8 f2bc c4a3 17be
000003a0: a106 2ebe 6ccc fabd 231a cabc 60aa 5abd
000003b0: 994e e5bd 34ec 93bd 0c84 52be 4289 38be
000003c0: a657 f8bd 1042 cfbc bb8d 4dbe f235 f6bd
000003d0: 7a06 bdbd 6600 39be dbd4 8abd d12e a6bd
000003e0: c0d3 3cbd 8267 073d aae2 30bd 3acc 74bb
000003f0: 1077 1bbe 1521 2cbe fac7 bcbd d615 f1bd
0.072021365 0.010746588 -0.18009636 -0.22818841 0.08567989 0.082831696 -0.06343543 -0.0059989574
-0.09169476 -0.05697148 -0.55278295 -0.15018374 -0.36341733 -0.15756728 -0.07661903 -0.106812745
0.038685977 -0.028304413 -0.094590805 -0.045500554 -0.035949647 0.05141781 -0.04233159 -0.01819443
-0.07139638 -0.20707643 -0.5532896 -0.080452025 -0.12999265 -0.4998793 0.088871196 -0.12819557
-0.56151503 0.018269679 0.026970102 0.06486891 -0.6422556 -0.24882802 -0.37185138 -0.15011966
-0.19045119 -0.05697012 -0.5014559 -0.13317852 -0.10551858 -0.31722668 0.11213842 -0.22749849
-0.06337955 0.003980443 -0.12095322 -0.053358316 -0.43781295 -0.14380604 -0.10768744 -0.024691075
-0.08062348 0.088858314 -0.51890963 -0.09743534 -0.0477592 -0.14972478 0.04472646 -0.15357375
-0.15006751 -0.21741039 -0.2187038 -0.13737915 -0.16095878 -0.033809092 0.16737223 -0.15964003
0.016241815 -0.5905843 0.058644507 -0.05348833 0.030189315 -0.20074193 -0.009735331 0.24689087
0.02124931 0.05892451 -0.10199073 -0.06880655 0.2437512 0.0011560227 0.108982995 -0.008811019
-0.35815126 -0.1315081 -0.09051086 0.102695554 -0.19377266 -0.16515048 -0.008490829 -0.22253342
-0.18398556 -0.18412414 -0.12950091 -0.1367846 -0.15159488 -0.23171552 -0.17541292 -0.24268577
-0.13167946 -0.02662827 -0.33679786 0.10877746 -0.21128899 -0.1399213 -0.19664858 0.094257765
-0.023736736 -0.010949552 -0.041884784 0.007270446 -0.3804315 0.14609484 -0.26543912 -0.24603704
-0.08321117 0.0060131596 -0.26938793 0.069559805 -0.12769042 -0.04376792 -0.07849605 -0.1943553
-0.28093037 -0.5202999 -1.8701286 -0.081419654 -1.7803807 -0.21957256 0.09547221 -0.7144846
0.12212444 -2.400803 0.077770345 -0.07153347 0.10641935 0.78542453 0.035353497 0.24473915
0.029732242 0.10367778 -0.36747342 -0.24909326 0.11625189 -2.2595558 -0.05921507 0.71832967
-1.8108649 0.09974809 0.030588852 -0.69072795 0.22358182 -0.22962339 -0.05886318 -0.40122756
0.27450797 -0.31417477 -0.83938223 -2.0284216 0.29913664 -2.5377622 0.13373432 0.7997827
-1.894105 0.0017213827 0.14175563 0.0077884486 0.6900791 -0.15379278 0.47568575 0.003554105
0.36223713 -0.047710195 -0.18262494 0.6692502 0.27342018 0.3125447 -0.7055081 -0.59243196
-0.117513284 -0.043984357 0.3642816 -0.13149767 0.53879964 -0.25308904 -0.05681278 -0.41475782
-0.15491635 -0.13481168 -0.10620105 -0.13454197 0.052165568 -0.18649343 -0.22291191 -0.054122746
-0.20930564 -0.10969166 -0.026461974 -0.0012005516 0.027792275 -0.22246338 0.0010868162 -0.18252376
-0.069914594 -0.07031919 -0.05258532 -0.11833359 -0.2251441 -0.08810744 -0.10356602 -0.035578236
-0.1534754 -0.14506817 -0.12410034 -0.2839315 -0.19501245 -0.1615429 0.103036046 -0.073378235
-0.13406216 -0.13143359 -0.008153598 0.0038521516 0.025474211 0.12653856 -0.02962922 -0.14808565
-0.16994716 -0.12246022 -0.024670666 -0.05338514 -0.11196632 -0.072227865 -0.20558184 -0.1802111
-0.121260926 -0.025300056 -0.20073597 -0.12022008 -0.09229751 -0.18066558 -0.0677888 -0.08114398
-0.046100378 0.033057697 -0.043184914 -0.0037353174 -0.15182137 -0.16809495 -0.0921783 -0.11771743

fc2.bias f4 [64]
00000000: 590c afbe b7ae 89be 9170 7a3f 0653 72be
00000010: 320c 83be 149e d3bd b2fd b5be 405a 92be
00000020: 0f9f 8cbe 542a 203c 9115 65be 4d37 e4bd
00000030: 0868 94be 30a7 95bf def8 533f a38e 41be
00000040: 1b20 053f 540e 93be b51c a7be c178 a8bd
00000050: 10d3 54be ed72 25be 6d9f 68be be32 b1bd
00000060: ab0f 8fbd 1837 12be 1a6c 77be 14b6 85bd
00000070: 9872 9fbe bb6e cebd 9b1c 41be 76a8 b0be
00000080: f6b6 15bf 69a3 edbd 55c3 303f bb07 a83f
00000090: 23e3 bd3d b0a0 5fbd 39ae e0be abdd 0ebe
000000a0: 7abf 9d3f 3caa 1bbe dbe7 4bbc 578c c9bd
000000b0: 5739 02be 9ba2 09be d2da 33bf 8ed8 38be
000000c0: 8bba 4bbf c256 40be 8607 f0bd 3a93 31be
000000d0: 80c7 723f ae72 bdbe 14ab d5bd 2f63 4abd
000000e0: b666 fcbd 1b70 87be a749 cbbd e12f e4bd
000000f0: e4cb 95be 4999 6abe a223 7ebe c413 56be
-0.34189108 -0.2689111 0.9782801 -0.23664483 -0.25595242 -0.103328854 -0.35545117 -0.2858448
-0.27465102 0.009775717 -0.22371508 -0.1114336 -0.2898562 -1.1691647 0.82801616 -0.18902068
0.52002114 -0.2872187 -0.3263909 -0.08226157 -0.20783639 -0.16157122 -0.22717066 -0.086522564
-0.0698541 -0.14278829 -0.24162331 -0.06528869 -0.31142116 -0.10079714 -0.18858568 -0.34503525
-0.584823 -0.11603434 0.69048053 1.3127359 0.092718385 -0.054596603 -0.4388292 -0.13951747
1.2324059 -0.15201658 -0.012445415 -0.09841221 -0.12717186 -0.13440935 -0.7025577 -0.18051359
-0.79581517 -0.18783095 -0.11720185 -0.17341319 0.9483566 -0.37001556 -0.10433021 -0.049410995
-0.12324278 -0.26452717 -0.099261574 -0.11141945 -0.2925712 -0.22910036 -0.2481828 -0.20905977
