maddpg_pytorch/models/cache_data/model/run51/incremental/model_ep12001.pt (torch, 690099 bytes, 168 tensors)

fc1.weight f4 [64, 1]
000000 a6 d3 2a 3f 97 26 bf be 17 8f 63 be 78 22 f3 be
       0.667292 -0.3733413 -0.22222553 -0.47487235
000010 f4 41 cb bf 2c d1 17 3f 27 b9 a1 bd 22 a0 f2 3e
       -1.5879502 0.59303546 -0.07896643 0.47387797
000020 88 ad 94 bc 37 e9 92 3d 45 e1 8b bd 42 70 15 3c
       -0.018149152 0.071733885 -0.06830076 0.009121003
000030 ad 7f 21 3d eb 7d 99 3d 30 51 95 bd e3 04 c2 bc
       0.0394284 0.0749472 -0.07290876 -0.02368397
000040 30 6c 14 3e 00 e7 82 bb 90 6c 22 be 0e 7b 80 3d
       0.14494395 -0.0039948225 -0.15861726 0.06273471
000050 e5 eb 97 bd 16 35 ad be 70 a3 2b be 1f 09 b0 be
       -0.0741804 -0.33829564 -0.16761565 -0.3438196
000060 f0 13 a2 bf 91 2c b0 be 95 e5 9f 3a 9c 6b 89 3e
       -1.2662334 -0.34409 0.0012199158 0.26839912
000070 97 cc d6 bf 26 e3 9c bd d0 27 47 3d b5 57 32 3e
       -1.6781186 -0.076605126 0.048621953 0.1741627
000080 ec 83 31 be bb f8 08 c0 ba c8 33 bf fc c5 66 bd
       -0.1733548 -2.1401813 -0.7022816 -0.056341156
000090 6b b6 ee bc 0a 45 3c 3d 58 5a 61 bd 4c 60 90 be
       -0.029139718 0.04596428 -0.0550178 -0.2819847
0000a0 33 72 56 3e 5c a0 d8 be 5b 02 1b be d4 4c 7d bd
       0.20942001 -0.42309844 -0.15137617 -0.061840847
0000b0 1a f3 b2 3d aa c5 6d bd 7c 36 ff bf fe ee 96 bf
       0.08737774 -0.058049835 -1.9938502 -1.1791685
0000c0 c5 48 ec be 00 88 e0 bd f7 f2 34 bf 08 cc f7 bf
       -0.4614927 -0.1096344 -0.70683235 -1.935914
0000d0 83 f5 43 3c a9 a9 60 bc 16 1a db 3d e9 f9 97 3e
       0.01196039 -0.013712325 0.10698335 0.29682854
0000e0 20 ca 3f bd 9d 74 02 c0 bc b1 b8 bd bf 09 f5 3d
       -0.04682362 -2.0383675 -0.09018275 0.119647495
0000f0 f7 97 ff bd 10 69 f4 3e ce 37 5f 3e 77 7f 73 3c
       -0.12480157 0.47736406 0.21798632 0.014861933

fc1.bias f4 [64]
000000 8b b9 e0 bf c2 40 17 bf fc 85 e8 be ad 78 50 bf
       -1.7556623 -0.5908319 -0.45414722 -0.81434137
000010 f0 d1 8d bf 6c ea c3 bf b3 06 20 be e5 07 c3 3e
       -1.1079693 -1.5305915 -0.15627556 0.3809196
000020 5a 0c a8 bd 4c ac be be 8d 71 f0 bd 13 99 30 be
       -0.08205481 -0.37240827 -0.11740408 -0.17245893
000030 2a fc be 3f 41 98 1f bf ae 15 6d bf 3f 87 d7 bd
       1.4920704 -0.62341696 -0.92611206 -0.10523843
000040 e2 ff 33 bf 80 27 41 bf ef 06 ca be 58 87 91 be
       -0.7031232 -0.754509 -0.39458415 -0.28423572
000050 fa d5 1f be 0d 45 58 bf 52 94 63 bf a0 8c f5 be
       -0.1560897 -0.84480363 -0.88898194 -0.4795885
000060 d6 e1 48 bf 9b 1f fd be a8 0a a7 bc ea 14 fc bf
       -0.784696 -0.49438176 -0.020390823 -1.9693882
000070 a6 1c 20 3f e6 64 e2 be 82 9c 89 be 8a 35 56 bf
       0.62543714 -0.44217604 -0.26877218 -0.83675444
000080 75 5c 7d be 3d 09 6d be 99 43 e9 bf 91 d8 3a bf
       -0.24742301 -0.23148055 -1.8223754 -0.72986704
000090 47 a8 90 be 53 6b 08 bf 38 30 12 be 97 54 19 bf
       -0.28253385 -0.53288764 -0.14276206 -0.598947
0000a0 18 5f 7b bf c0 b5 59 bf 94 be 88 be a9 be 1e be
       -0.98191977 -0.85042953 -0.267079 -0.15502419
0000b0 1e 59 0f bf 13 e6 40 be cf 5d 98 3d 7d 5f 24 3d
       -0.5599536 -0.18837766 0.074397676 0.040130127
0000c0 65 d1 26 bf 72 e0 29 bf 76 e0 87 bf 0a 1a 9a 3e
       -0.6516326 -0.663581 -1.0615375 0.3009799
0000d0 f8 b4 de bd 38 f7 eb bc 4c 01 ed bf 30 c9 cb bf
       -0.10874361 -0.028804407 -1.8516021 -1.5920773
0000e0 50 d2 1a bf 6c 14 ac be 64 1a 84 be 2a 61 03 bf
       -0.6047716 -0.3360933 -0.25801384 -0.51320136
0000f0 31 5b 47 be 3f 68 13 c0 cd f8 e4 bf 2e e3 48 be
       -0.1946838 -2.3032377 -1.7888428 -0.19617912

fc2.weight f4 [64, 64]
000000 c7 ff b5 bd 96 95 b6 3e d1 18 98 bc fb d6 23 bd
       -0.08886676 0.35661 -0.01856652 -0.039999943
000010 e3 68 85 3e fd cb 6e bd 8a 41 b3 bc 12 6e e8 bb
       0.26056585 -0.058300007 -0.021881837 -0.0070931995
000020 67 e2 01 be 3f 84 eb 3d d6 db 93 be b7 55 fe bd
       -0.12684022 0.11499833 -0.2887866 -0.124186926
000030 44 33 34 3c 11 dc 8e bd 70 ea 9c bd 43 32 8b bd
       0.010998551 -0.06975568 -0.07661903 -0.06796696
000040 30 75 1e 3d a8 de e7 bc a9 97 03 bf b2 8b 5d bd
       0.038685977 -0.028304413 -0.5140329 -0.054088302
000050 d1 f1 9d bc 06 c0 9d 3e e4 63 2d bd 5c a9 82 bd
       -0.019280346 0.30810565 -0.04233159 -0.06379959
000060 66 02 7e bd 71 22 b0 3d d8 ac a2 be 46 9c 70 be
       -0.062014006 0.08600319 -0.31772494 -0.23497114
000070 c6 af 81 bc 5e 8a 8d be e8 3a 89 be 12 c8 33 be
       -0.015830886 -0.27644628 -0.26802754 -0.1755679
000080 85 1f b1 be 17 0a 98 3d 04 f0 8f 3e 8d cb 0a bd
       -0.3459436 0.074237995 0.28112805 -0.033885527
000090 dc 0b 93 be 34 64 31 3e 1a 2b 59 be 7a 02 85 be
       -0.28719985 0.1732338 -0.21207848 -0.25978452
0000a0 d7 84 81 be 80 59 69 bd 01 1a 9d be 7c f0 d1 3d
       -0.2529666 -0.05697012 -0.30683902 0.10250947
0000b0 37 6a 43 be bf 01 04 be 44 56 0f bd b6 38 e9 bd
       -0.19083486 -0.12891291 -0.03499438 -0.1138777
0000c0 21 28 b8 bd 60 6e 82 3b 90 37 6e 3d 7a 1c 1e be
       -0.08992029 0.003980443 0.058158457 -0.1544055
0000d0 c5 a7 8a be ed 9e e8 bd 0a 1e 7e be ed 0b 28 be
       -0.27081123 -0.11358438 -0.24816146 -0.164108
0000e0 ec 1d a5 bd c1 65 05 3e ff fd b1 be ec c4 0e bf
       -0.08062348 0.13027097 -0.34764096 -0.5576923
0000f0 11 e3 31 be 78 0a 5e be 0f 68 e5 bd 57 05 3e bf
       -0.17371775 -0.21683681 -0.11201488 -0.742269
000100 65 f9 f2 bd 03 cc ef bd 3e 16 0a bd 0a 64 17 be
       -0.118639745 -0.11708834 -0.033712618 -0.14784256
000110 3c 70 70 3d 26 d4 a6 3c 21 a9 69 3d 2d fb 16 be
       0.058700785 0.020364832 0.05704606 -0.14744253
000120 7a 44 02 be 14 4b bd bd 2b 67 9e bc 74 5b dd bd
       -0.12721434 -0.09242836 -0.019336304 -0.10808459
000130 9c 49 94 bc 06 55 d0 bd f0 80 1f bc af 10 3f be
       -0.018101506 -0.10172467 -0.009735331 -0.18658708
000140 08 13 ae 3c d4 5a 71 3d 51 7e 23 bd 67 35 b2 bc
       0.02124931 0.05892451 -0.039915387 -0.02175398
000150 48 80 39 be 6e 81 ba 3d 7a 32 df 3d 1a 65 1a 3d
       -0.18115342 0.09106718 0.108982995 0.037694074
000160 57 40 03 bd 16 53 28 be 31 df 13 be a3 0b 4e 3d
       -0.03204378 -0.16437945 -0.1444061 0.050304066
000170 f4 f5 60 be 4d dd ce bb be fc 20 be ab 99 17 be
       -0.21968824 -0.006313002 -0.15721413 -0.14804713
000180 4c 53 ae bd 99 6f 5b be a3 9e 1c be e8 3c ba 3d
       -0.08511981 -0.2142929 -0.1529489 0.09093648
000190 22 50 66 3c 0c 1d f2 3d 68 c9 fd bd 3e 8a 55 be
       0.014057191 0.118219465 -0.12391931 -0.20853516
0001a0 4b 2d 81 3d 88 23 da bc 18 c1 5d be e1 a6 e6 bc
       0.06307467 -0.02662827 -0.2165569 -0.028155746
0001b0 c4 ba 40 be 27 32 b6 3c 63 dd 3c bd 43 7e 8c be
       -0.18821245 0.022240711 -0.04610957 -0.2744008
0001c0 0d cd 91 be c0 65 33 bc da 2b 93 bd 84 87 8f bd
       -0.28476754 -0.010949552 -0.071860984 -0.070082694
0001d0 56 99 57 be 34 c5 7d bd 87 c0 35 be 00 e3 17 be
       -0.21054587 -0.061955646 -0.17749225 -0.14832687
0001e0 9e 6a aa bd 24 36 b0 bc 6a e7 3d bd 0d f1 d0 bd
       -0.08321117 -0.021510191 -0.04636327 -0.10202227
0001f0 06 e6 d9 bd b6 43 8a bb 54 09 38 bd e3 06 fb bd
       -0.106395766 -0.0042194976 -0.04493077 -0.12257173
000200 05 16 a6 be 38 5f 9d 3d c0 62 ed bb 46 98 c2 bd
       -0.32438675 0.07684177 -0.007244438 -0.095017
000210 86 a3 e8 3d c1 ab e1 3c 68 8a f8 bd d6 25 8c be
       0.113593146 0.027547719 -0.12135774 -0.27372617
000220 01 99 3f bd 00 0d aa bd 99 39 23 bc 77 c7 2f be
       -0.046776775 -0.08303261 -0.009962463 -0.17165934
000230 8a a7 14 3d ba 93 a4 bd d4 ce 10 3d bf 19 18 bd
       0.03629259 -0.08035989 0.035353497 -0.03713393
000240 08 91 f3 3c 04 55 d4 3d 42 81 06 be 6c ab 08 be
       0.029732242 0.10367778 -0.13135245 -0.13346642
000250 27 44 27 be 40 19 a8 bb 80 8b 72 bd f4 75 46 bd
       -0.16334592 -0.005129963 -0.05921507 -0.048452333
000260 20 eb d1 bc 1d dc 13 bd 3b ec ed 3c bf cc 36 bd
       -0.025624812 -0.03609859 0.029043308 -0.044628855
000270 90 ef 24 bd a6 3c 10 be 82 df 42 be 88 d2 cd 3c
       -0.040267527 -0.14085636 -0.19030574 0.025124803
000280 6a 5c d2 bd 18 b3 ce 3c 00 84 97 3b f0 23 a3 bd
       -0.10271533 0.025231883 0.00462389 -0.07965839
000290 bd af 0c bc 9a 77 8f 3d e7 df 94 bd 62 7b 91 bd
       -0.008586821 0.07005234 -0.072692685 -0.071036115
0002a0 d8 98 08 be 00 a0 e1 3a e7 f4 19 be fe a6 18 be
       -0.13339555 0.0017213821 -0.15034829 -0.14907452
0002b0 40 bf 98 bc ac 9a ec bd 50 5f fb 3c 3a 08 e3 bd
       -0.018645883 -0.11552939 0.030685097 -0.110855535
0002c0 01 8a a2 bd c4 6b 43 bd c4 f2 e9 bd 25 d9 57 3d
       -0.079364784 -0.047710195 -0.11423257 0.05269732
0002d0 6a 19 60 bd bb e4 80 3d bf 98 ce bd 47 5a e6 bd
       -0.054711737 0.06293627 -0.10087728 -0.11247688
0002e0 cc aa f0 bd 54 5c 42 bd fe 62 55 3b 5c 8a 52 be
       -0.11751327 -0.047451332 0.0032560225 -0.20560592
0002f0 74 14 33 bd ec 25 8d bb 51 ae 2a bc 29 8b 09 bd
       -0.043720677 -0.004307499 -0.010417537 -0.03357998
000300 31 2a 2a be c8 bf 65 bd 05 80 0c be c7 fe 14 be
       -0.16617657 -0.0560911 -0.1372071 -0.14550315
000310 90 ab 55 3d 7e 3b 3c be 85 b7 26 be 79 86 a3 bd
       0.052165568 -0.1838207 -0.16280945 -0.07984633
000320 e1 6f 39 be c6 20 d7 bd 12 ed 0b bd f1 3d 6f bd
       -0.18109085 -0.10504298 -0.034161635 -0.05840868
000330 2e 49 b0 3b 71 86 6b be 80 73 8e 3a c8 2d fb bd
       0.0053798174 -0.23000504 0.0010868162 -0.122645915
000340 62 2f 8f bd 82 03 90 bd 99 09 90 bd 24 97 cf bd
       -0.069914594 -0.07031919 -0.070330806 -0.1013625
000350 3d 09 3c be ac 71 b4 bd 6c 1a d4 bd 13 85 18 3c
       -0.18362899 -0.08810744 -0.10356602 0.009309071
000360 05 d8 a4 bd 4c 8b ef bd 33 63 18 be f8 15 4a be
       -0.08049015 -0.11696491 -0.14881591 -0.19734943
000370 9e 35 5f be 1b 7b 36 be 65 bc 54 bd 82 c4 a7 bd
       -0.21797797 -0.17820399 -0.05193748 -0.08191778
000380 30 cb 16 be d4 ac 1f be 4e 89 a3 3d 46 89 b8 3d
       -0.14725947 -0.15593272 0.07985173 0.09010558
000390 6b 13 a6 3c 70 5a 15 3d b9 95 27 bd e0 e0 20 be
       0.020272931 0.0364632 -0.04091427 -0.15710783
0003a0 a4 42 38 be 6c cc fa bd c8 28 c6 bc d2 39 0d be
       -0.17994171 -0.12246022 -0.024189368 -0.13791588
0003b0 99 19 bf bd fe 65 ca bd 44 46 7c be 6a d7 1c be
       -0.09331054 -0.09882735 -0.24636179 -0.15316549
0003c0 3a 45 45 bd 10 42 cf bc ac c5 5d be 7a 17 a2 bd
       -0.048161723 -0.025300056 -0.21657437 -0.07914634
0003d0 b6 74 c1 bd 27 bd 03 be 30 42 79 bd fe 69 b4 bd
       -0.09446089 -0.12865125 -0.060854137 -0.08809279
0003e0 c0 d3 3c bd 1d 65 4f 3b 92 6b 13 bd d4 b5 0f be
       -0.046100378 0.0031645962 -0.03599126 -0.14034206
0003f0 01 e5 29 be 59 44 64 be 02 1c 4c bd fe 93 0e be
       -0.16591264 -0.22291698 -0.049831398 -0.13923642

fc2.bias f4 [64]
000000 a5 38 31 bf 5f 67 05 be 9b b3 fc be 92 38 19 be
       -0.6922706 -0.13027714 -0.49355778 -0.14962986
000010 ad 53 8f be 29 fd 4c bd d2 83 81 bf 35 52 70 bf
       -0.27993527 -0.05004612 -1.0118353 -0.9387544
000020 51 a1 ae be 64 d7 8d 3f f7 b7 11 be cc 6f 44 be
       -0.3410745 1.1081357 -0.14230333 -0.19183272
000030 55 f9 51 be 51 f6 29 be 30 02 25 bf 6a a7 23 be
       -0.20505269 -0.16597869 -0.6445646 -0.15981832
000040 f4 79 c7 bd 8d cc 0b be ae 9b 49 be 6a 26 96 be
       -0.097400576 -0.13652249 -0.19688293 -0.29326183
000050 f1 fb 0c 3f 1a 87 a1 3e 68 39 35 be 0d a5 de 3f
       0.5507193 0.31548387 -0.1769768 1.739412
000060 32 2f 37 bd 55 1c cb be 74 1e 94 bd 49 f3 8b be
       -0.044722743 -0.39670053 -0.07232371 -0.2733405
000070 b5 4d 4e be 05 1d d3 be 2c 9e 87 be 15 3d 27 be
       -0.2014683 -0.41233078 -0.26487863 -0.16331895
000080 17 46 01 bf 03 91 4d be 46 1f 01 bc 0f 12 ba bd
       -0.50497574 -0.20074849 -0.007880991 -0.09085476
000090 d5 9f a5 be 99 ea b5 be 08 ac 10 be 03 64 27 c0
       -0.32348505 -0.35530546 -0.14128125 -2.6154792
0000a0 cd 24 65 be 19 46 1b be 06 58 a2 be a4 a5 29 bf
       -0.2237732 -0.15163459 -0.31707782 -0.6626837
0000b0 2e 1d 5d 3f 86 79 6f be fe 0a f6 bd de 44 4c bf
       0.8637265 -0.23386201 -0.12013815 -0.79792583
0000c0 88 f5 c9 be 2c 72 cd be 5f ef f7 bd 56 08 48 be
       -0.39445138 -0.4012617 -0.12106203 -0.1953443
0000d0 18 b8 aa be 12 f8 26 bf 7f d7 4f be 6c 5b b4 be
       -0.33343577 -0.65222275 -0.20297049 -0.35226
0000e0 f0 e1 50 be 5f 52 33 bc ba dd d9 bd 16 67 e2 bd
       -0.20398688 -0.010944932 -0.10637994 -0.11054818
0000f0 71 f8 9d be f5 ee 12 bf d2 d5 ed bc 9e 81 97 3e
       -0.30853608 -0.5739587 -0.029032622 0.29591078

fc3.weight f4 [32, 64]
000000 de dc a8 bc e5 22 7c 3d 2d 40 ed 3d 6a 2e 10 be
       -0.02061313 0.061556716 0.11584506 -0.14080206
000010 1f 70 8b be 99 15 d6 3c 52 88 c2 bc 55 07 28 bf
       -0.2723398 0.026133345 -0.023746643 -0.6563619
000020 e7 73 ff be c1 27 00 40 d2 44 d0 3d d8 56 50 3e
       -0.49893114 2.0024264 0.101693764 0.20345628
000030 2c 43 78 be e7 d3 88 bd 7f 2d 88 40 97 f8 8c bc
       -0.24244374 -0.06681042 4.2555537 -0.01720838
000040 c2 fa 81 3e 90 b8 96 3b 17 36 93 be 37 9c 83 be
       0.25386626 0.0045996383 -0.28752205 -0.2570512
000050 f5 20 05 40 06 ed 54 bf 55 fa ad 3d 24 d5 b2 3f
       2.0801365 -0.8317417 0.08495013 1.3971295
000060 1d 20 3d bd 98 b3 5a bb 3e b0 8a 3d 57 e7 03 bf
       -0.046173204 -0.0033371206 0.06771897 -0.5152487
000070 19 a6 d6 bc 94 e3 5a 3d 9a d0 86 bc 1b f9 11 bd
       -0.026202248 0.05343969 -0.01645689 -0.035637956
000080 bb 5e 12 be a2 dd 5f be d6 eb 00 3c 52 ec 94 be
       -0.1429395 -0.2186189 0.007868728 -0.29086548
000090 10 a7 44 3e d6 11 f0 bd 73 94 f3 3d aa df d4 3e
       0.19204354 -0.11722152 0.11893549 0.41576892
0000a0 e2 e9 69 bd db 6a d9 bc 25 3a a8 3d 57 63 1a 3f
       -0.057107814 -0.02654021 0.08214215 0.6030783
0000b0 62 f7 28 40 bd 04 40 be 5a e9 7f bd cf 09 8a 3f
       2.640099 -0.18751808 -0.0624784 1.0784243
0000c0 48 ce 4f bd c4 75 98 bd 73 04 0c be 24 17 96 bc
       -0.050733835 -0.07444337 -0.13673572 -0.018321581
0000d0 dc 8f bf 3d 99 21 06 3f b5 ef c2 bd 3c c5 63 bd
       0.09353611 0.52395016 -0.09518377 -0.05560802
0000e0 7d e0 55 bd 79 a7 54 3f ec 72 06 c0 da da 16 3d
       -0.05221604 0.83068043 -2.1007643 0.036829807
0000f0 07 f1 2a be 3a 59 3d bf c6 a4 c6 3e 3b dc 39 3f
       -0.16693507 -0.73964274 0.38797587 0.7260167
000100 28 c2 d7 be 58 e3 db 3c 1a d9 f6 3d da 8a f0 bd
       -0.42140317 0.026841804 0.120531276 -0.11745234
000110 b7 9e 47 bd 5e 1f 79 bd dc 63 79 3d 14 42 36 3e
       -0.048735347 -0.06082093 0.06088625 0.17798644
000120 89 81 3a 3f 8b 1f a7 3f 0c a4 f6 bd 4f b6 e5 bc
       0.72853905 1.3056501 -0.12043008 -0.028041033
000130 6a 0f 77 3e 26 5e 33 3d 1e ba 0b 3f 70 1a 8b bc
       0.24126974 0.04379096 0.5458087 -0.01698038
000140 b9 ac a4 3d f9 9a 9c bd 87 55 3a be cd ef 5e 3e
       0.08040757 -0.07646746 -0.18196689 0.21771164
000150 c4 99 d0 3f d8 43 32 bf a1 6e 8b bd 37 6d d7 3e
       1.6296926 -0.6963477 -0.0680821 0.42075512
000160 69 4f 0d bc 8f 5f 56 bd 33 48 bd bc 20 f5 0b bf
       -0.00862489 -0.052337226 -0.023105716 -0.54670906
000170 09 f9 6b bd 84 50 8e 3e cc 45 fd bd 9d 5f fc bd
       -0.057610545 0.27795804 -0.12366828 -0.12322924
000180 94 5d 25 be 29 14 fb bd 0e 61 72 bf 90 8b 9b be
       -0.16148978 -0.122597046 -0.94679344 -0.30379915
000190 5c 26 72 3e 76 e7 3f be 61 f9 05 3e f2 a3 eb be
       0.23647445 -0.18740639 0.13083412 -0.46023518
0001a0 5a 10 06 be 03 71 20 3e a2 e5 ec bc 31 bb 07 bf
       -0.13092175 0.1566811 -0.028918091 -0.53020006
0001b0 fd 65 0b 40 e7 47 5e bd 73 8b de 3c a7 b4 08 40
       2.1780999 -0.05426779 0.027166104 2.1360261
0001c0 58 80 ac 3d 69 75 09 bc 6f 42 d6 bc 5a 92 b5 3c
       0.08422917 -0.008389809 -0.026154725 0.022164512
0001d0 e0 8b 8d bc b4 05 6d bf e9 14 2f be bf 94 ea 3b
       -0.017278612 -0.9258683 -0.1709782 0.007158845
0001e0 70 a8 74 3e 87 c9 ab 3f 87 cb 29 bf 8d 22 74 bd
       0.23892379 1.3420876 -0.66326183 -0.059603263
0001f0 16 21 41 bf e6 a2 fa 3f 7c e2 83 3f 70 69 55 3d
       -0.7544111 1.9580963 1.0303493 0.052102506
000200 47 ba 5e bf 2e 27 d0 bd f7 39 0a be 66 2e ff 3d
       -0.87002987 -0.10163723 -0.13498674 0.12460022
000210 d6 1e 23 be a6 da 40 3c a8 cd 25 be ec 23 b1 3e
       -0.15929732 0.01177088 -0.16191733 0.3459772
000220 3b 67 3a 3f ea 4b 94 3f 9b 9f 80 bd f1 e0 7e 3e
       0.7281377 1.1585667 -0.06280442 0.24890496
000230 0b bd b9 bd af 44 39 3c 29 30 c2 bd 19 ab da bd
       -0.0906926 0.011307879 -0.09481842 -0.106771655
000240 14 88 24 bf 7a 00 00 3e 99 23 d0 bd e1 58 b9 3e
       -0.6427014 0.12500182 -0.1016304 0.36200622
000250 c4 10 a9 bf 66 73 10 bf de 6b 61 3d 25 a2 00 c0
       -1.3208241 -0.56426084 0.05503451 -2.0098965
000260 0a 44 c8 3c 78 4c aa 3d 1a 6b 42 bd 1f c0 3d bf
       0.024446506 0.083153665 -0.04746542 -0.7412128
000270 9e 2a c2 bc cf 0f 1f 3d 8b dd e4 3d 0c da 88 be
       -0.023701962 0.038833436 0.111750685 -0.26728857
000280 45 af 23 3e 5f f6 02 3e 4d 0c 02 bf 87 7d 1b 3d
       0.15984829 0.12789296 -0.5080002 0.03796151
000290 53 e2 23 be c4 4b 83 bd 27 13 1c bf ee 92 47 be
       -0.16004305 -0.064109355 -0.60966724 -0.19489643
0002a0 ff b2 87 3d 0e fd 3b be a3 08 79 3d 09 af 82 be
       0.06625938 -0.18358251 0.060799252 -0.25524166
0002b0 69 8e 82 bf 50 9a 13 3e 63 fa b7 bd e6 30 79 3f
       -1.019971 0.14414334 -0.08983304 0.9734024
0002c0 ef 16 2d be d3 dd 1b 3d 3b 6e 0a 3e a3 eb 83 bd
       -0.1690328 0.038053345 0.13518612 -0.064414285
0002d0 61 e6 02 3d f2 cf 7a 3f 83 f1 0b 3e 0c a1 38 3f
       0.031957988 0.9797355 0.13666348 0.7212074
0002e0 fe 63 46 be 2c 96 35 bf 33 19 1d bf 9a 61 d1 3c
       -0.19374081 -0.7093227 -0.61366576 0.025559235
0002f0 ae 1f 48 bf 04 fe 26 3d 76 1f ab 3f 4f 71 15 3f
       -0.7817334 0.040769592 1.3368976 0.5837602
000300 83 c8 2d bf 84 a7 dc 3c 5f 87 46 bb 20 cf 3f 3d
       -0.6788408 0.026935346 -0.003029309 0.04682839
000310 4d a3 24 bd 03 06 33 be be 0b ba bd e2 b1 86 3f
       -0.0401948 -0.17482762 -0.09084271 1.0523036
000320 24 54 55 bf 7a 84 01 3f 73 d3 ce bd b7 5d a7 be
       -0.83331513 0.5059277 -0.100989245 -0.32688686
000330 fc cf 12 3e bf a8 2f be d6 00 f3 be b6 2c 76 3d
       0.14337152 -0.17154215 -0.47461575 0.060101233
000340 ea 92 91 3d 80 d6 77 be 99 ac 2b be 79 ab b5 be
       0.071081 -0.24202919 -0.1676506 -0.35482386
000350 f8 5c 91 3f 83 fd 19 bd e7 7e 4e 3e 7b 60 ee be
       1.1356497 -0.037595283 0.20165597 -0.46557984
000360 09 3b 8d 3c 52 a2 44 3e 62 3e d0 3e c1 87 e4 3e
       0.017240064 0.19202545 0.40672594 0.44634822
000370 cd d8 1c 3e 1f 48 aa bd e1 6c cc bd 3e 19 be 3e
       0.15317078 -0.08314537 -0.099817045 0.37128633
000380 3e 74 34 bd c3 eb 5c be 55 29 3a be d4 fc 8b bf
       -0.04405617 -0.21574311 -0.1817983 -1.0936532
000390 f3 50 a2 be 4a d8 9c 3d 5c be 26 3f bd 85 b5 3e
       -0.31702384 0.07658441 0.65134215 0.35453597
0003a0 56 b7 5f 3e b8 e3 2a be 80 e2 f3 3d c7 65 90 3f
       0.21847281 -0.1668843 0.11908436 1.128106
0003b0 e1 d8 36 3f a3 57 17 3c 26 22 39 3e 3d 4e 8e 3e
       0.7142468 0.009237203 0.18079433 0.27794066
0003c0 f0 58 06 3e c7 9d ac bd de b4 d9 3d 24 8a 19 bc
       0.13119864 -0.08428531 0.10630201 -0.009371314
0003d0 fb 05 33 3e a2 e8 84 be a1 bd 77 3d 25 bf e0 be
       0.1748275 -0.25958735 0.06048358 -0.43895832
0003e0 fc b9 8c 3d 7d a1 2c bf 51 0a 3b 3e 45 16 46 3e
       0.06871411 -0.6743391 0.18265654 0.19344433
0003f0 b1 a2 e6 3e 76 07 bd 3e 26 56 0a 3f cc 68 9f be
       0.45046 0.36919755 0.540377 -0.3113464

fc3.bias f4 [32]
000000 a1 24 d5 be 7d 74 17 bf a8 76 7a 3f c9 d2 a3 bf
       -0.41629508 -0.5916212 0.97837305 -1.2798702
000010 e0 86 4d bf cd d6 c8 bf 43 6a 06 bf 7d b8 8a bf
       -0.8028393 -1.5690552 -0.5250589 -1.0837551
000020 05 22 33 3e 7b b3 af bf 35 b2 f5 be 0e e3 58 bf
       0.17493446 -1.3726648 -0.47987524 -0.8472146
000030 fc 4b 1c bf d4 79 65 bf df 88 b5 bf 1f 70 73 40
       -0.6105344 -0.8963902 -1.4182395 3.8037183
000040 44 a1 b8 be d9 5b b3 be 27 3a e1 bf c9 e6 2d c0
       -0.36060536 -0.35031012 -1.7595872 -2.717211
000050 dd f8 19 c0 c6 2e 8d 3e 7e c1 0b 40 a2 97 c8 40
       -2.4058144 0.27574748 2.1836848 6.26851
000060 5d e2 b2 bf a5 b9 d2 bf a2 d1 b7 bf d4 2b b2 40
       -1.397533 -1.6462904 -1.436085 5.56785
000070 85 86 6e bf 2e c9 d3 bf 79 14 c9 bf 1d 70 3b c0
       -0.9317401 -1.654577 -1.5709373 -2.9287179

in_fn.weight f4 [33]
000000 13 36 c4 3f a1 7f 0e 3f 17 b9 6c 3e 40 5a a5 3e
       1.5329002 0.55663496 0.23117481 0.32295418
000010 d3 f9 9f 3d ec 25 40 3d 72 bf 52 3e b1 02 b2 bd
       0.07811322 0.046911165 0.20580843 -0.086919196
000020 37 f0 49 3f d8 39 c4 3d 37 53 04 bd 41 b7 a4 3e
       0.78882164 0.09581345 -0.032305922 0.32171062
000030 a2 6f b4 be f2 17 fe bd 1c 52 8c 3e 4c fc 93 3e
       -0.3524142 -0.12406911 0.27406394 0.28903425
000040 5a f0 96 3e 50 a9 7a 3e 1b 49 b5 be eb 66 00 3e
       0.2948025 0.2447865 -0.35407338 0.1253926
000050 e7 80 5a 3d 40 a3 52 be 78 98 9c bd e9 f7 3c 3e
       0.053345587 -0.20570087 -0.076462686 0.18453945
000060 ca 32 50 3f 80 22 11 3d ee f3 10 3f 47 52 bc 3e
       0.813275 0.035433292 0.5662221 0.36781523
000070 43 78 3e 3f 6c fa d1 3e ff d2 08 3f a8 82 e8 3e
       0.74402255 0.4101137 0.53446954 0.45412183
000080 d7 ca 86 3f
       1.0530652

in_fn.bias f4 [33]
000000 32 4d 13 3e f9 39 90 3e 0f c1 ff 3d 16 ec 31 3e
       0.14384916 0.2816923 0.12487995 0.17375216
000010 e6 81 d4 3c 73 98 a0 3d 66 82 29 be 9b a4 8d 3d
       0.025940847 0.078415774 -0.1655365 0.069161616
000020 9e 78 e7 3d 26 47 81 bc f2 7d 54 bc e8 90 a9 3d
       0.11302303 -0.015780997 -0.012969481 0.08279592
000030 f9 1a 2b bd ec a5 46 ba b0 6b d3 bc 90 08 30 bd
       -0.04177377 -0.0007577825 -0.025808185 -0.042976916
000040 f4 69 19 3d d2 ee 22 3e a1 67 f3 3d e8 2f 4b bd
       0.03745456 0.15911415 0.11885 -0.049606234
000050 c5 16 8f bd 32 d1 69 3e d6 06 f4 bc ca 64 2d bd
       -0.06986765 0.22833708 -0.029788416 -0.042332448
000060 bd f5 1e 3f e3 08 71 3c e7 cc 83 3d f5 d0 36 3d
       0.62093717 0.014711591 0.064355664 0.04463287
000070 06 ff f7 3e bc dd 93 3c 66 20 93 3e 1f e0 a1 3e
       0.48436755 0.018050067 0.28735656 0.31616303
000080 c2 24 4b 3e
       0.1983824

in_fn.running_mean f4 [33]
000000 30 41 0e 40 f2 ce f8 3c 5f 5d 11 3c 60 3d b6 3b
       2.2227287 0.030372117 0.008872359 0.0055615157
000010 81 7c c9 3a f8 d9 f0 3a b5 cd 66 3b 07 10 c6 3a
       0.0015372188 0.0018375507 0.0035217826 0.0015110978
000020 0a ba 95 3c 57 de 15 3b 98 5e a8 3a 4d 6a d7 3b
       0.018277187 0.002286812 0.0012845574 0.0065739513
000030 16 f6 37 3c c8 7e 37 3b c1 0e 89 3b 00 a7 74 3b
       0.011228105 0.0027999151 0.004182667 0.0037330985
000040 3b 6b 03 3d ce ab dd 3b b6 78 bf 3b ea d7 f5 3a
       0.032084685 0.0067648655 0.0058432473 0.0018756364
000050 be 88 62 3b e9 4c 37 3b 45 c5 c2 3b 04 82 db 3b
       0.0034566368 0.0027969426 0.0059439265 0.0066988487
000060 30 b7 bf 3e 98 73 9d 3a 64 a4 3f 3d d7 aa 40 3c
       0.37444448 0.0012012599 0.046787634 0.011759481
000070 9d 58 3c 3e cd a2 a5 3c 8d 91 85 3d 2a 77 1a 3d
       0.18393178 0.020219231 0.06521902 0.0377113
000080 b5 aa b7 3d
       0.08968107

in_fn.running_var f4 [33]
000000 04 4a d6 40 05 25 f1 3c 29 d0 0f 3c 87 0d b5 3b
       6.696535 0.029436598 0.008777657 0.005525294
000010 12 d5 c8 3a b1 58 f0 3a db f9 65 3b c2 a7 c5 3a
       0.0015322289 0.0018336979 0.0035091552 0.0015079903
000020 e3 fb 92 3c 5d 81 15 3b 61 f5 a7 3a 8b dd d5 3b
       0.017942375 0.0022812702 0.0012814217 0.006526654
000030 fd c7 35 3c f6 f6 36 3b 6d 5f 88 3b 83 f3 72 3b
       0.011095044 0.0027918196 0.0041617663 0.0037071414
000040 86 73 fe 3c 43 fe db 3b a0 44 bd 3b a4 73 f5 3a
       0.031060945 0.00671366 0.005776003 0.001872648
000050 1c 58 61 3b 71 70 36 3b 6e be c0 3b 5e fa d9 3b
       0.0034384793 0.0027838016 0.005882076 0.0066521605
000060 79 62 67 3e 12 32 9d 3a cb e7 35 3d d7 5d 3e 3c
       0.22596158 0.0011993072 0.044410508 0.011619053
000070 a5 d8 17 3e 52 b6 a1 3c ed fb 75 3d af c7 13 3d
       0.14828737 0.019740257 0.06005471 0.036079105
000080 dc fa 9f 3d
       0.078115195

fc1.weight f4 [64, 33]
000000 0e ab 20 3d 7c 25 c4 be de f5 a4 bf 2a de 82 be
       0.03922563 -0.38309848 -1.2887533 -0.25560123
000010 2a 44 16 be f9 26 8b be e7 67 bf 3e e4 3e d0 be
       -0.1467444 -0.2717817 0.3738396 -0.40672982
000020 86 c1 28 3e f1 4a 41 bf e1 8c 74 bd 8a 51 11 bf
       0.16480073 -0.75504977 -0.059704665 -0.56765044
000030 23 89 4e 3e de 51 2f bc 1d 45 ff 3e 84 b9 ac 3e
       0.20169501 -0.010700671 0.49857417 0.33735287
000040 8c 4f 8d bc fc 29 23 bf e1 9b 0a be 37 c7 61 3e
       -0.017249845 -0.6373594 -0.13536026 0.2204865
000050 80 5a b7 3e f8 6f 83 be c7 b0 93 3e ef 7d 7b bc
       0.35811234 -0.25671363 0.28845808 -0.015349849
000060 50 50 96 be d2 16 4b 3e f3 8b bd 3d e0 a8 05 3e
       -0.2935815 0.19832924 0.09255209 0.13052702
000070 a3 6d c0 be b1 4f 39 3e 5d 63 b7 bd 31 15 d2 be
       -0.37583646 0.18096806 -0.08954499 -0.41031793
000080 ad 61 e1 3e 6b 1e 57 bd 6f 21 5b bd 13 e1 35 be
       0.44019833 -0.052519243 -0.05349868 -0.1776164
000090 99 c3 4d 3d 8e 6b a1 3c f6 21 38 3d 89 60 86 3d
       0.050235365 0.019704606 0.044954263 0.06561381
0000a0 49 3e 05 3b 81 ab 3f 3f 1b 0c a7 3c 82 a4 9f 3d
       0.0020331314 0.7487107 0.020391515 0.07795049
0000b0 95 c9 82 be 26 50 33 3b 75 9f 44 bd 2b c5 2a 3d
       -0.2554442 0.0027361005 -0.048003633 0.04169194
0000c0 92 91 de bd 12 91 e4 3d bf 87 e6 bd 6d fa 25 bd
       -0.10867609 0.111604825 -0.1125636 -0.040522028
0000d0 62 48 3f bb 8e 05 b0 3d f8 e3 27 bd 6e d2 31 3d
       -0.002918743 0.085948095 -0.040988892 0.043413572
0000e0 d0 73 47 be 3d cb a4 3d fb 8b 16 3e 7d 6d 61 bd
       -0.19477773 0.08046577 0.14701836 -0.055036057
0000f0 68 63 f7 bd f5 f7 c6 bb 53 68 11 3e 02 5b bd bd
       -0.12079507 -0.0060720393 0.14199953 -0.09245874
000100 97 16 ac 3c 62 9c 14 3e 51 33 57 bf ed 8f d2 be
       0.021006865 0.1451278 -0.8406268 -0.41125432
000110 85 52 93 bf 52 b4 94 bf 56 07 6a 3e d7 14 08 bf
       -1.1509558 -1.1617529 0.22854361 -0.531568
000120 64 17 0a 3f f8 7e 00 bf 41 8e 82 3d 61 57 12 3d
       0.5394194 -0.5019374 0.06374789 0.035727862
000130 e5 01 20 3d d8 80 7f bf 7e b3 80 be 7e 35 3d 3f
       0.039064307 -0.99805975 -0.25136942 0.7390975
000140 0a 87 a9 3e 2f 1a 5f 3e 78 b2 27 be a3 0f a8 bf
       0.3311084 0.21787332 -0.16376674 -1.3129772
000150 72 d7 4a be 53 59 9d 3e 36 6c ed 3d 74 5d 83 be
       -0.19808748 0.3073221 0.11592905 -0.25657237
000160 6c c2 59 3e cb 3c 0b 3e 80 06 25 3e 12 8b 15 bd
       0.21265572 0.1359741 0.16115761 -0.03650958
000170 21 d5 02 bf 3b 38 4d 3e 05 b2 3a bf 0e 00 e5 bd
       -0.5110646 0.20040981 -0.72927886 -0.11181651
000180 b8 f2 fa 3d 18 1e 2e 3d 6a ec 0c 3f af d3 fa bf
       0.12253326 0.04250917 0.5504824 -1.9595851
000190 79 f7 a8 be 31 d8 a3 be fd 90 e1 be f0 92 b6 3d
       -0.33001307 -0.32000878 -0.4405593 0.08914745
0001a0 27 17 5e 3d 71 8c 81 3e bc a1 5b be e8 be 2b 3e
       0.0542213 0.2530246 -0.21448416 0.16772044
0001b0 88 b2 a7 bd f9 ab de 3b d9 43 39 be 19 a3 74 bd
       -0.08188349 0.006795403 -0.18092288 -0.059725855
0001c0 c6 0f 4e be 18 e2 98 b9 4a 15 e7 bd 7e e1 40 3e
       -0.20123205 -0.00029160152 -0.112833574 0.18836018
0001d0 47 d1 95 3d 00 dd 86 be ba 0b 18 3f 94 5b 54 3e
       0.07315307 -0.26340485 0.59392893 0.2073806
0001e0 b2 f0 49 bc 05 a3 8f be 4f 25 4d 3e 4d e0 03 3e
       -0.012325453 -0.28054062 0.20033763 0.12878533
0001f0 a8 90 5e bd 0f 10 14 3e 67 94 a4 bd a3 3b 0c 3e
       -0.054337174 0.14459251 -0.08036118 0.13694625
000200 6a dc 21 3d 42 41 32 bf 76 a7 11 bf 70 8e d9 3f
       0.039516844 -0.69630826 -0.5689615 1.6996593
000210 2b a1 14 bf 18 cc 5e be 65 81 2a bf 41 2e 25 be
       -0.5805842 -0.21757543 -0.6660369 -0.16130926
000220 c3 79 f1 bd ac 08 6e 3e 12 82 12 3f 22 63 f2 3d
       -0.11790802 0.23245496 0.5722972 0.11835314
000230 e0 dd b7 3e 5e 4a f5 bc 6a 3e 8e 3d c0 bd 03 be
       0.35911465 -0.029942688 0.06945498 -0.12865353
000240 d8 7d 8b bf 86 d1 e0 bd 09 5b aa 3d 5f 61 39 3e
       -1.089778 -0.109774634 0.08318145 0.1810355
000250 1c bc 83 bb 93 a8 6c bf ad 33 9d bd 2c 01 4f 3e
       -0.004020227 -0.92444724 -0.07675872 0.20215291
000260 47 c1 35 bd 6d b9 90 be 25 ef b7 bd 30 23 81 bd
       -0.044373777 -0.2826647 -0.0898116 -0.063055396
000270 c7 68 aa be c0 30 6b 3e f0 16 84 bc 8a 9c f5 be
       -0.33283064 0.22967815 -0.016124219 -0.47970992
000280 1b be 3e 3e 1b 97 e7 bc 91 cf 15 be 70 97 44 be
       0.18627207 -0.028270295 -0.14629962 -0.19198394
000290 15 0a 85 3e 90 a2 01 bd 6b e8 bb 3e fb 91 20 bf
       0.25984254 -0.031649172 0.36700758 -0.6272275
0002a0 33 ff 10 3e 75 44 7b be 98 21 5a bc 3c eb 2d 3f
       0.14159851 -0.24537833 -0.013313673 0.67937064
0002b0 50 ea 51 be e9 11 e6 3e dc b8 ab be 74 0e 7c be
       -0.2049954 0.4493554 -0.33539474 -0.24614888
0002c0 20 f2 a0 bd 44 db 98 be 9c 68 c7 3d 30 39 d5 bd
       -0.07858682 -0.29854786 0.097367495 -0.10411298
0002d0 58 16 51 3e 9a af c8 3e dd ae 8a be 1b 11 c5 3d
       0.2041868 0.39196473 -0.27086535 0.09622403
0002e0 d1 8e c4 3e 17 86 2a 3e 90 fa a7 be 6c a7 c4 3d
       0.3839021 0.16652714 -0.32808352 0.09602246
0002f0 07 d4 5b 3e 33 ed b3 bd 32 dd c3 be b3 05 42 be
       0.21467601 -0.087854765 -0.38254696 -0.18947487
000300 92 d6 ed bd f3 02 09 bf fe 00 58 be da 3d 6c bf
       -0.11613192 -0.53520125 -0.21094128 -0.9228188
000310 3d b0 4c bf 64 a8 c0 3e 6e 7d af bc f0 0d 15 3e
       -0.7995642 0.37628472 -0.021422114 0.14556098
000320 d0 53 98 be ae 7e 01 bf b9 2d 2d be 43 28 4b 3d
       -0.29751444 -0.5058392 -0.16911973 0.049598943
000330 3c 4b 7e 3e 6f 2f 3e be dc 84 5d 3e 8c 72 a6 bd
       0.24833387 -0.18572782 0.21632713 -0.08127317
000340 29 5e 1c be 9b 40 22 bd d8 0c c9 3d 4f 3f 5a be
       -0.15270294 -0.039612394 0.09816903 -0.21313213
000350 bf 6f 3e 3e dc e1 27 3d d2 bb 80 3e b0 62 81 bf
       0.18597315 0.04098688 0.25143296 -1.0108242
000360 02 b9 49 3d 06 a3 4d be 45 8f 67 ba 7c a5 a4 bd
       0.049248703 -0.2008172 -0.00088332995 -0.08039376
000370 30 a6 1b 3e d0 b4 12 3e 00 0e 97 3d 2a 9b ca bc
       0.15200114 0.14326787 0.07375717 -0.024732191
000380 62 91 96 bd 20 6b d6 3d bb 69 d6 3b d7 96 33 3e
       -0.07351948 0.10469651 0.006543366 0.1753801
000390 cc 66 04 3e c6 8e c1 3d 2f d9 2e 3e 93 f0 86 3d
       0.12929839 0.0945106 0.17075036 0.06588855
0003a0 d8 ea 34 bd 02 50 b6 be 07 e8 9b be 15 2a 14 be
       -0.044169277 -0.35607916 -0.3045046 -0.14469178
0003b0 8a df dd be a0 d3 6e 3e 77 e6 53 bd 17 52 cf bd
       -0.4333461 0.23322916 -0.05173346 -0.10123079
0003c0 70 cf f6 bc 64 b6 e7 3d 67 07 c0 bc 05 c0 16 3e
       -0.03012821 0.11314085 -0.02344103 0.14721687
0003d0 12 ea c6 3e aa fd 6c 3e dd d7 83 3e 1c d7 11 be
       0.38850456 0.2314364 0.25750628 -0.14242214
0003e0 3a f5 9c be e1 ae b5 3c 95 47 f5 3d 79 11 be bd
       -0.30655843 0.022178115 0.11976544 -0.092806764
0003f0 9f 9c 22 be 87 31 64 3e c0 db ad bd 1d 59 16 be
       -0.15880059 0.22284518 -0.084891796 -0.14682432

fc1.bias f4 [64]
000000 d1 54 cb bf 5b f0 73 bf f4 19 b1 bf 6b d5 5f bf
       -1.5885259 -0.9528863 -1.3836045 -0.87435025
000010 bf 28 72 bf d3 03 d3 bf b8 da 9c bf 59 16 f5 bf
       -0.94593424 -1.6485542 -1.2254248 -1.9147445
000020 09 d2 bf bf 15 05 09 bf 52 20 d3 bf 31 af f2 bf
       -1.4985973 -0.5352338 -1.6494238 -1.8959714
000030 ec 0a c3 bf 1b 61 06 c0 83 1a e3 bf 25 55 39 bf
       -1.5237708 -2.0996768 -1.7742466 -0.72395545
000040 ac 33 98 bf f4 e4 85 bf 46 be 75 bf 0f 9c f9 3e
       -1.1890769 -1.0460496 -0.9599346 0.48751876
000050 81 7e c3 bf 0e 61 bc bf aa 38 f1 be 2b 1b a3 be
       -1.5272981 -1.4717119 -0.47113544 -0.31856665
000060 e6 8d 0d c0 0b 02 89 bf 76 71 6c bf 76 85 b9 bf
       -2.2117858 -1.0703748 -0.9236063 -1.4493854
000070 47 8a 19 c0 b0 68 a9 bd 87 d6 e2 bf 59 3a 6e bf
       -2.3990648 -0.08271921 -1.7721719 -0.9305778
000080 af 3c 59 bf 16 f3 99 bf 49 8b d6 bf d2 28 33 bf
       -0.8485822 -1.2027309 -1.6761256 -0.6998416
000090 6f ee 6e bf 1c 12 7c bf 98 ff 41 3e cc f0 ac bf
       -0.9333257 -0.9846513 0.18945158 -1.3510985
0000a0 95 aa b7 bf 40 30 cb bf 6d c5 03 c0 06 ed 12 c0
       -1.4348933 -1.58741 -2.058925 -2.2957168
0000b0 f9 97 bb be 2a 82 1e c0 17 ed 00 bf 94 3f 80 bf
       -0.36639383 -2.4766946 -0.5036177 -1.0019403
0000c0 8b cf 8a bf b3 53 f9 bf ec e8 1f bf ba cf 7a bf
       -1.0844587 -1.9478668 -0.62464786 -0.97973216
0000d0 5d 49 ce bf ff 22 1c c0 37 6b 54 bf 3b c7 be bf
       -1.6116139 -2.439636 -0.82976097 -1.490455
0000e0 56 e7 0f c0 31 74 95 bf c9 aa cb be ac 4d 1e be
       -2.2484946 -1.1676084 -0.39778736 -0.15459317
0000f0 e7 7a 05 c0 81 0c d9 bf 2e d0 4c bf e3 ff a1 bf
       -2.0856264 -1.6956941 -0.80005157 -1.2656215

fc2.weight f4 [64, 64]
000000 e1 01 0e 3d b9 0f df bd 03 54 0e be 78 0b 74 be
       0.03466976 -0.10891671 -0.13899235 -0.238325
000010 62 2d dd ba 9c 96 51 be c3 5e 36 be 0f 13 04 be
       -0.0016874487 -0.20467609 -0.17809586 -0.12897895
000020 24 96 bc bd ac 60 b4 bc 1b 30 b9 be fa 93 8a be
       -0.092083246 -0.022018753 -0.36169514 -0.27066022
000030 3e cc b8 bd 83 ae 23 be 35 ce 72 bd 81 76 9f be
       -0.09023331 -0.1598454 -0.059278686 -0.311451
000040 af 7a fa 3c 90 0b 04 3d 04 56 09 bd 6b 31 26 be
       0.030576078 0.03223759 -0.033529297 -0.16229789
000050 81 b7 92 3d 60 49 3e be 0e 2f 89 bd 11 33 23 be
       0.07163907 -0.18582678 -0.06698428 -0.15937449
000060 92 c9 cb bd bd d3 54 bd c7 41 10 bd 7e 11 bb be
       -0.09950556 -0.05195974 -0.03521898 -0.36536783
000070 2f b5 ff 3c ab 55 71 be d4 f1 34 bd 91 2e ba bd
       0.031214325 -0.23567836 -0.044175938 -0.09090913
000080 2b 57 02 be fe 8c 42 3d 86 4c 0e bd ef 94 53 3d
       -0.12728564 0.047497742 -0.034740947 0.051655706
000090 24 a5 97 bd 2f 89 2b bb 78 60 07 be 23 10 9c be
       -0.07404545 -0.0026174297 -0.13220394 -0.3048106
0000a0 35 de 5d be 73 10 2c bc ab 3b d3 bc b5 75 cb 3c
       -0.21666797 -0.010501969 -0.025785288 0.0248364
0000b0 80 98 8a be 40 c7 45 bd fc 26 6d 3d 01 07 5e 3c
       -0.27069473 -0.048285723 0.057898507 0.013551475
0000c0 01 0c 1d be 00 2c 2b 3d 36 25 aa be 76 64 51 be
       -0.1533661 0.04179001 -0.33231515 -0.20448479
0000d0 01 c0 f4 bd 26 d1 81 3a aa a9 82 bd 62 e8 5c be
       -0.11950684 0.000990425 -0.06380017 -0.21573022
0000e0 64 26 88 bc ac 3c aa bd 90 89 0c bc 26 3b 07 bf
       -0.016619869 -0.083123535 -0.008577719 -0.5282463
0000f0 eb 38 47 3c fb e9 05 be 40 d9 a8 3c db 8b 92 bc
       0.012159566 -0.13077538 0.020611405 -0.017888954
000100 85 9f 06 be 84 1d 8a be 11 52 58 be ef 2f d5 be
       -0.1314679 -0.26975644 -0.21125056 -0.41638133
000110 5a 22 1d bc 5e 69 d0 be 8b a3 9a bc e0 3f 6f be
       -0.00959071 -0.4070539 -0.018876811 -0.2336421
000120 77 89 1a be 0a 7f 1a be 43 91 a6 bd c3 3d ab bd
       -0.15091501 -0.15087524 -0.08133175 -0.083613895
000130 70 f3 16 3d ba 93 01 bf f6 b1 ab be 19 ae dd 3d
       0.036853254 -0.5061604 -0.3353421 0.10824222
000140 3b de 58 be 0e 43 0b bd 62 cf 5c be b6 aa 0c bd
       -0.21178524 -0.033999495 -0.21563485 -0.03434249
000150 e4 e8 1c be 5b bb 6e 3d dc 85 a2 be ac b5 2c bd
       -0.15323216 0.058284145 -0.31742752 -0.042165443
000160 9a 45 21 bf 10 09 bb bd 82 e9 55 be e2 79 2b be
       -0.6299683 -0.09132588 -0.20889857 -0.16745713
000170 fe b3 5f bd 7f 02 2b be 25 0f 4b be 78 52 35 3d
       -0.054615013 -0.16700171 -0.19829996 0.0442681
000180 0a 28 2c be 05 3c b0 be 73 75 68 be a8 65 02 bd
       -0.16812149 -0.3442079 -0.22701053 -0.03183523
000190 82 37 ed be 74 d8 f6 bd 90 99 f8 be c5 4a ca be
       -0.46331412 -0.12053004 -0.4855466 -0.3951017
0001a0 84 28 88 bd d9 a9 1a 3d bb 38 d4 bd fa 92 a0 3d
       -0.06648353 0.037759636 -0.10362383 0.078405336
0001b0 37 55 bb bd d7 18 43 3e d0 1e ac be 90 36 4d bd
       -0.09147113 0.19052444 -0.33617258 -0.050100863
0001c0 14 cf 9f be ac b1 42 3b f3 88 93 bd 1e 33 52 be
       -0.31212676 0.0029707951 -0.07203855 -0.20527312
0001d0 e4 1f 35 be 36 1f f4 bd 16 a6 ff 3b 1e e7 73 bb
       -0.17687947 -0.119200155 0.0078017814 -0.0037216614
0001e0 40 38 f5 be 35 37 bc bd 3a c4 79 be 11 39 d0 be
       -0.47894478 -0.091902174 -0.2439126 -0.40668538
0001f0 c0 3b 26 be 4d c3 5b bd e4 8e a0 3d 66 cf c7 3c
       -0.1623373 -0.05365305 0.07839754 0.024390887
000200 44 28 9c be a7 1a 39 be a2 03 a5 be dc 1c 22 be
       -0.3049947 -0.18076573 -0.32229334 -0.15831321
000210 da 29 b7 bd 87 25 09 be fa 63 43 be 21 99 a9 be
       -0.089435294 -0.13393222 -0.19081107 -0.3312464
000220 9f 9c 99 3c 1d 51 9b 3a 36 a1 dc be 66 fa 36 3d
       0.01875144 0.0011849735 -0.43091744 0.044672392
000230 18 60 24 bf 4e ee 31 bd a2 ae 2a be 92 c5 5d 3c
       -0.6420913 -0.043440156 -0.1666818 0.013535874
000240 57 8a 66 3c 2b 30 a6 be 54 4f 23 bd 87 8d 33 bc
       0.014071069 -0.32458624 -0.039870575 -0.010959036
000250 63 58 07 bf ff 9e 1d be c7 eb 94 be e5 c9 9a be
       -0.5286924 -0.15392683 -0.29086134 -0.30232158
000260 74 0a f4 be d6 82 85 be 3e 94 01 bd 1b be cd bc
       -0.47664225 -0.26076382 -0.031635515 -0.025115063
000270 46 14 3c bd b5 05 f4 bd 6a 00 b0 bd d2 53 27 be
       -0.04591777 -0.11915151 -0.08593829 -0.16340569
000280 6e 6f a4 be 6b e8 12 be 7c c9 0c 3d 7b ea 97 bd
       -0.32116264 -0.14346473 0.034371838 -0.074177705
000290 90 e1 a2 bd a2 7b 87 be 5a ca 28 bf 26 4e cb be
       -0.07953179 -0.26461512 -0.65933764 -0.3970806
0002a0 7f 0c 47 be 0a 97 07 bd 5a 4f 4b be bb 0d c4 bc
       -0.1943836 -0.033103026 -0.19854489 -0.023932328
0002b0 32 77 95 bd 98 ac b4 bd a2 37 1b be 39 b2 3e bd
       -0.07298125 -0.08821982 -0.15157941 -0.046556685
0002c0 53 7c 0b bd 8c cf d7 bd 00 09 b2 bd 1d ad 79 3b
       -0.03405411 -0.10537633 -0.08693123 0.0038097568
0002d0 ae f8 4f be 17 b5 ce bb dd 5e 65 be e8 d8 38 be
       -0.20309708 -0.0063082087 -0.22399469 -0.18051493
0002e0 d5 e0 13 bf 79 f5 26 be 23 9e d5 be b4 89 59 bf
       -0.5776494 -0.16304578 -0.4172221 -0.84975743
0002f0 8b b2 a6 3d d2 74 81 3d 43 92 7e 3d c6 9b 4a be
       0.08139523 0.0632111 0.062151205 -0.19785985
000300 1e 7f d8 bd 3d 5b b6 bd ab 48 fe bd 18 70 43 be
       -0.10571121 -0.08904121 -0.12416204 -0.19085729
000310 81 fa 84 bd ba c6 54 3d 6a 85 3a be e7 fd a5 bb
       -0.06493092 0.051947333 -0.18214956 -0.005065668
000320 cb 24 a0 bc 36 6e 58 bd 99 20 8e bd b8 16 07 be
       -0.019548794 -0.05283948 -0.06939811 -0.1319226
000330 62 ba cc bd f4 9e df bd 72 b5 e3 bd 24 e8 8d bd
       -0.09996487 -0.1091899 -0.11118592 -0.06929043
000340 77 56 7a bd 65 24 1b bd 6c df 66 3c 99 51 1c be
       -0.061117616 -0.037876505 0.014091354 -0.15265502
000350 05 df 67 be c5 59 98 3c 41 05 19 be d7 4d 48 be
       -0.22643669 0.018597493 -0.1494341 -0.19560944
000360 aa d2 30 be 81 b1 99 be 22 ac 3e be 8a c3 10 3d
       -0.17267862 -0.30018237 -0.18620351 0.03534273
000370 0d b6 c3 3d fa 3a d9 bc 3c 03 15 be ec 25 70 3d
       0.09556208 -0.02651738 -0.14552015 0.058629915
000380 b1 a4 d6 be 20 fe a0 be f6 e5 8f be bd f0 9a be
       -0.41922525 -0.31443882 -0.28105134 -0.30261794
000390 ec a8 17 be d4 e9 9d 3d c4 35 ad be 64 70 7f be
       -0.14810532 0.07710615 -0.33830082 -0.24945217
0003a0 cf 9f 0c be ae ba e8 bb f7 10 8b 3d d4 30 d8 bd
       -0.13732837 -0.007102332 0.06790345 -0.10556188
0003b0 a6 f9 37 be 40 3d 10 be 10 d5 a7 3d 68 d3 5f bd
       -0.17966327 -0.14085865 0.08194935 -0.054644972
0003c0 5b c9 f1 3b 8d ba e5 bc ff 34 3f 3d aa 57 9c be
       0.00737874 -0.028043056 0.0466814 -0.30535632
0003d0 65 ab cb bd 7a a3 12 bd 76 15 6c 3c 4d ee ad bd
       -0.099448 -0.035800435 0.014409414 -0.08492718
0003e0 da a5 d2 bd 22 79 70 3d 13 06 b2 be d8 1b 8f be
       -0.1028554 0.05870927 -0.3477026 -0.2795093
0003f0 80 a9 42 bd 46 74 ed bc 22 d7 75 bd 6e 01 b4 bd
       -0.04752493 -0.028986108 -0.06001962 -0.08789335

fc2.bias f4 [64]
000000 ad 2d 05 bf c7 55 82 be 52 23 ac be c8 0e 8a be
       -0.5202282 -0.25456068 -0.33620697 -0.26964402
000010 3a bf 1d be 69 a8 c7 be d8 6b 5b 3f 1b f3 d6 be
       -0.15404978 -0.38995674 0.8571143 -0.4198235
000020 d7 4e 2e be 28 07 00 be dc 1d 93 bd 5f 95 49 be
       -0.17022263 -0.1250273 -0.071834296 -0.19685887
000030 16 07 c6 bd be 9c 73 be 8d 17 2e be 52 67 76 be
       -0.0966932 -0.23790261 -0.17001171 -0.24062851
000040 f8 de 24 3e a3 17 34 3f bc 62 61 be 33 f4 3b bd
       0.16100681 0.70348567 -0.2201032 -0.045887183
000050 92 e9 ca 3f 21 24 0a be 1d a4 28 bf c7 d6 82 bf
       1.585253 -0.13490345 -0.65875417 -1.0221795
000060 46 0b 3b bd 1a 0b 98 bd 81 fa 3f bf cc 25 07 bf
       -0.045665048 -0.074239925 -0.74991614 -0.5279205
000070 88 cd 53 3f a1 b0 27 be ab f9 33 be 83 00 c0 be
       0.8273549 -0.16375972 -0.1757571 -0.3750039
000080 5b ac 06 be ff ea 97 bd ff e6 04 bf 53 9e 31 be
       -0.13151686 -0.07417869 -0.5191497 -0.17345552
000090 79 54 8f be 8c 05 7c be 31 49 b9 be bb dd 95 bd
       -0.27994135 -0.24611491 -0.36188653 -0.07317682
0000a0 f4 34 ff be 55 38 85 be 3e da 6e be 4a 57 17 be
       -0.49845088 -0.2601954 -0.2332544 -0.14779392
0000b0 66 e7 ed be fc 43 18 be 7f 20 0f be 3e b3 fd ba
       -0.46465605 -0.14869684 -0.1397724 -0.0019355786
0000c0 51 ac 34 bf 2a f9 ff be f5 74 12 bd 41 ce 90 bd
       -0.70575434 -0.49994785 -0.03575607 -0.0707059
0000d0 8b b4 f3 be 05 8e db bd b4 cf cd be fe e0 c9 be
       -0.4759868 -0.107204475 -0.40197527 -0.39429468
0000e0 ce ff a9 3f 76 8e c4 bd 6e 39 49 be 6a 8a 95 3d
       1.328119 -0.09597485 -0.19650814 0.07301791
0000f0 b2 f7 b2 be b8 06 0a bd 0e e2 38 bd 43 54 8e bd
       -0.34954602 -0.033697814 -0.045137458 -0.069496654

fc3.weight f4 [1, 64]
000000 a6 a4 81 bd b7 8e de bc 79 e6 16 bc 2e ea be bc
       -0.06330232 -0.027167661 -0.009210222 -0.023305025
000010 9c b2 5a 3c be 25 a8 bb cf d5 08 3e 96 87 80 bd
       0.013348248 -0.0051314523 0.13362812 -0.06275861
000020 14 c1 8f bd 0c cc 5a 3b a7 82 5b bc 32 38 9f 3d
       -0.070192486 0.0033385782 -0.013397849 0.0777439
000030 55 d4 04 be 54 83 a4 3d c7 30 46 3d 69 6f 72 bb
       -0.12971623 0.08032861 0.04838636 -0.0036992675
000040 67 b6 71 3d ee bf 22 be c2 d3 89 bd ef 7b 07 3e
       0.059011843 -0.15893528 -0.06729843 0.1323087
000050 19 85 8c be f4 86 24 3c d0 20 85 bd 4e ea 14 3d
       -0.27445295 0.010041941 -0.06500399 0.036356263
000060 b8 16 10 3c 18 81 56 bc 49 76 57 3e a7 33 16 3e
       0.008794479 -0.013092302 0.21041216 0.14668141
000070 27 a5 0e 3e 76 70 09 bd cf c5 14 3d 08 43 72 be
       0.13930188 -0.033554517 0.036321457 -0.23658383
000080 c7 13 3e 3c ac c2 be 3b ce 64 29 bb 9a aa eb 3b
       0.011601395 0.0058215465 -0.0025847438 0.007191968
000090 5b 06 ad bd 38 a9 4c bd 91 65 17 be cc b9 6d 3d
       -0.08448478 -0.049966067 -0.14784838 0.058038518
0000a0 88 c9 6e bd 0a 96 e8 b6 b0 d1 a6 bd 19 6c d6 3c
       -0.058297664 -6.9316056e-06 -0.081454635 0.026174592
0000b0 f1 e5 7b 3d fe 9d c1 bc 5e 2d 55 bc c8 20 8e 3d
       0.061498586 -0.023634907 -0.013011305 0.06939846
0000c0 2c 47 2b 3d fc f4 58 be 9c f9 ff bc d4 48 bc bc
       0.04181592 -0.21187204 -0.031246953 -0.022983946
0000d0 e9 b8 21 be 92 86 d7 3b da c7 4c be d1 4a da 3c
       -0.15793194 0.0065773213 -0.19998112 0.026647003
0000e0 94 b3 2b be 9c 62 5a bd 74 6e 50 3c 1f 24 c6 bd
       -0.16767722 -0.053316697 0.012721647 -0.09674858
0000f0 ba 3d c9 bc c9 23 bb 3b d3 c2 06 3c b9 12 99 3c
       -0.024565566 0.005711053 0.008225161 0.018685685

fc1.weight f4 [64, 1]
000000 c9 d7 2a 3f 01 27 bf be 54 8f 63 be d5 22 f3 be
       0.6673551 -0.37334445 -0.22222644 -0.47487512
000010 89 78 cb bf 89 d2 17 3f 68 b9 a1 bd cb d6 06 3f
       -1.589616 0.59305626 -0.078966916 0.526715
000020 90 ad 94 bc 9b e9 92 3d 37 e1 8b bd 7b 70 15 3c
       -0.018149167 0.07173463 -0.06830066 0.009121056
000030 55 70 c1 bc 98 7d 99 3d 30 51 95 bd 9b 04 c2 bc
       -0.023613134 0.07494658 -0.07290876 -0.023683837
000040 30 6c 14 3e 00 e7 82 bb 51 6c 22 be 57 7b 80 3d
       0.14494395 -0.0039948225 -0.15861632 0.06273525
000050 07 ec 97 bd 40 35 ad be 70 a3 2b be 79 09 b0 be
       -0.074180655 -0.3382969 -0.16761565 -0.34382227
000060 6e 31 a2 bf a1 2c b0 be 70 e5 9f 3a ea 6b 89 3e
       -1.2671335 -0.3440905 0.0012199115 0.26840144
000070 84 9e cb bf 83 e3 9c bd 3a 28 47 3d 19 58 32 3e
       -1.590775 -0.07660582 0.048622347 0.17416419
000080 9a 83 31 be 19 f1 08 c0 d9 c8 33 bf 60 c6 66 bd
       -0.17335358 -2.1397154 -0.70228344 -0.05634153
000090 69 b6 ee bc ba 44 3c 3d 7c 5a 61 bd 63 60 90 be
       -0.029139714 0.04596398 -0.055017933 -0.28198537
0000a0 4b 72 56 3e 5c a0 d8 be 44 02 1b be ca 4c 7d bd
       0.20942037 -0.42309844 -0.15137583 -0.06184081
0000b0 ca f2 b2 3d 65 c5 6d bd fd b8 fe bf ad 69 97 bf
       0.087377146 -0.05804958 -1.9900204 -1.1829125
0000c0 ec 48 ec be 00 88 e0 bd 49 f3 34 bf 40 6d f7 bf
       -0.46149385 -0.1096344 -0.70683724 -1.9330215
0000d0 de f5 43 3c ec a9 60 bc 7b 1a db 3d 17 fa 97 3e
       0.011960475 -0.0137123875 0.1069841 0.2968299
0000e0 20 ca 3f bd f3 6b 02 c0 e1 b1 b8 bd f1 09 f5 3d
       -0.04682362 -2.0378387 -0.09018303 0.11964787
0000f0 49 98 ff bd 65 69 f4 3e ff 37 5f 3e cd 7f 73 3c
       -0.12480218 0.4773666 0.21798705 0.014862013

fc1.bias f4 [64]
000000 c5 b7 e0 bf 8c 40 17 bf 09 86 e8 be 9c 78 50 bf
       -1.7556082 -0.59082866 -0.4541476 -0.81434035
000010 ff 99 8d bf cf e9 c3 bf a5 06 20 be f3 0d c5 3e
       -1.1062621 -1.5305728 -0.15627535 0.38487205
000020 29 0c a8 bd f6 ab be be 62 71 f0 bd d6 98 30 be
       -0.08205444 -0.3724057 -0.11740376 -0.17245802
000030 3d 6d bc 3f 18 98 1f bf ae 15 6d bf 40 87 d7 bd
       1.4720837 -0.6234145 -0.92611206 -0.10523844
000040 e2 ff 33 bf 83 27 41 bf 9b 06 ca be 50 87 91 be
       -0.7031232 -0.75450915 -0.39458165 -0.28423548
000050 d0 d5 1f be 18 45 58 bf 52 94 63 bf 6a 8c f5 be
       -0.15608907 -0.8448043 -0.88898194 -0.4795869
000060 67 b6 48 bf 7a 1f fd be 59 0a a7 bc ae 14 fc bf
       -0.78403324 -0.49438077 -0.020390676 -1.9693811
000070 59 4b 1a 3f e5 64 e2 be 5b 9c 89 be 5c 35 56 bf
       0.6027122 -0.442176 -0.26877102 -0.8367517
000080 6a 5c 7d be 86 3d 6a be 7d 43 e9 bf 46 d8 3a bf
       -0.24742284 -0.22875032 -1.8223721 -0.7298626
000090 44 a8 90 be 47 6b 08 bf 10 30 12 be 94 54 19 bf
       -0.28253376 -0.5328869 -0.14276147 -0.5989468
0000a0 0a 5f 7b bf c0 b5 59 bf 7b be 88 be 84 be 1e be
       -0.98191893 -0.85042953 -0.26707825 -0.15502363
0000b0 1b 59 0f bf e3 e5 40 be 48 63 8c 3d a6 c4 4a 3d
       -0.5599534 -0.18837695 0.06854874 0.049503945
0000c0 51 d1 26 bf 72 e0 29 bf 37 e0 87 bf fe b8 94 3e
       -0.6516314 -0.663581 -1.06153 0.29047388
0000d0 c0 b4 de bd e5 f6 eb bc 4d 01 ed bf ff c8 cb bf
       -0.10874319 -0.028804252 -1.8516022 -1.5920714
0000e0 50 d2 1a bf 52 e9 ab be 33 1a 84 be 0b 61 03 bf
       -0.6047716 -0.33576447 -0.25801238 -0.5131995
0000f0 03 5b 47 be 2c 68 13 c0 a9 f8 e4 bf 33 e3 48 be
       -0.19468312 -2.3032331 -1.7888385 -0.1961792
