maddpg_pytorch/models/cache_data/model/run51/incremental/model_ep11001.pt (torch, 690099 bytes, 168 tensors)

fc1.weight f4 [64, 1]
00000000: a573 893f 9726 bfbe 178f 63be 7822 f3be
00000010: 673d 09c0 2e42 283f 27b9 a1bd 403d 483f
00000020: 88ad 94bc 37e9 923d 45e1 8bbd 4270 153c
00000030: e6b1 f0bf eb7d 993d 3051 95bd e304 c2bc
00000040: 306c 143e 00e7 82bb 906c 22be 0e7b 803d
00000050: e5eb 97bd 1635 adbe 70a3 2bbe 1f09 b0be
00000060: 90e4 c8bf 912c b0be 95e5 9f3a 9c6b 893e
00000070: ac1a fabf 26e3 9cbd d027 473d b557 323e
00000080: ec83 31be fcbc d3bf bac8 33bf fcc5 66bd
00000090: 6bb6 eebc 0a45 3c3d 585a 61bd 4c60 90be
000000a0: 3372 563e 5ca0 d8be 5b02 1bbe d44c 7dbd
000000b0: 1af3 b23d aac5 6dbd 3c38 c1bf dcf1 fabf
000000c0: c548 ecbe 0088 e0bd f7f2 34bf ad92 c5bf
000000d0: 83f5 433c a9a9 60bc 161a db3d e9f9 973e
000000e0: 20ca 3fbd 0660 f4bf bcb1 b8bd bf09 f53d
000000f0: f797 ffbd 1069 f43e ce37 5f3e 777f 733c
1.0738417 -0.3733413 -0.22222553 -0.47487235 -2.1443727 0.6572598 -0.07896643 0.7821846
-0.018149152 0.071733885 -0.06830076 0.009121003 -1.880429 0.0749472 -0.07290876 -0.02368397
0.14494395 -0.0039948225 -0.15861726 0.06273471 -0.0741804 -0.33829564 -0.16761565 -0.3438196
-1.5694752 -0.34409 0.0012199158 0.26839912 -1.953939 -0.076605126 0.048621953 0.1741627
-0.1733548 -1.6542048 -0.7022816 -0.056341156 -0.029139718 0.04596428 -0.0550178 -0.2819847
0.20942001 -0.42309844 -0.15137617 -0.061840847 0.08737774 -0.058049835 -1.5095286 -1.960506
-0.4614927 -0.1096344 -0.70683235 -1.5435387 0.01196039 -0.013712325 0.10698335 0.29682854
-0.04682362 -1.9091804 -0.09018275 0.119647495 -0.12480157 0.47736406 0.21798632 0.014861933

fc1.bias f4 [64]
00000000: 1b4e aebf c240 17bf fc85 e8be ad78 50bf
00000010: 9493 09bf 5837 bdbf b306 20be 3752 353f
00000020: 5a0c a8bd 4cac bebe 8d71 f0bd 1399 30be
00000030: b1df 5d3e 4198 1fbf ae15 6dbf 3f87 d7bd
00000040: e2ff 33bf 8027 41bf ef06 cabe 5887 91be
00000050: fad5 1fbe 0d45 58bf 5294 63bf a08c f5be
00000060: 7af9 fdbe 9b1f fdbe a80a a7bc ea14 fcbf
00000070: 4735 123e e664 e2be 829c 89be 8a35 56bf
00000080: 755c 7dbe 8373 f03e 9943 e9bf 91d8 3abf
00000090: 47a8 90be 536b 08bf 3830 12be 9754 19bf
000000a0: 185f 7bbf c0b5 59bf 94be 88be a9be 1ebe
000000b0: 1e59 0fbf 13e6 40be 240f 113e 72ee 7c3e
000000c0: 65d1 26bf 72e0 29bf 76e0 87bf 8ed9 063e
000000d0: f8b4 debd 38f7 ebbc 4c01 edbf 30c9 cbbf
000000e0: 50d2 1abf d18d d4be 641a 84be 2a61 03bf
000000f0: 315b 47be 3f68 13c0 cdf8 e4bf 2ee3 48be
-1.3617586 -0.5908319 -0.45414722 -0.81434137 -0.5374081 -1.4782515 -0.15627556 0.70828575
-0.08205481 -0.37240827 -0.11740408 -0.17245893 0.21667363 -0.62341696 -0.92611206 -0.10523843
-0.7031232 -0.754509 -0.39458415 -0.28423572 -0.1560897 -0.84480363 -0.88898194 -0.4795885
-0.49604398 -0.49438176 -0.020390823 -1.9693882 0.14278136 -0.44217604 -0.26877218 -0.83675444
-0.24742301 0.46963128 -1.8223754 -0.72986704 -0.28253385 -0.53288764 -0.14276206 -0.598947
-0.98191977 -0.85042953 -0.267079 -0.15502419 -0.5599536 -0.18837766 0.14165932 0.24700335
-0.6516326 -0.663581 -1.0615375 0.13168928 -0.10874361 -0.028804407 -1.8516021 -1.5920773
-0.6047716 -0.41514447 -0.25801384 -0.51320136 -0.1946838 -2.3032377 -1.7888428 -0.19617912

fc2.weight f4 [64, 64]
00000000: c7ff b5bd 9695 b63e d118 98bc fbd6 23bd
00000010: e368 853e fdcb 6ebd 8a41 b3bc 126e e8bb
00000020: 67e2 01be 3f84 eb3d d6db 93be b755 febd
00000030: 4433 343c 11dc 8ebd 70ea 9cbd 4332 8bbd
00000040: 3075 1e3d a8de e7bc a997 03bf b28b 5dbd
00000050: d1f1 9dbc 06c0 9d3e e463 2dbd 5ca9 82bd
00000060: 6602 7ebd 7122 b03d d8ac a2be 469c 70be
00000070: c6af 81bc 5e8a 8dbe e83a 89be 12c8 33be
00000080: 851f b1be 170a 983d 04f0 8f3e 8dcb 0abd
00000090: dc0b 93be 3464 313e 1a2b 59be 7a02 85be
000000a0: d784 81be 8059 69bd 011a 9dbe 7cf0 d13d
000000b0: 376a 43be bf01 04be 4456 0fbd b638 e9bd
000000c0: 2128 b8bd 606e 823b 9037 6e3d 7a1c 1ebe
000000d0: c5a7 8abe ed9e e8bd 0a1e 7ebe ed0b 28be
000000e0: ec1d a5bd c165 053e fffd b1be ecc4 0ebf
000000f0: 11e3 31be 780a 5ebe 0f68 e5bd 5705 3ebf
00000100: 65f9 f2bd 03cc efbd 3e16 0abd 0a64 17be
00000110: 3c70 703d 26d4 a63c 21a9 693d 2dfb 16be
00000120: 7a44 02be 144b bdbd 2b67 9ebc 745b ddbd
00000130: 9c49 94bc 0655 d0bd f080 1fbc af10 3fbe
00000140: 0813 ae3c d45a 713d 517e 23bd 6735 b2bc
00000150: 4880 39be 6e81 ba3d 7a32 df3d 1a65 1a3d
00000160: 5740 03bd 1653 28be 31df 13be a30b 4e3d
00000170: f4f5 60be 4ddd cebb befc 20be ab99 17be
00000180: 4c53 aebd 996f 5bbe a39e 1cbe e83c ba3d
00000190: 2250 663c 0c1d f23d 68c9 fdbd 3e8a 55be
000001a0: 4b2d 813d 8823 dabc 18c1 5dbe e1a6 e6bc
000001b0: c4ba 40be 2732 b63c 63dd 3cbd 437e 8cbe
000001c0: 0dcd 91be c065 33bc da2b 93bd 8487 8fbd
000001d0: 5699 57be 34c5 7dbd 87c0 35be 00e3 17be
000001e0: 9e6a aabd 2436 b0bc 6ae7 3dbd 0df1 d0bd
000001f0: 06e6 d9bd b643 8abb 5409 38bd e306 fbbd
00000200: 0516 a6be 385f 9d3d c062 edbb 4698 c2bd
00000210: 86a3 e83d c1ab e13c 688a f8bd d625 8cbe
00000220: 0199 3fbd 000d aabd 9939 23bc 77c7 2fbe
00000230: 8aa7 143d ba93 a4bd d4ce 103d bf19 18bd
00000240: 0891 f33c 0455 d43d 4281 06be 6cab 08be
00000250: 2744 27be 4019 a8bb 808b 72bd f475 46bd
00000260: 20eb d1bc 1ddc 13bd 3bec ed3c bfcc 36bd
00000270: 90ef 24bd a63c 10be 82df 42be 88d2 cd3c
00000280: 6a5c d2bd 18b3 ce3c 0084 973b f023 a3bd
00000290: bdaf 0cbc 9a77 8f3d e7df 94bd 627b 91bd
000002a0: d898 08be 00a0 e13a e7f4 19be fea6 18be
000002b0: 40bf 98bc ac9a ecbd 505f fb3c 3a08 e3bd
000002c0: 018a a2bd c46b 43bd c4f2 e9bd 25d9 573d
000002d0: 6a19 60bd bbe4 803d bf98 cebd 475a e6bd
000002e0: ccaa f0bd 545c 42bd fe62 553b 5c8a 52be
000002f0: 7414 33bd ec25 8dbb 51ae 2abc 298b 09bd
00000300: 312a 2abe c8bf 65bd 0580 0cbe c7fe 14be
00000310: 90ab 553d 7e3b 3cbe 85b7 26be 7986 a3bd
00000320: e16f 39be c620 d7bd 12ed 0bbd f13d 6fbd
00000330: 2e49 b03b 7186 6bbe 8073 8e3a c82d fbbd
00000340: 622f 8fbd 8203 90bd 9909 90bd 2497 cfbd
00000350: 3d09 3cbe ac71 b4bd 6c1a d4bd 1385 183c
00000360: 05d8 a4bd 4c8b efbd 3363 18be f815 4abe
00000370: 9e35 5fbe 1b7b 36be 65bc 54bd 82c4 a7bd
00000380: 30cb 16be d4ac 1fbe 4e89 a33d 4689 b83d
00000390: 6b13 a63c 705a 153d b995 27bd e0e0 20be
000003a0: a442 38be 6ccc fabd c828 c6bc d239 0dbe
000003b0: 9919 bfbd fe65 cabd 4446 7cbe 6ad7 1cbe
000003c0: 3a45 45bd 1042 cfbc acc5 5dbe 7a17 a2bd
000003d0: b674 c1bd 27bd 03be 3042 79bd fe69 b4bd
000003e0: c0d3 3cbd 1d65 4f3b 926b 13bd d4b5 0fbe
000003f0: 01e5 29be 5944 64be 021c 4cbd fe93 0ebe
-0.08886676 0.35661 -0.01856652 -0.039999943 0.26056585 -0.058300007 -0.021881837 -0.0070931995
-0.12684022 0.11499833 -0.2887866 -0.124186926 0.010998551 -0.06975568 -0.07661903 -0.06796696
0.038685977 -0.028304413 -0.5140329 -0.054088302 -0.019280346 0.30810565 -0.04233159 -0.06379959
-0.062014006 0.08600319 -0.31772494 -0.23497114 -0.015830886 -0.27644628 -0.26802754 -0.1755679
-0.3459436 0.074237995 0.28112805 -0.033885527 -0.28719985 0.1732338 -0.21207848 -0.25978452
-0.2529666 -0.05697012 -0.30683902 0.10250947 -0.19083486 -0.12891291 -0.03499438 -0.1138777
-0.08992029 0.003980443 0.058158457 -0.1544055 -0.27081123 -0.11358438 -0.24816146 -0.164108
-0.08062348 0.13027097 -0.34764096 -0.5576923 -0.17371775 -0.21683681 -0.11201488 -0.742269
-0.118639745 -0.11708834 -0.033712618 -0.14784256 0.058700785 0.020364832 0.05704606 -0.14744253
-0.12721434 -0.09242836 -0.019336304 -0.10808459 -0.018101506 -0.10172467 -0.009735331 -0.18658708
0.02124931 0.05892451 -0.039915387 -0.02175398 -0.18115342 0.09106718 0.108982995 0.037694074
-0.03204378 -0.16437945 -0.1444061 0.050304066 -0.21968824 -0.006313002 -0.15721413 -0.14804713
-0.08511981 -0.2142929 -0.1529489 0.09093648 0.014057191 0.118219465 -0.12391931 -0.20853516
0.06307467 -0.02662827 -0.2165569 -0.028155746 -0.18821245 0.022240711 -0.04610957 -0.2744008
-0.28476754 -0.010949552 -0.071860984 -0.070082694 -0.21054587 -0.061955646 -0.17749225 -0.14832687
-0.08321117 -0.021510191 -0.04636327 -0.10202227 -0.106395766 -0.0042194976 -0.04493077 -0.12257173
-0.32438675 0.07684177 -0.007244438 -0.095017 0.113593146 0.027547719 -0.12135774 -0.27372617
-0.046776775 -0.08303261 -0.009962463 -0.17165934 0.03629259 -0.08035989 0.035353497 -0.03713393
0.029732242 0.10367778 -0.13135245 -0.13346642 -0.16334592 -0.005129963 -0.05921507 -0.048452333
-0.025624812 -0.03609859 0.029043308 -0.044628855 -0.040267527 -0.14085636 -0.19030574 0.025124803
-0.10271533 0.025231883 0.00462389 -0.07965839 -0.008586821 0.07005234 -0.072692685 -0.071036115
-0.13339555 0.0017213821 -0.15034829 -0.14907452 -0.018645883 -0.11552939 0.030685097 -0.110855535
-0.079364784 -0.047710195 -0.11423257 0.05269732 -0.054711737 0.06293627 -0.10087728 -0.11247688
-0.11751327 -0.047451332 0.0032560225 -0.20560592 -0.043720677 -0.004307499 -0.010417537 -0.03357998
-0.16617657 -0.0560911 -0.1372071 -0.14550315 0.052165568 -0.1838207 -0.16280945 -0.07984633
-0.18109085 -0.10504298 -0.034161635 -0.05840868 0.0053798174 -0.23000504 0.0010868162 -0.122645915
-0.069914594 -0.07031919 -0.070330806 -0.1013625 -0.18362899 -0.08810744 -0.10356602 0.009309071
-0.08049015 -0.11696491 -0.14881591 -0.19734943 -0.21797797 -0.17820399 -0.05193748 -0.08191778
-0.14725947 -0.15593272 0.07985173 0.09010558 0.020272931 0.0364632 -0.04091427 -0.15710783
-0.17994171 -0.12246022 -0.024189368 -0.13791588 -0.09331054 -0.09882735 -0.24636179 -0.15316549
-0.048161723 -0.025300056 -0.21657437 -0.07914634 -0.09446089 -0.12865125 -0.060854137 -0.08809279
-0.046100378 0.0031645962 -0.03599126 -0.14034206 -0.16591264 -0.22291698 -0.049831398 -0.13923642

fc2.bias f4 [64]
00000000: a538 31bf 5f67 05be 9bb3 fcbe 9238 19be
00000010: ad53 8fbe 29fd 4cbd d283 81bf 3552 70bf
00000020: 1982 81bd 3676 2f3f f7b7 11be cc6f 44be
00000030: 55f9 51be 51f6 29be e0f4 813e 6aa7 23be
00000040: f479 c7bd 8dcc 0bbe ae9b 49be 6a26 96be
00000050: c122 5f3f fcc0 de3e 6839 35be d8e6 c03f
00000060: 322f 37bd 7150 a4bd 741e 94bd 49f3 8bbe
00000070: b54d 4ebe 051d d3be 2c9e 87be 153d 27be
00000080: 1746 01bf 0391 4dbe 461f 01bc 0f12 babd
00000090: d59f a5be 99ea b5be 08ac 10be 0364 27c0
000000a0: cd24 65be 1946 1bbe 0658 a2be 4e45 f0be
000000b0: 98ce 6c3f 8679 6fbe fe0a f6bd de44 4cbf
000000c0: 88f5 c9be 21b5 dfbd 5fef f7bd 5608 48be
000000d0: 7e78 84bc bb17 2bbe 7fd7 4fbe 6c5b b4be
000000e0: f0e1 50be 5f52 33bc badd d9bd 1667 e2bd
000000f0: 71f8 9dbe f5ee 12bf d2d5 edbc 10ad 2bbc
-0.6922706 -0.13027714 -0.49355778 -0.14962986 -0.27993527 -0.05004612 -1.0118353 -0.9387544
-0.06323642 0.6853975 -0.14230333 -0.19183272 -0.20505269 -0.16597869 0.25382137 -0.15981832
-0.097400576 -0.13652249 -0.19688293 -0.29326183 0.87162405 0.4350661 -0.1769768 1.5070448
-0.044722743 -0.080231555 -0.07232371 -0.2733405 -0.2014683 -0.41233078 -0.26487863 -0.16331895
-0.50497574 -0.20074849 -0.007880991 -0.09085476 -0.32348505 -0.35530546 -0.14128125 -2.6154792
-0.2237732 -0.15163459 -0.31707782 -0.46927875 0.9250274 -0.23386201 -0.12013815 -0.79792583
-0.39445138 -0.109232195 -0.12106203 -0.1953443 -0.016170736 -0.16708271 -0.20297049 -0.35226
-0.20398688 -0.010944932 -0.10637994 -0.11054818 -0.30853608 -0.5739587 -0.029032622 -0.010478273

fc3.weight f4 [32, 64]
00000000: dedc a8bc e522 7c3d 2d40 ed3d 6a2e 10be
00000010: 1f70 8bbe 9915 d63c 5288 c2bc 5507 28bf
00000020: 4730 05bf 3c6f 023f d244 d03d d856 503e
00000030: 2c43 78be e7d3 88bd b587 8e40 97f8 8cbc
00000040: c2fa 813e 90b8 963b 1736 93be 379c 83be
00000050: f9bf 723f 9ebb 9abe 55fa ad3d 3ba6 093f
00000060: 1d20 3dbd 5908 773c 3eb0 8a3d 57e7 03bf
00000070: 19a6 d6bc 94e3 5a3d 9ad0 86bc 1bf9 11bd
00000080: bb5e 12be a2dd 5fbe d6eb 003c 52ec 94be
00000090: 10a7 443e d611 f0bd 7394 f33d aadf d43e
000000a0: e2e9 69bd db6a d9bc 253a a83d 2ac2 d53d
000000b0: 3783 7f3f bd04 40be 5ae9 7fbd cf09 8a3f
000000c0: 48ce 4fbd b059 2f3e 7304 0cbe 2417 96bc
000000d0: a2ed c73d cef5 023f b5ef c2bd 3cc5 63bd
000000e0: 7de0 55bd 79a7 543f ec72 06c0 dada 163d
000000f0: 07f1 2abe 3a59 3dbf c6a4 c63e 8e3c e5bd
00000100: 28c2 d7be 58e3 db3c 1ad9 f63d da8a f0bd
00000110: b79e 47bd 5e1f 79bd dc63 793d 1442 363e
00000120: aae1 293f 52a5 2c3f 0ca4 f6bd 4fb6 e5bc
00000130: 6a0f 773e 265e 333d 59e5 c93e 701a 8bbc
00000140: b9ac a43d f99a 9cbd 8755 3abe cdef 5e3e
00000150: bb61 ea3f 42b0 93be a16e 8bbd eefc b23c
00000160: 694f 0dbc bae9 42bd 3348 bdbc 20f5 0bbf
00000170: 09f9 6bbd 8450 8e3e cc45 fdbd 9d5f fcbd
00000180: 945d 25be 2914 fbbd 0e61 72bf 908b 9bbe
00000190: 5c26 723e 76e7 3fbe 61f9 053e f2a3 ebbe
000001a0: 5a10 06be 0371 203e a2e5 ecbc 6698 a9be
000001b0: 0bdd e53e e747 5ebd 738b de3c a7b4 0840
000001c0: 5880 ac3d 0fc3 a73e 6f42 d6bc 5a92 b53c
000001d0: 2b1a 9bbc f541 82bf e914 2fbe bf94 ea3b
000001e0: 70a8 743e 87c9 ab3f 87cb 29bf 8d22 74bd
000001f0: 1621 41bf e6a2 fa3f 7ce2 833f 9264 983d
00000200: 47ba 5ebf 2e27 d0bd f739 0abe 662e ff3d
00000210: d61e 23be a6da 403c a8cd 25be ec23 b13e
00000220: 9cbc 3a3f 9883 3e3f 9b9f 80bd f1e0 7e3e
00000230: 0bbd b9bd af44 393c 7d83 003d 19ab dabd
00000240: 1488 24bf 7a00 003e 9923 d0bd e158 b93e
00000250: 80e7 72bf 3828 fcbe de6b 613d c9f9 aabf
00000260: 0a44 c83c 6181 953d 1a6b 42bd 1fc0 3dbf
00000270: 9e2a c2bc cf0f 1f3d 8bdd e43d 0cda 88be
00000280: 45af 233e 5ff6 023e 4d0c 02bf 877d 1b3d
00000290: 53e2 23be c44b 83bd 2713 1cbf ee92 47be
000002a0: ffb2 873d 0efd 3bbe a308 793d ff6a 8b3e
000002b0: e13f babe 509a 133e 63fa b7bd e630 793f
000002c0: ef16 2dbe 701f 3c3e 3b6e 0a3e a3eb 83bd
000002d0: 3ab8 003d 5fdb 7a3f 83f1 0b3e 0ca1 383f
000002e0: fe63 46be 2c96 35bf 3319 1dbf 9a61 d13c
000002f0: ae1f 48bf 04fe 263d 761f ab3f 2a33 a7bd
00000300: 83c8 2dbf 84a7 dc3c 5f87 46bb 20cf 3f3d
00000310: 4da3 24bd 0306 33be be0b babd e2b1 863f
00000320: 767a 55bf 6f75 323e 73d3 cebd b75d a7be
00000330: fccf 123e bfa8 2fbe 74f5 0abf b62c 763d
00000340: ea92 913d 80d6 77be 99ac 2bbe 79ab b5be
00000350: d403 bd3f 35d3 28bd e77e 4e3e 4d55 90bc
00000360: 093b 8d3c 525d 433e 623e d03e c187 e43e
00000370: cdd8 1c3e 1f48 aabd e16c ccbd 3e19 be3e
00000380: 3e74 34bd c3eb 5cbe 5529 3abe d4fc 8bbf
00000390: f350 a2be 4ad8 9c3d 5cbe 263f bd85 b53e
000003a0: 56b7 5f3e b8e3 2abe 80e2 f33d 2cb7 57be
000003b0: ebeb 90bd a357 173c 2622 393e 3d4e 8e3e
000003c0: f058 063e c97f 303d deb4 d93d 248a 19bc
000003d0: aa01 383e 4260 7dbe a1bd 773d 25bf e0be
000003e0: fcb9 8c3d 7da1 2cbf 510a 3b3e 4516 463e
000003f0: b1a2 e63e 7607 bd3e 2656 0a3f 1488 acbd
-0.02061313 0.061556716 0.11584506 -0.14080206 -0.2723398 0.026133345 -0.023746643 -0.6563619
-0.5202679 0.5095098 0.101693764 0.20345628 -0.24244374 -0.06681042 4.454066 -0.01720838
0.25386626 0.0045996383 -0.28752205 -0.2570512 0.9482418 -0.30221266 0.08495013 0.5376927
-0.046173204 0.015077674 0.06771897 -0.5152487 -0.026202248 0.05343969 -0.01645689 -0.035637956
-0.1429395 -0.2186189 0.007868728 -0.29086548 0.19204354 -0.11722152 0.11893549 0.41576892
-0.057107814 -0.02654021 0.08214215 0.104374245 0.9980959 -0.18751808 -0.0624784 1.0784243
-0.050733835 0.17124057 -0.13673572 -0.018321581 0.09762122 0.5115632 -0.09518377 -0.05560802
-0.05221604 0.83068043 -2.1007643 0.036829807 -0.16693507 -0.73964274 0.38797587 -0.111931905
-0.42140317 0.026841804 0.120531276 -0.11745234 -0.048735347 -0.06082093 0.06088625 0.17798644
0.6635996 0.6743976 -0.12043008 -0.028041033 0.24126974 0.04379096 0.3943279 -0.01698038
0.08040757 -0.07646746 -0.18196689 0.21771164 1.8311075 -0.28845412 -0.0680821 0.021849122
-0.00862489 -0.04758618 -0.023105716 -0.54670906 -0.057610545 0.27795804 -0.12366828 -0.12322924
-0.16148978 -0.122597046 -0.94679344 -0.30379915 0.23647445 -0.18740639 0.13083412 -0.46023518
-0.13092175 0.1566811 -0.028918091 -0.33124083 0.44895205 -0.05426779 0.027166104 2.1360261
0.08422917 0.32766005 -0.026154725 0.022164512 -0.018933376 -1.0176378 -0.1709782 0.007158845
0.23892379 1.3420876 -0.66326183 -0.059603263 -0.7544111 1.9580963 1.0303493 0.07441057
-0.87002987 -0.10163723 -0.13498674 0.12460022 -0.15929732 0.01177088 -0.16191733 0.3459772
0.72944045 0.74419546 -0.06280442 0.24890496 -0.0906926 0.011307879 0.031375397 -0.106771655
-0.6427014 0.12500182 -0.1016304 0.36200622 -0.9488449 -0.49249434 0.05503451 -1.3357478
0.024446506 0.07300068 -0.04746542 -0.7412128 -0.023701962 0.038833436 0.111750685 -0.26728857
0.15984829 0.12789296 -0.5080002 0.03796151 -0.16004305 -0.064109355 -0.60966724 -0.19489643
0.06625938 -0.18358251 0.060799252 0.2723007 -0.3637686 0.14414334 -0.08983304 0.9734024
-0.1690328 0.18371367 0.13518612 -0.064414285 0.031425692 0.97990984 0.13666348 0.7212074
-0.19374081 -0.7093227 -0.61366576 0.025559235 -0.7817334 0.040769592 1.3368976 -0.08164056
-0.6788408 0.026935346 -0.003029309 0.04682839 -0.0401948 -0.17482762 -0.09084271 1.0523036
-0.83389986 0.1742761 -0.100989245 -0.32688686 0.14337152 -0.17154215 -0.5428078 0.060101233
0.071081 -0.24202919 -0.1676506 -0.35482386 1.4766793 -0.041217048 0.20165597 -0.0176188
0.017240064 0.19078568 0.40672594 0.44634822 0.15317078 -0.08314537 -0.099817045 0.37128633
-0.04405617 -0.21574311 -0.1817983 -1.0936532 -0.31702384 0.07658441 0.65134215 0.35453597
0.21847281 -0.1668843 0.11908436 -0.21065968 -0.07076248 0.009237203 0.18079433 0.27794066
0.13119864 0.043090615 0.10630201 -0.009371314 0.17969385 -0.2474375 0.06048358 -0.43895832
0.06871411 -0.6743391 0.18265654 0.19344433 0.45046 0.36919755 0.540377 -0.08424392

fc3.bias f4 [32]
00000000: b046 6ebf cf46 98bf 1f6b 2640 a456 c6bf
00000010: 7756 4dbf 392f e1bf fd92 3abf 6710 a2bf
00000020: 0ca6 da3f 3cbe 87bf 4cbf 82be ad7e a1bf
00000030: d16d 82bf f6c0 ebbf a3f9 adbf cc0e 7b40
00000040: 95b6 81bf 6e2c 02c0 7b28 a8bf 5406 d4bf
00000050: 4020 ddbf 7010 0f40 0fad c93f 8330 b640
00000060: e3b2 71bf 27b5 bbbf da0c a6bf 4f80 9b40
00000070: 3ea4 99bf a770 f0bf 3c4e c4bf 44ef 28c0
-0.9307661 -1.1896609 2.6002882 -1.5495191 -0.8021006 -1.7592536 -0.72880536 -1.2661256
1.7081923 -1.060493 -0.25536573 -1.2616783 -1.0189763 -1.8418262 -1.3591808 3.9227781
-1.0133845 -2.0339618 -1.3137354 -1.6564431 -1.7275467 2.2353783 1.5755938 5.693422
-0.94413584 -1.4664658 -1.2972672 4.8594127 -1.2003248 -1.8784379 -1.5336375 -2.6396036

in_fn.weight f4 [33]
00000000: 4636 c73f 94a9 953e 8c4e e13e d96f b33e
00000010: ca4e 57be 9cf6 fb3d 1122 8fbe 9008 d83d
00000020: 7792 363f 4612 383e 1891 27be 04cd f33d
00000030: 1921 83be 0caf 7bbd fdc8 533e 7f42 913e
00000040: 4727 c43e 8879 883e 7d6f 1ebe 015c cc3d
00000050: 265e 973e d328 8bbe 096f 943e 39c6 523e
00000060: 2822 653f 7712 12bc 48a1 df3e 86ab e23e
00000070: 8657 1c3f 2488 eb3e 577b ee3e 64cc 1a3f
00000080: f07f 853f
1.5563438 0.2923094 0.4400524 0.3504627 -0.2102615 0.123028964 -0.27955678 0.10548508
0.7131724 0.17975721 -0.16363943 0.11904338 -0.2561119 -0.061446235 0.2068214 0.28371045
0.38311216 0.2665522 -0.15472217 0.09978486 0.29564017 -0.27179584 0.28990963 0.20583428
0.89505243 -0.008915535 0.43677735 0.44271487 0.6107105 0.46002305 0.46578476 0.60468125
1.0429668

in_fn.bias f4 [33]
00000000: 1741 373e 76e6 273e 68f9 493e 2061 263e
00000010: d51f 82bd c968 903d 8d7c 6dbd 44d3 e83d
00000020: f17e ea3d 4e26 933d 6a04 a83b 021f 4dbd
00000030: 451b 6f3b 4afb f03d 4091 a53c f638 05bc
00000040: 17a4 3f3d 3344 4b3e 1814 bbbd 58c3 adbc
00000050: 0454 113d 4c3d 8f3e 712f 63bd f933 6fbd
00000060: 3acf 143f e3b5 013d 7c3a 153e 3450 023d
00000070: 6c99 a83e 778c b23d c919 4a3e efad 6a3e
00000080: 435f 593e
0.17895924 0.16396508 0.19724047 0.16247988 -0.06353728 0.07051236 -0.05798011 0.11368421
0.114499934 0.071850404 0.0051274793 -0.0500784 0.003648476 0.117666796 0.020210862 -0.008131256
0.046787348 0.19850235 -0.09134692 -0.021211311 0.035480514 0.27976453 -0.055465166 -0.058399174
0.581287 0.0316676 0.14573091 0.03181477 0.32929552 0.08718198 0.19736399 0.22917913
0.21227746

in_fn.running_mean f4 [33]
00000000: 948a 1240 88b8 523c 9055 493c d6ad 2d3c
00000010: e2b7 903b 40aa 383b efc4 a23b 0569 1c3b
00000020: 4d67 513d d5dc 913b 0f85 9f3a 673f 213b
00000030: 30e4 643c cedf 913b 7126 db3b 7fd4 663c
00000040: 86db 343d 7fa5 ac3b 4f7e d53a fc3d 2f3b
00000050: 8df5 d53b 060b 273c 855d 283c 6b37 a73b
00000060: 2dad 933e df50 ca3a b277 033d 12b8 ff3c
00000070: 7a46 f23d a355 1f3d 566f e33d fb02 1d3d
00000080: 4315 d83d
2.2897081 0.0128613785 0.012288466 0.010600528 0.004416452 0.0028177649 0.004967324 0.0023866307
0.051123906 0.004451374 0.0012170392 0.002460444 0.01397042 0.0044517284 0.006687932 0.014088749
0.044154666 0.005268752 0.0016288253 0.0026739826 0.006529516 0.010195499 0.010276203 0.005103042
0.2884306 0.0015435478 0.032096572 0.031215701 0.118298486 0.03890003 0.1110522 0.03833292
0.1055093

in_fn.running_var f4 [33]
00000000: 0a94 da40 3add 4f3c 4acf 463c b073 2b3c
00000010: df10 903b 141d 383b 46ff a13b 44f3 1b3b
00000020: ed1c 423d 572a 913b b340 9f3a 6dc8 203b
00000030: 536e 613c 413c 913b b5d8 d83b 5d71 633c
00000040: 126a 2c3d c4ad ab3b 7d01 d53a 71a0 2e3b
00000050: ddb5 d33b aa5e 253c 1ca0 263c f06d a63b
00000060: dc8f 513e 62c2 c93a 7177 fe3c 96d1 f53c
00000070: 5e5c d53d 8d0e 193d ae98 c93d 25de 143d
00000080: bfc0 b53d
6.830571 0.012687022 0.0121343825 0.010464594 0.0043965424 0.0028093504 0.004943761 0.002379612
0.047390867 0.004430096 0.0012150019 0.0024533526 0.0137592135 0.0044322317 0.0066176304 0.013882008
0.042093344 0.0052392203 0.0016251054 0.0026645923 0.006460889 0.01009337 0.010170009 0.0050790235
0.20465034 0.0015393014 0.031062813 0.030007165 0.10418008 0.037367392 0.098435745 0.036344666
0.08874654

fc1.weight f4 [64, 33]
00000000: 2fb2 5abd e677 89be 76b5 96bf 2fa5 41be
00000010: 06fb 14be 3d54 26be 0f1b 8e3e f29e c1be
00000020: f32d 163e 0684 48bf bbe7 2abd d646 01bf
00000030: ce6a 5e3e dc8f 353c 8d14 003f 29f4 9f3e
00000040: 8e13 c33d b864 0cbf 31a9 3cbd 8174 303e
00000050: ede7 b43e 892b c5be 3140 733e 49f5 903e
00000060: 3aee 85be 45ee 053e 69be 4f3d 8b07 013e
00000070: 1b3a a6be 0c78 413e 08dd 31bb 5ff8 a2be
00000080: 5036 c93e a402 b9bd 7183 8abd a034 3cbe
00000090: c16f 253d ed45 b03c 4a14 333d 2451 a73d
000000a0: 0001 d1bb 22f9 043f 52fe 983c 2d7f a43d
000000b0: 1057 7dbe a22b 973b d19b 56bd b2cd 613d
000000c0: da05 88bd 36f6 e13d 8e26 ffbd faeb 1ebd
000000d0: 71c1 8b3b 7416 b63d c80d ebbd e007 403d
000000e0: 13ab 4bbe 211c a03d cf53 183e f544 7bbd
000000f0: a2b0 dbbd c0d4 12bd e6ef 133e 1c87 d9bd
00000100: dee8 673c 730e 183e 81b9 64bf ab99 bdbe
00000110: 0756 8fbf 1ee6 83bf 467f 723e 8e01 f7be
00000120: 6ee4 e33e 32b3 f8be 4749 533d b376 c73c
00000130: 0e97 7e3d 1883 7abf 20e4 88be c187 0b3f
00000140: d431 013f 42c6 2f3e 9f19 e5bd 2d3a 9ebf
00000150: 7b55 0fbe 8890 8c3e ae6f b33d ef28 a7be
00000160: f4f0 373e 0d22 db3d 7bc9 2e3e 1d88 70bd
00000170: 5eca 0dbf e618 473e 57c7 05bf 8d9b febd
00000180: 7179 123e 5e17 bc3d 3b69 133f 02b8 e3bf
00000190: 0a97 383e c2a7 aebd f8d1 a8be 60da 5dbc
000001a0: 9be5 163e 49e6 283e bd8f a7be 5898 853d
000001b0: 4ae3 a93d bb63 943e 354c 01be 3398 d8bb
000001c0: 0879 b2be 0e46 1f3e 396d 1cbc b50f c73c
000001d0: 0c71 5bbd 9a90 053e ac93 c53e 7012 023f
000001e0: 36c3 e5bc 6004 c1be c4a5 a9be 0e42 973d
000001f0: 4bc6 15be 115e 253e d97c c9ba 6400 253d
00000200: 7db8 b03e d3df f5be 4a6b d6be c9df d43f
00000210: 643c 93be b5aa 49be 5a9d 1bbf 44b0 0fbe
00000220: be7d 07be e2f9 1c3e 640c 043f 24e4 013e
00000230: 9457 413e 5aeb 07be 2b25 4ebd 8c4e d6bd
00000240: d90d 83bf e360 e5bd f7a3 bc3d 9eb9 213e
00000250: e6ec 8cbd 1ac3 55bf b6ac 92be 9bc0 643e
00000260: 7620 b6be cf45 a3bd 736b d23d 0e5b 58bd
00000270: cf49 77be 5fcd 303e 0132 013d 55d8 a3be
00000280: 9e17 9d3e 5a5e 09be 42a9 f5bd fc2c afbd
00000290: ce8a 8a3e f4ef f8bc 3e04 bc3e 515c 1fbf
000002a0: 6290 113e ee49 7abe 43dc 2bba 8114 323f
000002b0: 2cde 4dbe 9733 e83e c9b6 adbe d50e 7bbe
000002c0: 420b 9ebd 8cd9 98be 2f61 da3d 12f4 cdbd
000002d0: d74e 4e3e 6462 c93e 1d64 86be 874d cf3d
000002e0: 90f0 053f ead5 2a3e b1ec a3be 10e7 be3d
000002f0: cf8b 9b3e 14fc b0bd ac17 c4be 21f2 40be
00000300: f824 e7bd bccf 07bf 6490 57be 2a66 6bbf
00000310: 6587 46bf 59cc bf3e 6d85 92bc 0e7a 193e
00000320: 0811 91be b563 e1be 4d9c 2fbe 3c1c 593d
00000330: 4c06 603e e31c 3dbe 01c0 543e b037 a9bd
00000340: 5451 20be 65a6 1dbd df34 c93d 2b8a 80be
00000350: 5197 3e3e c5d0 e53c 42a4 803e 847a 75bf
00000360: 13db 6b3d 17b5 4ebe 86d2 0cbc 774b 8cbe
00000370: f76e 193e a094 0d3e e798 9b3d da01 99bc
00000380: 1c4d 8cbd 11c3 de3d 35fa b33c 844d 353e
00000390: 5042 0a3e 9049 d83d 5a7f 243e b1cb 863d
000003a0: 5200 24bd 1abb b4be 5f96 95be c71f 14be
000003b0: 9c16 d9be 94ed 683e 965f 49bd 289b d7bd
000003c0: 4bcf f4bc c520 e43d 056d bcbc f1f8 173e
000003d0: 742d c73e 39a8 6c3e 6c97 803e e72c 11be
000003e0: 9a98 9abe 8c0f c03c d15d f53d 5ff2 c0bd
000003f0: 265d aabe 00e5 633e 6faf b5bd 249d 15be
-0.053392585 -0.26849288 -1.1774127 -0.18910669 -0.14548883 -0.16243072 0.2775502 -0.37816578
0.14665966 -0.7832645 -0.0417249 -0.5049871 0.2172043 0.011081662 0.5003136 0.31240967
0.09525214 -0.54841185 -0.04605979 0.17231943 0.35333195 -0.38509777 0.23754956 0.28312138
-0.26158315 0.13079174 0.0507187 0.12600534 -0.32466206 0.1889345 -0.0027139802 -0.31830117
0.3929925 -0.09033707 -0.06763352 -0.1837945 0.04038978 0.021517718 0.04372052 0.08169773
-0.006378293 0.51942647 0.018675957 0.08032069 -0.24740243 0.0046133557 -0.05239469 0.055127807
-0.06641741 0.11033289 -0.124585256 -0.038799264 0.0042650034 0.08891001 -0.11477238 0.04688251
-0.19889478 0.07817865 0.1487572 -0.06134506 -0.107270494 -0.035847425 0.14446983 -0.10621473
0.014154641 0.14849262 -0.89345556 -0.37031302 -1.1198128 -1.0304601 0.23681363 -0.48243374
0.44510216 -0.48574215 0.051583555 0.024348592 0.062155776 -0.97856283 -0.26736546 0.5450402
0.50466657 0.17165473 -0.111865275 -1.2361504 -0.13997452 0.2745402 0.087615356 -0.32648417
0.1796301 0.10699854 0.17069046 -0.058723558 -0.5538691 0.19443092 -0.52257293 -0.12432013
0.14304139 0.091841444 0.57582444 -1.779053 0.18026367 -0.08528091 -0.32972693 -0.013540834
0.14736025 0.16494097 -0.3272685 0.06523198 0.08295305 0.28982338 -0.12626727 -0.0066099404
-0.34857965 0.15554067 -0.009547525 0.024299482 -0.053574607 0.13043442 0.38589227 0.50809383
-0.028047185 -0.3769865 -0.33134282 0.07385646 -0.14626424 0.16149165 -0.001537229 0.040283576
0.34515753 -0.48022327 -0.4187873 1.6630794 -0.28757012 -0.19694026 -0.60786974 -0.14032084
-0.1323156 0.15329698 0.51581407 0.12684685 0.18881065 -0.13273373 -0.050328415 -0.104642004
-1.0238601 -0.1120012 0.09210961 0.15793464 -0.06881122 -0.83500826 -0.28647393 0.22339098
-0.3557164 -0.07972299 0.102744006 -0.05282121 -0.2414925 0.17265843 0.031541828 -0.32000986
0.3068208 -0.13414899 -0.11995174 -0.08553502 0.27059025 -0.030387856 0.36721987 -0.6225024
0.14215234 -0.24442264 -0.0006555954 0.69562536 -0.20104283 0.4535186 -0.33928517 -0.24517377
-0.07716991 -0.29853475 0.106630675 -0.10056318 0.20147263 0.3933288 -0.26248255 0.10122209
0.52320194 0.16683164 -0.3201652 0.093214154 0.30380103 -0.0864183 -0.3829931 -0.18842365
-0.11286348 -0.5305135 -0.21051174 -0.91952765 -0.77550346 0.37460592 -0.017885888 0.14987966
-0.28333306 -0.44021383 -0.17149468 0.053005442 0.21877402 -0.1846805 0.20776369 -0.08262575
-0.15656024 -0.038488764 0.098245375 -0.25105414 0.1861241 0.02805365 0.2512532 -0.9589007
0.057581972 -0.20186268 -0.008595115 -0.27401325 0.14983736 0.13826227 0.07597523 -0.01867764
-0.06850645 0.1087705 0.021969894 0.17705351 0.13501859 0.10560906 0.16064206 0.0658182
-0.040039368 -0.35298997 -0.29216287 -0.14465247 -0.42400062 0.22746879 -0.049163423 -0.105276406
-0.029884001 0.11139063 -0.023001203 0.14841057 0.38901865 0.23111047 0.25115526 -0.14177285
-0.3019455 0.023444913 0.11980785 -0.094212286 -0.33274192 0.22255325 -0.08871352 -0.14610726

fc1.bias f4 [64]
00000000: da17 bfbf 559d 7abf e6a1 a7bf cdc1 49bf
00000010: 1966 58bf 878b d2bf 96e0 98bf 6e7c f4bf
00000020: 8e3a 2cbf 912d 23bf d522 cdbf ac02 e9bf
00000030: fae2 a9bf fbaa fbbf 1e1d c8bf f8bf 38bf
00000040: 02ee b1bf f9d0 85bf 46be 75bf 250f 223f
00000050: d88e c4bf 54b7 8bbf 3358 33bf 8b38 74be
00000060: a77e 07c0 b001 1dbf 67bf 66bf 681b a5bf
00000070: a2fb 17c0 f19a ecbd 0bd3 adbf e255 5fbf
00000080: e6c4 22bf 30cf 8ebf f127 bcbf f195 02bf
00000090: 264f 3dbf 4ddc 3ebf d5df a43e adcd 9abf
000000a0: 0966 9ebf 076a 9abf 54af ecbf 4dc9 11c0
000000b0: 3023 9cbe 376b 12c0 17ed 00bf 943f 80bf
000000c0: 8576 88bf 6675 f4bf d031 14bf d66d 4abf
000000d0: 6912 cebf c291 08c0 376b 54bf cde5 a5bf
000000e0: 08b1 f6bf 2794 82bf 7010 19bf 9bde 18be
000000f0: e77a 05c0 d346 5cbf 2ed0 4cbf 9003 afbf
-1.4929154 -0.9789632 -1.3096282 -0.7881134 -0.8453079 -1.644883 -1.1943538 -1.9100473
-0.6727685 -0.63741404 -1.6026255 -1.820394 -1.3272393 -1.9661554 -1.5633886 -0.7216792
-1.3900759 -1.0454398 -0.9599346 0.6330436 -1.5356092 -1.0915322 -0.70056456 -0.23849694
-2.1171052 -0.613307 -0.90135807 -1.2898989 -2.3747334 -0.1155299 -1.358003 -0.8724042
-0.63581693 -1.1156979 -1.4699689 -0.5101004 -0.73948896 -0.745549 0.3220202 -1.2094017
-1.2374889 -1.2063607 -1.8491006 -2.2779114 -0.30495596 -2.2877939 -0.5036177 -1.0019403
-1.0661169 -1.9098327 -0.5788851 -0.79073846 -1.6099368 -2.1338964 -0.82976097 -1.2960755
-1.9272776 -1.0201463 -0.59790707 -0.14928667 -2.0856264 -0.8604557 -0.80005157 -1.3672962

fc2.weight f4 [64, 64]
00000000: e101 0e3d b90f dfbd 0354 0ebe 780b 74be
00000010: 622d ddba 9c96 51be c35e 36be 0f13 04be
00000020: 2496 bcbd ac60 b4bc 1b30 b9be fa93 8abe
00000030: 3ecc b8bd 83ae 23be 35ce 72bd 8176 9fbe
00000040: af7a fa3c 900b 043d 0456 09bd 6b31 26be
00000050: 81b7 923d 6049 3ebe 0e2f 89bd 1133 23be
00000060: 92c9 cbbd bdd3 54bd c741 10bd 7e11 bbbe
00000070: 2fb5 ff3c ab55 71be d4f1 34bd 912e babd
00000080: 2b57 02be fe8c 423d 864c 0ebd ef94 533d
00000090: 24a5 97bd 2f89 2bbb 7860 07be 2310 9cbe
000000a0: 35de 5dbe 7310 2cbc ab3b d3bc b575 cb3c
000000b0: 8098 8abe 40c7 45bd fc26 6d3d 0107 5e3c
000000c0: 010c 1dbe 002c 2b3d 3625 aabe 7664 51be
000000d0: 01c0 f4bd 26d1 813a aaa9 82bd 62e8 5cbe
000000e0: 6426 88bc ac3c aabd 9089 0cbc 263b 07bf
000000f0: eb38 473c fbe9 05be 40d9 a83c db8b 92bc
00000100: 859f 06be 841d 8abe 1152 58be ef2f d5be
00000110: 5a22 1dbc 5e69 d0be 8ba3 9abc e03f 6fbe
00000120: 7789 1abe 0a7f 1abe 4391 a6bd c33d abbd
00000130: 70f3 163d ba93 01bf f6b1 abbe 19ae dd3d
00000140: 3bde 58be 0e43 0bbd 62cf 5cbe b6aa 0cbd
00000150: e4e8 1cbe 5bbb 6e3d dc85 a2be acb5 2cbd
00000160: 9a45 21bf 1009 bbbd 82e9 55be e279 2bbe
00000170: feb3 5fbd 7f02 2bbe 250f 4bbe 7852 353d
00000180: 0a28 2cbe 053c b0be 7375 68be a865 02bd
00000190: 8237 edbe 74d8 f6bd 9099 f8be c54a cabe
000001a0: 8428 88bd d9a9 1a3d bb38 d4bd fa92 a03d
000001b0: 3755 bbbd d718 433e d01e acbe 9036 4dbd
000001c0: 14cf 9fbe acb1 423b f388 93bd 1e33 52be
000001d0: e41f 35be 361f f4bd 16a6 ff3b 1ee7 73bb
000001e0: 4038 f5be 3537 bcbd 3ac4 79be 1139 d0be
000001f0: c03b 26be 4dc3 5bbd e48e a03d 66cf c73c
00000200: 4428 9cbe a71a 39be a203 a5be dc1c 22be
00000210: da29 b7bd 8725 09be fa63 43be 2199 a9be
00000220: 9f9c 993c 1d51 9b3a 36a1 dcbe 66fa 363d
00000230: 1860 24bf 4eee 31bd a2ae 2abe 92c5 5d3c
00000240: 578a 663c 2b30 a6be 544f 23bd 878d 33bc
00000250: 6358 07bf ff9e 1dbe c7eb 94be e5c9 9abe
00000260: 740a f4be d682 85be 3e94 01bd 1bbe cdbc
00000270: 4614 3cbd b505 f4bd 6a00 b0bd d253 27be
00000280: 6e6f a4be 6be8 12be 7cc9 0c3d 7bea 97bd
00000290: 90e1 a2bd a27b 87be 5aca 28bf 264e cbbe
000002a0: 7f0c 47be 0a97 07bd 5a4f 4bbe bb0d c4bc
000002b0: 3277 95bd 98ac b4bd a237 1bbe 39b2 3ebd
000002c0: 537c 0bbd 8ccf d7bd 0009 b2bd 1dad 793b
000002d0: aef8 4fbe 17b5 cebb dd5e 65be e8d8 38be
000002e0: d5e0 13bf 79f5 26be 239e d5be b489 59bf
000002f0: 8bb2 a63d d274 813d 4392 7e3d c69b 4abe
00000300: 1e7f d8bd 3d5b b6bd ab48 febd 1870 43be
00000310: 81fa 84bd bac6 543d 6a85 3abe e7fd a5bb
00000320: cb24 a0bc 366e 58bd 9920 8ebd b816 07be
00000330: 62ba ccbd f49e dfbd 72b5 e3bd 24e8 8dbd
00000340: 7756 7abd 6524 1bbd 6cdf 663c 9951 1cbe
00000350: 05df 67be c559 983c 4105 19be d74d 48be
00000360: aad2 30be 81b1 99be 22ac 3ebe 8ac3 103d
00000370: 0db6 c33d fa3a d9bc 3c03 15be ec25 703d
00000380: b1a4 d6be 20fe a0be f6e5 8fbe bdf0 9abe
00000390: eca8 17be d4e9 9d3d c435 adbe 6470 7fbe
000003a0: cf9f 0cbe aeba e8bb f710 8b3d d430 d8bd
000003b0: a6f9 37be 403d 10be 10d5 a73d 68d3 5fbd
000003c0: 5bc9 f13b 8dba e5bc ff34 3f3d aa57 9cbe
000003d0: 65ab cbbd 7aa3 12bd 7615 6c3c 4dee adbd
000003e0: daa5 d2bd 2279 703d 1306 b2be d81b 8fbe
000003f0: 80a9 42bd 4674 edbc 22d7 75bd 6e01 b4bd
0.03466976 -0.10891671 -0.13899235 -0.238325 -0.0016874487 -0.20467609 -0.17809586 -0.12897895
-0.092083246 -0.022018753 -0.36169514 -0.27066022 -0.09023331 -0.1598454 -0.059278686 -0.311451
0.030576078 0.03223759 -0.033529297 -0.16229789 0.07163907 -0.18582678 -0.06698428 -0.15937449
-0.09950556 -0.05195974 -0.03521898 -0.36536783 0.031214325 -0.23567836 -0.044175938 -0.09090913
-0.12728564 0.047497742 -0.034740947 0.051655706 -0.07404545 -0.0026174297 -0.13220394 -0.3048106
-0.21666797 -0.010501969 -0.025785288 0.0248364 -0.27069473 -0.048285723 0.057898507 0.013551475
-0.1533661 0.04179001 -0.33231515 -0.20448479 -0.11950684 0.000990425 -0.06380017 -0.21573022
-0.016619869 -0.083123535 -0.008577719 -0.5282463 0.012159566 -0.13077538 0.020611405 -0.017888954
-0.1314679 -0.26975644 -0.21125056 -0.41638133 -0.00959071 -0.4070539 -0.018876811 -0.2336421
-0.15091501 -0.15087524 -0.08133175 -0.083613895 0.036853254 -0.5061604 -0.3353421 0.10824222
-0.21178524 -0.033999495 -0.21563485 -0.03434249 -0.15323216 0.058284145 -0.31742752 -0.042165443
-0.6299683 -0.09132588 -0.20889857 -0.16745713 -0.054615013 -0.16700171 -0.19829996 0.0442681
-0.16812149 -0.3442079 -0.22701053 -0.03183523 -0.46331412 -0.12053004 -0.4855466 -0.3951017
-0.06648353 0.037759636 -0.10362383 0.078405336 -0.09147113 0.19052444 -0.33617258 -0.050100863
-0.31212676 0.0029707951 -0.07203855 -0.20527312 -0.17687947 -0.119200155 0.0078017814 -0.0037216614
-0.47894478 -0.091902174 -0.2439126 -0.40668538 -0.1623373 -0.05365305 0.07839754 0.024390887
-0.3049947 -0.18076573 -0.32229334 -0.15831321 -0.089435294 -0.13393222 -0.19081107 -0.3312464
0.01875144 0.0011849735 -0.43091744 0.044672392 -0.6420913 -0.043440156 -0.1666818 0.013535874
0.014071069 -0.32458624 -0.039870575 -0.010959036 -0.5286924 -0.15392683 -0.29086134 -0.30232158
-0.47664225 -0.26076382 -0.031635515 -0.025115063 -0.04591777 -0.11915151 -0.08593829 -0.16340569
-0.32116264 -0.14346473 0.034371838 -0.074177705 -0.07953179 -0.26461512 -0.65933764 -0.3970806
-0.1943836 -0.033103026 -0.19854489 -0.023932328 -0.07298125 -0.08821982 -0.15157941 -0.046556685
-0.03405411 -0.10537633 -0.08693123 0.0038097568 -0.20309708 -0.0063082087 -0.22399469 -0.18051493
-0.5776494 -0.16304578 -0.4172221 -0.84975743 0.08139523 0.0632111 0.062151205 -0.19785985
-0.10571121 -0.08904121 -0.12416204 -0.19085729 -0.06493092 0.051947333 -0.18214956 -0.005065668
-0.019548794 -0.05283948 -0.06939811 -0.1319226 -0.09996487 -0.1091899 -0.11118592 -0.06929043
-0.061117616 -0.037876505 0.014091354 -0.15265502 -0.22643669 0.018597493 -0.1494341 -0.19560944
-0.17267862 -0.30018237 -0.18620351 0.03534273 0.09556208 -0.02651738 -0.14552015 0.058629915
-0.41922525 -0.31443882 -0.28105134 -0.30261794 -0.14810532 0.07710615 -0.33830082 -0.24945217
-0.13732837 -0.007102332 0.06790345 -0.10556188 -0.17966327 -0.14085865 0.08194935 -0.054644972
0.00737874 -0.028043056 0.0466814 -0.30535632 -0.099448 -0.035800435 0.014409414 -0.08492718
-0.1028554 0.05870927 -0.3477026 -0.2795093 -0.04752493 -0.028986108 -0.06001962 -0.08789335

fc2.bias f4 [64]
00000000: ad2d 05bf c755 82be 5223 acbe c80e 8abe
00000010: 3abf 1dbe 69a8 c7be c887 203f 1bf3 d6be
00000020: d74e 2ebe 5feb e4bd dc1d 93bd 5f95 49be
00000030: 8408 96bd be9c 73be 8d17 2ebe 5267 76be
00000040: da9a 8f3e 84f9 423f bc62 61be 33f4 3bbd
00000050: ff5e a83f 2124 0abe 1da4 28bf 6e40 57bf
00000060: 460b 3bbd 1a0b 98bd 81fa 3fbf 1971 dcbe
00000070: c494 563f a1b0 27be abf9 33be 8300 c0be
00000080: 5bac 06be ffea 97bd 29d1 02bf 539e 31be
00000090: 7954 8fbe 8c05 7cbe 3149 b9be bbdd 95bd
000000a0: f434 ffbe 5538 85be 3eda 6ebe 4a57 17be
000000b0: 66e7 edbe fc43 18be 7f20 0fbe 3eb3 fdba
000000c0: 51ac 34bf 4992 3ebe f574 12bd 41ce 90bd
000000d0: 8bb4 f3be 058e dbbd b4cf cdbe 3ee9 c8be
000000e0: 900e 9e3f 768e c4bd 6e39 49be 26d3 713e
000000f0: b2f7 b2be b806 0abd 4c83 123d 4354 8ebd
-0.5202282 -0.25456068 -0.33620697 -0.26964402 -0.15404978 -0.38995674 0.62707186 -0.4198235
-0.17022263 -0.11177706 -0.071834296 -0.19685887 -0.07325843 -0.23790261 -0.17001171 -0.24062851
0.2804783 0.7616198 -0.2201032 -0.045887183 1.315399 -0.13490345 -0.65875417 -0.84082687
-0.045665048 -0.074239925 -0.74991614 -0.43055037 0.8382075 -0.16375972 -0.1757571 -0.3750039
-0.13151686 -0.07417869 -0.51100403 -0.17345552 -0.27994135 -0.24611491 -0.36188653 -0.07317682
-0.49845088 -0.2601954 -0.2332544 -0.14779392 -0.46465605 -0.14869684 -0.1397724 -0.0019355786
-0.70575434 -0.18610491 -0.03575607 -0.0707059 -0.4759868 -0.107204475 -0.40197527 -0.3924045
1.2348194 -0.09597485 -0.19650814 0.23615703 -0.34954602 -0.033697814 0.035769746 -0.069496654

fc3.weight f4 [1, 64]
00000000: a6a4 81bd b78e debc 79e6 16bc 2eea bebc
00000010: 9cb2 5a3c be25 a8bb 3318 753d 9687 80bd
00000020: 14c1 8fbd 797b 4f3b a782 5bbc 3238 9f3d
00000030: 77ab 4c3c 5483 a43d c730 463d 696f 72bb
00000040: 7790 af3d 76f5 8ebd c2d3 89bd ef7b 073e
00000050: 4b25 90be f486 243c d020 85bd 0e40 ad3d
00000060: b816 103c 1881 56bc 4976 573e 11da 2d3d
00000070: 2e51 103e 7670 09bd cfc5 143d 0843 72be
00000080: c713 3e3c acc2 be3b 4d5b 90bb 9aaa eb3b
00000090: 5b06 adbd 38a9 4cbd 9165 17be ccb9 6d3d
000000a0: 88c9 6ebd 0a96 e8b6 b0d1 a6bd 196c d63c
000000b0: f1e5 7b3d fe9d c1bc 5e2d 55bc c820 8e3d
000000c0: 2c47 2b3d 9b00 20bb 9cf9 ffbc d448 bcbc
000000d0: e9b8 21be 9286 d73b dac7 4cbe d71b dc3c
000000e0: f8c3 f6bd 9c62 5abd 746e 503c 60b1 0ebe
000000f0: ba3d c9bc c923 bb3b 63ec c23b b912 993c
-0.06330232 -0.027167661 -0.009210222 -0.023305025 0.013348248 -0.0051314523 0.05983753 -0.06275861
-0.070192486 0.0031659289 -0.013397849 0.0777439 0.012492052 0.08032861 0.04838636 -0.0036992675
0.08572476 -0.06980412 -0.06729843 0.1323087 -0.28153452 0.010041941 -0.06500399 0.08459483
0.008794479 -0.013092302 0.21041216 0.042444292 0.14093468 -0.033554517 0.036321457 -0.23658383
0.011601395 0.0058215465 -0.004405415 0.007191968 -0.08448478 -0.049966067 -0.14784838 0.058038518
-0.058297664 -6.9316056e-06 -0.081454635 0.026174592 0.061498586 -0.023634907 -0.013011305 0.06939846
0.04181592 -0.0024414423 -0.031246953 -0.022983946 -0.15793194 0.0065773213 -0.19998112 0.026868744
-0.12049097 -0.053316697 0.012721647 -0.1393485 -0.024565566 0.005711053 0.0059485896 0.018685685

fc1.weight f4 [64, 1]
00000000: 8a75 953f 0127 bfbe 548f 63be d522 f3be
00000010: 6f3d 09c0 97b7 1b3f 68b9 a1bd 6d4f 533f
00000020: 90ad 94bc 9be9 923d 37e1 8bbd 7b70 153c
00000030: 0a1b f0bf 987d 993d 3051 95bd 9b04 c2bc
00000040: 306c 143e 00e7 82bb 516c 22be 577b 803d
00000050: 07ec 97bd 4035 adbe 70a3 2bbe 7909 b0be
00000060: c2e4 c8bf a12c b0be 70e5 9f3a ea6b 893e
00000070: 1b28 f9bf 83e3 9cbd 3a28 473d 1958 323e
00000080: 9a83 31be fd09 d2bf d9c8 33bf 60c6 66bd
00000090: 69b6 eebc ba44 3c3d 7c5a 61bd 6360 90be
000000a0: 4b72 563e 5ca0 d8be 4402 1bbe ca4c 7dbd
000000b0: caf2 b23d 65c5 6dbd 2b41 c0bf b067 f9bf
000000c0: ec48 ecbe 0088 e0bd 49f3 34bf b081 c4bf
000000d0: def5 433c eca9 60bc 7b1a db3d 17fa 973e
000000e0: 20ca 3fbd 6960 f4bf e1b1 b8bd e115 f53d
000000f0: 4998 ffbd 6569 f43e ff37 5f3e cd7f 733c
1.1676495 -0.37334445 -0.22222644 -0.47487512 -2.1443746 0.6082701 -0.078966916 0.8254307
-0.018149167 0.07173463 -0.06830066 0.009121056 -1.8758252 0.07494658 -0.07290876 -0.023683837
0.14494395 -0.0039948225 -0.15861632 0.06273525 -0.074180655 -0.3382969 -0.16761565 -0.34382227
-1.5694811 -0.3440905 0.0012199115 0.26840144 -1.9465364 -0.07660582 0.048622347 0.17416419
-0.17335358 -1.6409298 -0.70228344 -0.05634153 -0.029139714 0.04596398 -0.055017933 -0.28198537
0.20942037 -0.42309844 -0.15137583 -0.06184081 0.087377146 -0.05804958 -1.5019888 -1.9484768
-0.46149385 -0.1096344 -0.70683724 -1.5352077 0.011960475 -0.0137123875 0.1069841 0.2968299
-0.04682362 -1.9091922 -0.09018303 0.11967064 -0.12480218 0.4773666 0.21798705 0.014862013

fc1.bias f4 [64]
00000000: 6c4e 9bbf 8c40 17bf 0986 e8be 9c78 50bf
00000010: c293 09bf e7f5 c1bf a506 20be ebcc 293f
00000020: 290c a8bd f6ab bebe 6271 f0bd d698 30be
00000030: bae3 463e 1898 1fbf ae15 6dbf 4087 d7bd
00000040: e2ff 33bf 8327 41bf 9b06 cabe 5087 91be
00000050: d0d5 1fbe 1845 58bf 5294 63bf 6a8c f5be
00000060: 72f9 fdbe 7a1f fdbe 590a a7bc ae14 fcbf
00000070: 562b 2a3e e564 e2be 5b9c 89be 5c35 56bf
00000080: 6a5c 7dbe ef0a 043f 7d43 e9bf 46d8 3abf
00000090: 44a8 90be 476b 08bf 1030 12be 9454 19bf
000000a0: 0a5f 7bbf c0b5 59bf 7bbe 88be 84be 1ebe
000000b0: 1b59 0fbf e3e5 40be 44ae 0c3e 588a 5e3e
000000c0: 51d1 26bf 72e0 29bf 37e0 87bf 3fac 0c3e
000000d0: c0b4 debd e5f6 ebbc 4d01 edbf ffc8 cbbf
000000e0: 50d2 1abf 888d d4be 331a 84be a05d 03bf
000000f0: 035b 47be 2c68 13c0 a9f8 e4bf 33e3 48be
-1.2133307 -0.59082866 -0.4541476 -0.81434035 -0.53741086 -1.5153168 -0.15627535 0.66328305
-0.08205444 -0.3724057 -0.11740376 -0.17245802 0.19422808 -0.6234145 -0.92611206 -0.10523844
-0.7031232 -0.75450915 -0.39458165 -0.28423548 -0.15608907 -0.8448043 -0.88898194 -0.4795869
-0.49604374 -0.49438077 -0.020390676 -1.9693811 0.16618094 -0.442176 -0.26877102 -0.8367517
-0.24742284 0.51579183 -1.8223721 -0.7298626 -0.28253376 -0.5328869 -0.14276147 -0.5989468
-0.98191893 -0.85042953 -0.26707825 -0.15502363 -0.5599534 -0.18837695 0.13738352 0.21732461
-0.6516314 -0.663581 -1.06153 0.13737582 -0.10874319 -0.028804252 -1.8516022 -1.5920714
-0.6047716 -0.4151423 -0.25801238 -0.51314735 -0.19468312 -2.3032331 -1.7888385 -0.1961792

fc2.weight f4 [64, 64]
00000000: a6ff b5bd 4295 b63e f318 98bc 34d7 23bd
00000010: 9368 853e e5cb 6ebd 4e41 b3bc d16d e8bb
00000020: 3be2 01be 0d84 eb3d ccdb 93be a255 febd
00000030: 1a33 343c b7db 8ebd 70ea 9cbd 3732 8bbd
00000040: 3075 1e3d a8de e7bc 5797 03bf 7c8b 5dbd
00000050: 37f2 9dbc d4bf 9d3e e463 2dbd 0fa9 82bd
00000060: 6e02 7ebd 7a22 b03d c5ac a2be f69b 70be
00000070: 73af 81bc 9a8a 8dbe b33a 89be 12c8 33be
00000080: 991f b1be 7f0a 983d 46f0 8f3e 7bcb 0abd
00000090: 980b 93be f663 313e 2b2b 59be 3b02 85be
000000a0: df84 81be 8059 69bd 331a 9dbe 64f0 d13d
000000b0: 076a 43be fa01 04be fb55 0fbd 8d38 e9bd
000000c0: fe27 b8bd 606e 823b d837 6e3d 681c 1ebe
000000d0: 8ba7 8abe a59e e8bd c61d 7ebe c50b 28be
000000e0: ec1d a5bd d665 053e 41fe b1be abc4 0ebf
000000f0: eae2 31be 700a 5ebe fd67 e5bd 2a05 3ebf
00000100: 6ef9 f2bd c1cb efbd 3b16 0abd b463 17be
00000110: 3c70 703d 70d4 a63c 70a9 693d 04fb 16be
00000120: 4744 02be 144b bdbd 0467 9ebc 705b ddbd
00000130: 9049 94bc 1055 d0bd f080 1fbc 5a10 3fbe
00000140: 0813 ae3c d45a 713d 257e 23bd 5635 b2bc
00000150: 2280 39be 6e81 ba3d 7a32 df3d 3b65 1a3d
00000160: 3b40 03bd dd52 28be ecde 13be e60b 4e3d
00000170: b5f5 60be 47dd cebb bdfc 20be 9c99 17be
00000180: 3153 aebd a46f 5bbe 609e 1cbe e83c ba3d
00000190: 6850 663c 0c1d f23d 66c9 fdbd 448a 55be
000001a0: 772d 813d 8823 dabc 00c1 5dbe bda6 e6bc
000001b0: 87ba 40be 6d32 b63c 12dd 3cbd 3f7e 8cbe
000001c0: d8cc 91be c065 33bc a02b 93bd 3387 8fbd
000001d0: 3899 57be 1ac5 7dbd 5ec0 35be a8e2 17be
000001e0: 9e6a aabd 0236 b0bc 16e7 3dbd ecf0 d0bd
000001f0: e4e5 d9bd 8b43 8abb 2209 38bd c206 fbbd
00000200: d115 a6be 385f 9d3d c062 edbb 4398 c2bd
00000210: 86a3 e83d 20ac e13c 6e8a f8bd 9325 8cbe
00000220: ae98 3fbd 000d aabd 6539 23bc 75c7 2fbe
00000230: b3a7 143d ba93 a4bd d4ce 103d bc19 18bd
00000240: 0891 f33c 0455 d43d 0b81 06be 57ab 08be
00000250: 2944 27be 4019 a8bb 808b 72bd b775 46bd
00000260: 20eb d1bc ccdb 13bd 74ec ed3c bacc 36bd
00000270: 90ef 24bd 743c 10be 5bdf 42be ded2 cd3c
00000280: 345c d2bd 18b3 ce3c 0084 973b f023 a3bd
00000290: 77af 0cbc 9a77 8f3d 90df 94bd 627b 91bd
000002a0: 9798 08be 05a0 e13a bcf4 19be c0a6 18be
000002b0: 40bf 98bc 919a ecbd 505f fb3c 2d08 e3bd
000002c0: 018a a2bd c46b 43bd c4f2 e9bd 47d9 573d
000002d0: 6519 60bd 01e5 803d 8798 cebd 2d5a e6bd
000002e0: ceaa f0bd 545c 42bd 3363 553b 4c8a 52be
000002f0: 7414 33bd d325 8dbb fdad 2abc 2b8b 09bd
00000300: f529 2abe 7dbf 65bd cf7f 0cbe d0fe 14be
00000310: 90ab 553d 5a3b 3cbe 89b7 26be 5986 a3bd
00000320: ba6f 39be 8420 d7bd efec 0bbd f53d 6fbd
00000330: 8949 b03b 6586 6bbe 8073 8e3a d22d fbbd
00000340: 622f 8fbd 8203 90bd 4809 90bd d396 cfbd
00000350: f608 3cbe ac71 b4bd 6c1a d4bd 2785 183c
00000360: d9d7 a4bd 4d8b efbd 2c63 18be d715 4abe
00000370: a835 5fbe 167b 36be 68bc 54bd 49c4 a7bd
00000380: f8ca 16be ccac 1fbe 4e89 a33d 4689 b83d
00000390: 7813 a63c 705a 153d 6995 27bd 9de0 20be
000003a0: 8e42 38be 6ccc fabd c328 c6bc bf39 0dbe
000003b0: 5619 bfbd eb65 cabd 4a46 7cbe 68d7 1cbe
000003c0: 0745 45bd 1042 cfbc b0c5 5dbe 2917 a2bd
000003d0: 7774 c1bd d7bc 03be 0642 79bd ca69 b4bd
000003e0: c0d3 3cbd 3665 4f3b 4c6b 13bd afb5 0fbe
000003f0: d1e4 29be 3144 64be cf1b 4cbd d793 0ebe
-0.08886652 0.3566075 -0.018566584 -0.040000156 0.26056346 -0.058299918 -0.021881726 -0.0070931693
-0.12683956 0.11499796 -0.2887863 -0.12418677 0.010998512 -0.06975501 -0.07661903 -0.06796687
0.038685977 -0.028304413 -0.514028 -0.0540881 -0.019280536 0.30810416 -0.04233159 -0.063799016
-0.062014036 0.08600326 -0.31772438 -0.23496994 -0.015830731 -0.27644807 -0.26802596 -0.1755679
-0.3459442 0.07423877 0.28113002 -0.03388546 -0.28719783 0.17323288 -0.21207874 -0.25978264
-0.25296685 -0.05697012 -0.3068405 0.10250929 -0.19083415 -0.12891379 -0.034994107 -0.11387739
-0.08992003 0.003980443 0.058158726 -0.15440524 -0.2708095 -0.11358384 -0.24816045 -0.1641074
-0.08062348 0.13027129 -0.34764293 -0.5576884 -0.17371717 -0.21683669 -0.11201475 -0.7422663
-0.11863981 -0.11708785 -0.033712607 -0.14784127 0.058700785 0.02036497 0.057046354 -0.14744192
-0.12721358 -0.09242836 -0.019336231 -0.10808456 -0.018101484 -0.101724744 -0.009735331 -0.18658581
0.02124931 0.05892451 -0.039915223 -0.021753948 -0.18115285 0.09106718 0.108982995 0.037694197
-0.032043677 -0.1643786 -0.14440507 0.050304316 -0.2196873 -0.0063129994 -0.15721412 -0.14804691
-0.08511961 -0.21429306 -0.1529479 0.09093648 0.014057256 0.118219465 -0.12391929 -0.20853525
0.063075 -0.02662827 -0.21655655 -0.028155679 -0.18821155 0.022240842 -0.046109267 -0.27440068
-0.28476596 -0.010949552 -0.07186055 -0.07008209 -0.21054542 -0.06195555 -0.17749164 -0.14832556
-0.08321117 -0.021510128 -0.04636296 -0.10202202 -0.10639551 -0.0042194775 -0.044930585 -0.12257148
-0.3243852 0.07684177 -0.007244438 -0.09501698 0.113593146 0.027547896 -0.12135778 -0.27372417
-0.046776466 -0.08303261 -0.009962414 -0.1716593 0.036292743 -0.08035989 0.035353497 -0.037133917
0.029732242 0.10367778 -0.13135163 -0.13346611 -0.16334595 -0.005129963 -0.05921507 -0.048452105
-0.025624812 -0.036098287 0.029043414 -0.044628836 -0.040267527 -0.14085561 -0.19030516 0.025124963
-0.102714926 0.025231883 0.00462389 -0.07965839 -0.008586756 0.07005234 -0.07269204 -0.071036115
-0.13339458 0.0017213827 -0.15034765 -0.1490736 -0.018645883 -0.11552919 0.030685097 -0.11085544
-0.079364784 -0.047710195 -0.11423257 0.052697446 -0.054711718 0.06293679 -0.10087686 -0.112476684
-0.117513284 -0.047451332 0.0032560348 -0.20560569 -0.043720677 -0.0043074875 -0.010417459 -0.033579987
-0.16617568 -0.05609082 -0.1372063 -0.14550328 0.052165568 -0.18382016 -0.1628095 -0.07984609
-0.18109027 -0.10504249 -0.034161504 -0.058408696 0.00537986 -0.23000486 0.0010868162 -0.12264599
-0.069914594 -0.07031919 -0.0703302 -0.10136189 -0.18362793 -0.08810744 -0.10356602 0.00930909
-0.08048982 -0.116964914 -0.14881581 -0.19734894 -0.21797812 -0.17820391 -0.05193749 -0.08191735
-0.14725864 -0.1559326 0.07985173 0.09010558 0.020272955 0.0364632 -0.040913973 -0.15710683
-0.17994139 -0.12246022 -0.024189359 -0.1379156 -0.09331004 -0.098827206 -0.24636188 -0.15316546
-0.048161533 -0.025300056 -0.21657443 -0.07914574 -0.09446042 -0.12865005 -0.06085398 -0.0880924
-0.046100378 0.003164602 -0.035991 -0.1403415 -0.16591193 -0.22291638 -0.049831208 -0.13923584

fc2.bias f4 [64]
00000000: 9a38 31bf 6767 05be 46b3 fcbe 7438 19be
00000010: a353 8fbe 33fd 4cbd b383 81bf 2252 70bf
00000020: bf81 81bd 9876 2f3f c0b7 11be bf6f 44be
00000030: 60f9 51be 01f6 29be faf4 813e 29a7 23be
00000040: df79 c7bd 83cc 0bbe 939b 49be 2026 96be
00000050: 6bd7 2a3f 3fc1 de3e 3639 35be 2177 c63f
00000060: 2a2f 37bd 4d50 a4bd 341e 94bd 2ff3 8bbe
00000070: 874d 4ebe c81c d3be 339e 87be bd3c 27be
00000080: e245 01bf db90 4dbe 041f 01bc d611 babd
00000090: d99f a5be 8eea b5be c8ab 10be cd63 27c0
000000a0: cd24 65be d845 1bbe 0158 a2be 3e45 f0be
000000b0: e8ce 6c3f 5579 6fbe fa0a f6bd d344 4cbf
000000c0: 6bf5 c9be 00b5 dfbd 5aef f7bd 0f08 48be
000000d0: 5778 84bc 7517 2bbe 47d7 4fbe 565b b4be
000000e0: b0e1 50be 1a52 33bc b0dd d9bd d966 e2bd
000000f0: 78f8 9dbe b0ee 12bf cdd5 edbc 11ad 2bbc
-0.6922699 -0.13027726 -0.49355525 -0.14962941 -0.27993497 -0.050046157 -1.0118316 -0.93875325
-0.06323575 0.68540335 -0.14230251 -0.19183253 -0.20505285 -0.1659775 0.25382215 -0.15981735
-0.09740042 -0.13652234 -0.19688253 -0.29325962 0.6673495 0.4350681 -0.17697605 1.5505105
-0.044722714 -0.08023129 -0.07232323 -0.27333972 -0.20146762 -0.41232896 -0.26487884 -0.16331764
-0.5049726 -0.20074789 -0.00788093 -0.09085433 -0.32348517 -0.35530514 -0.1412803 -2.6154664
-0.2237732 -0.15163362 -0.31707767 -0.46927828 0.92503214 -0.23386128 -0.12013812 -0.7979252
-0.39445052 -0.10923195 -0.121061996 -0.19534324 -0.016170664 -0.16708167 -0.20296966 -0.35225934
-0.20398593 -0.0109448675 -0.10637987 -0.11054773 -0.3085363 -0.5739546 -0.029032612 -0.010478274
