maddpg_pytorch/models/cache_data/model/run51/incremental/model_ep10001.pt (torch, 690099 bytes, 168 tensors)

fc1.weight f4 [64, 1]
1.0285171 -0.3733413 -0.22222553 -0.47487235 -2.1443727 0.8928003 -0.07896643 1.1108328
-0.018149152 0.071733885 -0.06830076 0.009121003 -1.8590919 0.0749472 -0.07290876 -0.02368397
0.14494395 -0.0039948225 -0.15861726 0.06273471 -0.0741804 -0.33829564 -0.16761565 -0.3438196
-1.5694752 -0.34409 0.0012199158 0.26839912 -1.8426454 -0.076605126 0.048621953 0.1741627
-0.1733548 -1.6947759 -0.7022816 -0.056341156 -0.029139718 0.04596428 -0.0550178 -0.2819847
0.20942001 -0.42309844 -0.15137617 -0.061840847 0.08737774 -0.058049835 -1.46741 -1.828589
-0.4614927 -0.1096344 -0.70683235 -1.5001298 0.01196039 -0.013712325 0.10698335 0.29682854
-0.04682362 -1.9091804 -0.09018275 0.21540686 -0.12480157 0.47736406 0.21798632 0.014861933
00000000: 73a6 833f 9726 bfbe 178f 63be 7822 f3be
00000010: 673d 09c0 8f8e 643f 27b9 a1bd c52f 8e3f
00000020: 88ad 94bc 37e9 923d 45e1 8bbd 4270 153c
00000030: b9f6 edbf eb7d 993d 3051 95bd e304 c2bc
00000040: 306c 143e 00e7 82bb 906c 22be 0e7b 803d
00000050: e5eb 97bd 1635 adbe 70a3 2bbe 1f09 b0be
00000060: 90e4 c8bf 912c b0be 95e5 9f3a 9c6b 893e
00000070: cedb ebbf 26e3 9cbd d027 473d b557 323e
00000080: ec83 31be 6bee d8bf bac8 33bf fcc5 66bd
00000090: 6bb6 eebc 0a45 3c3d 585a 61bd 4c60 90be
000000a0: 3372 563e 5ca0 d8be 5b02 1bbe d44c 7dbd
000000b0: 1af3 b23d aac5 6dbd 17d4 bbbf 340f eabf
000000c0: c548 ecbe 0088 e0bd f7f2 34bf 4104 c0bf
000000d0: 83f5 433c a9a9 60bc 161a db3d e9f9 973e
000000e0: 20ca 3fbd 0660 f4bf bcb1 b8bd 9e93 5c3e
000000f0: f797 ffbd 1069 f43e ce37 5f3e 777f 733c

fc1.bias f4 [64]
-1.2206641 -0.5908319 -0.45414722 -0.81434137 -0.5374081 -0.6223025 -0.15627556 0.4731351
-0.08205481 -0.37240827 -0.11740408 -0.17245893 0.10118763 -0.62341696 -0.92611206 -0.10523843
-0.7031232 -0.754509 -0.39458415 -0.28423572 -0.1560897 -0.84480363 -0.88898194 -0.4795885
-0.49604398 -0.49438176 -0.020390823 -1.9693882 0.41084573 -0.44217604 -0.26877218 -0.83675444
-0.24742301 0.38424525 -1.8223754 -0.72986704 -0.28253385 -0.53288764 -0.14276206 -0.598947
-0.98191977 -0.85042953 -0.267079 -0.15502419 -0.5599536 -0.18837766 0.118068196 0.3608691
-0.6516326 -0.663581 -1.0615375 0.13224182 -0.10874361 -0.028804407 -1.8516021 -1.5920773
-0.6047716 -0.41514447 -0.25801384 -0.11075282 -0.1946838 -2.3032377 -1.7888428 -0.19617912
00000000: b93e 9cbf c240 17bf fc85 e8be ad78 50bf
00000010: 9493 09bf 374f 1fbf b306 20be c43e f23e
00000020: 5a0c a8bd 4cac bebe 8d71 f0bd 1399 30be
00000030: 763b cf3d 4198 1fbf ae15 6dbf 3f87 d7bd
00000040: e2ff 33bf 8027 41bf ef06 cabe 5887 91be
00000050: fad5 1fbe 0d45 58bf 5294 63bf a08c f5be
00000060: 7af9 fdbe 9b1f fdbe a80a a7bc ea14 fcbf
00000070: 5f5a d23e e664 e2be 829c 89be 8a35 56bf
00000080: 755c 7dbe cbbb c43e 9943 e9bf 91d8 3abf
00000090: 47a8 90be 536b 08bf 3830 12be 9754 19bf
000000a0: 185f 7bbf c0b5 59bf 94be 88be a9be 1ebe
000000b0: 1e59 0fbf 13e6 40be bdcd f13d d6c3 b83e
000000c0: 65d1 26bf 72e0 29bf 76e0 87bf 666a 073e
000000d0: f8b4 debd 38f7 ebbc 4c01 edbf 30c9 cbbf
000000e0: 50d2 1abf d18d d4be 641a 84be 60d2 e2bd
000000f0: 315b 47be 3f68 13c0 cdf8 e4bf 2ee3 48be

fc2.weight f4 [64, 64]
-0.08886676 0.35661 -0.01856652 -0.039999943 0.26056585 -0.058300007 -0.021881837 -0.0070931995
-0.12684022 0.11499833 -0.2887866 -0.124186926 0.010998551 -0.06975568 -0.07661903 -0.06796696
0.038685977 -0.028304413 -0.5140329 -0.054088302 -0.019280346 0.30810565 -0.04233159 -0.06379959
-0.062014006 0.08600319 -0.31772494 -0.23497114 -0.015830886 -0.27644628 -0.26802754 -0.1755679
-0.3459436 0.074237995 0.28112805 -0.033885527 -0.28719985 0.1732338 -0.21207848 -0.25978452
-0.2529666 -0.05697012 -0.30683902 0.10250947 -0.19083486 -0.12891291 -0.03499438 -0.1138777
-0.08992029 0.003980443 0.058158457 -0.1544055 -0.27081123 -0.11358438 -0.24816146 -0.164108
-0.08062348 0.13027097 -0.34764096 -0.5576923 -0.17371775 -0.21683681 -0.11201488 -0.742269
-0.118639745 -0.11708834 -0.033712618 -0.14784256 0.058700785 0.020364832 0.05704606 -0.14744253
-0.12721434 -0.09242836 -0.019336304 -0.10808459 -0.018101506 -0.10172467 -0.009735331 -0.18658708
0.02124931 0.05892451 -0.039915387 -0.02175398 -0.18115342 0.09106718 0.108982995 0.037694074
-0.03204378 -0.16437945 -0.1444061 0.050304066 -0.21968824 -0.006313002 -0.15721413 -0.14804713
-0.08511981 -0.2142929 -0.1529489 0.09093648 0.014057191 0.118219465 -0.12391931 -0.20853516
0.06307467 -0.02662827 -0.2165569 -0.028155746 -0.18821245 0.022240711 -0.04610957 -0.2744008
-0.28476754 -0.010949552 -0.071860984 -0.070082694 -0.21054587 -0.061955646 -0.17749225 -0.14832687
-0.08321117 -0.021510191 -0.04636327 -0.10202227 -0.106395766 -0.0042194976 -0.04493077 -0.12257173
-0.32438675 0.07684177 -0.007244438 -0.095017 0.113593146 0.027547719 -0.12135774 -0.27372617
-0.046776775 -0.08303261 -0.009962463 -0.17165934 0.03629259 -0.08035989 0.035353497 -0.03713393
0.029732242 0.10367778 -0.13135245 -0.13346642 -0.16334592 -0.005129963 -0.05921507 -0.048452333
-0.025624812 -0.03609859 0.029043308 -0.044628855 -0.040267527 -0.14085636 -0.19030574 0.025124803
-0.10271533 0.025231883 0.00462389 -0.07965839 -0.008586821 0.07005234 -0.072692685 -0.071036115
-0.13339555 0.0017213821 -0.15034829 -0.14907452 -0.018645883 -0.11552939 0.030685097 -0.110855535
-0.079364784 -0.047710195 -0.11423257 0.05269732 -0.054711737 0.06293627 -0.10087728 -0.11247688
-0.11751327 -0.047451332 0.0032560225 -0.20560592 -0.043720677 -0.004307499 -0.010417537 -0.03357998
-0.16617657 -0.0560911 -0.1372071 -0.14550315 0.052165568 -0.1838207 -0.16280945 -0.07984633
-0.18109085 -0.10504298 -0.034161635 -0.05840868 0.0053798174 -0.23000504 0.0010868162 -0.122645915
-0.069914594 -0.07031919 -0.070330806 -0.1013625 -0.18362899 -0.08810744 -0.10356602 0.009309071
-0.08049015 -0.11696491 -0.14881591 -0.19734943 -0.21797797 -0.17820399 -0.05193748 -0.08191778
-0.14725947 -0.15593272 0.07985173 0.09010558 0.020272931 0.0364632 -0.04091427 -0.15710783
-0.17994171 -0.12246022 -0.024189368 -0.13791588 -0.09331054 -0.09882735 -0.24636179 -0.15316549
-0.048161723 -0.025300056 -0.21657437 -0.07914634 -0.09446089 -0.12865125 -0.060854137 -0.08809279
-0.046100378 0.0031645962 -0.03599126 -0.14034206 -0.16591264 -0.22291698 -0.049831398 -0.13923642
00000000: c7ff b5bd 9695 b63e d118 98bc fbd6 23bd
00000010: e368 853e fdcb 6ebd 8a41 b3bc 126e e8bb
00000020: 67e2 01be 3f84 eb3d d6db 93be b755 febd
00000030: 4433 343c 11dc 8ebd 70ea 9cbd 4332 8bbd
00000040: 3075 1e3d a8de e7bc a997 03bf b28b 5dbd
00000050: d1f1 9dbc 06c0 9d3e e463 2dbd 5ca9 82bd
00000060: 6602 7ebd 7122 b03d d8ac a2be 469c 70be
00000070: c6af 81bc 5e8a 8dbe e83a 89be 12c8 33be
00000080: 851f b1be 170a 983d 04f0 8f3e 8dcb 0abd
00000090: dc0b 93be 3464 313e 1a2b 59be 7a02 85be
000000a0: d784 81be 8059 69bd 011a 9dbe 7cf0 d13d
000000b0: 376a 43be bf01 04be 4456 0fbd b638 e9bd
000000c0: 2128 b8bd 606e 823b 9037 6e3d 7a1c 1ebe
000000d0: c5a7 8abe ed9e e8bd 0a1e 7ebe ed0b 28be
000000e0: ec1d a5bd c165 053e fffd b1be ecc4 0ebf
000000f0: 11e3 31be 780a 5ebe 0f68 e5bd 5705 3ebf
00000100: 65f9 f2bd 03cc efbd 3e16 0abd 0a64 17be
00000110: 3c70 703d 26d4 a63c 21a9 693d 2dfb 16be
00000120: 7a44 02be 144b bdbd 2b67 9ebc 745b ddbd
00000130: 9c49 94bc 0655 d0bd f080 1fbc af10 3fbe
00000140: 0813 ae3c d45a 713d 517e 23bd 6735 b2bc
00000150: 4880 39be 6e81 ba3d 7a32 df3d 1a65 1a3d
00000160: 5740 03bd 1653 28be 31df 13be a30b 4e3d
00000170: f4f5 60be 4ddd cebb befc 20be ab99 17be
00000180: 4c53 aebd 996f 5bbe a39e 1cbe e83c ba3d
00000190: 2250 663c 0c1d f23d 68c9 fdbd 3e8a 55be
000001a0: 4b2d 813d 8823 dabc 18c1 5dbe e1a6 e6bc
000001b0: c4ba 40be 2732 b63c 63dd 3cbd 437e 8cbe
000001c0: 0dcd 91be c065 33bc da2b 93bd 8487 8fbd
000001d0: 5699 57be 34c5 7dbd 87c0 35be 00e3 17be
000001e0: 9e6a aabd 2436 b0bc 6ae7 3dbd 0df1 d0bd
000001f0: 06e6 d9bd b643 8abb 5409 38bd e306 fbbd
00000200: 0516 a6be 385f 9d3d c062 edbb 4698 c2bd
00000210: 86a3 e83d c1ab e13c 688a f8bd d625 8cbe
00000220: 0199 3fbd 000d aabd 9939 23bc 77c7 2fbe
00000230: 8aa7 143d ba93 a4bd d4ce 103d bf19 18bd
00000240: 0891 f33c 0455 d43d 4281 06be 6cab 08be
00000250: 2744 27be 4019 a8bb 808b 72bd f475 46bd
00000260: 20eb d1bc 1ddc 13bd 3bec ed3c bfcc 36bd
00000270: 90ef 24bd a63c 10be 82df 42be 88d2 cd3c
00000280: 6a5c d2bd 18b3 ce3c 0084 973b f023 a3bd
00000290: bdaf 0cbc 9a77 8f3d e7df 94bd 627b 91bd
000002a0: d898 08be 00a0 e13a e7f4 19be fea6 18be
000002b0: 40bf 98bc ac9a ecbd 505f fb3c 3a08 e3bd
000002c0: 018a a2bd c46b 43bd c4f2 e9bd 25d9 573d
000002d0: 6a19 60bd bbe4 803d bf98 cebd 475a e6bd
000002e0: ccaa f0bd 545c 42bd fe62 553b 5c8a 52be
000002f0: 7414 33bd ec25 8dbb 51ae 2abc 298b 09bd
00000300: 312a 2abe c8bf 65bd 0580 0cbe c7fe 14be
00000310: 90ab 553d 7e3b 3cbe 85b7 26be 7986 a3bd
00000320: e16f 39be c620 d7bd 12ed 0bbd f13d 6fbd
00000330: 2e49 b03b 7186 6bbe 8073 8e3a c82d fbbd
00000340: 622f 8fbd 8203 90bd 9909 90bd 2497 cfbd
00000350: 3d09 3cbe ac71 b4bd 6c1a d4bd 1385 183c
00000360: 05d8 a4bd 4c8b efbd 3363 18be f815 4abe
00000370: 9e35 5fbe 1b7b 36be 65bc 54bd 82c4 a7bd
00000380: 30cb 16be d4ac 1fbe 4e89 a33d 4689 b83d
00000390: 6b13 a63c 705a 153d b995 27bd e0e0 20be
000003a0: a442 38be 6ccc fabd c828 c6bc d239 0dbe
000003b0: 9919 bfbd fe65 cabd 4446 7cbe 6ad7 1cbe
000003c0: 3a45 45bd 1042 cfbc acc5 5dbe 7a17 a2bd
000003d0: b674 c1bd 27bd 03be 3042 79bd fe69 b4bd
000003e0: c0d3 3cbd 1d65 4f3b 926b 13bd d4b5 0fbe
000003f0: 01e5 29be 5944 64be 021c 4cbd fe93 0ebe

fc2.bias f4 [64]
-0.6922706 -0.13027714 -0.49355778 -0.14962986 -0.27993527 -0.05004612 -1.0118353 -0.9387544
-0.06323642 0.6917328 -0.14230333 -0.19183272 -0.20505269 -0.16597869 0.25382137 -0.15981832
-0.097400576 -0.13652249 -0.19688293 -0.29326183 0.03138993 0.4350661 -0.1769768 1.4055266
-0.044722743 -0.080231555 -0.07232371 -0.2733405 -0.2014683 -0.41233078 -0.26487863 -0.16331895
-0.50497574 -0.20074849 -0.007880991 -0.09085476 -0.32348505 -0.35530546 -0.14128125 -2.6154792
-0.2237732 -0.15163459 -0.31707782 -0.46927875 0.9250274 -0.23386201 -0.12013815 -0.79792583
-0.39445138 -0.109232195 -0.12106203 -0.1953443 -0.016170736 -0.16708271 -0.20297049 -0.35226
-0.20398688 -0.010944932 -0.10637994 -0.11054818 -0.30853608 -0.5739587 -0.029032622 -0.010478273
00000000: a538 31bf 5f67 05be 9bb3 fcbe 9238 19be
00000010: ad53 8fbe 29fd 4cbd d283 81bf 3552 70bf
00000020: 1982 81bd 6715 313f f7b7 11be cc6f 44be
00000030: 55f9 51be 51f6 29be e0f4 813e 6aa7 23be
00000040: f479 c7bd 8dcc 0bbe ae9b 49be 6a26 96be
00000050: ba92 003d fcc0 de3e 6839 35be 4ce8 b33f
00000060: 322f 37bd 7150 a4bd 741e 94bd 49f3 8bbe
00000070: b54d 4ebe 051d d3be 2c9e 87be 153d 27be
00000080: 1746 01bf 0391 4dbe 461f 01bc 0f12 babd
00000090: d59f a5be 99ea b5be 08ac 10be 0364 27c0
000000a0: cd24 65be 1946 1bbe 0658 a2be 4e45 f0be
000000b0: 98ce 6c3f 8679 6fbe fe0a f6bd de44 4cbf
000000c0: 88f5 c9be 21b5 dfbd 5fef f7bd 5608 48be
000000d0: 7e78 84bc bb17 2bbe 7fd7 4fbe 6c5b b4be
000000e0: f0e1 50be 5f52 33bc badd d9bd 1667 e2bd
000000f0: 71f8 9dbe f5ee 12bf d2d5 edbc 10ad 2bbc

fc3.weight f4 [32, 64]
-0.02061313 0.061556716 0.11584506 -0.14080206 -0.2723398 0.026133345 -0.023746643 -0.6563619
-0.5202679 0.5095089 0.101693764 0.20345628 -0.24244374 -0.06681042 4.454066 -0.01720838
0.25386626 0.0045996383 -0.28752205 -0.2570512 -0.5760303 -0.30221266 0.08495013 0.30966473
-0.046173204 0.015077674 0.06771897 -0.5152487 -0.026202248 0.05343969 -0.01645689 -0.035637956
-0.1429395 -0.2186189 0.007868728 -0.29086548 0.19204354 -0.11722152 0.11893549 0.41576892
-0.057107814 -0.02654021 0.08214215 0.104374245 0.9980959 -0.18751808 -0.0624784 1.0784243
-0.050733835 0.17124057 -0.13673572 -0.018321581 0.09762122 0.5115632 -0.09518377 -0.05560802
-0.05221604 0.83068043 -2.1007643 0.036829807 -0.16693507 -0.73964274 0.38797587 -0.111931905
-0.42140317 0.026841804 0.120531276 -0.11745234 -0.048735347 -0.06082093 0.06088625 0.17798644
0.6635996 0.6743926 -0.12043008 -0.028041033 0.24126974 0.04379096 0.3943279 -0.01698038
0.08040757 -0.07646746 -0.18196689 0.21771164 1.6679955 -0.28845412 -0.0680821 0.39124972
-0.00862489 -0.04758618 -0.023105716 -0.54670906 -0.057610545 0.27795804 -0.12366828 -0.12322924
-0.16148978 -0.122597046 -0.94679344 -0.30379915 0.23647445 -0.18740639 0.13083412 -0.46023518
-0.13092175 0.1566811 -0.028918091 -0.33124083 0.44895205 -0.05426779 0.027166104 2.1360261
0.08422917 0.32766005 -0.026154725 0.022164512 -0.018933376 -1.0176378 -0.1709782 0.007158845
0.23892379 1.3420876 -0.66326183 -0.059603263 -0.7544111 1.9580963 1.0303493 0.07441057
-0.87002987 -0.10163723 -0.13498674 0.12460022 -0.15929732 0.01177088 -0.16191733 0.3459772
0.72944045 0.7441977 -0.06280442 0.24890496 -0.0906926 0.011307879 0.031375397 -0.106771655
-0.6427014 0.12500182 -0.1016304 0.36200622 -0.5844043 -0.49249434 0.05503451 -1.2167561
0.024446506 0.07300068 -0.04746542 -0.7412128 -0.023701962 0.038833436 0.111750685 -0.26728857
0.15984829 0.12789296 -0.5080002 0.03796151 -0.16004305 -0.064109355 -0.60966724 -0.19489643
0.06625938 -0.18358251 0.060799252 0.2723007 -0.3637686 0.14414334 -0.08983304 0.9734024
-0.1690328 0.18371367 0.13518612 -0.064414285 0.031425692 0.97990984 0.13666348 0.7212074
-0.19374081 -0.7093227 -0.61366576 0.025559235 -0.7817334 0.040769592 1.3368976 -0.08164056
-0.6788408 0.026935346 -0.003029309 0.04682839 -0.0401948 -0.17482762 -0.09084271 1.0523036
-0.83389986 0.17427006 -0.100989245 -0.32688686 0.14337152 -0.17154215 -0.5428078 0.060101233
0.071081 -0.24202919 -0.1676506 -0.35482386 1.9305416 -0.041217048 0.20165597 0.34931907
0.017240064 0.19078568 0.40672594 0.44634822 0.15317078 -0.08314537 -0.099817045 0.37128633
-0.04405617 -0.21574311 -0.1817983 -1.0936532 -0.31702384 0.07658441 0.65134215 0.35453597
0.21847281 -0.1668843 0.11908436 -0.21065968 -0.07076248 0.009237203 0.18079433 0.27794066
0.13119864 0.043090615 0.10630201 -0.009371314 0.17969385 -0.2474375 0.06048358 -0.43895832
0.06871411 -0.6743391 0.18265654 0.19344433 0.45046 0.36919755 0.540377 -0.08424392
00000000: dedc a8bc e522 7c3d 2d40 ed3d 6a2e 10be
00000010: 1f70 8bbe 9915 d63c 5288 c2bc 5507 28bf
00000020: 4730 05bf 2d6f 023f d244 d03d d856 503e
00000030: 2c43 78be e7d3 88bd b587 8e40 97f8 8cbc
00000040: c2fa 813e 90b8 963b 1736 93be 379c 83be
00000050: b976 13bf 9ebb 9abe 55fa ad3d 608c 9e3e
00000060: 1d20 3dbd 5908 773c 3eb0 8a3d 57e7 03bf
00000070: 19a6 d6bc 94e3 5a3d 9ad0 86bc 1bf9 11bd
00000080: bb5e 12be a2dd 5fbe d6eb 003c 52ec 94be
00000090: 10a7 443e d611 f0bd 7394 f33d aadf d43e
000000a0: e2e9 69bd db6a d9bc 253a a83d 2ac2 d53d
000000b0: 3783 7f3f bd04 40be 5ae9 7fbd cf09 8a3f
000000c0: 48ce 4fbd b059 2f3e 7304 0cbe 2417 96bc
000000d0: a2ed c73d cef5 023f b5ef c2bd 3cc5 63bd
000000e0: 7de0 55bd 79a7 543f ec72 06c0 dada 163d
000000f0: 07f1 2abe 3a59 3dbf c6a4 c63e 8e3c e5bd
00000100: 28c2 d7be 58e3 db3c 1ad9 f63d da8a f0bd
00000110: b79e 47bd 5e1f 79bd dc63 793d 1442 363e
00000120: aae1 293f fea4 2c3f 0ca4 f6bd 4fb6 e5bc
00000130: 6a0f 773e 265e 333d 59e5 c93e 701a 8bbc
00000140: b9ac a43d f99a 9cbd 8755 3abe cdef 5e3e
00000150: e080 d53f 42b0 93be a16e 8bbd e251 c83e
00000160: 694f 0dbc bae9 42bd 3348 bdbc 20f5 0bbf
00000170: 09f9 6bbd 8450 8e3e cc45 fdbd 9d5f fcbd
00000180: 945d 25be 2914 fbbd 0e61 72bf 908b 9bbe
00000190: 5c26 723e 76e7 3fbe 61f9 053e f2a3 ebbe
000001a0: 5a10 06be 0371 203e a2e5 ecbc 6698 a9be
000001b0: 0bdd e53e e747 5ebd 738b de3c a7b4 0840
000001c0: 5880 ac3d 0fc3 a73e 6f42 d6bc 5a92 b53c
000001d0: 2b1a 9bbc f541 82bf e914 2fbe bf94 ea3b
000001e0: 70a8 743e 87c9 ab3f 87cb 29bf 8d22 74bd
000001f0: 1621 41bf e6a2 fa3f 7ce2 833f 9264 983d
00000200: 47ba 5ebf 2e27 d0bd f739 0abe 662e ff3d
00000210: d61e 23be a6da 403c a8cd 25be ec23 b13e
00000220: 9cbc 3a3f be83 3e3f 9b9f 80bd f1e0 7e3e
00000230: 0bbd b9bd af44 393c 7d83 003d 19ab dabd
00000240: 1488 24bf 7a00 003e 9923 d0bd e158 b93e
00000250: 859b 15bf 3828 fcbe de6b 613d aabe 9bbf
00000260: 0a44 c83c 6181 953d 1a6b 42bd 1fc0 3dbf
00000270: 9e2a c2bc cf0f 1f3d 8bdd e43d 0cda 88be
00000280: 45af 233e 5ff6 023e 4d0c 02bf 877d 1b3d
00000290: 53e2 23be c44b 83bd 2713 1cbf ee92 47be
000002a0: ffb2 873d 0efd 3bbe a308 793d ff6a 8b3e
000002b0: e13f babe 509a 133e 63fa b7bd e630 793f
000002c0: ef16 2dbe 701f 3c3e 3b6e 0a3e a3eb 83bd
000002d0: 3ab8 003d 5fdb 7a3f 83f1 0b3e 0ca1 383f
000002e0: fe63 46be 2c96 35bf 3319 1dbf 9a61 d13c
000002f0: ae1f 48bf 04fe 263d 761f ab3f 2a33 a7bd
00000300: 83c8 2dbf 84a7 dc3c 5f87 46bb 20cf 3f3d
00000310: 4da3 24bd 0306 33be be0b babd e2b1 863f
00000320: 767a 55bf da73 323e 73d3 cebd b75d a7be
00000330: fccf 123e bfa8 2fbe 74f5 0abf b62c 763d
00000340: ea92 913d 80d6 77be 99ac 2bbe 79ab b5be
00000350: fd1b f73f 35d3 28bd e77e 4e3e f3d9 b23e
00000360: 093b 8d3c 525d 433e 623e d03e c187 e43e
00000370: cdd8 1c3e 1f48 aabd e16c ccbd 3e19 be3e
00000380: 3e74 34bd c3eb 5cbe 5529 3abe d4fc 8bbf
00000390: f350 a2be 4ad8 9c3d 5cbe 263f bd85 b53e
000003a0: 56b7 5f3e b8e3 2abe 80e2 f33d 2cb7 57be
000003b0: ebeb 90bd a357 173c 2622 393e 3d4e 8e3e
000003c0: f058 063e c97f 303d deb4 d93d 248a 19bc
000003d0: aa01 383e 4260 7dbe a1bd 773d 25bf e0be
000003e0: fcb9 8c3d 7da1 2cbf 510a 3b3e 4516 463e
000003f0: b1a2 e63e 7607 bd3e 2656 0a3f 1488 acbd

fc3.bias f4 [32]
-1.2467088 -0.9971635 1.5713792 -1.2620023 -0.79384214 -1.2877042 0.986537 -1.0953091
-1.2849054 -2.16836 -0.472122 -0.30806175 0.8127952 -1.819958 -1.2552752 3.8019528
-0.9952626 -2.0998118 -1.8591816 -2.3737712 -1.8081579 1.3153031 1.5110195 5.7455597
-0.55130637 -1.2932974 -1.3906854 5.0012107 -0.91861445 -1.0588589 -1.4518893 -3.0450056
00000000: 2794 9fbf 1b46 7fbf f422 c93f 4b89 a1bf
00000010: 3d39 4bbf 7ed3 a4bf b08d 7c3f 1733 8cbf
00000020: c877 a4bf 69c6 0ac0 fab9 f1be 45ba 9dbe
00000030: 5913 503f 62f4 e8bf dcac a0bf 3253 7340
00000040: 88c9 7ebf 5163 06c0 aaf9 edbf deeb 17c0
00000050: b871 e7bf da5b a83f 1669 c13f a0db b740
00000060: 6a22 0dbf c58a a5bf fb01 b2bf eb09 a040
00000070: 512a 6bbf b088 87bf 82d7 b9bf 5fe1 42c0

in_fn.weight f4 [33]
1.417579 0.42379597 0.3952109 0.27296174 -0.1938729 0.17485267 -0.24878114 -0.26312873
0.6813507 0.33752626 -0.15444267 0.23127119 -0.45816272 -0.120797016 0.31240422 0.29950112
0.4897663 0.19599411 -0.18542917 0.046928246 0.30997023 -0.12520872 0.28761256 0.2858207
0.91391134 0.010676081 0.50774544 0.4412525 0.64011747 0.38117057 0.60562575 0.4800498
0.9326076
00000000: 3b73 b53f c9fb d83e 1559 ca3e a4c1 8b3e
00000010: 9e86 46be 940c 333e 7cc0 7ebe cfb8 86be
00000020: 006d 2e3f 3ed0 ac3e 3826 1ebe 5bd2 6c3e
00000030: 4e94 eabe 6d64 f7bd 72f3 9f3e 3658 993e
00000040: a6c2 fa3e aeb2 483e 25e1 3dbe d537 403d
00000050: 6bb4 9e3e b736 00be f441 933e 1757 923e
00000060: 18f6 693f bbea 2e3c 9bfb 013f d9eb e13e
00000070: bdde 233f ca28 c33e 4a0a 1b3f 16c9 f53e
00000080: 5fbf 6e3f

in_fn.bias f4 [33]
0.0768204 0.09694152 0.14184684 0.042399004 0.009589689 0.023129378 -0.096742064 0.06556262
0.13652842 -0.005204791 0.0021905839 0.083792694 -0.07162298 0.025026465 0.0021787493 -0.024322461
0.053933192 0.11263661 0.0032529493 -0.0132834595 0.08063659 0.18647613 -0.09563476 -0.064354934
0.49606955 -0.013881455 0.06784285 0.0329036 0.30465028 0.08654325 0.28178644 0.19559242
0.12673894
00000000: 0454 9d3d 4789 c63d 4c40 113e 94aa 2d3d
00000010: 121e 1d3c d279 bd3c b420 c6bd b245 863d
00000020: 1bce 0b3e f48c aabb e68f 0f3b 819b ab3d
00000030: 12af 92bd 4d04 cd3c 59c9 0e3b e63f c7bc
00000040: 0de9 5c3d 06ae e63d 6f2f 553b dea2 59bc
00000050: cc24 a53d 99f3 3e3e 28dc c3bd 85cc 83bd
00000060: d4fc fd3e 0b6f 63bc 31f1 8a3d edc5 063d
00000070: 1ffb 9b3e 963d b13d 5046 903e 6149 483e
00000080: dac7 013e

in_fn.running_mean f4 [33]
2.2726445 0.010460961 0.008165471 0.007139803 0.0029478935 0.0029653339 0.004519832 0.0029618766
0.023475379 0.0013774247 0.0017274448 0.004389643 0.024344351 0.0024464033 0.009370966 0.009301578
0.050882347 0.0049481136 0.0020854448 0.004746858 0.0084986845 0.006458129 0.0076477295 0.00536059
0.29258195 0.0023492903 0.034988098 0.007961586 0.12187906 0.026735354 0.10853906 0.07356599
0.12517738
00000000: 0273 1140 7364 2b3c 78c8 053c 02f5 e93b
00000010: 7231 413b 0c56 423b 191b 943b 0b1c 423b
00000020: 704f c03c b48a b43a 6e6b e23a ffd6 8f3b
00000030: ce6d c73c d653 203b ae88 193c a565 183c
00000040: 026a 503d c923 a23b f5ab 083b 888b 9b3b
00000050: 113e 0b3c b69e d33b ce99 fa3b e3a7 af3b
00000060: 4dcd 953e 8df6 193b ae4f 0f3d 5071 023c
00000070: bb9b f93d 1a04 db3c ba49 de3d c4a9 963d
00000080: 802e 003e

in_fn.running_var f4 [33]
6.924642 0.010234742 0.008077128 0.0070889923 0.0029398347 0.0029536004 0.0044967746 0.0029543443
0.022335302 0.001374644 0.001723608 0.004366084 0.02350872 0.0024403522 0.009244366 0.009169278
0.048230797 0.0049059046 0.0020813087 0.004704202 0.008354607 0.0063968156 0.007573022 0.005333008
0.20557119 0.0023427682 0.033545755 0.00789488 0.106602974 0.025991092 0.095532864 0.068166204
0.108959034
00000000: ab96 dd40 9faf 273c ee55 043c c74a e83b
00000010: 3eaa 403b 3191 413b ae59 933b ac9d 413b
00000020: 86f8 b63c 662d b43a b0ea e13a 5e11 8f3b
00000030: 5c95 c03c 51ee 1f3b ae75 173c bd3a 163c
00000040: a88d 453d b6c1 a03b 9166 083b b525 9a3b
00000050: c3e1 083c 619c d13b 1d27 f83b 83c0 ae3b
00000060: 4181 523e 2189 193b 4667 093d 8759 013c
00000070: a952 da3d 45eb d43c bca6 c33d b99a 8b3d
00000080: ea25 df3d

fc1.weight f4 [64, 33]
0.03836639 -0.064655416 -0.83784413 0.014851017 -0.17311575 0.0016906972 0.084673174 -0.106031835
0.095533065 -0.22941871 -0.15337566 -0.25179225 0.28976682 0.091039926 0.18943276 0.20015213
-0.029405655 -0.27501282 -0.15907697 0.011124926 0.32523793 -0.29539484 0.07785301 0.00269232
-0.15025003 0.054462872 0.0346045 -0.030407077 -0.075083934 0.08676074 0.07594855 -0.24734622
0.1467692 -0.10011657 -0.09111968 -0.19367146 0.03022433 0.008063596 0.039692383 0.08197372
-0.018113716 0.3081097 0.015417083 0.08234082 -0.25203428 7.4162e-05 -0.056553572 0.056457527
-0.048921436 0.11226129 -0.13680875 -0.03844174 0.014977365 0.085632965 -0.1988298 0.057814624
-0.17679718 0.06939649 0.14981474 -0.07185186 -0.10090163 -0.053985648 0.14543994 -0.11752379
0.010789047 0.15147507 -0.99492764 -0.33535007 -1.0324401 -0.7952108 0.25658318 -0.4274902
0.4953969 -0.59850585 0.01928734 0.04797378 -0.05670513 -1.0352659 -0.26605013 0.46651316
0.35240015 0.14535132 -0.13018748 -1.1207367 -0.13563319 0.5401835 0.09403777 -0.2890671
0.11835508 0.079180054 0.24791203 -0.08813352 -0.27896127 0.5278244 -0.45260507 -0.1522109
0.14168246 0.091661476 0.5856038 -1.9115795 0.13484359 0.3310067 -0.39558518 -0.080891736
0.12506531 0.09924589 -0.65504366 0.27570996 -0.18790413 0.23003924 -0.37692752 0.21500275
-0.3151271 0.22478779 -0.055919643 0.39048097 0.14384472 0.11718728 0.23524573 0.2689953
-0.03932353 -0.21354593 -0.48913726 0.006757836 -0.23434542 0.47521397 0.4135826 0.07462798
0.41069582 -0.5434522 -0.55058867 1.4675301 -0.27243614 -0.19856042 -0.6223369 -0.24874301
-0.612025 0.19904713 0.5026657 0.1396272 0.1628379 -0.26820585 -0.05601604 -0.023835262
-0.9837241 -0.121085905 0.09087551 0.121670276 0.05971861 -0.82701397 -0.33479464 0.478293
-0.24541414 -0.270577 -0.0012668774 -0.117577866 -0.111326374 0.07299426 -0.08931846 -0.37399188
0.3288172 -0.09771728 -0.10818081 -0.08527548 0.2647783 -0.034149334 0.36920813 -0.4619051
0.43230015 -0.2788916 0.16418834 0.61402756 -0.14286132 0.47055542 -0.28359362 -0.27697966
-0.011386186 -0.3397036 0.13028017 -0.100720026 0.1350368 0.4233074 -0.09353458 0.088512905
0.5958434 0.16740462 -0.8237114 -0.007860949 0.15950045 -0.05283672 -0.42030776 -0.21594758
-0.18512475 -0.47817454 -0.20321524 -0.89025503 -0.7682672 0.31543267 0.08275708 0.15609978
-0.23490214 -0.4190511 -0.17239419 0.062333327 0.19840212 -0.2253589 0.21985225 -0.08042847
-0.10969803 -0.028377162 0.10713475 -0.3040391 0.18815452 0.0065546883 0.25498578 -0.8141537
0.054105546 -0.20850366 -0.0042906175 -0.35939318 0.1321846 0.11040045 0.09293268 -0.049952984
-0.16035739 0.09748879 0.04069125 0.18259811 0.13916348 0.103876844 0.36940357 0.15994556
-0.0103346305 -0.24122827 -0.33832058 -0.20956866 -0.22173269 0.14493175 -0.20451963 -0.12355009
-0.053295493 0.16036925 0.032116707 0.07985365 0.3924544 0.20060876 0.11734302 -0.08832841
-0.20117985 -0.0014512925 0.06984455 -0.1070253 -0.19097164 0.105697185 -0.29043427 -0.055324778
00000000: 1326 1d3d 0f6a 84bd f47c 56bf ae51 733c
00000010: 4145 31be 629a dd3a 2169 ad3d 3827 d9bd
00000020: d7a6 c33d bdec 6abe 820e 1dbe eaea 80be
00000030: 515c 943e 2473 ba3d a9fa 413e aef4 4c3e
00000040: 21e4 f0bc 7bce 8cbe 13e5 22be 5245 363c
00000050: 9685 a63e fe3d 97be 6671 9f3d a271 303b
00000060: 25db 19be 7614 5f3d 73bd 0d3d 4318 f9bc
00000070: 9bc5 99bd 9daf b13d ea8a 9b3d 5448 7dbe
00000080: aa4a 163e eb09 cdbd f49c babd d051 46be
00000090: 0499 f73c 2c1d 043c 7b94 223d d6e1 a73d
000000a0: 3763 94bc 8ec0 9d3e ef97 7c3c 4ea2 a83d
000000b0: a30a 81be 6c87 9b38 b8a4 67bd 0240 673d
000000c0: d861 48bd 3fe9 e53d 9817 0cbe 1675 1dbd
000000d0: 9f63 753c 5660 af3d 0a9a 4bbe 07cf 6c3d
000000e0: 520a 35be bf1f 8e3d 0969 193e 1127 93bd
000000f0: 84a5 cebd 0e20 5dbd 35ee 143e 50b0 f0bd
00000100: 8bc4 303c 481c 1b3e 94b3 7ebf 01b3 abbe
00000110: ff26 84bf ef92 4bbf df5e 833e ffdf dabe
00000120: aaa4 fd3e ae37 19bf 7c00 9e3c 2880 443d
00000130: a343 68bd 9883 84bf b937 88be d0da ee3e
00000140: cb6d b43e fad6 143e de4f 05be 4d74 8fbf
00000150: 6de3 0abe 7749 0a3f e096 c03d 9a00 94be
00000160: 2664 f23d 2729 a23d a7dc 7d3e 597f b4bd
00000170: 03d4 8ebe 801f 073f dabb e7be 2ddd 1bbe
00000180: 3515 113e 03b9 bb3d 21ea 153f a3ae f4bf
00000190: 7014 0a3e b679 a93e 248a cabe 91aa a5bd
000001a0: 1f11 003e 6e41 cb3d f1b0 27bf db29 8d3e
000001b0: f169 40be 688f 6b3e a5fc c0be ae29 5c3e
000001c0: 5758 a1be c52e 663e ff0b 65bd 1fed c73e
000001d0: 084c 133e e2ff ef3d 42e4 703e c1b9 893e
000001e0: b611 21bd c9ab 5abe 3370 fabe d670 dd3b
000001f0: 3ff8 6fbe 3f4f f33e 19c1 d33e 8ed6 983d
00000200: b946 d23e af1f 0bbf 61f3 0cbf 07d8 bb3f
00000210: c07c 8bbe 6c53 4bbe 7951 1fbf 7db6 7ebe
00000220: acad 1cbf 03d3 4b3e b3ae 003f 6ffa 0e3e
00000230: fabe 263e 4752 89be 1371 65bd 2b42 c3bc
00000240: 58d5 7bbf e3fb f7bd f01c ba3d 442e f93d
00000250: 809b 743d 30b7 53bf 346a abbe d2e2 f43e
00000260: d84d 7bbe 1289 8abe 5a0d a6ba aacc f0bd
00000270: 15ff e3bd 047e 953d 99ec b6bd dd7b bfbe
00000280: ba5a a83e ff1f c8bd e78d ddbd e9a4 aebd
00000290: 0591 873e 2ce0 0bbd d908 bd3e d37e ecbe
000002a0: 7256 dd3e e1ca 8ebe fd20 283e e930 1d3f
000002b0: 3d4a 12be a4ec f03e 2f33 91be 47d0 8dbe
000002c0: 208d 3abc a1ed adbe 2a68 053e 4d46 cebd
000002d0: 1647 0a3e bfbb d83e 0f8f bfbd 4146 b53d
000002e0: 3189 183f 1e6c 2b3e c0de 52bf 36cb 00bc
000002f0: 1654 233e 516b 58bd 9432 d7be 5d21 5dbe
00000300: 5891 3dbe 4bd3 f4be a817 50be c1e7 63bf
00000310: 29ad 44bf 6480 a13e 8b7c a93d 9fd8 1f3e
00000320: 308a 70be de8d d6be 1a88 30be 3b51 7f3d
00000330: ed29 4b3e 7cc4 66be f320 613e afb7 a4bd
00000340: 5ca9 e0bd 3977 e8bc 7769 db3d 03ab 9bbe
00000350: 94ab 403e b6c8 d63b 7f8d 823e 606c 50bf
00000360: c79d 5d3d fc81 55be 4f98 8cbb 6202 b8be
00000370: 665b 073e a219 e23d 7d53 be3d 809b 4cbd
00000380: ba34 24be 34a8 c73d deab 263d 00fb 3a3e
00000390: df80 0e3e 62bd d43d 7722 bd3e c5c8 233e
000003a0: 9552 29bc 8b04 77be 5b38 adbe 2b99 56be
000003b0: e50d 63be fd68 143e 986d 51be d407 fdbd
000003c0: 604c 5abd d637 243e cf8c 033d 4f8a a33d
000003d0: c8ef c83e 626c 4d3e 8a51 f03d 87e5 b4bd
000003e0: 1702 4ebe 4c39 beba a90a 8f3d 1530 dbbd
000003f0: 128e 43be c477 d83d cdb3 94be 3c9c 62bd

fc1.bias f4 [64]
-1.2211577 -1.0028925 -1.2176505 -0.8355154 -0.8223102 -1.5365444 -1.0826768 -1.7662752
-0.6727685 -0.42488113 -1.4601512 -1.8324443 -1.2195443 -1.8962249 -1.5649658 -0.7130474
-1.3900759 -1.045127 -0.9599346 0.74153465 -1.5352982 -1.001251 -0.5547117 -0.18878289
-2.025603 -0.67465025 -0.89954454 -1.2154224 -2.1389709 -0.08490293 -0.93561405 -0.86601466
-0.49703446 -1.0124012 -1.320712 -0.51623017 -0.50072956 -0.73853165 0.37043917 -0.97254044
-1.0263019 -1.2063607 -1.627663 -2.2470307 -0.2757309 -1.9807684 -0.5036177 -0.99096537
-1.0531994 -1.7166228 -0.5563784 -0.64317787 -1.4612412 -1.9955271 -0.82568014 -1.358652
-2.1032617 -1.2061086 -0.5412154 0.00074860547 -1.7802563 -0.8604557 -0.79657334 -1.3217306
00000000: e54e 9cbf c85e 80bf f9db 9bbf 56e4 55bf
00000010: ec82 52bf 7dad c4bf 2795 8abf 4e15 e2bf
00000020: 8e3a 2cbf 058a d9be 3ce6 babf 898d eabf
00000030: 071a 9cbf 7fb7 f2bf cd50 c8bf 468a 36bf
00000040: 02ee b1bf b9c6 85bf 46be 75bf 37d5 3d3f
00000050: a784 c4bf fe28 80bf 9601 0ebf 4d50 41be
00000060: 7ba3 01c0 e1b5 2cbf 8d48 66bf f692 9bbf
00000070: e6e4 08c0 96e1 adbd 6784 6fbf 23b3 5dbf
00000080: 4d7b febe 5d96 81bf 170d a9bf a927 04bf
00000090: d02f 00bf 6910 3dbf 34aa bd3e 69f8 78bf
000000a0: dc5d 83bf 076a 9abf 4357 d0bf 5acf 0fc0
000000b0: 9a2c 8dbe d289 fdbf 17ed 00bf e8af 7dbf
000000c0: 3dcf 86bf 4cba dbbf d16e 0ebf 4ea7 24bf
000000d0: f409 bbbf 6f6d ffbf c65f 53bf 4fe8 adbf
000000e0: d79b 06c0 c461 9abf 188d 0abf 103e 443a
000000f0: 70df e3bf d346 5cbf 3bec 4bbf 782e a9bf

fc2.weight f4 [64, 64]
0.03466976 -0.10891671 -0.13899235 -0.238325 -0.0016874487 -0.20467609 -0.17809586 -0.12897895
-0.092083246 -0.022018753 -0.18653503 -0.27066022 -0.09023331 -0.1598454 -0.059278686 -0.311451
0.030576078 0.03223759 -0.033529297 -0.16229789 0.07163907 -0.18582678 -0.06698428 -0.15937449
-0.09950556 -0.05195974 -0.03521898 -0.36536783 0.031214325 -0.23567836 -0.044175938 -0.09090913
-0.12728564 0.047497742 -0.034740947 0.051655706 -0.07404545 -0.0026174297 -0.13220394 0.01239717
-0.21666797 -0.010501969 -0.025785288 0.0248364 -0.27069473 -0.048285723 0.057898507 0.013551475
-0.1533661 0.04179001 -0.33231515 0.11307851 -0.11950684 0.000990425 -0.06380017 -0.21573022
-0.016619869 -0.083123535 -0.008577719 -0.21103148 0.012159566 -0.13077538 0.020611405 -0.017888954
-0.1314679 -0.26975644 -0.21125056 -0.41638133 -0.00959071 -0.4070539 -0.018876811 -0.2336421
-0.15091501 -0.15087524 -0.08133175 -0.083613895 0.036853254 -0.5061604 -0.3353421 0.10824222
-0.21178524 -0.033999495 -0.21563485 -0.03434249 -0.15323216 0.058284145 -0.31742752 -0.042165443
-0.6299683 -0.09132588 -0.20889857 -0.16745713 -0.054615013 -0.16700171 -0.19829996 0.0442681
-0.16812149 -0.3442079 -0.22701053 -0.03183523 -0.46331412 -0.12053004 -0.4855466 -0.3951017
-0.06648353 0.037759636 -0.10362383 0.078405336 -0.09147113 0.19052444 -0.33617258 -0.050100863
-0.31212676 0.0029707951 -0.07203855 -0.20527312 -0.17687947 -0.119200155 0.0078017814 -0.0037216614
-0.47894478 -0.091902174 -0.2439126 -0.40668538 -0.1623373 -0.05365305 0.07839754 0.024390887
-0.3049947 -0.18076573 -0.32229334 -0.15831321 -0.089435294 -0.13393222 -0.19081107 -0.3312464
0.01875144 0.0011849735 -0.43091744 0.044672392 -0.6420913 -0.043440156 -0.1666818 0.013535874
0.014071069 -0.32458624 -0.039870575 0.018371204 -0.5286924 -0.15392683 -0.29086134 -0.30232158
-0.47664225 -0.26076382 -0.031635515 0.026130766 -0.04591777 -0.11915151 -0.08593829 -0.16340569
-0.32116264 -0.14346473 0.034371838 -0.074177705 0.060546987 -0.26461512 -0.65933764 -0.3970806
-0.1943836 -0.033103026 -0.19854489 -0.023932328 -0.026100054 -0.08821982 -0.15157941 -0.046556685
-0.03405411 -0.10537633 -0.08693123 0.0038097568 -0.20309708 -0.0063082087 -0.22399469 -0.18051493
-0.5776494 -0.16304578 -0.4172221 -0.84975743 0.08139523 0.0632111 0.062151205 -0.19785985
-0.10571121 -0.017147286 -0.12416204 0.10332498 -0.06493092 0.0839236 -0.18214956 -0.005065668
-0.019548794 -0.05283948 -0.06939811 -0.1319226 -0.09996487 -0.1091899 -0.10441844 -0.06929043
-0.061117616 -0.037876505 0.014091354 -0.15265502 -0.22643669 0.018597493 -0.1494341 -0.19560944
-0.17267862 -0.051420826 -0.18620351 0.03534273 0.09556208 -0.02651738 0.013984652 0.058629915
-0.13956949 -0.002630338 0.032799512 0.012673099 -0.14810532 0.07710615 -0.33830082 0.05801824
-0.13732837 -0.007102332 0.06790345 -0.10556188 -0.17966327 -0.14085865 0.08194935 -0.054644972
0.00737874 -0.028043056 0.0466814 -0.10939289 0.048837822 -0.035800435 0.014409414 -0.08492718
-0.1028554 0.05870927 -0.3477026 -0.048304595 -0.04752493 -0.028986108 -0.06001962 -0.08789335
00000000: e101 0e3d b90f dfbd 0354 0ebe 780b 74be
00000010: 622d ddba 9c96 51be c35e 36be 0f13 04be
00000020: 2496 bcbd ac60 b4bc 0a03 3fbe fa93 8abe
00000030: 3ecc b8bd 83ae 23be 35ce 72bd 8176 9fbe
00000040: af7a fa3c 900b 043d 0456 09bd 6b31 26be
00000050: 81b7 923d 6049 3ebe 0e2f 89bd 1133 23be
00000060: 92c9 cbbd bdd3 54bd c741 10bd 7e11 bbbe
00000070: 2fb5 ff3c ab55 71be d4f1 34bd 912e babd
00000080: 2b57 02be fe8c 423d 864c 0ebd ef94 533d
00000090: 24a5 97bd 2f89 2bbb 7860 07be 801d 4b3c
000000a0: 35de 5dbe 7310 2cbc ab3b d3bc b575 cb3c
000000b0: 8098 8abe 40c7 45bd fc26 6d3d 0107 5e3c
000000c0: 010c 1dbe 002c 2b3d 3625 aabe b595 e73d
000000d0: 01c0 f4bd 26d1 813a aaa9 82bd 62e8 5cbe
000000e0: 6426 88bc ac3c aabd 9089 0cbc a318 58be
000000f0: eb38 473c fbe9 05be 40d9 a83c db8b 92bc
00000100: 859f 06be 841d 8abe 1152 58be ef2f d5be
00000110: 5a22 1dbc 5e69 d0be 8ba3 9abc e03f 6fbe
00000120: 7789 1abe 0a7f 1abe 4391 a6bd c33d abbd
00000130: 70f3 163d ba93 01bf f6b1 abbe 19ae dd3d
00000140: 3bde 58be 0e43 0bbd 62cf 5cbe b6aa 0cbd
00000150: e4e8 1cbe 5bbb 6e3d dc85 a2be acb5 2cbd
00000160: 9a45 21bf 1009 bbbd 82e9 55be e279 2bbe
00000170: feb3 5fbd 7f02 2bbe 250f 4bbe 7852 353d
00000180: 0a28 2cbe 053c b0be 7375 68be a865 02bd
00000190: 8237 edbe 74d8 f6bd 9099 f8be c54a cabe
000001a0: 8428 88bd d9a9 1a3d bb38 d4bd fa92 a03d
000001b0: 3755 bbbd d718 433e d01e acbe 9036 4dbd
000001c0: 14cf 9fbe acb1 423b f388 93bd 1e33 52be
000001d0: e41f 35be 361f f4bd 16a6 ff3b 1ee7 73bb
000001e0: 4038 f5be 3537 bcbd 3ac4 79be 1139 d0be
000001f0: c03b 26be 4dc3 5bbd e48e a03d 66cf c73c
00000200: 4428 9cbe a71a 39be a203 a5be dc1c 22be
00000210: da29 b7bd 8725 09be fa63 43be 2199 a9be
00000220: 9f9c 993c 1d51 9b3a 36a1 dcbe 66fa 363d
00000230: 1860 24bf 4eee 31bd a2ae 2abe 92c5 5d3c
00000240: 578a 663c 2b30 a6be 544f 23bd 357f 963c
00000250: 6358 07bf ff9e 1dbe c7eb 94be e5c9 9abe
00000260: 740a f4be d682 85be 3e94 01bd 3010 d63c
00000270: 4614 3cbd b505 f4bd 6a00 b0bd d253 27be
00000280: 6e6f a4be 6be8 12be 7cc9 0c3d 7bea 97bd
00000290: 1e00 783d a27b 87be 5aca 28bf 264e cbbe
000002a0: 7f0c 47be 0a97 07bd 5a4f 4bbe bb0d c4bc
000002b0: c8cf d5bc 98ac b4bd a237 1bbe 39b2 3ebd
000002c0: 537c 0bbd 8ccf d7bd 0009 b2bd 1dad 793b
000002d0: aef8 4fbe 17b5 cebb dd5e 65be e8d8 38be
000002e0: d5e0 13bf 79f5 26be 239e d5be b489 59bf
000002f0: 8bb2 a63d d274 813d 4392 7e3d c69b 4abe
00000300: 1e7f d8bd 7778 8cbc ab48 febd 0c9c d33d
00000310: 81fa 84bd 23e0 ab3d 6a85 3abe e7fd a5bb
00000320: cb24 a0bc 366e 58bd 9920 8ebd b816 07be
00000330: 62ba ccbd f49e dfbd 56d9 d5bd 24e8 8dbd
00000340: 7756 7abd 6524 1bbd 6cdf 663c 9951 1cbe
00000350: 05df 67be c559 983c 4105 19be d74d 48be
00000360: aad2 30be a59e 52bd 22ac 3ebe 8ac3 103d
00000370: 0db6 c33d fa3a d9bc e21f 653c ec25 703d
00000380: 4eeb 0ebe c061 2cbb c858 063d d4a2 4f3c
00000390: eca8 17be d4e9 9d3d c435 adbe 89a4 6d3d
000003a0: cf9f 0cbe aeba e8bb f710 8b3d d430 d8bd
000003b0: a6f9 37be 403d 10be 10d5 a73d 68d3 5fbd
000003c0: 5bc9 f13b 8dba e5bc ff34 3f3d 6109 e0bd
000003d0: 2b0a 483d 7aa3 12bd 7615 6c3c 4dee adbd
000003e0: daa5 d2bd 2279 703d 1306 b2be 0adb 45bd
000003f0: 80a9 42bd 4674 edbc 22d7 75bd 6e01 b4bd

fc2.bias f4 [64]
-0.2059009 -0.25456068 -0.32549256 -0.13718915 -0.15404978 -0.38995674 0.47808006 -0.38601002
-0.17022263 -0.11177706 -0.071834296 -0.19685887 -0.07325843 -0.23790261 -0.13883278 -0.22121112
0.41222963 0.8875107 -0.2201032 -0.045887183 1.1724707 -0.13490345 -0.65875417 -0.81499565
-0.045665048 -0.074239925 -0.74991614 -0.43055037 0.7087674 -0.16375972 -0.1757571 -0.3750039
-0.13151686 -0.007537665 -0.47497728 -0.17345552 -0.27994135 -0.24611491 -0.36188653 -0.07317682
-0.49845088 -0.19077234 -0.2332544 -0.14779392 -0.46465605 -0.14869684 -0.1397724 0.13981527
-0.70575434 -0.18610491 -0.03575607 -0.0707059 -0.4759868 -0.107204475 -0.40197527 -0.34551254
1.2734925 -0.09597485 -0.19650814 0.41278645 -0.34954602 -0.026447179 0.060563207 -0.069496654
00000000: afd7 52be c755 82be f6a6 a6be 507b 0cbe
00000010: 3abf 1dbe 69a8 c7be e9c6 f43e 1ba3 c5be
00000020: d74e 2ebe 5feb e4bd dc1d 93bd 5f95 49be
00000030: 8408 96bd be9c 73be 2e2a 0ebe 2b85 62be
00000040: c30f d33e e733 633f bc62 61be 33f4 3bbd
00000050: 8513 963f 2124 0abe 1da4 28bf 8ea3 50bf
00000060: 460b 3bbd 1a0b 98bd 81fa 3fbf 1971 dcbe
00000070: c871 353f a1b0 27be abf9 33be 8300 c0be
00000080: 5bac 06be 84fe f6bb 3930 f3be 539e 31be
00000090: 7954 8fbe 8c05 7cbe 3149 b9be bbdd 95bd
000000a0: f434 ffbe d359 43be 3eda 6ebe 4a57 17be
000000b0: 66e7 edbe fc43 18be 7f20 0fbe bc2b 0f3e
000000c0: 51ac 34bf 4992 3ebe f574 12bd 41ce 90bd
000000d0: 8bb4 f3be 058e dbbd b4cf cdbe 05e7 b0be
000000e0: cd01 a33f 768e c4bd 6e39 49be bf58 d33e
000000f0: b2f7 b2be c1a7 d8bc 2011 783d 4354 8ebd

fc3.weight f4 [1, 64]
-0.15139951 -0.027167661 -1.6392516e-05 -0.023899557 0.013348248 -0.0051314523 0.052066907 -0.116102494
-0.070192486 0.0031659289 -0.013397849 0.0777439 0.012492052 0.08032861 -0.0025326076 -0.0049912473
0.08598456 -0.16358308 -0.06729843 0.1323087 -0.1989019 0.010041941 -0.06500399 0.059173737
0.008794479 -0.013092302 0.21041216 0.042444292 0.13169982 -0.033554517 0.036321457 -0.23658383
0.011601395 0.0071576913 -0.0042499355 0.007191968 -0.08448478 -0.049966067 -0.14784838 0.058038518
-0.058297664 -0.011160326 -0.081454635 0.026174592 0.061498586 -0.023634907 -0.013011305 0.107867785
0.04181592 -0.0024414423 -0.031246953 -0.022983946 -0.15793194 0.0065773213 -0.19998112 0.032369755
-0.124724984 -0.053316697 0.012721647 -0.34696415 -0.024565566 -0.0019830675 -0.01919762 0.018685685
00000000: 7908 1bbe b78e debc a982 89b7 01c9 c3bc
00000010: 9cb2 5a3c be25 a8bb 1c44 553d 25c7 edbd
00000020: 14c1 8fbd 797b 4f3b a782 5bbc 3238 9f3d
00000030: 77ab 4c3c 5483 a43d 1bfa 25bb 9e8d a3bb
00000040: ac18 b03d 5382 27be c2d3 89bd ef7b 073e
00000050: f1ac 4bbe f486 243c d020 85bd 2960 723d
00000060: b816 103c 1881 56bc 4976 573e 11da 2d3d
00000070: 51dc 063e 7670 09bd cfc5 143d 0843 72be
00000080: c713 3e3c 118b ea3b 0b43 8bbb 9aaa eb3b
00000090: 5b06 adbd 38a9 4cbd 9165 17be ccb9 6d3d
000000a0: 88c9 6ebd cdd9 36bc b0d1 a6bd 196c d63c
000000b0: f1e5 7b3d fe9d c1bc 5e2d 55bc c9e9 dc3d
000000c0: 2c47 2b3d 9b00 20bb 9cf9 ffbc d448 bcbc
000000d0: e9b8 21be 9286 d73b dac7 4cbe 2696 043d
000000e0: d06f ffbd 9c62 5abd 746e 503c 49a5 b1be
000000f0: ba3d c9bc 5af6 01bb 5444 9dbc b912 993c

fc1.weight f4 [64, 1]
1.0650053 -0.37334445 -0.22222644 -0.47487512 -2.1417596 0.84094423 -0.078966916 1.1782304
-0.018149167 0.07173463 -0.06830066 0.009121056 -1.8560667 0.073274314 -0.07290876 -0.023683837
0.14494395 -0.0039948225 -0.15858321 0.06273525 -0.074180655 -0.3382969 -0.16761565 -0.34382227
-1.5702604 -0.3440905 0.0012199115 0.2684022 -1.8422418 -0.07660582 0.048622347 0.17416812
-0.17335358 -1.6996056 -0.7045132 -0.05634153 -0.029139714 0.04596398 -0.055017933 -0.28259975
0.20942037 -0.42309844 -0.15137583 -0.06184081 0.08575276 -0.05804958 -1.4703062 -1.8210961
-0.46149385 -0.1096344 -0.70683724 -1.5011514 0.011960475 -0.0137123875 0.10702546 0.2968299
-0.04682362 -1.9128027 -0.09018303 0.22790417 -0.12480218 0.47737503 0.21798705 0.014862013
00000000: 1852 883f 0127 bfbe 548f 63be d522 f3be
00000010: 9712 09c0 1f48 573f 68b9 a1bd 41d0 963f
00000020: 90ad 94bc 9be9 923d 37e1 8bbd 7b70 153c
00000030: 9893 edbf d810 963d 3051 95bd 9b04 c2bc
00000040: 306c 143e 00e7 82bb a363 22be 577b 803d
00000050: 07ec 97bd 4035 adbe 70a3 2bbe 7909 b0be
00000060: 4bfe c8bf a12c b0be 70e5 9f3a 036c 893e
00000070: 94ce ebbf 83e3 9cbd 3a28 473d 2159 323e
00000080: 9a83 31be ad8c d9bf fa5a 34bf 60c6 66bd
00000090: 69b6 eebc ba44 3c3d 7c5a 61bd eab0 90be
000000a0: 4b72 563e 5ca0 d8be 4402 1bbe ca4c 7dbd
000000b0: 259f af3d 65c5 6dbd fe32 bcbf ad19 e9bf
000000c0: ec48 ecbe 0088 e0bd 49f3 34bf bb25 c0bf
000000d0: def5 433c eca9 60bc 2a30 db3d 17fa 973e
000000e0: 20ca 3fbd b8d6 f4bf e1b1 b8bd b65f 693e
000000f0: 4998 ffbd 806a f43e ff37 5f3e cd7f 733c

fc1.bias f4 [64]
-1.139557 -0.59082866 -0.4541476 -0.81434035 -0.5398827 -0.67173296 -0.15627535 0.46096778
-0.08205444 -0.3724057 -0.11740376 -0.17245802 0.090819344 -0.62179005 -0.92611206 -0.10523844
-0.7031232 -0.75450915 -0.39457205 -0.28423548 -0.15608907 -0.8448043 -0.88898194 -0.4795869
-0.49496806 -0.49438077 -0.020390676 -1.9693811 0.41415173 -0.442176 -0.26877102 -0.8367517
-0.24742284 0.3886326 -1.820183 -0.7298626 -0.28253376 -0.5328869 -0.14276147 -0.5981728
-0.98191893 -0.85042953 -0.26707825 -0.15502363 -0.558361 -0.18837695 0.12292374 0.34424326
-0.6516314 -0.663581 -1.06153 0.13602279 -0.10874319 -0.028804252 -1.8515764 -1.5920714
-0.6047716 -0.4119118 -0.25801238 0.06296149 -0.19468312 -2.3032331 -1.7888385 -0.1961792
00000000: 01dd 91bf 8c40 17bf 0986 e8be 9c78 50bf
00000010: c135 0abf b1f6 2bbf a506 20be f803 ec3e
00000020: 290c a8bd f6ab bebe 6271 f0bd d698 30be
00000030: 7eff b93d a22d 1fbf ae15 6dbf 4087 d7bd
00000040: e2ff 33bf 8327 41bf 5905 cabe 5087 91be
00000050: d0d5 1fbe 1845 58bf 5294 63bf 6a8c f5be
00000060: 746c fdbe 7a1f fdbe 590a a7bc ae14 fcbf
00000070: b20b d43e e564 e2be 5b9c 89be 5c35 56bf
00000080: 6a5c 7dbe dafa c63e c2fb e8bf 46d8 3abf
00000090: 44a8 90be 476b 08bf 1030 12be da21 19bf
000000a0: 0a5f 7bbf c0b5 59bf 7bbe 88be 84be 1ebe
000000b0: bff0 0ebf e3e5 40be 71bf fb3d a740 b03e
000000c0: 51d1 26bf 72e0 29bf 37e0 87bf 8f49 0b3e
000000d0: c0b4 debd e5f6 ebbc 7500 edbf ffc8 cbbf
000000e0: 50d2 1abf 1ae6 d2be 331a 84be f4f1 803d
000000f0: 035b 47be 2c68 13c0 a9f8 e4bf 33e3 48be

fc2.weight f4 [64, 64]
-0.08886652 0.3566075 -0.018566584 -0.040000156 0.26056346 -0.058299918 -0.021881726 -0.0070931693
-0.12683956 0.11499796 -0.2887863 -0.12418677 0.010998512 -0.06975501 -0.07661903 -0.06796687
0.038685977 -0.028304413 -0.514028 -0.0540881 -0.019280536 0.30810416 -0.04233159 -0.063799016
-0.062014036 0.08600326 -0.31772438 -0.23496994 -0.015830731 -0.27644807 -0.26802596 -0.1755679
-0.3459442 0.07423877 0.28113002 -0.03388546 -0.28719783 0.17323288 -0.21207874 -0.25978264
-0.25296685 -0.05697012 -0.3068405 0.10250929 -0.19083415 -0.12891379 -0.034994107 -0.11387739
-0.08992003 0.003980443 0.058158726 -0.15440524 -0.2708095 -0.11358384 -0.24816045 -0.1641074
-0.08062348 0.13027129 -0.34764293 -0.5576884 -0.17371717 -0.21683669 -0.11201475 -0.7422663
-0.11863981 -0.11708785 -0.033712607 -0.14784127 0.058700785 0.02036497 0.057046354 -0.14744192
-0.12721358 -0.09242836 -0.019336231 -0.10808456 -0.018101484 -0.101724744 -0.009735331 -0.18658581
0.02124931 0.05892451 -0.039915223 -0.021753948 -0.18115285 0.09106718 0.108982995 0.037694197
-0.032043677 -0.1643786 -0.14440507 0.050304316 -0.2196873 -0.0063129994 -0.15721412 -0.14804691
-0.08511961 -0.21429306 -0.1529479 0.09093648 0.014057256 0.118219465 -0.12391929 -0.20853525
0.063075 -0.02662827 -0.21655655 -0.028155679 -0.18821155 0.022240842 -0.046109267 -0.27440068
-0.28476596 -0.010949552 -0.07186055 -0.07008209 -0.21054542 -0.06195555 -0.17749164 -0.14832556
-0.08321117 -0.021510128 -0.04636296 -0.10202202 -0.10639551 -0.0042194775 -0.044930585 -0.12257148
-0.3243852 0.07684177 -0.007244438 -0.09501698 0.113593146 0.027547896 -0.12135778 -0.27372417
-0.046776466 -0.08303261 -0.009962414 -0.1716593 0.036292743 -0.08035989 0.035353497 -0.037133917
0.029732242 0.10367778 -0.13135163 -0.13346611 -0.16334595 -0.005129963 -0.05921507 -0.048452105
-0.025624812 -0.036098287 0.029043414 -0.044628836 -0.040267527 -0.14085561 -0.19030516 0.025124963
-0.102714926 0.025231883 0.00462389 -0.07965839 -0.008586756 0.07005234 -0.07269204 -0.071036115
-0.13339458 0.0017213827 -0.15034765 -0.1490736 -0.018645883 -0.11552919 0.030685097 -0.11085544
-0.079364784 -0.047710195 -0.11423257 0.052697446 -0.054711718 0.06293679 -0.10087686 -0.112476684
-0.117513284 -0.047451332 0.0032560348 -0.20560569 -0.043720677 -0.0043074875 -0.010417459 -0.033579987
-0.16617568 -0.05609082 -0.1372063 -0.14550328 0.052165568 -0.18382016 -0.1628095 -0.07984609
-0.18109027 -0.10504249 -0.034161504 -0.058408696 0.00537986 -0.23000486 0.0010868162 -0.12264599
-0.069914594 -0.07031919 -0.0703302 -0.10136189 -0.18362793 -0.08810744 -0.10356602 0.00930909
-0.08048982 -0.116964914 -0.14881581 -0.19734894 -0.21797812 -0.17820391 -0.05193749 -0.08191735
-0.14725864 -0.1559326 0.07985173 0.09010558 0.020272955 0.0364632 -0.040913973 -0.15710683
-0.17994139 -0.12246022 -0.024189359 -0.1379156 -0.09331004 -0.098827206 -0.24636188 -0.15316546
-0.048161533 -0.025300056 -0.21657443 -0.07914574 -0.09446042 -0.12865005 -0.06085398 -0.0880924
-0.046100378 0.003164602 -0.035991 -0.1403415 -0.16591193 -0.22291638 -0.049831208 -0.13923584
00000000: a6ff b5bd 4295 b63e f318 98bc 34d7 23bd
00000010: 9368 853e e5cb 6ebd 4e41 b3bc d16d e8bb
00000020: 3be2 01be 0d84 eb3d ccdb 93be a255 febd
00000030: 1a33 343c b7db 8ebd 70ea 9cbd 3732 8bbd
00000040: 3075 1e3d a8de e7bc 5797 03bf 7c8b 5dbd
00000050: 37f2 9dbc d4bf 9d3e e463 2dbd 0fa9 82bd
00000060: 6e02 7ebd 7a22 b03d c5ac a2be f69b 70be
00000070: 73af 81bc 9a8a 8dbe b33a 89be 12c8 33be
00000080: 991f b1be 7f0a 983d 46f0 8f3e 7bcb 0abd
00000090: 980b 93be f663 313e 2b2b 59be 3b02 85be
000000a0: df84 81be 8059 69bd 331a 9dbe 64f0 d13d
000000b0: 076a 43be fa01 04be fb55 0fbd 8d38 e9bd
000000c0: fe27 b8bd 606e 823b d837 6e3d 681c 1ebe
000000d0: 8ba7 8abe a59e e8bd c61d 7ebe c50b 28be
000000e0: ec1d a5bd d665 053e 41fe b1be abc4 0ebf
000000f0: eae2 31be 700a 5ebe fd67 e5bd 2a05 3ebf
00000100: 6ef9 f2bd c1cb efbd 3b16 0abd b463 17be
00000110: 3c70 703d 70d4 a63c 70a9 693d 04fb 16be
00000120: 4744 02be 144b bdbd 0467 9ebc 705b ddbd
00000130: 9049 94bc 1055 d0bd f080 1fbc 5a10 3fbe
00000140: 0813 ae3c d45a 713d 257e 23bd 5635 b2bc
00000150: 2280 39be 6e81 ba3d 7a32 df3d 3b65 1a3d
00000160: 3b40 03bd dd52 28be ecde 13be e60b 4e3d
00000170: b5f5 60be 47dd cebb bdfc 20be 9c99 17be
00000180: 3153 aebd a46f 5bbe 609e 1cbe e83c ba3d
00000190: 6850 663c 0c1d f23d 66c9 fdbd 448a 55be
000001a0: 772d 813d 8823 dabc 00c1 5dbe bda6 e6bc
000001b0: 87ba 40be 6d32 b63c 12dd 3cbd 3f7e 8cbe
000001c0: d8cc 91be c065 33bc a02b 93bd 3387 8fbd
000001d0: 3899 57be 1ac5 7dbd 5ec0 35be a8e2 17be
000001e0: 9e6a aabd 0236 b0bc 16e7 3dbd ecf0 d0bd
000001f0: e4e5 d9bd 8b43 8abb 2209 38bd c206 fbbd
00000200: d115 a6be 385f 9d3d c062 edbb 4398 c2bd
00000210: 86a3 e83d 20ac e13c 6e8a f8bd 9325 8cbe
00000220: ae98 3fbd 000d aabd 6539 23bc 75c7 2fbe
00000230: b3a7 143d ba93 a4bd d4ce 103d bc19 18bd
00000240: 0891 f33c 0455 d43d 0b81 06be 57ab 08be
00000250: 2944 27be 4019 a8bb 808b 72bd b775 46bd
00000260: 20eb d1bc ccdb 13bd 74ec ed3c bacc 36bd
00000270: 90ef 24bd 743c 10be 5bdf 42be ded2 cd3c
00000280: 345c d2bd 18b3 ce3c 0084 973b f023 a3bd
00000290: 77af 0cbc 9a77 8f3d 90df 94bd 627b 91bd
000002a0: 9798 08be 05a0 e13a bcf4 19be c0a6 18be
000002b0: 40bf 98bc 919a ecbd 505f fb3c 2d08 e3bd
000002c0: 018a a2bd c46b 43bd c4f2 e9bd 47d9 573d
000002d0: 6519 60bd 01e5 803d 8798 cebd 2d5a e6bd
000002e0: ceaa f0bd 545c 42bd 3363 553b 4c8a 52be
000002f0: 7414 33bd d325 8dbb fdad 2abc 2b8b 09bd
00000300: f529 2abe 7dbf 65bd cf7f 0cbe d0fe 14be
00000310: 90ab 553d 5a3b 3cbe 89b7 26be 5986 a3bd
00000320: ba6f 39be 8420 d7bd efec 0bbd f53d 6fbd
00000330: 8949 b03b 6586 6bbe 8073 8e3a d22d fbbd
00000340: 622f 8fbd 8203 90bd 4809 90bd d396 cfbd
00000350: f608 3cbe ac71 b4bd 6c1a d4bd 2785 183c
00000360: d9d7 a4bd 4d8b efbd 2c63 18be d715 4abe
00000370: a835 5fbe 167b 36be 68bc 54bd 49c4 a7bd
00000380: f8ca 16be ccac 1fbe 4e89 a33d 4689 b83d
00000390: 7813 a63c 705a 153d 6995 27bd 9de0 20be
000003a0: 8e42 38be 6ccc fabd c328 c6bc bf39 0dbe
000003b0: 5619 bfbd eb65 cabd 4a46 7cbe 68d7 1cbe
000003c0: 0745 45bd 1042 cfbc b0c5 5dbe 2917 a2bd
000003d0: 7774 c1bd d7bc 03be 0642 79bd ca69 b4bd
000003e0: c0d3 3cbd 3665 4f3b 4c6b 13bd afb5 0fbe
000003f0: d1e4 29be 3144 64be cf1b 4cbd d793 0ebe

fc2.bias f4 [64]
-0.6922699 -0.13027726 -0.49355525 -0.14962941 -0.27993497 -0.050046157 -1.0072862 -0.93875325
-0.06323575 0.69497925 -0.14230251 -0.19183253 -0.20505285 -0.1659775 0.25382215 -0.15981735
-0.09740042 -0.13652234 -0.19688253 -0.29325962 -0.07969119 0.43536127 -0.17697605 1.4535801
-0.044722714 -0.08023129 -0.07232323 -0.27333972 -0.20146762 -0.41232896 -0.26487884 -0.16331764
-0.5049726 -0.20074789 -0.00788093 -0.09085433 -0.32348517 -0.35530514 -0.1412803 -2.6154664
-0.2237732 -0.15163362 -0.31707767 -0.46898475 0.92503214 -0.23386128 -0.12013812 -0.7978551
-0.39445052 -0.10923195 -0.121061996 -0.19534324 -0.016170664 -0.16708167 -0.20296966 -0.35225934
-0.20398593 -0.0109448675 -0.10637987 -0.11054773 -0.3085363 -0.57385427 -0.029032612 -0.010478274
00000000: 9a38 31bf 6767 05be 46b3 fcbe 7438 19be
00000010: a353 8fbe 33fd 4cbd c1ee 80bf 2252 70bf
00000020: bf81 81bd 29ea 313f c0b7 11be bf6f 44be
00000030: 60f9 51be 01f6 29be faf4 813e 29a7 23be
00000040: df79 c7bd 83cc 0bbe 939b 49be 2026 96be
00000050: 2235 a3bd ace7 de3e 3639 35be ea0e ba3f
00000060: 2a2f 37bd 4d50 a4bd 341e 94bd 2ff3 8bbe
00000070: 874d 4ebe c81c d3be 339e 87be bd3c 27be
00000080: e245 01bf db90 4dbe 041f 01bc d611 babd
00000090: d99f a5be 8eea b5be c8ab 10be cd63 27c0
000000a0: cd24 65be d845 1bbe 0158 a2be c51e f0be
000000b0: e8ce 6c3f 5579 6fbe fa0a f6bd 3b40 4cbf
000000c0: 6bf5 c9be 00b5 dfbd 5aef f7bd 0f08 48be
000000d0: 5778 84bc 7517 2bbe 47d7 4fbe 565b b4be
000000e0: b0e1 50be 1a52 33bc b0dd d9bd d966 e2bd
000000f0: 78f8 9dbe 1de8 12bf cdd5 edbc 11ad 2bbc
