maddpg_pytorch/models/cache_data/model/run51/incremental/model_ep4001.pt (torch, 690099 bytes, 168 tensors)

fc1.weight f4 [64, 1]
0	0x3f921345	1.141213
1	0xbebf2697	-0.3733413
2	0xbe638f17	-0.22222553
3	0xbf2242a6	-0.6338295
4	0xbfc2937a	-1.5201256
5	0x3efe964e	0.49724048
6	0xbda1b927	-0.07896643
7	0x3f97db84	1.1863866
8	0xbc94ad88	-0.018149152
9	0x3d92e937	0.071733885
10	0xbd8be145	-0.06830076
11	0x3c157042	0.009121003
12	0xbec77465	-0.3895599
13	0xbe76b560	-0.24092627
14	0xbd955130	-0.07290876
15	0xbcc204e3	-0.02368397
16	0x3e146c30	0.14494395
17	0xbb82e700	-0.0039948225
18	0x3d9e4718	0.07728404
19	0x3d807b0e	0.06273471
20	0xbd97ebe5	-0.0741804
21	0xbead3516	-0.33829564
22	0xbe2ba370	-0.16761565
23	0xbedcdc7b	-0.43136963
24	0xbf7ed5d1	-0.9954501
25	0xbec76b46	-0.3894903
26	0x3a9fe595	0.0012199158
27	0x3f00644a	0.5015303
28	0xbfd5b575	-1.6696001
29	0xbd9ce326	-0.076605126
30	0x3d4727d0	0.048621953
31	0x3e547fbd	0.20751853
32	0xbe3183ec	-0.1733548
33	0xbfe96132	-1.8232787
34	0xbfbf554f	-1.4947909
35	0xbd66c5fc	-0.056341156
36	0xbceeb66b	-0.029139718
37	0x3d3c450a	0.04596428
38	0xbd615a58	-0.0550178
39	0xbec1f521	-0.3788233
40	0x3e567233	0.20942001
41	0xbed8a05c	-0.42309844
42	0xbe1b025b	-0.15137617
43	0xbd7d4cd4	-0.061840847
44	0xbe527b8b	-0.2055494
45	0xbd6dc5aa	-0.058049835
46	0xbfa755a5	-1.3073012
47	0xbf2c1228	-0.67215204
48	0xbf247954	-0.6424763
49	0xbde08800	-0.1096344
50	0xbf88c068	-1.0683718
51	0xbfb87612	-1.4411032
52	0x3c43f583	0.01196039
53	0xbc60a9a9	-0.013712325
54	0x3ef7ba42	0.4838429
55	0x3ef085b0	0.46976995
56	0xbd3fca20	-0.04682362
57	0xbf8b3ef2	-1.0878584
58	0xbdb8b1bc	-0.09018275
59	0x3d9faf76	0.077971384
60	0xbe1d5202	-0.15363315
61	0x3f3d7901	0.7401276
62	0x3ef1d725	0.47234455
63	0x3c737f77	0.014861933

fc1.bias f4 [64]
0	0xbf643c7d	-0.891548
1	0xbf1740c2	-0.5908319
2	0xbee885fc	-0.45414722
3	0xbf34bd96	-0.70601785
4	0xbf7f120b	-0.99636906
5	0xbfeada4b	-1.8347868
6	0xbe2006b3	-0.15627556
7	0x3c86ec41	0.016470077
8	0xbda80c5a	-0.08205481
9	0xbebeac4c	-0.37240827
10	0xbdf0718d	-0.11740408
11	0xbe309913	-0.17245893
12	0xbe986edc	-0.2977208
13	0xbea1dc24	-0.31613266
14	0xbf6d15ae	-0.92611206
15	0xbdd7873f	-0.10523843
16	0xbf33ffe2	-0.7031232
17	0xbf412780	-0.754509
18	0xbea298fa	-0.31757337
19	0xbe918758	-0.28423572
20	0xbe1fd5fa	-0.1560897
21	0xbf58450d	-0.84480363
22	0xbf639452	-0.88898194
23	0xbeb7b34c	-0.3587898
24	0xbf2da29e	-0.6782626
25	0xbe9363f5	-0.287872
26	0xbca70aa8	-0.020390823
27	0xbfe6734a	-1.8003933
28	0x3e834b8e	0.2564358
29	0xbee264e6	-0.44217604
30	0xbe899c82	-0.26877218
31	0xbf53fb3b	-0.8280522
32	0xbe7d5c75	-0.24742301
33	0x3b0634b6	0.0020478196
34	0xbf94346a	-1.1578496
35	0xbf3ad891	-0.72986704
36	0xbe90a847	-0.28253385
37	0xbf086b53	-0.53288764
38	0xbe123038	-0.14276206
39	0xbef00235	-0.46876684
40	0xbf7b5f18	-0.98191977
41	0xbf59b5c0	-0.85042953
42	0xbe88be94	-0.267079
43	0xbe1ebea9	-0.15502419
44	0xbe8aed48	-0.27134156
45	0xbe40e613	-0.18837766
46	0xbe347f00	-0.17626572
47	0xbf2ed89b	-0.68299264
48	0xbf00fdfc	-0.5038755
49	0xbf29e072	-0.663581
50	0xbf4575b3	-0.7713272
51	0x3cdc9f90	0.026931554
52	0xbddeb4f8	-0.10874361
53	0xbcebf738	-0.028804407
54	0xbfcb6334	-1.5889649
55	0xbfc276ce	-1.5192506
56	0xbf1ad250	-0.6047716
57	0xbf35cc17	-0.7101454
58	0xbe841a64	-0.25801384
59	0xbeb04280	-0.34425735
60	0xbe33fe12	-0.17577389
61	0xc0076972	-2.1158109
62	0xbfbda8a7	-1.4817094
63	0xbe48e32e	-0.19617912

fc2.weight f4 [64, 64]
0	0xbdb5ffc7	-0.08886676
1	0x3eb69596	0.35661
2	0xbc9818d1	-0.01856652
3	0xbd23d6fb	-0.039999943
4	0x3e8568e3	0.26056585
5	0xbd6ecbfd	-0.058300007
6	0xbcb3418a	-0.021881837
7	0xbbe86e12	-0.0070931995
8	0xbe01e267	-0.12684022
9	0x3deb843f	0.11499833
10	0xbe93dbd6	-0.2887866
11	0xbdfe55b7	-0.124186926
12	0x3c343344	0.010998551
13	0xbd8edc11	-0.06975568
14	0xbd9cea70	-0.07661903
15	0xbd8b3243	-0.06796696
16	0x3d1e7530	0.038685977
17	0xbce7dea8	-0.028304413
18	0xbf0397a9	-0.5140329
19	0xbd5d8bb2	-0.054088302
20	0xbc9df1d1	-0.019280346
21	0x3e9dc006	0.30810565
22	0xbd2d63e4	-0.04233159
23	0xbd82a95c	-0.06379959
24	0xbd7e0266	-0.062014006
25	0x3db02271	0.08600319
26	0xbea2acd8	-0.31772494
27	0xbe709c46	-0.23497114
28	0xbc81afc6	-0.015830886
29	0xbe8d8a5e	-0.27644628
30	0xbe893ae8	-0.26802754
31	0xbe33c812	-0.1755679
32	0xbeb11f85	-0.3459436
33	0x3d980a17	0.074237995
34	0x3e8ff004	0.28112805
35	0xbd0acb8d	-0.033885527
36	0xbe930bdc	-0.28719985
37	0x3e316434	0.1732338
38	0xbe592b1a	-0.21207848
39	0xbe85027a	-0.25978452
40	0xbe8184d7	-0.2529666
41	0xbd695980	-0.05697012
42	0xbe9d1a01	-0.30683902
43	0x3dd1f07c	0.10250947
44	0xbe436a37	-0.19083486
45	0xbe0401bf	-0.12891291
46	0xbd0f5644	-0.03499438
47	0xbde938b6	-0.1138777
48	0xbdb82821	-0.08992029
49	0x3b826e60	0.003980443
50	0x3d6e3790	0.058158457
51	0xbe1e1c7a	-0.1544055
52	0xbe8aa7c5	-0.27081123
53	0xbde89eed	-0.11358438
54	0xbe7e1e0a	-0.24816146
55	0xbe280bed	-0.164108
56	0xbda51dec	-0.08062348
57	0x3e0565c1	0.13027097
58	0xbeb1fdff	-0.34764096
59	0xbf0ec4ec	-0.5576923
60	0xbe31e311	-0.17371775
61	0xbe5e0a78	-0.21683681
62	0xbde5680f	-0.11201488
63	0xbf3e0557	-0.742269
64	0xbdf2f965	-0.118639745
65	0xbdefcc03	-0.11708834
66	0xbd0a163e	-0.033712618
67	0xbe17640a	-0.14784256
68	0x3d70703c	0.058700785
69	0x3ca6d426	0.020364832
70	0x3d69a921	0.05704606
71	0xbe16fb2d	-0.14744253
72	0xbe02447a	-0.12721434
73	0xbdbd4b14	-0.09242836
74	0xbc9e672b	-0.019336304
75	0xbddd5b74	-0.10808459
76	0xbc94499c	-0.018101506
77	0xbdd05506	-0.10172467
78	0xbc1f80f0	-0.009735331
79	0xbe3f10af	-0.18658708
80	0x3cae1308	0.02124931
81	0x3d715ad4	0.05892451
82	0xbd237e51	-0.039915387
83	0xbcb23567	-0.02175398
84	0xbe398048	-0.18115342
85	0x3dba816e	0.09106718
86	0x3ddf327a	0.108982995
87	0x3d1a651a	0.037694074
88	0xbd034057	-0.03204378
89	0xbe285316	-0.16437945
90	0xbe13df31	-0.1444061
91	0x3d4e0ba3	0.050304066
92	0xbe60f5f4	-0.21968824
93	0xbbcedd4d	-0.006313002
94	0xbe20fcbe	-0.15721413
95	0xbe1799ab	-0.14804713
96	0xbdae534c	-0.08511981
97	0xbe5b6f99	-0.2142929
98	0xbe1c9ea3	-0.1529489
99	0x3dba3ce8	0.09093648
100	0x3c665022	0.014057191
101	0x3df21d0c	0.118219465
102	0xbdfdc968	-0.12391931
103	0xbe558a3e	-0.20853516
104	0x3d812d4b	0.06307467
105	0xbcda2388	-0.02662827
106	0xbe5dc118	-0.2165569
107	0xbce6a6e1	-0.028155746
108	0xbe40bac4	-0.18821245
109	0x3cb63227	0.022240711
110	0xbd3cdd63	-0.04610957
111	0xbe8c7e43	-0.2744008
112	0xbe91cd0d	-0.28476754
113	0xbc3365c0	-0.010949552
114	0xbd932bda	-0.071860984
115	0xbd8f8784	-0.070082694
116	0xbe579956	-0.21054587
117	0xbd7dc534	-0.061955646
118	0xbe35c087	-0.17749225
119	0xbe17e300	-0.14832687
120	0xbdaa6a9e	-0.08321117
121	0xbcb03624	-0.021510191
122	0xbd3de76a	-0.04636327
123	0xbdd0f10d	-0.10202227
124	0xbdd9e606	-0.106395766
125	0xbb8a43b6	-0.0042194976
126	0xbd380954	-0.04493077
127	0xbdfb06e3	-0.12257173
128	0xbc0ea78b	-0.008706938
129	0x3d9d5f38	0.07684177
130	0xbbed62c0	-0.007244438
131	0xbdc29846	-0.095017
132	0x3de8a386	0.113593146
133	0x3ce1abc1	0.027547719
134	0xbdf88a68	-0.12135774
135	0x3d2e0367	0.042483713
136	0xbd3f9901	-0.046776775
137	0xbdaa0d00	-0.08303261
138	0xbc233999	-0.009962463
139	0xbe2fc777	-0.17165934
140	0x3d14a78a	0.03629259
141	0xbda493ba	-0.08035989
142	0x3d10ced4	0.035353497
143	0xbd1819bf	-0.03713393
144	0x3cf39108	0.029732242
145	0x3dd45504	0.10367778
146	0xbe068142	-0.13135245
147	0xbe08ab6c	-0.13346642
148	0xbe274427	-0.16334592
149	0xbba81940	-0.005129963
150	0xbd728b80	-0.05921507
151	0xbd4675f4	-0.048452333
152	0xbcd1eb20	-0.025624812
153	0xbd13dc1d	-0.03609859
154	0x3cedec3b	0.029043308
155	0xbd36ccbf	-0.044628855
156	0xbd24ef90	-0.040267527
157	0xbe103ca6	-0.14085636
158	0xbe42df82	-0.19030574
159	0x3ccdd288	0.025124803
160	0xbdd25c6a	-0.10271533
161	0x3cceb318	0.025231883
162	0x3b978400	0.00462389
163	0xbda323f0	-0.07965839
164	0xbc0cafbd	-0.008586821
165	0x3d8f779a	0.07005234
166	0xbd94dfe7	-0.072692685
167	0xbd917b62	-0.071036115
168	0xbe0898d8	-0.13339555
169	0x3ae1a000	0.0017213821
170	0xbe19f4e7	-0.15034829
171	0xbe18a6fe	-0.14907452
172	0xbc98bf40	-0.018645883
173	0xbdec9aac	-0.11552939
174	0x3cfb5f50	0.030685097
175	0xbde3083a	-0.110855535
176	0xbda28a01	-0.079364784
177	0xbd436bc4	-0.047710195
178	0xbde9f2c4	-0.11423257
179	0x3d57d925	0.05269732
180	0xbd60196a	-0.054711737
181	0x3d80e4bb	0.06293627
182	0xbdce98bf	-0.10087728
183	0xbde65a47	-0.11247688
184	0xbdf0aacc	-0.11751327
185	0xbd425c54	-0.047451332
186	0x3b5562fe	0.0032560225
187	0xbe528a5c	-0.20560592
188	0xbd331474	-0.043720677
189	0xbb8d25ec	-0.004307499
190	0xbc2aae51	-0.010417537
191	0xbd098b29	-0.03357998
192	0xbe2a2a31	-0.16617657
193	0xbd65bfc8	-0.0560911
194	0xbe0c8005	-0.1372071
195	0xbe14fec7	-0.14550315
196	0x3d55ab90	0.052165568
197	0xbe3c3b7e	-0.1838207
198	0xbe26b785	-0.16280945
199	0xbda38679	-0.07984633
200	0xbe396fe1	-0.18109085
201	0xbdd720c6	-0.10504298
202	0xbd0bed12	-0.034161635
203	0xbd6f3df1	-0.05840868
204	0x3bb0492e	0.0053798174
205	0xbe6b8671	-0.23000504
206	0x3a8e7380	0.0010868162
207	0xbdfb2dc8	-0.122645915
208	0xbd8f2f62	-0.069914594
209	0xbd900382	-0.07031919
210	0xbd900999	-0.070330806
211	0xbdcf9724	-0.1013625
212	0xbe3c093d	-0.18362899
213	0xbdb471ac	-0.08810744
214	0xbdd41a6c	-0.10356602
215	0x3c188513	0.009309071
216	0xbda4d805	-0.08049015
217	0xbdef8b4c	-0.11696491
218	0xbe186333	-0.14881591
219	0xbe4a15f8	-0.19734943
220	0xbe5f359e	-0.21797797
221	0xbe367b1b	-0.17820399
222	0xbd54bc65	-0.05193748
223	0xbda7c482	-0.08191778
224	0xbe16cb30	-0.14725947
225	0xbe1facd4	-0.15593272
226	0x3da3894e	0.07985173
227	0x3db88946	0.09010558
228	0x3ca6136b	0.020272931
229	0x3d155a70	0.0364632
230	0xbd2795b9	-0.04091427
231	0xbe20e0e0	-0.15710783
232	0xbe3842a4	-0.17994171
233	0xbdfacc6c	-0.12246022
234	0xbcc628c8	-0.024189368
235	0xbe0d39d2	-0.13791588
236	0xbdbf1999	-0.09331054
237	0xbdca65fe	-0.09882735
238	0xbe7c4644	-0.24636179
239	0xbe1cd76a	-0.15316549
240	0xbd45453a	-0.048161723
241	0xbccf4210	-0.025300056
242	0xbe5dc5ac	-0.21657437
243	0xbda2177a	-0.07914634
244	0xbdc174b6	-0.09446089
245	0xbe03bd27	-0.12865125
246	0xbd794230	-0.060854137
247	0xbdb469fe	-0.08809279
248	0xbd3cd3c0	-0.046100378
249	0x3b4f651d	0.0031645962
250	0xbd136b92	-0.03599126
251	0xbe0fb5d4	-0.14034206
252	0xbe29e501	-0.16591264
253	0xbe644459	-0.22291698
254	0xbd4c1c02	-0.049831398
255	0xbe0e93fe	-0.13923642

fc2.bias f4 [64]
0	0xbf3138a5	-0.6922706
1	0xbe05675f	-0.13027714
2	0xbe364d25	-0.17802866
3	0xbe193892	-0.14962986
4	0xbe8f53ad	-0.27993527
5	0xbd4cfd29	-0.05004612
6	0xbf1b57e4	-0.60680985
7	0xbf64f710	-0.8943949
8	0xbd818219	-0.06323642
9	0x3ead7706	0.3387987
10	0xbe11b7f7	-0.14230333
11	0xbe446fcc	-0.19183272
12	0xbe51f955	-0.20505269
13	0xbe29f651	-0.16597869
14	0x3fa1f8e8	1.2654085
15	0xbe23a76a	-0.15981832
16	0xbdc779f4	-0.097400576
17	0xbe0bcc8d	-0.13652249
18	0xbe499bae	-0.19688293
19	0xbe96266a	-0.29326183
20	0xbf467b15	-0.7753156
21	0x3fb95870	1.4480114
22	0xbe353968	-0.1769768
23	0xbc600a60	-0.013674349
24	0xbd372f32	-0.044722743
25	0xbda45071	-0.080231555
26	0xbd941e74	-0.07232371
27	0xbe8bf349	-0.2733405
28	0xbe4e4db5	-0.2014683
29	0xbed31d05	-0.41233078
30	0xbe879e2c	-0.26487863
31	0xbe273d15	-0.16331895
32	0xbe573ce1	-0.21019317
33	0xbe4d9103	-0.20074849
34	0x3e2f15b2	0.1709812
35	0xbdba120f	-0.09085476
36	0xbea59fd5	-0.32348505
37	0xbeb5ea99	-0.35530546
38	0xbe10ac08	-0.14128125
39	0xc0196432	-2.3967404
40	0xbe6524cd	-0.2237732
41	0xbe1b4619	-0.15163459
42	0xbea25806	-0.31707782
43	0xbed96986	-0.4246332
44	0x3f8a959e	1.082691
45	0xbe6f7986	-0.23386201
46	0xbdf60afe	-0.12013815
47	0xbeae8a00	-0.3408966
48	0xbec9f588	-0.39445138
49	0xbddfb521	-0.109232195
50	0xbdf7ef5f	-0.12106203
51	0xbe480856	-0.1953443
52	0xbc84787e	-0.016170736
53	0xbe2b17bb	-0.16708271
54	0xbe4fd77f	-0.20297049
55	0xbeb45b6c	-0.35226
56	0xbe50e1f0	-0.20398688
57	0xbc33525f	-0.010944932
58	0x3ee252d9	0.44203833
59	0xbde26716	-0.11054818
60	0xbe9df871	-0.30853608
61	0xbec775f8	-0.3895719
62	0xbcedd5d2	-0.029032622
63	0xbc2bad10	-0.010478273

fc3.weight f4 [32, 64]
0	0xbca8dcde	-0.02061313
1	0x3d7c22e5	0.061556716
2	0x3df0c5e0	0.11756492
3	0xbe102e6a	-0.14080206
4	0xbe8b701f	-0.2723398
5	0x3cd61599	0.026133345
6	0xbe79a9df	-0.24381207
7	0xbf28014c	-0.6562698
8	0xbf053047	-0.5202679
9	0xbe0e5486	-0.1389943
10	0x3dd044d2	0.101693764
11	0x3e5056d8	0.20345628
12	0xbe78432c	-0.24244374
13	0xbd88d3e7	-0.06681042
14	0x406ead72	3.7293363
15	0xbc8cf897	-0.01720838
16	0x3e81fac2	0.25386626
17	0x3b96b890	0.0045996383
18	0xbe933617	-0.28752205
19	0xbe839c37	-0.2570512
20	0x3e064e2a	0.13115755
21	0x3dce93a0	0.10086751
22	0x3dadfa55	0.08495013
23	0x3cb249a2	0.021763626
24	0xbd3d201d	-0.046173204
25	0x3c770859	0.015077674
26	0x3d8ab03e	0.06771897
27	0xbf03e757	-0.5152487
28	0xbcd6a619	-0.026202248
29	0x3d5ae394	0.05343969
30	0xbc86d09a	-0.01645689
31	0xbd11f91b	-0.035637956
32	0xbe13c86a	-0.1443192
33	0xbe5fdda2	-0.2186189
34	0x3ca031f2	0.019555066
35	0xbe94ec52	-0.29086548
36	0x3e44a710	0.19204354
37	0xbdf011d6	-0.11722152
38	0x3df39473	0.11893549
39	0x3f17c938	0.5929141
40	0xbd69e9e2	-0.057107814
41	0xbcd96adb	-0.02654021
42	0x3da83a25	0.08214215
43	0x3dd6b694	0.10484043
44	0xbf0c8b28	-0.54899836
45	0xbe4004bd	-0.18751808
46	0xbd7fe95a	-0.0624784
47	0x3e9127c1	0.28350642
48	0xbd4fce48	-0.050733835
49	0x3e2f59b0	0.17124057
50	0xbe0c0473	-0.13673572
51	0xbc961724	-0.018321581
52	0x3dc7eda2	0.09762122
53	0x3f02f5ce	0.5115632
54	0xbdc2efb5	-0.09518377
55	0xbd63c53c	-0.05560802
56	0xbd55e07d	-0.05221604
57	0x3f54a779	0.83068043
58	0xc004fa21	-2.0777667
59	0x3d16dada	0.036829807
60	0xbe2af107	-0.16693507
61	0x3daa07e5	0.08302287
62	0x3ec6a4c6	0.38797587
63	0xbde53c8e	-0.111931905
64	0xbed7c228	-0.42140317
65	0x3cdbe358	0.026841804
66	0x3df6e669	0.12055666
67	0xbdf08ada	-0.11745234
68	0xbd479eb7	-0.048735347
69	0xbd791f5e	-0.06082093
70	0xbe6995c8	-0.22811043
71	0x3e36633c	0.17811292
72	0x3f29e1aa	0.6635996
73	0xbf41a46f	-0.7564153
74	0xbdf6a40c	-0.12043008
75	0xbce5b64f	-0.028041033
76	0x3e770f6a	0.24126974
77	0x3d335e26	0.04379096
78	0x3ebeaa45	0.3723928
79	0xbc8b1a70	-0.01698038
80	0x3da4acb9	0.08040757
81	0xbd9c9af9	-0.07646746
82	0xbe3a5587	-0.18196689
83	0x3e5eefcd	0.21771164
84	0xbf203779	-0.62584645
85	0xbf4fc9c7	-0.8116726
86	0xbd8b6ea1	-0.0680821
87	0xbf417fdd	-0.7558573
88	0xbc0d4f69	-0.00862489
89	0xbd42e9ba	-0.04758618
90	0xbcbd4833	-0.023105716
91	0xbf0bf520	-0.54670906
92	0xbd6bf909	-0.057610545
93	0x3e8e5084	0.27795804
94	0xbdfd45cc	-0.12366828
95	0xbdfc5f9d	-0.12322924
96	0xbe25e8f6	-0.16202149
97	0xbdfb1429	-0.122597046
98	0xbf7436fd	-0.95396405
99	0xbe9b8b90	-0.30379915
100	0x3e72265c	0.23647445
101	0xbe3fe776	-0.18740639
102	0x3e05f961	0.13083412
103	0x3e04f44e	0.1298382
104	0xbe06105a	-0.13092175
105	0x3e207103	0.1566811
106	0xbcece5a2	-0.028918091
107	0xbea906c0	-0.33012962
108	0x3fa18bd3	1.2620796
109	0xbd5e47e7	-0.05426779
110	0x3cde8b73	0.027166104
111	0x3f9bb905	1.2165838
112	0x3dac8058	0.08422917
113	0x3ea7c30f	0.32766005
114	0xbcd6426f	-0.026154725
115	0x3cb5925a	0.022164512
116	0xbc9b1a2b	-0.018933376
117	0xbf8241f5	-1.0176378
118	0xbe2f14e9	-0.1709782
119	0x3bea94bf	0.007158845
120	0x3e74a870	0.23892379
121	0x3fabc987	1.3420876
122	0xbf4e56e9	-0.80601364
123	0xbd74228d	-0.059603263
124	0xbf412116	-0.7544111
125	0x3cb81494	0.02247075
126	0x3f83e27c	1.0303493
127	0x3d986492	0.07441057
128	0xbf5eba47	-0.87002987
129	0xbdd0272e	-0.10163723
130	0xbe0a54d5	-0.13508923
131	0x3dff2e66	0.12460022
132	0xbe231ed6	-0.15929732
133	0x3c40daa6	0.01177088
134	0xbf1b18d6	-0.6058477
135	0x3eb1292e	0.3460173
136	0x3f3abc9c	0.72944045
137	0xbf09669c	-0.53672194
138	0xbd809f9b	-0.06280442
139	0x3e7ee0f1	0.24890496
140	0xbdb9bd0b	-0.0906926
141	0x3c3944af	0.011307879
142	0x3eb93cfa	0.36179334
143	0xbddaab19	-0.106771655
144	0xbf248814	-0.6427014
145	0x3e00007a	0.12500182
146	0xbdd02399	-0.1016304
147	0x3eb958e1	0.36200622
148	0xbf2499f6	-0.64297426
149	0x3d42b31b	0.04753409
150	0x3d616bde	0.05503451
151	0xbe7246b9	-0.23659791
152	0x3cc8440a	0.024446506
153	0x3d958161	0.07300068
154	0xbd426b1a	-0.04746542
155	0xbf3dc01f	-0.7412128
156	0xbcc22a9e	-0.023701962
157	0x3d1f0fcf	0.038833436
158	0x3de4dd8b	0.111750685
159	0xbe88da0c	-0.26728857
160	0x3e2302be	0.15919015
161	0x3e02f65f	0.12789296
162	0xbf03c81f	-0.51477236
163	0x3d1b7d87	0.03796151
164	0xbe23e253	-0.16004305
165	0xbd834bc4	-0.064109355
166	0xbf1c1327	-0.60966724
167	0xbef34770	-0.4751544
168	0x3d87b2ff	0.06625938
169	0xbe3bfd0e	-0.18358251
170	0x3d7908a3	0.060799252
171	0x3e8b5736	0.27214974
172	0x3e9ba7db	0.304015
173	0x3e139a50	0.14414334
174	0xbdb7fa63	-0.08983304
175	0x3ea5aaaa	0.3235677
176	0xbe2d16ef	-0.1690328
177	0x3e3c1f70	0.18371367
178	0x3e0a6e3b	0.13518612
179	0xbd83eba3	-0.064414285
180	0x3d00b83a	0.031425692
181	0x3f7adb5f	0.97990984
182	0x3e0bf183	0.13666348
183	0x3f38a10c	0.7212074
184	0xbe4663fe	-0.19374081
185	0xbf35962c	-0.7093227
186	0xbf389502	-0.7210237
187	0x3cd1619a	0.025559235
188	0xbf481fae	-0.7817334
189	0x3f0fcc45	0.56171066
190	0x3fab1f76	1.3368976
191	0xbda7332a	-0.08164056
192	0xbf2dc883	-0.6788408
193	0x3cdca784	0.026935346
194	0xbb142236	-0.00226034
195	0x3d3fcf20	0.04682839
196	0xbd24a34d	-0.0401948
197	0xbe330603	-0.17482762
198	0xbeb09c84	-0.34494412
199	0x3f86a37c	1.0518641
200	0xbf557a76	-0.83389986
201	0xbf5aa697	-0.85410446
202	0xbdced373	-0.100989245
203	0xbea75db7	-0.32688686
204	0x3e12cffc	0.14337152
205	0xbe2fa8bf	-0.17154215
206	0xbd9b6fdc	-0.07589695
207	0x3d762cb6	0.060101233
208	0x3d9192ea	0.071081
209	0xbe77d680	-0.24202919
210	0xbe2bac99	-0.1676506
211	0xbeb5ab79	-0.35482386
212	0xbf1fcc5c	-0.624212
213	0x3f1b1fae	0.60595214
214	0x3e4e7ee7	0.20165597
215	0x3fab176d	1.3366524
216	0x3c8d3b09	0.017240064
217	0x3e435d52	0.19078568
218	0x3ed03e62	0.40672594
219	0x3ee487c1	0.44634822
220	0x3e1cd8cd	0.15317078
221	0xbdaa481f	-0.08314537
222	0xbdcc6ce1	-0.099817045
223	0x3ebe193e	0.37128633
224	0xbd358777	-0.044318642
225	0xbe5cebc3	-0.21574311
226	0xbe3f33ba	-0.18672076
227	0xbf8bfcd4	-1.0936532
228	0xbea250f3	-0.31702384
229	0x3d9cd84a	0.07658441
230	0x3f26be5c	0.65134215
231	0xbf8eafad	-1.1147362
232	0x3e5fb756	0.21847281
233	0xbe2ae3b8	-0.1668843
234	0x3df3e280	0.11908436
235	0xbe588e59	-0.21148051
236	0xbf821178	-1.0161581
237	0x3c1757a3	0.009237203
238	0x3e392226	0.18079433
239	0x3ddab9e8	0.1067999
240	0x3e0658f0	0.13119864
241	0x3d307fc9	0.043090615
242	0x3dd9b4de	0.10630201
243	0xbc198a24	-0.009371314
244	0x3e3801aa	0.17969385
245	0xbe7d6042	-0.2474375
246	0x3d77bda1	0.06048358
247	0xbee0bf25	-0.43895832
248	0x3d8cb9fc	0.06871411
249	0xbf2ca17d	-0.6743391
250	0x3dabe3d8	0.08393067
251	0x3e461645	0.19344433
252	0x3ee6a2b1	0.45046
253	0xbf1cf736	-0.61314714
254	0x3f0a5626	0.540377
255	0xbdac8814	-0.08424392

fc3.bias f4 [32]
0	0x3ece71a6	0.40321082
1	0xbe7ef0c2	-0.2489653
2	0xbdb6236b	-0.08893474
3	0xbe3ad9ce	-0.18247148
4	0xbe877eb0	-0.26463842
5	0xbf927f04	-1.1445012
6	0xbe8794be	-0.2648067
7	0x3f942c7f	1.1576079
8	0x3ea1a946	0.31574458
9	0xbf7ab419	-0.9793106
10	0x3dc07a8a	0.093983725
11	0xbe0c5fb5	-0.13708384
12	0xbf424c58	-0.7589774
13	0x3dafaa26	0.08577375
14	0x3d8c0f64	0.06838873
15	0xbf244fad	-0.64184076
16	0x3e47202b	0.19445865
17	0xbe42f980	-0.19040489
18	0xbf261da6	-0.6488899
19	0x3f5ccb09	0.8624731
20	0xbf3f5957	-0.74745697
21	0xbe9e02a6	-0.30861396
22	0xbed188ca	-0.40924674
23	0x3f225fa2	0.63427174
24	0xbe7412f5	-0.23835357
25	0x3f0fc9df	0.56167406
26	0xbed81a31	-0.42207482
27	0xbdc6f69a	-0.09715004
28	0x3ec66bf4	0.38754237
29	0x3f117878	0.56824446
30	0x3f8d2efd	1.1029965
31	0xc01190d4	-2.2744646

in_fn.weight f4 [33]
0	0x3fb48240	1.4102249
1	0x3f0d67d8	0.5523658
2	0x3e165b96	0.14683375
3	0x3e12fcd7	0.14354263
4	0x3e1fc2d4	0.15601665
5	0x3e6e14d9	0.2325014
6	0xbd06f416	-0.032947622
7	0x3e2a2dd2	0.16619042
8	0x3f161dd0	0.5863924
9	0x3e8fe2d3	0.2810274
10	0x3df78f9a	0.12087937
11	0x3ecdcd9b	0.40195927
12	0x3e8440a9	0.25830582
13	0x3ea6578a	0.32488662
14	0x3e73a6e2	0.2379413
15	0x3e8f9dce	0.28050083
16	0x3f29c4cc	0.66315913
17	0x3e810996	0.25202626
18	0x3d48b70c	0.049002692
19	0x3e36ae07	0.17839824
20	0x3e8a97b4	0.27068865
21	0x3e14138f	0.14460586
22	0x3e84c50c	0.25931585
23	0x3e4c4adc	0.19950432
24	0x3f5d6eb5	0.8649705
25	0x3e2d329c	0.16913837
26	0x3e8ce7c5	0.27520576
27	0x3e9bdf31	0.3044372
28	0x3f1cda95	0.6127103
29	0x3e945541	0.28971294
30	0x3f2923d2	0.6607028
31	0x3f0f0cbe	0.5587882
32	0x3f79007a	0.9726635

in_fn.bias f4 [33]
0	0x3da83592	0.08213343
1	0xbc0d2145	-0.008613889
2	0x3d53f707	0.051749256
3	0x3da11227	0.078647904
4	0x3cffc1e8	0.031220391
5	0x3dc22aec	0.09480843
6	0xbdd3dbae	-0.10344635
7	0x3d82efaa	0.063933685
8	0xbc46a577	-0.012124411
9	0x3da2133b	0.07913824
10	0xbd290c86	-0.04127171
11	0x3dbbd111	0.091707356
12	0xbc88dac9	-0.016705887
13	0x3cca8d17	0.02472548
14	0xbd2cfe32	-0.042234607
15	0xbc40795d	-0.011747685
16	0x3e094d05	0.13408287
17	0x3d8dc8be	0.06923054
18	0x3c78f704	0.015195612
19	0x3b278ed4	0.002556731
20	0x3d4a0be2	0.04932774
21	0x3d384ed8	0.044997066
22	0xbce1d24f	-0.027566103
23	0xbc169023	-0.009189638
24	0x3e9d6bb5	0.30746236
25	0x3da28609	0.079357214
26	0x3b9afc3b	0.0047297752
27	0x3d323b74	0.04351373
28	0x3e2e3d7b	0.1701564
29	0xbdd7dd42	-0.105402485
30	0x3e69d640	0.22835636
31	0x3e796cce	0.24357912
32	0x3de9c096	0.11413686

in_fn.running_mean f4 [33]
0	0x40101d82	2.251801
1	0x3cf47207	0.029839529
2	0x3b7d2581	0.003862709
3	0x3badaba7	0.0053000036
4	0x3c80069c	0.015628152
5	0x3b7253aa	0.0036976137
6	0x3b2cded3	0.002637793
7	0x3b851714	0.004061589
8	0x3d829db7	0.06377738
9	0x3bec13b4	0.0072044972
10	0x3af21683	0.0018469844
11	0x3c0697c2	0.008214893
12	0x3c503b93	0.012709516
13	0x3bbc7651	0.005751409
14	0x3bd38ff0	0.0064563677
15	0x3c0a8672	0.008454906
16	0x3da474cc	0.0803009
17	0x3ba602f9	0.0050662723
18	0x3bec74e8	0.0072160847
19	0x3b3a9574	0.0028470429
20	0x3c6236b6	0.013806989
21	0x3b46922b	0.0030299525
22	0x3c0a911f	0.008457451
23	0x3ba64e76	0.0050752712
24	0x3e1989d9	0.14993991
25	0x3b6ea4a3	0.003641405
26	0x3c1937d8	0.009351693
27	0x3c0a40cf	0.008438303
28	0x3d742625	0.05960669
29	0x3bc15cdf	0.0059009637
30	0x3e420a3b	0.18949215
31	0x3df73c2d	0.120720245
32	0x3e173594	0.14766532

in_fn.running_var f4 [33]
0	0x40d2f9d9	6.592999
1	0x3cece3aa	0.028917152
2	0x3b7b9542	0.0038388525
3	0x3baca87d	0.005269109
4	0x3c7bf9c3	0.015379372
5	0x3b71555d	0.0036824562
6	0x3b2c52b7	0.002629442
7	0x3b848866	0.0040445803
8	0x3d732302	0.059359558
9	0x3be9fcc9	0.00714073
10	0x3af19651	0.0018431639
11	0x3c0585dc	0.00814959
12	0x3c4d9230	0.012547061
13	0x3bbab7c5	0.0056981766
14	0x3bd1a63d	0.006397991
15	0x3c09266c	0.008370977
16	0x3d96c3e4	0.07361582
17	0x3ba52e53	0.0050409227
18	0x3beaa82b	0.0071611605
19	0x3b3a1fe7	0.0028400363
20	0x3c5ec53a	0.013596827
21	0x3b45ff85	0.0030212116
22	0x3c095a52	0.00838335
23	0x3ba539a9	0.005042274
24	0x3e01903c	0.12652677
25	0x3b6dce52	0.0036286307
26	0x3c17cb6f	0.009264811
27	0x3c0889c1	0.008333624
28	0x3d652ba8	0.055949837
29	0x3bc02319	0.005863559
30	0x3e1afdb0	0.15135837
31	0x3dd95db1	0.10613573
32	0x3df7f382	0.12106992

fc1.weight f4 [64, 33]
0	0x3e0378c9	0.12839045
1	0xbd903794	-0.07041851
2	0xbe9cb190	-0.3060422
3	0x3c8c5a04	0.017132767
4	0xbe55f093	-0.20892553
5	0x3d65d244	0.056108728
6	0xbd62720c	-0.055284545
7	0xbea29714	-0.31755888
8	0x3dfd54a6	0.12369661
9	0xbe78d354	-0.24299365
10	0xbe6c2d71	-0.2306421
11	0xbda1e046	-0.07904105
12	0x3e2a325f	0.16620778
13	0x3e30b24c	0.17255515
14	0xbdc147f3	-0.09437551
15	0x3ec35cfd	0.38156882
16	0xbd9e0e5f	-0.07717585
17	0xbe0bcbd0	-0.13651967
18	0xbe808ef1	-0.25109056
19	0xbdbba072	-0.09161462
20	0x3ec74a58	0.38923907
21	0xbe875c56	-0.26437634
22	0x3e0b605d	0.13610978
23	0xbd1cb159	-0.03825507
24	0xbe1c3393	-0.15254049
25	0x3d395cc5	0.045254488
26	0x3e9b362d	0.3031477
27	0xbe17895e	-0.14798495
28	0xbdc6f4f2	-0.09714688
29	0x3cc873db	0.024469307
30	0x3d55db3a	0.052211024
31	0xbdcc329b	-0.0997059
32	0x3c36b3ae	0.011151237
33	0x3c050c1c	0.008120563
34	0xbd9200ee	-0.071290836
35	0xbdb25236	-0.08707087
36	0x3d703ccf	0.05865174
37	0xbd2b7bfd	-0.04186629
38	0x3d8a97b3	0.067672156
39	0x3e3eab95	0.18620141
40	0x3aba4d13	0.0014213644
41	0x3e173750	0.14767194
42	0x3c44caa7	0.012011207
43	0x3d8331cb	0.06405982
44	0xbd92ded7	-0.071714096
45	0x3cfa282f	0.03053674
46	0xbe33db24	-0.17564064
47	0x3bb38e47	0.0054796073
48	0xbdb2c6fb	-0.08729359
49	0x3e1fc38d	0.1560194
50	0xbcfe07af	-0.031009523
51	0xbb3eaa45	-0.0029093188
52	0xbee8df29	-0.45482758
53	0x3db23682	0.08701803
54	0xbdbfef80	-0.09371853
55	0x3d87edd7	0.06637161
56	0xbdc973f4	-0.098365694
57	0x3a21445b	0.00061518484
58	0x3ea5312b	0.32264075
59	0xbd08c2c1	-0.033388857
60	0xbc39c060	-0.01133737
61	0xbc861de5	-0.016371677
62	0x3e6f00cd	0.23340149
63	0xbd8cf616	-0.06882875
64	0x3dac1106	0.084016845
65	0x3e13e6c2	0.14443496
66	0xbf832f7e	-1.0248868
67	0xbea29110	-0.317513
68	0x3cfcf5cd	0.030878926
69	0xbeac6e09	-0.336777
70	0xbe73d0c4	-0.23810107
71	0xbe41cbbf	-0.18925379
72	0x3d7967f0	0.06089014
73	0xbe929dc7	-0.28636
74	0x3e40e8e9	0.18838848
75	0xbe9fea3f	-0.31233403
76	0x3e46b6b6	0.19405636
77	0xbecb3222	-0.39686686
78	0x3e0c14a8	0.13679755
79	0x3e91b728	0.2846005
80	0x3ea2c7d8	0.31793094
81	0x3e5e463b	0.21706478
82	0xbea00ba7	-0.3125889
83	0xbeb486b9	-0.35259035
84	0x3e84a5f0	0.2590785
85	0xbefd2e54	-0.49449408
86	0x3e920e54	0.28526556
87	0x3d59d768	0.053183943
88	0x3dccc10f	0.099977605
89	0x3e938695	0.28813615
90	0x3ca31c59	0.019910978
91	0x3dc03943	0.09385922
92	0xbe2c9bb8	-0.16856277
93	0x3e27d959	0.16391505
94	0xbe90d994	-0.28291
95	0x3e35acfb	0.17741768
96	0xbe83073b	-0.25591454
97	0xbec60d1f	-0.38681886
98	0x3f80393c	1.0017467
99	0xbfccba8b	-1.5994428
100	0x3e2dd729	0.16976608
101	0x3e1f93e9	0.15583767
102	0xbe808ea0	-0.25108814
103	0xbf5cb90e	-0.8621987
104	0xbe226172	-0.15857485
105	0x3e08be17	0.13353764
106	0xbe461118	-0.19342458
107	0x3c5b05b4	0.013368059
108	0xbdb442fa	-0.08801837
109	0x3d368887	0.044563796
110	0xbe3d9343	-0.18513207
111	0x3e0dd754	0.13851672
112	0xbe41709d	-0.18890615
113	0x3e13faf0	0.14451194
114	0x3e3493a8	0.17634451
115	0xbe0b5814	-0.13607818
116	0xbe7f6970	-0.24942565
117	0x3d1c4a2f	0.038156684
118	0x3e50ffa1	0.20410015
119	0x3db1a1f1	0.08673466
120	0xbe70be19	-0.23510017
121	0x3e4052de	0.18781611
122	0x3bd5a675	0.0065200874
123	0xbd8a0c0d	-0.0674058
124	0xbec20dbf	-0.37901112
125	0x3e2c9cb4	0.16856652
126	0xbe9b1ec0	-0.30296898
127	0xbf09db60	-0.53850365
128	0x3df3655d	0.11884568
129	0xbe2dd74e	-0.16976663
130	0xbea63ca2	-0.32468134
131	0x3f82d0f8	1.0220022
132	0xbbc7ca12	-0.0060970867
133	0xbe06506f	-0.1311662
134	0xbde14716	-0.10999887
135	0xbda472df	-0.080297224
136	0xbe7e908b	-0.24859826
137	0xbd7e2a95	-0.06205233
138	0x3e080fe6	0.13287315
139	0xbe6e32db	-0.23261587
140	0xbe1d5508	-0.15364468
141	0xbe3fefe7	-0.18743859
142	0x3ca988da	0.020695139
143	0x3abe06ab	0.0014497837
144	0xbe567a4c	-0.2094509
145	0x3ce842cf	0.02835217
146	0x3f0d4d0a	0.5519568
147	0x3d49ff61	0.049315814
148	0xbe340a18	-0.17581975
149	0xbe41a71b	-0.18911402
150	0xbe8f4c30	-0.27987814
151	0xbe864670	-0.26225615
152	0xbea54eab	-0.3228658
153	0xbdebc106	-0.11511426
154	0xbd5b4377	-0.053531136
155	0xbeaae1b0	-0.3337531
156	0xbe3e6cd2	-0.18596199
157	0xbd8f5273	-0.06998148
158	0x3e6d32fa	0.23163977
159	0xbe049fd2	-0.12951592
160	0x3eeded66	0.46470183
161	0xbddf6b07	-0.10909086
162	0x3df24d68	0.1183117
163	0x3dea2f3d	0.11434791
164	0x3ee602ef	0.44924113
165	0x3dc7d68e	0.0975772
166	0xbd21bebe	-0.039488547
167	0x3c770e8b	0.015079151
168	0xbe5305bf	-0.2060766
169	0x3e54c27a	0.20777312
170	0xbe5fae29	-0.2184378
171	0xbbfb0546	-0.0076605408
172	0x3bf95e59	0.007610124
173	0xbce2f0a8	-0.027702644
174	0xbd2f32da	-0.042773105
175	0x3d63b86b	0.055595797
176	0xbb9659c7	-0.004588339
177	0x3ccc182c	0.02491387
178	0x3de0e73e	0.10981606
179	0x3d49fd95	0.0493141
180	0x3ecbb644	0.39787495
181	0xbdbc1162	-0.09183003
182	0x3d66d131	0.056351844
183	0x3e2d12ed	0.16901751
184	0xbdd7310f	-0.10507404
185	0x3e0a54a6	0.13508853
186	0xbd067e35	-0.032835204
187	0x3df5a257	0.119938545
188	0x3d1a6d35	0.037701804
189	0x3dd7d12f	0.105379455
190	0xbe00bbb9	-0.1257161
191	0x3e9c9258	0.305804
192	0x3d2e970d	0.042624522
193	0x3dd8bdfb	0.10583111
194	0x3da164a7	0.07880526
195	0xbc13fc9f	-0.0090323975
196	0xbe8cb4ef	-0.2748179
197	0x3d2ba433	0.04190464
198	0x3c6be128	0.014396943
199	0x3e1ad83d	0.15121551
200	0xbdd00973	-0.10158052
201	0xbeaec698	-0.3413589
202	0xbe61035a	-0.21973935
203	0x3e0bc478	0.13649166
204	0x3cdbb53e	0.026819821
205	0xbdd91230	-0.10599172
206	0x3d1ed153	0.038773846
207	0xbdfc8bdf	-0.12331366
208	0x3deb83a4	0.11499718
209	0xbc9df99b	-0.01928406
210	0x3e1ae150	0.15125012
211	0xbe2ecdd3	-0.17070703
212	0x3e2e9e41	0.17052557
213	0xbd15e195	-0.036592085
214	0x3e872acf	0.26399848
215	0xbe870493	-0.26370677
216	0x3daf2855	0.085526146
217	0xbec3e060	-0.38257122
218	0x3cdeb66f	0.0271866
219	0xbe5ff407	-0.21870433
220	0x3dfce1ef	0.12347781
221	0x3e47817a	0.19482985
222	0x3d0ddf72	0.034636922
223	0xbd889606	-0.0666924
224	0xbdcc46ad	-0.09974418
225	0x3dee854c	0.11646518
226	0x3db3c060	0.08776927
227	0x3ec160e0	0.37769222
228	0x3e231975	0.1592768
229	0x3e0690c9	0.13141169
230	0x3e299654	0.16561252
231	0x3dbeed81	0.09322644
232	0xbb9bd713	-0.0047558635
233	0x3d2845a3	0.041082036
234	0xbdd601c2	-0.10449554
235	0xbd841deb	-0.06451019
236	0x3d757cc1	0.059933428
237	0x3e93a4dc	0.28836715
238	0x3bfa62df	0.007641181
239	0x3dbf41f1	0.09338749
240	0xbd0a629b	-0.033785444
241	0x3d7224e4	0.059117213
242	0x3ec44067	0.38330385
243	0x3e6e3f5f	0.23266362
244	0x3ed6b748	0.41936707
245	0xbcb884fe	-0.022524353
246	0x3e0e745e	0.13911578
247	0x3d1ac081	0.037781242
248	0xbb003ee9	-0.0019568747
249	0x3e1b14d7	0.15144669
250	0xbf0fa7cd	-0.5611542
251	0xbc9af846	-0.018917214
252	0x3d94194c	0.072313875
253	0x3e558099	0.20849837
254	0xbe68b8ed	-0.22726794
255	0xbd5f6bf9	-0.05454633

fc1.bias f4 [64]
0	0xbf2369a2	-0.6383306
1	0xbf327fce	-0.69726264
2	0xbeab4f09	-0.33458737
3	0xbf0817b2	-0.53161156
4	0xbdedcb6d	-0.11611066
5	0xbf3c6679	-0.7359386
6	0xbf0b4123	-0.54396266
7	0xbf9c949a	-1.223285
8	0xbeebd4b5	-0.4606072
9	0xbeb55656	-0.35417432
10	0xbf0212c5	-0.5080989
11	0xbf549edc	-0.830549
12	0xbe8e15a1	-0.27750877
13	0xbf4380b8	-0.76368284
14	0xbf429f25	-0.76024085
15	0xbd64b7f1	-0.055839483
16	0xbf4bfde8	-0.79684305
17	0xbee26096	-0.44214314
18	0xbf478e67	-0.77951664
19	0x3ecb7356	0.39736432
20	0xbf60d98e	-0.8783196
21	0xbf9d93aa	-1.2310688
22	0xbe449207	-0.1919633
23	0x3e472ee0	0.19451475
24	0xbf50a0c0	-0.81495285
25	0xbe412594	-0.18861991
26	0xbf38bbd1	-0.72161585
27	0xbebd6bd3	-0.36996326
28	0xbf77bb8f	-0.96770567
29	0x3e733539	0.23750772
30	0xbf1a0cea	-0.60175955
31	0xbf28e522	-0.6597463
32	0xbe103d5f	-0.14085911
33	0xbf30e5fa	-0.69100916
34	0xbf455b3f	-0.77092355
35	0xbf05c5d6	-0.52255
36	0xbeab56fe	-0.33464807
37	0xbebe7661	-0.3719969
38	0x3ebf3a29	0.3734906
39	0xbed89402	-0.4230042
40	0xbe6b1285	-0.22956283
41	0xbf44d140	-0.7688179
42	0xbf7f689c	-0.99768996
43	0xbfbe4904	-1.4866033
44	0xbed7dca7	-0.42160532
45	0xbf08f8c1	-0.5350457
46	0xbead4710	-0.3384328
47	0xbf2a0dcc	-0.664273
48	0xbee2c7d5	-0.44293085
49	0xbf8202b6	-1.0157077
50	0xbe1f1dc8	-0.15538704
51	0xbf098e92	-0.5373317
52	0xbf5a4fba	-0.85277903
53	0xbf7e1459	-0.992498
54	0xbf1e3f63	-0.6181547
55	0xbf463a86	-0.7743305
56	0xbf82767c	-1.0192409
57	0xbf12599b	-0.5716798
58	0xbea90c19	-0.33017042
59	0x3e3384e3	0.17531161
60	0xbee889e9	-0.45417717
61	0xbf21c430	-0.63189983
62	0xbf08a3ad	-0.5337475
63	0xbf6e702f	-0.9313993

fc2.weight f4 [64, 64]
0	0x3d0e01e1	0.03466976
1	0xbddf0fb9	-0.10891671
2	0xbe0e5403	-0.13899235
3	0xbe740b78	-0.238325
4	0xbadd2d62	-0.0016874487
5	0xbe51969c	-0.20467609
6	0xbe365ec3	-0.17809586
7	0xbcef6bc4	-0.029226191
8	0xbdbc9624	-0.092083246
9	0xbcb460ac	-0.022018753
10	0xbe3f030a	-0.18653503
11	0xbe8a93fa	-0.27066022
12	0xbdb8cc3e	-0.09023331
13	0xbe23ae83	-0.1598454
14	0xbd72ce35	-0.059278686
15	0xbe9f7681	-0.311451
16	0x3cfa7aaf	0.030576078
17	0x3d040b90	0.03223759
18	0xbd095604	-0.033529297
19	0xbe0eedef	-0.13957952
20	0x3d92b781	0.07163907
21	0xbe3e4960	-0.18582678
22	0xbd892f0e	-0.06698428
23	0xbe233311	-0.15937449
24	0xbdcbc992	-0.09950556
25	0x3d412049	0.04714993
26	0xbd1041c7	-0.03521898
27	0xbebb117e	-0.36536783
28	0x3cffb52f	0.031214325
29	0xbe7155ab	-0.23567836
30	0xbd34f1d4	-0.044175938
31	0xbdba2e91	-0.09090913
32	0xbe02572b	-0.12728564
33	0x3d428cfe	0.047497742
34	0xbd0e4c86	-0.034740947
35	0x3d5394ef	0.051655706
36	0xbd97a524	-0.07404545
37	0x3cd38f12	0.025825057
38	0xbe076078	-0.13220394
39	0x3c4b1d80	0.01239717
40	0xbe5dde35	-0.21666797
41	0xbc2c1073	-0.010501969
42	0xbcd33bab	-0.025785288
43	0x3ccb75b5	0.0248364
44	0x3cb338e2	0.02187771
45	0xbd45c740	-0.048285723
46	0x3d6d26fc	0.057898507
47	0x3c5e0701	0.013551475
48	0xbe1d0c01	-0.1533661
49	0x3d2b2c00	0.04179001
50	0xbeaa2536	-0.33231515
51	0x3de795b5	0.11307851
52	0xbdf4c001	-0.11950684
53	0x3a81d126	0.000990425
54	0xbd82a9aa	-0.06380017
55	0xbe5ce862	-0.21573022
56	0xbb98f147	-0.0046674344
57	0xbdaa3cac	-0.083123535
58	0xbc0c8990	-0.008577719
59	0xbe5818a3	-0.21103148
60	0x3c4738eb	0.012159566
61	0xbe05e9fb	-0.13077538
62	0x3ca8d940	0.020611405
63	0xbc928bdb	-0.017888954
64	0xbe09553e	-0.13411424
65	0xbe8a1d84	-0.26975644
66	0xbe154512	-0.1457713
67	0xbe09127b	-0.13385956
68	0x3d1fb9b6	0.038995467
69	0xbed0695e	-0.4070539
70	0xbc9aa38b	-0.018876811
71	0xbe79790b	-0.2436258
72	0xbe1a8977	-0.15091501
73	0xbe01a94f	-0.12662242
74	0xbdb28bc4	-0.087180644
75	0xbdab3dc3	-0.083613895
76	0x3d9947a3	0.07484367
77	0xbf072076	-0.52783906
78	0xbeabb1f6	-0.3353421
79	0x3dddae19	0.10824222
80	0xbe58de3b	-0.21178524
81	0xbcedd3d9	-0.02903168
82	0xbe5ccf62	-0.21563485
83	0x3d28a0c3	0.04116894
84	0xbe5eaa4e	-0.21744654
85	0x3d6ebb5b	0.058284145
86	0xbea03f1e	-0.31298155
87	0xbc4fa154	-0.012672741
88	0xbee9e442	-0.4568196
89	0xbd6ae916	-0.057351194
90	0xbe55e982	-0.20889857
91	0xbe389ae8	-0.18027842
92	0xbd5fb3fe	-0.054615013
93	0xbe2b027f	-0.16700171
94	0xbe4b0f25	-0.19829996
95	0x3d355278	0.0442681
96	0xbe65f2c7	-0.22455893
97	0xbeb03c05	-0.3442079
98	0xbd809c2d	-0.06279788
99	0xbcf8a53a	-0.030352224
100	0xbec9aab7	-0.39388058
101	0xbd32b200	-0.043626785
102	0xbedd6f86	-0.43249148
103	0xbb777e77	-0.0037764588
104	0xbd882884	-0.06648353
105	0x3d1aa9d9	0.037759636
106	0xbdd438bb	-0.10362383
107	0x3e0686cb	0.13137357
108	0x3da6d808	0.081466734
109	0x3e4318d7	0.19052444
110	0xbeac1ed0	-0.33617258
111	0xbd4d3690	-0.050100863
112	0xbe093ad1	-0.13401343
113	0x3b42b1ac	0.0029707951
114	0xbd9388f3	-0.07203855
115	0xbdd39423	-0.10330989
116	0xbe351fe4	-0.17687947
117	0xbe0b0cc2	-0.13579085
118	0x3bffa616	0.0078017814
119	0xbb73e71e	-0.0037216614
120	0xbef4e80a	-0.47833282
121	0xbdbc3735	-0.091902174
122	0xbeaa39fe	-0.3324737
123	0xbe78046c	-0.24220437
124	0xbe263bc0	-0.1623373
125	0xbd5bc34d	-0.05365305
126	0x3da08ee4	0.07839754
127	0x3cc7cf66	0.024390887
128	0xbdd176b9	-0.10227723
129	0xbe391aa7	-0.18076573
130	0xbe6f0ada	-0.23343983
131	0xbd700f09	-0.05860809
132	0x3d03f692	0.03221757
133	0xbddc992c	-0.10771403
134	0xbe4363fa	-0.19081107
135	0xbe0b9e2a	-0.13634554
136	0x3c999c9f	0.01875144
137	0x3d710f0d	0.058852244
138	0xbdef808c	-0.1169444
139	0x3d36fa66	0.044672392
140	0xbe17028b	-0.14747064
141	0xbe0159d1	-0.12631918
142	0xbe2aaea2	-0.1666818
143	0x3c5dc592	0.013535874
144	0x3c668a57	0.014071069
145	0xbdebec47	-0.11519676
146	0xbd234f54	-0.039870575
147	0xbd64f8f4	-0.055901483
148	0xbe3cb239	-0.18427362
149	0xbddf8ebb	-0.109158956
150	0xbd467c2d	-0.048458267
151	0xbd97401b	-0.07385274
152	0xbdd891cf	-0.10574686
153	0xbce4b5f2	-0.02791879
154	0xbd01943e	-0.031635515
155	0x3d63db1c	0.05562888
156	0xbccaaa91	-0.024739536
157	0xbdf4f94f	-0.11961614
158	0xbdb0006a	-0.08593829
159	0xbdee4dde	-0.11635946
160	0xbc6f54f4	-0.014607657
161	0xbe2d1046	-0.16900739
162	0x3ddbce8a	0.107327536
163	0x3b2289c2	0.0024801348
164	0x3d5f4378	0.054507703
165	0xbe045217	-0.1292194
166	0xbd57ea30	-0.052713573
167	0xbe4045e0	-0.18776655
168	0xbe470c7f	-0.1943836
169	0xbd07970a	-0.033103026
170	0xbc3928fe	-0.011301277
171	0x3cd60e9e	0.026130017
172	0x3d64d6ba	0.05586884
173	0xbdb4ac98	-0.08821982
174	0xbdf24782	-0.11830045
175	0xbd3eb239	-0.046556685
176	0xbc984fed	-0.0185928
177	0xbd22b631	-0.039724533
178	0xbdb20900	-0.08693123
179	0xbbd58ca5	-0.0065170103
180	0xbe4ff8ae	-0.20309708
181	0xbbceb517	-0.0063082087
182	0xbe62b59c	-0.22139591
183	0xbe38d8e8	-0.18051493
184	0xbe3a8abf	-0.1821699
185	0x3dc3a6bb	0.09553286
186	0xbd4cd85c	-0.050011024
187	0xbea167a0	-0.31524372
188	0x3da6b28b	0.08139523
189	0x3d8174d2	0.0632111
190	0x3d7e9243	0.062151205
191	0xbd32cf71	-0.043654863
192	0xbdd87f1e	-0.10571121
193	0xbc8c7877	-0.017147286
194	0xbe0e23c0	-0.13880825
195	0x3dbc52c0	0.09195471
196	0xbd84fa81	-0.06493092
197	0x3dd358c6	0.103196666
198	0xbe3a856a	-0.18214956
199	0xbba5fde7	-0.005065668
200	0xbcbadd0a	-0.022810478
201	0x3da3ce44	0.079983264
202	0x3cfc6bf6	0.030813199
203	0xbe0716b8	-0.1319226
204	0xbe0006a9	-0.1250254
205	0xbdf40d4f	-0.11916601
206	0xbdd6fb10	-0.10497105
207	0xbd8de824	-0.06929043
208	0xbd8cfff0	-0.06884754
209	0xbd1b2465	-0.037876505
210	0x3c66df6c	0.014091354
211	0xbe1c5199	-0.15265502
212	0xbe67df05	-0.22643669
213	0xbc08c171	-0.008346901
214	0xbe190541	-0.1494341
215	0xbe484dd7	-0.19560944
216	0xbe26b5d4	-0.162803
217	0xbd171220	-0.03688252
218	0xbe3eac22	-0.18620351
219	0xbc66e916	-0.014093658
220	0x3d976b5f	0.07393526
221	0xbcd93afa	-0.02651738
222	0x3c651fe2	0.013984652
223	0x3d7025ec	0.058629915
224	0xbe0eeb4e	-0.13956949
225	0x3cecf0f2	0.028923485
226	0x3d0658c8	0.032799512
227	0x3c4fa2d4	0.012673099
228	0xbe17a8ec	-0.14810532
229	0x3d9de9d4	0.07710615
230	0xbdeba107	-0.11505323
231	0x3d6da489	0.05801824
232	0xbe0c9fcf	-0.13732837
233	0xbbe8baae	-0.007102332
234	0x3d8b10f7	0.06790345
235	0xbdd830d4	-0.10556188
236	0xbe2c0dc6	-0.16802129
237	0xbe10cb2b	-0.14140002
238	0x3da7d510	0.08194935
239	0xbd5fd368	-0.054644972
240	0x3bf1c95b	0.00737874
241	0xbce5ba8d	-0.028043056
242	0x3d3f34ff	0.0466814
243	0xbdcc5afe	-0.09978293
244	0x3d480a2b	0.048837822
245	0xbd12a37a	-0.035800435
246	0x3c6c1576	0.014409414
247	0xbdadee4d	-0.08492718
248	0x3d4104de	0.047123782
249	0x3d707922	0.05870927
250	0xbe7ba743	-0.24575524
251	0xbd4e7742	-0.050406702
252	0xbd4b44e6	-0.049626254
253	0xbced7446	-0.028986108
254	0xbd75d722	-0.06001962
255	0xbdb4016e	-0.08789335

fc2.bias f4 [64]
0	0xbe336586	-0.17519197
1	0xbde81d31	-0.11333693
2	0xbe067397	-0.13130032
3	0xbd3250e6	-0.043534182
4	0xbd936e66	-0.07198791
5	0xbc83f019	-0.016105698
6	0x3f4f172c	0.8089473
7	0xbcca8301	-0.02472067
8	0x3cac3bf2	0.021024678
9	0xbd9c1d0b	-0.07622727
10	0xbcabcade	-0.020970758
11	0xbe49955f	-0.19685887
12	0xbba6d6e2	-0.005091534
13	0xbe686ea3	-0.22698455
14	0xbdd48150	-0.10376227
15	0xbe5c99b4	-0.21543008
16	0x3f059e02	0.52194226
17	0x3f8129a3	1.0090832
18	0xbce22e4b	-0.027609965
19	0x3bb471c5	0.0055067264
20	0x3eebd574	0.4606129
21	0xbd417c51	-0.047237698
22	0xbdc7acfc	-0.09749791
23	0xbe0dd674	-0.13851339
24	0x3cae3331	0.021264644
25	0xbd342a88	-0.043985873
26	0xbe323499	-0.17402877
27	0xbeb9dbf1	-0.36300614
28	0x3f4b3fce	0.79394233
29	0xbdcd2ef4	-0.10018721
30	0xbe33f9ab	-0.1757571
31	0xbdd1d78d	-0.10246191
32	0xbd7c7c12	-0.06164176
33	0xbbcbcd08	-0.00621951
34	0xbedb000b	-0.4277347
35	0xbe319e53	-0.17345552
36	0xbe0cc658	-0.13747537
37	0xbe4f4ac1	-0.2024336
38	0xbeb94931	-0.36188653
39	0x3de66a31	0.11250723
40	0xbe37d415	-0.17951997
41	0xbe3ac355	-0.18238576
42	0xbe415270	-0.18879104
43	0xbe14e275	-0.14539512
44	0xbeede766	-0.46465605
45	0xbe1843fc	-0.14869684
46	0xbc2cc85d	-0.010545817
47	0x3df4b3a3	0.119483255
48	0xbeb28024	-0.3486339
49	0xbddba852	-0.10725464
50	0xbc3fb675	-0.011701216
51	0xbd3839b9	-0.044976924
52	0xbe503d54	-0.20335895
53	0xbd9c88d2	-0.07643284
54	0xbe60fa23	-0.2197042
55	0xbe7db30a	-0.24775329
56	0x3f09e920	0.53871346
57	0x3dac4a7a	0.08412643
58	0xbe3c1d0f	-0.1837046
59	0xbb44168c	-0.0029920666
60	0xbc92a4c6	-0.017900836
61	0xbc92fe52	-0.017943535
62	0x3ea52239	0.32252672
63	0xbd5b5436	-0.053547107

fc3.weight f4 [1, 64]
0	0xbe1b7c86	-0.1518422
1	0x3da16afa	0.07881732
2	0xbd8f6cbe	-0.07003163
3	0x3c2f0565	0.0106824385
4	0xbd5ddba3	-0.05416454
5	0x3c38c57b	0.011277552
6	0x3dc5c952	0.096575394
7	0x3c462996	0.012094876
8	0xbd083b08	-0.03325942
9	0x3c4fb1a6	0.012676632
10	0xbc87c238	-0.016572103
11	0x3d9f3832	0.0777439
12	0xbb4046ba	-0.0029339031
13	0x3db36a2b	0.08760484
14	0x3be09363	0.0068535074
15	0xbba7d8d1	-0.005122282
16	0x3e019b96	0.12657008
17	0xbde3c88b	-0.11122235
18	0x3d8c6cf2	0.06856717
19	0x3e0718ef	0.13193105
20	0xbdcd8229	-0.10034592
21	0x3b0bff77	0.0021361986
22	0xbb45845d	-0.003013871
23	0xbc17516c	-0.009235721
24	0xbc8bc38f	-0.017061023
25	0xbc938530	-0.018007845
26	0xbb3fca34	-0.002926481
27	0xbc35147b	-0.011052246
28	0x3e0006b7	0.12502562
29	0x3aee4218	0.0018177656
30	0x3d14c5cf	0.036321457
31	0x3cc7e61b	0.024401715
32	0x3cb459a0	0.022015393
33	0x3bf2bdd0	0.0074078813
34	0xbcffbc63	-0.03121776
35	0x3bebaa9a	0.007191968
36	0x3ba9a1ea	0.0051767724
37	0xbd529d1c	-0.051419362
38	0xbe176591	-0.14784838
39	0x3c847a58	0.01617162
40	0xbd034360	-0.032046676
41	0xbc3a40a6	-0.011367952
42	0xbdaf2d25	-0.085535325
43	0x3cd7dd1e	0.026350554
44	0x3d7be5f1	0.061498586
45	0xbcc19dfe	-0.023634907
46	0xba0496ca	-0.000505787
47	0x3dd237c0	0.1026454
48	0x3db20b9f	0.08693623
49	0xbc07cd5b	-0.008288707
50	0xbd06be9c	-0.032896623
51	0xbacd9b03	-0.0015686456
52	0xbcfcecd6	-0.03087465
53	0xb9224bab	-0.00015477712
54	0x3c0b1b0e	0.008490337
55	0xbd4ea733	-0.050452422
56	0xbd9df7ce	-0.077132806
57	0x3ceb5050	0.02872482
58	0x3ca34764	0.019931503
59	0xbe820444	-0.2539388
60	0xbb8faafc	-0.0043843966
61	0x3c22319c	0.009899523
62	0x3d9a6693	0.07539096
63	0x3cba8824	0.022769995

fc1.weight f4 [64, 1]
0	0x3f979db8	1.1845007
1	0xbebf2701	-0.37334445
2	0xbe638f54	-0.22222644
3	0xbf22467c	-0.633888
4	0xbfc2bd12	-1.521395
5	0x3f03cfa7	0.5148873
6	0xbda1b968	-0.078966916
7	0x3fa1c523	1.2638286
8	0xbc94ad90	-0.018149167
9	0x3d92e99b	0.07173463
10	0xbd8be137	-0.06830066
11	0x3c15707b	0.009121056
12	0xbec77650	-0.38957453
13	0xbe76b5ad	-0.24092741
14	0xbd955130	-0.07290876
15	0xbcc2049b	-0.023683837
16	0x3e146c30	0.14494395
17	0xbb82e700	-0.0039948225
18	0x3d9e49e4	0.07728937
19	0x3d807b57	0.06273525
20	0xbd97ec07	-0.074180655
21	0xbead3540	-0.3382969
22	0xbe2ba370	-0.16761565
23	0xbedce02f	-0.43139789
24	0xbf7ed923	-0.99550074
25	0xbec76cc6	-0.38950175
26	0x3a9fe570	0.0012199115
27	0x3f048bf7	0.5177607
28	0xbfdc8d4b	-1.7230619
29	0xbd9ce383	-0.07660582
30	0x3d47283a	0.048622347
31	0x3e549689	0.2076055
32	0xbe31839a	-0.17335358
33	0xbfeffb6c	-1.8748603
34	0xbfbf57e0	-1.4948692
35	0xbd66c660	-0.05634153
36	0xbcee351f	-0.029078064
37	0x3d3c44ba	0.04596398
38	0xbd615a7c	-0.055017933
39	0xbec1fbe8	-0.37887502
40	0x3e568c9e	0.20952079
41	0xbed8a05c	-0.42309844
42	0xbe1b0244	-0.15137583
43	0xbd7d4cca	-0.06184081
44	0xbe527bd7	-0.20555054
45	0xbd6dc565	-0.05804958
46	0xbfa2b819	-1.2712432
47	0xbf2c15a7	-0.6722054
48	0xbf247b69	-0.6425081
49	0xbde08800	-0.1096344
50	0xbf88c380	-1.0684662
51	0xbfb6ef98	-1.4291868
52	0x3c43f5de	0.011960475
53	0xbc60a9ec	-0.0137123875
54	0x3ef8ee29	0.48619202
55	0x3eefb57f	0.46818158
56	0xbd3fca20	-0.04682362
57	0xbf8b6506	-1.0890205
58	0xbdb8b1e1	-0.09018303
59	0x3d9fb67d	0.07798479
60	0xbe1d520f	-0.15363334
61	0x3f4c03c4	0.79693246
62	0x3ef1bc04	0.47213757
63	0x3c7394ba	0.014867002

fc1.bias f4 [64]
0	0xbf481970	-0.78163815
1	0xbf17408c	-0.59082866
2	0xbee88609	-0.4541476
3	0xbf34b8e6	-0.7059463
4	0xbf7eac17	-0.9948134
5	0xbfe7e7a6	-1.8117568
6	0xbe2006a5	-0.15627535
7	0x3cb6c587	0.022310985
8	0xbda80c29	-0.08205444
9	0xbebeabf6	-0.3724057
10	0xbdf07162	-0.11740376
11	0xbe3098d6	-0.17245802
12	0xbe986c33	-0.2977005
13	0xbea1dc2d	-0.31613293
14	0xbf6d15ae	-0.92611206
15	0xbdd78740	-0.10523844
16	0xbf33ffe2	-0.7031232
17	0xbf412783	-0.75450915
18	0xbea29849	-0.3175681
19	0xbe918750	-0.28423548
20	0xbe1fd5d0	-0.15608907
21	0xbf584518	-0.8448043
22	0xbf639452	-0.88898194
23	0xbeb7b042	-0.35876662
24	0xbf2da099	-0.6782318
25	0xbe936189	-0.2878535
26	0xbca70a59	-0.020390676
27	0xbfe367b0	-1.7766018
28	0x3e4beb84	0.19914061
29	0xbee264e5	-0.442176
30	0xbe899c5b	-0.26877102
31	0xbf53f7b6	-0.8279985
32	0xbe7d5c6a	-0.24742284
33	0x3d3c4b56	0.045970283
34	0xbf943197	-1.1577634
35	0xbf3ad846	-0.7298626
36	0xbe90a693	-0.28252086
37	0xbf086b47	-0.5328869
38	0xbe123010	-0.14276147
39	0xbeeffc46	-0.46872157
40	0xbf7b5b57	-0.9818625
41	0xbf59b5c0	-0.85042953
42	0xbe88be7b	-0.26707825
43	0xbe1ebe84	-0.15502363
44	0xbe8aed13	-0.27133998
45	0xbe40e5e3	-0.18837695
46	0xbe262635	-0.16225512
47	0xbf2ed466	-0.68292844
48	0xbf00fbf7	-0.5038447
49	0xbf29e072	-0.663581
50	0xbf4570fb	-0.7712552
51	0x3cdd07a3	0.02698118
52	0xbddeb4c0	-0.10874319
53	0xbcebf6e5	-0.028804252
54	0xbfcb2478	-1.5870504
55	0xbfc287cf	-1.5197695
56	0xbf1ad250	-0.6047716
57	0xbf3588be	-0.70911777
58	0xbe841a33	-0.25801238
59	0xbeb0416e	-0.3442492
60	0xbe33fdfa	-0.17577353
61	0xc0013d7c	-2.0193777
62	0xbfbda411	-1.4815694
63	0xbe48e20a	-0.19617477
