maddpg_pytorch/models/cache_data/model/run51/incremental/model_ep13001.pt (torch, 690099 bytes, 168 tensors)

fc1.weight f4 [64, 1]
000000 a6 d3 2a 3f 97 26 bf be 17 8f 63 be 78 22 f3 be
       0.667292 -0.3733413 -0.22222553 -0.47487235
000010 f4 41 cb bf 90 44 18 3f 27 b9 a1 bd 24 a5 36 3f
       -1.5879502 0.5947962 -0.07896643 0.71345735
000020 88 ad 94 bc 37 e9 92 3d 45 e1 8b bd 42 70 15 3c
       -0.018149152 0.071733885 -0.06830076 0.009121003
000030 ed 69 03 bf eb 7d 99 3d 30 51 95 bd e3 04 c2 bc
       -0.51333505 0.0749472 -0.07290876 -0.02368397
000040 30 6c 14 3e 00 e7 82 bb 90 6c 22 be 0e 7b 80 3d
       0.14494395 -0.0039948225 -0.15861726 0.06273471
000050 e5 eb 97 bd 16 35 ad be 70 a3 2b be 1f 09 b0 be
       -0.0741804 -0.33829564 -0.16761565 -0.3438196
000060 f0 13 a2 bf 91 2c b0 be 95 e5 9f 3a 9c 6b 89 3e
       -1.2662334 -0.34409 0.0012199158 0.26839912
000070 d0 cd e8 bf 26 e3 9c bd d0 27 47 3d b5 57 32 3e
       -1.8187809 -0.076605126 0.048621953 0.1741627
000080 ec 83 31 be 2d f7 09 c0 ba c8 33 bf fc c5 66 bd
       -0.1733548 -2.1557114 -0.7022816 -0.056341156
000090 6b b6 ee bc 0a 45 3c 3d 58 5a 61 bd 4c 60 90 be
       -0.029139718 0.04596428 -0.0550178 -0.2819847
0000a0 33 72 56 3e 5c a0 d8 be 5b 02 1b be d4 4c 7d bd
       0.20942001 -0.42309844 -0.15137617 -0.061840847
0000b0 1a f3 b2 3d aa c5 6d bd 5e 9c 00 c0 8f 65 9c bf
       0.08737774 -0.058049835 -2.009544 -1.2218493
0000c0 c5 48 ec be 00 88 e0 bd f7 f2 34 bf e6 84 f9 bf
       -0.4614927 -0.1096344 -0.70683235 -1.9493682
0000d0 83 f5 43 3c a9 a9 60 bc 16 1a db 3d e9 f9 97 3e
       0.01196039 -0.013712325 0.10698335 0.29682854
0000e0 20 ca 3f bd c1 4c 02 c0 bc b1 b8 bd bf 09 f5 3d
       -0.04682362 -2.0359347 -0.09018275 0.119647495
0000f0 f7 97 ff bd 10 69 f4 3e ce 37 5f 3e 77 7f 73 3c
       -0.12480157 0.47736406 0.21798632 0.014861933

fc1.bias f4 [64]
000000 8b b9 e0 bf c2 40 17 bf fc 85 e8 be ad 78 50 bf
       -1.7556623 -0.5908319 -0.45414722 -0.81434137
000010 f0 d1 8d bf ed ba c3 bf b3 06 20 be 8f 2a 87 3e
       -1.1079693 -1.529142 -0.15627556 0.26399657
000020 5a 0c a8 bd 4c ac be be 8d 71 f0 bd 13 99 30 be
       -0.08205481 -0.37240827 -0.11740408 -0.17245893
000030 15 ef c7 3f 41 98 1f bf ae 15 6d bf 3f 87 d7 bd
       1.5619837 -0.62341696 -0.92611206 -0.10523843
000040 e2 ff 33 bf 80 27 41 bf ef 06 ca be 58 87 91 be
       -0.7031232 -0.754509 -0.39458415 -0.28423572
000050 fa d5 1f be 0d 45 58 bf 52 94 63 bf a0 8c f5 be
       -0.1560897 -0.84480363 -0.88898194 -0.4795885
000060 d6 e1 48 bf 9b 1f fd be a8 0a a7 bc ea 14 fc bf
       -0.784696 -0.49438176 -0.020390823 -1.9693882
000070 da de 26 3f e6 64 e2 be 82 9c 89 be 8a 35 56 bf
       0.65183794 -0.44217604 -0.26877218 -0.83675444
000080 75 5c 7d be 02 3d 51 be 99 43 e9 bf 91 d8 3a bf
       -0.24742301 -0.20433429 -1.8223754 -0.72986704
000090 47 a8 90 be 53 6b 08 bf 38 30 12 be 97 54 19 bf
       -0.28253385 -0.53288764 -0.14276206 -0.598947
0000a0 18 5f 7b bf c0 b5 59 bf 94 be 88 be a9 be 1e be
       -0.98191977 -0.85042953 -0.267079 -0.15502419
0000b0 1e 59 0f bf 13 e6 40 be 2b 6a bc 3d 56 8a 9c 3d
       -0.5599536 -0.18837766 0.091999374 0.07643573
0000c0 65 d1 26 bf 72 e0 29 bf 76 e0 87 bf 58 e7 9c 3e
       -0.6516326 -0.663581 -1.0615375 0.3064525
0000d0 f8 b4 de bd 38 f7 eb bc 4c 01 ed bf 30 c9 cb bf
       -0.10874361 -0.028804407 -1.8516021 -1.5920773
0000e0 50 d2 1a bf 9d ee ae be 64 1a 84 be 2a 61 03 bf
       -0.6047716 -0.34166422 -0.25801384 -0.51320136
0000f0 31 5b 47 be 3f 68 13 c0 cd f8 e4 bf 2e e3 48 be
       -0.1946838 -2.3032377 -1.7888428 -0.19617912

fc2.weight f4 [64, 64]
000000 c7 ff b5 bd 96 95 b6 3e d1 18 98 bc fb d6 23 bd
       -0.08886676 0.35661 -0.01856652 -0.039999943
000010 e3 68 85 3e fd cb 6e bd 8a 41 b3 bc 12 6e e8 bb
       0.26056585 -0.058300007 -0.021881837 -0.0070931995
000020 67 e2 01 be 3f 84 eb 3d d6 db 93 be b7 55 fe bd
       -0.12684022 0.11499833 -0.2887866 -0.124186926
000030 44 33 34 3c 11 dc 8e bd 70 ea 9c bd 43 32 8b bd
       0.010998551 -0.06975568 -0.07661903 -0.06796696
000040 30 75 1e 3d a8 de e7 bc a9 97 03 bf b2 8b 5d bd
       0.038685977 -0.028304413 -0.5140329 -0.054088302
000050 d1 f1 9d bc 06 c0 9d 3e e4 63 2d bd 5c a9 82 bd
       -0.019280346 0.30810565 -0.04233159 -0.06379959
000060 66 02 7e bd 71 22 b0 3d d8 ac a2 be 46 9c 70 be
       -0.062014006 0.08600319 -0.31772494 -0.23497114
000070 c6 af 81 bc 5e 8a 8d be e8 3a 89 be 12 c8 33 be
       -0.015830886 -0.27644628 -0.26802754 -0.1755679
000080 85 1f b1 be 17 0a 98 3d 04 f0 8f 3e 8d cb 0a bd
       -0.3459436 0.074237995 0.28112805 -0.033885527
000090 dc 0b 93 be 34 64 31 3e 1a 2b 59 be 7a 02 85 be
       -0.28719985 0.1732338 -0.21207848 -0.25978452
0000a0 d7 84 81 be 80 59 69 bd 01 1a 9d be 7c f0 d1 3d
       -0.2529666 -0.05697012 -0.30683902 0.10250947
0000b0 37 6a 43 be bf 01 04 be 44 56 0f bd b6 38 e9 bd
       -0.19083486 -0.12891291 -0.03499438 -0.1138777
0000c0 21 28 b8 bd 60 6e 82 3b 90 37 6e 3d 7a 1c 1e be
       -0.08992029 0.003980443 0.058158457 -0.1544055
0000d0 c5 a7 8a be ed 9e e8 bd 0a 1e 7e be ed 0b 28 be
       -0.27081123 -0.11358438 -0.24816146 -0.164108
0000e0 ec 1d a5 bd c1 65 05 3e ff fd b1 be ec c4 0e bf
       -0.08062348 0.13027097 -0.34764096 -0.5576923
0000f0 11 e3 31 be 78 0a 5e be 0f 68 e5 bd 57 05 3e bf
       -0.17371775 -0.21683681 -0.11201488 -0.742269
000100 65 f9 f2 bd 03 cc ef bd 3e 16 0a bd 0a 64 17 be
       -0.118639745 -0.11708834 -0.033712618 -0.14784256
000110 3c 70 70 3d 26 d4 a6 3c 21 a9 69 3d 2d fb 16 be
       0.058700785 0.020364832 0.05704606 -0.14744253
000120 7a 44 02 be 14 4b bd bd 2b 67 9e bc 74 5b dd bd
       -0.12721434 -0.09242836 -0.019336304 -0.10808459
000130 9c 49 94 bc 06 55 d0 bd f0 80 1f bc af 10 3f be
       -0.018101506 -0.10172467 -0.009735331 -0.18658708
000140 08 13 ae 3c d4 5a 71 3d 51 7e 23 bd 67 35 b2 bc
       0.02124931 0.05892451 -0.039915387 -0.02175398
000150 48 80 39 be 6e 81 ba 3d 7a 32 df 3d 1a 65 1a 3d
       -0.18115342 0.09106718 0.108982995 0.037694074
000160 57 40 03 bd 16 53 28 be 31 df 13 be a3 0b 4e 3d
       -0.03204378 -0.16437945 -0.1444061 0.050304066
000170 f4 f5 60 be 4d dd ce bb be fc 20 be ab 99 17 be
       -0.21968824 -0.006313002 -0.15721413 -0.14804713
000180 4c 53 ae bd 99 6f 5b be a3 9e 1c be e8 3c ba 3d
       -0.08511981 -0.2142929 -0.1529489 0.09093648
000190 22 50 66 3c 0c 1d f2 3d 68 c9 fd bd 3e 8a 55 be
       0.014057191 0.118219465 -0.12391931 -0.20853516
0001a0 4b 2d 81 3d 88 23 da bc 18 c1 5d be e1 a6 e6 bc
       0.06307467 -0.02662827 -0.2165569 -0.028155746
0001b0 c4 ba 40 be 27 32 b6 3c 63 dd 3c bd 43 7e 8c be
       -0.18821245 0.022240711 -0.04610957 -0.2744008
0001c0 0d cd 91 be c0 65 33 bc da 2b 93 bd 84 87 8f bd
       -0.28476754 -0.010949552 -0.071860984 -0.070082694
0001d0 56 99 57 be 34 c5 7d bd 87 c0 35 be 00 e3 17 be
       -0.21054587 -0.061955646 -0.17749225 -0.14832687
0001e0 9e 6a aa bd 24 36 b0 bc 6a e7 3d bd 0d f1 d0 bd
       -0.08321117 -0.021510191 -0.04636327 -0.10202227
0001f0 06 e6 d9 bd b6 43 8a bb 54 09 38 bd e3 06 fb bd
       -0.106395766 -0.0042194976 -0.04493077 -0.12257173
000200 05 16 a6 be 38 5f 9d 3d c0 62 ed bb 46 98 c2 bd
       -0.32438675 0.07684177 -0.007244438 -0.095017
000210 86 a3 e8 3d c1 ab e1 3c 68 8a f8 bd d6 25 8c be
       0.113593146 0.027547719 -0.12135774 -0.27372617
000220 01 99 3f bd 00 0d aa bd 99 39 23 bc 77 c7 2f be
       -0.046776775 -0.08303261 -0.009962463 -0.17165934
000230 8a a7 14 3d ba 93 a4 bd d4 ce 10 3d bf 19 18 bd
       0.03629259 -0.08035989 0.035353497 -0.03713393
000240 08 91 f3 3c 04 55 d4 3d 42 81 06 be 6c ab 08 be
       0.029732242 0.10367778 -0.13135245 -0.13346642
000250 27 44 27 be 40 19 a8 bb 80 8b 72 bd f4 75 46 bd
       -0.16334592 -0.005129963 -0.05921507 -0.048452333
000260 20 eb d1 bc 1d dc 13 bd 3b ec ed 3c bf cc 36 bd
       -0.025624812 -0.03609859 0.029043308 -0.044628855
000270 90 ef 24 bd a6 3c 10 be 82 df 42 be 88 d2 cd 3c
       -0.040267527 -0.14085636 -0.19030574 0.025124803
000280 6a 5c d2 bd 18 b3 ce 3c 00 84 97 3b f0 23 a3 bd
       -0.10271533 0.025231883 0.00462389 -0.07965839
000290 bd af 0c bc 9a 77 8f 3d e7 df 94 bd 62 7b 91 bd
       -0.008586821 0.07005234 -0.072692685 -0.071036115
0002a0 d8 98 08 be 00 a0 e1 3a e7 f4 19 be fe a6 18 be
       -0.13339555 0.0017213821 -0.15034829 -0.14907452
0002b0 40 bf 98 bc ac 9a ec bd 50 5f fb 3c 3a 08 e3 bd
       -0.018645883 -0.11552939 0.030685097 -0.110855535
0002c0 01 8a a2 bd c4 6b 43 bd c4 f2 e9 bd 25 d9 57 3d
       -0.079364784 -0.047710195 -0.11423257 0.05269732
0002d0 6a 19 60 bd bb e4 80 3d bf 98 ce bd 47 5a e6 bd
       -0.054711737 0.06293627 -0.10087728 -0.11247688
0002e0 cc aa f0 bd 54 5c 42 bd fe 62 55 3b 5c 8a 52 be
       -0.11751327 -0.047451332 0.0032560225 -0.20560592
0002f0 74 14 33 bd ec 25 8d bb 51 ae 2a bc 29 8b 09 bd
       -0.043720677 -0.004307499 -0.010417537 -0.03357998
000300 31 2a 2a be c8 bf 65 bd 05 80 0c be c7 fe 14 be
       -0.16617657 -0.0560911 -0.1372071 -0.14550315
000310 90 ab 55 3d 7e 3b 3c be 85 b7 26 be 79 86 a3 bd
       0.052165568 -0.1838207 -0.16280945 -0.07984633
000320 e1 6f 39 be c6 20 d7 bd 12 ed 0b bd f1 3d 6f bd
       -0.18109085 -0.10504298 -0.034161635 -0.05840868
000330 2e 49 b0 3b 71 86 6b be 80 73 8e 3a c8 2d fb bd
       0.0053798174 -0.23000504 0.0010868162 -0.122645915
000340 62 2f 8f bd 82 03 90 bd 99 09 90 bd 24 97 cf bd
       -0.069914594 -0.07031919 -0.070330806 -0.1013625
000350 3d 09 3c be ac 71 b4 bd 6c 1a d4 bd 13 85 18 3c
       -0.18362899 -0.08810744 -0.10356602 0.009309071
000360 05 d8 a4 bd 4c 8b ef bd 33 63 18 be f8 15 4a be
       -0.08049015 -0.11696491 -0.14881591 -0.19734943
000370 9e 35 5f be 1b 7b 36 be 65 bc 54 bd 82 c4 a7 bd
       -0.21797797 -0.17820399 -0.05193748 -0.08191778
000380 30 cb 16 be d4 ac 1f be 4e 89 a3 3d 46 89 b8 3d
       -0.14725947 -0.15593272 0.07985173 0.09010558
000390 6b 13 a6 3c 70 5a 15 3d b9 95 27 bd e0 e0 20 be
       0.020272931 0.0364632 -0.04091427 -0.15710783
0003a0 a4 42 38 be 6c cc fa bd c8 28 c6 bc d2 39 0d be
       -0.17994171 -0.12246022 -0.024189368 -0.13791588
0003b0 99 19 bf bd fe 65 ca bd 44 46 7c be 6a d7 1c be
       -0.09331054 -0.09882735 -0.24636179 -0.15316549
0003c0 3a 45 45 bd 10 42 cf bc ac c5 5d be 7a 17 a2 bd
       -0.048161723 -0.025300056 -0.21657437 -0.07914634
0003d0 b6 74 c1 bd 27 bd 03 be 30 42 79 bd fe 69 b4 bd
       -0.09446089 -0.12865125 -0.060854137 -0.08809279
0003e0 c0 d3 3c bd 1d 65 4f 3b 92 6b 13 bd d4 b5 0f be
       -0.046100378 0.0031645962 -0.03599126 -0.14034206
0003f0 01 e5 29 be 59 44 64 be 02 1c 4c bd fe 93 0e be
       -0.16591264 -0.22291698 -0.049831398 -0.13923642

fc2.bias f4 [64]
000000 a5 38 31 bf 5f 67 05 be 9b b3 fc be 92 38 19 be
       -0.6922706 -0.13027714 -0.49355778 -0.14962986
000010 ad 53 8f be 29 fd 4c bd d2 83 81 bf 35 52 70 bf
       -0.27993527 -0.05004612 -1.0118353 -0.9387544
000020 51 a1 ae be 63 db 8f 3f f7 b7 11 be cc 6f 44 be
       -0.3410745 1.1238827 -0.14230333 -0.19183272
000030 55 f9 51 be 51 f6 29 be 30 02 25 bf 6a a7 23 be
       -0.20505269 -0.16597869 -0.6445646 -0.15981832
000040 f4 79 c7 bd 8d cc 0b be ae 9b 49 be 6a 26 96 be
       -0.097400576 -0.13652249 -0.19688293 -0.29326183
000050 f8 ce f6 3e 1a 87 a1 3e 68 39 35 be de ad d7 3f
       0.4820478 0.31548387 -0.1769768 1.6849935
000060 32 2f 37 bd 55 1c cb be 74 1e 94 bd 49 f3 8b be
       -0.044722743 -0.39670053 -0.07232371 -0.2733405
000070 b5 4d 4e be 05 1d d3 be 2c 9e 87 be 15 3d 27 be
       -0.2014683 -0.41233078 -0.26487863 -0.16331895
000080 17 46 01 bf 03 91 4d be 46 1f 01 bc 0f 12 ba bd
       -0.50497574 -0.20074849 -0.007880991 -0.09085476
000090 d5 9f a5 be 99 ea b5 be 08 ac 10 be 03 64 27 c0
       -0.32348505 -0.35530546 -0.14128125 -2.6154792
0000a0 cd 24 65 be 19 46 1b be 06 58 a2 be a4 a5 29 bf
       -0.2237732 -0.15163459 -0.31707782 -0.6626837
0000b0 2e 1d 5d 3f 86 79 6f be fe 0a f6 bd de 44 4c bf
       0.8637265 -0.23386201 -0.12013815 -0.79792583
0000c0 88 f5 c9 be 2c 72 cd be 5f ef f7 bd 56 08 48 be
       -0.39445138 -0.4012617 -0.12106203 -0.1953443
0000d0 18 b8 aa be 12 f8 26 bf 7f d7 4f be 6c 5b b4 be
       -0.33343577 -0.65222275 -0.20297049 -0.35226
0000e0 f0 e1 50 be 5f 52 33 bc ba dd d9 bd 16 67 e2 bd
       -0.20398688 -0.010944932 -0.10637994 -0.11054818
0000f0 71 f8 9d be f5 ee 12 bf d2 d5 ed bc 2e f9 7a 3e
       -0.30853608 -0.5739587 -0.029032622 0.24509117

fc3.weight f4 [32, 64]
000000 de dc a8 bc e5 22 7c 3d 2d 40 ed 3d 6a 2e 10 be
       -0.02061313 0.061556716 0.11584506 -0.14080206
000010 1f 70 8b be 99 15 d6 3c 52 88 c2 bc 55 07 28 bf
       -0.2723398 0.026133345 -0.023746643 -0.6563619
000020 e7 73 ff be 50 29 00 40 d2 44 d0 3d d8 56 50 3e
       -0.49893114 2.0025215 0.101693764 0.20345628
000030 2c 43 78 be e7 d3 88 bd 7f 2d 88 40 97 f8 8c bc
       -0.24244374 -0.06681042 4.2555537 -0.01720838
000040 c2 fa 81 3e 90 b8 96 3b 17 36 93 be 37 9c 83 be
       0.25386626 0.0045996383 -0.28752205 -0.2570512
000050 5a f1 04 40 06 ed 54 bf 55 fa ad 3d 9f 49 3c bf
       2.077231 -0.8317417 0.08495013 -0.73549837
000060 1d 20 3d bd 98 b3 5a bb 3e b0 8a 3d 57 e7 03 bf
       -0.046173204 -0.0033371206 0.06771897 -0.5152487
000070 19 a6 d6 bc 94 e3 5a 3d 9a d0 86 bc 1b f9 11 bd
       -0.026202248 0.05343969 -0.01645689 -0.035637956
000080 bb 5e 12 be a2 dd 5f be d6 eb 00 3c 52 ec 94 be
       -0.1429395 -0.2186189 0.007868728 -0.29086548
000090 10 a7 44 3e d6 11 f0 bd 73 94 f3 3d aa df d4 3e
       0.19204354 -0.11722152 0.11893549 0.41576892
0000a0 e2 e9 69 bd db 6a d9 bc 25 3a a8 3d 57 63 1a 3f
       -0.057107814 -0.02654021 0.08214215 0.6030783
0000b0 62 f7 28 40 bd 04 40 be 5a e9 7f bd cf 09 8a 3f
       2.640099 -0.18751808 -0.0624784 1.0784243
0000c0 48 ce 4f bd c4 75 98 bd 73 04 0c be 24 17 96 bc
       -0.050733835 -0.07444337 -0.13673572 -0.018321581
0000d0 dc 8f bf 3d 99 21 06 3f b5 ef c2 bd 3c c5 63 bd
       0.09353611 0.52395016 -0.09518377 -0.05560802
0000e0 7d e0 55 bd 79 a7 54 3f ec 72 06 c0 da da 16 3d
       -0.05221604 0.83068043 -2.1007643 0.036829807
0000f0 07 f1 2a be 3a 59 3d bf c6 a4 c6 3e da 45 9c 3e
       -0.16693507 -0.73964274 0.38797587 0.30522043
000100 28 c2 d7 be 58 e3 db 3c 1a d9 f6 3d da 8a f0 bd
       -0.42140317 0.026841804 0.120531276 -0.11745234
000110 b7 9e 47 bd 5e 1f 79 bd dc 63 79 3d 14 42 36 3e
       -0.048735347 -0.06082093 0.06088625 0.17798644
000120 89 81 3a 3f 1b 36 a7 3f 0c a4 f6 bd 4f b6 e5 bc
       0.72853905 1.3063387 -0.12043008 -0.028041033
000130 6a 0f 77 3e 26 5e 33 3d 1e ba 0b 3f 70 1a 8b bc
       0.24126974 0.04379096 0.5458087 -0.01698038
000140 b9 ac a4 3d f9 9a 9c bd 87 55 3a be cd ef 5e 3e
       0.08040757 -0.07646746 -0.18196689 0.21771164
000150 78 38 d1 3f d8 43 32 bf a1 6e 8b bd ac 0b f0 3e
       1.6345358 -0.6963477 -0.0680821 0.46883905
000160 69 4f 0d bc 8f 5f 56 bd 33 48 bd bc 20 f5 0b bf
       -0.00862489 -0.052337226 -0.023105716 -0.54670906
000170 09 f9 6b bd 84 50 8e 3e cc 45 fd bd 9d 5f fc bd
       -0.057610545 0.27795804 -0.12366828 -0.12322924
000180 94 5d 25 be 29 14 fb bd 0e 61 72 bf 90 8b 9b be
       -0.16148978 -0.122597046 -0.94679344 -0.30379915
000190 5c 26 72 3e 76 e7 3f be 61 f9 05 3e f2 a3 eb be
       0.23647445 -0.18740639 0.13083412 -0.46023518
0001a0 5a 10 06 be 03 71 20 3e a2 e5 ec bc 31 bb 07 bf
       -0.13092175 0.1566811 -0.028918091 -0.53020006
0001b0 fd 65 0b 40 e7 47 5e bd 73 8b de 3c a7 b4 08 40
       2.1780999 -0.05426779 0.027166104 2.1360261
0001c0 58 80 ac 3d 69 75 09 bc 6f 42 d6 bc 5a 92 b5 3c
       0.08422917 -0.008389809 -0.026154725 0.022164512
0001d0 e0 8b 8d bc b4 05 6d bf e9 14 2f be bf 94 ea 3b
       -0.017278612 -0.9258683 -0.1709782 0.007158845
0001e0 70 a8 74 3e 87 c9 ab 3f 87 cb 29 bf 8d 22 74 bd
       0.23892379 1.3420876 -0.66326183 -0.059603263
0001f0 16 21 41 bf e6 a2 fa 3f 7c e2 83 3f ee f0 89 bf
       -0.7544111 1.9580963 1.0303493 -1.0776651
000200 47 ba 5e bf 2e 27 d0 bd f7 39 0a be 66 2e ff 3d
       -0.87002987 -0.10163723 -0.13498674 0.12460022
000210 d6 1e 23 be a6 da 40 3c a8 cd 25 be ec 23 b1 3e
       -0.15929732 0.01177088 -0.16191733 0.3459772
000220 3b 67 3a 3f 9d 7e 94 3f 9b 9f 80 bd f1 e0 7e 3e
       0.7281377 1.1601139 -0.06280442 0.24890496
000230 0b bd b9 bd af 44 39 3c 29 30 c2 bd 19 ab da bd
       -0.0906926 0.011307879 -0.09481842 -0.106771655
000240 14 88 24 bf 7a 00 00 3e 99 23 d0 bd e1 58 b9 3e
       -0.6427014 0.12500182 -0.1016304 0.36200622
000250 cc 4d a2 bf 66 73 10 bf de 6b 61 3d 15 b6 d1 bf
       -1.2679992 -0.56426084 0.05503451 -1.6383692
000260 0a 44 c8 3c 78 4c aa 3d 1a 6b 42 bd 1f c0 3d bf
       0.024446506 0.083153665 -0.04746542 -0.7412128
000270 9e 2a c2 bc cf 0f 1f 3d 8b dd e4 3d 0c da 88 be
       -0.023701962 0.038833436 0.111750685 -0.26728857
000280 45 af 23 3e 5f f6 02 3e 4d 0c 02 bf 87 7d 1b 3d
       0.15984829 0.12789296 -0.5080002 0.03796151
000290 53 e2 23 be c4 4b 83 bd 27 13 1c bf ee 92 47 be
       -0.16004305 -0.064109355 -0.60966724 -0.19489643
0002a0 ff b2 87 3d 0e fd 3b be a3 08 79 3d 09 af 82 be
       0.06625938 -0.18358251 0.060799252 -0.25524166
0002b0 69 8e 82 bf 50 9a 13 3e 63 fa b7 bd e6 30 79 3f
       -1.019971 0.14414334 -0.08983304 0.9734024
0002c0 ef 16 2d be d3 dd 1b 3d 3b 6e 0a 3e a3 eb 83 bd
       -0.1690328 0.038053345 0.13518612 -0.064414285
0002d0 61 e6 02 3d f2 cf 7a 3f 83 f1 0b 3e 0c a1 38 3f
       0.031957988 0.9797355 0.13666348 0.7212074
0002e0 fe 63 46 be 2c 96 35 bf 33 19 1d bf 9a 61 d1 3c
       -0.19374081 -0.7093227 -0.61366576 0.025559235
0002f0 ae 1f 48 bf 04 fe 26 3d 76 1f ab 3f 0f 34 54 3e
       -0.7817334 0.040769592 1.3368976 0.20722984
000300 83 c8 2d bf 84 a7 dc 3c 5f 87 46 bb 20 cf 3f 3d
       -0.6788408 0.026935346 -0.003029309 0.04682839
000310 4d a3 24 bd 03 06 33 be be 0b ba bd e2 b1 86 3f
       -0.0401948 -0.17482762 -0.09084271 1.0523036
000320 24 54 55 bf 82 25 e8 3e 73 d3 ce bd b7 5d a7 be
       -0.83331513 0.45341116 -0.100989245 -0.32688686
000330 fc cf 12 3e bf a8 2f be d6 00 f3 be b6 2c 76 3d
       0.14337152 -0.17154215 -0.47461575 0.060101233
000340 ea 92 91 3d 80 d6 77 be 99 ac 2b be 79 ab b5 be
       0.071081 -0.24202919 -0.1676506 -0.35482386
000350 0c a0 8f 3f 83 fd 19 bd e7 7e 4e 3e ba 77 ad be
       1.1220717 -0.037595283 0.20165597 -0.33880407
000360 09 3b 8d 3c 52 a2 44 3e 62 3e d0 3e c1 87 e4 3e
       0.017240064 0.19202545 0.40672594 0.44634822
000370 cd d8 1c 3e 1f 48 aa bd e1 6c cc bd 3e 19 be 3e
       0.15317078 -0.08314537 -0.099817045 0.37128633
000380 3e 74 34 bd c3 eb 5c be 55 29 3a be d4 fc 8b bf
       -0.04405617 -0.21574311 -0.1817983 -1.0936532
000390 f3 50 a2 be 4a d8 9c 3d 5c be 26 3f bd 85 b5 3e
       -0.31702384 0.07658441 0.65134215 0.35453597
0003a0 56 b7 5f 3e b8 e3 2a be 80 e2 f3 3d c7 65 90 3f
       0.21847281 -0.1668843 0.11908436 1.128106
0003b0 e1 d8 36 3f a3 57 17 3c 26 22 39 3e 3d 4e 8e 3e
       0.7142468 0.009237203 0.18079433 0.27794066
0003c0 f0 58 06 3e c7 9d ac bd de b4 d9 3d 24 8a 19 bc
       0.13119864 -0.08428531 0.10630201 -0.009371314
0003d0 fb 05 33 3e a2 e8 84 be a1 bd 77 3d 25 bf e0 be
       0.1748275 -0.25958735 0.06048358 -0.43895832
0003e0 fc b9 8c 3d 7d a1 2c bf 51 0a 3b 3e 45 16 46 3e
       0.06871411 -0.6743391 0.18265654 0.19344433
0003f0 b1 a2 e6 3e 76 07 bd 3e 26 56 0a 3f b1 54 00 3f
       0.45046 0.36919755 0.540377 0.5012923

fc3.bias f4 [32]
000000 ba 6e 08 bf 3a e0 96 3f 12 2d 01 40 1e ca 82 bf
       -0.53293955 1.1787179 2.0183759 -1.0217931
000010 81 d9 05 bf 0b 19 af bf d6 91 df 3c b0 50 52 bf
       -0.5228501 -1.3679518 0.02729122 -0.8215437
000020 36 11 76 3f f1 cd 9f be 9c 5e 2f bf 09 2e 88 3f
       0.9612001 -0.31211808 -0.6850374 1.0639049
000030 7d 17 9c be df 28 c8 3e 31 0f 8e be 51 fe 5e 40
       -0.3048667 0.39093682 -0.27745965 3.4842722
000040 da 71 e2 3e dc f4 64 3e a6 3b 8b bf 75 2d 6f bf
       0.44227487 0.22359031 -1.0877578 -0.93428737
000050 e4 c0 2d bf a2 dc c3 be d9 34 29 3f 5b f0 71 40
       -0.6787245 -0.38254267 0.66096264 3.7802951
000060 61 bb 6b bf 0c 9a 05 bf 5e 40 9e be 92 ad a0 40
       -0.9208279 -0.5218818 -0.30908483 5.021188
000070 9e 9d 93 bf 9d 71 b6 bf c8 47 15 c0 78 aa 5e c0
       -1.1532476 -1.4253422 -2.3325062 -3.4791546

in_fn.weight f4 [33]
000000 50 e3 d7 3f 17 8d 13 3f 24 22 53 3e 2a 85 a8 3e
       1.6866245 0.5763716 0.20618492 0.32914096
000010 83 50 8e 3c 14 1c f7 3d 76 1a 8b 3e 46 1a 62 be
       0.017372375 0.12065902 0.27168626 -0.22080335
000020 8c 9b c8 3e be 87 ba 3e 36 41 98 3d da 20 48 be
       0.39181173 0.36431688 0.07434313 -0.19543782
000030 6f 4d c6 be cf 53 21 be 81 db cf 3e 82 ef 37 3e
       -0.38730952 -0.15754627 0.40597156 0.17962459
000040 24 49 09 3f ec 2c 03 3e 96 48 c3 be fe 15 35 bd
       0.5362723 0.12810105 -0.38141316 -0.044210427
000050 87 9e 94 3e bc c0 99 be 53 fb 37 be fc 5e 8c 3e
       0.29027197 -0.30029857 -0.17966966 0.27416217
000060 d5 70 4f 3f 88 cd 73 be 55 34 d2 3e 49 c1 2b 3e
       0.81031543 -0.23808873 0.4105555 0.16772951
000070 c7 8e 68 3f 79 68 cc 3d 07 8c 2e 3f 9e 25 04 3f
       0.9084286 0.09980864 0.68182415 0.516199
000080 f6 d9 8c 3f
       1.1004016

in_fn.bias f4 [33]
000000 63 db 60 3e 65 1e b8 3e a3 ab e0 3d ec 68 f2 3d
       0.2195869 0.3596069 0.10970237 0.118364185
000010 4c 3a 31 bd e3 df 71 3c 0f 91 60 be 1c 9c 9c 3d
       -0.043268487 0.014762851 -0.21930335 0.07646963
000020 69 bd 8e bc 2a db a9 3a 24 b5 e3 bc f1 31 c3 3d
       -0.017424302 0.0012958993 -0.027796336 0.0953101
000030 e7 a8 e1 3c 46 36 2a 3d 21 4c 0e 3d 5b 1a de 3c
       0.02754636 0.041555665 0.03474057 0.027112177
000040 79 04 b6 3d d5 d9 01 3e 97 be c1 3d 58 29 a5 bc
       0.08887572 0.12680753 0.0946018 -0.020161316
000050 95 65 be 3d 33 43 97 3e 01 ef 9a bc 65 63 2a 3c
       0.09296719 0.29543456 -0.018912794 0.010399674
000060 0d 6b 0a 3f 37 bc c8 bc d8 4e 26 3e 74 ae 0d 3e
       0.54069597 -0.02450381 0.16241014 0.1383608
000070 b8 d5 0a 3f e3 15 f1 3d 8d c4 92 3e cf 6e a2 3e
       0.5423236 0.11771753 0.2866558 0.31725165
000080 f2 c3 ab 3e
       0.33547932

in_fn.running_mean f4 [33]
000000 3e 9a 0f 40 75 f5 7b 3c 61 c4 37 3c 15 02 7e 3c
       2.2437892 0.015378346 0.011216254 0.015503426
000010 56 38 de 3a a7 a0 30 3b 95 c1 14 3b f7 9e 2e 3b
       0.0016954045 0.0026951225 0.0022698392 0.0026645043
000020 aa bf 6c 3c 60 c6 9a 3b 2a a9 f2 3a 7c 4d 44 3b
       0.014449993 0.004723355 0.001851355 0.002995341
000030 12 3d 1e 3d c7 25 9b 3b fe ab 3d 3c f3 47 8d 3b
       0.03863246 0.004734728 0.011576651 0.0043115555
000040 1d 42 a2 3d bd be a0 3b f1 7c 0a 3c d7 13 a7 3a
       0.07922766 0.0049055503 0.00845264 0.0012747002
000050 0b 20 8a 3b 72 d0 42 3b 84 a1 ba 3b df 3e c2 3b
       0.0042152456 0.0029726294 0.0056955237 0.005927905
000060 cd 38 37 3e f0 1d a3 3b d0 16 08 3d e8 3c f9 3c
       0.17892762 0.004977934 0.03322488 0.03042455
000070 cc f7 a3 3e 84 f7 33 3c 58 3a 1d 3d 5d 5d 86 3c
       0.32024992 0.010984305 0.03838572 0.016401941
000080 03 d2 f3 3d
       0.11905291

in_fn.running_var f4 [33]
000000 55 50 de 40 bd bb 74 3c 2e be 35 3c a6 57 79 3c
       6.947306 0.014937338 0.011092706 0.015218651
000010 75 bb dd 3a 82 30 30 3b be 4a 14 3b be 2e 2e 3b
       0.0016916828 0.0026884382 0.0022627558 0.0026578153
000020 aa 07 68 3c 87 cf 99 3b 64 4b f2 3a f3 8e 43 3b
       0.0141619835 0.0046939286 0.0018485603 0.0029839843
000030 fb 1e 17 3d 2a 6a 9a 3b 2f 17 3b 3c 0e bf 8c 3b
       0.03689478 0.004712363 0.011419102 0.0042952364
000040 e1 b4 94 3d e2 04 a0 3b 88 01 09 3c 24 d0 a6 3a
       0.072610624 0.0048833946 0.0083621815 0.0012726826
000050 d6 94 89 3b e4 55 42 3b 3f a0 b9 3b 06 27 c1 3b
       0.004198651 0.0029653246 0.005664855 0.0058945445
000060 86 78 12 3e 79 cf a1 3b 31 93 03 3d 4c 3e f0 3c
       0.14303789 0.0049380627 0.032122795 0.02932658
000070 16 54 52 3e a0 75 30 3c 4b ee 12 3d 24 aa 81 3c
       0.20539889 0.0107702315 0.035871785 0.0158282
000080 ad e4 d5 3d
       0.10444007

fc1.weight f4 [64, 33]
000000 67 ae 8d be c6 67 c7 be 84 a5 99 bf 84 89 8b be
       -0.2767212 -0.3894636 -1.2003636 -0.27253354
000010 c6 78 4e be f2 8e 90 be d8 51 e9 3e 2a 6b 59 bf
       -0.20163259 -0.2823406 0.45570254 -0.84929144
000020 1b 33 e0 3c 7a 93 0b bf d8 10 84 bc 56 0a 17 bf
       0.027368119 -0.54521906 -0.016121313 -0.59000146
000030 2b 85 26 3e e1 59 c4 bb 77 f6 9a 3e fc 01 84 3e
       0.16261737 -0.0059921597 0.30266163 0.25782764
000040 4e 7b d1 3d 73 fd 28 bf 97 30 52 be 86 ef bd 3e
       0.10228597 -0.6601173 -0.20526348 0.37096804
000050 46 13 b6 3e df 97 8e be 62 e4 b7 3e 9d 62 c2 3c
       0.3556158 -0.27850243 0.3591643 0.023728663
000060 3c ed 82 be a7 12 53 3e b0 3e ae 3b 04 13 a4 3c
       -0.2557162 0.20612584 0.0053175315 0.020028599
000070 da 2b b1 be 17 49 68 3d 8e 60 e8 bd 44 b2 d3 be
       -0.3460377 0.05671033 -0.11346541 -0.41346943
000080 59 44 b8 3e c1 7b 77 bd e7 f0 c5 be 86 36 0e bf
       0.35989645 -0.060420755 -0.38660356 -0.55551946
000090 94 3a 93 be 22 6b 94 be 7d 2f 93 be 04 4b ac 3e
       -0.2875563 -0.28987986 -0.28747168 0.33650982
0000a0 65 24 0c bf 2f 95 4e 3f f7 e9 fd 3c ca 0d c3 3e
       -0.54743034 0.80696386 0.030995352 0.38096458
0000b0 9b 02 f5 be 12 ba e1 bd 3f cb 67 3b 8e 2f 33 3e
       -0.4785355 -0.11021818 0.0035368947 0.1749861
0000c0 83 8e 3c 3e 75 70 88 3e bb 49 5a be 6b e9 b1 be
       0.18413739 0.26648298 -0.21317188 -0.34748396
0000d0 43 5d 11 be 2f b0 e6 3d 80 42 bd be 5b 47 34 3e
       -0.14195733 0.11264073 -0.36964798 0.17605345
0000e0 c6 b8 4c bd 00 86 67 3d 32 9f d0 3c 24 a8 b5 be
       -0.0499809 0.056524277 0.025466535 -0.35479844
0000f0 c1 78 bb be 74 3c 59 be c6 f6 09 3c e4 c8 af 3e
       -0.36615565 -0.21214467 0.008420652 0.34332955
000100 b1 8d ac bd 14 6e 1e 3e 73 83 5b bf 62 42 f2 be
       -0.08425463 0.15471679 -0.8574745 -0.4731627
000110 11 b5 95 bf 57 1b a3 bf a6 7a 46 3e 11 92 5e bf
       -1.1695882 -1.2742718 0.19382724 -0.8694163
000120 b6 0c 21 3f 42 8f 37 bf 08 9a cf 3c 90 70 14 3d
       0.6291002 -0.7170297 0.025342003 0.03624016
000130 24 ae e6 3d 8a 9a a0 bf b5 fb 81 be e5 87 3c 3f
       0.112636834 -1.2547162 -0.2538735 0.7364486
000140 94 3f aa 3e 46 7c 5d 3e 7c fc cc bd 9a fe ad bf
       0.3325163 0.21629438 -0.10009095 -1.3593323
000150 93 3b 89 be 11 cb 02 3f 57 cd e0 3d 8e a7 a3 be
       -0.26803264 0.51091105 0.109766655 -0.31963772
000160 30 01 9c 3e 88 c3 e8 3d 3c 60 09 3e f7 f2 8f bd
       0.30469656 0.113654196 0.13415617 -0.07028764
000170 d1 20 08 bf 92 39 3c 3e 26 cf 4f bf 75 14 18 be
       -0.53175074 0.18381336 -0.8117546 -0.14851554
000180 9b f0 c6 3d 40 c8 21 bc 0d d3 02 3f c6 b6 02 c0
       0.097138606 -0.0098744035 0.5110329 -2.0424056
000190 f4 41 d5 be 00 b0 16 3d c2 72 bc be 46 a2 ac 3d
       -0.4165188 0.03678894 -0.36806303 0.08429389
0001a0 60 41 cd 3b ab d6 75 3e 08 88 70 bd bf 71 7c 3d
       0.006263897 0.2400767 -0.05872348 0.061631914
0001b0 dd c7 01 bf 64 ce 25 bc b9 49 4b be c8 0e 82 bd
       -0.5069559 -0.010120008 -0.19852342 -0.063504755
0001c0 7e 4e 0c 3e 94 75 3d be 5c f4 2f be 7b 31 94 bc
       0.13701817 -0.18501884 -0.1718306 -0.01809
0001d0 5e 55 2a bc 12 7f 05 be 3e 71 6f 3e d6 2e b1 3c
       -0.01039633 -0.13036755 0.23383042 0.021628778
0001e0 79 57 f7 bc cc f1 9f bd 23 f5 c1 bc 94 5b 41 3d
       -0.030193077 -0.07809791 -0.02367646 0.047206476
0001f0 45 ce 82 3d 18 57 97 bd 4c 74 55 be 94 46 29 3e
       0.06386999 -0.07389659 -0.20845145 0.1653083
000200 c7 2c 90 bd 78 35 16 bf ff 89 05 bf 1a e5 e5 3f
       -0.070397906 -0.58675337 -0.5216369 1.7960541
000210 17 ce 3f bf 16 c5 9a be c1 a3 3e bf 23 09 77 be
       -0.74923843 -0.3022849 -0.7446862 -0.24124579
000220 ff d3 f3 bd f2 8f ca 3d d7 ca 4a 3f f5 1a 9b 3d
       -0.119056694 0.09890737 0.7921576 0.07573501
000230 12 3d fd 3e 6d cf 1d be cf 07 ef 3d 8e 76 a5 bc
       0.49460655 -0.15411158 0.11671411 -0.020198133
000240 c4 2e 67 bf 03 4b 7d bc 1b 6e 99 3d 15 d8 81 3e
       -0.90305734 -0.015459779 0.07491704 0.2536017
000250 b0 9f 3e 3e a8 0f 7c bf ea 26 02 be 14 c2 82 3e
       0.18615603 -0.9846139 -0.12710157 0.25538695
000260 cf c6 80 3d dd 84 7c be 13 f6 79 be e7 34 7f bd
       0.0628792 -0.24660058 -0.24410276 -0.06230631
000270 d3 f0 0e bf c8 1b 25 3e 13 74 b3 bd 6c a2 33 bf
       -0.5583622 0.16123879 -0.08762374 -0.7016971
000280 15 44 c4 3d c3 ae 30 bb c4 20 92 be d7 e0 d5 be
       0.09583298 -0.0026959635 -0.28540623 -0.41773102
000290 5c 4e 89 3e 8f 1b 68 be 30 6d b8 3e d0 5f 3d bf
       0.26817596 -0.22666763 0.36020803 -0.73974323
0002a0 bd eb 07 3e 79 53 37 be c2 55 5f bc 65 ed 0a 3f
       0.13273521 -0.17902936 -0.013631286 0.54268485
0002b0 65 44 86 be 7b 0d 5b 3f 07 94 f4 be e2 f4 0e be
       -0.26224056 0.85567445 -0.47769186 -0.13960603
0002c0 ab f9 3a be 53 13 d5 be f2 78 8f bd 97 c7 e5 bc
       -0.18259303 -0.41616306 -0.0700549 -0.028049273
0002d0 59 5d 82 3e 6d c2 bd 3e cd a2 ca be 4a 19 b5 3d
       0.25461844 0.37062398 -0.39577332 0.08842714
0002e0 1a a2 f4 3e 4e c7 2d 3e 60 f1 ba be ae f2 11 3e
       0.47779924 0.1697056 -0.3651228 0.14252731
0002f0 03 ff 33 3e 60 01 cf bd ac 78 f7 bd 72 f0 51 be
       0.17577748 -0.10107684 -0.12083563 -0.20501879
000300 ec 9d 21 be b4 fc 14 bf 45 6e 61 be bb 9c 7e bf
       -0.15782899 -0.58198094 -0.2201472 -0.994579
000310 39 11 6d bf 8a f6 d0 3e cd ed d6 bc 20 11 11 3e
       -0.92604405 0.40813094 -0.02623644 0.14166689
000320 24 33 9d be 3a 99 08 bf e1 08 2c be cb de 47 3d
       -0.3070308 -0.53358805 -0.16800262 0.048796456
000330 d5 8c 8b 3e 6e fe 04 be 56 09 61 3e 72 e3 a5 bd
       0.27255884 -0.12987682 0.21976218 -0.081000224
000340 07 35 12 be 9d 68 2f bd a4 9b c4 3d 16 cd 3b be
       -0.14278041 -0.042824376 0.095999986 -0.18339953
000350 5e 6d 3f 3e b1 ed 35 3d cb c6 80 3e e1 46 84 bf
       0.18694064 0.044416133 0.25151667 -1.033413
000360 53 f3 2d 3d 47 1d 4d be 59 c6 3c ba 9c 8c be bd
       0.04246838 -0.200307 -0.0007201187 -0.09304163
000370 09 89 1c 3e 9c 94 11 3e 12 81 79 3d 43 61 f9 bc
       0.1528665 0.14216846 0.060914107 -0.030441886
000380 53 c4 a0 bd cb e2 c9 3d 8b 66 2b bb 97 92 32 3e
       -0.07849946 0.098577105 -0.002615365 0.17438732
000390 fa 2b 00 3e 88 94 ae 3d dc e7 34 3e 93 f0 86 3d
       0.12516776 0.08524424 0.17666572 0.06588855
0003a0 d8 ea 34 bd 02 50 b6 be 07 e8 9b be 15 2a 14 be
       -0.044169277 -0.35607916 -0.3045046 -0.14469178
0003b0 8a df dd be a0 d3 6e 3e 77 e6 53 bd 17 52 cf bd
       -0.4333461 0.23322916 -0.05173346 -0.10123079
0003c0 70 cf f6 bc 64 b6 e7 3d 67 07 c0 bc 05 c0 16 3e
       -0.03012821 0.11314085 -0.02344103 0.14721687
0003d0 12 ea c6 3e aa fd 6c 3e dd d7 83 3e 1c d7 11 be
       0.38850456 0.2314364 0.25750628 -0.14242214
0003e0 3a f5 9c be e1 ae b5 3c 95 47 f5 3d 79 11 be bd
       -0.30655843 0.022178115 0.11976544 -0.092806764
0003f0 9f 9c 22 be 87 31 64 3e c0 db ad bd 1d 59 16 be
       -0.15880059 0.22284518 -0.084891796 -0.14682432

fc1.bias f4 [64]
000000 85 6f ce bf 6a 5a a6 bf fd 49 ba bf 7e 15 6b bf
       -1.6127783 -1.2996342 -1.455383 -0.9182967
000010 69 d0 8f bf 4a c3 d7 bf 97 96 9f bf 59 16 f5 bf
       -1.1235477 -1.6856472 -1.2467831 -1.9147445
000020 fd 22 ce bf 45 fb 34 bf 22 a7 e3 bf 45 b8 f8 bf
       -1.6104428 -0.70695907 -1.778538 -1.9431235
000030 be f6 c5 bf 47 21 0a c0 6c 96 e7 bf e9 2f 50 bf
       -1.5465925 -2.158281 -1.809278 -0.81323105
000040 b0 2c ed bf a1 ca 88 bf 46 be 75 bf 15 0c 15 3f
       -1.8529263 -1.0686837 -0.9599346 0.5822156
000050 47 ae dd bf c2 54 b9 bf 95 0b df be 33 49 6b be
       -1.731881 -1.4478991 -0.43563524 -0.22977142
000060 47 ac 1b c0 9e 8c 98 bf d7 ae 88 bf dc 80 c0 bf
       -2.43239 -1.1917913 -1.0678357 -1.5039325
000070 05 19 2d c0 d2 e7 7f be e6 c0 d2 bf 79 21 8c bf
       -2.704652 -0.24990776 -1.6465118 -1.0947715
000080 af f7 87 bf f9 37 aa bf 53 99 f3 bf a3 b1 26 bf
       -1.0622462 -1.3298331 -1.9031166 -0.651148
000090 6f ad 9b bf 6d 73 60 bf 9b 2e 04 3e 0f 7e b9 bf
       -1.2162303 -0.87676126 0.12908404 -1.4491595
0000a0 c9 5f c2 bf cf bc e5 bf 7a 2b 09 c0 ba 3d 18 c0
       -1.5185481 -1.7948245 -2.1432786 -2.3787675
0000b0 7c 2d 23 be 7f 55 21 c0 1d 17 07 bf ab fc 80 bf
       -0.1593532 -2.5208433 -0.52769643 -1.0077108
0000c0 c7 ca 9f bf 82 27 00 c0 ef 1f fd be 5c f2 82 bf
       -1.2483758 -2.0024114 -0.49438426 -1.0230212
0000d0 14 99 df bf a8 58 16 c0 37 6b 54 bf 37 f9 d7 bf
       -1.7468591 -2.3491611 -0.82976097 -1.6872929
0000e0 f1 92 1b c0 6a 4e 96 bf 3f 36 9a be 1e 3c 07 bf
       -2.4308436 -1.174268 -0.3011951 -0.52826107
0000f0 0b 22 06 c0 4a fc ea bf 0f ec 93 bf 1f 93 94 bf
       -2.0958278 -1.8358243 -1.1556414 -1.1607398

fc2.weight f4 [64, 64]
000000 e1 01 0e 3d b9 0f df bd 03 54 0e be 78 0b 74 be
       0.03466976 -0.10891671 -0.13899235 -0.238325
000010 62 2d dd ba 9c 96 51 be c3 5e 36 be 0f 13 04 be
       -0.0016874487 -0.20467609 -0.17809586 -0.12897895
000020 24 96 bc bd ac 60 b4 bc 1b 30 b9 be fa 93 8a be
       -0.092083246 -0.022018753 -0.36169514 -0.27066022
000030 3e cc b8 bd 83 ae 23 be 35 ce 72 bd 81 76 9f be
       -0.09023331 -0.1598454 -0.059278686 -0.311451
000040 af 7a fa 3c 90 0b 04 3d 04 56 09 bd 6b 31 26 be
       0.030576078 0.03223759 -0.033529297 -0.16229789
000050 81 b7 92 3d 60 49 3e be 0e 2f 89 bd 11 33 23 be
       0.07163907 -0.18582678 -0.06698428 -0.15937449
000060 92 c9 cb bd bd d3 54 bd c7 41 10 bd 7e 11 bb be
       -0.09950556 -0.05195974 -0.03521898 -0.36536783
000070 2f b5 ff 3c ab 55 71 be d4 f1 34 bd 91 2e ba bd
       0.031214325 -0.23567836 -0.044175938 -0.09090913
000080 2b 57 02 be fe 8c 42 3d 86 4c 0e bd ef 94 53 3d
       -0.12728564 0.047497742 -0.034740947 0.051655706
000090 24 a5 97 bd 2f 89 2b bb 78 60 07 be 23 10 9c be
       -0.07404545 -0.0026174297 -0.13220394 -0.3048106
0000a0 35 de 5d be 73 10 2c bc ab 3b d3 bc b5 75 cb 3c
       -0.21666797 -0.010501969 -0.025785288 0.0248364
0000b0 80 98 8a be 40 c7 45 bd fc 26 6d 3d 01 07 5e 3c
       -0.27069473 -0.048285723 0.057898507 0.013551475
0000c0 01 0c 1d be 00 2c 2b 3d 36 25 aa be 76 64 51 be
       -0.1533661 0.04179001 -0.33231515 -0.20448479
0000d0 01 c0 f4 bd 26 d1 81 3a aa a9 82 bd 62 e8 5c be
       -0.11950684 0.000990425 -0.06380017 -0.21573022
0000e0 64 26 88 bc ac 3c aa bd 90 89 0c bc 26 3b 07 bf
       -0.016619869 -0.083123535 -0.008577719 -0.5282463
0000f0 eb 38 47 3c fb e9 05 be 40 d9 a8 3c db 8b 92 bc
       0.012159566 -0.13077538 0.020611405 -0.017888954
000100 85 9f 06 be 84 1d 8a be 11 52 58 be ef 2f d5 be
       -0.1314679 -0.26975644 -0.21125056 -0.41638133
000110 5a 22 1d bc 5e 69 d0 be 8b a3 9a bc e0 3f 6f be
       -0.00959071 -0.4070539 -0.018876811 -0.2336421
000120 77 89 1a be 0a 7f 1a be 43 91 a6 bd c3 3d ab bd
       -0.15091501 -0.15087524 -0.08133175 -0.083613895
000130 17 d7 cd bc ba 93 01 bf f6 b1 ab be 19 ae dd 3d
       -0.025126977 -0.5061604 -0.3353421 0.10824222
000140 3b de 58 be 0e 43 0b bd 62 cf 5c be 32 38 6e be
       -0.21178524 -0.033999495 -0.21563485 -0.23263624
000150 e4 e8 1c be 5f 60 0a be 96 98 d6 be ac b5 2c bd
       -0.15323216 -0.13513325 -0.4191329 -0.042165443
000160 9a 45 21 bf 10 09 bb bd 82 e9 55 be e2 79 2b be
       -0.6299683 -0.09132588 -0.20889857 -0.16745713
000170 fe b3 5f bd 7f 02 2b be 25 0f 4b be 78 52 35 3d
       -0.054615013 -0.16700171 -0.19829996 0.0442681
000180 0a 28 2c be 05 3c b0 be 73 75 68 be a8 65 02 bd
       -0.16812149 -0.3442079 -0.22701053 -0.03183523
000190 84 71 47 bf 5a a6 c1 be 90 99 f8 be c5 4a ca be
       -0.77907586 -0.3782223 -0.4855466 -0.3951017
0001a0 84 28 88 bd d9 a9 1a 3d bb 38 d4 bd fa 92 a0 3d
       -0.06648353 0.037759636 -0.10362383 0.078405336
0001b0 37 55 bb bd af bd 4a bc d0 1e ac be 90 36 4d bd
       -0.09147113 -0.012374326 -0.33617258 -0.050100863
0001c0 14 cf 9f be 0b f5 35 be f3 88 93 bd 1e 33 52 be
       -0.31212676 -0.17769258 -0.07203855 -0.20527312
0001d0 e4 1f 35 be 36 1f f4 bd 16 a6 ff 3b 1e e7 73 bb
       -0.17687947 -0.119200155 0.0078017814 -0.0037216614
0001e0 10 aa 4b bf 35 37 bc bd 3a c4 79 be 40 6a fc be
       -0.7955637 -0.091902174 -0.2439126 -0.49299812
0001f0 c0 3b 26 be 0c a3 b5 be e4 8e a0 3d 66 cf c7 3c
       -0.1623373 -0.35475957 0.07839754 0.024390887
000200 44 28 9c be a7 1a 39 be a2 03 a5 be dc 1c 22 be
       -0.3049947 -0.18076573 -0.32229334 -0.15831321
000210 da 29 b7 bd 87 25 09 be fa 63 43 be 21 99 a9 be
       -0.089435294 -0.13393222 -0.19081107 -0.3312464
000220 9f 9c 99 3c 1d 51 9b 3a 36 a1 dc be 66 fa 36 3d
       0.01875144 0.0011849735 -0.43091744 0.044672392
000230 18 60 24 bf 4e ee 31 bd a2 ae 2a be 92 c5 5d 3c
       -0.6420913 -0.043440156 -0.1666818 0.013535874
000240 57 8a 66 3c 2b 30 a6 be 54 4f 23 bd 87 8d 33 bc
       0.014071069 -0.32458624 -0.039870575 -0.010959036
000250 63 58 07 bf ff 9e 1d be c7 eb 94 be e5 c9 9a be
       -0.5286924 -0.15392683 -0.29086134 -0.30232158
000260 74 0a f4 be d6 82 85 be 3e 94 01 bd 1b be cd bc
       -0.47664225 -0.26076382 -0.031635515 -0.025115063
000270 46 14 3c bd b5 05 f4 bd 6a 00 b0 bd d2 53 27 be
       -0.04591777 -0.11915151 -0.08593829 -0.16340569
000280 6e 6f a4 be 6b e8 12 be 7c c9 0c 3d 7b ea 97 bd
       -0.32116264 -0.14346473 0.034371838 -0.074177705
000290 90 e1 a2 bd a2 7b 87 be 5a ca 28 bf 26 4e cb be
       -0.07953179 -0.26461512 -0.65933764 -0.3970806
0002a0 7f 0c 47 be 0a 97 07 bd 5a 4f 4b be bb 0d c4 bc
       -0.1943836 -0.033103026 -0.19854489 -0.023932328
0002b0 32 77 95 bd 98 ac b4 bd a2 37 1b be 39 b2 3e bd
       -0.07298125 -0.08821982 -0.15157941 -0.046556685
0002c0 53 7c 0b bd 8c cf d7 bd 00 09 b2 bd 1d ad 79 3b
       -0.03405411 -0.10537633 -0.08693123 0.0038097568
0002d0 ae f8 4f be 17 b5 ce bb dd 5e 65 be e8 d8 38 be
       -0.20309708 -0.0063082087 -0.22399469 -0.18051493
0002e0 d5 e0 13 bf 79 f5 26 be 23 9e d5 be b4 89 59 bf
       -0.5776494 -0.16304578 -0.4172221 -0.84975743
0002f0 8b b2 a6 3d d2 74 81 3d 43 92 7e 3d c6 9b 4a be
       0.08139523 0.0632111 0.062151205 -0.19785985
000300 1e 7f d8 bd 3d 5b b6 bd ab 48 fe bd 18 70 43 be
       -0.10571121 -0.08904121 -0.12416204 -0.19085729
000310 81 fa 84 bd ba c6 54 3d 6a 85 3a be e7 fd a5 bb
       -0.06493092 0.051947333 -0.18214956 -0.005065668
000320 cb 24 a0 bc 36 6e 58 bd 99 20 8e bd b8 16 07 be
       -0.019548794 -0.05283948 -0.06939811 -0.1319226
000330 62 ba cc bd f4 9e df bd 72 b5 e3 bd 24 e8 8d bd
       -0.09996487 -0.1091899 -0.11118592 -0.06929043
000340 77 56 7a bd 65 24 1b bd 6c df 66 3c 99 51 1c be
       -0.061117616 -0.037876505 0.014091354 -0.15265502
000350 05 df 67 be c5 59 98 3c 41 05 19 be d7 4d 48 be
       -0.22643669 0.018597493 -0.1494341 -0.19560944
000360 aa d2 30 be 81 b1 99 be 22 ac 3e be 8a c3 10 3d
       -0.17267862 -0.30018237 -0.18620351 0.03534273
000370 0d b6 c3 3d fa 3a d9 bc 3c 03 15 be ec 25 70 3d
       0.09556208 -0.02651738 -0.14552015 0.058629915
000380 b1 a4 d6 be 20 fe a0 be f6 e5 8f be bd f0 9a be
       -0.41922525 -0.31443882 -0.28105134 -0.30261794
000390 ec a8 17 be d4 e9 9d 3d c4 35 ad be 64 70 7f be
       -0.14810532 0.07710615 -0.33830082 -0.24945217
0003a0 cf 9f 0c be ae ba e8 bb f7 10 8b 3d d4 30 d8 bd
       -0.13732837 -0.007102332 0.06790345 -0.10556188
0003b0 a6 f9 37 be 40 3d 10 be 10 d5 a7 3d 68 d3 5f bd
       -0.17966327 -0.14085865 0.08194935 -0.054644972
0003c0 5b c9 f1 3b 8d ba e5 bc ff 34 3f 3d aa 57 9c be
       0.00737874 -0.028043056 0.0466814 -0.30535632
0003d0 65 ab cb bd 7a a3 12 bd 76 15 6c 3c 4d ee ad bd
       -0.099448 -0.035800435 0.014409414 -0.08492718
0003e0 da a5 d2 bd 22 79 70 3d 13 06 b2 be d8 1b 8f be
       -0.1028554 0.05870927 -0.3477026 -0.2795093
0003f0 80 a9 42 bd 46 74 ed bc 22 d7 75 bd 6e 01 b4 bd
       -0.04752493 -0.028986108 -0.06001962 -0.08789335

fc2.bias f4 [64]
000000 ad 2d 05 bf 1b ab c6 be 52 23 ac be c8 0e 8a be
       -0.5202282 -0.38802418 -0.33620697 -0.26964402
000010 3a bf 1d be 69 a8 c7 be 3a 5e 42 3f 1b f3 d6 be
       -0.15404978 -0.38995674 0.7592503 -0.4198235
000020 d7 4e 2e be 28 07 00 be fd 89 b2 be 5f 95 49 be
       -0.17022263 -0.1250273 -0.34870902 -0.19685887
000030 16 07 c6 bd be 9c 73 be 8d 17 2e be 52 67 76 be
       -0.0966932 -0.23790261 -0.17001171 -0.24062851
000040 eb 9e b6 3d 4a 47 08 3f bc 62 61 be 33 f4 3b bd
       0.0891703 0.5323378 -0.2201032 -0.045887183
000050 49 d7 d7 3f 21 24 0a be 1d a4 28 bf b8 e3 8b bf
       1.6862575 -0.13490345 -0.65875417 -1.0928869
000060 9d 8c eb bd 1a 0b 98 bd 81 fa 3f bf d0 25 07 bf
       -0.11501429 -0.074239925 -0.74991614 -0.5279207
000070 3b 86 4f 3f 21 c6 98 be 58 d5 42 be 83 00 c0 be
       0.81064194 -0.2983866 -0.19026697 -0.3750039
000080 5b ac 06 be ff ea 97 bd ff e6 04 bf 53 9e 31 be
       -0.13151686 -0.07417869 -0.5191497 -0.17345552
000090 79 54 8f be 8c 05 7c be 31 49 b9 be bb dd 95 bd
       -0.27994135 -0.24611491 -0.36188653 -0.07317682
0000a0 f4 34 ff be 55 38 85 be 3e da 6e be 4a 57 17 be
       -0.49845088 -0.2601954 -0.2332544 -0.14779392
0000b0 66 e7 ed be fc 43 18 be 7f 20 0f be d4 9d 0c bd
       -0.46465605 -0.14869684 -0.1397724 -0.034330204
0000c0 51 ac 34 bf 2a f9 ff be f5 74 12 bd 41 ce 90 bd
       -0.70575434 -0.49994785 -0.03575607 -0.0707059
0000d0 8b b4 f3 be 05 8e db bd b4 cf cd be fe e0 c9 be
       -0.4759868 -0.107204475 -0.40197527 -0.39429468
0000e0 d9 35 b4 3f 76 8e c4 bd 6e 39 49 be b9 1a 2a bc
       1.4078933 -0.09597485 -0.19650814 -0.010382348
0000f0 b2 f7 b2 be b8 06 0a bd b3 2a 48 bd 43 54 8e bd
       -0.34954602 -0.033697814 -0.048868846 -0.069496654

fc3.weight f4 [1, 64]
000000 a6 a4 81 bd e6 d8 f9 3d 79 e6 16 bc 2e ea be bc
       -0.06330232 0.12199573 -0.009210222 -0.023305025
000010 9c b2 5a 3c be 25 a8 bb f0 01 97 3d 96 87 80 bd
       0.013348248 -0.0051314523 0.073734164 -0.06275861
000020 14 c1 8f bd 0c cc 5a 3b 72 01 c0 bb 32 38 9f 3d
       -0.070192486 0.0033385782 -0.0058595473 0.0777439
000030 55 d4 04 be 54 83 a4 3d c7 30 46 3d 69 6f 72 bb
       -0.12971623 0.08032861 0.04838636 -0.0036992675
000040 89 ff b4 3c 66 cb 52 be c2 d3 89 bd ef 7b 07 3e
       0.022094505 -0.20585403 -0.06729843 0.1323087
000050 48 87 a1 be f4 86 24 3c d0 20 85 bd 43 8f 51 3d
       -0.31548524 0.010041941 -0.06500399 0.051162016
000060 31 3a e3 39 18 81 56 bc 49 76 57 3e c0 33 16 3e
       0.0004334017 -0.013092302 0.21041216 0.14668179
000070 e8 2e d1 3d d5 36 8b bc 3c 7f 0f 3d 08 43 72 be
       0.10214025 -0.01699392 0.03503345 -0.23658383
000080 c7 13 3e 3c ac c2 be 3b ce 64 29 bb 9a aa eb 3b
       0.011601395 0.0058215465 -0.0025847438 0.007191968
000090 5b 06 ad bd 38 a9 4c bd 91 65 17 be cc b9 6d 3d
       -0.08448478 -0.049966067 -0.14784838 0.058038518
0000a0 88 c9 6e bd 0a 96 e8 b6 b0 d1 a6 bd 19 6c d6 3c
       -0.058297664 -6.9316056e-06 -0.081454635 0.026174592
0000b0 f1 e5 7b 3d fe 9d c1 bc 5e 2d 55 bc f4 91 8b 3d
       0.061498586 -0.023634907 -0.013011305 0.06814948
0000c0 2c 47 2b 3d fc f4 58 be 9c f9 ff bc d4 48 bc bc
       0.04181592 -0.21187204 -0.031246953 -0.022983946
0000d0 e9 b8 21 be 92 86 d7 3b da c7 4c be d1 4a da 3c
       -0.15793194 0.0065773213 -0.19998112 0.026647003
0000e0 8c 50 34 be 9c 62 5a bd 74 6e 50 3c a6 44 8d bd
       -0.17608851 -0.053316697 0.012721647 -0.06897859
0000f0 ba 3d c9 bc c9 23 bb 3b 01 ae db 3a b9 12 99 3c
       -0.024565566 0.005711053 0.0016760231 0.018685685

fc1.weight f4 [64, 1]
000000 e0 d3 2a 3f 01 27 bf be 54 8f 63 be d5 22 f3 be
       0.66729546 -0.37334445 -0.22222644 -0.47487512
000010 3a 42 cb bf 2d 35 18 3f 68 b9 a1 bd f1 45 42 3f
       -1.5879586 0.5945614 -0.078966916 0.7588797
000020 90 ad 94 bc 9b e9 92 3d 37 e1 8b bd 7b 70 15 3c
       -0.018149167 0.07173463 -0.06830066 0.009121056
000030 a2 1d 11 bf 98 7d 99 3d 30 51 95 bd 9b 04 c2 bc
       -0.5668584 0.07494658 -0.07290876 -0.023683837
000040 30 6c 14 3e 00 e7 82 bb 51 6c 22 be 57 7b 80 3d
       0.14494395 -0.0039948225 -0.15861632 0.06273525
000050 07 ec 97 bd 40 35 ad be 70 a3 2b be 79 09 b0 be
       -0.074180655 -0.3382969 -0.16761565 -0.34382227
000060 08 14 a2 bf a1 2c b0 be 70 e5 9f 3a ea 6b 89 3e
       -1.2662363 -0.3440905 0.0012199115 0.26840144
000070 22 22 e8 bf 83 e3 9c bd 3a 28 47 3d 19 58 32 3e
       -1.8135417 -0.07660582 0.048622347 0.17416419
000080 9a 83 31 be 65 f6 09 c0 d9 c8 33 bf 60 c6 66 bd
       -0.17335358 -2.1556637 -0.70228344 -0.05634153
000090 69 b6 ee bc ba 44 3c 3d 7c 5a 61 bd 63 60 90 be
       -0.029139714 0.04596398 -0.055017933 -0.28198537
0000a0 4b 72 56 3e 5c a0 d8 be 44 02 1b be ca 4c 7d bd
       0.20942037 -0.42309844 -0.15137583 -0.06184081
0000b0 ca f2 b2 3d 65 c5 6d bd 8e 9b 00 c0 5c 61 9c bf
       0.087377146 -0.05804958 -2.0094943 -1.2217212
0000c0 ec 48 ec be 00 88 e0 bd 49 f3 34 bf 3f 84 f9 bf
       -0.46149385 -0.1096344 -0.70683724 -1.9493483
0000d0 de f5 43 3c ec a9 60 bc 7b 1a db 3d 17 fa 97 3e
       0.011960475 -0.0137123875 0.1069841 0.2968299
0000e0 20 ca 3f bd de 4c 02 c0 e1 b1 b8 bd f1 09 f5 3d
       -0.04682362 -2.0359416 -0.09018303 0.11964787
0000f0 49 98 ff bd 65 69 f4 3e ff 37 5f 3e cd 7f 73 3c
       -0.12480218 0.4773666 0.21798705 0.014862013

fc1.bias f4 [64]
000000 8d b9 e0 bf 8c 40 17 bf 09 86 e8 be 9c 78 50 bf
       -1.7556626 -0.59082866 -0.4541476 -0.81434035
000010 b3 d1 8d bf 5b c1 c3 bf a5 06 20 be aa 2a 91 3e
       -1.107962 -1.5293382 -0.15627535 0.28352863
000020 29 0c a8 bd f6 ab be be 62 71 f0 bd d6 98 30 be
       -0.08205444 -0.3724057 -0.11740376 -0.17245802
000030 d5 6d c4 3f 18 98 1f bf ae 15 6d bf 40 87 d7 bd
       1.5346018 -0.6234145 -0.92611206 -0.10523844
000040 e2 ff 33 bf 83 27 41 bf 9b 06 ca be 50 87 91 be
       -0.7031232 -0.75450915 -0.39458165 -0.28423548
000050 d0 d5 1f be 18 45 58 bf 52 94 63 bf 6a 8c f5 be
       -0.15608907 -0.8448043 -0.88898194 -0.4795869
000060 a3 e1 48 bf 7a 1f fd be 59 0a a7 bc ae 14 fc bf
       -0.78469294 -0.49438077 -0.020390676 -1.9693811
000070 f9 ad 27 3f e5 64 e2 be 5b 9c 89 be 5c 35 56 bf
       0.65499836 -0.442176 -0.26877102 -0.8367517
000080 6a 5c 7d be 43 52 51 be 7d 43 e9 bf 46 d8 3a bf
       -0.24742284 -0.20441537 -1.8223721 -0.7298626
000090 44 a8 90 be 47 6b 08 bf 10 30 12 be 94 54 19 bf
       -0.28253376 -0.5328869 -0.14276147 -0.5989468
0000a0 0a 5f 7b bf c0 b5 59 bf 7b be 88 be 84 be 1e be
       -0.98191893 -0.85042953 -0.26707825 -0.15502363
0000b0 1b 59 0f bf e3 e5 40 be de 41 bc 3d a4 29 9c 3d
       -0.5599534 -0.18837695 0.09192251 0.0762513
0000c0 51 d1 26 bf 72 e0 29 bf 37 e0 87 bf d6 d8 9c 3e
       -0.6516314 -0.663581 -1.06153 0.30634183
0000d0 c0 b4 de bd e5 f6 eb bc 4d 01 ed bf ff c8 cb bf
       -0.10874319 -0.028804252 -1.8516022 -1.5920714
0000e0 50 d2 1a bf 29 ec ae be 33 1a 84 be 0b 61 03 bf
       -0.6047716 -0.3416455 -0.25801238 -0.5131995
0000f0 03 5b 47 be 2c 68 13 c0 a9 f8 e4 bf 33 e3 48 be
       -0.19468312 -2.3032331 -1.7888385 -0.1961792
