maddpg_pytorch/models/cache_data/model/run51/incremental/model_ep1001.pt (torch, 690099 bytes, 168 tensors)

fc1.weight f4 [64, 1]
0	0x3f185af9	0.59513813
1	0xbf27b4cc	-0.6551025
2	0xbeea1416	-0.4571845
3	0xbebacff7	-0.3648679
4	0xbf5f9247	-0.87332577
5	0x3f56af4c	0.8386123
6	0xbda1b927	-0.07896643
7	0x3f218ab6	0.6310228
8	0x3dacd641	0.08439303
9	0x3e972d07	0.2952654
10	0xbd8be145	-0.06830076
11	0x3c157042	0.009121003
12	0xbd6642b9	-0.056215975
13	0xbe76b560	-0.24092627
14	0xbd955130	-0.07290876
15	0xbcc204e3	-0.02368397
16	0x3e146c30	0.14494395
17	0xbb82e700	-0.0039948225
18	0x3e3de012	0.18542507
19	0x3d807b0e	0.06273471
20	0xbe1811f8	-0.14850605
21	0xbf1a9d36	-0.60396135
22	0xbe2ba370	-0.16761565
23	0xbf2a3fc1	-0.6650353
24	0xbf9e778f	-1.2380236
25	0xbe36fab5	-0.17869075
26	0x3a9fe595	0.0012199158
27	0x3f509214	0.814729
28	0xbf8e97f7	-1.1140126
29	0xbc7b56f5	-0.015340556
30	0x3f3785d3	0.71688575
31	0x3f584fc7	0.8449673
32	0xbc81ed78	-0.015860304
33	0xbfa5c346	-1.2950218
34	0xbfc562db	-1.5420793
35	0xbec147fe	-0.37750238
36	0x3f04cb14	0.5187237
37	0xbe2a9110	-0.166569
38	0xbdf4a62a	-0.11945756
39	0xbf3eb964	-0.74501634
40	0x3f8d1bd6	1.102412
41	0xbed8a05c	-0.42309844
42	0x3e532c9d	0.20622487
43	0xbd7d4cd4	-0.061840847
44	0xbf14f002	-0.5817872
45	0x3d3abbe5	0.045589346
46	0xbf75e91b	-0.96058816
47	0xbec81345	-0.390772
48	0xbef10b23	-0.4707881
49	0xbde08800	-0.1096344
50	0xbfa524fd	-1.2901913
51	0xbf6a2ffe	-0.9147948
52	0x3c43f583	0.01196039
53	0xbc60a9a9	-0.013712325
54	0x3f889579	1.0670615
55	0x3f89b061	1.0756952
56	0xbd3fca20	-0.04682362
57	0xbf9205e3	-1.1408046
58	0x3cb64898	0.022251412
59	0x3f1b303b	0.6062047
60	0xbed31cb0	-0.41232824
61	0x3f623896	0.88367593
62	0x3f8861a4	1.0654798
63	0x3ea74c7b	0.32675537

fc1.bias f4 [64]
0	0xbf1503b3	-0.5820877
1	0xbed0c7e7	-0.40777513
2	0xbea2d4eb	-0.3180307
3	0xbdc82e4f	-0.09774458
4	0xbf52d88c	-0.82361674
5	0x3e890f39	0.26769426
6	0xbe2006b3	-0.15627556
7	0xbd9358b9	-0.07194657
8	0xbd257327	-0.04039302
9	0xbd065200	-0.032793045
10	0xbdf0718d	-0.11740408
11	0xbe309913	-0.17245893
12	0x3f296056	0.6616262
13	0xbea1dc24	-0.31613266
14	0xbf6d15ae	-0.92611206
15	0xbdd7873f	-0.10523843
16	0xbf33ffe2	-0.7031232
17	0xbf412780	-0.754509
18	0x3f5dc946	0.86635244
19	0xbe918758	-0.28423572
20	0xbdc16320	-0.09442735
21	0xbf14423c	-0.57913566
22	0xbf639452	-0.88898194
23	0xbe0962b3	-0.13416557
24	0xbe6543f3	-0.22389202
25	0x3f1da282	0.6157609
26	0xbca70aa8	-0.020390823
27	0x3e73aab6	0.2379559
28	0xbe3eb142	-0.18622306
29	0x3e10135e	0.14069888
30	0x3f12c986	0.5733875
31	0x3ea5f226	0.32411307
32	0x3e33fd25	0.17577036
33	0xbe67ef9c	-0.22649997
34	0xbe83641a	-0.2566231
35	0xbed16499	-0.40897062
36	0x3e5b9d6d	0.21446772
37	0xbe3d7638	-0.18502128
38	0xbdaf833e	-0.08569954
39	0x3ee70f4d	0.4512886
40	0xbf6d7339	-0.9275394
41	0xbf59b5c0	-0.85042953
42	0x3e856bb6	0.2605874
43	0xbe1ebea9	-0.15502419
44	0xbe112b73	-0.14176731
45	0x3efd6562	0.4949141
46	0x3f113ae3	0.5673048
47	0xbde963fb	-0.11396023
48	0xbde67e1f	-0.112545244
49	0xbf29e072	-0.663581
50	0xbe78e2ca	-0.24305263
51	0x3f0c3ef8	0.5478358
52	0xbddeb4f8	-0.10874361
53	0xbcebf738	-0.028804407
54	0x3c2213fb	0.009892459
55	0xbf5d9994	-0.86562467
56	0xbf1ad250	-0.6047716
57	0xbe58570f	-0.2112696
58	0x3e4888e7	0.19583474
59	0x3eb747d5	0.3579699
60	0xbdbdf012	-0.092743054
61	0xbf4c8220	-0.79886055
62	0xbf6465bf	-0.8921775
63	0x3f86616d	1.0498482

fc2.weight f4 [64, 64]
0	0xbdb5ffc7	-0.08886676
1	0x3e8cc561	0.27494338
2	0xbd930f5c	-0.07180664
3	0xbe65d113	-0.22443037
4	0x3e3f8f51	0.18707015
5	0xbd6ecbfd	-0.058300007
6	0xbcb3418a	-0.021881837
7	0xbbe86e12	-0.0070931995
8	0xbe01e267	-0.12684022
9	0x3deb843f	0.11499833
10	0xbe93dbd6	-0.2887866
11	0xbdfe55b7	-0.124186926
12	0xbe718426	-0.23585567
13	0xbd8edc11	-0.06975568
14	0xbd9cea70	-0.07661903
15	0xbd8b3243	-0.06796696
16	0x3d1e7530	0.038685977
17	0xbce7dea8	-0.028304413
18	0xbdcf146d	-0.10111318
19	0xbd5d8bb2	-0.054088302
20	0xbcc2f673	-0.023799157
21	0x3dac66ce	0.08418046
22	0xbd2d63e4	-0.04233159
23	0x3d5fdfd4	0.05465682
24	0xbd90e33a	-0.0707459
25	0xbe025f9a	-0.12731782
26	0xbea2acd8	-0.31772494
27	0xbe709c46	-0.23497114
28	0xbc4cd5ae	-0.012502117
29	0xbea79384	-0.32729733
30	0xbd6fcea4	-0.058546677
31	0xbe33c812	-0.1755679
32	0xbeba7b4f	-0.36422202
33	0x3dd1b21c	0.1023905
34	0x3e6a25f9	0.22866048
35	0x3d9a50e2	0.075349584
36	0xbe930bdc	-0.28719985
37	0x3cde04c0	0.027101874
38	0xbe7fd543	-0.24983697
39	0xbd6a4c1b	-0.057201486
40	0xbe8184d7	-0.2529666
41	0xbd695980	-0.05697012
42	0xbe9e7cbd	-0.30954543
43	0x3dd1f07c	0.10250947
44	0xbd0ab67b	-0.033865433
45	0xbe3c2c85	-0.18376358
46	0x3e007709	0.12545408
47	0xbde1c151	-0.110232
48	0xbd2118bf	-0.03933024
49	0x3b826e60	0.003980443
50	0x3d2cf2ac	0.042223617
51	0x3c9167fc	0.017749779
52	0xbe8aa7c5	-0.27081123
53	0xbde89eed	-0.11358438
54	0xbe7e1e0a	-0.24816146
55	0xbe280bed	-0.164108
56	0xbda51dec	-0.08062348
57	0x3e234d80	0.15947533
58	0xbeb9c42c	-0.3628248
59	0xbe8685d9	-0.26273993
60	0xbcb6b208	-0.022301689
61	0xbe5e0a78	-0.21683681
62	0xbde5680f	-0.11201488
63	0xbe4c592f	-0.19955896
64	0xbdf2f965	-0.118639745
65	0xbdefcc03	-0.11708834
66	0xbd0a163e	-0.033712618
67	0xbe17640a	-0.14784256
68	0x3d70703c	0.058700785
69	0x3ca6d426	0.020364832
70	0x3d69a921	0.05704606
71	0xbe16fb2d	-0.14744253
72	0xbe02447a	-0.12721434
73	0xbdbd4b14	-0.09242836
74	0xbc9e672b	-0.019336304
75	0xbddd5b74	-0.10808459
76	0xbc94499c	-0.018101506
77	0xbdd05506	-0.10172467
78	0xbc1f80f0	-0.009735331
79	0xbe3f10af	-0.18658708
80	0x3cae1308	0.02124931
81	0x3d715ad4	0.05892451
82	0xbd237e51	-0.039915387
83	0xbcb23567	-0.02175398
84	0xbe398048	-0.18115342
85	0x3dba816e	0.09106718
86	0x3ddf327a	0.108982995
87	0x3d1a651a	0.037694074
88	0xbd034057	-0.03204378
89	0xbe285316	-0.16437945
90	0xbe13df31	-0.1444061
91	0x3d4e0ba3	0.050304066
92	0xbe60f5f4	-0.21968824
93	0xbbcedd4d	-0.006313002
94	0xbe20fcbe	-0.15721413
95	0xbe1799ab	-0.14804713
96	0xbdae534c	-0.08511981
97	0xbe5b6f99	-0.2142929
98	0xbe1c9ea3	-0.1529489
99	0x3dba3ce8	0.09093648
100	0x3c665022	0.014057191
101	0x3df21d0c	0.118219465
102	0xbdfdc968	-0.12391931
103	0xbe558a3e	-0.20853516
104	0x3d812d4b	0.06307467
105	0xbcda2388	-0.02662827
106	0xbe5dc118	-0.2165569
107	0xbce6a6e1	-0.028155746
108	0xbe40bac4	-0.18821245
109	0x3cb63227	0.022240711
110	0xbd3cdd63	-0.04610957
111	0xbe8c7e43	-0.2744008
112	0xbe91cd0d	-0.28476754
113	0xbc3365c0	-0.010949552
114	0xbd932bda	-0.071860984
115	0xbd8f8784	-0.070082694
116	0xbe579956	-0.21054587
117	0xbd7dc534	-0.061955646
118	0xbe35c087	-0.17749225
119	0xbe17e300	-0.14832687
120	0xbdaa6a9e	-0.08321117
121	0xbcb03624	-0.021510191
122	0xbd3de76a	-0.04636327
123	0xbdd0f10d	-0.10202227
124	0xbdd9e606	-0.106395766
125	0xbb8a43b6	-0.0042194976
126	0xbd380954	-0.04493077
127	0xbdfb06e3	-0.12257173
128	0xbc0ea78b	-0.008706938
129	0x3d9d5f38	0.07684177
130	0xbbed62c0	-0.007244438
131	0xbdc29846	-0.095017
132	0x3de8a386	0.113593146
133	0x3ce1abc1	0.027547719
134	0xbdf88a68	-0.12135774
135	0x3d2e0367	0.042483713
136	0xbd3f9901	-0.046776775
137	0xbdaa0d00	-0.08303261
138	0xbc233999	-0.009962463
139	0xbe2fc777	-0.17165934
140	0x3d14a78a	0.03629259
141	0xbda493ba	-0.08035989
142	0x3d10ced4	0.035353497
143	0xbd1819bf	-0.03713393
144	0x3cf39108	0.029732242
145	0x3dd45504	0.10367778
146	0xbe068142	-0.13135245
147	0xbe08ab6c	-0.13346642
148	0xbe274427	-0.16334592
149	0xbba81940	-0.005129963
150	0xbd728b80	-0.05921507
151	0xbd4675f4	-0.048452333
152	0xbcd1eb20	-0.025624812
153	0xbd13dc1d	-0.03609859
154	0x3cedec3b	0.029043308
155	0xbd36ccbf	-0.044628855
156	0xbd24ef90	-0.040267527
157	0xbe103ca6	-0.14085636
158	0xbe42df82	-0.19030574
159	0x3ccdd288	0.025124803
160	0xbdd25c6a	-0.10271533
161	0x3cceb318	0.025231883
162	0x3b978400	0.00462389
163	0xbda323f0	-0.07965839
164	0xbc0cafbd	-0.008586821
165	0x3d8f779a	0.07005234
166	0xbd94dfe7	-0.072692685
167	0xbd917b62	-0.071036115
168	0xbe0898d8	-0.13339555
169	0x3ae1a000	0.0017213821
170	0xbe19f4e7	-0.15034829
171	0xbe18a6fe	-0.14907452
172	0xbc98bf40	-0.018645883
173	0xbdec9aac	-0.11552939
174	0x3cfb5f50	0.030685097
175	0xbde3083a	-0.110855535
176	0xbda28a01	-0.079364784
177	0xbd436bc4	-0.047710195
178	0xbde9f2c4	-0.11423257
179	0x3d57d925	0.05269732
180	0xbd60196a	-0.054711737
181	0x3d80e4bb	0.06293627
182	0xbdce98bf	-0.10087728
183	0xbde65a47	-0.11247688
184	0xbdf0aacc	-0.11751327
185	0xbd425c54	-0.047451332
186	0x3b5562fe	0.0032560225
187	0xbe528a5c	-0.20560592
188	0xbd331474	-0.043720677
189	0xbb8d25ec	-0.004307499
190	0xbc2aae51	-0.010417537
191	0xbd098b29	-0.03357998
192	0xbe2a2a31	-0.16617657
193	0xbd65bfc8	-0.0560911
194	0xbe0c8005	-0.1372071
195	0xbe14fec7	-0.14550315
196	0x3d55ab90	0.052165568
197	0xbe3c3b7e	-0.1838207
198	0xbe26b785	-0.16280945
199	0xbda38679	-0.07984633
200	0xbe396fe1	-0.18109085
201	0xbdd720c6	-0.10504298
202	0xbd0bed12	-0.034161635
203	0xbd6f3df1	-0.05840868
204	0x3bb0492e	0.0053798174
205	0xbe6b8671	-0.23000504
206	0x3a8e7380	0.0010868162
207	0xbdfb2dc8	-0.122645915
208	0xbd8f2f62	-0.069914594
209	0xbd900382	-0.07031919
210	0xbd900999	-0.070330806
211	0xbdcf9724	-0.1013625
212	0xbe3c093d	-0.18362899
213	0xbdb471ac	-0.08810744
214	0xbdd41a6c	-0.10356602
215	0x3c188513	0.009309071
216	0xbda4d805	-0.08049015
217	0xbdef8b4c	-0.11696491
218	0xbe186333	-0.14881591
219	0xbe4a15f8	-0.19734943
220	0xbe5f359e	-0.21797797
221	0xbe367b1b	-0.17820399
222	0xbd54bc65	-0.05193748
223	0xbda7c482	-0.08191778
224	0xbe16cb30	-0.14725947
225	0xbe1facd4	-0.15593272
226	0x3da3894e	0.07985173
227	0x3db88946	0.09010558
228	0x3ca6136b	0.020272931
229	0x3d155a70	0.0364632
230	0xbd2795b9	-0.04091427
231	0xbe20e0e0	-0.15710783
232	0xbe3842a4	-0.17994171
233	0xbdfacc6c	-0.12246022
234	0xbcc628c8	-0.024189368
235	0xbe0d39d2	-0.13791588
236	0xbdbf1999	-0.09331054
237	0xbdca65fe	-0.09882735
238	0xbe7c4644	-0.24636179
239	0xbe1cd76a	-0.15316549
240	0xbd45453a	-0.048161723
241	0xbccf4210	-0.025300056
242	0xbe5dc5ac	-0.21657437
243	0xbda2177a	-0.07914634
244	0xbdc174b6	-0.09446089
245	0xbe03bd27	-0.12865125
246	0xbd794230	-0.060854137
247	0xbdb469fe	-0.08809279
248	0xbd3cd3c0	-0.046100378
249	0x3b4f651d	0.0031645962
250	0xbd136b92	-0.03599126
251	0xbe0fb5d4	-0.14034206
252	0xbe29e501	-0.16591264
253	0xbe644459	-0.22291698
254	0xbd4c1c02	-0.049831398
255	0xbe0e93fe	-0.13923642

fc2.bias f4 [64]
0	0xbe9de349	-0.30837467
1	0xbe05675f	-0.13027714
2	0xbe364d25	-0.17802866
3	0xbe193892	-0.14962986
4	0xbe30e65a	-0.17275372
5	0xbd4cfd29	-0.05004612
6	0xbd3a5df8	-0.04549977
7	0xbeb8763f	-0.36027715
8	0x3d778568	0.06042996
9	0x3ebdba74	0.37056315
10	0xbe11b7f7	-0.14230333
11	0x3d5c18fa	0.053734757
12	0xbe51f955	-0.20505269
13	0x3c7947de	0.015214888
14	0x3cdd2e80	0.026999712
15	0xbe23a76a	-0.15981832
16	0x3dd93bd5	0.10607115
17	0xbe0bcc8d	-0.13652249
18	0xbe499bae	-0.19688293
19	0xbdbf0a54	-0.09328142
20	0x3eca9e0c	0.39573705
21	0xbbfbe2bb	-0.0076869405
22	0x3be55ca6	0.00699957
23	0xbdb11b3d	-0.086477734
24	0xbd372f32	-0.044722743
25	0xbda45071	-0.080231555
26	0xbd941e74	-0.07232371
27	0x3cd191f2	0.025582287
28	0xbe4e4db5	-0.2014683
29	0xbdcf1b41	-0.1011262
30	0xbe5e7710	-0.21725106
31	0xbe273d15	-0.16331895
32	0xbe573ce1	-0.21019317
33	0xbe4d9103	-0.20074849
34	0xbdde2a4e	-0.10847913
35	0x3df4a271	0.11945046
36	0xbe743100	-0.23846817
37	0xbd8191c7	-0.06326633
38	0x3eb801d5	0.35938898
39	0xbe4970bb	-0.1967191
40	0xbd3e52ca	-0.046465673
41	0xbe1b4619	-0.15163459
42	0xbc4ad889	-0.012380728
43	0x3e4cea28	0.20011199
44	0x3e303e20	0.17211199
45	0xbdd88852	-0.10572876
46	0xbdf60afe	-0.12013815
47	0x3c74bedf	0.014938085
48	0xbdb1a436	-0.08673899
49	0x3de4f58f	0.11179649
50	0xbdf7ef5f	-0.12106203
51	0xbe480856	-0.1953443
52	0xbc84787e	-0.016170736
53	0x3f906ebf	1.1283797
54	0xbe4fd77f	-0.20297049
55	0xbe8b5034	-0.27209628
56	0xbe50e1f0	-0.20398688
57	0x3b0c5500	0.0021412969
58	0x3d653bec	0.05596535
59	0xbde26716	-0.11054818
60	0x3eee5d28	0.46555448
61	0xbe829d49	-0.25510624
62	0x3c8342cd	0.016023064
63	0xbc2bad10	-0.010478273

fc3.weight f4 [32, 64]
0	0xbeb6632a	-0.3562253
1	0x3d7c22e5	0.061556716
2	0x3df0c5e0	0.11756492
3	0xbe102e6a	-0.14080206
4	0xbe8b867c	-0.2725104
5	0x3cd61599	0.026133345
6	0x3d97a7ec	0.074050754
7	0x3d773bec	0.06035988
8	0x3df2206a	0.11822589
9	0xbec1f2b3	-0.37880477
10	0x3dd044d2	0.101693764
11	0xbd4f969c	-0.05068074
12	0xbe78432c	-0.24244374
13	0xbd896004	-0.06707767
14	0x3d7963c4	0.06088616
15	0xbc8cf897	-0.01720838
16	0x3e2293d1	0.158767
17	0x3b96b890	0.0045996383
18	0xbe933617	-0.28752205
19	0xbbd2ac46	-0.006429228
20	0x3dcd4fa3	0.10024955
21	0x3cb56979	0.02214502
22	0x3dad4149	0.08459718
23	0x3daf9c4b	0.085747324
24	0xbd3d201d	-0.046173204
25	0x3c770859	0.015077674
26	0x3d8ab03e	0.06771897
27	0xbe34b440	-0.17646885
28	0xbcd6a619	-0.026202248
29	0xbd766c8a	-0.060162105
30	0xbc87c00f	-0.016571073
31	0xbd11f91b	-0.035637956
32	0xbe13c86a	-0.1443192
33	0xbe5fdda2	-0.2186189
34	0xbd891864	-0.06694105
35	0xbe96a9c4	-0.29426396
36	0x3e41e5de	0.18935344
37	0x3d98bb91	0.074576505
38	0x3c5b4860	0.013383955
39	0x3df5b087	0.119965605
40	0xbd6834c1	-0.056690935
41	0xbcd96adb	-0.02654021
42	0xbd025bcd	-0.03182583
43	0x3e82366a	0.2543214
44	0xbe251435	-0.1612099
45	0xbe403c15	-0.1877292
46	0xbd7fe95a	-0.0624784
47	0xbcaf3218	-0.021386191
48	0xbd6a86ec	-0.057257578
49	0xbda7dd38	-0.08196491
50	0xbe0c0473	-0.13673572
51	0xbc961724	-0.018321581
52	0x3dc7eda2	0.09762122
53	0xbde9027e	-0.113774285
54	0xbdc2efb5	-0.09518377
55	0xbda3f3d0	-0.08005488
56	0xbd55e07d	-0.05221604
57	0xbdd141ac	-0.10217604
58	0xbd186654	-0.037206963
59	0x3d16dada	0.036829807
60	0xbed23be4	-0.41061318
61	0xbce49ec3	-0.027907735
62	0xbcece5f2	-0.02891824
63	0xbde53c8e	-0.111931905
64	0x3ceeb3f8	0.02913855
65	0x3cdbe358	0.026841804
66	0x3df6e669	0.12055666
67	0xbdf08ada	-0.11745234
68	0xbd47acb2	-0.04874868
69	0xbd791f5e	-0.06082093
70	0xbcac4008	-0.021026626
71	0x3d1abaca	0.037775792
72	0xbd0c213c	-0.034211382
73	0x3e1b1085	0.1514302
74	0xbdf6a40c	-0.12043008
75	0xbe02445a	-0.12721387
76	0x3e770f6a	0.24126974
77	0x3d321eea	0.043486513
78	0x3c5c92bc	0.013462719
79	0xbc8b1a70	-0.01698038
80	0x3dae461b	0.08509465
81	0xbd9c9af9	-0.07646746
82	0xbe3a5587	-0.18196689
83	0xbdcf8d6c	-0.10134396
84	0xbd8e48dc	-0.069474906
85	0x3e26bd63	0.16283183
86	0x3b97672e	0.0046204543
87	0x3e2ef2eb	0.17084853
88	0xbc0d4f69	-0.00862489
89	0xbd42e9ba	-0.04758618
90	0xbcbd4833	-0.023105716
91	0xbedaf847	-0.42767546
92	0xbd6bf909	-0.057610545
93	0xbb777af2	-0.003776249
94	0xbdfd4de2	-0.123683706
95	0xbdfc5f9d	-0.12322924
96	0xbe25e8f6	-0.16202149
97	0xbdfb1429	-0.122597046
98	0x3cd815d0	0.026377589
99	0xbe994913	-0.29938564
100	0x3e6fbd75	0.23412116
101	0x3deb0deb	0.11477264
102	0x3eae8974	0.34089243
103	0xbab4c1fd	-0.0013790723
104	0xbe05c50d	-0.1306345
105	0x3e207103	0.1566811
106	0xbd22630d	-0.039645243
107	0x3c4e4b6c	0.012591224
108	0xbf076053	-0.52881354
109	0xbd5e0987	-0.054208305
110	0x3cde8b73	0.027166104
111	0x3d1b9e83	0.037992965
112	0x3da81664	0.08207396
113	0x3de18dad	0.11013351
114	0xbcd6426f	-0.026154725
115	0x3cb5925a	0.022164512
116	0xbc9b1a2b	-0.018933376
117	0xbe0fba1c	-0.14035839
118	0xbe2f14e9	-0.1709782
119	0x3baf1392	0.005342909
120	0x3e74a870	0.23892379
121	0xbd14c770	-0.03632301
122	0xbcaa87f0	-0.020816773
123	0xbd74228d	-0.059603263
124	0xbf02faf0	-0.5116415
125	0x3dec129e	0.115269884
126	0x3dd98f0a	0.10622986
127	0x3d986492	0.07441057
128	0xbca2655e	-0.019823726
129	0xbdd0272e	-0.10163723
130	0xbe0a54d5	-0.13508923
131	0x3dff2e66	0.12460022
132	0xbe2327d2	-0.15933159
133	0x3c40daa6	0.01177088
134	0x3d03abbc	0.0321462
135	0xbe1d5b6f	-0.1536691
136	0x3d816ce0	0.063195944
137	0x3d437227	0.047716286
138	0xbd809f9b	-0.06280442
139	0x3bc7776c	0.0060872342
140	0xbdb9bd0b	-0.0906926
141	0x3c3ba5be	0.01145309
142	0x3d77e13c	0.060517535
143	0xbddaab19	-0.106771655
144	0xbf266a3e	-0.6500586
145	0x3e00007a	0.12500182
146	0xbdd02399	-0.1016304
147	0x3d505581	0.050862793
148	0x3e23e176	0.16003975
149	0xbd1d6308	-0.03842452
150	0x3cefc773	0.02926991
151	0xbcb65739	-0.022258388
152	0x3cc8440a	0.024446506
153	0x3d958161	0.07300068
154	0xbd426b1a	-0.04746542
155	0xbee4241b	-0.44558796
156	0xbcc22a9e	-0.023701962
157	0x3d3c78f2	0.04601378
158	0x3de4e6c3	0.11176827
159	0xbe88da0c	-0.26728857
160	0x3e2302be	0.15919015
161	0x3e02f65f	0.12789296
162	0x3d98f4a4	0.074685365
163	0x3d0a444a	0.03375653
164	0xbe360050	-0.17773557
165	0x3bf5d18e	0.0075017875
166	0xbebfb435	-0.37442175
167	0x3d1a00ed	0.03759854
168	0x3d87b965	0.06627158
169	0xbe3bfd0e	-0.18358251
170	0xbdde9c7a	-0.10869689
171	0xbd323593	-0.043508124
172	0xbd4a635c	-0.049411163
173	0x3e1435c3	0.14473633
174	0xbdb7fa63	-0.08983304
175	0xbe2d9b84	-0.16953856
176	0xbe307093	-0.17230444
177	0x3e213c26	0.15745601
178	0x3e0a6e3b	0.13518612
179	0xbd83eba3	-0.064414285
180	0x3d00b83a	0.031425692
181	0xbe44e793	-0.19228964
182	0x3e0bf183	0.13666348
183	0x3f3fbcf9	0.74897724
184	0xbe4663fe	-0.19374081
185	0x3d088848	0.033333093
186	0xbe14995b	-0.14511625
187	0x3cd1619a	0.025559235
188	0xbec50910	-0.38483477
189	0x3f396cc9	0.7243162
190	0x3cd6a0db	0.026199749
191	0xbda7332a	-0.08164056
192	0xbe60f3af	-0.21967958
193	0x3cdca784	0.026935346
194	0xbb142236	-0.00226034
195	0x3d3fcf20	0.04682839
196	0xbd24aa24	-0.04020132
197	0xbe330603	-0.17482762
198	0xbdf1fc2e	-0.118156776
199	0x3e00b1f3	0.12567882
200	0x3d0482c0	0.032351255
201	0x3f3060ba	0.68897593
202	0xbdced373	-0.100989245
203	0xbdaf62b9	-0.08563752
204	0x3e12cffc	0.14337152
205	0xbe2f678c	-0.17129344
206	0xbd0de410	-0.034641325
207	0x3d762cb6	0.060101233
208	0x3d92689c	0.07148859
209	0xbe77d680	-0.24202919
210	0xbe2bac99	-0.1676506
211	0xbd9e2fb1	-0.0772394
212	0x3f544757	0.82921356
213	0xbdeebd52	-0.11657204
214	0x3e4f68a9	0.20254768
215	0x3e075c7e	0.13218877
216	0x3c8d3b09	0.017240064
217	0x3e435d52	0.19078568
218	0x3ed03e62	0.40672594
219	0x3dba9ec2	0.09112312
220	0x3e1cd8cd	0.15317078
221	0xbd5fcd65	-0.05463924
222	0xbdcc82e8	-0.09985906
223	0x3ebe193e	0.37128633
224	0xbd358777	-0.044318642
225	0xbe5cebc3	-0.21574311
226	0xbd6d3fa6	-0.057922028
227	0xbf8bd186	-1.0923316
228	0xbe9d7d74	-0.30759776
229	0xbd1c07cc	-0.038093373
230	0x3df8029f	0.12109875
231	0x3d229a6c	0.03969805
232	0x3e5fc0b0	0.21850848
233	0xbe2ae3b8	-0.1668843
234	0xbd7aaa91	-0.06119782
235	0x3cc67571	0.024225922
236	0xbf2d3d5c	-0.6767175
237	0x3c78eb92	0.015192883
238	0x3e392226	0.18079433
239	0xbe2dedaf	-0.169852
240	0x3e0322f9	0.1280631
241	0x3e026c11	0.12736537
242	0x3dd9b4de	0.10630201
243	0xbc198a24	-0.009371314
244	0x3e3801aa	0.17969385
245	0xbddce279	-0.10785384
246	0x3d77bda1	0.06048358
247	0xbe006f6e	-0.12542507
248	0x3d8cb9fc	0.06871411
249	0x3d8c44a6	0.06849031
250	0xbc93a79d	-0.01802426
251	0x3e461645	0.19344433
252	0x3f16c961	0.5890103
253	0x3ef0464b	0.4692863
254	0x3e3d0be5	0.18461569
255	0xbdac8814	-0.08424392

fc3.bias f4 [32]
0	0xbe4c96e1	-0.1997943
1	0xbe07a088	-0.13244832
2	0x3e68cebb	0.22735111
3	0xbe8d39b5	-0.2758309
4	0xbe7e2e8d	-0.24822445
5	0x3e930d47	0.28721067
6	0xbd77b602	-0.06047631
7	0x3f2046e9	0.626082
8	0x3e1d0f6e	0.15337917
9	0xbe87f873	-0.2655674
10	0xbf423353	-0.75859565
11	0xbebe9a64	-0.37227166
12	0x3ce6600c	0.02812197
13	0x3f16c7ea	0.58898795
14	0xbde40f6e	-0.111357555
15	0xbe975751	-0.29558805
16	0xbe871725	-0.26384845
17	0x3eeb3d8f	0.45945403
18	0xbe5bf5a3	-0.21480422
19	0x3e311e3a	0.17296687
20	0xbdf3da6a	-0.119068936
21	0xbf26cc13	-0.6515514
22	0x3f33c5a7	0.7022347
23	0x3f37bf30	0.71776104
24	0xbefa173b	-0.48845848
25	0xbee7d84d	-0.45282212
26	0x3f0ada7c	0.5423963
27	0x3f0bae46	0.54562795
28	0xbe3d5566	-0.18489608
29	0x3ecd8dc5	0.40147224
30	0xbcfaa9dc	-0.030598573
31	0xbe1eeb03	-0.15519337

in_fn.weight f4 [33]
0	0x3fc3a88c	1.5285811
1	0x3f2e1885	0.68006164
2	0x3e890ba8	0.26766706
3	0x3ed11417	0.4083564
4	0x3edc3c4f	0.43014762
5	0x3e8be893	0.27325878
6	0x3ebd2f85	0.36950317
7	0x3ebb2278	0.36549735
8	0x3f03b920	0.51454353
9	0x3f2c6dcb	0.6735503
10	0x3cec4ab3	0.028844213
11	0x3e60e0e5	0.2196079
12	0x3f1b59fa	0.6068417
13	0x3f0dab07	0.5533909
14	0x3f04e282	0.51908123
15	0x3eab332c	0.3343748
16	0x3f6bc40e	0.9209603
17	0x3f17e437	0.59332603
18	0x3f39d068	0.7258363
19	0x3e307f5f	0.17236088
20	0x3ebceeb4	0.36900866
21	0x3e289d72	0.1646631
22	0x3eb76be1	0.35824493
23	0x3ee80ead	0.45323697
24	0x3f6d6a96	0.9274076
25	0x3ebc2f30	0.3675475
26	0x3e9ff4e3	0.3124152
27	0x3eb57f95	0.354489
28	0x3f59b77e	0.8504561
29	0x3e8e3f75	0.2778279
30	0x3f6ef481	0.93341833
31	0x3f6cf4c0	0.9256096
32	0x3f90c9de	1.1311605

in_fn.bias f4 [33]
0	0xbcd0eb60	-0.02550286
1	0xbca7e819	-0.020496415
2	0x3b283124	0.0025664056
3	0xbc552026	-0.013008153
4	0xbd75e582	-0.06003333
5	0x3cd6d02c	0.026222311
6	0xbe6348d7	-0.22195755
7	0xbd7fa5f6	-0.062414132
8	0xbddf6418	-0.10907763
9	0x3d4095af	0.04701775
10	0xbd147d34	-0.036252216
11	0x3d494793	0.049140524
12	0x3dc10c25	0.094261445
13	0xbcc3db62	-0.02390832
14	0x3c2e76a9	0.010648408
15	0xbb96b0ea	-0.0045987265
16	0x3d81af7b	0.06332298
17	0xbc94788e	-0.018123891
18	0xbd4aeb4d	-0.049540807
19	0x3dbb8fff	0.091583245
20	0xbc94201c	-0.018081717
21	0xbd087c87	-0.033321884
22	0xbd407160	-0.046983123
23	0x3d891e7e	0.06695269
24	0x3db15b64	0.086600095
25	0x3ba37f09	0.004989509
26	0x3dcd3781	0.10020352
27	0xbbe5bd9e	-0.0070111295
28	0x3df84b53	0.12123742
29	0xbe940e76	-0.28917283
30	0x3e8f1085	0.2794229
31	0x3eb97c0f	0.36227462
32	0x3d388dc2	0.045057066

in_fn.running_mean f4 [33]
0	0x40146c91	2.3191264
1	0x3bbf535d	0.005838795
2	0x3bb2f4dc	0.0054613184
3	0x3c1eeb14	0.009699602
4	0x3cd3eb12	0.025868926
5	0x3ba40a91	0.0050061424
6	0x3c0f290a	0.008737812
7	0x3c4a6766	0.012353754
8	0x3d0b55fd	0.03401755
9	0x3c5e3472	0.013562309
10	0x3b55a27e	0.0032598074
11	0x3b489c78	0.003061084
12	0x3ccdc6e1	0.025119247
13	0x3c95eb7c	0.018300764
14	0x3c5a6e5c	0.013331976
15	0x3c25935b	0.010105933
16	0x3e00daaa	0.12583414
17	0x3be1d979	0.00689238
18	0x3d15c304	0.036562935
19	0x3bfcbbfb	0.0077128387
20	0x3c7e34a2	0.015515478
21	0x3ba4def4	0.005031461
22	0x3c18694a	0.009302447
23	0x3c1547b8	0.009111337
24	0x3da8c04d	0.082398035
25	0x3c2a1b06	0.010382419
26	0x3bd0bfc3	0.006370516
27	0x3cb6cb93	0.022313869
28	0x3c75cf6b	0.015003066
29	0x3bcb48ee	0.0062037623
30	0x3e03ce05	0.12871559
31	0x3e0f1fd8	0.13976991
32	0x3e37745c	0.17915481

in_fn.running_var f4 [33]
0	0x40dba4fe	6.8638906
1	0x3bbe0fcf	0.0058002244
2	0x3bb1e467	0.005428839
3	0x3c1d0314	0.009583253
4	0x3ccdf1ad	0.025139654
5	0x3ba30aee	0.004975668
6	0x3c0df41e	0.008664159
7	0x3c47ef91	0.012203113
8	0x3d05adb4	0.03263636
9	0x3c5b3495	0.013379236
10	0x3b54b9b1	0.0032459314
11	0x3b4787ba	0.003044589
12	0x3cc82bb1	0.024434896
13	0x3c933216	0.017968219
14	0x3c576b00	0.013148069
15	0x3c23ce5c	0.00999793
16	0x3dd4a16c	0.10382351
17	0x3be00050	0.0068359748
18	0x3d0fa426	0.035068654
19	0x3bf93bc4	0.0076060016
20	0x3c79dc0c	0.015250217
21	0x3ba3ecf9	0.0050026146
22	0x3c16a47b	0.009194489
23	0x3c13ed99	0.009028816
24	0x3d9aa535	0.07551042
25	0x3c28241d	0.010262516
26	0x3bcf03c9	0.00631759
27	0x3cb1ecce	0.021719363
28	0x3c717735	0.014737894
29	0x3bc9a61f	0.0061538364
30	0x3de56a72	0.112019435
31	0x3df62712	0.12019171
32	0x3e15afd6	0.14617857

fc1.weight f4 [64, 33]
0	0x3d406352	0.04696972
1	0xbd56a150	-0.052399933
2	0xbe7ed141	-0.24884512
3	0x3e4bc5e8	0.19899714
4	0xbe61b713	-0.22042494
5	0x3e39cbc4	0.18144137
6	0xbdc9ed4e	-0.098597154
7	0xbe0306fd	-0.12795635
8	0xbe401346	-0.18757352
9	0xbddb8cca	-0.10720213
10	0xbe02b5da	-0.12764683
11	0xbdc48d12	-0.095972195
12	0x3e84f559	0.25968435
13	0x3e74b2e7	0.23896371
14	0xbe123aa4	-0.14280182
15	0x3ec15f1c	0.37767875
16	0xbdeaee7a	-0.11471267
17	0xbdc81537	-0.097696714
18	0xbe02ccb5	-0.12773402
19	0x3e949b55	0.2902476
20	0x3e2a41e6	0.16626701
21	0xbe1fbbe3	-0.15599017
22	0x3d9e2502	0.077219024
23	0xbd8b07d0	-0.067885995
24	0xbdf547a6	-0.119765565
25	0xbb5ab99a	-0.0033374787
26	0x3ea580f6	0.32324952
27	0xbe57a52f	-0.21059106
28	0xbddc3540	-0.10752344
29	0xbe12bee4	-0.14330631
30	0x3c664108	0.014053591
31	0xbd084964	-0.033273116
32	0x3e09dd60	0.13463354
33	0x3e05f94f	0.13083385
34	0xbd26fba6	-0.040767334
35	0xbd55c396	-0.05218848
36	0x3de6b7bb	0.112655126
37	0xbda023ed	-0.07819352
38	0x3e56707c	0.20941347
39	0x3d32cb41	0.04365087
40	0x3cb2d10b	0.021828195
41	0x3e9c7065	0.305545
42	0x3e1db3e6	0.15400657
43	0x3d69f5aa	0.05711905
44	0xbd36b25b	-0.044603687
45	0x3d805f48	0.062681735
46	0xbe3175f9	-0.17330159
47	0xbde47b28	-0.11156303
48	0xbe5feb47	-0.21867095
49	0x3e733175	0.23749335
50	0x3c177a2a	0.009245435
51	0x3d29531d	0.04133903
52	0xbe8c2ebd	-0.27379408
53	0x3dc80c14	0.09767929
54	0xbd86fac3	-0.06590798
55	0x3d031db6	0.032010756
56	0xbdc4f81b	-0.09617635
57	0xbdbd458f	-0.09241783
58	0x3e8dee0d	0.2772068
59	0xbc85b234	-0.016320325
60	0xbdcc77ba	-0.099837735
61	0xbd25b652	-0.040457077
62	0x3dc1b783	0.0945883
63	0xbdf170cf	-0.11789095
64	0x3dbaa741	0.091139324
65	0x3da9ee81	0.08297444
66	0xbf959c0c	-1.1688247
67	0xbe68b4c8	-0.22725213
68	0xbc1dcce2	-0.009631367
69	0xbe7da8f2	-0.24771479
70	0xbd23d2e9	-0.03999606
71	0xbe837f09	-0.25682858
72	0x3c8faafa	0.017537583
73	0xbe746731	-0.2386749
74	0xbd7d1ed5	-0.06179698
75	0xbe37d6eb	-0.17953078
76	0x3c9dad2d	0.019247616
77	0xbe8fda62	-0.280963
78	0x3e81a07d	0.25317755
79	0x3e15ce62	0.1462951
80	0x3dcf95ed	0.10136018
81	0x3e4163d3	0.18885736
82	0xbe776a5c	-0.24161667
83	0xbe7c113d	-0.24615951
84	0x3ed0e45c	0.40799224
85	0xbe8288e3	-0.2549506
86	0x3e79cd3f	0.24394701
87	0xbe39aca6	-0.18132266
88	0x3dc995d2	0.09843029
89	0xbe84e3d1	-0.2595506
90	0x3e3a949b	0.18220751
91	0x3d39a80a	0.04532627
92	0x3da0239f	0.07819294
93	0x3f0738c2	0.5282098
94	0xbe6732d1	-0.22577979
95	0x3e1b8d06	0.15190515
96	0xbedb3901	-0.42816928
97	0xbed7f2cb	-0.42177424
98	0x3f349fae	0.7055615
99	0xbf8c435e	-1.0958059
100	0x3e865065	0.2623321
101	0x3c8baf9a	0.017051507
102	0x3d12871e	0.03577339
103	0xbf1d530e	-0.61454856
104	0x3dc4a9a6	0.0960267
105	0x3df422cf	0.11920702
106	0xba111e85	-0.0005535859
107	0xbeb58209	-0.3545077
108	0xbd37379c	-0.044730768
109	0x3ad0e02c	0.0015935949
110	0x3dd7ea9d	0.10542796
111	0x3e10a052	0.14123657
112	0x3c2bcf2e	0.010486407
113	0x3dcc6a31	0.09981192
114	0xbe84459a	-0.25834352
115	0x3dc245b0	0.09485948
116	0xbd2223cc	-0.03958492
117	0x3df139ce	0.117786035
118	0x3ea45776	0.32097977
119	0x3dd72da1	0.1050675
120	0xbd8de61a	-0.06928654
121	0xbd3cb7b3	-0.046073627
122	0xbde9f078	-0.11422819
123	0xbc19cff1	-0.009387956
124	0xbe2e0301	-0.16993333
125	0x3e495627	0.19661771
126	0x3d0d34a1	0.03447402
127	0xbe89f194	-0.26942122
128	0xbce3f8ec	-0.027828656
129	0xbe7037ec	-0.23458833
130	0xbe586cb8	-0.21135223
131	0x3ec99ac3	0.39375886
132	0xbc811251	-0.015755804
133	0xbd8f89e5	-0.07008723
134	0xbe196669	-0.14980473
135	0xbe14c42b	-0.14527957
136	0xbe599370	-0.21247649
137	0x3d4efb08	0.05053237
138	0xbe37a881	-0.17935373
139	0xbe0991dd	-0.13434549
140	0xbeab07cd	-0.3340439
141	0xbe09a738	-0.13442695
142	0x3d806501	0.06269265
143	0xbe4a9fcd	-0.19787522
144	0xbdf4e746	-0.119581744
145	0x3dc78514	0.097421795
146	0x3e6d2d0b	0.23161714
147	0xbe36a247	-0.17835341
148	0xbde0bd36	-0.10973589
149	0xbe013c1b	-0.12620585
150	0xbe18b523	-0.14912848
151	0xbe1f8ec5	-0.15581806
152	0xbe5b5185	-0.21417816
153	0x3e0ae7ea	0.1356503
154	0xbdabfc65	-0.0839775
155	0xbe112e20	-0.14177752
156	0xbd8ec25d	-0.069706656
157	0x3d0e6460	0.034763694
158	0x3e1adbb7	0.15122877
159	0xbe4f21e4	-0.20227772
160	0x3e3afb36	0.18259892
161	0xbe07f84f	-0.13278316
162	0x3e80363c	0.25041378
163	0x3ed00af5	0.4063336
164	0x3ed94191	0.42432836
165	0x3e531451	0.20613219
166	0xbc5a8991	-0.013338462
167	0x3e8884bb	0.26663765
168	0xbdcd4d57	-0.10024517
169	0xbe04e50f	-0.12978004
170	0xbd809749	-0.06278855
171	0xbda6a3c2	-0.08136703
172	0xbd7761d0	-0.060396016
173	0x3cdf44b4	0.02725444
174	0xbd95decf	-0.07317888
175	0x3d895e28	0.06707412
176	0x3d079f01	0.033110622
177	0x3c1c1ef3	0.009528863
178	0x3e1fefe2	0.15618852
179	0xbd675f83	-0.05648757
180	0x3daa573f	0.08317422
181	0xbdb27d24	-0.08715275
182	0x3d10c31a	0.035342313
183	0x3dca3ef2	0.09875287
184	0xbe356911	-0.17715861
185	0x3e624657	0.22097145
186	0x3d4b2abd	0.049601305
187	0x3d7f92cc	0.062395856
188	0x3e409e25	0.18810327
189	0x3e6dd429	0.23225464
190	0xbd59e782	-0.0531993
191	0x3e16591b	0.14682429
192	0x3e026668	0.12734377
193	0x3dbaef5f	0.09127688
194	0x3d228621	0.039678697
195	0xbd43abff	-0.04777145
196	0xbe5ed86f	-0.2176225
197	0x3e7064a5	0.23475893
198	0x3e8b100a	0.27160674
199	0xbe0c9c01	-0.13731386
200	0x3cf42e8e	0.029807355
201	0xbeb4c4bd	-0.3530635
202	0xbe2fd191	-0.17169787
203	0x3e1cfb5b	0.1533026
204	0xbe44b297	-0.19208752
205	0xbe072486	-0.13197526
206	0x3d2e79ec	0.042596743
207	0xbdbfa524	-0.0935767
208	0xbdc7ecd7	-0.097619705
209	0x3e2294b0	0.15877032
210	0x3d2d036e	0.0422396
211	0xbe30c484	-0.17262465
212	0x3e7206a1	0.23635341
213	0x3c152367	0.009102679
214	0x3eb11cc1	0.3459225
215	0xbe61fe60	-0.22069693
216	0x3ddf2490	0.108956456
217	0xbe793513	-0.24336652
218	0x3da69997	0.08134764
219	0xbe45b07d	-0.19305606
220	0x3e08f58e	0.13374922
221	0x3e6c543d	0.2307901
222	0x3dda803d	0.10668991
223	0xbdb49ddc	-0.08819172
224	0xbd9eded6	-0.07757346
225	0x3bded0cb	0.0067997924
226	0x3e265dd2	0.16246727
227	0x3e348fd9	0.17632999
228	0x3eacb982	0.3373528
229	0x3ea68b9e	0.32528394
230	0xbd386dfd	-0.045026768
231	0x3eb44611	0.35209706
232	0x3c0ea4d2	0.008706288
233	0x3e1b6e6f	0.15178846
234	0xbdf6281d	-0.1201937
235	0x3e084e2f	0.13311075
236	0x3df593be	0.1199107
237	0x3e3ee617	0.1864246
238	0x3dfb1a96	0.1226093
239	0x3e82a157	0.25513718
240	0x3e6d0216	0.23145327
241	0x3c3d176e	0.011541231
242	0x3e0074a1	0.1254449
243	0x3d8fe94d	0.070269205
244	0x3e2ad44c	0.16682547
245	0x3e17c343	0.1482058
246	0xbddd60d9	-0.10809488
247	0x3e3234a9	0.17402901
248	0x3d0e3882	0.03472186
249	0x3ea9e672	0.33183628
250	0xbe77d4b0	-0.24202228
251	0x3e36fd23	0.17870001
252	0x3dbd1602	0.09232713
253	0x3dc7796f	0.097399585
254	0xbdc5f37b	-0.09665581
255	0x3d4d58ac	0.050133392

fc1.bias f4 [64]
0	0xbe7640cd	-0.24048157
1	0xbe903eca	-0.28172904
2	0xbe9545fb	-0.29154953
3	0xbe0d7b14	-0.13816482
4	0x3e015fce	0.12634203
5	0xbec38d86	-0.3819391
6	0xbe251fe5	-0.16125448
7	0xbf2a9054	-0.6662648
8	0xbd90256b	-0.07038387
9	0xbe23ceeb	-0.15996902
10	0xbd8571f0	-0.065158725
11	0xbe6909c5	-0.22757633
12	0xbdefc053	-0.11706605
13	0xbefd417b	-0.4946402
14	0xbe8dd070	-0.27698088
15	0xbc68d0db	-0.014209951
16	0xbec3821c	-0.38185203
17	0xbe06c432	-0.1316078
18	0xbeb699f8	-0.35664344
19	0x3e93720e	0.28797954
20	0xbf41de5e	-0.7572993
21	0xbe602268	-0.21888125
22	0x3c8477cb	0.016170403
23	0x3d40b908	0.04705146
24	0xbe629788	-0.22128117
25	0xbe8109a7	-0.25202677
26	0xbe165702	-0.14681628
27	0xbe155d35	-0.14586337
28	0xbf0b9da3	-0.5453741
29	0x3e446aa2	0.19181302
30	0xbedc9ea2	-0.43089777
31	0xbdc06808	-0.093948424
32	0x3df7fa10	0.121082425
33	0xbec30347	-0.38088438
34	0xbef7d451	-0.48404172
35	0xbea70245	-0.3261892
36	0xbc9fe745	-0.019519458
37	0xbddb8536	-0.10718767
38	0x3d38dd7a	0.04513309
39	0xbd8a42a4	-0.06750992
40	0x3d81bd0d	0.06334887
41	0xbecd9582	-0.40153128
42	0xbefe6156	-0.49683636
43	0xbf2e42f4	-0.6807091
44	0xbe71d65e	-0.23616931
45	0xbe5fd511	-0.21858622
46	0xbe3eb68f	-0.18624328
47	0xbe31aa24	-0.1735006
48	0xbc97eae9	-0.018544631
49	0xbf05f9ce	-0.52334297
50	0x3d956ea8	0.07296497
51	0xbec01427	-0.37515375
52	0xbec66c5a	-0.3875454
53	0xbf18ec2e	-0.5973538
54	0xbe182dbe	-0.148612
55	0xbeac987f	-0.33710095
56	0xbf2ba5c0	-0.6704979
57	0xbecc7fa9	-0.39941147
58	0xbcb256f7	-0.021769984
59	0xbccf0896	-0.025272649
60	0xbe8f22b2	-0.27956158
61	0xbedfdd29	-0.4372342
62	0xbed558c1	-0.41669276
63	0xbefb6c5f	-0.49106118

fc2.weight f4 [64, 64]
0	0xbd2fd106	-0.04292395
1	0xbdbddf9c	-0.09271166
2	0xbe0e5403	-0.13899235
3	0xbe50df90	-0.20397782
4	0x3cf0ca5c	0.029393367
5	0xbd9fa7f1	-0.07795704
6	0xbd59c6d5	-0.053168137
7	0x3da6c251	0.08142532
8	0xbd8ca43d	-0.068672635
9	0xbd857c01	-0.065177925
10	0xbe26e159	-0.16296901
11	0xbdd74423	-0.10511043
12	0xbd5c50d8	-0.053788036
13	0xbd558c2b	-0.052135628
14	0x3c83807c	0.016052477
15	0xbe9f7681	-0.311451
16	0x3d8fc3e8	0.07019788
17	0x3d39b447	0.04533794
18	0xbcdd5a5f	-0.027020631
19	0xbe19e1fb	-0.15027611
20	0x3e696fae	0.22796509
21	0xbdd3604f	-0.10321104
22	0xbd96afdb	-0.073577605
23	0xbd9869d1	-0.07442058
24	0x3d9dc9dc	0.07704517
25	0x3d412049	0.04714993
26	0xbd190e46	-0.037367128
27	0xbe41097b	-0.18851273
28	0x3c22cebd	0.009936986
29	0xbe4733f1	-0.19453408
30	0xbd38f8d5	-0.04515918
31	0xbdc75d01	-0.09734536
32	0xbe0780e8	-0.13232768
33	0x3d374c90	0.04475075
34	0xbd1d30f2	-0.038376756
35	0x3d5394ef	0.051655706
36	0x3dbd556e	0.0924481
37	0xbc41d0aa	-0.011829535
38	0xbe0114a3	-0.12605529
39	0x3d0890a4	0.033341065
40	0xbd9da8ef	-0.07698237
41	0xbc1b8468	-0.009492017
42	0xbcd65369	-0.02616282
43	0x3d2c2ec4	0.042036787
44	0x3cc67b37	0.024228675
45	0xbd66753d	-0.05626415
46	0x3d4faec4	0.05070378
47	0x3c476f9d	0.012172607
48	0xbe19262a	-0.14955965
49	0x3d0238d1	0.031792466
50	0xbe0ba479	-0.1363696
51	0x3dea3990	0.114367604
52	0xbdfc5008	-0.12319952
53	0x3dda71b6	0.1066622
54	0xbd4ce24a	-0.050020494
55	0xbe5ce862	-0.21573022
56	0x3e26621a	0.1624836
57	0xbda4cfda	-0.08047457
58	0xbd4350b0	-0.04768437
59	0xbe0bdf4c	-0.136594
60	0xbcc18d52	-0.023626957
61	0xbe05e9fb	-0.13077538
62	0x3cb1b2f9	0.021691786
63	0x3e4d9ef6	0.2008017
64	0xbdcfe854	-0.10151735
65	0xbe7332f1	-0.23749901
66	0xbdc26634	-0.0949215
67	0xbdc9c969	-0.09852869
68	0x3dbfd729	0.093672104
69	0xbe97e839	-0.2966936
70	0x3c899f4b	0.01679959
71	0xbe79b226	-0.24384364
72	0xbe1a8977	-0.15091501
73	0xbe01a94f	-0.12662242
74	0xbcbaf48d	-0.022821689
75	0xbdab2908	-0.083574355
76	0x3e0e52fd	0.13898845
77	0xbf086008	-0.5327153
78	0xbeb69fed	-0.3566889
79	0x3e0bf6d4	0.13668376
80	0xbe5da5b2	-0.21645239
81	0x3b962ba5	0.0045828396
82	0xbe5ccf62	-0.21563485
83	0x3ddaf26a	0.10690768
84	0xbdc986fa	-0.09840198
85	0x3dba908f	0.091096036
86	0xbe668fbb	-0.22515766
87	0x3d0d8b87	0.03455689
88	0xbed3f920	-0.41401005
89	0xbd1f16db	-0.038840156
90	0xbe55e982	-0.20889857
91	0xbdeaa374	-0.114569575
92	0xbd5fb3fe	-0.054615013
93	0xbd9cb77b	-0.076521836
94	0xbe4b0f25	-0.19829996
95	0x3d472563	0.04861964
96	0xbeb322fd	-0.3498763
97	0xbeb03c05	-0.3442079
98	0xbd809c2d	-0.06279788
99	0xbb369b8b	-0.0027863707
100	0xbeb3b502	-0.35099036
101	0xbd1ad1d7	-0.037797775
102	0xbdf88aa3	-0.12135818
103	0xbd9fce53	-0.07803025
104	0xbd0f0a8d	-0.03492217
105	0x3d1aa9d9	0.037759636
106	0xbdd438bb	-0.10362383
107	0x3da4ae14	0.08041015
108	0x3d438a5c	0.04773937
109	0x3e494edb	0.19658987
110	0xbeb0841d	-0.34475794
111	0x3cc3f722	0.023921553
112	0xbe093ad1	-0.13401343
113	0x3b42b1ac	0.0029707951
114	0xbc9085f4	-0.017641999
115	0xbdd3838e	-0.103278264
116	0xbe351fe4	-0.17687947
117	0xbe0b0cc2	-0.13579085
118	0x3bffa616	0.0078017814
119	0x3c134ee3	0.008990976
120	0xbe9593d1	-0.29214337
121	0xbcaf7e56	-0.021422546
122	0xbe70ee37	-0.23528372
123	0xbdd7ac36	-0.105308935
124	0xbe18e4a0	-0.14930964
125	0xbd5bc34d	-0.05365305
126	0x3da0e1e3	0.078555845
127	0x3d04896f	0.03235763
128	0xbdd176b9	-0.10227723
129	0xbe2a146d	-0.16609354
130	0xbe6f0ada	-0.23343983
131	0xbd3125f6	-0.043249093
132	0x3d03f692	0.03221757
133	0xbdc5ff92	-0.09667887
134	0xbe3d8571	-0.18507935
135	0xbdbd0e78	-0.09231275
136	0x3cabe5d6	0.020983618
137	0x3d710f0d	0.058852244
138	0xbdcf68bd	-0.10127399
139	0x3e20be2f	0.1569755
140	0xbdec44b8	-0.115365446
141	0xbddccab8	-0.10780853
142	0xbdd63f5b	-0.10461303
143	0x3c5dc592	0.013535874
144	0x3d7292ea	0.05922214
145	0xbdebec47	-0.11519676
146	0xbd218869	-0.03943673
147	0xbd5b885f	-0.05359685
148	0xbc7f4efb	-0.015582795
149	0x3ccea243	0.025223857
150	0xbd467c2d	-0.048458267
151	0xbd97401b	-0.07385274
152	0xbd0a456f	-0.033757623
153	0xbce4b5f2	-0.02791879
154	0xbd01943e	-0.031635515
155	0x3d9014a3	0.07035186
156	0xbccaaa91	-0.024739536
157	0xbdf4f94f	-0.11961614
158	0xbdb0006a	-0.08593829
159	0xbdee4dde	-0.11635946
160	0xbc8e2e46	-0.01735605
161	0xbe1f236c	-0.15540856
162	0x3ddbce8a	0.107327536
163	0x3b2289c2	0.0024801348
164	0x3d8e7f93	0.069579266
165	0xbe0452d4	-0.12922221
166	0xbd57ea30	-0.052713573
167	0xbe37e03f	-0.17956637
168	0xbdaa1fc6	-0.083068416
169	0xbd07970a	-0.033103026
170	0xbc3928fe	-0.011301277
171	0x3d236a64	0.039896384
172	0x3d64d6ba	0.05586884
173	0xbd9a075a	-0.075209334
174	0xbde8c9bf	-0.11366605
175	0xbd3eb243	-0.046556722
176	0xbc984fed	-0.0185928
177	0xbd22b631	-0.039724533
178	0xbdb20900	-0.08693123
179	0xbbaf9823	-0.0053587123
180	0xbe4ff8ae	-0.20309708
181	0x3db9ddfd	0.09075544
182	0xbe5ffe56	-0.21874365
183	0xbe38d8e8	-0.18051493
184	0xbaffaf9c	-0.0019507292
185	0x3dd7130e	0.10501681
186	0xbd30046a	-0.04297296
187	0xbe0e374f	-0.13888286
188	0x3db75e68	0.089535534
189	0x3d8174d2	0.0632111
190	0x3d7e9243	0.062151205
191	0x3e110433	0.14161758
192	0xbdd87f1e	-0.10571121
193	0xbc8a8edd	-0.016913826
194	0xbe0e2402	-0.13880923
195	0x3dbcac46	0.09212546
196	0xbd84fa81	-0.06493092
197	0x3db37996	0.08763425
198	0xbe3a856a	-0.18214956
199	0xbb81961b	-0.0039546615
200	0xbcba5827	-0.022747112
201	0x3db6468f	0.08900177
202	0x3d0dee29	0.034650955
203	0xbe0716b8	-0.1319226
204	0xbe01993a	-0.12656108
205	0xbdf403be	-0.11914776
206	0xbdd6fb10	-0.10497105
207	0xbd8de117	-0.06927698
208	0xbd8cfff0	-0.06884754
209	0xbd1c79b5	-0.038202006
210	0x3c7b3fec	0.015335064
211	0xbe1c5199	-0.15265502
212	0xbe166c1b	-0.14689676
213	0x39a6dba5	0.00031825635
214	0xbe165241	-0.14679815
215	0xbe484dd7	-0.19560944
216	0xbe25a833	-0.16177444
217	0xbd190012	-0.037353583
218	0xbe3ddf85	-0.18542297
219	0xbcf3fdfc	-0.029784195
220	0x3d9d4c35	0.07680551
221	0xbcc50e33	-0.024054622
222	0x3c653a7f	0.013990997
223	0x3d7ad375	0.061236817
224	0xbe0ee029	-0.13952698
225	0x3cee3222	0.02907664
226	0x3d065888	0.032799274
227	0x3c762309	0.0150230015
228	0xbe17a8ec	-0.14810532
229	0x3d9e2a95	0.07722966
230	0xbdfc2f6f	-0.12313735
231	0x3d78606e	0.060638838
232	0xbe0c0b99	-0.13676299
233	0xbbe8baae	-0.007102332
234	0x3d965fa1	0.073424585
235	0xbdbffe55	-0.09374682
236	0xbe2c0dc6	-0.16802129
237	0xbe10f5da	-0.14156285
238	0x3da7ebc9	0.08199269
239	0xbd55a7f4	-0.052162126
240	0x3c3b472d	0.011430544
241	0xbcdc03e4	-0.026857324
242	0x3d3f34ff	0.0466814
243	0xbdcc5afe	-0.09978293
244	0x3d5385a3	0.051641118
245	0xbcf7695b	-0.030201605
246	0x3c80a61b	0.015704205
247	0xbdadee4d	-0.08492718
248	0x3d39722d	0.045274902
249	0x3d707922	0.05870927
250	0xbe726695	-0.23671944
251	0xbcb7ac37	-0.022420986
252	0xbd4a87b0	-0.049445808
253	0xbced7446	-0.028986108
254	0xbd75d722	-0.06001962
255	0x3cbb3104	0.02285052

fc2.bias f4 [64]
0	0xbdfb6c16	-0.12276475
1	0xbd46a14e	-0.048493676
2	0xbda3a640	-0.07990694
3	0xbd41055f	-0.047124263
4	0xbd936e66	-0.07198791
5	0x3d54f0d1	0.051987473
6	0x3eac1fd7	0.33618042
7	0xbb42baaf	-0.0029713323
8	0x3d5d2925	0.053994317
9	0xbbab3f6a	-0.0052260654
10	0x3d79005b	0.060791355
11	0x3a1d4275	0.00059989776
12	0x3d2e33c1	0.042529825
13	0x3d1d8ebd	0.038466204
14	0xbbff50dd	-0.007791622
15	0xbe47cb2d	-0.19511099
16	0x3e08f412	0.13374355
17	0x3f09a859	0.53772503
18	0x3dda1874	0.10649195
19	0x3e836054	0.2565943
20	0xbd282a87	-0.041056182
21	0x3da4b31e	0.080419764
22	0xbd9f39fd	-0.07774732
23	0xbde55345	-0.11197523
24	0x3d53767e	0.051626675
25	0x35890f60	1.021177e-06
26	0xbe323499	-0.17402877
27	0xbe94b67a	-0.2904547
28	0x3f0a80bb	0.5410268
29	0xbdb8381e	-0.089950785
30	0xbe154e84	-0.14580733
31	0xbd548e99	-0.051893804
32	0x3daaf03f	0.083466046
33	0x3d7b69b6	0.06138011
34	0xbdac0784	-0.08399871
35	0xbda13648	-0.078716815
36	0xbd595bb3	-0.053065967
37	0xbe4f4ac1	-0.2024336
38	0xbd2c2caf	-0.0420348
39	0x3d4c72da	0.04991422
40	0xbe37d415	-0.17951997
41	0xbe38af60	-0.1803565
42	0x3d28fd6a	0.0412573
43	0xbe14e275	-0.14539512
44	0xbd7e5d42	-0.062100656
45	0xbca7f7dd	-0.020503933
46	0x3cc468ac	0.023975693
47	0x3e121401	0.14265443
48	0xbd0c0492	-0.034184046
49	0xbd2a2d16	-0.041546904
50	0x3d692a1b	0.05692492
51	0xbd0e6929	-0.034768257
52	0xbe3cb087	-0.18426715
53	0xbd60879b	-0.054816823
54	0xbe60fa23	-0.2197042
55	0xbe6cb5e9	-0.23116268
56	0x3da10919	0.07863063
57	0x3d339e01	0.043851856
58	0xbe23892e	-0.15970299
59	0xbf303406	-0.6882938
60	0x3d10668a	0.03525404
61	0x3cd53b8f	0.026029376
62	0x3e91f4d2	0.28507096
63	0x3d5b81df	0.05359065

fc3.weight f4 [1, 64]
0	0x3c64a170	0.013954505
1	0x3e1bc12c	0.15210408
2	0x3d071e49	0.032987867
3	0x3c0afddc	0.008483376
4	0xbd5ddba3	-0.05416454
5	0x3cb9b100	0.022667408
6	0x3dca73ea	0.0988539
7	0x3be501bd	0.0069887326
8	0xbc958d62	-0.018255893
9	0x3d16ff0f	0.036864337
10	0x3a075bf9	0.00051635463
11	0xbb78f578	-0.0037988108
12	0x3c97eb8c	0.018544935
13	0x3c94fa53	0.01818577
14	0x3cb883c3	0.022523766
15	0xbc2f94ef	-0.010716661
16	0x3ddbe608	0.10737234
17	0xbdd35dbb	-0.10320612
18	0x3d424c66	0.04743614
19	0x3e28c79a	0.16482392
20	0xbdc3cdbc	-0.09560725
21	0xbd738bc8	-0.059459478
22	0x3a9e0c7e	0.0012058166
23	0x3b25b7c8	0.0025286544
24	0x3afa25eb	0.0019084787
25	0x3c1d5588	0.009602912
26	0xbb3fca34	-0.002926481
27	0xbce6a7b5	-0.02815614
28	0x3e0cd689	0.13753714
29	0x3b818670	0.003952794
30	0xbc1cc19e	-0.009567646
31	0xb9942541	-0.00028256516
32	0x3d0cc9ba	0.03437207
33	0xbb263633	-0.0025361895
34	0x3cde0e4e	0.02710643
35	0xbba48f7f	-0.005021989
36	0x3c9c6180	0.01908946
37	0xbd529d1c	-0.051419362
38	0x3bcbe4ec	0.006222358
39	0xbbe2059c	-0.0068976413
40	0xbd034360	-0.032046676
41	0xbc412e35	-0.011790802
42	0x3c83e40a	0.016099948
43	0x3cd7dd1e	0.026350554
44	0x3d0151ef	0.03157228
45	0x3c3f60f4	0.01168083
46	0xbb14eb0f	-0.0022723114
47	0x3e15fb7c	0.14646715
48	0x3a3f1855	0.00072896975
49	0xbc9c41db	-0.019074371
50	0x3c82d7cb	0.015972039
51	0xbbbee8aa	-0.0058260756
52	0xbd039519	-0.032124612
53	0x3bab24c8	0.0052228905
54	0x3c0b1b0e	0.008490337
55	0xbdeff0bb	-0.117158376
56	0xbda17872	-0.07884301
57	0x3c28fd34	0.010314275
58	0x3cd46ebd	0.02593171
59	0xbe4ae40e	-0.19813558
60	0x3bf09a1a	0.007342589
61	0xbc723c63	-0.014784905
62	0x3d6c8b6e	0.057750158
63	0x3c1da7a0	0.009622484

fc1.weight f4 [64, 1]
0	0x3f2a5f7d	0.66551954
1	0xbf27d37d	-0.6555708
2	0xbeea819a	-0.45802003
3	0xbeb4993e	-0.35273165
4	0xbf5f92cf	-0.8733339
5	0x3f6787c1	0.9044152
6	0xbda1f8c5	-0.07908777
7	0x3f205378	0.62627363
8	0x3da1463d	0.07874725
9	0x3eab3b37	0.33443615
10	0xbd8b97a9	-0.06816036
11	0x3c15a23d	0.009132919
12	0x3c648d9a	0.013949776
13	0xbe77e699	-0.2420906
14	0xbd955130	-0.07290876
15	0xbcc20375	-0.023683289
16	0x3e146c30	0.14494395
17	0xbb82e700	-0.0039948225
18	0x3e80ad7b	0.25132355
19	0x3d808905	0.062761344
20	0xbe18567b	-0.1487674
21	0xbf1a9d36	-0.60396135
22	0xbe2ba370	-0.16761565
23	0xbf273b17	-0.6532454
24	0xbf9d81b7	-1.2305211
25	0xbe18ef3d	-0.14935012
26	0xba49bfbb	-0.00076961116
27	0x3f5e747d	0.86896497
28	0xbf92a38f	-1.1456164
29	0x3b7dac9c	0.003870762
30	0x3f44f34b	0.76933736
31	0x3f5f7b4d	0.8729752
32	0x3b852f9a	0.0040645124
33	0xbfa5213c	-1.2900767
34	0xbfc49795	-1.5358759
35	0xbec148dc	-0.377509
36	0x3f130621	0.57431227
37	0xbe2a9115	-0.16656907
38	0xbdf1e268	-0.11810762
39	0xbf25071c	-0.64463973
40	0x3f88f49c	1.0699649
41	0xbed8a05c	-0.42309844
42	0x3e627b0e	0.22117254
43	0xbd7d46e5	-0.06183519
44	0xbf12b890	-0.5731287
45	0x3dd96ac3	0.10616066
46	0xbf4f076c	-0.808707
47	0xbec2d441	-0.38052562
48	0xbef147f9	-0.47125223
49	0xbde08800	-0.1096344
50	0xbfa3b405	-1.2789313
51	0xbf48237d	-0.7817915
52	0x3c57fb51	0.013182477
53	0xbc6527e7	-0.013986564
54	0x3f91280c	1.1340346
55	0x3f8629ac	1.0481467
56	0xbd3fca20	-0.04682362
57	0xbf90447d	-1.1270901
58	0x3d4ab54f	0.049489316
59	0x3f253c4e	0.6454514
60	0xbee788b8	-0.45221496
61	0x3f58b44c	0.8465011
62	0x3f872d25	1.0560652
63	0x3ec4d44b	0.38443217

fc1.bias f4 [64]
0	0xbef91d51	-0.4865518
1	0xbed048a9	-0.40680435
2	0xbea2086c	-0.3164705
3	0xbd69cc78	-0.057079762
4	0xbf52d841	-0.8236123
5	0x3e89e051	0.26928952
6	0xbe1fb300	-0.15595627
7	0xbcf77552	-0.03020731
8	0x3cfbbcad	0.030729616
9	0xbb89dc3e	-0.004207163
10	0xbdf000e4	-0.1171892
11	0xbe3091b2	-0.17243078
12	0x3f252916	0.6451582
13	0xbea10f51	-0.31456998
14	0xbf6d15ae	-0.92611206
15	0xbdd73cbf	-0.10509633
16	0xbf33ffe2	-0.7031232
17	0xbf412783	-0.75450915
18	0x3f5a2304	0.8520968
19	0xbe91856f	-0.28422114
20	0xbdc02506	-0.09382062
21	0xbf14423c	-0.57913566
22	0xbf639452	-0.88898194
23	0xbda585ba	-0.08082147
24	0xbe3a644b	-0.18202321
25	0x3f13bf8b	0.57714146
26	0xbc2605dc	-0.010133233
27	0x3e7498c2	0.23886397
28	0xbdda8403	-0.106697105
29	0x3e24e821	0.16104175
30	0x3f14677f	0.5797042
31	0x3eb1f69b	0.34758458
32	0x3e48ca90	0.19608521
33	0xbe3dd8ad	-0.18539687
34	0xbe5f480a	-0.21804824
35	0xbed163ff	-0.40896603
36	0x3e5fa161	0.21838905
37	0xbe3d7638	-0.18502128
38	0xbda966ab	-0.082715355
39	0x3eecbcd4	0.46237814
40	0xbf4f263a	-0.80917704
41	0xbf59b5c0	-0.85042953
42	0x3e9829ea	0.29719478
43	0xbe1ebb5a	-0.15501156
44	0xbd9fe328	-0.078069985
45	0x3efa4c3d	0.4888629
46	0x3f10f390	0.56621647
47	0xbd5cbc38	-0.053890437
48	0xbd949811	-0.07255567
49	0xbf29e072	-0.663581
50	0xbe3d2837	-0.18472372
51	0x3f103e52	0.56345093
52	0xbdd880d3	-0.10571446
53	0xbce82c3d	-0.028341407
54	0xbccfb19b	-0.025353244
55	0xbf44c22c	-0.7685878
56	0xbf1ad250	-0.6047716
57	0xbe2ccb56	-0.16874442
58	0x3e650e84	0.22368819
59	0x3ecb8e31	0.3975692
60	0xbccf73a0	-0.025323689
61	0xbf299fbf	-0.6625938
62	0xbf4b37ec	-0.79382205
63	0x3f849fd6	1.0361278
