maddpg_pytorch/models/cache_data/model/run51/incremental/model_ep7001.pt (torch, 690099 bytes, 168 tensors)

fc1.weight f4 [64, 1]
00000000: aa70 9b3f 9726 bfbe 178f 63be 7822 f3be
00000010: 77f7 04c0 4e96 fe3e 27b9 a1bd 15c3 2f3f
00000020: 88ad 94bc 37e9 923d 45e1 8bbd 4270 153c
00000030: 9aba b3bf 60b5 76be 3051 95bd e304 c2bc
00000040: 306c 143e 00e7 82bb 1847 9e3d 0e7b 803d
00000050: e5eb 97bd 1635 adbe 70a3 2bbe 1f09 b0be
00000060: 0cfa c0bf 912c b0be 95e5 9f3a 4a64 003f
00000070: 4d68 fdbf 26e3 9cbd d027 473d bd7f 543e
00000080: ec83 31be 4909 12c0 1540 90bf fcc5 66bd
00000090: 6bb6 eebc 0a45 3c3d 585a 61bd 21f5 c1be
000000a0: 3372 563e 5ca0 d8be 5b02 1bbe d44c 7dbd
000000b0: 8b7b 52be aac5 6dbd f4d2 b7bf 5daf 9abf
000000c0: c548 ecbe 0088 e0bd f7f2 34bf 216d 6fbf
000000d0: 83f5 433c a9a9 60bc 72a3 f73e c796 ed3e
000000e0: 20ca 3fbd 4ff3 e5bf bcb1 b8bd 76af 9f3d
000000f0: f797 ffbd 9dd1 243f ce37 5f3e 777f 733c
1.2143757 -0.3733413 -0.22222553 -0.47487235 -2.077604 0.49724048 -0.07896643 0.68657047
-0.018149152 0.071733885 -0.06830076 0.009121003 -1.4041321 -0.24092627 -0.07290876 -0.02368397
0.14494395 -0.0039948225 0.07728404 0.06273471 -0.0741804 -0.33829564 -0.16761565 -0.3438196
-1.5076308 -0.34409 0.0012199158 0.5015303 -1.9797455 -0.076605126 0.048621953 0.20751853
-0.1733548 -2.2818167 -1.1269556 -0.056341156 -0.029139718 0.04596428 -0.0550178 -0.3788233
0.20942001 -0.42309844 -0.15137617 -0.061840847 -0.2055494 -0.058049835 -1.4361253 -1.2084767
-0.4614927 -0.1096344 -0.70683235 -0.9352589 0.01196039 -0.013712325 0.48366886 0.46404096
-0.04682362 -1.7964877 -0.09018275 0.077971384 -0.12480157 0.64382344 0.21798632 0.014861933

fc1.bias f4 [64]
00000000: a84b 11bf c240 17bf fc85 e8be ad78 50bf
00000010: c846 9cbe 4bda eabf b306 20be 2019 78be
00000020: 5a0c a8bd 4cac bebe 8d71 f0bd 1399 30be
00000030: 228d cfbe 24dc a1be ae15 6dbf 3f87 d7bd
00000040: e2ff 33bf 8027 41bf fa98 a2be 5887 91be
00000050: fad5 1fbe 0d45 58bf 5294 63bf a08c f5be
00000060: 6991 86be 9b1f fdbe a80a a7bc 4a73 e6bf
00000070: 29ef 493f e664 e2be 829c 89be 3bfb 53bf
00000080: 755c 7dbe 2308 133f 64db b3bf 91d8 3abf
00000090: 47a8 90be 536b 08bf 3830 12be 3502 f0be
000000a0: 185f 7bbf c0b5 59bf 94be 88be a9be 1ebe
000000b0: 48ed 8abe 13e6 40be e6c1 d4be b419 c6be
000000c0: 65d1 26bf 72e0 29bf 76e0 87bf 6148 b0be
000000d0: f8b4 debd 38f7 ebbc eb65 cbbf 95b6 c2bf
000000e0: 50d2 1abf 8973 07bf 641a 84be 8042 b0be
000000f0: 315b 47be 3f67 0cc0 cdf8 e4bf 2ee3 48be
-0.5675607 -0.5908319 -0.45414722 -0.81434137 -0.30522752 -1.8347868 -0.15627556 -0.24228334
-0.08205481 -0.37240827 -0.11740408 -0.17245893 -0.40537363 -0.31613266 -0.92611206 -0.10523843
-0.7031232 -0.754509 -0.31757337 -0.28423572 -0.1560897 -0.84480363 -0.88898194 -0.4795885
-0.26282814 -0.49438176 -0.020390823 -1.8003933 0.78880554 -0.44217604 -0.26877218 -0.8280522
-0.24742301 0.5743429 -1.4051328 -0.72986704 -0.28253385 -0.53288764 -0.14276206 -0.46876684
-0.98191977 -0.85042953 -0.267079 -0.15502419 -0.27134156 -0.18837766 -0.41554183 -0.38691485
-0.6516326 -0.663581 -1.0615375 -0.3443022 -0.10874361 -0.028804407 -1.5890478 -1.521197
-0.6047716 -0.5291067 -0.25801384 -0.34425735 -0.1946838 -2.1938016 -1.7888428 -0.19617912

fc2.weight f4 [64, 64]
00000000: c7ff b5bd 9695 b63e d118 98bc fbd6 23bd
00000010: e368 853e fdcb 6ebd 8a41 b3bc 126e e8bb
00000020: 67e2 01be 3f84 eb3d d6db 93be b755 febd
00000030: 4433 343c 11dc 8ebd 70ea 9cbd 4332 8bbd
00000040: 3075 1e3d a8de e7bc a997 03bf b28b 5dbd
00000050: d1f1 9dbc 06c0 9d3e e463 2dbd 5ca9 82bd
00000060: 6602 7ebd 7122 b03d d8ac a2be 469c 70be
00000070: c6af 81bc 5e8a 8dbe e83a 89be 12c8 33be
00000080: 851f b1be 170a 983d 04f0 8f3e 8dcb 0abd
00000090: dc0b 93be 3464 313e 1a2b 59be 7a02 85be
000000a0: d784 81be 8059 69bd 011a 9dbe 7cf0 d13d
000000b0: 376a 43be bf01 04be 4456 0fbd b638 e9bd
000000c0: 2128 b8bd 606e 823b 9037 6e3d 7a1c 1ebe
000000d0: c5a7 8abe ed9e e8bd 0a1e 7ebe ed0b 28be
000000e0: ec1d a5bd c165 053e fffd b1be ecc4 0ebf
000000f0: 11e3 31be 780a 5ebe 0f68 e5bd 5705 3ebf
00000100: 65f9 f2bd 03cc efbd 3e16 0abd 0a64 17be
00000110: 3c70 703d 26d4 a63c 21a9 693d 2dfb 16be
00000120: 7a44 02be 144b bdbd 2b67 9ebc 745b ddbd
00000130: 9c49 94bc 0655 d0bd f080 1fbc af10 3fbe
00000140: 0813 ae3c d45a 713d 517e 23bd 6735 b2bc
00000150: 4880 39be 6e81 ba3d 7a32 df3d 1a65 1a3d
00000160: 5740 03bd 1653 28be 31df 13be a30b 4e3d
00000170: f4f5 60be 4ddd cebb befc 20be ab99 17be
00000180: 4c53 aebd 996f 5bbe a39e 1cbe e83c ba3d
00000190: 2250 663c 0c1d f23d 68c9 fdbd 3e8a 55be
000001a0: 4b2d 813d 8823 dabc 18c1 5dbe e1a6 e6bc
000001b0: c4ba 40be 2732 b63c 63dd 3cbd 437e 8cbe
000001c0: 0dcd 91be c065 33bc da2b 93bd 8487 8fbd
000001d0: 5699 57be 34c5 7dbd 87c0 35be 00e3 17be
000001e0: 9e6a aabd 2436 b0bc 6ae7 3dbd 0df1 d0bd
000001f0: 06e6 d9bd b643 8abb 5409 38bd e306 fbbd
00000200: 0516 a6be 385f 9d3d c062 edbb 4698 c2bd
00000210: 86a3 e83d c1ab e13c 688a f8bd d625 8cbe
00000220: 0199 3fbd 000d aabd 9939 23bc 77c7 2fbe
00000230: 8aa7 143d ba93 a4bd d4ce 103d bf19 18bd
00000240: 0891 f33c 0455 d43d 4281 06be 6cab 08be
00000250: 2744 27be 4019 a8bb 808b 72bd f475 46bd
00000260: 20eb d1bc 1ddc 13bd 3bec ed3c bfcc 36bd
00000270: 90ef 24bd a63c 10be 82df 42be 88d2 cd3c
00000280: 6a5c d2bd 18b3 ce3c 0084 973b f023 a3bd
00000290: bdaf 0cbc 9a77 8f3d e7df 94bd 627b 91bd
000002a0: d898 08be 00a0 e13a e7f4 19be fea6 18be
000002b0: 40bf 98bc ac9a ecbd 505f fb3c 3a08 e3bd
000002c0: 018a a2bd c46b 43bd c4f2 e9bd 25d9 573d
000002d0: 6a19 60bd bbe4 803d bf98 cebd 475a e6bd
000002e0: ccaa f0bd 545c 42bd fe62 553b 5c8a 52be
000002f0: 7414 33bd ec25 8dbb 51ae 2abc 298b 09bd
00000300: 312a 2abe c8bf 65bd 0580 0cbe c7fe 14be
00000310: 90ab 553d 7e3b 3cbe 85b7 26be 7986 a3bd
00000320: e16f 39be c620 d7bd 12ed 0bbd f13d 6fbd
00000330: 2e49 b03b 7186 6bbe 8073 8e3a c82d fbbd
00000340: 622f 8fbd 8203 90bd 9909 90bd 2497 cfbd
00000350: 3d09 3cbe ac71 b4bd 6c1a d4bd 1385 183c
00000360: 05d8 a4bd 4c8b efbd 3363 18be f815 4abe
00000370: 9e35 5fbe 1b7b 36be 65bc 54bd 82c4 a7bd
00000380: 30cb 16be d4ac 1fbe 4e89 a33d 4689 b83d
00000390: 6b13 a63c 705a 153d b995 27bd e0e0 20be
000003a0: a442 38be 6ccc fabd c828 c6bc d239 0dbe
000003b0: 9919 bfbd fe65 cabd 4446 7cbe 6ad7 1cbe
000003c0: 3a45 45bd 1042 cfbc acc5 5dbe 7a17 a2bd
000003d0: b674 c1bd 27bd 03be 3042 79bd fe69 b4bd
000003e0: c0d3 3cbd 1d65 4f3b 926b 13bd d4b5 0fbe
000003f0: 01e5 29be 5944 64be 021c 4cbd fe93 0ebe
-0.08886676 0.35661 -0.01856652 -0.039999943 0.26056585 -0.058300007 -0.021881837 -0.0070931995
-0.12684022 0.11499833 -0.2887866 -0.124186926 0.010998551 -0.06975568 -0.07661903 -0.06796696
0.038685977 -0.028304413 -0.5140329 -0.054088302 -0.019280346 0.30810565 -0.04233159 -0.06379959
-0.062014006 0.08600319 -0.31772494 -0.23497114 -0.015830886 -0.27644628 -0.26802754 -0.1755679
-0.3459436 0.074237995 0.28112805 -0.033885527 -0.28719985 0.1732338 -0.21207848 -0.25978452
-0.2529666 -0.05697012 -0.30683902 0.10250947 -0.19083486 -0.12891291 -0.03499438 -0.1138777
-0.08992029 0.003980443 0.058158457 -0.1544055 -0.27081123 -0.11358438 -0.24816146 -0.164108
-0.08062348 0.13027097 -0.34764096 -0.5576923 -0.17371775 -0.21683681 -0.11201488 -0.742269
-0.118639745 -0.11708834 -0.033712618 -0.14784256 0.058700785 0.020364832 0.05704606 -0.14744253
-0.12721434 -0.09242836 -0.019336304 -0.10808459 -0.018101506 -0.10172467 -0.009735331 -0.18658708
0.02124931 0.05892451 -0.039915387 -0.02175398 -0.18115342 0.09106718 0.108982995 0.037694074
-0.03204378 -0.16437945 -0.1444061 0.050304066 -0.21968824 -0.006313002 -0.15721413 -0.14804713
-0.08511981 -0.2142929 -0.1529489 0.09093648 0.014057191 0.118219465 -0.12391931 -0.20853516
0.06307467 -0.02662827 -0.2165569 -0.028155746 -0.18821245 0.022240711 -0.04610957 -0.2744008
-0.28476754 -0.010949552 -0.071860984 -0.070082694 -0.21054587 -0.061955646 -0.17749225 -0.14832687
-0.08321117 -0.021510191 -0.04636327 -0.10202227 -0.106395766 -0.0042194976 -0.04493077 -0.12257173
-0.32438675 0.07684177 -0.007244438 -0.095017 0.113593146 0.027547719 -0.12135774 -0.27372617
-0.046776775 -0.08303261 -0.009962463 -0.17165934 0.03629259 -0.08035989 0.035353497 -0.03713393
0.029732242 0.10367778 -0.13135245 -0.13346642 -0.16334592 -0.005129963 -0.05921507 -0.048452333
-0.025624812 -0.03609859 0.029043308 -0.044628855 -0.040267527 -0.14085636 -0.19030574 0.025124803
-0.10271533 0.025231883 0.00462389 -0.07965839 -0.008586821 0.07005234 -0.072692685 -0.071036115
-0.13339555 0.0017213821 -0.15034829 -0.14907452 -0.018645883 -0.11552939 0.030685097 -0.110855535
-0.079364784 -0.047710195 -0.11423257 0.05269732 -0.054711737 0.06293627 -0.10087728 -0.11247688
-0.11751327 -0.047451332 0.0032560225 -0.20560592 -0.043720677 -0.004307499 -0.010417537 -0.03357998
-0.16617657 -0.0560911 -0.1372071 -0.14550315 0.052165568 -0.1838207 -0.16280945 -0.07984633
-0.18109085 -0.10504298 -0.034161635 -0.05840868 0.0053798174 -0.23000504 0.0010868162 -0.122645915
-0.069914594 -0.07031919 -0.070330806 -0.1013625 -0.18362899 -0.08810744 -0.10356602 0.009309071
-0.08049015 -0.11696491 -0.14881591 -0.19734943 -0.21797797 -0.17820399 -0.05193748 -0.08191778
-0.14725947 -0.15593272 0.07985173 0.09010558 0.020272931 0.0364632 -0.04091427 -0.15710783
-0.17994171 -0.12246022 -0.024189368 -0.13791588 -0.09331054 -0.09882735 -0.24636179 -0.15316549
-0.048161723 -0.025300056 -0.21657437 -0.07914634 -0.09446089 -0.12865125 -0.060854137 -0.08809279
-0.046100378 0.0031645962 -0.03599126 -0.14034206 -0.16591264 -0.22291698 -0.049831398 -0.13923642

fc2.bias f4 [64]
00000000: a538 31bf 5f67 05be 9bb3 fcbe 9238 19be
00000010: ad53 8fbe 29fd 4cbd e457 1bbf 3552 70bf
00000020: 1982 81bd 84ce 84bd f7b7 11be cc6f 44be
00000030: 55f9 51be 51f6 29be ddcc e43e 6aa7 23be
00000040: f479 c7bd 8dcc 0bbe ae9b 49be 6a26 96be
00000050: fa61 15bf 2899 743f 6839 35be d522 c33f
00000060: 322f 37bd 7150 a4bd 741e 94bd 49f3 8bbe
00000070: b54d 4ebe 051d d3be 2c9e 87be 153d 27be
00000080: 1746 01bf 0391 4dbe 7d1a 01bc 0f12 babd
00000090: d59f a5be 99ea b5be 08ac 10be 0364 27c0
000000a0: cd24 65be 1946 1bbe 0658 a2be 8669 d9be
000000b0: 0a33 b63f 8679 6fbe fe0a f6bd fe47 20bf
000000c0: 88f5 c9be 21b5 dfbd 5fef f7bd 5608 48be
000000d0: 7e78 84bc bb17 2bbe 7fd7 4fbe 6c5b b4be
000000e0: f0e1 50be 5f52 33bc a368 d9bd 1667 e2bd
000000f0: 71f8 9dbe 0924 64bf d2d5 edbc 10ad 2bbc
-0.6922706 -0.13027714 -0.49355778 -0.14962986 -0.27993527 -0.05004612 -0.60680985 -0.9387544
-0.06323642 -0.06484702 -0.14230333 -0.19183272 -0.20505269 -0.16597869 0.44687548 -0.15981832
-0.097400576 -0.13652249 -0.19688293 -0.29326183 -0.58352625 0.955462 -0.1769768 1.5245005
-0.044722743 -0.080231555 -0.07232371 -0.2733405 -0.2014683 -0.41233078 -0.26487863 -0.16331895
-0.50497574 -0.20074849 -0.00787985 -0.09085476 -0.32348505 -0.35530546 -0.14128125 -2.6154792
-0.2237732 -0.15163459 -0.31707782 -0.4246332 1.4234326 -0.23386201 -0.12013815 -0.6260985
-0.39445138 -0.109232195 -0.12106203 -0.1953443 -0.016170736 -0.16708271 -0.20297049 -0.35226
-0.20398688 -0.010944932 -0.10615661 -0.11054818 -0.30853608 -0.89117485 -0.029032622 -0.010478273

fc3.weight f4 [32, 64]
00000000: dedc a8bc e522 7c3d 2d40 ed3d 6a2e 10be
00000010: 1f70 8bbe 9915 d63c dfa9 79be 5507 28bf
00000020: 4730 05bf 612a c53f d244 d03d d856 503e
00000030: 2c43 78be e7d3 88bd f9b5 8f40 97f8 8cbc
00000040: c2fa 813e 90b8 963b 1736 93be 379c 83be
00000050: fb5a e3be 49be 09be 55fa ad3d 8a1b d8be
00000060: 1d20 3dbd 5908 773c 3eb0 8a3d 57e7 03bf
00000070: 19a6 d6bc 94e3 5a3d 9ad0 86bc 1bf9 11bd
00000080: bb5e 12be a2dd 5fbe e1eb 003c 52ec 94be
00000090: 10a7 443e d611 f0bd 7394 f33d aadf d43e
000000a0: e2e9 69bd db6a d9bc 253a a83d 94b6 d63d
000000b0: cf46 0540 bd04 40be 5ae9 7fbd dd16 8f3f
000000c0: 48ce 4fbd b059 2f3e 7304 0cbe 2417 96bc
000000d0: a2ed c73d cef5 023f b5ef c2bd 3cc5 63bd
000000e0: 7de0 55bd 79a7 543f b373 06c0 dada 163d
000000f0: 07f1 2abe 2ead c0be c6a4 c63e 8e3c e5bd
00000100: 28c2 d7be 58e3 db3c 1ad9 f63d da8a f0bd
00000110: b79e 47bd 5e1f 79bd c895 69be 1442 363e
00000120: aae1 293f 9120 c73e 0ca4 f6bd 4fb6 e5bc
00000130: 6a0f 773e 265e 333d 38ae ce3e 701a 8bbc
00000140: b9ac a43d f99a 9cbd 8755 3abe cdef 5e3e
00000150: fcad 04bf f00d 7dbf a16e 8bbd dc38 043f
00000160: 694f 0dbc bae9 42bd 3348 bdbc 20f5 0bbf
00000170: 09f9 6bbd 8450 8e3e cc45 fdbd 9d5f fcbd
00000180: 945d 25be 2914 fbbd 0e61 72bf 908b 9bbe
00000190: 5c26 723e 76e7 3fbe 61f9 053e f2a3 ebbe
000001a0: 5a10 06be 0371 203e a2e5 ecbc c006 a9be
000001b0: 80b1 8f3e e747 5ebd 738b de3c ac4b 0940
000001c0: 5880 ac3d 0fc3 a73e 6f42 d6bc 5a92 b53c
000001d0: 2b1a 9bbc f541 82bf e914 2fbe bf94 ea3b
000001e0: 70a8 743e 87c9 ab3f bacb 29bf 8d22 74bd
000001f0: 1621 41bf ddbd b7be 7ce2 833f 9264 983d
00000200: 47ba 5ebf 2e27 d0bd f739 0abe 662e ff3d
00000210: d61e 23be a6da 403c d618 1bbf ec23 b13e
00000220: 9cbc 3a3f f6a7 633f 9b9f 80bd f1e0 7e3e
00000230: 0bbd b9bd af44 393c e7d8 cf3c 19ab dabd
00000240: 1488 24bf 7a00 003e 9923 d0bd e158 b93e
00000250: 9018 07bf 1d17 17bf de6b 613d faff 693f
00000260: 0a44 c83c 6181 953d 1a6b 42bd 1fc0 3dbf
00000270: 9e2a c2bc cf0f 1f3d 8bdd e43d 0cda 88be
00000280: 45af 233e 5ff6 023e 4d0c 02bf 877d 1b3d
00000290: 53e2 23be c44b 83bd 2713 1cbf ee92 47be
000002a0: ffb2 873d 0efd 3bbe a308 793d 3657 8b3e
000002b0: 64a1 39bd 509a 133e 63fa b7bd 0a4f b03f
000002c0: ef16 2dbe 701f 3c3e 3b6e 0a3e a3eb 83bd
000002d0: 3ab8 003d 5fdb 7a3f 83f1 0b3e 0ca1 383f
000002e0: fe63 46be 2c96 35bf 8319 1dbf 9a61 d13c
000002f0: ae1f 48bf fdf3 3c3e 761f ab3f 2a33 a7bd
00000300: 83c8 2dbf 84a7 dc3c 5f87 46bb 20cf 3f3d
00000310: 4da3 24bd 0306 33be 849c b0be e2b1 863f
00000320: 767a 55bf 569d 7fbf 73d3 cebd b75d a7be
00000330: fccf 123e bfa8 2fbe 00a7 0cbf b62c 763d
00000340: ea92 913d 80d6 77be 99ac 2bbe 79ab b5be
00000350: 0bf7 a53e 0e3b 633e e77e 4e3e 04ee 2abe
00000360: 093b 8d3c 525d 433e 623e d03e c187 e43e
00000370: cdd8 1c3e 1f48 aabd e16c ccbd 3e19 be3e
00000380: 3e74 34bd c3eb 5cbe 5529 3abe d4fc 8bbf
00000390: f350 a2be 4ad8 9c3d 5cbe 263f bd85 b53e
000003a0: 56b7 5f3e b8e3 2abe 80e2 f33d 598e 58be
000003b0: 125e 993e a357 173c 2622 393e 85aa 853e
000003c0: f058 063e c97f 303d deb4 d93d 248a 19bc
000003d0: aa01 383e 4260 7dbe a1bd 773d 25bf e0be
000003e0: fcb9 8c3d 7da1 2cbf 0b0a 3b3e 4516 463e
000003f0: b1a2 e63e 5ebb 11bf 2656 0a3f 1488 acbd
-0.02061313 0.061556716 0.11584506 -0.14080206 -0.2723398 0.026133345 -0.24381207 -0.6563619
-0.5202679 1.5403558 0.101693764 0.20345628 -0.24244374 -0.06681042 4.4909635 -0.01720838
0.25386626 0.0045996383 -0.28752205 -0.2570512 -0.4440535 -0.13451494 0.08495013 -0.4220851
-0.046173204 0.015077674 0.06771897 -0.5152487 -0.026202248 0.05343969 -0.01645689 -0.035637956
-0.1429395 -0.2186189 0.007868738 -0.29086548 0.19204354 -0.11722152 0.11893549 0.41576892
-0.057107814 -0.02654021 0.08214215 0.10484043 2.0824468 -0.18751808 -0.0624784 1.1178852
-0.050733835 0.17124057 -0.13673572 -0.018321581 0.09762122 0.5115632 -0.09518377 -0.05560802
-0.05221604 0.83068043 -2.1008117 0.036829807 -0.16693507 -0.37632126 0.38797587 -0.111931905
-0.42140317 0.026841804 0.120531276 -0.11745234 -0.048735347 -0.06082093 -0.22811043 0.17798644
0.6635996 0.38892034 -0.12043008 -0.028041033 0.24126974 0.04379096 0.40367293 -0.01698038
0.08040757 -0.07646746 -0.18196689 0.21771164 -0.5182798 -0.9884939 -0.0680821 0.5164926
-0.00862489 -0.04758618 -0.023105716 -0.54670906 -0.057610545 0.27795804 -0.12366828 -0.12322924
-0.16148978 -0.122597046 -0.94679344 -0.30379915 0.23647445 -0.18740639 0.13083412 -0.46023518
-0.13092175 0.1566811 -0.028918091 -0.33012962 0.2806511 -0.05426779 0.027166104 2.1452436
0.08422917 0.32766005 -0.026154725 0.022164512 -0.018933376 -1.0176378 -0.1709782 0.007158845
0.23892379 1.3420876 -0.6632649 -0.059603263 -0.7544111 -0.35887042 1.0303493 0.07441057
-0.87002987 -0.10163723 -0.13498674 0.12460022 -0.15929732 0.01177088 -0.6058477 0.3459772
0.72944045 0.88928163 -0.06280442 0.24890496 -0.0906926 0.011307879 0.025371982 -0.106771655
-0.6427014 0.12500182 -0.1016304 0.36200622 -0.52771854 -0.59019643 0.05503451 0.91406214
0.024446506 0.07300068 -0.04746542 -0.7412128 -0.023701962 0.038833436 0.111750685 -0.26728857
0.15984829 0.12789296 -0.5080002 0.03796151 -0.16004305 -0.064109355 -0.60966724 -0.19489643
0.06625938 -0.18358251 0.060799252 0.27214974 -0.04531993 0.14414334 -0.08983304 1.3774121
-0.1690328 0.18371367 0.13518612 -0.064414285 0.031425692 0.97990984 0.13666348 0.7212074
-0.19374081 -0.7093227 -0.6136705 0.025559235 -0.7817334 0.18452449 1.3368976 -0.08164056
-0.6788408 0.026935346 -0.003029309 0.04682839 -0.0401948 -0.17482762 -0.34494412 1.0523036
-0.83389986 -0.9984945 -0.100989245 -0.32688686 0.14337152 -0.17154215 -0.5494232 0.060101233
0.071081 -0.24202919 -0.1676506 -0.35482386 0.3241504 0.22190496 0.20165597 -0.16692358
0.017240064 0.19078568 0.40672594 0.44634822 0.15317078 -0.08314537 -0.099817045 0.37128633
-0.04405617 -0.21574311 -0.1817983 -1.0936532 -0.31702384 0.07658441 0.65134215 0.35453597
0.21847281 -0.1668843 0.11908436 -0.21148051 0.29954582 0.009237203 0.18079433 0.2610666
0.13119864 0.043090615 0.10630201 -0.009371314 0.17969385 -0.2474375 0.06048358 -0.43895832
0.06871411 -0.6743391 0.1826555 0.19344433 0.45046 -0.56926525 0.540377 -0.08424392

fc3.bias f4 [32]
00000000: b6a1 353f 8be2 8a3d ad9f 383e 7470 acbf
00000010: 0352 78bf 1697 e9bf 2230 63bf 5d22 e73f
00000020: b2de 23bf ce75 febf 1dce f8be 4fe0 39bf
00000030: 2c74 69bf 48bc 033f 2a83 c83d a1e6 903f
00000040: a999 1dbf 359c 76bf 6ce5 20c0 65c7 aa3e
00000050: 4598 5abf 36ef d2bd f2cc 7ebe fef0 c13f
00000060: f54c c5bf 1b06 01bc 106f 103e 9156 1140
00000070: 18ed 843d 61d3 b4bf 4f58 2dbf f164 0ec0
0.70949876 0.06781491 0.18029661 -1.3471818 -0.9700014 -1.8249233 -0.8874532 1.8057362
-0.6401168 -1.9879701 -0.48594752 -0.7260789 -0.9119289 0.5145917 0.097906426 1.1320382
-0.6156259 -0.96332103 -2.5140028 0.3335525 -0.85388595 -0.10299532 -0.24882868 1.515167
-1.541411 -0.007874991 0.14104867 2.2709086 0.064905345 -1.4127008 -0.67712873 -2.224911

in_fn.weight f4 [33]
00000000: 0925 a03f 2200 d63e e2ff 4b3e c043 473e
00000010: 3e59 153e df78 783e e408 893e 6f78 1ebe
00000020: 1a9a 083f 015e 7e3e 30b8 8b3c d31c 963e
00000030: 71dc 1abe 8b9b de3d e4e4 4a3e 5ea7 b23e
00000040: 9c26 ce3e d26a 943e e546 f33d f4d7 15be
00000050: 53fb 993e b023 a43d 0170 7d3e a929 413e
00000060: 1704 4c3f ccd7 1d3c dec2 853e 820d 813e
00000070: 6da7 243f d799 ab3e 9ea8 123f 9981 f83e
00000080: d991 6d3f
1.2511302 0.41796976 0.1992183 0.19459438 0.14584824 0.24264859 0.26764596 -0.1547563
0.5336014 0.24840547 0.0170556 0.29318866 -0.15123154 0.10869511 0.19813877 0.34893316
0.40263832 0.28987747 0.118787564 -0.14633161 0.30074558 0.08014619 0.24749757 0.18863548
0.7969374 0.0096339695 0.26125234 0.25205618 0.6431797 0.33515808 0.5728854 0.48536375
0.9280067

in_fn.bias f4 [33]
00000000: 1906 b23d c5d7 103d 4193 1f3e de13 be3c
00000010: 98b6 66bb 70ef 113d 95fc 1cbe 06c4 5ebc
00000020: db7f 0c3d 3da4 403d 1cba 713c e8b4 d3bc
00000030: fb24 113d b82a bb3c becf 70bc 1a5e 903b
00000040: 16fe c43d cfd3 403e 135a 4abd 6247 653d
00000050: f4da 323d 4bee a6bc 6f9c 47bd 57d2 683c
00000060: 5702 ae3e 808f bd3d f0f2 193d 1ef7 b23c
00000070: ec5c 143e 175a 3e3d aab9 913e e131 163e
00000080: 97ef fc3d
0.08692569 0.035362024 0.15583517 0.023202833 -0.003520405 0.035628736 -0.15330727 -0.01359654
0.03430162 0.04703163 0.014753845 -0.025843099 0.035435658 0.022847518 -0.014697967 0.004405749
0.096187755 0.18830799 -0.049402308 0.05597628 0.04366584 -0.020377299 -0.04873317 0.014210305
0.3398616 0.09255886 0.0375852 0.02184635 0.14488572 0.046472635 0.28461963 0.14667465
0.12350386

in_fn.running_mean f4 [33]
00000000: 05c6 0e40 fbb3 143d 7634 f93b af09 173c
00000010: c79f 983b 8f91 6f3b ad8c 783b 1618 863b
00000020: 90bf ef3d 7061 a73b 7c7c 093b c0b7 163c
00000030: 16ea 643c 8372 783b bf0f 693c 621c 9c3c
00000040: 3b06 833d ea89 023c 4fb9 b03b d848 d43b
00000050: 75b0 033d e454 6a3b 65ac b43b 4006 9f3b
00000060: 28c1 9f3e 6a97 1b3b 8673 473c 7c2d 003c
00000070: b61b 553d cba3 263c a0f3 b63d 143e 663d
00000080: 8eca 973d
2.2308362 0.036304455 0.007605131 0.009218617 0.004657719 0.0036555266 0.0037925646 0.0040922267
0.117064595 0.005108051 0.002097874 0.009199083 0.013971826 0.0037910051 0.014224946 0.019056503
0.06397673 0.007967452 0.0053931843 0.00647841 0.032150704 0.0035756165 0.005513715 0.00485304
0.31202054 0.0023741373 0.012173539 0.007823344 0.05202838 0.010170887 0.089331865 0.056211546
0.07411681

in_fn.running_var f4 [33]
00000000: 0f0d d540 e08d 0e3d a31a f73b b06f 153c
00000010: 07cd 973b 3d9c 6e3b 7452 773b 1484 853b
00000020: 33b7 d33d 9d90 a63b bf21 093b f456 153c
00000030: b1b3 613c 568f 773b a8b8 653c 64c9 983c
00000040: 4da6 733d 8378 013c 1fa8 af3b 27c8 d23b
00000050: f6dc fe3c 426c 693b 55a8 b33b 1e13 9e3b
00000060: b54c 4d3e 5034 1b3b 1eef 443c d92e fe3b
00000070: b6d8 483d 07f1 243c 8895 993d 2186 573d
00000080: 4a02 8b3d
6.657844 0.03480327 0.007541017 0.009120867 0.0046325955 0.0036409043 0.0037738355 0.004074583
0.10337677 0.005083157 0.0020924655 0.0091149695 0.013775752 0.0037774644 0.014021076 0.018650718
0.05948477 0.007902267 0.005360618 0.0064325514 0.031111222 0.0035617505 0.005482713 0.0048240563
0.20048793 0.0023682304 0.012019901 0.0077570495 0.049034797 0.010067231 0.07499224 0.05261815
0.06787546

fc1.weight f4 [64, 33]
00000000: e0cf e73d 2d49 f2bc 1404 ffbe 894e 733c
00000010: cf7b 40be f1ea 613d 2c05 68bd a059 22be
00000020: 3159 333d 9583 55be 1caa 0cbe b7cc 06bc
00000030: 93d7 9b3e 9738 bf3d fa4d 2f3d f6bc 373e
00000040: 0ab8 c23c 64ca 2dbe c2bd 8bbe 569d bbbd
00000050: d899 983e 896a 13bf b1db 6c3d ffb5 93bb
00000060: b705 06be a22e 723d 8a4b 8b3b fe83 cabd
00000070: 12c5 c9bd 95a9 d93c 0ced e13d a2c2 52be
00000080: e28d b83c ae71 fc3c 1bad e3bc 680e cfbd
00000090: 34a7 543d af18 02bd e7a1 833d 168e 823d
000000a0: 428f 06bb 2f0d 2e3e 95b1 473c 8ec3 873d
000000b0: eb9f aebd a02d 013d 122e 43be ef85 3d3d
000000c0: 425b 8bbd c7a4 253e ce51 41bd 36c8 b7bb
000000d0: 2ede 47bd 525e aa3d e06d dbbd 92cf a53d
000000e0: 856d 17be ee3e 163a 0c6f 173e e517 16bd
000000f0: 9c02 273c 8354 b6bc 19df 0d3e 1577 d0bd
00000100: fafe 9d3d 84d9 3e3e def8 99bf f4e0 88be
00000110: d9bc 04bf 4f23 30bf ae0a 0e3f 38c1 b3be
00000120: 7ef5 21bd f38f 3fbf 1e27 bebd 9dd2 533e
00000130: 3c7b b4bd ff4f 45bf 4fd8 82be 96c6 143f
00000140: 29a0 7b3e 32ae 153e 2f55 08bf 9389 dabe
00000150: c322 75be 89e5 0e3f 8e2e 773d 284a aabe
00000160: cf71 6cbe 454d 323e 89ff ae3e 7d9e 5ebe
00000170: 6b3d d7be c787 af3e 6fb5 84be 17d8 72be
00000180: 4256 d33e eb8b a03e 05fc 643f c7e1 d1bf
00000190: d5d0 763e 8ae4 183e 220a a3be 0cb1 0fbf
000001a0: de53 253f 09e7 0abe 93c0 4ebe 84ce ea3e
000001b0: 904f 13be e7ff 6bbe b920 5b3d 44df 153e
000001c0: 4377 d9be 9649 843e eb3f 05bf 4dab 2fbf
000001d0: 7e2a 52bd de3c febe 5b08 9bbe 3e77 54be
000001e0: eeec 8cbc f0b2 a43e 3141 7dbe 54d6 7e3e
000001f0: 2155 60be 7004 983e 6e62 2fbd e6bc 0fbf
00000200: c7a1 bbbe 27e1 d8bd 5c00 16be 64bb 8c3f
00000210: 70ee 493e a495 48be c3df fdbe c164 1ebe
00000220: d15d 0fbe a6b6 a63e 2c1b eb3e 3b34 2d3e
00000230: 9344 5d3d 1fa6 b0be 2ed4 f0bd 0de8 253e
00000240: c433 2bbf 4743 08be 6b52 a03e 3a44 0d3e
00000250: 18fc 71be efbb 0fbf 46d4 b8bd 356b 953e
00000260: 1804 6ebe 5a28 cebd 5976 823c 20e4 4b3c
00000270: 86af 27be fb84 7b3e 6332 b9bc 741e 0ebe
00000280: e5ba 0d3f 00b0 e2bd 6048 533c 3c3c 99bd
00000290: 6afc 613e 33fe b03d 17a7 31bc 1720 463b
000002a0: 8a7e 6dbe b24f 0a3e c4f4 8ebe 5134 a73c
000002b0: 0d14 66ba 4089 4d3d ce74 40bd 9641 8e3d
000002c0: 3e37 35bc b8cc 043d e2a3 b13d c1b1 c43d
000002d0: 638e c63d 5d9e c9bd 73bb 313d 4aca 973d
000002e0: 3480 8fbd 91a2 0d3e 13c3 65bd ae76 cf3d
000002f0: 22ec 293d b76f dc3d d564 03be c274 e13d
00000300: 0968 4b3d 917f de3d fc31 be3d 02a3 42bc
00000310: e821 afbe 9304 903d 1817 30be e7ac 283e
00000320: 1709 12be a17a aabe 5d81 5cbe 9d0e 8b3d
00000330: 7e2e ca3d aa1f 3dbe b597 413e af40 f8bd
00000340: 2f07 183e 7e14 febc 4b51 093e 5422 64be
00000350: c7f8 323e e34d debc de63 7e3e cbe8 06bf
00000360: 6277 903d 3e04 86be 53d3 413b bc3c 57be
00000370: 9d10 cf3d 670a fd3d a97e fb3c 744e f5bd
00000380: 5aee 0cbe a803 ce3d 3163 a23d f717 3f3e
00000390: 1f31 293e 016a e23d 2a7f 8b3e 5b17 b63c
000003a0: 1941 4f3d ba24 0ebe 807d 3cbe 88ad c7bd
000003b0: e365 a1bd 807c 8d3e 97ea bfbc 065b 713e
000003c0: 88ea 21bd 8923 26bc 0e70 9a3e 859d 293e
000003d0: 9686 b93e 2365 663d 242c 813e 09bc 10be
000003e0: 9d38 a6bd b684 883c c9a4 903c 0edb 00bd
000003f0: 3a44 fe3c eaec 2c3e 764e 80be 0adf ffbc
0.11318946 -0.029575909 -0.498078 0.014850267 -0.18797229 0.0551557 -0.056645557 -0.15854502
0.04378623 -0.20850976 -0.13736767 -0.008227519 0.30437908 0.093369655 0.042798974 0.17943177
0.023769397 -0.16971737 -0.2729321 -0.09160869 0.29804873 -0.57584435 0.0578267 -0.0045077796
-0.13088118 0.059126504 0.0042509483 -0.09888457 -0.09852041 0.02657012 0.11031541 -0.20582059
0.022528592 0.030815925 -0.027792504 -0.1011017 0.05191727 -0.03176182 0.06427365 0.06374757
-0.0020532166 0.16997217 0.012188335 0.06629096 -0.08526596 0.031537652 -0.19060543 0.046270307
-0.068045154 0.16176139 -0.047197156 -0.005608584 -0.04879587 0.083187714 -0.10714316 0.080962315
-0.14787872 0.0005731423 0.14788455 -0.03664388 0.010193493 -0.022257095 0.13854636 -0.10178963
0.077146485 0.18637663 -1.2029073 -0.26734126 -0.5185066 -0.68803877 0.55485046 -0.35108352
-0.03954076 -0.74829024 -0.09284805 0.20685811 -0.088125676 -0.7707519 -0.25555655 0.5811552
0.24572815 0.14617231 -0.5325498 -0.42683086 -0.23939042 0.5581899 0.060347132 -0.33259702
-0.2309029 0.17412288 0.34179333 -0.21740146 -0.42039046 0.34283277 -0.25919673 -0.23715244
0.41276747 0.3135675 0.8944705 -1.6397027 0.241031 0.1493093 -0.31843668 -0.5612953
0.64581096 -0.13564695 -0.20190649 0.45860684 -0.1438582 -0.23046838 0.053498004 0.1463595
-0.42473802 0.25837392 -0.52050656 -0.6862076 -0.051310055 -0.49655813 -0.30279812 -0.20748612
-0.01720282 0.32167768 -0.247319 0.24886447 -0.21907474 0.29690886 -0.04281848 -0.5614761
-0.36646864 -0.105898194 -0.14648575 1.0994687 0.19719863 -0.19588333 -0.4958478 -0.15468122
-0.14000632 0.32561225 0.45919168 0.16914456 0.054020476 -0.3450174 -0.1175922 0.16201802
-0.66875863 -0.13306914 0.3131288 0.13795558 -0.23631322 -0.5614614 -0.09024863 0.29183355
-0.23243749 -0.1006629 0.015925573 0.012444526 -0.1637555 0.24562447 -0.022607034 -0.13878804
0.55363303 -0.110687256 0.0128956735 -0.07482192 0.22068945 0.08642235 -0.01084306 0.003023153
-0.23192802 0.13506964 -0.27921116 0.020410689 -0.00087767915 0.05017972 -0.046986394 0.06946103
-0.011060534 0.032421798 0.08673836 0.09604216 0.09695127 -0.098446585 0.043391656 0.074116305
-0.07006875 0.13831545 -0.05609424 0.10130058 0.04148496 0.107634954 -0.12831433 0.11008598
0.049659763 0.10864175 0.092868775 -0.011879684 -0.34205556 0.070321225 -0.1719631 0.16472207
-0.1426128 -0.33296683 -0.21533723 0.06789897 0.09872149 -0.1846911 0.18905528 -0.121217124
0.1484649 -0.03101563 0.13409917 -0.2227872 0.17477714 -0.027136749 0.24842784 -0.52698964
0.070540205 -0.26175112 0.0029575422 -0.21019262 0.101105906 0.123555 0.030700045 -0.11977854
-0.13762799 0.10059291 0.079290755 0.18661486 0.16522644 0.11055375 0.27245456 0.022227934
0.05059919 -0.13881198 -0.1840725 -0.09749895 -0.078807615 0.27634048 -0.02342729 0.23569879
-0.039530307 -0.010140308 0.30163616 0.16563995 0.36235493 0.056248795 0.2522899 -0.1413423
-0.08116267 0.016664844 0.0176567 -0.031458907 0.031038392 0.1688725 -0.2505986 -0.031234283

fc1.bias f4 [64]
00000000: ab91 71bf 87f1 4fbf fece 0ebf cc43 2cbf
00000010: 3e0f 08bf 0a91 60bf d2f8 60bf 1782 c3bf
00000020: 08b5 10bf 2775 b0be 07e8 68bf 6a7d 9fbf
00000030: 424a 5cbf 53c1 abbf f798 4dbf 6b85 fbbe
00000040: d253 a5bf 9fcf 82bf dc36 66bf 0c55 253f
00000050: a15e b8bf 3efd c4bf a354 02bf b9de 573c
00000060: 555c c3bf 6c26 debe 24f9 5dbf 0868 4dbf
00000070: 04f8 c1bf 0d71 0d3d 77ea 37bf 3b82 58bf
00000080: 971d 17be b0f4 81bf a10b 89bf aa90 02bf
00000090: f389 e8be 06f2 4dbf c3c0 e93e 9381 24bf
000000a0: dfea 33bf 3da8 6ebf 5ef2 babf 8b51 07c0
000000b0: b580 14be 0dc9 96bf 0cf7 efbe 40d4 4dbf
000000c0: bca1 4ebf 0a88 adbf af8d febe 5983 2ebf
000000d0: dd35 a6bf 6f75 d7bf 9985 4abf 2f41 82bf
000000e0: 62ca ccbf 73ba 62bf bec8 10bf 928e cd3d
000000f0: 7ed1 bcbf 0f84 40bf 1c49 4cbf 256c a2bf
-0.94362897 -0.81227916 -0.55784595 -0.6729095 -0.5314826 -0.8772131 -0.8787967 -1.5274075
-0.5652623 -0.3446438 -0.90979046 -1.2460148 -0.8605081 -1.3418373 -0.8031153 -0.49125227
-1.2916205 -1.0219611 -0.8992746 0.64582896 -1.4403878 -1.5389783 -0.50910395 0.01317566
-1.5262552 -0.4338869 -0.86708283 -0.80236864 -1.5153813 0.03453164 -0.7184214 -0.84573716
-0.14757381 -1.0152798 -1.0706674 -0.5100199 -0.45417747 -0.80447423 0.45654878 -0.64260215
-0.7028026 -0.9322546 -1.4605215 -2.114352 -0.14502223 -1.1780106 -0.4686817 -0.8040199
-0.8071554 -1.3557141 -0.4971747 -0.6816917 -1.2985188 -1.6832713 -0.79110104 -1.0176142
-1.5999262 -0.8856575 -0.5655631 0.10036959 -1.4751432 -0.75201505 -0.79799056 -1.2689253

fc2.weight f4 [64, 64]
00000000: e101 0e3d b90f dfbd 0354 0ebe 780b 74be
00000010: 622d ddba 9c96 51be c35e 36be c46b efbc
00000020: 2496 bcbd ac60 b4bc 0a03 3fbe fa93 8abe
00000030: 3ecc b8bd 83ae 23be 35ce 72bd 8176 9fbe
00000040: af7a fa3c 900b 043d 0456 09bd efed 0ebe
00000050: 81b7 923d 6049 3ebe 0e2f 89bd 1133 23be
00000060: 92c9 cbbd 4920 413d c741 10bd 7e11 bbbe
00000070: 2fb5 ff3c ab55 71be d4f1 34bd 912e babd
00000080: 2b57 02be fe8c 423d 864c 0ebd ef94 533d
00000090: 24a5 97bd 128f d33c 7860 07be 801d 4b3c
000000a0: 35de 5dbe 7310 2cbc ab3b d3bc b575 cb3c
000000b0: e238 b33c 40c7 45bd fc26 6d3d 0107 5e3c
000000c0: 010c 1dbe 002c 2b3d 3625 aabe b595 e73d
000000d0: 01c0 f4bd 26d1 813a aaa9 82bd 62e8 5cbe
000000e0: 47f1 98bb ac3c aabd 9089 0cbc a318 58be
000000f0: eb38 473c fbe9 05be 40d9 a83c db8b 92bc
00000100: 859f 06be 841d 8abe 1152 58be ef2f d5be
00000110: 3922 1dbc 5e69 d0be 8ba3 9abc e03f 6fbe
00000120: 7789 1abe 0a7f 1abe 4391 a6bd c33d abbd
00000130: 70f3 163d ba93 01bf f6b1 abbe 19ae dd3d
00000140: 3bde 58be 0e43 0bbd 62cf 5cbe 6491 c0bb
00000150: e4e8 1cbe 5bbb 6e3d dc85 a2be acb5 2cbd
00000160: 9a45 21bf 1009 bbbd 82e9 55be e279 2bbe
00000170: feb3 5fbd 7f02 2bbe 250f 4bbe 7852 353d
00000180: 0a28 2cbe 053c b0be 7375 68be a865 02bd
00000190: 8237 edbe 74d8 f6bd 9099 f8be c54a cabe
000001a0: 8428 88bd d9a9 1a3d bb38 d4bd fa92 a03d
000001b0: 4cdd 203d d718 433e d01e acbe 9036 4dbd
000001c0: 14cf 9fbe acb1 423b f388 93bd 1e33 52be
000001d0: e41f 35be 361f f4bd 16a6 ff3b 1ee7 73bb
000001e0: 4038 f5be 3537 bcbd 3ac4 79be 1139 d0be
000001f0: c03b 26be 4dc3 5bbd e48e a03d 66cf c73c
00000200: 4428 9cbe a71a 39be e174 a4be dc1c 22be
00000210: 7983 b7bd 8725 09be fa63 43be 2f20 a7be
00000220: 9f9c 993c 1d51 9b3a 36a1 dcbe 66fa 363d
00000230: cc68 24bf 2699 2bbd a2ae 2abe 92c5 5d3c
00000240: 578a 663c 2b30 a6be 544f 23bd ec01 fe3c
00000250: 6358 07bf ff9e 1dbe c7eb 94be e5c9 9abe
00000260: 3b26 f1be 65c6 81be 3e94 01bd 3010 d63c
00000270: 4614 3cbd b505 f4bd 6a00 b0bd d253 27be
00000280: 6e6f a4be 6be8 12be 7cc9 0c3d 858c 96bd
00000290: b22f 013e 4b40 87be 5aca 28bf 264e cbbe
000002a0: 7f0c 47be 0a97 07bd 5a4f 4bbe 8c20 98bc
000002b0: 7894 163d 98ac b4bd 886f 1abe 39b2 3ebd
000002c0: 76e0 0cbd 8ccf d7bd 0009 b2bd 1dad 793b
000002d0: aef8 4fbe 17b5 cebb dd5e 65be e8d8 38be
000002e0: 4edb 13bf 79f5 26be ee8a d5be b489 59bf
000002f0: 8bb2 a63d d274 813d 4392 7e3d c69b 4abe
00000300: 1e7f d8bd 7778 8cbc ab48 febd 0c9c d33d
00000310: 81fa 84bd a37e ed3d 6a85 3abe e7fd a5bb
00000320: cb24 a0bc 366e 58bd b979 dd3c b816 07be
00000330: 62ba ccbd f49e dfbd 56d9 d5bd 24e8 8dbd
00000340: 7756 7abd 6524 1bbd 6cdf 663c 9951 1cbe
00000350: 05df 67be c559 983c 4105 19be d74d 48be
00000360: aad2 30be 2012 17bd 22ac 3ebe 8ac3 103d
00000370: 0db6 c33d fa3a d9bc e21f 653c ec25 703d
00000380: 4eeb 0ebe c061 2cbb c858 063d d4a2 4f3c
00000390: eca8 17be d4e9 9d3d c435 adbe 89a4 6d3d
000003a0: cf9f 0cbe aeba e8bb f710 8b3d d430 d8bd
000003b0: a6f9 37be 403d 10be 10d5 a73d 68d3 5fbd
000003c0: 5bc9 f13b 8dba e5bc ff34 3f3d 22c3 d2bd
000003d0: 2b0a 483d 7aa3 12bd 7615 6c3c 4dee adbd
000003e0: de04 413d 2279 703d 1306 b2be 0adb 45bd
000003f0: 80a9 42bd 4674 edbc 22d7 75bd 6e01 b4bd
0.03466976 -0.10891671 -0.13899235 -0.238325 -0.0016874487 -0.20467609 -0.17809586 -0.029226191
-0.092083246 -0.022018753 -0.18653503 -0.27066022 -0.09023331 -0.1598454 -0.059278686 -0.311451
0.030576078 0.03223759 -0.033529297 -0.13957952 0.07163907 -0.18582678 -0.06698428 -0.15937449
-0.09950556 0.04714993 -0.03521898 -0.36536783 0.031214325 -0.23567836 -0.044175938 -0.09090913
-0.12728564 0.047497742 -0.034740947 0.051655706 -0.07404545 0.025825057 -0.13220394 0.01239717
-0.21666797 -0.010501969 -0.025785288 0.0248364 0.02187771 -0.048285723 0.057898507 0.013551475
-0.1533661 0.04179001 -0.33231515 0.11307851 -0.11950684 0.000990425 -0.06380017 -0.21573022
-0.0046674344 -0.083123535 -0.008577719 -0.21103148 0.012159566 -0.13077538 0.020611405 -0.017888954
-0.1314679 -0.26975644 -0.21125056 -0.41638133 -0.009590679 -0.4070539 -0.018876811 -0.2336421
-0.15091501 -0.15087524 -0.08133175 -0.083613895 0.036853254 -0.5061604 -0.3353421 0.10824222
-0.21178524 -0.033999495 -0.21563485 -0.005876707 -0.15323216 0.058284145 -0.31742752 -0.042165443
-0.6299683 -0.09132588 -0.20889857 -0.16745713 -0.054615013 -0.16700171 -0.19829996 0.0442681
-0.16812149 -0.3442079 -0.22701053 -0.03183523 -0.46331412 -0.12053004 -0.4855466 -0.3951017
-0.06648353 0.037759636 -0.10362383 0.078405336 0.039273545 0.19052444 -0.33617258 -0.050100863
-0.31212676 0.0029707951 -0.07203855 -0.20527312 -0.17687947 -0.119200155 0.0078017814 -0.0037216614
-0.47894478 -0.091902174 -0.2439126 -0.40668538 -0.1623373 -0.05365305 0.07839754 0.024390887
-0.3049947 -0.18076573 -0.32120422 -0.15831321 -0.08960623 -0.13393222 -0.19081107 -0.32641742
0.01875144 0.0011849735 -0.43091744 0.044672392 -0.6422241 -0.0418941 -0.1666818 0.013535874
0.014071069 -0.32458624 -0.039870575 0.031006776 -0.5286924 -0.15392683 -0.29086134 -0.30232158
-0.4709948 -0.25346676 -0.031635515 0.026130766 -0.04591777 -0.11915151 -0.08593829 -0.16340569
-0.32116264 -0.14346473 0.034371838 -0.07351021 0.1261585 -0.2641624 -0.65933764 -0.3970806
-0.1943836 -0.033103026 -0.19854489 -0.018570207 0.036762685 -0.08821982 -0.15081608 -0.046556685
-0.03439375 -0.10537633 -0.08693123 0.0038097568 -0.20309708 -0.0063082087 -0.22399469 -0.18051493
-0.5775651 -0.16304578 -0.41707557 -0.84975743 0.08139523 0.0632111 0.062151205 -0.19785985
-0.10571121 -0.017147286 -0.12416204 0.10332498 -0.06493092 0.1159642 -0.18214956 -0.005065668
-0.019548794 -0.05283948 0.027035581 -0.1319226 -0.09996487 -0.1091899 -0.10441844 -0.06929043
-0.061117616 -0.037876505 0.014091354 -0.15265502 -0.22643669 0.018597493 -0.1494341 -0.19560944
-0.17267862 -0.03688252 -0.18620351 0.03534273 0.09556208 -0.02651738 0.013984652 0.058629915
-0.13956949 -0.002630338 0.032799512 0.012673099 -0.14810532 0.07710615 -0.33830082 0.05801824
-0.13732837 -0.007102332 0.06790345 -0.10556188 -0.17966327 -0.14085865 0.08194935 -0.054644972
0.00737874 -0.028043056 0.0466814 -0.10291125 0.048837822 -0.035800435 0.014409414 -0.08492718
0.047123782 0.05870927 -0.3477026 -0.048304595 -0.04752493 -0.028986108 -0.06001962 -0.08789335

fc2.bias f4 [64]
00000000: 8665 33be 7b8d 67be 777b a0be 8e23 ecbd
00000010: 3abf 1dbe 69a8 c7be d47e cb3e a12b 8bbd
00000020: a476 89bd 6e61 c3bd da1d 93bd 5f95 49be
00000030: 208b 06bd be9c 73be 0eed d8bd b499 5cbe
00000040: 13ad e43e e0ce 4c3f bc62 61be 0c61 bc3c
00000050: 04f1 873f a50e 00be ad7b c8bd 72d3 d5be
00000060: 892d 253c 1a0b 98bd 81fa 3fbf 5b11 c4be
00000070: f413 313f a4b4 0ebe abf9 33be 8300 c0be
00000080: be15 c6bd e2ff f6bb 3930 f3be 539e 31be
00000090: 58c6 0cbe 9672 6fbe 3149 b9be 938a f73c
000000a0: f434 ffbe d359 43be 3eda 6ebe 4a57 17be
000000b0: 66e7 edbe fc43 18be 7f71 dfbd c281 183e
000000c0: 2480 b2be e32a 32be f574 12bd 41ce 90bd
000000d0: 543d 50be 058e dbbd 95f5 71be 4824 a5be
000000e0: 66c1 9f3f c642 8d3d 6e39 49be f06b 873e
000000f0: 3f97 98be c1a7 d8bc dfbb 523e 4354 8ebd
-0.17519197 -0.22612564 -0.31344196 -0.11530219 -0.15404978 -0.38995674 0.397452 -0.06795431
-0.06712082 -0.095400676 -0.07183428 -0.19685887 -0.032847524 -0.23790261 -0.105920896 -0.21543008
0.44663295 0.80003166 -0.2201032 0.022995494 1.0620427 -0.12505586 -0.09789214 -0.41762882
0.010081657 -0.074239925 -0.74991614 -0.3829449 0.6917107 -0.13936096 -0.1757571 -0.3750039
-0.09672116 -0.007537828 -0.47497728 -0.17345552 -0.13747537 -0.23383555 -0.36188653 0.030217445
-0.49845088 -0.19077234 -0.2332544 -0.14779392 -0.46465605 -0.14869684 -0.109103195 0.14893249
-0.3486339 -0.17399172 -0.03575607 -0.0707059 -0.20335895 -0.107204475 -0.23628838 -0.32254243
1.2480896 0.06897502 -0.19650814 0.26449537 -0.29802892 -0.026447179 0.2057948 -0.069496654

fc3.weight f4 [1, 64]
00000000: 867c 1bbe 5ce6 eebc 74a0 22bb e780 01bd
00000010: 9cb2 5a3c be25 a8bb 749a 883d 146f 9cbc
00000020: 5b9e 98bd 6203 353c a782 5bbc 3238 9f3d
00000030: e98f 50ba 5483 a43d 447b 8f3b d1d8 a7bb
00000040: c537 973d 4630 e4bd c2d3 89bd ab03 083e
00000050: b57e 5abe 6442 2c3c ee46 d6ba 042f 79bc
00000060: bbb7 493c 1881 56bc 4976 573e 8d34 8abc
00000070: 5e8e d73d b353 15bd cfc5 143d 0843 72be
00000080: 7bf0 523c f38a ea3b 0b43 8bbb 9aaa eb3b
00000090: eaa1 a93b 7439 51bd 9165 17be 1221 7b3d
000000a0: 88c9 6ebd cdd9 36bc b0d1 a6bd 196c d63c
000000b0: f1e5 7b3d fe9d c1bc 3a9f abbc 4cd6 473d
000000c0: 9f0b b23d 1bea 57bb 9cf9 ffbc d448 bcbc
000000d0: d6ec fcbc 9286 d73b c966 333c 1ddc c2bc
000000e0: 3d41 eabd bc5d 81bd 746e 503c bb20 33be
000000f0: 668d 0a3c 5af6 01bb 9f16 6b3d b912 993c
-0.1518422 -0.029162578 -0.0024814876 -0.03161707 0.013348248 -0.0051314523 0.066700846 -0.019095935
-0.07452079 0.01104817 -0.013397849 0.0777439 -0.00079560146 0.08032861 0.004378708 -0.005122282
0.07383684 -0.1114202 -0.06729843 0.13282649 -0.21337397 0.010513876 -0.0016348043 -0.015208963
0.012311871 -0.013092302 0.21041216 -0.016870761 0.10525201 -0.036456775 0.036321457 -0.23658383
0.012874718 0.0071576773 -0.0042499355 0.007191968 0.0051767724 -0.051080182 -0.14784838 0.061310835
-0.058297664 -0.011160326 -0.081454635 0.026174592 0.061498586 -0.023634907 -0.020949949 0.048788354
0.08693623 -0.0032945934 -0.031246953 -0.022983946 -0.03087465 0.0065773213 0.010949799 -0.023786599
-0.114382245 -0.063167065 0.012721647 -0.17492954 0.008456564 -0.0019830675 0.05739462 0.018685685

fc1.weight f4 [64, 1]
00000000: 23bc 913f 0127 bfbe 548f 63be f428 f5be
00000010: 20f9 00c0 7996 fe3e 68b9 a1bd d539 123f
00000020: 90ad 94bc 9be9 923d 37e1 8bbd 7b70 153c
00000030: f770 b4bf adb5 76be 3051 95bd 9b04 c2bc
00000040: 306c 143e 00e7 82bb 5f47 9e3d 577b 803d
00000050: 07ec 97bd 4035 adbe 70a3 2bbe 0512 b0be
00000060: 9d3e c4bf 7684 b0be 70e5 9f3a 7d64 003f
00000070: 2693 e4bf 83e3 9cbd 3a28 473d db7f 543e
00000080: 9a83 31be adbf 0cc0 5462 90bf 60c6 66bd
00000090: 69b6 eebc ba44 3c3d 7c5a 61bd 5ef5 c1be
000000a0: 4b72 563e 5ca0 d8be 4402 1bbe ca4c 7dbd
000000b0: d77b 52be 65c5 6dbd 6f89 b9bf 147a 9cbf
000000c0: 9d57 ecbe 0088 e0bd 8f02 35bf 5e2b 7abf
000000d0: def5 433c eca9 60bc f0a0 f73e c631 ee3e
000000e0: 20ca 3fbd 996b ecbf e1b1 b8bd 87af 9f3d
000000f0: b991 00be 3cde 243f c4a4 6c3e cd7f 733c
1.138554 -0.37334445 -0.22222644 -0.47882807 -2.0152054 0.49724177 -0.078966916 0.57119495
-0.018149167 0.07173463 -0.06830066 0.009121056 -1.4096974 -0.24092741 -0.07290876 -0.023683837
0.14494395 -0.0039948225 0.07728457 0.06273525 -0.074180655 -0.3382969 -0.16761565 -0.34388748
-1.5331608 -0.3447606 0.0012199115 0.5015333 -1.7857406 -0.07660582 0.048622347 0.20751898
-0.17335358 -2.199199 -1.1280007 -0.05634153 -0.029139714 0.04596398 -0.055017933 -0.37882513
0.20942037 -0.42309844 -0.15137583 -0.06184081 -0.20555054 -0.05804958 -1.4495066 -1.2224755
-0.46160594 -0.1096344 -0.7070703 -0.97722423 0.011960475 -0.0137123875 0.48364973 0.4652235
-0.04682362 -1.8470336 -0.09018303 0.07797151 -0.12555589 0.644016 0.23109728 0.014862013

fc1.bias f4 [64]
00000000: b598 16bf 8c40 17bf 0986 e8be f5c8 4fbf
00000010: e75e ddbe 21da eabf a506 20be ab63 84be
00000020: 290c a8bd f6ab bebe 6271 f0bd d698 30be
00000030: 3b45 cabe 2ddc a1be ae15 6dbf 4087 d7bd
00000040: e2ff 33bf 8327 41bf d998 a2be 5087 91be
00000050: d0d5 1fbe 1845 58bf 5294 63bf 6283 f5be
00000060: e9eb 74be ad9f fcbe 590a a7bc 2d73 e6bf
00000070: 51eb 783f e564 e2be 5b9c 89be 0cfb 53bf
00000080: 6a5c 7dbe f574 373f 37c9 b3bf 46d8 3abf
00000090: 44a8 90be 476b 08bf 1030 12be 0e02 f0be
000000a0: 0a5f 7bbf c0b5 59bf 7bbe 88be 84be 1ebe
000000b0: 13ed 8abe e3e5 40be e713 ccbe 4761 c2be
000000c0: 86cb 26bf 72e0 29bf 51da 87bf 4487 a0be
000000d0: c0b4 debd e5f6 ebbc 2a66 cbbf 13a9 c2bf
000000e0: 50d2 1abf 6be2 f2be 331a 84be 8242 b0be
000000f0: c5d9 46be 1365 0cc0 124f e3bf 33e3 48be
-0.5882676 -0.59082866 -0.4541476 -0.8116601 -0.43236467 -1.8347818 -0.15627535 -0.2585729
-0.08205444 -0.3724057 -0.11740376 -0.17245802 -0.39505944 -0.31613293 -0.92611206 -0.10523844
-0.7031232 -0.75450915 -0.31757239 -0.28423548 -0.15608907 -0.8448043 -0.88898194 -0.479518
-0.23918118 -0.49340573 -0.020390676 -1.8003899 0.97234064 -0.442176 -0.26877102 -0.8280494
-0.24742284 0.7166284 -1.4045781 -0.7298626 -0.28253376 -0.5328869 -0.14276147 -0.46876568
-0.98191893 -0.85042953 -0.26707825 -0.15502363 -0.27133998 -0.18837695 -0.39858934 -0.37964842
-0.651543 -0.663581 -1.06135 -0.313532 -0.10874319 -0.028804252 -1.5890553 -1.5207847
-0.6047716 -0.47438368 -0.25801238 -0.3442574 -0.1941901 -2.193669 -1.7758505 -0.1961792

fc2.weight f4 [64, 64]
00000000: a6ff b5bd 4295 b63e f318 98bc 34d7 23bd
00000010: 9368 853e e5cb 6ebd 4e41 b3bc d16d e8bb
00000020: 3be2 01be 0d84 eb3d ccdb 93be a255 febd
00000030: 1a33 343c b7db 8ebd 70ea 9cbd 3732 8bbd
00000040: 3075 1e3d a8de e7bc 5797 03bf 7c8b 5dbd
00000050: 37f2 9dbc d4bf 9d3e e463 2dbd 0fa9 82bd
00000060: 6e02 7ebd 7a22 b03d c5ac a2be f69b 70be
00000070: 73af 81bc 9a8a 8dbe b33a 89be 12c8 33be
00000080: 991f b1be 7f0a 983d 46f0 8f3e 7bcb 0abd
00000090: 980b 93be f663 313e 2b2b 59be 3b02 85be
000000a0: df84 81be 8059 69bd 331a 9dbe 64f0 d13d
000000b0: 076a 43be fa01 04be fb55 0fbd 8d38 e9bd
000000c0: fe27 b8bd 606e 823b d837 6e3d 681c 1ebe
000000d0: 8ba7 8abe a59e e8bd c61d 7ebe c50b 28be
000000e0: ec1d a5bd d665 053e 41fe b1be abc4 0ebf
000000f0: eae2 31be 700a 5ebe fd67 e5bd 2a05 3ebf
00000100: 6ef9 f2bd c1cb efbd 3b16 0abd b463 17be
00000110: 3c70 703d 70d4 a63c 70a9 693d 04fb 16be
00000120: 4744 02be 144b bdbd 0467 9ebc 705b ddbd
00000130: 9049 94bc 1055 d0bd f080 1fbc 5a10 3fbe
00000140: 0813 ae3c d45a 713d 257e 23bd 5635 b2bc
00000150: 2280 39be 6e81 ba3d 7a32 df3d 3b65 1a3d
00000160: 3b40 03bd dd52 28be ecde 13be e60b 4e3d
00000170: b5f5 60be 47dd cebb bdfc 20be 9c99 17be
00000180: 3153 aebd a46f 5bbe 609e 1cbe e83c ba3d
00000190: 6850 663c 0c1d f23d 66c9 fdbd 448a 55be
000001a0: 772d 813d 8823 dabc 00c1 5dbe bda6 e6bc
000001b0: 87ba 40be 6d32 b63c 12dd 3cbd 3f7e 8cbe
000001c0: d8cc 91be c065 33bc a02b 93bd 3387 8fbd
000001d0: 3899 57be 1ac5 7dbd 5ec0 35be a8e2 17be
000001e0: 9e6a aabd 0236 b0bc 16e7 3dbd ecf0 d0bd
000001f0: e4e5 d9bd 8b43 8abb 2209 38bd c206 fbbd
00000200: d115 a6be 385f 9d3d c062 edbb 4398 c2bd
00000210: 86a3 e83d 20ac e13c 6e8a f8bd 9325 8cbe
00000220: ae98 3fbd 000d aabd 6539 23bc 75c7 2fbe
00000230: b3a7 143d ba93 a4bd d4ce 103d bc19 18bd
00000240: 0891 f33c 0455 d43d 0b81 06be 57ab 08be
00000250: 2944 27be 4019 a8bb 808b 72bd b775 46bd
00000260: 20eb d1bc ccdb 13bd 74ec ed3c bacc 36bd
00000270: 90ef 24bd 743c 10be 5bdf 42be ded2 cd3c
00000280: 345c d2bd 18b3 ce3c 0084 973b f023 a3bd
00000290: 77af 0cbc 9a77 8f3d 90df 94bd 627b 91bd
000002a0: 9798 08be 05a0 e13a bcf4 19be c0a6 18be
000002b0: 40bf 98bc 919a ecbd 505f fb3c 2d08 e3bd
000002c0: 018a a2bd c46b 43bd c4f2 e9bd 47d9 573d
000002d0: 6519 60bd 01e5 803d 8798 cebd 2d5a e6bd
000002e0: ceaa f0bd 545c 42bd 3363 553b 4c8a 52be
000002f0: 7414 33bd d325 8dbb fdad 2abc 2b8b 09bd
00000300: f529 2abe 7dbf 65bd cf7f 0cbe d0fe 14be
00000310: 90ab 553d 5a3b 3cbe 89b7 26be 5986 a3bd
00000320: ba6f 39be 8420 d7bd efec 0bbd f53d 6fbd
00000330: 8949 b03b 6586 6bbe 8073 8e3a d22d fbbd
00000340: 622f 8fbd 8203 90bd 4809 90bd d396 cfbd
00000350: f608 3cbe ac71 b4bd 6c1a d4bd 2785 183c
00000360: d9d7 a4bd 4d8b efbd 2c63 18be d715 4abe
00000370: a835 5fbe 167b 36be 68bc 54bd 49c4 a7bd
00000380: f8ca 16be ccac 1fbe 4e89 a33d 4689 b83d
00000390: 7813 a63c 705a 153d 6995 27bd 9de0 20be
000003a0: 8e42 38be 6ccc fabd c328 c6bc bf39 0dbe
000003b0: 5619 bfbd eb65 cabd 4a46 7cbe 68d7 1cbe
000003c0: 0745 45bd 1042 cfbc b0c5 5dbe 2917 a2bd
000003d0: 7774 c1bd d7bc 03be 0642 79bd ca69 b4bd
000003e0: c0d3 3cbd 3665 4f3b 4c6b 13bd afb5 0fbe
000003f0: d1e4 29be 3144 64be cf1b 4cbd d793 0ebe
-0.08886652 0.3566075 -0.018566584 -0.040000156 0.26056346 -0.058299918 -0.021881726 -0.0070931693
-0.12683956 0.11499796 -0.2887863 -0.12418677 0.010998512 -0.06975501 -0.07661903 -0.06796687
0.038685977 -0.028304413 -0.514028 -0.0540881 -0.019280536 0.30810416 -0.04233159 -0.063799016
-0.062014036 0.08600326 -0.31772438 -0.23496994 -0.015830731 -0.27644807 -0.26802596 -0.1755679
-0.3459442 0.07423877 0.28113002 -0.03388546 -0.28719783 0.17323288 -0.21207874 -0.25978264
-0.25296685 -0.05697012 -0.3068405 0.10250929 -0.19083415 -0.12891379 -0.034994107 -0.11387739
-0.08992003 0.003980443 0.058158726 -0.15440524 -0.2708095 -0.11358384 -0.24816045 -0.1641074
-0.08062348 0.13027129 -0.34764293 -0.5576884 -0.17371717 -0.21683669 -0.11201475 -0.7422663
-0.11863981 -0.11708785 -0.033712607 -0.14784127 0.058700785 0.02036497 0.057046354 -0.14744192
-0.12721358 -0.09242836 -0.019336231 -0.10808456 -0.018101484 -0.101724744 -0.009735331 -0.18658581
0.02124931 0.05892451 -0.039915223 -0.021753948 -0.18115285 0.09106718 0.108982995 0.037694197
-0.032043677 -0.1643786 -0.14440507 0.050304316 -0.2196873 -0.0063129994 -0.15721412 -0.14804691
-0.08511961 -0.21429306 -0.1529479 0.09093648 0.014057256 0.118219465 -0.12391929 -0.20853525
0.063075 -0.02662827 -0.21655655 -0.028155679 -0.18821155 0.022240842 -0.046109267 -0.27440068
-0.28476596 -0.010949552 -0.07186055 -0.07008209 -0.21054542 -0.06195555 -0.17749164 -0.14832556
-0.08321117 -0.021510128 -0.04636296 -0.10202202 -0.10639551 -0.0042194775 -0.044930585 -0.12257148
-0.3243852 0.07684177 -0.007244438 -0.09501698 0.113593146 0.027547896 -0.12135778 -0.27372417
-0.046776466 -0.08303261 -0.009962414 -0.1716593 0.036292743 -0.08035989 0.035353497 -0.037133917
0.029732242 0.10367778 -0.13135163 -0.13346611 -0.16334595 -0.005129963 -0.05921507 -0.048452105
-0.025624812 -0.036098287 0.029043414 -0.044628836 -0.040267527 -0.14085561 -0.19030516 0.025124963
-0.102714926 0.025231883 0.00462389 -0.07965839 -0.008586756 0.07005234 -0.07269204 -0.071036115
-0.13339458 0.0017213827 -0.15034765 -0.1490736 -0.018645883 -0.11552919 0.030685097 -0.11085544
-0.079364784 -0.047710195 -0.11423257 0.052697446 -0.054711718 0.06293679 -0.10087686 -0.112476684
-0.117513284 -0.047451332 0.0032560348 -0.20560569 -0.043720677 -0.0043074875 -0.010417459 -0.033579987
-0.16617568 -0.05609082 -0.1372063 -0.14550328 0.052165568 -0.18382016 -0.1628095 -0.07984609
-0.18109027 -0.10504249 -0.034161504 -0.058408696 0.00537986 -0.23000486 0.0010868162 -0.12264599
-0.069914594 -0.07031919 -0.0703302 -0.10136189 -0.18362793 -0.08810744 -0.10356602 0.00930909
-0.08048982 -0.116964914 -0.14881581 -0.19734894 -0.21797812 -0.17820391 -0.05193749 -0.08191735
-0.14725864 -0.1559326 0.07985173 0.09010558 0.020272955 0.0364632 -0.040913973 -0.15710683
-0.17994139 -0.12246022 -0.024189359 -0.1379156 -0.09331004 -0.098827206 -0.24636188 -0.15316546
-0.048161533 -0.025300056 -0.21657443 -0.07914574 -0.09446042 -0.12865005 -0.06085398 -0.0880924
-0.046100378 0.003164602 -0.035991 -0.1403415 -0.16591193 -0.22291638 -0.049831208 -0.13923584

fc2.bias f4 [64]
00000000: 9a38 31bf 6767 05be 46b3 fcbe 7438 19be
00000010: a353 8fbe 33fd 4cbd d057 1bbf 2252 70bf
00000020: bf81 81bd 47ce 84bd c0b7 11be bf6f 44be
00000030: 60f9 51be 01f6 29be e97b 1f3f 29a7 23be
00000040: df79 c7bd 83cc 0bbe 939b 49be 2026 96be
00000050: 4e64 27bf dc2d 683f 3639 35be 23a1 bc3f
00000060: 2a2f 37bd 4d50 a4bd 341e 94bd 2ff3 8bbe
00000070: 874d 4ebe c81c d3be 339e 87be bd3c 27be
00000080: 8c43 01bf db90 4dbe ca7f 2abb d611 babd
00000090: d99f a5be 8eea b5be c8ab 10be cd63 27c0
000000a0: cd24 65be d845 1bbe 0158 a2be 4869 d9be
000000b0: 58be bb3f 5579 6fbe fa0a f6bd fb41 20bf
000000c0: 6bf5 c9be 00b5 dfbd 5aef f7bd 0f08 48be
000000d0: 5778 84bc 7517 2bbe 47d7 4fbe 565b b4be
000000e0: b0e1 50be 1a52 33bc a6c8 123e d966 e2bd
000000f0: 78f8 9dbe 5dff 51bf cdd5 edbc 11ad 2bbc
-0.6922699 -0.13027726 -0.49355525 -0.14962941 -0.27993497 -0.050046157 -0.60680866 -0.93875325
-0.06323575 -0.06484657 -0.14230251 -0.19183253 -0.20505285 -0.1659775 0.62298447 -0.15981735
-0.09740042 -0.13652234 -0.19688253 -0.29325962 -0.6538743 0.90694976 -0.17697605 1.4736675
-0.044722714 -0.08023129 -0.07232323 -0.27333972 -0.20146762 -0.41232896 -0.26487884 -0.16331764
-0.50493693 -0.20074789 -0.002601611 -0.09085433 -0.32348517 -0.35530514 -0.1412803 -2.6154664
-0.2237732 -0.15163362 -0.31707767 -0.42463136 1.4667463 -0.23386128 -0.12013812 -0.6260068
-0.39445052 -0.10923195 -0.121061996 -0.19534324 -0.016170664 -0.16708167 -0.20296966 -0.35225934
-0.20398593 -0.0109448675 0.14334354 -0.11054773 -0.3085363 -0.8203028 -0.029032612 -0.010478274
