maddpg_pytorch/models/cache_data/model/run51/incremental/model_ep6001.pt (torch, 690099 bytes, 168 tensors)

fc1.weight f4 [64, 1]
00000000: dcfb a73f 9726 bfbe 178f 63be a642 22bf
00000010: 7a93 c2bf 4e96 fe3e 27b9 a1bd 9b40 113f
00000020: 88ad 94bc 37e9 923d 45e1 8bbd 4270 153c
00000030: 6574 c7be 60b5 76be 3051 95bd e304 c2bc
00000040: 306c 143e 00e7 82bb 1847 9e3d 0e7b 803d
00000050: e5eb 97bd 1635 adbe 70a3 2bbe 7bdc dcbe
00000060: d1d5 7ebf 466b c7be 95e5 9f3a 4a64 003f
00000070: 7e52 e6bf 26e3 9cbd d027 473d bd7f 543e
00000080: ec83 31be 1b3d bdbf 4f55 bfbf fcc5 66bd
00000090: 6bb6 eebc 0a45 3c3d 585a 61bd 21f5 c1be
000000a0: 3372 563e 5ca0 d8be 5b02 1bbe d44c 7dbd
000000b0: 8b7b 52be aac5 6dbd 744d 4cbf 2812 2cbf
000000c0: 5479 24bf 0088 e0bd 68c0 88bf e336 37bf
000000d0: 83f5 433c a9a9 60bc 42ba f73e d4e1 f23e
000000e0: 20ca 3fbd f23e 8bbf bcb1 b8bd 76af 9f3d
000000f0: 0252 1dbe 167b 293f 59fe f03e 777f 733c
1.3123736 -0.3733413 -0.22222553 -0.6338295 -1.5201256 0.49724048 -0.07896643 0.56739205
-0.018149152 0.071733885 -0.06830076 0.009121003 -0.3895599 -0.24092627 -0.07290876 -0.02368397
0.14494395 -0.0039948225 0.07728404 0.06273471 -0.0741804 -0.33829564 -0.16761565 -0.43136963
-0.9954501 -0.3894903 0.0012199158 0.5015303 -1.7993925 -0.076605126 0.048621953 0.20751853
-0.1733548 -1.4784273 -1.4947909 -0.056341156 -0.029139718 0.04596428 -0.0550178 -0.3788233
0.20942001 -0.42309844 -0.15137617 -0.061840847 -0.2055494 -0.058049835 -0.79805684 -0.67215204
-0.6424763 -0.1096344 -1.0683718 -0.71568125 0.01196039 -0.013712325 0.4838429 0.47437918
-0.04682362 -1.0878584 -0.09018275 0.077971384 -0.15363315 0.6620344 0.47069052 0.014861933

fc1.bias f4 [64]
00000000: 8071 afbe c240 17bf fc85 e8be 96bd 34bf
00000010: 0b12 7fbf 4bda eabf b306 20be 2407 843d
00000020: 5a0c a8bd 4cac bebe 8d71 f0bd 1399 30be
00000030: dc6e 98be 24dc a1be ae15 6dbf 3f87 d7bd
00000040: e2ff 33bf 8027 41bf fa98 a2be 5887 91be
00000050: fad5 1fbe 0d45 58bf 5294 63bf 4cb3 b7be
00000060: 9ea2 2dbf f563 93be a80a a7bc 4a73 e6bf
00000070: f659 ac3f e664 e2be 829c 89be 3bfb 53bf
00000080: 755c 7dbe e32b c7be 6a34 94bf 91d8 3abf
00000090: 47a8 90be 536b 08bf 3830 12be 3502 f0be
000000a0: 185f 7bbf c0b5 59bf 94be 88be a9be 1ebe
000000b0: 48ed 8abe 13e6 40be 7bd8 0dbf 9bd8 2ebf
000000c0: fcfd 00bf 72e0 29bf b375 45bf 7bf2 a9be
000000d0: f8b4 debd 38f7 ebbc 3463 cbbf 6b40 c2bf
000000e0: 50d2 1abf 17cc 35bf 641a 84be 8042 b0be
000000f0: 12fe 33be 8089 0bc0 dbbc bdbf 2ee3 48be
-0.3426628 -0.5908319 -0.45414722 -0.70601785 -0.99636906 -1.8347868 -0.15627556 0.064466745
-0.08205481 -0.37240827 -0.11740408 -0.17245893 -0.2977208 -0.31613266 -0.92611206 -0.10523843
-0.7031232 -0.754509 -0.31757337 -0.28423572 -0.1560897 -0.84480363 -0.88898194 -0.3587898
-0.6782626 -0.287872 -0.020390823 -1.8003933 1.3464954 -0.44217604 -0.26877218 -0.8280522
-0.24742301 -0.3890067 -1.1578496 -0.72986704 -0.28253385 -0.53288764 -0.14276206 -0.46876684
-0.98191977 -0.85042953 -0.267079 -0.15502419 -0.27134156 -0.18837766 -0.5540845 -0.68299264
-0.5038755 -0.663581 -0.7713272 -0.3319281 -0.10874361 -0.028804407 -1.5889649 -1.5175909
-0.6047716 -0.7101454 -0.25801384 -0.34425735 -0.17577389 -2.1802673 -1.4823259 -0.19617912

fc2.weight f4 [64, 64]
00000000: c7ff b5bd 9695 b63e d118 98bc fbd6 23bd
00000010: e368 853e fdcb 6ebd 8a41 b3bc 126e e8bb
00000020: 67e2 01be 3f84 eb3d d6db 93be b755 febd
00000030: 4433 343c 11dc 8ebd 70ea 9cbd 4332 8bbd
00000040: 3075 1e3d a8de e7bc a997 03bf b28b 5dbd
00000050: d1f1 9dbc 06c0 9d3e e463 2dbd 5ca9 82bd
00000060: 6602 7ebd 7122 b03d d8ac a2be 469c 70be
00000070: c6af 81bc 5e8a 8dbe e83a 89be 12c8 33be
00000080: 851f b1be 170a 983d 04f0 8f3e 8dcb 0abd
00000090: dc0b 93be 3464 313e 1a2b 59be 7a02 85be
000000a0: d784 81be 8059 69bd 011a 9dbe 7cf0 d13d
000000b0: 376a 43be bf01 04be 4456 0fbd b638 e9bd
000000c0: 2128 b8bd 606e 823b 9037 6e3d 7a1c 1ebe
000000d0: c5a7 8abe ed9e e8bd 0a1e 7ebe ed0b 28be
000000e0: ec1d a5bd c165 053e fffd b1be ecc4 0ebf
000000f0: 11e3 31be 780a 5ebe 0f68 e5bd 5705 3ebf
00000100: 65f9 f2bd 03cc efbd 3e16 0abd 0a64 17be
00000110: 3c70 703d 26d4 a63c 21a9 693d 2dfb 16be
00000120: 7a44 02be 144b bdbd 2b67 9ebc 745b ddbd
00000130: 9c49 94bc 0655 d0bd f080 1fbc af10 3fbe
00000140: 0813 ae3c d45a 713d 517e 23bd 6735 b2bc
00000150: 4880 39be 6e81 ba3d 7a32 df3d 1a65 1a3d
00000160: 5740 03bd 1653 28be 31df 13be a30b 4e3d
00000170: f4f5 60be 4ddd cebb befc 20be ab99 17be
00000180: 4c53 aebd 996f 5bbe a39e 1cbe e83c ba3d
00000190: 2250 663c 0c1d f23d 68c9 fdbd 3e8a 55be
000001a0: 4b2d 813d 8823 dabc 18c1 5dbe e1a6 e6bc
000001b0: c4ba 40be 2732 b63c 63dd 3cbd 437e 8cbe
000001c0: 0dcd 91be c065 33bc da2b 93bd 8487 8fbd
000001d0: 5699 57be 34c5 7dbd 87c0 35be 00e3 17be
000001e0: 9e6a aabd 2436 b0bc 6ae7 3dbd 0df1 d0bd
000001f0: 06e6 d9bd b643 8abb 5409 38bd e306 fbbd
00000200: 0516 a6be 385f 9d3d c062 edbb 4698 c2bd
00000210: 86a3 e83d c1ab e13c 688a f8bd d625 8cbe
00000220: 0199 3fbd 000d aabd 9939 23bc 77c7 2fbe
00000230: 8aa7 143d ba93 a4bd d4ce 103d bf19 18bd
00000240: 0891 f33c 0455 d43d 4281 06be 6cab 08be
00000250: 2744 27be 4019 a8bb 808b 72bd f475 46bd
00000260: 20eb d1bc 1ddc 13bd 3bec ed3c bfcc 36bd
00000270: 90ef 24bd a63c 10be 82df 42be 88d2 cd3c
00000280: 6a5c d2bd 18b3 ce3c 0084 973b f023 a3bd
00000290: bdaf 0cbc 9a77 8f3d e7df 94bd 627b 91bd
000002a0: d898 08be 00a0 e13a e7f4 19be fea6 18be
000002b0: 40bf 98bc ac9a ecbd 505f fb3c 3a08 e3bd
000002c0: 018a a2bd c46b 43bd c4f2 e9bd 25d9 573d
000002d0: 6a19 60bd bbe4 803d bf98 cebd 475a e6bd
000002e0: ccaa f0bd 545c 42bd fe62 553b 5c8a 52be
000002f0: 7414 33bd ec25 8dbb 51ae 2abc 298b 09bd
00000300: 312a 2abe c8bf 65bd 0580 0cbe c7fe 14be
00000310: 90ab 553d 7e3b 3cbe 85b7 26be 7986 a3bd
00000320: e16f 39be c620 d7bd 12ed 0bbd f13d 6fbd
00000330: 2e49 b03b 7186 6bbe 8073 8e3a c82d fbbd
00000340: 622f 8fbd 8203 90bd 9909 90bd 2497 cfbd
00000350: 3d09 3cbe ac71 b4bd 6c1a d4bd 1385 183c
00000360: 05d8 a4bd 4c8b efbd 3363 18be f815 4abe
00000370: 9e35 5fbe 1b7b 36be 65bc 54bd 82c4 a7bd
00000380: 30cb 16be d4ac 1fbe 4e89 a33d 4689 b83d
00000390: 6b13 a63c 705a 153d b995 27bd e0e0 20be
000003a0: a442 38be 6ccc fabd c828 c6bc d239 0dbe
000003b0: 9919 bfbd fe65 cabd 4446 7cbe 6ad7 1cbe
000003c0: 3a45 45bd 1042 cfbc acc5 5dbe 7a17 a2bd
000003d0: b674 c1bd 27bd 03be 3042 79bd fe69 b4bd
000003e0: c0d3 3cbd 1d65 4f3b 926b 13bd d4b5 0fbe
000003f0: 01e5 29be 5944 64be 021c 4cbd fe93 0ebe
-0.08886676 0.35661 -0.01856652 -0.039999943 0.26056585 -0.058300007 -0.021881837 -0.0070931995
-0.12684022 0.11499833 -0.2887866 -0.124186926 0.010998551 -0.06975568 -0.07661903 -0.06796696
0.038685977 -0.028304413 -0.5140329 -0.054088302 -0.019280346 0.30810565 -0.04233159 -0.06379959
-0.062014006 0.08600319 -0.31772494 -0.23497114 -0.015830886 -0.27644628 -0.26802754 -0.1755679
-0.3459436 0.074237995 0.28112805 -0.033885527 -0.28719985 0.1732338 -0.21207848 -0.25978452
-0.2529666 -0.05697012 -0.30683902 0.10250947 -0.19083486 -0.12891291 -0.03499438 -0.1138777
-0.08992029 0.003980443 0.058158457 -0.1544055 -0.27081123 -0.11358438 -0.24816146 -0.164108
-0.08062348 0.13027097 -0.34764096 -0.5576923 -0.17371775 -0.21683681 -0.11201488 -0.742269
-0.118639745 -0.11708834 -0.033712618 -0.14784256 0.058700785 0.020364832 0.05704606 -0.14744253
-0.12721434 -0.09242836 -0.019336304 -0.10808459 -0.018101506 -0.10172467 -0.009735331 -0.18658708
0.02124931 0.05892451 -0.039915387 -0.02175398 -0.18115342 0.09106718 0.108982995 0.037694074
-0.03204378 -0.16437945 -0.1444061 0.050304066 -0.21968824 -0.006313002 -0.15721413 -0.14804713
-0.08511981 -0.2142929 -0.1529489 0.09093648 0.014057191 0.118219465 -0.12391931 -0.20853516
0.06307467 -0.02662827 -0.2165569 -0.028155746 -0.18821245 0.022240711 -0.04610957 -0.2744008
-0.28476754 -0.010949552 -0.071860984 -0.070082694 -0.21054587 -0.061955646 -0.17749225 -0.14832687
-0.08321117 -0.021510191 -0.04636327 -0.10202227 -0.106395766 -0.0042194976 -0.04493077 -0.12257173
-0.32438675 0.07684177 -0.007244438 -0.095017 0.113593146 0.027547719 -0.12135774 -0.27372617
-0.046776775 -0.08303261 -0.009962463 -0.17165934 0.03629259 -0.08035989 0.035353497 -0.03713393
0.029732242 0.10367778 -0.13135245 -0.13346642 -0.16334592 -0.005129963 -0.05921507 -0.048452333
-0.025624812 -0.03609859 0.029043308 -0.044628855 -0.040267527 -0.14085636 -0.19030574 0.025124803
-0.10271533 0.025231883 0.00462389 -0.07965839 -0.008586821 0.07005234 -0.072692685 -0.071036115
-0.13339555 0.0017213821 -0.15034829 -0.14907452 -0.018645883 -0.11552939 0.030685097 -0.110855535
-0.079364784 -0.047710195 -0.11423257 0.05269732 -0.054711737 0.06293627 -0.10087728 -0.11247688
-0.11751327 -0.047451332 0.0032560225 -0.20560592 -0.043720677 -0.004307499 -0.010417537 -0.03357998
-0.16617657 -0.0560911 -0.1372071 -0.14550315 0.052165568 -0.1838207 -0.16280945 -0.07984633
-0.18109085 -0.10504298 -0.034161635 -0.05840868 0.0053798174 -0.23000504 0.0010868162 -0.122645915
-0.069914594 -0.07031919 -0.070330806 -0.1013625 -0.18362899 -0.08810744 -0.10356602 0.009309071
-0.08049015 -0.11696491 -0.14881591 -0.19734943 -0.21797797 -0.17820399 -0.05193748 -0.08191778
-0.14725947 -0.15593272 0.07985173 0.09010558 0.020272931 0.0364632 -0.04091427 -0.15710783
-0.17994171 -0.12246022 -0.024189368 -0.13791588 -0.09331054 -0.09882735 -0.24636179 -0.15316549
-0.048161723 -0.025300056 -0.21657437 -0.07914634 -0.09446089 -0.12865125 -0.060854137 -0.08809279
-0.046100378 0.0031645962 -0.03599126 -0.14034206 -0.16591264 -0.22291698 -0.049831398 -0.13923642

fc2.bias f4 [64]
00000000: a538 31bf 5f67 05be 9bb3 fcbe 9238 19be
00000010: ad53 8fbe 29fd 4cbd e457 1bbf 3552 70bf
00000020: 1982 81bd 84ce 84bd f7b7 11be cc6f 44be
00000030: 55f9 51be 51f6 29be b0ab 833f 6aa7 23be
00000040: f479 c7bd 8dcc 0bbe ae9b 49be 6a26 96be
00000050: 157b 46bf 33a7 8c3f 6839 35be 8d9d 443f
00000060: 322f 37bd 7150 a4bd 741e 94bd 49f3 8bbe
00000070: b54d 4ebe 051d d3be 2c9e 87be 153d 27be
00000080: e13c 57be 0391 4dbe ca39 103e 0f12 babd
00000090: d59f a5be 99ea b5be 08ac 10be 0364 27c0
000000a0: cd24 65be 1946 1bbe 0658 a2be 8669 d9be
000000b0: c6a3 813f 8679 6fbe fe0a f6bd f53f 18bf
000000c0: 88f5 c9be 21b5 dfbd 5fef f7bd 5608 48be
000000d0: 7e78 84bc bb17 2bbe 7fd7 4fbe 6c5b b4be
000000e0: f0e1 50be 5f52 33bc 2817 d13e 1667 e2bd
000000f0: 71f8 9dbe f875 c7be d2d5 edbc 10ad 2bbc
-0.6922706 -0.13027714 -0.49355778 -0.14962986 -0.27993527 -0.05004612 -0.60680985 -0.9387544
-0.06323642 -0.06484702 -0.14230333 -0.19183272 -0.20505269 -0.16597869 1.028677 -0.15981832
-0.097400576 -0.13652249 -0.19688293 -0.29326183 -0.7753156 1.0988525 -0.1769768 0.76802903
-0.044722743 -0.080231555 -0.07232371 -0.2733405 -0.2014683 -0.41233078 -0.26487863 -0.16331895
-0.21019317 -0.20074849 0.14084545 -0.09085476 -0.32348505 -0.35530546 -0.14128125 -2.6154792
-0.2237732 -0.15163459 -0.31707782 -0.4246332 1.0128105 -0.23386201 -0.12013815 -0.5947259
-0.39445138 -0.109232195 -0.12106203 -0.1953443 -0.016170736 -0.16708271 -0.20297049 -0.35226
-0.20398688 -0.010944932 0.4083798 -0.11054818 -0.30853608 -0.3895719 -0.029032622 -0.010478273

fc3.weight f4 [32, 64]
00000000: dedc a8bc e522 7c3d 2d40 ed3d 6a2e 10be
00000010: 1f70 8bbe 9915 d63c dfa9 79be 5507 28bf
00000020: 4730 05bf 612a c53f d244 d03d d856 503e
00000030: 2c43 78be e7d3 88bd d1e6 8e40 97f8 8cbc
00000040: c2fa 813e 90b8 963b 1736 93be 379c 83be
00000050: 2a4e 063e 4533 2abe 55fa ad3d 0a19 1d3c
00000060: 1d20 3dbd 5908 773c 3eb0 8a3d 57e7 03bf
00000070: 19a6 d6bc 94e3 5a3d 9ad0 86bc 1bf9 11bd
00000080: 6ac8 13be a2dd 5fbe 3053 a03c 52ec 94be
00000090: 10a7 443e d611 f0bd 7394 f33d aadf d43e
000000a0: e2e9 69bd db6a d9bc 253a a83d 94b6 d63d
000000b0: a522 f7be bd04 40be 5ae9 7fbd e612 8f3f
000000c0: 48ce 4fbd b059 2f3e 7304 0cbe 2417 96bc
000000d0: a2ed c73d cef5 023f b5ef c2bd 3cc5 63bd
000000e0: 7de0 55bd 79a7 543f c0d9 04c0 dada 163d
000000f0: 07f1 2abe e507 aa3d c6a4 c63e 8e3c e5bd
00000100: 28c2 d7be 58e3 db3c 1ad9 f63d da8a f0bd
00000110: b79e 47bd 5e1f 79bd c895 69be 1442 363e
00000120: aae1 293f 9120 c73e 0ca4 f6bd 4fb6 e5bc
00000130: 6a0f 773e 265e 333d bf3b d03e 701a 8bbc
00000140: b9ac a43d f99a 9cbd 8755 3abe cdef 5e3e
00000150: 7937 20bf bacb 8bbf a16e 8bbd bbbf a3be
00000160: 694f 0dbc bae9 42bd 3348 bdbc 20f5 0bbf
00000170: 09f9 6bbd 8450 8e3e cc45 fdbd 9d5f fcbd
00000180: f6e8 25be 2914 fbbd 4c77 74bf 908b 9bbe
00000190: 5c26 723e 76e7 3fbe 61f9 053e f2a3 ebbe
000001a0: 5a10 06be 0371 203e a2e5 ecbc c006 a9be
000001b0: ce33 143e e747 5ebd 738b de3c 4b47 0940
000001c0: 5880 ac3d 0fc3 a73e 6f42 d6bc 5a92 b53c
000001d0: 2b1a 9bbc f541 82bf e914 2fbe bf94 ea3b
000001e0: 70a8 743e 87c9 ab3f 4d8d 4ebf 8d22 74bd
000001f0: 1621 41bf 9414 b83c 7ce2 833f 9264 983d
00000200: 47ba 5ebf 2e27 d0bd f739 0abe 662e ff3d
00000210: d61e 23be a6da 403c d618 1bbf ec23 b13e
00000220: 9cbc 3a3f f6a7 633f 9b9f 80bd f1e0 7e3e
00000230: 0bbd b9bd af44 393c d015 c6bd 19ab dabd
00000240: 1488 24bf 7a00 003e 9923 d0bd e158 b93e
00000250: f699 24bf aa64 4cbf de6b 613d b549 8ebe
00000260: 0a44 c83c 6181 953d 1a6b 42bd 1fc0 3dbf
00000270: 9e2a c2bc cf0f 1f3d 8bdd e43d 0cda 88be
00000280: be02 233e 5ff6 023e 14b5 03bf 877d 1b3d
00000290: 53e2 23be c44b 83bd 2713 1cbf ee92 47be
000002a0: ffb2 873d 0efd 3bbe a308 793d 3657 8b3e
000002b0: 20b5 653e 509a 133e 63fa b7bd 6240 b03f
000002c0: ef16 2dbe 701f 3c3e 3b6e 0a3e a3eb 83bd
000002d0: 3ab8 003d 5fdb 7a3f 83f1 0b3e 0ca1 383f
000002e0: fe63 46be 2c96 35bf f735 38bf 9a61 d13c
000002f0: ae1f 48bf 45cc 0f3f 761f ab3f 2a33 a7bd
00000300: 83c8 2dbf 84a7 dc3c 5f87 46bb 20cf 3f3d
00000310: 4da3 24bd 0306 33be 849c b0be e2b1 863f
00000320: 767a 55bf 569d 7fbf 73d3 cebd b75d a7be
00000330: fccf 123e bfa8 2fbe 1656 0dbf b62c 763d
00000340: ea92 913d 80d6 77be 99ac 2bbe 79ab b5be
00000350: 5ccc 1fbf 143d 003e e77e 4e3e 30a2 433f
00000360: 093b 8d3c 525d 433e 623e d03e c187 e43e
00000370: cdd8 1c3e 1f48 aabd e16c ccbd 3e19 be3e
00000380: 7787 35bd c3eb 5cbe 6bf5 3ebe d4fc 8bbf
00000390: f350 a2be 4ad8 9c3d 5cbe 263f bd85 b53e
000003a0: 56b7 5f3e b8e3 2abe 80e2 f33d 598e 58be
000003b0: 53df 97be a357 173c 2622 393e a808 853e
000003c0: f058 063e c97f 303d deb4 d93d 248a 19bc
000003d0: aa01 383e 4260 7dbe a1bd 773d 25bf e0be
000003e0: fcb9 8c3d 7da1 2cbf 1dd7 ac3d 4516 463e
000003f0: b1a2 e63e 36f7 1cbf 2656 0a3f 1488 acbd
-0.02061313 0.061556716 0.11584506 -0.14080206 -0.2723398 0.026133345 -0.24381207 -0.6563619
-0.5202679 1.5403558 0.101693764 0.20345628 -0.24244374 -0.06681042 4.465676 -0.01720838
0.25386626 0.0045996383 -0.28752205 -0.2570512 0.13115755 -0.1662112 0.08495013 0.009588489
-0.046173204 0.015077674 0.06771897 -0.5152487 -0.026202248 0.05343969 -0.01645689 -0.035637956
-0.1443192 -0.2186189 0.019570917 -0.29086548 0.19204354 -0.11722152 0.11893549 0.41576892
-0.057107814 -0.02654021 0.08214215 0.10484043 -0.4826862 -0.18751808 -0.0624784 1.1177642
-0.050733835 0.17124057 -0.13673572 -0.018321581 0.09762122 0.5115632 -0.09518377 -0.05560802
-0.05221604 0.83068043 -2.0757904 0.036829807 -0.16693507 0.08302287 0.38797587 -0.111931905
-0.42140317 0.026841804 0.120531276 -0.11745234 -0.048735347 -0.06082093 -0.22811043 0.17798644
0.6635996 0.38892034 -0.12043008 -0.028041033 0.24126974 0.04379096 0.40670583 -0.01698038
0.08040757 -0.07646746 -0.18196689 0.21771164 -0.62584645 -1.0921547 -0.0680821 -0.31982216
-0.00862489 -0.04758618 -0.023105716 -0.54670906 -0.057610545 0.27795804 -0.12366828 -0.12322924
-0.16202149 -0.122597046 -0.9549453 -0.30379915 0.23647445 -0.18740639 0.13083412 -0.46023518
-0.13092175 0.1566811 -0.028918091 -0.33012962 0.14472887 -0.05426779 0.027166104 2.1449764
0.08422917 0.32766005 -0.026154725 0.022164512 -0.018933376 -1.0176378 -0.1709782 0.007158845
0.23892379 1.3420876 -0.8068436 -0.059603263 -0.7544111 0.02247075 1.0303493 0.07441057
-0.87002987 -0.10163723 -0.13498674 0.12460022 -0.15929732 0.01177088 -0.6058477 0.3459772
0.72944045 0.88928163 -0.06280442 0.24890496 -0.0906926 0.011307879 -0.09672129 -0.106771655
-0.6427014 0.12500182 -0.1016304 0.36200622 -0.64297426 -0.798411 0.05503451 -0.2779061
0.024446506 0.07300068 -0.04746542 -0.7412128 -0.023701962 0.038833436 0.111750685 -0.26728857
0.15919015 0.12789296 -0.5144818 0.03796151 -0.16004305 -0.064109355 -0.60966724 -0.19489643
0.06625938 -0.18358251 0.060799252 0.27214974 0.22432375 0.14414334 -0.08983304 1.3769648
-0.1690328 0.18371367 0.13518612 -0.064414285 0.031425692 0.97990984 0.13666348 0.7212074
-0.19374081 -0.7093227 -0.71957344 0.025559235 -0.7817334 0.56171066 1.3368976 -0.08164056
-0.6788408 0.026935346 -0.003029309 0.04682839 -0.0401948 -0.17482762 -0.34494412 1.0523036
-0.83389986 -0.9984945 -0.100989245 -0.32688686 0.14337152 -0.17154215 -0.5520948 0.060101233
0.071081 -0.24202919 -0.1676506 -0.35482386 -0.624212 0.125233 0.20165597 0.76419353
0.017240064 0.19078568 0.40672594 0.44634822 0.15317078 -0.08314537 -0.099817045 0.37128633
-0.044318642 -0.21574311 -0.18648307 -1.0936532 -0.31702384 0.07658441 0.65134215 0.35453597
0.21847281 -0.1668843 0.11908436 -0.21148051 -0.2966257 0.009237203 0.18079433 0.25983167
0.13119864 0.043090615 0.10630201 -0.009371314 0.17969385 -0.2474375 0.06048358 -0.43895832
0.06871411 -0.6743391 0.08439467 0.19344433 0.45046 -0.61314714 0.540377 -0.08424392

fc3.bias f4 [32]
00000000: def8 263f 8061 13be 1339 f7be 0fc9 82bf
00000010: e30e 08bf ff51 eabf b029 95be 90a8 ed3f
00000020: 7160 8abf 0ff7 f1bf 1713 b13d 0c99 86bf
00000030: 9a87 86be bcc4 b83e 9834 0a3f 7f9f 8e3f
00000040: 5cbf 78be 304e b9be 95cf e7bf c956 333f
00000050: 66d5 32bf d227 6a3e 34de 74bc 5800 463f
00000060: 3623 74bf 6a09 4a3d 9cba a23e f41e ca3f
00000070: 1487 25bc 3cb9 dcbe 6ccb febc c8ef 31c0
0.6522349 -0.14392662 -0.48285732 -1.0217608 -0.53147715 -1.8306273 -0.29133368 1.8567066
-1.0810682 -1.8903521 0.08646219 -1.0515456 -0.2627533 0.36087596 0.539865 1.1142424
-0.24291748 -0.36192465 -1.8110224 0.700543 -0.6985687 0.22866753 -0.0149455555 0.77344275
-0.9536623 0.049325384 0.31782997 1.5790696 -0.010103006 -0.43110073 -0.031102858 -2.78026

in_fn.weight f4 [33]
00000000: cab0 b43f 80f7 013f ae34 2f3e 43f7 343e
00000010: ad67 de3d 281c 2c3e 3540 163e f192 173e
00000020: 5703 043f e462 f53d 6180 a9bd e987 353e
00000030: 120f 01be 1bc0 173e 74cb 313d 76bf b23e
00000040: a389 fe3e d99c 503e 7238 963d 6d3d 87be
00000050: 0d48 b63e 82e1 8c3c 0007 4b3e b2d4 1e3e
00000060: 9806 3d3f b36e 8b3d a575 5b3e ea1f 903e
00000070: 569a 233f 12ac 6c3e ddee 1f3f 0136 f23e
00000080: 5b6f 7e3f
1.4116452 0.5076828 0.1710994 0.17672448 0.10859618 0.16807616 0.1467293 0.14802147
0.51567596 0.119817525 -0.082764395 0.17727627 -0.12603405 0.14819376 0.04340692 0.34911698
0.49714383 0.20372333 0.07334985 -0.26414052 0.35601845 0.017197374 0.19826889 0.15510824
0.73838186 0.068082236 0.21431597 0.28149348 0.6390737 0.23112515 0.6247385 0.47306827
0.99388665

in_fn.bias f4 [33]
00000000: 11fd d33c a57c afbc 1870 003e 409f 593d
00000010: 525c 333d 9c7c 9a3d e848 53bd 4940 5abc
00000020: d798 d83d 9fca fb3c 5d84 1c3d 3366 6c3d
00000030: 7871 763d d5a3 cf3c 680b 18bd 9e97 d6bb
00000040: be0c 143e 67ae fb3d ea93 fc3c 08f4 073d
00000050: 2cd2 61ba fd48 fd3b 40c1 b6ba 93e4 523c
00000060: 5f2e 9b3e 7ce7 143d feea 1c3d 6e00 973c
00000070: bc47 713e d1f8 aabc f0ca 8f3e 286c 5f3e
00000080: 3cbe da3d
0.025877507 -0.02142174 0.1254276 0.05313039 0.043789215 0.075432986 -0.0515832 -0.013320991
0.10576027 0.030736266 0.03821217 0.057714652 0.060166806 0.025346676 -0.037120253 -0.006548836
0.14457986 0.12289124 0.03083225 0.03319171 -0.0008614387 0.007729648 -0.0013943091 0.012871879
0.30308816 0.036353573 0.038310044 0.018432822 0.2356252 -0.020870598 0.28084517 0.21818602
0.106808156

in_fn.running_mean f4 [33]
00000000: 0661 1040 b0ff bb3c 7d22 eb3b ef23 e93b
00000010: 8aee bc3b 64fc b23b ca81 693b 0f31 be3b
00000020: ff9b a63d 1106 a63b a203 0c3b 2999 1d3c
00000030: 9a84 233c a4fb ff3b 24b8 4e3c 1091 a03c
00000040: dba1 3c3d fa14 d23b c878 d93b d3bc 153b
00000050: 47eb b53c 9f3f 913b 070b 1d3c 6851 083c
00000060: 5226 ab3d a078 7b3b 5927 1e3c 347e 393c
00000070: b145 4a3d a389 0a3c 3f41 b03e ffab e73d
00000080: cc04 843d
2.2559218 0.02294907 0.007175742 0.0071148793 0.0057657408 0.005462216 0.0035630339 0.005804188
0.08135223 0.005066641 0.002136447 0.009619036 0.009980345 0.0078119803 0.012617145 0.019600421
0.046052795 0.006411192 0.0066367127 0.0022848144 0.022206916 0.004432633 0.009585149 0.00832019
0.083569184 0.0038371459 0.009652936 0.011321593 0.04938287 0.008455667 0.3442478 0.113121025
0.064462274

in_fn.running_var f4 [33]
00000000: 6a3a df40 8b9a b73c 2f7a e93b 9e79 e73b
00000010: 8396 bb3b 83ef b13b 8454 683b 3e1d bd3b
00000020: 500c 983d 4404 a53b 24bd 0b3b e714 1c3c
00000030: 6055 213c 7013 fe3b d304 4c3c 5546 9d3c
00000040: ec97 333d 55c2 d03b 7303 d83b 0359 153b
00000050: 6fc4 b13c 579b 903b 036f 1b3c 0712 073c
00000060: ae37 943d 265a 7a3b 179b 1c3c 885a 373c
00000070: 5a37 403d c763 093c 26c3 503e 5d35 cb3d
00000080: b3e3 643d
6.9758806 0.022412559 0.007125161 0.0070640584 0.0057247295 0.0054301633 0.0035450766 0.005771308
0.074242234 0.005035909 0.0021322453 0.009526468 0.009847015 0.007753782 0.012452322 0.019198576
0.043846056 0.0063708224 0.006592208 0.002278865 0.021700112 0.004413049 0.0094869165 0.008244044
0.072371826 0.0038200705 0.009558461 0.011191018 0.046927787 0.008385605 0.20386943 0.099222876
0.055881213

fc1.weight f4 [64, 33]
00000000: 4cfd e03d 4f87 0dbd 6aa4 dbbe 4794 843c
00000010: 6901 46be 87ff 6e3d 5164 d73d d84e 99be
00000020: 6ac7 1e3d 3fc7 47be 759a d1bd 0d3a 23bc
00000030: 1b72 9c3e 9a49 c03d 618e 023d a992 353e
00000040: 5e71 1f3c ff5c 24be db73 8abe 908f a3bd
00000050: 31d1 b63e 9d6c 12bf 384d 693d cc20 3fbc
00000060: 260d 0cbe 5835 723d 49b1 873b bdf8 cbbd
00000070: de40 e3bd 732f ae3c cc63 e83d 6513 52be
00000080: a06b 853c 242e 2a3d 4bc1 f1bc bf82 c6bd
00000090: 227b 583d c0eb 0cbd 7926 853d 8425 6e3d
000000a0: 1711 dfba 89e0 2b3e 85f4 493c de89 863d
000000b0: 67ae aebd 1850 093d 030b 45be e34f 2a3d
000000c0: eb04 99bd 7f3f 253e 8f8b 31bd db7c c1bb
000000d0: dd4a fcbd 74fc aa3d 302f d9bd b918 a43d
000000e0: 022f 16be 0cef e83a 6df9 223e b1bc 13bd
000000f0: 6c3c 2c3c 21c4 b4bc 2848 2c3e 64c2 c8bd
00000100: efe5 9f3d 309c 3b3e a7e1 94bf 2a71 05bd
00000110: 7ad2 05bf f593 14bf e4d1 003e 9579 86be
00000120: 6e53 043b 4011 8abe 9ce6 27be 14c3 813c
00000130: 45c2 2c3e 0cc5 3abf 02c9 babc b6fd c93e
00000140: c73e 9a3e 7e9d 903e 2070 8dbe 59dd e4be
00000150: cfdc ac3e 05c9 67be 3143 0dbd fa88 9dbe
00000160: 295e 13be 076f 9a3e c335 b73e 4712 76be
00000170: fcc6 cebe d3ff d13e c697 bfbe 5643 77be
00000180: 3a2e 73be 824a dd3d dbb7 813f 86f9 cebf
00000190: 8617 b43e 56cc e63d 9b36 37bd 504b f0be
000001a0: 73fa a03d ccc6 5fbe 9f31 febd e31b 733e
000001b0: f708 9dbe 2ab9 b1bc 2c58 b33d 1c64 5bbe
000001c0: 469f 97be c32a 463e a345 30be c930 18bf
000001d0: 7afd 52bd 7640 7ebe a02f 833e 1c02 01be
000001e0: 009f e2bd 1040 ac3e 8f86 39bc a16f 883e
000001f0: ae50 b6bd d3c9 9b3e 1b1f 89be cfdf 19bf
00000200: 317e 4abe 2f5f 8bbe f9a0 79be 65f5 893f
00000210: 1004 8d3c 95eb f13c d2dd 8fbe a94c d9bd
00000220: 5b9a 4abe 6e53 1fbd 05e6 b53a 836a 313d
00000230: 918a febd 39bd 84be b93f b6bd 00a0 23bd
00000240: 2c63 20bf d0e1 853c f2f3 b53e a71d ddba
00000250: 88fb afbe 49fc 43be 39f6 52be 6c6b 8fbb
00000260: 43ed 43be 7e65 59bd 6d45 68bc e0f1 b3be
00000270: 5b4a 4dbe 4ce6 513d 7bb7 403c 15fd bbbd
00000280: a48a 283f 6a65 c1bd 03ed 733d cf0a 583d
00000290: c3ba a33e 2f61 b03d cd4c 47bc 943d a33b
000002a0: f72e 6dbe b667 573e 6914 8ebe e0e3 943c
000002b0: 5313 efba 6509 433d bf37 40bd 36a0 8e3d
000002c0: 52c3 37bc 97ba 083d f94b b13d 59ce c03d
000002d0: d317 c63d 4d91 c9bd f5cc 353d ed86 973d
000002e0: 3309 91bd b925 0d3e 48df 63bd d20b cd3d
000002f0: 6577 273d 1385 da3d 7100 04be 6b9b e13d
00000300: ea31 4a3d c6ef dd3d 3466 bc3d e43d 3fbc
00000310: b043 aebe f8bc 8d3d 3aaa 79be c828 273e
00000320: 41d9 07be 1dee a6be 6ec5 62be 8459 8e3d
00000330: 6d88 9b3d c452 39be 30d9 3a3e e918 ffbd
00000340: 2044 053e 8770 f7bc 770f 0c3e f0ac 64be
00000350: bb7e 2c3e 8a3e eabc c2ba 7d3e 63d6 f6be
00000360: ea9f 8b3d 9501 a4be 0a15 c0bb a265 4ebe
00000370: e5af da3d d82b 1c3e 6f1d df3c 4d27 f6bd
00000380: 7fd9 15be b8bb c03d 24c2 a03d 05d7 8a3e
00000390: 42c7 2a3e b7c4 e53d 0f9a 963e 8037 993d
000003a0: 9d4f 843c 85c8 92bc 5b23 f0bd bdad a8bd
000003b0: 8f47 1b3d d740 8f3e 2e3c 79bd 6d69 2b3e
000003c0: f897 1fbd 2e2c 27bd c516 ab3e 8ac6 533e
000003d0: aeaa ae3e 2c5d 87bb 3633 0d3e ec28 433d
000003e0: 27e9 b6bc 8580 ff3d 08fb 34be bdf5 36bd
000003f0: 584a 563d 0668 363e 0565 1ebd ce08 61bd
0.109858125 -0.03455287 -0.42898875 0.016183985 -0.19336475 0.05834916 0.10517181 -0.29942966
0.038764395 -0.195096 -0.102345385 -0.009962571 0.30555806 0.093890384 0.031874064 0.17731728
0.009731619 -0.160511 -0.27041516 -0.07986367 0.35706475 -0.5719698 0.056958407 -0.011665534
-0.1367689 0.059132904 0.004141007 -0.099595524 -0.11096357 0.02126286 0.1134716 -0.20515211
0.016286671 0.04154791 -0.029511115 -0.096929066 0.052851804 -0.034404516 0.06501479 0.058141246
-0.0017018643 0.16784872 0.012326364 0.06569265 -0.08529358 0.03352365 -0.19242482 0.041580092
-0.07471641 0.16137503 -0.043345984 -0.0059047765 -0.123189665 0.08348933 -0.106047034 0.08012528
-0.1466637 0.0017771437 0.15915461 -0.036068622 0.010512453 -0.022066178 0.168244 -0.09802702
0.07807528 0.183213 -1.1631364 -0.032578625 -0.52274287 -0.58038265 0.12580067 -0.26264635
0.002019133 -0.26966286 -0.16396564 0.01584009 0.16870983 -0.7295692 -0.022800926 0.3945138
0.3012602 0.28245157 -0.27624607 -0.44700125 0.33762214 -0.22635277 -0.034487907 -0.30768567
-0.14391388 0.30162832 0.35783204 -0.2403041 -0.40386188 0.4101549 -0.3742048 -0.2414678
-0.23748103 0.10805227 1.0134233 -1.6169899 0.35174197 0.11269443 -0.04472981 -0.4693246
0.078602694 -0.21853179 -0.12411808 0.23741107 -0.30670902 -0.021694738 0.08757052 -0.21424907
-0.29613703 0.1935225 -0.17214064 -0.5944944 -0.051511265 -0.24829277 0.25622272 -0.12598461
-0.11065483 0.33642626 -0.011323585 0.26647666 -0.08902107 0.30427417 -0.26781544 -0.6010713
-0.197747 -0.27221057 -0.24377812 1.0778013 0.017213851 0.02953128 -0.28098923 -0.10610325
-0.19785444 -0.038897924 0.0013877755 0.043314468 -0.12428773 -0.25925615 -0.08898873 -0.03994751
-0.62651324 0.016343027 0.35537678 -0.0016869799 -0.3437159 -0.19139208 -0.20601739 -0.0043768194
-0.19133477 -0.053075306 -0.014176709 -0.35145473 -0.20047896 0.05124502 0.011762495 -0.09179131
0.6583655 -0.09443171 0.059552204 0.052744683 0.31978425 0.08612286 -0.012164307 0.004981706
-0.23162447 0.21035656 -0.27749947 0.018175066 -0.0018240012 0.04761638 -0.046928164 0.069641516
-0.011216002 0.03338107 0.08657069 0.09414358 0.09672513 -0.09842167 0.044384915 0.07398782
-0.07081833 0.13783921 -0.05563286 0.1001202 0.040885348 0.10669913 -0.12890793 0.11015972
0.049364008 0.10836749 0.09199181 -0.011672471 -0.34036016 0.069208086 -0.24381343 0.1632415
-0.1326647 -0.3260354 -0.22145626 0.069506675 0.075943805 -0.18097979 0.18246913 -0.12455923
0.13014269 -0.030205024 0.13677774 -0.22331595 0.16845219 -0.028594274 0.24778274 -0.4821044
0.068176106 -0.32032457 -0.005861883 -0.20155957 0.106780805 0.152511 0.027235715 -0.12019215
-0.1463375 0.094108045 0.078495294 0.27117172 0.16677573 0.11219161 0.29414412 0.07481289
0.016151244 -0.01791788 -0.117254935 -0.08236263 0.03791004 0.27979156 -0.060848407 0.16739435
-0.038963288 -0.040813617 0.3341581 0.20681205 0.34114593 -0.00413098 0.13789067 0.047646448
-0.022327973 0.12475685 -0.17673886 -0.044667948 0.052316993 0.1781312 -0.03867056 -0.054940037

fc1.bias f4 [64]
00000000: 6681 68bf 06a0 4cbf 1e18 05bf 9e55 25bf
00000010: e1f1 3fbe dfa6 5ebf 9af3 55bf 5e5c afbf
00000020: f826 0bbf 1ca2 3ebe f2c7 4dbf 8d4d 7cbf
00000030: 531f 12bf 67d8 9cbf 8405 4cbf 61bb c9be
00000040: 0daa 8ebf d79d 63bf ad70 4dbf 971c f83e
00000050: ede6 adbf 6c59 c6bf bb8a 03bf e443 653b
00000060: cfcb b0bf e44f f0be 6c9f 5dbf 7aca 1bbf
00000070: 12a4 b5bf 7c17 c23d f2c7 34bf 75ec 56bf
00000080: 11d2 943c 6c6b 4dbf 36ef 77bf 3e1b 08bf
00000090: 5bd7 d9be 7d2d 0abf 14af cc3e 7c7a d2be
000000a0: 8197 0abf 0972 68bf 7158 9bbf 76c6 f1bf
000000b0: 2719 80be f1d2 87bf 7437 d9be 5109 45bf
000000c0: 9312 32bf 84c9 a2bf 60c7 cebe 8c40 12bf
000000d0: 06ff 7cbf 346d acbf e199 48bf 762f 71bf
000000e0: 3313 c6bf a364 64bf be0d fabe 564d 503d
000000f0: c513 a2bf 91ea 3dbf 5230 4cbf 271c 94bf
-0.90822446 -0.79931676 -0.51989925 -0.64583766 -0.18744613 -0.86973375 -0.8357483 -1.3700063
-0.54356337 -0.18616527 -0.8038322 -0.98555833 -0.57079047 -1.2253541 -0.79695916 -0.3940077
-1.1145645 -0.8891272 -0.80250055 0.48459312 -1.3586098 -1.5496039 -0.5138356 0.0034983093
-1.3812197 -0.46935952 -0.86571383 -0.6085583 -1.4190695 0.094771355 -0.7061759 -0.83954555
0.018166574 -0.8024204 -0.9684938 -0.5316657 -0.42547116 -0.5397566 0.39977324 -0.41109073
-0.54137427 -0.90799004 -1.2136365 -1.888869 -0.2501919 -1.0611249 -0.4242512 -0.7696734
-0.6955959 -1.2717748 -0.40386486 -0.5712974 -0.98826635 -1.3470826 -0.783598 -0.94213045
-1.5474609 -0.8921606 -0.4883861 0.050855003 -1.2662283 -0.74186045 -0.7976123 -1.1571091

fc2.weight f4 [64, 64]
00000000: e101 0e3d b90f dfbd 0354 0ebe 780b 74be
00000010: 622d ddba 9c96 51be c35e 36be c46b efbc
00000020: 2496 bcbd ac60 b4bc 0a03 3fbe fa93 8abe
00000030: 3ecc b8bd 83ae 23be 35ce 72bd 8176 9fbe
00000040: af7a fa3c 900b 043d 0456 09bd efed 0ebe
00000050: 81b7 923d 6049 3ebe 0e2f 89bd 1133 23be
00000060: 92c9 cbbd 4920 413d c741 10bd 7e11 bbbe
00000070: 2fb5 ff3c ab55 71be d4f1 34bd 912e babd
00000080: 2b57 02be fe8c 423d 864c 0ebd ef94 533d
00000090: 24a5 97bd 128f d33c 7860 07be 801d 4b3c
000000a0: 35de 5dbe 7310 2cbc ab3b d3bc b575 cb3c
000000b0: e238 b33c 40c7 45bd fc26 6d3d 0107 5e3c
000000c0: 010c 1dbe 002c 2b3d 3625 aabe b595 e73d
000000d0: 01c0 f4bd 26d1 813a aaa9 82bd 62e8 5cbe
000000e0: 47f1 98bb ac3c aabd 9089 0cbc a318 58be
000000f0: eb38 473c fbe9 05be 40d9 a83c db8b 92bc
00000100: 859f 06be 841d 8abe 1152 58be ef2f d5be
00000110: b2c1 d8b9 5e69 d0be 8ba3 9abc e03f 6fbe
00000120: 7789 1abe 0a7f 1abe 4391 a6bd c33d abbd
00000130: 70f3 163d ba93 01bf f6b1 abbe 19ae dd3d
00000140: 3bde 58be 0e43 0bbd 62cf 5cbe 319f 033c
00000150: e4e8 1cbe 5bbb 6e3d dc85 a2be acb5 2cbd
00000160: 9a45 21bf 1009 bbbd 82e9 55be e279 2bbe
00000170: feb3 5fbd 7f02 2bbe 250f 4bbe 7852 353d
00000180: 0a28 2cbe 053c b0be 7375 68be a865 02bd
00000190: 8237 edbe 74d8 f6bd 9099 f8be c54a cabe
000001a0: 8428 88bd d9a9 1a3d bb38 d4bd b77b af3d
000001b0: 35cd a43d d718 433e d01e acbe 9036 4dbd
000001c0: 14cf 9fbe acb1 423b f388 93bd 1e33 52be
000001d0: e41f 35be 361f f4bd 16a6 ff3b 1ee7 73bb
000001e0: 4038 f5be 3537 bcbd 3ac4 79be 1139 d0be
000001f0: c03b 26be 4dc3 5bbd e48e a03d 66cf c73c
00000200: 4428 9cbe a71a 39be ceb2 8cbe dc1c 22be
00000210: fc10 cebd 8725 09be fa63 43be 2a9e 0bbe
00000220: 9f9c 993c 1d51 9b3a 36a1 dcbe 66fa 363d
00000230: 5d1f 26bf 993d 323c a2ae 2abe 92c5 5d3c
00000240: 578a 663c 2b30 a6be 544f 23bd 0bf5 723d
00000250: 6358 07bf ff9e 1dbe c7eb 94be e5c9 9abe
00000260: 3b26 f1be f2b5 e4bc 3e94 01bd 3010 d63c
00000270: 4614 3cbd b505 f4bd 6a00 b0bd d253 27be
00000280: 6e6f a4be 6be8 12be 7cc9 0c3d 858c 96bd
00000290: bc94 db3d 266c 7abe 5aca 28bf 264e cbbe
000002a0: 7f0c 47be 0a97 07bd 5a4f 4bbe 8c20 98bc
000002b0: 79b3 9c3d 98ac b4bd 8247 f2bd 39b2 3ebd
000002c0: 3e3b 4dbd 8ccf d7bd 0009 b2bd 1dad 793b
000002d0: aef8 4fbe 17b5 cebb dd5e 65be e8d8 38be
000002e0: 0ff0 12bf 79f5 26be 2b58 d2be b489 59bf
000002f0: 8bb2 a63d d274 813d 4392 7e3d c69b 4abe
00000300: 1e7f d8bd 7778 8cbc ab48 febd 0c9c d33d
00000310: 81fa 84bd a37e ed3d 6a85 3abe e7fd a5bb
00000320: cb24 a0bc 366e 58bd b979 dd3c b816 07be
00000330: 62ba ccbd f49e dfbd 56d9 d5bd 24e8 8dbd
00000340: 7756 7abd 6524 1bbd 6cdf 663c 9951 1cbe
00000350: 05df 67be c559 983c 4105 19be d74d 48be
00000360: aad2 30be 2012 17bd 22ac 3ebe 8ac3 103d
00000370: 0db6 c33d fa3a d9bc e21f 653c ec25 703d
00000380: 4eeb 0ebe c061 2cbb c858 063d d4a2 4f3c
00000390: eca8 17be d4e9 9d3d c435 adbe 89a4 6d3d
000003a0: cf9f 0cbe aeba e8bb f710 8b3d d430 d8bd
000003b0: a6f9 37be 403d 10be 10d5 a73d 68d3 5fbd
000003c0: 5bc9 f13b 8dba e5bc ff34 3f3d 22c3 d2bd
000003d0: 2b0a 483d 7aa3 12bd 7615 6c3c 4dee adbd
000003e0: de04 413d 2279 703d 1306 b2be 0adb 45bd
000003f0: 80a9 42bd 4674 edbc 22d7 75bd 6e01 b4bd
0.03466976 -0.10891671 -0.13899235 -0.238325 -0.0016874487 -0.20467609 -0.17809586 -0.029226191
-0.092083246 -0.022018753 -0.18653503 -0.27066022 -0.09023331 -0.1598454 -0.059278686 -0.311451
0.030576078 0.03223759 -0.033529297 -0.13957952 0.07163907 -0.18582678 -0.06698428 -0.15937449
-0.09950556 0.04714993 -0.03521898 -0.36536783 0.031214325 -0.23567836 -0.044175938 -0.09090913
-0.12728564 0.047497742 -0.034740947 0.051655706 -0.07404545 0.025825057 -0.13220394 0.01239717
-0.21666797 -0.010501969 -0.025785288 0.0248364 0.02187771 -0.048285723 0.057898507 0.013551475
-0.1533661 0.04179001 -0.33231515 0.11307851 -0.11950684 0.000990425 -0.06380017 -0.21573022
-0.0046674344 -0.083123535 -0.008577719 -0.21103148 0.012159566 -0.13077538 0.020611405 -0.017888954
-0.1314679 -0.26975644 -0.21125056 -0.41638133 -0.00041343045 -0.4070539 -0.018876811 -0.2336421
-0.15091501 -0.15087524 -0.08133175 -0.083613895 0.036853254 -0.5061604 -0.3353421 0.10824222
-0.21178524 -0.033999495 -0.21563485 0.00803356 -0.15323216 0.058284145 -0.31742752 -0.042165443
-0.6299683 -0.09132588 -0.20889857 -0.16745713 -0.054615013 -0.16700171 -0.19829996 0.0442681
-0.16812149 -0.3442079 -0.22701053 -0.03183523 -0.46331412 -0.12053004 -0.4855466 -0.3951017
-0.06648353 0.037759636 -0.10362383 0.085685186 0.08046953 0.19052444 -0.33617258 -0.050100863
-0.31212676 0.0029707951 -0.07203855 -0.20527312 -0.17687947 -0.119200155 0.0078017814 -0.0037216614
-0.47894478 -0.091902174 -0.2439126 -0.40668538 -0.1623373 -0.05365305 0.07839754 0.024390887
-0.3049947 -0.18076573 -0.27480167 -0.15831321 -0.10061833 -0.13393222 -0.19081107 -0.13634554
0.01875144 0.0011849735 -0.43091744 0.044672392 -0.64891607 0.010878944 -0.1666818 0.013535874
0.014071069 -0.32458624 -0.039870575 0.059315722 -0.5286924 -0.15392683 -0.29086134 -0.30232158
-0.4709948 -0.02791879 -0.031635515 0.026130766 -0.04591777 -0.11915151 -0.08593829 -0.16340569
-0.32116264 -0.14346473 0.034371838 -0.07351021 0.10721728 -0.24455318 -0.65933764 -0.3970806
-0.1943836 -0.033103026 -0.19854489 -0.018570207 0.07651419 -0.08821982 -0.11830045 -0.046556685
-0.050105326 -0.10537633 -0.08693123 0.0038097568 -0.20309708 -0.0063082087 -0.22399469 -0.18051493
-0.5739755 -0.16304578 -0.41082892 -0.84975743 0.08139523 0.0632111 0.062151205 -0.19785985
-0.10571121 -0.017147286 -0.12416204 0.10332498 -0.06493092 0.1159642 -0.18214956 -0.005065668
-0.019548794 -0.05283948 0.027035581 -0.1319226 -0.09996487 -0.1091899 -0.10441844 -0.06929043
-0.061117616 -0.037876505 0.014091354 -0.15265502 -0.22643669 0.018597493 -0.1494341 -0.19560944
-0.17267862 -0.03688252 -0.18620351 0.03534273 0.09556208 -0.02651738 0.013984652 0.058629915
-0.13956949 -0.002630338 0.032799512 0.012673099 -0.14810532 0.07710615 -0.33830082 0.05801824
-0.13732837 -0.007102332 0.06790345 -0.10556188 -0.17966327 -0.14085865 0.08194935 -0.054644972
0.00737874 -0.028043056 0.0466814 -0.10291125 0.048837822 -0.035800435 0.014409414 -0.08492718
0.047123782 0.05870927 -0.3477026 -0.048304595 -0.04752493 -0.028986108 -0.06001962 -0.08789335

fc2.bias f4 [64]
00000000: 8665 33be d7a3 57be a53a 97be 8e23 ecbd
00000010: 3abf 1dbe 69a8 c7be caed e43e a12b 8bbd
00000020: a476 89bd 6e61 c3bd 1312 efbc 5f95 49be
00000030: a998 babc be9c 73be 0eed d8bd b499 5cbe
00000040: 596a f43e 986c 6e3f bc62 61be f715 ab3b
00000050: 3287 5c3f a50e 00be fcac c7bd f6e8 abbe
00000060: 7374 ab3b 1a0b 98bd 81fa 3fbf 0b0a c2be
00000070: a5c7 2c3f 1742 0cbe abf9 33be 104d eebd
00000080: be15 c6bd 08cd cbbb bea2 f1be 539e 31be
00000090: 58c6 0cbe 9672 6fbe 3149 b9be 30b3 5c3d
000000a0: 15d4 37be d359 43be 3eda 6ebe 8145 17be
000000b0: 66e7 edbe fc43 18be 7f71 dfbd eeff c23d
000000c0: 2480 b2be 1bfe 30be 83f0 d0bc 41ce 90bd
000000d0: 543d 50be 058e dbbd 95f5 71be 3821 90be
000000e0: 4686 9b3f bdde ba3d 6e39 49be dfbb 1f3e
000000f0: 42c3 96be c1a7 d8bc c7d6 723e 4354 8ebd
-0.17519197 -0.21058594 -0.2953693 -0.11530219 -0.15404978 -0.38995674 0.4471267 -0.06795431
-0.06712082 -0.095400676 -0.029183423 -0.19685887 -0.022777872 -0.23790261 -0.105920896 -0.21543008
0.47737387 0.9313445 -0.2201032 0.0052211243 0.8614379 -0.12505586 -0.09749791 -0.33576173
0.0052323877 -0.074239925 -0.74991614 -0.37898287 0.67492133 -0.13697086 -0.1757571 -0.11635792
-0.09672116 -0.00621951 -0.47194475 -0.17345552 -0.13747537 -0.23383555 -0.36188653 0.053881824
-0.17951997 -0.19077234 -0.2332544 -0.14772607 -0.46465605 -0.14869684 -0.109103195 0.09521471
-0.3486339 -0.17284434 -0.02550531 -0.0707059 -0.20335895 -0.107204475 -0.23628838 -0.28150344
1.2150352 0.09124515 -0.19650814 0.15599011 -0.29445845 -0.026447179 0.23714744 -0.069496654

fc3.weight f4 [1, 64]
00000000: 867c 1bbe 7aa0 04bd 27a2 cf3c e780 01bd
00000010: 9cb2 5a3c be25 a8bb 14f8 aa3d 146f 9cbc
00000020: 5b9e 98bd 6203 353c 6fe1 6dbc 3238 9f3d
00000030: 3a9c 763b 5483 a43d 447b 8f3b d1d8 a7bb
00000040: a128 da3d 0750 01be c2d3 89bd e497 073e
00000050: 713f 3abe 6442 2c3c 5d84 45bb 4b64 4ebc
00000060: 03ab 4a3c 1881 56bc 4976 573e 1f7a 8cbc
00000070: ef47 d43d b259 233c cfc5 143d 0c7b ad3c
00000080: 7bf0 523c d0bd f23b 2dc1 aebb 9aaa eb3b
00000090: eaa1 a93b 7439 51bd 9165 17be 4de7 853d
000000a0: 6043 03bd cdd9 36bc b0d1 a6bd 8576 d63c
000000b0: f1e5 7b3d fe9d c1bc 3a9f abbc bf11 8cbc
000000c0: 9f0b b23d d6bf 6cbb abcb 02bd d448 bcbc
000000d0: d6ec fcbc 9286 d73b c966 333c ccc8 25bd
000000e0: 9d5e 06be e492 123d 746e 503c 2d7e 54be
000000f0: 689a f0bb 5af6 01bb 7d33 673d b912 993c
-0.1518422 -0.032379605 0.025345875 -0.03161707 0.013348248 -0.0051314523 0.083480984 -0.019095935
-0.07452079 0.01104817 -0.01451908 0.0777439 0.003762974 0.08032861 0.004378708 -0.005122282
0.106522806 -0.12628184 -0.06729843 0.13241535 -0.18188263 0.010513876 -0.003013871 -0.012597154
0.012369874 -0.013092302 0.21041216 -0.017148076 0.10365283 0.0099701155 0.036321457 0.021176837
0.012874718 0.0074078813 -0.005333087 0.007191968 0.0051767724 -0.051080182 -0.14784838 0.06538258
-0.032046676 -0.011160326 -0.081454635 0.026179561 0.061498586 -0.023634907 -0.020949949 -0.017098306
0.08693623 -0.0036125085 -0.031932514 -0.022983946 -0.03087465 0.0065773213 0.010949799 -0.040474698
-0.1312203 0.035784617 0.012721647 -0.20751257 -0.0073426254 -0.0019830675 0.056445587 0.018685685

fc1.weight f4 [64, 1]
00000000: abc2 9d3f 0127 bfbe 548f 63be e842 22bf
00000010: 9293 c2bf 7996 fe3e 68b9 a1bd 3761 0a3f
00000020: 90ad 94bc 9be9 923d 37e1 8bbd 7b70 153c
00000030: ca74 c7be adb5 76be 3051 95bd 9b04 c2bc
00000040: 306c 143e 00e7 82bb 5f47 9e3d 577b 803d
00000050: 07ec 97bd 4035 adbe 70a3 2bbe dfdc dcbe
00000060: 25d6 7ebf 6a6b c7be 70e5 9f3a 7d64 003f
00000070: 74ce f7bf 83e3 9cbd 3a28 473d db7f 543e
00000080: 9a83 31be ed7f aebf 7d55 bfbf 60c6 66bd
00000090: 69b6 eebc ba44 3c3d 7c5a 61bd 5ef5 c1be
000000a0: 4b72 563e 5ca0 d8be 4402 1bbe ca4c 7dbd
000000b0: d77b 52be 65c5 6dbd ce4d 4cbf 3c12 2cbf
000000c0: b479 24bf 0088 e0bd d2c0 88bf a0db 3fbf
000000d0: def5 433c eca9 60bc 9dba f73e 9ae1 f23e
000000e0: 20ca 3fbd 1a3f 8bbf e1b1 b8bd 87af 9f3d
000000f0: 0f52 1dbe 587b 293f 15fe f03e cd7f 733c
1.2325033 -0.37334445 -0.22222644 -0.6338334 -1.5201285 0.49724177 -0.078966916 0.5405459
-0.018149167 0.07173463 -0.06830066 0.009121056 -0.3895629 -0.24092741 -0.07290876 -0.023683837
0.14494395 -0.0039948225 0.07728457 0.06273525 -0.074180655 -0.3382969 -0.16761565 -0.4313726
-0.9954551 -0.38949138 0.0012199115 0.5015333 -1.935988 -0.07660582 0.048622347 0.20751898
-0.17335358 -1.363279 -1.4947964 -0.05634153 -0.029139714 0.04596398 -0.055017933 -0.37882513
0.20942037 -0.42309844 -0.15137583 -0.06184081 -0.20555054 -0.05804958 -0.7980622 -0.67215323
-0.64248204 -0.1096344 -1.0683844 -0.74944496 0.011960475 -0.0137123875 0.48384562 0.47437745
-0.04682362 -1.0878632 -0.09018303 0.07797151 -0.15363334 0.6620383 0.4706885 0.014862013

fc1.bias f4 [64]
00000000: eb43 b9be 8c40 17bf 0986 e8be 62bd 34bf
00000010: ea11 7fbf 21da eabf a506 20be 5030 4f3e
00000020: 290c a8bd f6ab bebe 6271 f0bd d698 30be
00000030: e46e 98be 2ddc a1be ae15 6dbf 4087 d7bd
00000040: e2ff 33bf 8327 41bf d998 a2be 5087 91be
00000050: d0d5 1fbe 1845 58bf 5294 63bf 32b3 b7be
00000060: a1a2 2dbf e063 93be 590a a7bc 2d73 e6bf
00000070: 30d0 a53f e564 e2be 5b9c 89be 0cfb 53bf
00000080: 6a5c 7dbe 885a edbe 1434 94bf 46d8 3abf
00000090: 44a8 90be 476b 08bf 1030 12be 0e02 f0be
000000a0: 0a5f 7bbf c0b5 59bf 7bbe 88be 84be 1ebe
000000b0: 13ed 8abe e3e5 40be 57d8 0dbf 65d8 2ebf
000000c0: d0fd 00bf 72e0 29bf 7775 45bf bd73 a0be
000000d0: c0b4 debd e5f6 ebbc 0b63 cbbf c240 c2bf
000000e0: 50d2 1abf 16cc 35bf 331a 84be 8242 b0be
000000f0: fafd 33be 5389 0bc0 49bd bdbf 33e3 48be
-0.3618463 -0.59082866 -0.4541476 -0.70601475 -0.9963671 -1.8347818 -0.15627535 0.20233274
-0.08205444 -0.3724057 -0.11740376 -0.17245802 -0.29772103 -0.31613293 -0.92611206 -0.10523844
-0.7031232 -0.75450915 -0.31757239 -0.28423548 -0.15608907 -0.8448043 -0.88898194 -0.35878903
-0.67826277 -0.28787136 -0.020390676 -1.8003899 1.2954159 -0.442176 -0.26877102 -0.8280494
-0.24742284 -0.46358132 -1.1578393 -0.7298626 -0.28253376 -0.5328869 -0.14276147 -0.46876568
-0.98191893 -0.85042953 -0.26707825 -0.15502363 -0.27133998 -0.18837695 -0.55408233 -0.6829894
-0.5038729 -0.663581 -0.7713236 -0.313383 -0.10874319 -0.028804252 -1.58896 -1.5176013
-0.6047716 -0.71014535 -0.25801238 -0.3442574 -0.17577353 -2.1802566 -1.482339 -0.1961792

fc2.weight f4 [64, 64]
00000000: a6ff b5bd 4295 b63e f318 98bc 34d7 23bd
00000010: 9368 853e e5cb 6ebd 4e41 b3bc d16d e8bb
00000020: 3be2 01be 0d84 eb3d ccdb 93be a255 febd
00000030: 1a33 343c b7db 8ebd 70ea 9cbd 3732 8bbd
00000040: 3075 1e3d a8de e7bc 5797 03bf 7c8b 5dbd
00000050: 37f2 9dbc d4bf 9d3e e463 2dbd 0fa9 82bd
00000060: 6e02 7ebd 7a22 b03d c5ac a2be f69b 70be
00000070: 73af 81bc 9a8a 8dbe b33a 89be 12c8 33be
00000080: 991f b1be 7f0a 983d 46f0 8f3e 7bcb 0abd
00000090: 980b 93be f663 313e 2b2b 59be 3b02 85be
000000a0: df84 81be 8059 69bd 331a 9dbe 64f0 d13d
000000b0: 076a 43be fa01 04be fb55 0fbd 8d38 e9bd
000000c0: fe27 b8bd 606e 823b d837 6e3d 681c 1ebe
000000d0: 8ba7 8abe a59e e8bd c61d 7ebe c50b 28be
000000e0: ec1d a5bd d665 053e 41fe b1be abc4 0ebf
000000f0: eae2 31be 700a 5ebe fd67 e5bd 2a05 3ebf
00000100: 6ef9 f2bd c1cb efbd 3b16 0abd b463 17be
00000110: 3c70 703d 70d4 a63c 70a9 693d 04fb 16be
00000120: 4744 02be 144b bdbd 0467 9ebc 705b ddbd
00000130: 9049 94bc 1055 d0bd f080 1fbc 5a10 3fbe
00000140: 0813 ae3c d45a 713d 257e 23bd 5635 b2bc
00000150: 2280 39be 6e81 ba3d 7a32 df3d 3b65 1a3d
00000160: 3b40 03bd dd52 28be ecde 13be e60b 4e3d
00000170: b5f5 60be 47dd cebb bdfc 20be 9c99 17be
00000180: 3153 aebd a46f 5bbe 609e 1cbe e83c ba3d
00000190: 6850 663c 0c1d f23d 66c9 fdbd 448a 55be
000001a0: 772d 813d 8823 dabc 00c1 5dbe bda6 e6bc
000001b0: 87ba 40be 6d32 b63c 12dd 3cbd 3f7e 8cbe
000001c0: d8cc 91be c065 33bc a02b 93bd 3387 8fbd
000001d0: 3899 57be 1ac5 7dbd 5ec0 35be a8e2 17be
000001e0: 9e6a aabd 0236 b0bc 16e7 3dbd ecf0 d0bd
000001f0: e4e5 d9bd 8b43 8abb 2209 38bd c206 fbbd
00000200: a015 a6be 385f 9d3d c062 edbb 4398 c2bd
00000210: 86a3 e83d 20ac e13c 6e8a f8bd 6225 8cbe
00000220: ae98 3fbd 000d aabd 6539 23bc 75c7 2fbe
00000230: b3a7 143d ba93 a4bd d4ce 103d bc19 18bd
00000240: 0891 f33c 0455 d43d 0b81 06be 57ab 08be
00000250: 2944 27be 4019 a8bb 808b 72bd b775 46bd
00000260: 20eb d1bc ccdb 13bd 74ec ed3c bacc 36bd
00000270: 90ef 24bd 743c 10be 5bdf 42be ded2 cd3c
00000280: 345c d2bd 18b3 ce3c 0084 973b f023 a3bd
00000290: 77af 0cbc 9a77 8f3d 90df 94bd 627b 91bd
000002a0: 9798 08be 05a0 e13a bcf4 19be c0a6 18be
000002b0: 40bf 98bc 919a ecbd 505f fb3c 2d08 e3bd
000002c0: 018a a2bd c46b 43bd c4f2 e9bd 47d9 573d
000002d0: 6519 60bd 01e5 803d 8798 cebd 2d5a e6bd
000002e0: ceaa f0bd 545c 42bd 3363 553b 4c8a 52be
000002f0: 7414 33bd d325 8dbb fdad 2abc 2b8b 09bd
00000300: f529 2abe 7dbf 65bd cf7f 0cbe d0fe 14be
00000310: 90ab 553d 5a3b 3cbe 89b7 26be 5986 a3bd
00000320: ba6f 39be 8420 d7bd efec 0bbd f53d 6fbd
00000330: 8949 b03b 6586 6bbe 8073 8e3a d22d fbbd
00000340: 622f 8fbd 8203 90bd 4809 90bd d396 cfbd
00000350: f608 3cbe ac71 b4bd 6c1a d4bd 2785 183c
00000360: d9d7 a4bd 4d8b efbd 2c63 18be d715 4abe
00000370: a835 5fbe 167b 36be 68bc 54bd 49c4 a7bd
00000380: f8ca 16be ccac 1fbe 4e89 a33d 4689 b83d
00000390: 7813 a63c 705a 153d 6995 27bd 9de0 20be
000003a0: 8e42 38be 6ccc fabd c328 c6bc bf39 0dbe
000003b0: 5619 bfbd eb65 cabd 4a46 7cbe 68d7 1cbe
000003c0: 0745 45bd 1042 cfbc b0c5 5dbe 2917 a2bd
000003d0: 7774 c1bd d7bc 03be 0642 79bd ca69 b4bd
000003e0: c0d3 3cbd 3665 4f3b 4c6b 13bd afb5 0fbe
000003f0: d1e4 29be 3144 64be cf1b 4cbd d793 0ebe
-0.08886652 0.3566075 -0.018566584 -0.040000156 0.26056346 -0.058299918 -0.021881726 -0.0070931693
-0.12683956 0.11499796 -0.2887863 -0.12418677 0.010998512 -0.06975501 -0.07661903 -0.06796687
0.038685977 -0.028304413 -0.514028 -0.0540881 -0.019280536 0.30810416 -0.04233159 -0.063799016
-0.062014036 0.08600326 -0.31772438 -0.23496994 -0.015830731 -0.27644807 -0.26802596 -0.1755679
-0.3459442 0.07423877 0.28113002 -0.03388546 -0.28719783 0.17323288 -0.21207874 -0.25978264
-0.25296685 -0.05697012 -0.3068405 0.10250929 -0.19083415 -0.12891379 -0.034994107 -0.11387739
-0.08992003 0.003980443 0.058158726 -0.15440524 -0.2708095 -0.11358384 -0.24816045 -0.1641074
-0.08062348 0.13027129 -0.34764293 -0.5576884 -0.17371717 -0.21683669 -0.11201475 -0.7422663
-0.11863981 -0.11708785 -0.033712607 -0.14784127 0.058700785 0.02036497 0.057046354 -0.14744192
-0.12721358 -0.09242836 -0.019336231 -0.10808456 -0.018101484 -0.101724744 -0.009735331 -0.18658581
0.02124931 0.05892451 -0.039915223 -0.021753948 -0.18115285 0.09106718 0.108982995 0.037694197
-0.032043677 -0.1643786 -0.14440507 0.050304316 -0.2196873 -0.0063129994 -0.15721412 -0.14804691
-0.08511961 -0.21429306 -0.1529479 0.09093648 0.014057256 0.118219465 -0.12391929 -0.20853525
0.063075 -0.02662827 -0.21655655 -0.028155679 -0.18821155 0.022240842 -0.046109267 -0.27440068
-0.28476596 -0.010949552 -0.07186055 -0.07008209 -0.21054542 -0.06195555 -0.17749164 -0.14832556
-0.08321117 -0.021510128 -0.04636296 -0.10202202 -0.10639551 -0.0042194775 -0.044930585 -0.12257148
-0.32438374 0.07684177 -0.007244438 -0.09501698 0.113593146 0.027547896 -0.12135778 -0.2737227
-0.046776466 -0.08303261 -0.009962414 -0.1716593 0.036292743 -0.08035989 0.035353497 -0.037133917
0.029732242 0.10367778 -0.13135163 -0.13346611 -0.16334595 -0.005129963 -0.05921507 -0.048452105
-0.025624812 -0.036098287 0.029043414 -0.044628836 -0.040267527 -0.14085561 -0.19030516 0.025124963
-0.102714926 0.025231883 0.00462389 -0.07965839 -0.008586756 0.07005234 -0.07269204 -0.071036115
-0.13339458 0.0017213827 -0.15034765 -0.1490736 -0.018645883 -0.11552919 0.030685097 -0.11085544
-0.079364784 -0.047710195 -0.11423257 0.052697446 -0.054711718 0.06293679 -0.10087686 -0.112476684
-0.117513284 -0.047451332 0.0032560348 -0.20560569 -0.043720677 -0.0043074875 -0.010417459 -0.033579987
-0.16617568 -0.05609082 -0.1372063 -0.14550328 0.052165568 -0.18382016 -0.1628095 -0.07984609
-0.18109027 -0.10504249 -0.034161504 -0.058408696 0.00537986 -0.23000486 0.0010868162 -0.12264599
-0.069914594 -0.07031919 -0.0703302 -0.10136189 -0.18362793 -0.08810744 -0.10356602 0.00930909
-0.08048982 -0.116964914 -0.14881581 -0.19734894 -0.21797812 -0.17820391 -0.05193749 -0.08191735
-0.14725864 -0.1559326 0.07985173 0.09010558 0.020272955 0.0364632 -0.040913973 -0.15710683
-0.17994139 -0.12246022 -0.024189359 -0.1379156 -0.09331004 -0.098827206 -0.24636188 -0.15316546
-0.048161533 -0.025300056 -0.21657443 -0.07914574 -0.09446042 -0.12865005 -0.06085398 -0.0880924
-0.046100378 0.003164602 -0.035991 -0.1403415 -0.16591193 -0.22291638 -0.049831208 -0.13923584

fc2.bias f4 [64]
00000000: 9a38 31bf 6767 05be 46b3 fcbe 7438 19be
00000010: a353 8fbe 33fd 4cbd d057 1bbf 2252 70bf
00000020: bf81 81bd 47ce 84bd c0b7 11be bf6f 44be
00000030: 60f9 51be 01f6 29be d120 843f 29a7 23be
00000040: df79 c7bd 83cc 0bbe 939b 49be 2026 96be
00000050: cb7a 46bf 09f0 913f 3639 35be c783 543f
00000060: 2a2f 37bd 4d50 a4bd 341e 94bd 2ff3 8bbe
00000070: 874d 4ebe c81c d3be 339e 87be bd3c 27be
00000080: a43c 57be db90 4dbe 1b3a 103e d611 babd
00000090: d99f a5be 8eea b5be c8ab 10be 1522 27c0
000000a0: cd24 65be d845 1bbe 0158 a2be 4869 d9be
000000b0: 26a8 7e3f 5579 6fbe fa0a f6bd a03f 18bf
000000c0: 6bf5 c9be 00b5 dfbd 5aef f7bd 0f08 48be
000000d0: 5778 84bc 7517 2bbe 47d7 4fbe 565b b4be
000000e0: b0e1 50be 1a52 33bc 9717 d13e d966 e2bd
000000f0: 78f8 9dbe f775 c7be cdd5 edbc 11ad 2bbc
-0.6922699 -0.13027726 -0.49355525 -0.14962941 -0.27993497 -0.050046157 -0.60680866 -0.93875325
-0.06323575 -0.06484657 -0.14230251 -0.19183253 -0.20505285 -0.1659775 1.0322515 -0.15981735
-0.09740042 -0.13652234 -0.19688253 -0.29325962 -0.7753112 1.1401378 -0.17697605 0.83013576
-0.044722714 -0.08023129 -0.07232323 -0.27333972 -0.20146762 -0.41232896 -0.26487884 -0.16331764
-0.21019226 -0.20074789 0.14084665 -0.09085433 -0.32348517 -0.35530514 -0.1412803 -2.6114552
-0.2237732 -0.15163362 -0.31707767 -0.42463136 0.99475324 -0.23386128 -0.12013812 -0.59472084
-0.39445052 -0.10923195 -0.121061996 -0.19534324 -0.016170664 -0.16708167 -0.20296966 -0.35225934
-0.20398593 -0.0109448675 0.4083831 -0.11054773 -0.3085363 -0.38957188 -0.029032612 -0.010478274
