maddpg_pytorch/models/cache_data/model/run51/incremental/model_ep3001.pt (torch, 690099 bytes, 168 tensors)

fc1.weight f4 [64, 1]
0.8468693 -0.3733413 -0.22222553 -0.8595686 -1.7123907 0.83568263 -0.07896643 0.6561737
-0.018149152 0.071733885 -0.06830076 0.009121003 -0.43590268 -0.24092627 -0.07290876 -0.02368397
0.14494395 -0.0039948225 0.18303989 0.06273471 -0.0741804 -0.33829564 -0.16761565 -0.54577285
-1.2029489 -0.43394625 0.0012199158 0.79597324 -1.7325592 -0.076605126 0.048621953 0.9086854
-0.1733548 -1.3569365 -1.7985147 -0.056341156 0.2890403 0.04596428 -0.0550178 -0.57954115
1.0728816 -0.42309844 -0.15137617 -0.061840847 -0.2055494 -0.058049835 -0.91595316 -0.88150823
-0.7347649 -0.1096344 -1.3938966 -0.93947047 0.01196039 -0.013712325 0.9370452 1.0000908
-0.04682362 -1.5336171 -0.09018275 0.26026565 -0.15363315 0.8414623 0.9834615 0.11772063
00000000: 6dcc 583f 9726 bfbe 178f 63be b00c 5cbf
00000010: 9e2f dbbf 4cef 553f 27b9 a1bd 00fb 273f
00000020: 88ad 94bc 37e9 923d 45e1 8bbd 4270 153c
00000030: a32e dfbe 60b5 76be 3051 95bd e304 c2bc
00000040: 306c 143e 00e7 82bb cf6e 3b3e 0e7b 803d
00000050: e5eb 97bd 1635 adbe 70a3 2bbe c5b7 0bbf
00000060: 3bfa 99bf 342e debe 95e5 9f3a e7c4 4b3f
00000070: 80c4 ddbf 26e3 9cbd d027 473d 9b9f 683f
00000080: ec83 31be 18b0 adbf bb35 e6bf fcc5 66bd
00000090: 17fd 933e 0a45 3c3d 585a 61bd cf5c 14bf
000000a0: 2f54 893f 5ca0 d8be 5b02 1bbe d44c 7dbd
000000b0: 8b7b 52be aac5 6dbd e87b 6abf 86aa 61bf
000000c0: 8d19 3cbf 0088 e0bd 346b b2bf 2381 70bf
000000d0: 83f5 433c a9a9 60bc 32e2 6f3f fa02 803f
000000e0: 20ca 3fbd 914d c4bf bcb1 b8bd 8a41 853e
000000f0: 0252 1dbe 136a 573f 22c4 7b3f 8317 f13d

fc1.bias f4 [64]
-1.3547431 -0.5908319 -0.45414722 -0.3917566 -0.73511475 -1.4467106 -0.15627556 0.41583252
-0.08205481 -0.37240827 -0.11740408 -0.17245893 -0.19257411 -0.31613266 -0.92611206 -0.10523843
-0.7031232 -0.754509 -0.22500002 -0.28423572 -0.1560897 -0.84480363 -0.88898194 -0.23647559
-0.52299345 -0.19048719 -0.020390823 -1.4249463 -0.16680123 -0.44217604 -0.26877218 -0.30143744
-0.24742301 -0.01634988 -0.7989723 -0.72986704 -0.3802079 -0.53288764 -0.14276206 -0.26803052
-0.4111402 -0.85042953 -0.267079 -0.15502419 -0.27134156 -0.18837766 0.21272849 -0.41122782
-0.35544062 -0.663581 -0.51654017 -0.050789785 -0.10874361 -0.028804407 -1.1698656 -1.1283406
-0.6047716 -0.04301631 -0.25801384 -0.207445 -0.17577389 -1.8561565 -1.1142427 -0.10636956
00000000: 3968 adbf c240 17bf fc85 e8be 5294 c8be
00000010: 7b30 3cbf d02d b9bf b306 20be 00e8 d43e
00000020: 5a0c a8bd 4cac bebe 8d71 f0bd 1399 30be
00000030: 2632 45be 24dc a1be ae15 6dbf 3f87 d7bd
00000040: e2ff 33bf 8027 41bf 6866 66be 5887 91be
00000050: fad5 1fbe 0d45 58bf 5294 63bf a826 72be
00000060: e6e2 05bf 130f 43be a80a a7bc a464 b6bf
00000070: f1cd 2abe e664 e2be 829c 89be 0256 9abe
00000080: 755c 7dbe 2ff0 85bc 7389 4cbf 91d8 3abf
00000090: 9caa c2be 536b 08bf 3830 12be 4c3b 89be
000000a0: f880 d2be c0b5 59bf 94be 88be a9be 1ebe
000000b0: 48ed 8abe 13e6 40be 7fd5 593e 748c d2be
000000c0: 50fc b5be 72e0 29bf fa3b 04bf f308 50bd
000000d0: f8b4 debd 38f7 ebbc 28be 95bf 776d 90bf
000000e0: 50d2 1abf df31 30bd 641a 84be 766c 54be
000000f0: 12fe 33be 8996 edbf 819f 8ebf 49d8 d9bd

fc2.weight f4 [64, 64]
-0.08886676 0.35661 -0.01856652 -0.039999943 0.26056585 -0.058300007 -0.021881837 -0.0070931995
-0.12684022 0.11499833 -0.2887866 -0.124186926 0.010998551 -0.06975568 -0.07661903 -0.06796696
0.038685977 -0.028304413 -0.5140329 -0.054088302 -0.019280346 0.30810565 -0.04233159 -0.06379959
-0.062014006 0.08600319 -0.31772494 -0.23497114 -0.015830886 -0.27644628 -0.26802754 -0.1755679
-0.3459436 0.074237995 0.28112805 -0.033885527 -0.28719985 0.1732338 -0.21207848 -0.25978452
-0.2529666 -0.05697012 -0.30683902 0.10250947 -0.19083486 -0.12891291 -0.03499438 -0.1138777
-0.08992029 0.003980443 0.058158457 -0.1544055 -0.27081123 -0.11358438 -0.24816146 -0.164108
-0.08062348 0.13027097 -0.34764096 -0.5576923 -0.17371775 -0.21683681 -0.11201488 -0.742269
-0.118639745 -0.11708834 -0.033712618 -0.14784256 0.058700785 0.020364832 0.05704606 -0.14744253
-0.12721434 -0.09242836 -0.019336304 -0.10808459 -0.018101506 -0.10172467 -0.009735331 -0.18658708
0.02124931 0.05892451 -0.039915387 -0.02175398 -0.18115342 0.09106718 0.108982995 0.037694074
-0.03204378 -0.16437945 -0.1444061 0.050304066 -0.21968824 -0.006313002 -0.15721413 -0.14804713
-0.08511981 -0.2142929 -0.1529489 0.09093648 0.014057191 0.118219465 -0.12391931 -0.20853516
0.06307467 -0.02662827 -0.2165569 -0.028155746 -0.18821245 0.022240711 -0.04610957 -0.2744008
-0.28476754 -0.010949552 -0.071860984 -0.070082694 -0.21054587 -0.061955646 -0.17749225 -0.14832687
-0.08321117 -0.021510191 -0.04636327 -0.10202227 -0.106395766 -0.0042194976 -0.04493077 -0.12257173
-0.008706938 0.07684177 -0.007244438 -0.095017 0.113593146 0.027547719 -0.12135774 0.042483713
-0.046776775 -0.08303261 -0.009962463 -0.17165934 0.03629259 -0.08035989 0.035353497 -0.03713393
0.029732242 0.10367778 -0.13135245 -0.13346642 -0.16334592 -0.005129963 -0.05921507 -0.048452333
-0.025624812 -0.03609859 0.029043308 -0.044628855 -0.040267527 -0.14085636 -0.19030574 0.025124803
-0.10271533 0.025231883 0.00462389 -0.07965839 -0.008586821 0.07005234 -0.072692685 -0.071036115
-0.13339555 0.0017213821 -0.15034829 -0.14907452 -0.018645883 -0.11552939 0.030685097 -0.110855535
-0.079364784 -0.047710195 -0.11423257 0.05269732 -0.054711737 0.06293627 -0.10087728 -0.11247688
-0.11751327 -0.047451332 0.0032560225 -0.20560592 -0.043720677 -0.004307499 -0.010417537 -0.03357998
-0.16617657 -0.0560911 -0.1372071 -0.14550315 0.052165568 -0.1838207 -0.16280945 -0.07984633
-0.18109085 -0.10504298 -0.034161635 -0.05840868 0.0053798174 -0.23000504 0.0010868162 -0.122645915
-0.069914594 -0.07031919 -0.070330806 -0.1013625 -0.18362899 -0.08810744 -0.10356602 0.009309071
-0.08049015 -0.11696491 -0.14881591 -0.19734943 -0.21797797 -0.17820399 -0.05193748 -0.08191778
-0.14725947 -0.15593272 0.07985173 0.09010558 0.020272931 0.0364632 -0.04091427 -0.15710783
-0.17994171 -0.12246022 -0.024189368 -0.13791588 -0.09331054 -0.09882735 -0.24636179 -0.15316549
-0.048161723 -0.025300056 -0.21657437 -0.07914634 -0.09446089 -0.12865125 -0.060854137 -0.08809279
-0.046100378 0.0031645962 -0.03599126 -0.14034206 -0.16591264 -0.22291698 -0.049831398 -0.13923642
00000000: c7ff b5bd 9695 b63e d118 98bc fbd6 23bd
00000010: e368 853e fdcb 6ebd 8a41 b3bc 126e e8bb
00000020: 67e2 01be 3f84 eb3d d6db 93be b755 febd
00000030: 4433 343c 11dc 8ebd 70ea 9cbd 4332 8bbd
00000040: 3075 1e3d a8de e7bc a997 03bf b28b 5dbd
00000050: d1f1 9dbc 06c0 9d3e e463 2dbd 5ca9 82bd
00000060: 6602 7ebd 7122 b03d d8ac a2be 469c 70be
00000070: c6af 81bc 5e8a 8dbe e83a 89be 12c8 33be
00000080: 851f b1be 170a 983d 04f0 8f3e 8dcb 0abd
00000090: dc0b 93be 3464 313e 1a2b 59be 7a02 85be
000000a0: d784 81be 8059 69bd 011a 9dbe 7cf0 d13d
000000b0: 376a 43be bf01 04be 4456 0fbd b638 e9bd
000000c0: 2128 b8bd 606e 823b 9037 6e3d 7a1c 1ebe
000000d0: c5a7 8abe ed9e e8bd 0a1e 7ebe ed0b 28be
000000e0: ec1d a5bd c165 053e fffd b1be ecc4 0ebf
000000f0: 11e3 31be 780a 5ebe 0f68 e5bd 5705 3ebf
00000100: 65f9 f2bd 03cc efbd 3e16 0abd 0a64 17be
00000110: 3c70 703d 26d4 a63c 21a9 693d 2dfb 16be
00000120: 7a44 02be 144b bdbd 2b67 9ebc 745b ddbd
00000130: 9c49 94bc 0655 d0bd f080 1fbc af10 3fbe
00000140: 0813 ae3c d45a 713d 517e 23bd 6735 b2bc
00000150: 4880 39be 6e81 ba3d 7a32 df3d 1a65 1a3d
00000160: 5740 03bd 1653 28be 31df 13be a30b 4e3d
00000170: f4f5 60be 4ddd cebb befc 20be ab99 17be
00000180: 4c53 aebd 996f 5bbe a39e 1cbe e83c ba3d
00000190: 2250 663c 0c1d f23d 68c9 fdbd 3e8a 55be
000001a0: 4b2d 813d 8823 dabc 18c1 5dbe e1a6 e6bc
000001b0: c4ba 40be 2732 b63c 63dd 3cbd 437e 8cbe
000001c0: 0dcd 91be c065 33bc da2b 93bd 8487 8fbd
000001d0: 5699 57be 34c5 7dbd 87c0 35be 00e3 17be
000001e0: 9e6a aabd 2436 b0bc 6ae7 3dbd 0df1 d0bd
000001f0: 06e6 d9bd b643 8abb 5409 38bd e306 fbbd
00000200: 8ba7 0ebc 385f 9d3d c062 edbb 4698 c2bd
00000210: 86a3 e83d c1ab e13c 688a f8bd 6703 2e3d
00000220: 0199 3fbd 000d aabd 9939 23bc 77c7 2fbe
00000230: 8aa7 143d ba93 a4bd d4ce 103d bf19 18bd
00000240: 0891 f33c 0455 d43d 4281 06be 6cab 08be
00000250: 2744 27be 4019 a8bb 808b 72bd f475 46bd
00000260: 20eb d1bc 1ddc 13bd 3bec ed3c bfcc 36bd
00000270: 90ef 24bd a63c 10be 82df 42be 88d2 cd3c
00000280: 6a5c d2bd 18b3 ce3c 0084 973b f023 a3bd
00000290: bdaf 0cbc 9a77 8f3d e7df 94bd 627b 91bd
000002a0: d898 08be 00a0 e13a e7f4 19be fea6 18be
000002b0: 40bf 98bc ac9a ecbd 505f fb3c 3a08 e3bd
000002c0: 018a a2bd c46b 43bd c4f2 e9bd 25d9 573d
000002d0: 6a19 60bd bbe4 803d bf98 cebd 475a e6bd
000002e0: ccaa f0bd 545c 42bd fe62 553b 5c8a 52be
000002f0: 7414 33bd ec25 8dbb 51ae 2abc 298b 09bd
00000300: 312a 2abe c8bf 65bd 0580 0cbe c7fe 14be
00000310: 90ab 553d 7e3b 3cbe 85b7 26be 7986 a3bd
00000320: e16f 39be c620 d7bd 12ed 0bbd f13d 6fbd
00000330: 2e49 b03b 7186 6bbe 8073 8e3a c82d fbbd
00000340: 622f 8fbd 8203 90bd 9909 90bd 2497 cfbd
00000350: 3d09 3cbe ac71 b4bd 6c1a d4bd 1385 183c
00000360: 05d8 a4bd 4c8b efbd 3363 18be f815 4abe
00000370: 9e35 5fbe 1b7b 36be 65bc 54bd 82c4 a7bd
00000380: 30cb 16be d4ac 1fbe 4e89 a33d 4689 b83d
00000390: 6b13 a63c 705a 153d b995 27bd e0e0 20be
000003a0: a442 38be 6ccc fabd c828 c6bc d239 0dbe
000003b0: 9919 bfbd fe65 cabd 4446 7cbe 6ad7 1cbe
000003c0: 3a45 45bd 1042 cfbc acc5 5dbe 7a17 a2bd
000003d0: b674 c1bd 27bd 03be 3042 79bd fe69 b4bd
000003e0: c0d3 3cbd 1d65 4f3b 926b 13bd d4b5 0fbe
000003f0: 01e5 29be 5944 64be 021c 4cbd fe93 0ebe

fc2.bias f4 [64]
-0.6922706 -0.13027714 -0.17802866 -0.14962986 -0.27993527 -0.05004612 0.48162654 -0.43740112
0.5230018 0.18078548 -0.14230333 -0.19183272 -0.20505269 -0.16597869 0.91853416 -0.15981832
-0.031142132 -0.13652249 -0.19688293 -0.29326183 -0.6776177 0.8480898 -0.1769768 -0.086477734
-0.044722743 -0.080231555 -0.07232371 -0.2733405 -0.2014683 -0.1011262 -0.26487863 -0.16331895
-0.21019317 -0.20074849 0.5638176 -0.09085476 -0.32348505 -0.06326633 -0.043755047 -0.1967191
-0.046465673 -0.15163459 -0.31707782 -0.31790704 0.5343619 -0.23386201 -0.12013815 0.8065779
-0.08673899 -0.109232195 -0.12106203 -0.1953443 -0.016170736 1.3470734 -0.20297049 -0.35226
-0.20398688 0.14283414 0.5171224 -0.11054818 -0.30853608 -0.3895719 0.71151733 -0.010478273
00000000: a538 31bf 5f67 05be 254d 36be 9238 19be
00000010: ad53 8fbe 29fd 4cbd c197 f63e 0af3 dfbe
00000020: 72e3 053f d41f 393e f7b7 11be cc6f 44be
00000030: 55f9 51be 51f6 29be 0e25 6b3f 6aa7 23be
00000040: c91d ffbc 8dcc 0bbe ae9b 49be 6a26 96be
00000050: 5b78 2dbf 6a1c 593f 6839 35be 3d1b b1bd
00000060: 322f 37bd 7150 a4bd 741e 94bd 49f3 8bbe
00000070: b54d 4ebe 411b cfbd 2c9e 87be 153d 27be
00000080: e13c 57be 0391 4dbe 5a56 103f 0f12 babd
00000090: d59f a5be c791 81bd 7e38 33bd bb70 49be
000000a0: ca52 3ebd 1946 1bbe 0658 a2be b6c4 a2be
000000b0: f1cb 083f 8679 6fbe fe0a f6bd e47b 4e3f
000000c0: 36a4 b1bd 21b5 dfbd 5fef f7bd 5608 48be
000000d0: 7e78 84bc e76c ac3f 7fd7 4fbe 6c5b b4be
000000e0: f0e1 50be 1d43 123e 2262 043f 1667 e2bd
000000f0: 71f8 9dbe f875 c7be 0026 363f 10ad 2bbc

fc3.weight f4 [32, 64]
-0.02061313 0.061556716 0.11756492 -0.14080206 -0.2723398 0.026133345 -0.41278628 -0.8115434
-0.6600483 -0.25793195 0.101693764 0.20345628 -0.24244374 -0.06681042 3.1914797 -0.01720838
0.2539809 0.0045996383 -0.28752205 -0.2570512 0.00019776775 -0.19416867 0.08495013 0.085747324
-0.046173204 0.015077674 0.06771897 -0.5152487 -0.026202248 -0.060162105 -0.01645689 -0.035637956
-0.1443192 -0.2186189 0.42761686 -0.29086548 0.19204354 0.074576505 0.023835665 0.119965605
-0.056690935 -0.02654021 0.08214215 0.12792508 0.43124285 -0.18751808 -0.0624784 -0.1146502
-0.057257578 0.17124057 -0.13673572 -0.018321581 0.09762122 0.30023402 -0.09518377 -0.05560802
-0.05221604 -0.051024728 -1.8568996 0.036829807 -0.16693507 0.08302287 -0.13150463 -0.111931905
-0.42140317 0.026841804 0.12055666 -0.11745234 -0.048735347 -0.06082093 0.41285273 0.50301605
0.52118593 0.0216349 -0.12043008 -0.028041033 0.24126974 0.04379096 0.8535231 -0.01698038
0.08041685 -0.07646746 -0.18196689 0.21771164 -0.60049605 -1.3106488 -0.0680821 0.17084853
-0.00862489 -0.04758618 -0.023105716 -0.54670906 -0.057610545 -0.003776249 -0.12366828 -0.12322924
-0.16202149 -0.122597046 -0.49288526 -0.30379915 0.23647445 0.11477264 0.101051174 -0.0013790723
-0.1306345 0.1566811 -0.028918091 -0.4635169 -0.29786158 -0.05426779 0.027166104 2.0008569
0.08207396 0.32766005 -0.026154725 0.022164512 -0.018933376 -0.9360283 -0.1709782 0.007158845
0.23892379 1.9170786 -0.023979599 -0.059603263 -0.7544111 0.02247075 1.1430227 0.07441057
-0.87002987 -0.10163723 -0.13508923 0.12460022 -0.15929732 0.01177088 -0.71906596 -0.051742375
0.7236327 -0.23245086 -0.06280442 0.24890496 -0.0906926 0.011307879 0.4560729 -0.106771655
-0.64263356 0.12500182 -0.1016304 0.36200622 -0.6059592 0.44443712 0.05503451 -0.022258388
0.024446506 0.07300068 -0.04746542 -0.7412128 -0.023701962 0.04601378 0.111750685 -0.26728857
0.15919015 0.12789296 0.12421974 0.03796151 -0.16004305 0.0075017875 -0.8679689 0.03759854
0.06627158 -0.18358251 0.060799252 0.19700992 -0.1782328 0.14414334 -0.08983304 -0.32299215
-0.17230444 0.18371367 0.13518612 -0.064414285 0.031425692 0.8150829 0.13666348 0.7212074
-0.19374081 -0.31218275 -0.2625139 0.025559235 -0.7817334 0.56171066 1.3420413 -0.08164056
-0.6788408 0.026935346 -0.00226034 0.04682839 -0.0401948 -0.17482762 0.92406934 -0.017965768
-0.8919436 0.8526766 -0.100989245 -0.32688686 0.14337152 -0.17154215 -1.0506935 0.060101233
0.0710795 -0.24202919 -0.1676506 -0.35482386 -0.50642294 1.2466328 0.20165597 0.13218877
0.017240064 0.19078568 0.40672594 0.44634822 0.15317078 -0.05463924 -0.099817045 0.37128633
-0.044318642 -0.21574311 -0.055561658 -1.0936532 -0.31702384 -0.038093373 0.56815803 0.03969805
0.21850848 -0.1668843 0.11908436 -0.2183742 -0.7746959 0.009237203 0.18079433 -0.010384204
0.1280631 0.043090615 0.10630201 -0.009371314 0.17969385 -1.0288367 0.06048358 -0.43895832
0.06871411 -0.8028489 1.2878904 0.19344433 0.45046 -0.61314714 0.40879136 -0.08424392
00000000: dedc a8bc e522 7c3d e0c5 f03d 6a2e 10be
00000010: 1f70 8bbe 9915 d63c b958 d3be 4fc1 4fbf
00000020: edf8 28bf a80f 84be d244 d03d d856 503e
00000030: 2c43 78be e7d3 88bd 3441 4c40 97f8 8cbc
00000040: c909 823e 90b8 963b 1736 93be 379c 83be
00000050: e05f 4f39 27d4 46be 55fa ad3d 4b9c af3d
00000060: 1d20 3dbd 5908 773c 3eb0 8a3d 57e7 03bf
00000070: 19a6 d6bc 8a6c 76bd 9ad0 86bc 1bf9 11bd
00000080: 6ac8 13be a2dd 5fbe 99f0 da3e 52ec 94be
00000090: 10a7 443e 91bb 983d 0343 c33c 87b0 f53d
000000a0: c134 68bd db6a d9bc 253a a83d cbfe 023e
000000b0: ddcb dc3e bd04 40be 5ae9 7fbd b9cd eabd
000000c0: ec86 6abd b059 2f3e 7304 0cbe 2417 96bc
000000d0: a2ed c73d 46b8 993e b5ef c2bd 3cc5 63bd
000000e0: 7de0 55bd 4eff 50bd e3ae edbf dada 163d
000000f0: 07f1 2abe e507 aa3d 26a9 06be 8e3c e5bd
00000100: 28c2 d7be 58e3 db3c 69e6 f63d da8a f0bd
00000110: b79e 47bd 5e1f 79bd 6f61 d33e a9c5 003f
00000120: 716c 053f ac3b b13c 0ca4 f6bd 4fb6 e5bc
00000130: 6a0f 773e 265e 333d 7d80 5a3f 701a 8bbc
00000140: 97b1 a43d f99a 9cbd 8755 3abe cdef 5e3e
00000150: 1cba 19bf 57c3 a7bf a16e 8bbd ebf2 2e3e
00000160: 694f 0dbc bae9 42bd 3348 bdbc 20f5 0bbf
00000170: 09f9 6bbd f27a 77bb cc45 fdbd 9d5f fcbd
00000180: f6e8 25be 2914 fbbd 755b fcbe 908b 9bbe
00000190: 5c26 723e eb0d eb3d ebf3 ce3d fdc1 b4ba
000001a0: 0dc5 05be 0371 203e a2e5 ecbc 1652 edbe
000001b0: 5081 98be e747 5ebd 738b de3c 0a0e 0040
000001c0: 6416 a83d 0fc3 a73e 6f42 d6bc 5a92 b53c
000001d0: 2b1a 9bbc 8d9f 6fbf e914 2fbe bf94 ea3b
000001e0: 70a8 743e d562 f53f dd70 c4bc 8d22 74bd
000001f0: 1621 41bf 9414 b83c 914e 923f 9264 983d
00000200: 47ba 5ebf 2e27 d0bd d554 0abe 662e ff3d
00000210: d61e 23be a6da 403c b514 38bf d0ef 53bd
00000220: fe3f 393f 9907 6ebe 9b9f 80bd f1e0 7e3e
00000230: 0bbd b9bd af44 393c 6382 e93e 19ab dabd
00000240: a283 24bf 7a00 003e 9923 d0bd e158 b93e
00000250: 2420 1bbf 438d e33e de6b 613d 3957 b6bc
00000260: 0a44 c83c 6181 953d 1a6b 42bd 1fc0 3dbf
00000270: 9e2a c2bc f278 3c3d 8bdd e43d 0cda 88be
00000280: be02 233e 5ff6 023e eb66 fe3d 877d 1b3d
00000290: 53e2 23be 8ed1 f53b 3633 5ebf ed00 1a3d
000002a0: 65b9 873d 0efd 3bbe a308 793d f8bc 493e
000002b0: a982 36be 509a 133e 63fa b7bd 3a5f a5be
000002c0: 9370 30be 701f 3c3e 3b6e 0a3e a3eb 83bd
000002d0: 3ab8 003d 46a9 503f 83f1 0b3e 0ca1 383f
000002e0: fe63 46be 6bd6 9fbe 3968 86be 9a61 d13c
000002f0: ae1f 48bf 45cc 0f3f 02c8 ab3f 2a33 a7bd
00000300: 83c8 2dbf 84a7 dc3c 3622 14bb 20cf 3f3d
00000310: 4da3 24bd 0306 33be cf8f 6c3f f22c 93bc
00000320: 6a56 64bf 0349 5a3f 73d3 cebd b75d a7be
00000330: fccf 123e bfa8 2fbe 207d 86bf b62c 763d
00000340: 2192 913d 80d6 77be 99ac 2bbe 79ab b5be
00000350: efa4 01bf aa91 9f3f e77e 4e3e 7e5c 073e
00000360: 093b 8d3c 525d 433e 623e d03e c187 e43e
00000370: cdd8 1c3e 65cd 5fbd e16c ccbd 3e19 be3e
00000380: 7787 35bd c3eb 5cbe 9f94 63bd d4fc 8bbf
00000390: f350 a2be cc07 1cbd ce72 113f 6c9a 223d
000003a0: b0c0 5f3e b8e3 2abe 80e2 f33d 7c9d 5fbe
000003b0: 7852 46bf a357 173c 2622 393e 8222 2abc
000003c0: f922 033e c97f 303d deb4 d93d 248a 19bc
000003d0: aa01 383e ecb0 83bf a1bd 773d 25bf e0be
000003e0: fcb9 8c3d 8187 4dbf 98d9 a43f 4516 463e
000003f0: b1a2 e63e 36f7 1cbf 1a4d d13e 1488 acbd

fc3.bias f4 [32]
-0.86109614 0.029550524 0.11188085 0.22690079 -0.084414445 -0.5524169 -0.6821535 0.7672197
0.30756238 -0.7377877 -0.37422702 -0.7092764 -0.78145814 0.89327276 -0.2733433 -0.5787706
0.19213478 -0.23689754 -0.6389056 0.29794237 -0.38371083 -0.3174486 -0.32063225 0.78478247
-0.18547629 0.36278644 0.13195662 -0.2918683 0.38576418 1.4385773 0.5328326 -1.376335
00000000: cc70 5cbf f113 f23c c921 e53d ae58 683e
00000010: 7be1 acbd 326b 0dbf 9da1 2ebf 8368 443f
00000020: d178 9d3e a8df 3cbf af9a bfbe 2393 35bf
00000030: a40d 48bf 86ad 643f a7f3 8bbe 4f2a 14bf
00000040: fbbe 443e 4595 72be 518f 23bf e78b 983e
00000050: bf75 c4be 9f88 a2be e929 a4be 81e7 483f
00000060: 7fed 3dbe 25bf b93e a31f 073e c36f 95be
00000070: e282 c53e 4d23 b83f b867 083f bf2b b0bf

in_fn.weight f4 [33]
1.5144929 0.6549558 0.2487827 0.2602898 0.3087636 0.20256506 0.012615283 0.11041853
0.49001154 0.27809146 -0.008851399 0.37763813 0.26005432 0.32965794 0.3321582 0.24059801
0.6940201 0.2106064 0.08762219 0.11599489 0.37368983 0.125198 0.33747298 0.27165952
0.95121616 0.10208403 0.35866442 0.30257955 0.66683006 0.34815723 0.7407481 0.69579947
0.9853392
00000000: e7da c13f 2fab 273f e4c0 7e3e b444 853e
00000010: 4316 9e3e 376d 4f3e 55b0 4e3c 1c23 e23d
00000020: cbe2 fa3e 0162 8e3e 7505 11bc c959 c13e
00000030: d725 853e edc8 a83e a410 aa3e 535f 763e
00000040: 4dab 313f 34a9 573e 4373 b33d bb8e ed3d
00000050: 4654 bf3e e833 003e 42c9 ac3e f516 8b3e
00000060: e782 733f 6f11 d13d dda2 b73e b5eb 9a3e
00000070: 60b5 2a3f aa41 b23e aba1 3d3f ea1f 323f
00000080: 313f 7c3f

in_fn.bias f4 [33]
0.06091406 0.030373432 0.0658102 0.04435183 0.04700994 0.048959434 -0.058575053 -0.010600813
-0.028581185 0.021993091 0.0033752471 0.105715044 -0.020959683 0.026160035 0.008867906 0.0011537165
0.102331616 0.07051269 0.018365564 -0.010985389 -0.022752773 0.021071471 0.002323734 -0.012980523
0.17390119 0.05067192 0.0048586954 0.007447112 0.10150376 -0.05118537 0.21689625 0.2580487
0.049466845
00000000: 0581 793d b4d1 f83c 80c7 863d 44aa 353d
00000010: 7f8d 403d b089 483d 65ec 6fbd 08af 2dbc
00000020: 1723 eabc db2a b43c 4033 5d3b 2181 d83d
00000030: a4b3 abbc 924d d63c b24a 113c 4d38 973a
00000040: 3d93 d13d f568 903d 6173 963c 10fc 33bc
00000050: 0664 babc 149e ac3c ca49 183b 42ac 54bc
00000060: 2713 323e 5c8d 4f3d b135 9f3b e706 f43b
00000070: 34e1 cf3d c0a7 51bd 0d1a 5e3e f61e 843e
00000080: bf9d 4a3d

in_fn.running_mean f4 [33]
2.2540028 0.014459474 0.005675211 0.010767081 0.015905725 0.004862312 0.0043620234 0.005380914
0.026006786 0.01712492 0.002103079 0.0060414695 0.016799398 0.0076565463 0.019043276 0.014025702
0.029122489 0.0050563663 0.01138157 0.005537631 0.028117346 0.0052866726 0.0110835 0.009032506
0.15814811 0.0063243695 0.014021667 0.014807342 0.054072145 0.014239866 0.25483602 0.067452684
0.14126581
00000000: 9541 1040 6ee7 6c3c 1ff7 b93b 6968 303c
00000010: b94c 823c 0854 9f3b 4eef 8e3b 6152 b03b
00000020: 2f0c d53c 8f49 8c3c d0d3 093b 85f7 c53b
00000030: e49e 893c c4e3 fa3b a500 9c3c 0fcc 653c
00000040: 4992 ee3c e0af a53b c479 3a3c 0475 b53b
00000050: 5956 e63c d33b ad3b 9297 353c 13fd 133c
00000060: 94f1 213e a83c cf3b 22bb 653c 7e9a 723c
00000070: c17a 5d3d 544e 693c de79 823e a224 8a3d
00000080: fca7 103e

in_fn.running_var f4 [33]
6.5636163 0.014074664 0.0056425645 0.010645685 0.015615705 0.0048362473 0.004338382 0.0053467583
0.025228547 0.016791865 0.0020978842 0.005993903 0.01647918 0.007576849 0.018652817 0.013817044
0.02756485 0.0050280704 0.011179555 0.005505783 0.027153833 0.005254958 0.010953833 0.00895004
0.1295254 0.006283217 0.013798032 0.014569682 0.05085651 0.014021825 0.17471318 0.06062091
0.11291789
00000000: 2509 d240 6b99 663c 43e5 b83b 3d6b 2e3c
00000010: 04d9 7f3c 6279 9e3b fc28 8e3b dc33 af3b
00000020: 19ac ce3c 188f 893c a87c 093b 8168 c43b
00000030: 58ff 863c 3747 f83b cbcd 983c e260 623c
00000040: aecf e13c 83c2 a43b 742a 373c db69 b43b
00000050: b771 de3c c831 ac3b b577 333c 30a3 123c
00000060: 4ea2 043e 72e3 cd3b 2411 623c adb5 6e3c
00000070: ea4e 503d ccbb 653c 03e8 323e a24d 783d
00000080: 7f41 e73d

fc1.weight f4 [64, 33]
0.11551602 -0.07312558 -0.26866415 0.020269817 -0.20889542 0.09563209 -0.08175281 -0.31377575
0.4154435 -0.2615247 -0.14089069 -0.08938336 0.19807261 0.2135402 -0.11897081 0.36523342
-0.10221408 -0.1321609 -0.2577533 -0.07567444 0.3327686 -0.22580038 0.09818543 -0.06574556
-0.1755197 0.0643038 0.114847645 -0.16135557 -0.09413941 0.009431405 0.050878584 -0.091968425
-0.022032458 0.051866837 -0.11124677 -0.06556062 0.06645564 -0.029692205 0.15699147 0.16151541
0.0040454823 0.12721182 0.01529985 0.06662788 -0.0637341 0.025990346 -0.15963756 -0.03441095
-0.17629334 0.15028085 -0.024545485 -0.004613059 -0.41709208 0.08451005 -0.07425173 0.052081186
-0.07778503 -0.044801913 0.37918785 -0.042503834 -0.009335946 -0.023282573 0.26974747 -0.122484475
0.09307313 0.08483101 -1.0933734 -0.20799702 0.12408851 -0.32562283 -0.34433192 -0.30495057
0.015786832 -0.23927496 0.09286225 -0.322198 0.045961093 -0.348237 0.2507806 0.201885
0.17435157 0.17248467 -0.19872995 -0.3607966 0.3394685 -0.5325251 0.3347219 0.06330002
0.04326873 -0.0027528582 0.040365934 0.06330588 0.106630184 0.35211858 -0.27016178 0.15258524
-0.27268288 -0.3859227 0.84114146 -1.4738474 0.15552296 0.10327864 -0.068298265 -0.74251443
-0.023961203 0.12327063 -0.084213726 -0.028880036 0.11043238 0.02958546 -0.1740411 0.10094612
-0.018061724 0.040934674 -0.06283558 -0.08356871 0.023191078 0.072929226 0.41024864 0.10066644
-0.28036872 0.07624052 -0.11705757 -0.08835404 -0.15187931 0.31346768 -0.17994186 -0.46737108
-0.06745847 -0.13599633 -0.22092792 0.91095567 0.08389257 -0.24836604 -0.17145833 -0.1175406
-0.32393414 0.11537742 0.05957667 -0.21940424 -0.20592988 -0.20591012 0.084559925 -0.05417545
-0.19635436 0.28090364 0.39899772 0.2364516 -0.13263585 -0.19280092 -0.31927285 -0.2294841
-0.31583548 -0.16128738 -0.06818142 -0.34750977 -0.2076157 -0.001691595 0.20979913 -0.15900071
0.3791311 -0.13079023 0.22791865 0.1458495 0.50633687 0.118944086 -0.045351077 0.020329623
-0.19856912 0.31424302 -0.20004565 -0.015718453 0.0044429824 -0.045889232 -0.042946946 0.057031848
-0.00010117068 0.023572583 0.097823545 0.040400103 0.20205918 -0.099098355 0.06364395 0.18098469
-0.09829382 0.1599665 -0.02847579 0.104188554 0.03544222 0.1065036 -0.11945891 0.22074227
0.041172564 0.14426826 0.06899008 -0.013042573 -0.27991498 0.032446533 -0.040942796 -0.03233326
-0.07566194 -0.27076712 -0.2100248 0.2991093 -0.034835905 -0.103826426 -0.012002459 -0.11464266
0.070054084 -0.010270685 0.13352613 -0.17397237 0.28470695 -0.057170887 0.38137138 -0.18431488
0.080973655 -0.33248967 0.0074937777 -0.19467352 0.1493013 0.2629218 -0.018372685 -0.03780479
-0.13017318 0.10258495 0.08585844 0.35791615 0.15137634 0.1372811 0.04627897 0.1462954
-0.037622932 0.069830984 -0.1113604 -0.057011895 -0.0031159201 0.2718989 0.02450761 0.054115187
-0.028475411 0.07749328 0.2648429 0.20520239 0.3701126 0.009346963 0.16989319 0.10384695
-0.014354427 0.16237326 -0.439794 0.03871745 0.0649386 0.24072966 -0.16123962 -0.04241511
00000000: aa93 ec3d ddc2 95bd 598e 89be e30c a63c
00000010: aee8 55be c2da c33d 046e a7bd 37a7 a0be
00000020: 03b5 d43e 91e6 85be a645 10be a00e b7bd
00000030: 8cd3 4a3e 48aa 5a3e f8a6 f3bd e0ff ba3e
00000040: 9e55 d1bd 3055 07be 3ef8 83be 33fb 9abd
00000050: a560 aa3e 3738 67be 7115 c93d 9ca5 86bd
00000060: 70bb 33be b6b1 833d 3e35 eb3d 653a 25be
00000070: 2acc c0bd 2e86 1a3c 1066 503d f159 bcbd
00000080: 6a7d b4bc 5272 543d 59d5 e3bd a544 86bd
00000090: e519 883d 113d f3bc 5fc2 203e 4c64 253e
000000a0: f78f 843b d143 023e 39ac 7a3c 3374 883d
000000b0: 0687 82bd b5e9 d43c 0778 23be 7ff2 0cbd
000000c0: 3e86 34be 39e3 193e 9d13 c9bc 2529 97bb
000000d0: 188d d5be 9b13 ad3d 4b11 98bd 1553 553d
000000e0: c24d 9fbd 3682 37bd e924 c23e 8018 2ebd
000000f0: ccf5 18bc 18bb bebc 571c 8a3e 24d9 fabd
00000100: 209d be3d e1bb ad3d a9f3 8bbf 2cfd 54be
00000110: 1e22 fe3d 09b8 a6be 464c b0be 7b22 9cbe
00000120: 6353 813c 7f04 75be 902e be3d 23f7 a4be
00000130: b341 3c3d 1f4c b2be 5166 803e f1ba 4e3e
00000140: 3889 323e d29f 303e dd7f 4bbe 55ba b8be
00000150: d1ce ad3e 9153 08bf ab60 ab3e 71a3 813d
00000160: 8d3a 313d 4c69 34bb c056 253d 83a6 813d
00000170: ed60 da3d e348 b43e a552 8abe 4e3f 1c3e
00000180: 179d 8bbe a997 c5be 0c55 573f 08a7 bcbf
00000190: 6941 1f3e c083 d33d f6df 8bbd 6d15 3ebf
000001a0: 494a c4bc 5075 fc3d 3f78 acbd d395 ecbc
000001b0: 5f2a e23d 355d f23c d537 32be d7bc ce3d
000001c0: 2ef6 93bc 1eab 273d f1af 80bd 1226 abbd
000001d0: 37fb bd3c eb5b 953d 1c0c d23e 352a ce3d
000001e0: 7d8c 8fbe fd23 9c3d e1bb efbd f7f2 b4bd
000001f0: 4086 1bbe d67e a03e ae42 38be 434b efbe
00000200: ab27 8abd 9f42 0bbe ee3a 62be 6434 693f
00000210: decf ab3d ab53 7ebe c692 2fbe 20b9 f0bd
00000220: b2da a5be ff4a ec3d ab06 743d 81ab 60be
00000230: 48df 52be 1ada 52be c12d ad3d 14e7 5dbd
00000240: 1e11 49be 9ad2 8f3e 6e49 cc3e 5e20 723e
00000250: b1d1 07be 9b6d 45be bb77 a3be e1fd 6abe
00000260: 30b5 a1be 8528 25be b3a2 8bbd cdec b1be
00000270: 3699 54be 82b8 ddba 95d5 563e 15d1 22be
00000280: 791d c23e e0ed 05be 8263 693e 9259 153e
00000290: 4b9f 013f f598 f33d 0dc2 39bd 4f8a a63c
000002a0: b455 4bbe 76e4 a03e c4d8 4cbe fcc3 80bc
000002b0: 7096 913b 59f6 3bbd 23e9 2fbd 3a9a 693d
000002c0: 982b d4b8 4a1b c13c b657 c83d 947a 253d
000002d0: 9ae8 4e3e 14f4 cabd c257 823d 0d54 393e
000002e0: 454e c9bd 42ce 233e 0f46 e9bc cf60 d53d
000002f0: dc2b 113d 8f1e da3d dfa6 f4bd 430a 623e
00000300: 90a4 283d 0fbb 133e ac4a 8d3d 84b0 55bc
00000310: 0451 8fbe a8e6 043d a2b3 27bd e16f 04bd
00000320: a6f4 9abd fda1 8abe be10 57be db24 993e
00000330: 18b0 0ebd f3a2 d4bd f6a5 44bc c5c9 eabd
00000340: 8478 8f3d 6046 28bc 13bb 083e d025 32be
00000350: 1cc5 913e 052c 6abd 1c43 c33e 0abd 3cbe
00000360: 84d5 a53d 163c aabe 5d8e f53b 7f58 47be
00000370: 71e2 183e b09d 863e 5082 96bc 32d9 1abd
00000380: 1e4c 05be 0f18 d23d 8dd6 af3d c940 b73e
00000390: 6602 1b3e 6b93 0c3e 048f 3d3d 76ce 153e
000003a0: 811a 1abd 8c03 8f3d ec10 e4bd 4e85 69bd
000003b0: 7734 4cbb 5536 8b3e 2fc4 c83c e3a7 5d3d
000003c0: 4445 e9bc ccb4 9e3d 7d99 873e 9320 523e
000003d0: 667f bd3e 0124 193c 7bf8 2d3e b6ad d43d
000003e0: d52e 6bbc 2d45 263e ae2c e1be 3096 1e3d
000003f0: 87fe 843d d681 763e 001c 25be 77bb 2dbd

fc1.bias f4 [64]
-0.5552182 -0.56231135 -0.39801392 -0.3348483 -0.016647179 -0.7037472 -0.33245945 -1.1383569
-0.4046775 -0.2336935 -0.33918625 -0.6348701 -0.1693941 -0.6573668 -0.64294845 0.054606047
-0.73127604 -0.2993226 -0.7131819 0.37730363 -0.68981403 -0.9492807 -0.072285935 0.13056168
-0.6619878 -0.18002744 -0.62751997 -0.22590068 -0.8851943 0.20642444 -0.5479142 -0.48772612
0.14141174 -0.64074945 -0.6762891 -0.6507931 -0.22983602 -0.26300764 0.3618922 -0.3586439
-0.18017557 -0.6207379 -0.8599073 -1.1962681 -0.44154248 -0.5234452 -0.36959806 -0.5895724
-0.3351925 -0.83392036 -0.06107438 -0.46641627 -0.7773574 -0.9051957 -0.5298292 -0.66771
-0.80660236 -0.5711841 -0.14257702 0.13926485 -0.466382 -0.54798007 -0.51192886 -0.71789104
00000000: c822 0ebf a3f3 0fbf 7bc8 cbbe 3d71 abbe
00000010: aa5f 88bc c728 34bf 2038 aabe aeb5 91bf
00000020: e431 cfbe 594d 6fbe d2a9 adbe d986 22bf
00000030: a675 2dbe 3149 28bf 4598 24bf 97aa 5f3d
00000040: e834 3bbf d040 99be 1793 36bf f12d c13e
00000050: a797 30bf 0f04 73bf a60a 94bd f6b1 053e
00000060: 0878 29bf 1d59 38be 26a5 20bf 8252 67be
00000070: 189c 62bf ee60 533e 1b44 0cbf 3db7 f9be
00000080: 3dce 103e 2808 24bf 4821 2dbf 609a 26bf
00000090: 225a 6bbe f0a8 86be ef49 b93e 2ca0 b7be
000000a0: f27f 38be aee8 1ebf e322 5cbf 501f 99bf
000000b0: db11 e2be 8100 06bf f53b bdbe 38ee 16bf
000000c0: 5a9e abbe ce7b 55bf 2129 7abd 1dce eebe
000000d0: e500 47bf e8ba 67bf e3a2 07bf 0bef 2abf
000000e0: 7e7d 4ebf 1f39 12bf b6ff 11be 729b 0e3e
000000f0: 9fc9 eebe 6c48 0cbf c50d 03bf b5c7 37bf

fc2.weight f4 [64, 64]
0.03466976 -0.10891671 -0.13899235 -0.238325 -0.0016874487 -0.20467609 -0.17809586 -0.029226191
-0.092083246 -0.022018753 -0.18653503 -0.27066022 -0.09023331 -0.1598454 -0.059278686 -0.311451
0.030576078 0.03223759 -0.033529297 -0.13957952 0.07163907 -0.18582678 -0.06698428 -0.15937449
-0.09950556 0.04714993 -0.03521898 -0.36536783 0.031214325 -0.23567836 -0.044175938 -0.09090913
-0.12728564 0.047497742 -0.034740947 0.051655706 -0.07404545 0.025825057 -0.13220394 0.01239717
-0.21666797 -0.010501969 -0.025785288 0.0248364 0.02187771 -0.048285723 0.057898507 0.013551475
-0.1533661 0.04179001 -0.33231515 0.11307851 -0.11950684 0.000990425 -0.06380017 -0.21573022
-0.0046674344 -0.083123535 -0.008577719 -0.21103148 0.012159566 -0.13077538 0.020611405 -0.017888954
-0.13411424 -0.26975644 -0.1457713 -0.13385956 0.038995467 -0.4070539 -0.018876811 -0.2436258
-0.15091501 -0.12662242 -0.087180644 -0.083613895 0.07484367 -0.52783906 -0.3353421 0.10824222
-0.21178524 -0.02903168 -0.21563485 0.04116894 -0.21744654 0.058284145 -0.31298155 -0.012672741
-0.4568196 -0.057351194 -0.20889857 -0.18027842 -0.054615013 -0.16700171 -0.19829996 0.0442681
-0.22455893 -0.3442079 -0.06279788 -0.030352224 -0.39388058 -0.043626785 -0.43249148 -0.0037764588
-0.06648353 0.037759636 -0.10362383 0.13137357 0.081466734 0.19052444 -0.33617258 -0.050100863
-0.13401343 0.0029707951 -0.07203855 -0.10330989 -0.17687947 -0.13579085 0.0078017814 -0.0037216614
-0.47833282 -0.091902174 -0.3324737 -0.24220437 -0.1623373 -0.05365305 0.07839754 0.024390887
-0.10227723 -0.18076573 -0.23343983 -0.05860809 0.03221757 -0.10771403 -0.19081107 -0.13634554
0.01875144 0.058852244 -0.1169444 0.044672392 -0.14747064 -0.12631918 -0.1666818 0.013535874
0.014071069 -0.11519676 -0.039870575 -0.055901483 -0.18427362 -0.109158956 -0.048458267 -0.07385274
-0.10574686 -0.02791879 -0.031635515 0.05562888 -0.024739536 -0.11961614 -0.08593829 -0.11635946
-0.014607657 -0.16900739 0.107327536 0.0024801348 0.054507703 -0.1292194 -0.052713573 -0.18776655
-0.1943836 -0.033103026 -0.011301277 0.026130017 0.05586884 -0.08821982 -0.11830045 -0.046556685
-0.0185928 -0.039724533 -0.08693123 -0.0065170103 -0.20309708 -0.0063082087 -0.22139591 -0.18051493
-0.1821699 0.09553286 -0.050011024 -0.31524372 0.08139523 0.0632111 0.062151205 -0.043654863
-0.10571121 -0.017147286 -0.13880825 0.09195471 -0.06493092 0.103196666 -0.18214956 -0.005065668
-0.022810478 0.079983264 0.030813199 -0.1319226 -0.1250254 -0.11916601 -0.10497105 -0.06929043
-0.06884754 -0.037876505 0.014091354 -0.15265502 -0.22643669 -0.008346901 -0.1494341 -0.19560944
-0.162803 -0.03688252 -0.18620351 -0.014093658 0.07393526 -0.02651738 0.013984652 0.058629915
-0.13956949 0.028923485 0.032799512 0.012673099 -0.14810532 0.07710615 -0.11505323 0.05801824
-0.13732837 -0.007102332 0.06790345 -0.10556188 -0.16802129 -0.14140002 0.08194935 -0.054644972
0.00737874 -0.028043056 0.0466814 -0.09978293 0.048837822 -0.035800435 0.014409414 -0.08492718
0.047123782 0.05870927 -0.24575524 -0.050406702 -0.049626254 -0.028986108 -0.06001962 -0.08789335
00000000: e101 0e3d b90f dfbd 0354 0ebe 780b 74be
00000010: 622d ddba 9c96 51be c35e 36be c46b efbc
00000020: 2496 bcbd ac60 b4bc 0a03 3fbe fa93 8abe
00000030: 3ecc b8bd 83ae 23be 35ce 72bd 8176 9fbe
00000040: af7a fa3c 900b 043d 0456 09bd efed 0ebe
00000050: 81b7 923d 6049 3ebe 0e2f 89bd 1133 23be
00000060: 92c9 cbbd 4920 413d c741 10bd 7e11 bbbe
00000070: 2fb5 ff3c ab55 71be d4f1 34bd 912e babd
00000080: 2b57 02be fe8c 423d 864c 0ebd ef94 533d
00000090: 24a5 97bd 128f d33c 7860 07be 801d 4b3c
000000a0: 35de 5dbe 7310 2cbc ab3b d3bc b575 cb3c
000000b0: e238 b33c 40c7 45bd fc26 6d3d 0107 5e3c
000000c0: 010c 1dbe 002c 2b3d 3625 aabe b595 e73d
000000d0: 01c0 f4bd 26d1 813a aaa9 82bd 62e8 5cbe
000000e0: 47f1 98bb ac3c aabd 9089 0cbc a318 58be
000000f0: eb38 473c fbe9 05be 40d9 a83c db8b 92bc
00000100: 3e55 09be 841d 8abe 1245 15be 7b12 09be
00000110: b6b9 1f3d 5e69 d0be 8ba3 9abc 0b79 79be
00000120: 7789 1abe 4fa9 01be c48b b2bd c33d abbd
00000130: a347 993d 7620 07bf f6b1 abbe 19ae dd3d
00000140: 3bde 58be d9d3 edbc 62cf 5cbe c3a0 283d
00000150: 4eaa 5ebe 5bbb 6e3d 1e3f a0be 54a1 4fbc
00000160: 42e4 e9be 16e9 6abd 82e9 55be e89a 38be
00000170: feb3 5fbd 7f02 2bbe 250f 4bbe 7852 353d
00000180: c7f2 65be 053c b0be 2d9c 80bd 3aa5 f8bc
00000190: b7aa c9be 00b2 32bd 866f ddbe 777e 77bb
000001a0: 8428 88bd d9a9 1a3d bb38 d4bd cb86 063e
000001b0: 08d8 a63d d718 433e d01e acbe 9036 4dbd
000001c0: d13a 09be acb1 423b f388 93bd 2394 d3bd
000001d0: e41f 35be c20c 0bbe 16a6 ff3b 1ee7 73bb
000001e0: 0ae8 f4be 3537 bcbd fe39 aabe 6c04 78be
000001f0: c03b 26be 4dc3 5bbd e48e a03d 66cf c73c
00000200: b976 d1bd a71a 39be da0a 6fbe 090f 70bd
00000210: 92f6 033d 2c99 dcbd fa63 43be 2a9e 0bbe
00000220: 9f9c 993c 0d0f 713d 8c80 efbd 66fa 363d
00000230: 8b02 17be d159 01be a2ae 2abe 92c5 5d3c
00000240: 578a 663c 47ec ebbd 544f 23bd f4f8 64bd
00000250: 39b2 3cbe bb8e dfbd 2d7c 46bd 1b40 97bd
00000260: cf91 d8bd f2b5 e4bc 3e94 01bd 1cdb 633d
00000270: 91aa cabc 4ff9 f4bd 6a00 b0bd de4d eebd
00000280: f454 6fbc 4610 2dbe 8ace db3d c289 223b
00000290: 7843 5f3d 1752 04be 30ea 57bd e045 40be
000002a0: 7f0c 47be 0a97 07bd fe28 39bc 9e0e d63c
000002b0: bad6 643d 98ac b4bd 8247 f2bd 39b2 3ebd
000002c0: ed4f 98bc 31b6 22bd 0009 b2bd a58c d5bb
000002d0: aef8 4fbe 17b5 cebb 9cb5 62be e8d8 38be
000002e0: bf8a 3abe bba6 c33d 5cd8 4cbd a067 a1be
000002f0: 8bb2 a63d d274 813d 4392 7e3d 71cf 32bd
00000300: 1e7f d8bd 7778 8cbc c023 0ebe c052 bc3d
00000310: 81fa 84bd c658 d33d 6a85 3abe e7fd a5bb
00000320: 0add babc 44ce a33d f66b fc3c b816 07be
00000330: a906 00be 4f0d f4bd 10fb d6bd 24e8 8dbd
00000340: f0ff 8cbd 6524 1bbd 6cdf 663c 9951 1cbe
00000350: 05df 67be 71c1 08bc 4105 19be d74d 48be
00000360: d4b5 26be 2012 17bd 22ac 3ebe 16e9 66bc
00000370: 5f6b 973d fa3a d9bc e21f 653c ec25 703d
00000380: 4eeb 0ebe f2f0 ec3c c858 063d d4a2 4f3c
00000390: eca8 17be d4e9 9d3d 07a1 ebbd 89a4 6d3d
000003a0: cf9f 0cbe aeba e8bb f710 8b3d d430 d8bd
000003b0: c60d 2cbe 2bcb 10be 10d5 a73d 68d3 5fbd
000003c0: 5bc9 f13b 8dba e5bc ff34 3f3d fe5a ccbd
000003d0: 2b0a 483d 7aa3 12bd 7615 6c3c 4dee adbd
000003e0: de04 413d 2279 703d 43a7 7bbe 4277 4ebd
000003f0: e644 4bbd 4674 edbc 22d7 75bd 6e01 b4bd

fc2.bias f4 [64]
-0.17519197 -0.11333693 -0.13130032 -0.043534182 -0.07198791 -0.000867612 0.7007043 -0.023001041
0.0030587118 -0.07029877 -0.01097199 -0.19685887 0.0012795711 -0.22698455 -0.10082974 -0.21543008
0.40517038 0.90335405 0.008058797 0.0067265406 0.19837998 0.06498737 -0.094800055 -0.13247754
0.028623004 0.007087076 -0.17402877 -0.34761015 0.7859191 -0.09740865 -0.17503756 -0.057909295
-0.048725773 -0.00621951 -0.4277347 -0.17345552 -0.13747537 -0.2024336 -0.050010387 0.078046635
-0.17951997 -0.1803565 0.020752218 -0.14539512 -0.46465605 -0.14869684 -0.00959503 0.056240615
-0.0062155817 -0.08520816 -0.011701216 -0.04442312 -0.18426715 -0.07416514 -0.2197042 -0.24568982
0.43625584 0.11301104 -0.16940878 -0.46460813 -0.009645093 -0.01682404 0.43470848 -0.0077734627
00000000: 8665 33be 311d e8bd 9773 06be e650 32bd
00000010: 666e 93bd 7570 63ba 5b61 333f ae6c bcbc
00000020: ab74 483b cdf8 8fbd ddc3 33bc 5f95 49be
00000030: 48b7 a73a a36e 68be d37f cebd b499 5cbe
00000040: 7e72 cf3e 3642 673f 0b09 043c 506a dc3b
00000050: 1f24 4b3e 1918 853d 8826 c2bd 31a8 07be
00000060: ca7a ea3c b43a e83b 9934 32be f5f9 b1be
00000070: fe31 493f 307e c7bd 0c3d 33be 4c32 6dbd
00000080: ad94 47bd 08cd cbbb 0b00 dbbe 539e 31be
00000090: 58c6 0cbe c14a 4fbe b1d7 4cbd ead6 9f3d
000000a0: 15d4 37be 60af 38be 8e00 aa3c 75e2 14be
000000b0: 66e7 edbe fc43 18be 7934 1dbc 8f5c 663d
000000c0: 14ac cbbb 9e81 aebd 75b6 3fbc 04f5 35bd
000000d0: 87b0 3cbe e5e3 97bd 23fa 60be 1d96 7bbe
000000e0: ed5c df3e 5572 e73d 7f79 2dbe 1ee1 edbe
000000f0: 7406 1ebc 92d2 89bc 1c92 de3e 88b8 febb

fc3.weight f4 [1, 64]
-0.1518422 0.07881732 -0.07003163 0.0106824385 -0.05416454 0.015292966 0.11391153 0.0121066505
-0.00927483 0.0137796905 -0.016589815 0.0777439 0.0014253756 0.08760484 0.0071169175 -0.005122282
0.13913646 -0.12403652 -0.009046679 0.13191687 -0.124490045 -0.04166696 -0.0013412737 -0.009434679
-0.013077091 -0.016918166 -0.002926481 0.009793536 0.1145022 -0.0020961522 0.035870425 0.0011398629
0.023670122 0.0074078813 -0.03121776 0.007191968 0.0051767724 -0.051419362 0.005165629 -0.061421793
-0.032046676 -0.011790802 -0.022760151 0.026350554 0.061498586 -0.023634907 0.0014395216 0.12860255
-0.001340782 -0.007505691 -0.032896623 -0.0007815031 -0.032124612 -0.002046438 0.008490337 -0.05105483
-0.07688602 -0.012062059 0.024709865 -0.21121787 -0.002036714 0.009679447 0.0824448 -0.010117662
00000000: 867c 1bbe fa6a a13d be6c 8fbd 6505 2f3c
00000010: a3db 5dbd 598f 7a3c 734a e93d f95a 463c
00000020: 75f5 17bc 36c4 613c 5de7 87bc 3238 9f3d
00000030: abd3 ba3a 2b6a b33d 0835 e93b d1d8 a7bb
00000040: ca79 0e3e dc06 febd 8638 14bc 3715 073e
00000050: a3f4 febd f9aa 2abd adcd afba e993 1abc
00000060: 4c41 56bc f797 8abc 34ca 3fbb 1175 203c
00000070: 2180 ea3d 995f 09bb deec 123d 7467 953a
00000080: d8e7 c13c d0bd f23b 63bc ffbc 9aaa eb3b
00000090: eaa1 a93b 1c9d 52bd 7044 a93b 6b95 7bbd
000000a0: 6043 03bd 352e 41bc 7f73 babc 1edd d73c
000000b0: f1e5 7b3d fe9d c1bc 54ae bc3a 63b0 033e
000000c0: 2ebd afba 4df2 f5bb 9cbe 06bd c9dd 4cba
000000d0: 1995 03bd 881d 06bb 0e1b 0b3c df1e 51bd
000000e0: 6b76 9dbd f19f 45bc 586c ca3c 7f49 58be
000000f0: 647a 05bb 8b96 1e3c d2d8 a83d 8dc4 25bc

fc1.weight f4 [64, 1]
0.76044 -0.37334445 -0.22222644 -0.8751406 -1.7425069 0.9216048 -0.078966916 0.6782063
-0.018149167 0.07173463 -0.06830066 0.009121056 -0.4390044 -0.24092741 -0.07290876 -0.023683837
0.14494395 -0.0039948225 0.13221723 0.06273525 -0.074180655 -0.3382969 -0.16761565 -0.5618581
-1.2275677 -0.43046612 0.0012199115 0.8627153 -1.6397655 -0.07660582 0.053453628 0.98883116
-0.17335358 -1.4128476 -1.8471115 -0.05634153 0.23205934 0.04596398 -0.055017933 -0.59527504
1.1971339 -0.42309844 -0.15137583 -0.06184081 -0.20581117 -0.05804958 -1.0192543 -0.9091903
-0.75992215 -0.1096344 -1.4243729 -1.0230683 0.011960475 -0.0137123875 0.9569028 1.0326539
-0.04682362 -1.4147223 -0.09018303 0.32946473 -0.15363334 0.8575255 1.0215731 0.08591564
00000000: 32ac 423f 0127 bfbe 548f 63be 3709 60bf
00000010: 770a dfbf 4bee 6b3f 68b9 a1bd ee9e 2d3f
00000020: 90ad 94bc 9be9 923d 37e1 8bbd 7b70 153c
00000030: 2fc5 e0be adb5 76be 3051 95bd 9b04 c2bc
00000040: 306c 143e 00e7 82bb f463 073e 577b 803d
00000050: 07ec 97bd 4035 adbe 70a3 2bbe efd5 0fbf
00000060: f020 9dbf 0e66 dcbe 70e5 9f3a e9da 5c3f
00000070: d6e3 d1bf 83e3 9cbd 31f2 5a3d 0a24 7d3f
00000080: 9a83 31be 31d8 b4bf 266e ecbf 60c6 66bd
00000090: f7a0 6d3e ba44 3c3d 7c5a 61bd f263 18bf
000000a0: af3b 993f 5ca0 d8be 4402 1bbe ca4c 7dbd
000000b0: 2ac0 52be 65c5 6dbd ed76 82bf b2c0 68bf
000000c0: 428a 42bf 0088 e0bd da51 b6bf e7f3 82bf
000000d0: def5 433c eca9 60bc 95f7 743f 012e 843f
000000e0: 20ca 3fbd 9f15 b5bf e1b1 b8bd 9aaf a83e
000000f0: 0f52 1dbe cb86 5b3f e8c2 823f 8af4 af3d

fc1.bias f4 [64]
-1.4072148 -0.59082866 -0.4541476 -0.36224154 -0.68392193 -1.2943819 -0.15627535 0.12361114
-0.08205444 -0.3724057 -0.11740376 -0.17245802 -0.17276111 -0.31613293 -0.92611206 -0.10523844
-0.7031232 -0.75450915 -0.22156908 -0.28423548 -0.15608907 -0.8448043 -0.88898194 -0.22271831
-0.51003546 -0.19023615 -0.020390676 -1.2928728 -0.33394694 -0.442176 -0.26470232 -0.2638645
-0.24742284 0.0064831814 -0.7265472 -0.7298626 -0.36914042 -0.5328869 -0.14276147 -0.24589287
-0.3306565 -0.85042953 -0.26707825 -0.15502363 -0.2711093 -0.18837695 0.084699884 -0.36655945
-0.3216227 -0.663581 -0.49750867 0.009745013 -0.10874319 -0.028804252 -1.1101234 -1.0953109
-0.6047716 -0.20721136 -0.25801238 -0.1559586 -0.17577353 -1.8280576 -1.0713651 -0.10209652
00000000: 9d1f b4bf 8c40 17bf 0986 e8be b977 b9be
00000010: 8215 2fbf 4eae a5bf a506 20be d627 fd3d
00000020: 290c a8bd f6ab bebe 6271 f0bd d698 30be
00000030: 4ae8 30be 2ddc a1be ae15 6dbf 4087 d7bd
00000040: e2ff 33bf 8327 41bf 01e3 62be 5087 91be
00000050: d0d5 1fbe 1845 58bf 5294 63bf 4510 64be
00000060: af91 02bf 44cd 42be 590a a7bc db7c a5bf
00000070: 18fb aabe e564 e2be 1087 87be 3f19 87be
00000080: 6a5c 7dbe de70 d43b fffe 39bf 46d8 3abf
00000090: f9ff bcbe 476b 08bf 1030 12be 57cb 7bbe
000000a0: cf4b a9be c0b5 59bf 7bbe 88be 84be 1ebe
000000b0: d7ce 8abe e3e5 40be 2277 ad3d aead bbbe
000000c0: bbab a4be 72e0 29bf 75b9 febe 8ca9 1f3c
000000d0: c0b4 debd e5f6 ebbc 8618 8ebf 2633 8cbf
000000e0: 50d2 1abf 372f 54be 331a 84be 9cb3 1fbe
000000f0: fafd 33be cbfd e9bf 7e22 89bf fb17 d1bd

fc2.weight f4 [64, 64]
-0.08886652 0.3566075 -0.018566584 -0.040000156 0.26056346 -0.058299918 -0.021881726 -0.0070931693
-0.12683956 0.11499796 -0.2887863 -0.12418677 0.010998512 -0.06975501 -0.07661903 -0.06796687
0.038685977 -0.028304413 -0.514028 -0.0540881 -0.019280536 0.30810416 -0.04233159 -0.063799016
-0.062014036 0.08600326 -0.31772438 -0.23496994 -0.015830731 -0.27644807 -0.26802596 -0.1755679
-0.3459442 0.07423877 0.28113002 -0.03388546 -0.28719783 0.17323288 -0.21207874 -0.25978264
-0.25296685 -0.05697012 -0.3068405 0.10250929 -0.19083415 -0.12891379 -0.034994107 -0.11387739
-0.08992003 0.003980443 0.058158726 -0.15440524 -0.2708095 -0.11358384 -0.24816045 -0.1641074
-0.08062348 0.13027129 -0.34764293 -0.5576884 -0.17371717 -0.21683669 -0.11201475 -0.7422663
-0.11863981 -0.11708785 -0.033712607 -0.14784127 0.058700785 0.02036497 0.057046354 -0.14744192
-0.12721358 -0.09242836 -0.019336231 -0.10808456 -0.018101484 -0.101724744 -0.009735331 -0.18658581
0.02124931 0.05892451 -0.039915223 -0.021753948 -0.18115285 0.09106718 0.108982995 0.037694197
-0.032043677 -0.1643786 -0.14440507 0.050304316 -0.2196873 -0.0063129994 -0.15721412 -0.14804691
-0.08511961 -0.21429306 -0.1529479 0.09093648 0.014057256 0.118219465 -0.12391929 -0.20853525
0.063075 -0.02662827 -0.21655655 -0.028155679 -0.18821155 0.022240842 -0.046109267 -0.27440068
-0.28476596 -0.010949552 -0.07186055 -0.07008209 -0.21054542 -0.06195555 -0.17749164 -0.14832556
-0.08321117 -0.021510128 -0.04636296 -0.10202202 -0.10639551 -0.0042194775 -0.044930585 -0.12257148
-0.008706897 0.07684177 -0.007244438 -0.09501698 0.113593146 0.027547896 -0.12135778 0.042483807
-0.046776466 -0.08303261 -0.009962414 -0.1716593 0.036292743 -0.08035989 0.035353497 -0.037133917
0.029732242 0.10367778 -0.13135163 -0.13346611 -0.16334595 -0.005129963 -0.05921507 -0.048452105
-0.025624812 -0.036098287 0.029043414 -0.044628836 -0.040267527 -0.14085561 -0.19030516 0.025124963
-0.102714926 0.025231883 0.00462389 -0.07965839 -0.008586756 0.07005234 -0.07269204 -0.071036115
-0.13339458 0.0017213827 -0.15034765 -0.1490736 -0.018645883 -0.11552919 0.030685097 -0.11085544
-0.079364784 -0.047710195 -0.11423257 0.052697446 -0.054711718 0.06293679 -0.10087686 -0.112476684
-0.117513284 -0.047451332 0.0032560348 -0.20560569 -0.043720677 -0.0043074875 -0.010417459 -0.033579987
-0.16617568 -0.05609082 -0.1372063 -0.14550328 0.052165568 -0.18382016 -0.1628095 -0.07984609
-0.18109027 -0.10504249 -0.034161504 -0.058408696 0.00537986 -0.23000486 0.0010868162 -0.12264599
-0.069914594 -0.07031919 -0.0703302 -0.10136189 -0.18362793 -0.08810744 -0.10356602 0.00930909
-0.08048982 -0.116964914 -0.14881581 -0.19734894 -0.21797812 -0.17820391 -0.05193749 -0.08191735
-0.14725864 -0.1559326 0.07985173 0.09010558 0.020272955 0.0364632 -0.040913973 -0.15710683
-0.17994139 -0.12246022 -0.024189359 -0.1379156 -0.09331004 -0.098827206 -0.24636188 -0.15316546
-0.048161533 -0.025300056 -0.21657443 -0.07914574 -0.09446042 -0.12865005 -0.06085398 -0.0880924
-0.046100378 0.003164602 -0.035991 -0.1403415 -0.16591193 -0.22291638 -0.049831208 -0.13923584
00000000: a6ff b5bd 4295 b63e f318 98bc 34d7 23bd
00000010: 9368 853e e5cb 6ebd 4e41 b3bc d16d e8bb
00000020: 3be2 01be 0d84 eb3d ccdb 93be a255 febd
00000030: 1a33 343c b7db 8ebd 70ea 9cbd 3732 8bbd
00000040: 3075 1e3d a8de e7bc 5797 03bf 7c8b 5dbd
00000050: 37f2 9dbc d4bf 9d3e e463 2dbd 0fa9 82bd
00000060: 6e02 7ebd 7a22 b03d c5ac a2be f69b 70be
00000070: 73af 81bc 9a8a 8dbe b33a 89be 12c8 33be
00000080: 991f b1be 7f0a 983d 46f0 8f3e 7bcb 0abd
00000090: 980b 93be f663 313e 2b2b 59be 3b02 85be
000000a0: df84 81be 8059 69bd 331a 9dbe 64f0 d13d
000000b0: 076a 43be fa01 04be fb55 0fbd 8d38 e9bd
000000c0: fe27 b8bd 606e 823b d837 6e3d 681c 1ebe
000000d0: 8ba7 8abe a59e e8bd c61d 7ebe c50b 28be
000000e0: ec1d a5bd d665 053e 41fe b1be abc4 0ebf
000000f0: eae2 31be 700a 5ebe fd67 e5bd 2a05 3ebf
00000100: 6ef9 f2bd c1cb efbd 3b16 0abd b463 17be
00000110: 3c70 703d 70d4 a63c 70a9 693d 04fb 16be
00000120: 4744 02be 144b bdbd 0467 9ebc 705b ddbd
00000130: 9049 94bc 1055 d0bd f080 1fbc 5a10 3fbe
00000140: 0813 ae3c d45a 713d 257e 23bd 5635 b2bc
00000150: 2280 39be 6e81 ba3d 7a32 df3d 3b65 1a3d
00000160: 3b40 03bd dd52 28be ecde 13be e60b 4e3d
00000170: b5f5 60be 47dd cebb bdfc 20be 9c99 17be
00000180: 3153 aebd a46f 5bbe 609e 1cbe e83c ba3d
00000190: 6850 663c 0c1d f23d 66c9 fdbd 448a 55be
000001a0: 772d 813d 8823 dabc 00c1 5dbe bda6 e6bc
000001b0: 87ba 40be 6d32 b63c 12dd 3cbd 3f7e 8cbe
000001c0: d8cc 91be c065 33bc a02b 93bd 3387 8fbd
000001d0: 3899 57be 1ac5 7dbd 5ec0 35be a8e2 17be
000001e0: 9e6a aabd 0236 b0bc 16e7 3dbd ecf0 d0bd
000001f0: e4e5 d9bd 8b43 8abb 2209 38bd c206 fbbd
00000200: 5fa7 0ebc 385f 9d3d c062 edbb 4398 c2bd
00000210: 86a3 e83d 20ac e13c 6e8a f8bd 8003 2e3d
00000220: ae98 3fbd 000d aabd 6539 23bc 75c7 2fbe
00000230: b3a7 143d ba93 a4bd d4ce 103d bc19 18bd
00000240: 0891 f33c 0455 d43d 0b81 06be 57ab 08be
00000250: 2944 27be 4019 a8bb 808b 72bd b775 46bd
00000260: 20eb d1bc ccdb 13bd 74ec ed3c bacc 36bd
00000270: 90ef 24bd 743c 10be 5bdf 42be ded2 cd3c
00000280: 345c d2bd 18b3 ce3c 0084 973b f023 a3bd
00000290: 77af 0cbc 9a77 8f3d 90df 94bd 627b 91bd
000002a0: 9798 08be 05a0 e13a bcf4 19be c0a6 18be
000002b0: 40bf 98bc 919a ecbd 505f fb3c 2d08 e3bd
000002c0: 018a a2bd c46b 43bd c4f2 e9bd 47d9 573d
000002d0: 6519 60bd 01e5 803d 8798 cebd 2d5a e6bd
000002e0: ceaa f0bd 545c 42bd 3363 553b 4c8a 52be
000002f0: 7414 33bd d325 8dbb fdad 2abc 2b8b 09bd
00000300: f529 2abe 7dbf 65bd cf7f 0cbe d0fe 14be
00000310: 90ab 553d 5a3b 3cbe 89b7 26be 5986 a3bd
00000320: ba6f 39be 8420 d7bd efec 0bbd f53d 6fbd
00000330: 8949 b03b 6586 6bbe 8073 8e3a d22d fbbd
00000340: 622f 8fbd 8203 90bd 4809 90bd d396 cfbd
00000350: f608 3cbe ac71 b4bd 6c1a d4bd 2785 183c
00000360: d9d7 a4bd 4d8b efbd 2c63 18be d715 4abe
00000370: a835 5fbe 167b 36be 68bc 54bd 49c4 a7bd
00000380: f8ca 16be ccac 1fbe 4e89 a33d 4689 b83d
00000390: 7813 a63c 705a 153d 6995 27bd 9de0 20be
000003a0: 8e42 38be 6ccc fabd c328 c6bc bf39 0dbe
000003b0: 5619 bfbd eb65 cabd 4a46 7cbe 68d7 1cbe
000003c0: 0745 45bd 1042 cfbc b0c5 5dbe 2917 a2bd
000003d0: 7774 c1bd d7bc 03be 0642 79bd ca69 b4bd
000003e0: c0d3 3cbd 3665 4f3b 4c6b 13bd afb5 0fbe
000003f0: d1e4 29be 3144 64be cf1b 4cbd d793 0ebe

fc2.bias f4 [64]
-0.6922699 -0.13027726 -0.17802808 -0.14962941 -0.2797368 -0.050046157 0.37122574 -0.437387
0.48852077 0.08198217 -0.14230251 -0.19183253 -0.20505285 -0.1659775 1.1455748 -0.15981735
-0.02984585 -0.13652234 -0.19688253 -0.29325962 -0.60973936 0.84456617 -0.17658572 -0.086477116
-0.044722714 -0.08023129 -0.07232323 -0.27333972 -0.20146762 -0.10112571 -0.26487884 -0.16331764
-0.21019226 -0.20074789 0.7798378 -0.08874606 -0.32348517 -0.0632663 -0.042424537 -0.19671862
-0.046465404 -0.15163362 -0.3068246 -0.17101052 0.5757336 -0.23386128 -0.12013812 0.642386
-0.08673863 -0.109127134 -0.121061996 -0.19534324 -0.016170664 0.8676757 -0.20296966 -0.35225934
-0.20398593 0.24635267 0.53594005 -0.11054773 -0.29864642 -0.38957188 0.64479077 -0.010478274
00000000: 9a38 31bf 6767 05be fe4c 36be 7438 19be
00000010: a939 8fbe 33fd 4cbd 4d11 be3e 30f1 dfbe
00000020: 651f fa3e 45e6 a73d c0b7 11be bf6f 44be
00000030: 60f9 51be 01f6 29be 32a2 923f 29a7 23be
00000040: 497f f4bc 83cc 0bbe 939b 49be 2026 96be
00000050: e117 1cbf 7d35 583f e3d2 34be ea1a b1bd
00000060: 2a2f 37bd 4d50 a4bd 341e 94bd 2ff3 8bbe
00000070: 874d 4ebe ff1a cfbd 339e 87be bd3c 27be
00000080: a43c 57be db90 4dbe 73a3 473f 7fc0 b5bd
00000090: d99f a5be c391 81bd 5ac5 2dbd 9b70 49be
000000a0: 8252 3ebd d845 1bbe 1d18 9dbe 621d 2fbe
000000b0: 4763 133f 5579 6fbe fa0a f6bd 6973 243f
000000c0: 06a4 b1bd 0c7e dfbd 5aef f7bd 0f08 48be
000000d0: 5778 84bc ff1f 5e3f 47d7 4fbe 565b b4be
000000e0: b0e1 50be e043 7c3e 5e33 093f d966 e2bd
000000f0: 2fe8 98be f775 c7be 0211 253f 11ad 2bbc
