maddpg_pytorch/models/cache_data/model/run51/incremental/model_ep2001.pt (torch, 690099 bytes, 168 tensors)

fc1.weight f4 [64, 1]
0	0x3f504c6e	0.8136662
1	0xbebf2697	-0.3733413
2	0xbe638f17	-0.22222553
3	0xbf4356f4	-0.76304555
4	0xbfc2627e	-1.5186307
5	0x3f868000	1.0507812
6	0xbda1b927	-0.07896643
7	0x3f2827c5	0.65685683
8	0xbc94ad88	-0.018149152
9	0x3d92e937	0.071733885
10	0xbd8be145	-0.06830076
11	0x3c157042	0.009121003
12	0xbec5f94b	-0.38666758
13	0xbe76b560	-0.24092627
14	0xbd955130	-0.07290876
15	0xbcc204e3	-0.02368397
16	0x3e146c30	0.14494395
17	0xbb82e700	-0.0039948225
18	0x3dd5960a	0.10429008
19	0x3d807b0e	0.06273471
20	0xbd97ebe5	-0.0741804
21	0xbead3516	-0.33829564
22	0xbe2ba370	-0.16761565
23	0xbedab673	-0.42717323
24	0xbfc5524e	-1.5415742
25	0xbec1386f	-0.37738368
26	0x3a9fe595	0.0012199158
27	0x3f8186e9	1.0119296
28	0xbfb60898	-1.4221373
29	0xbd9ce326	-0.076605126
30	0x3ec3da7f	0.38252637
31	0x3f82dd73	1.0223831
32	0xbe3183ec	-0.1733548
33	0xbfcb3afd	-1.5877377
34	0xbfd2a39f	-1.6456183
35	0xbd66c5fc	-0.056341156
36	0x3eb3d783	0.3512536
37	0x3d3c450a	0.04596428
38	0xbd615a58	-0.0550178
39	0xbf2d6e3c	-0.6774633
40	0x3f9f6f83	1.2455906
41	0xbed8a05c	-0.42309844
42	0xbe1b025b	-0.15137617
43	0xbd7d4cd4	-0.061840847
44	0xbe62c144	-0.22144037
45	0xbd6dc5aa	-0.058049835
46	0xbf8f5f56	-1.1200969
47	0xbf329d2a	-0.69771063
48	0xbeed6753	-0.46367893
49	0xbde08800	-0.1096344
50	0xbfb04432	-1.3770812
51	0xbf8d772c	-1.1051993
52	0x3c43f583	0.01196039
53	0xbc60a9a9	-0.013712325
54	0x3f780eec	0.9689777
55	0x3f9b48dc	1.213161
56	0xbd3fca20	-0.04682362
57	0xbf9b2c21	-1.2122842
58	0xbdb8b1bc	-0.09018275
59	0x3f11d18d	0.56960374
60	0xbe1d5202	-0.15363315
61	0x3f7d72b7	0.99003166
62	0x3f9d091b	1.2268404
63	0x3e6affcc	0.22949141

fc1.bias f4 [64]
0	0xbf7611a4	-0.9612067
1	0xbf1740c2	-0.5908319
2	0xbee885fc	-0.45414722
3	0xbe9e4bde	-0.30917257
4	0xbf293f50	-0.6611223
5	0xbf4fb874	-0.8114083
6	0xbe2006b3	-0.15627556
7	0x3e28518c	0.16437358
8	0xbda80c5a	-0.08205481
9	0xbebeac4c	-0.37240827
10	0xbdf0718d	-0.11740408
11	0xbe309913	-0.17245893
12	0xbe30feb9	-0.17284669
13	0xbea1dc24	-0.31613266
14	0xbf6d15ae	-0.92611206
15	0xbdd7873f	-0.10523843
16	0xbf33ffe2	-0.7031232
17	0xbf412780	-0.754509
18	0xbdd712bb	-0.105016194
19	0xbe918758	-0.28423572
20	0xbe1fd5fa	-0.1560897
21	0xbf58450d	-0.84480363
22	0xbf639452	-0.88898194
23	0x3c46e12b	0.012138645
24	0xbcf67b2a	-0.030088026
25	0xbe2e4391	-0.17017962
26	0xbca70aa8	-0.020390823
27	0xbf4dc7c4	-0.80382943
28	0xbd8a4d93	-0.06753077
29	0xbee264e6	-0.44217604
30	0x3eb2608e	0.3483929
31	0xbed106e9	-0.40825585
32	0xbe7d5c75	-0.24742301
33	0x3d815371	0.06314743
34	0xbed1b928	-0.40961576
35	0xbf3ad891	-0.72986704
36	0xbe4287e8	-0.18997157
37	0xbf086b53	-0.53288764
38	0xbe123038	-0.14276206
39	0xbcec2699	-0.028826999
40	0xbf105248	-0.5637555
41	0xbf59b5c0	-0.85042953
42	0xbe88be94	-0.267079
43	0xbe1ebea9	-0.15502419
44	0x3e339df2	0.1754072
45	0xbe40e613	-0.18837766
46	0x3dc039d7	0.09386032
47	0xbeb06851	-0.34454587
48	0xbe78afbf	-0.24285792
49	0xbf29e072	-0.663581
50	0xbe9a9fd7	-0.30200073
51	0x3db20367	0.08692055
52	0xbddeb4f8	-0.10874361
53	0xbcebf738	-0.028804407
54	0xbf406db9	-0.75167423
55	0xbf5413d8	-0.8284278
56	0xbf1ad250	-0.6047716
57	0xbe6799b0	-0.22617221
58	0xbe841a64	-0.25801384
59	0x3ebfe4eb	0.37479338
60	0xbe33fe12	-0.17577389
61	0xbf9e31bc	-1.2358928
62	0xbf50be10	-0.8154001
63	0xbc4a592a	-0.01235036

fc2.weight f4 [64, 64]
0	0xbdb5ffc7	-0.08886676
1	0x3eb69596	0.35661
2	0xbc9818d1	-0.01856652
3	0xbd23d6fb	-0.039999943
4	0x3e8568e3	0.26056585
5	0xbd6ecbfd	-0.058300007
6	0xbcb3418a	-0.021881837
7	0xbbe86e12	-0.0070931995
8	0xbe01e267	-0.12684022
9	0x3deb843f	0.11499833
10	0xbe93dbd6	-0.2887866
11	0xbdfe55b7	-0.124186926
12	0x3c343344	0.010998551
13	0xbd8edc11	-0.06975568
14	0xbd9cea70	-0.07661903
15	0xbd8b3243	-0.06796696
16	0x3d1e7530	0.038685977
17	0xbce7dea8	-0.028304413
18	0xbf0397a9	-0.5140329
19	0xbd5d8bb2	-0.054088302
20	0xbc9df1d1	-0.019280346
21	0x3e9dc006	0.30810565
22	0xbd2d63e4	-0.04233159
23	0xbd82a95c	-0.06379959
24	0xbd7e0266	-0.062014006
25	0x3db02271	0.08600319
26	0xbea2acd8	-0.31772494
27	0xbe709c46	-0.23497114
28	0xbc81afc6	-0.015830886
29	0xbe8d8a5e	-0.27644628
30	0xbe893ae8	-0.26802754
31	0xbe33c812	-0.1755679
32	0xbeb11f85	-0.3459436
33	0x3d980a17	0.074237995
34	0x3e8ff004	0.28112805
35	0xbd0acb8d	-0.033885527
36	0xbe930bdc	-0.28719985
37	0x3e316434	0.1732338
38	0xbe592b1a	-0.21207848
39	0xbe85027a	-0.25978452
40	0xbe8184d7	-0.2529666
41	0xbd695980	-0.05697012
42	0xbe9d1a01	-0.30683902
43	0x3dd1f07c	0.10250947
44	0xbe436a37	-0.19083486
45	0xbe0401bf	-0.12891291
46	0xbd0f5644	-0.03499438
47	0xbde938b6	-0.1138777
48	0xbdb82821	-0.08992029
49	0x3b826e60	0.003980443
50	0x3d6e3790	0.058158457
51	0xbe1e1c7a	-0.1544055
52	0xbe8aa7c5	-0.27081123
53	0xbde89eed	-0.11358438
54	0xbe7e1e0a	-0.24816146
55	0xbe280bed	-0.164108
56	0xbda51dec	-0.08062348
57	0x3e0565c1	0.13027097
58	0xbeb1fdff	-0.34764096
59	0xbf0ec4ec	-0.5576923
60	0xbe31e311	-0.17371775
61	0xbe5e0a78	-0.21683681
62	0xbde5680f	-0.11201488
63	0xbf3e0557	-0.742269
64	0xbdf2f965	-0.118639745
65	0xbdefcc03	-0.11708834
66	0xbd0a163e	-0.033712618
67	0xbe17640a	-0.14784256
68	0x3d70703c	0.058700785
69	0x3ca6d426	0.020364832
70	0x3d69a921	0.05704606
71	0xbe16fb2d	-0.14744253
72	0xbe02447a	-0.12721434
73	0xbdbd4b14	-0.09242836
74	0xbc9e672b	-0.019336304
75	0xbddd5b74	-0.10808459
76	0xbc94499c	-0.018101506
77	0xbdd05506	-0.10172467
78	0xbc1f80f0	-0.009735331
79	0xbe3f10af	-0.18658708
80	0x3cae1308	0.02124931
81	0x3d715ad4	0.05892451
82	0xbd237e51	-0.039915387
83	0xbcb23567	-0.02175398
84	0xbe398048	-0.18115342
85	0x3dba816e	0.09106718
86	0x3ddf327a	0.108982995
87	0x3d1a651a	0.037694074
88	0xbd034057	-0.03204378
89	0xbe285316	-0.16437945
90	0xbe13df31	-0.1444061
91	0x3d4e0ba3	0.050304066
92	0xbe60f5f4	-0.21968824
93	0xbbcedd4d	-0.006313002
94	0xbe20fcbe	-0.15721413
95	0xbe1799ab	-0.14804713
96	0xbdae534c	-0.08511981
97	0xbe5b6f99	-0.2142929
98	0xbe1c9ea3	-0.1529489
99	0x3dba3ce8	0.09093648
100	0x3c665022	0.014057191
101	0x3df21d0c	0.118219465
102	0xbdfdc968	-0.12391931
103	0xbe558a3e	-0.20853516
104	0x3d812d4b	0.06307467
105	0xbcda2388	-0.02662827
106	0xbe5dc118	-0.2165569
107	0xbce6a6e1	-0.028155746
108	0xbe40bac4	-0.18821245
109	0x3cb63227	0.022240711
110	0xbd3cdd63	-0.04610957
111	0xbe8c7e43	-0.2744008
112	0xbe91cd0d	-0.28476754
113	0xbc3365c0	-0.010949552
114	0xbd932bda	-0.071860984
115	0xbd8f8784	-0.070082694
116	0xbe579956	-0.21054587
117	0xbd7dc534	-0.061955646
118	0xbe35c087	-0.17749225
119	0xbe17e300	-0.14832687
120	0xbdaa6a9e	-0.08321117
121	0xbcb03624	-0.021510191
122	0xbd3de76a	-0.04636327
123	0xbdd0f10d	-0.10202227
124	0xbdd9e606	-0.106395766
125	0xbb8a43b6	-0.0042194976
126	0xbd380954	-0.04493077
127	0xbdfb06e3	-0.12257173
128	0xbc0ea78b	-0.008706938
129	0x3d9d5f38	0.07684177
130	0xbbed62c0	-0.007244438
131	0xbdc29846	-0.095017
132	0x3de8a386	0.113593146
133	0x3ce1abc1	0.027547719
134	0xbdf88a68	-0.12135774
135	0x3d2e0367	0.042483713
136	0xbd3f9901	-0.046776775
137	0xbdaa0d00	-0.08303261
138	0xbc233999	-0.009962463
139	0xbe2fc777	-0.17165934
140	0x3d14a78a	0.03629259
141	0xbda493ba	-0.08035989
142	0x3d10ced4	0.035353497
143	0xbd1819bf	-0.03713393
144	0x3cf39108	0.029732242
145	0x3dd45504	0.10367778
146	0xbe068142	-0.13135245
147	0xbe08ab6c	-0.13346642
148	0xbe274427	-0.16334592
149	0xbba81940	-0.005129963
150	0xbd728b80	-0.05921507
151	0xbd4675f4	-0.048452333
152	0xbcd1eb20	-0.025624812
153	0xbd13dc1d	-0.03609859
154	0x3cedec3b	0.029043308
155	0xbd36ccbf	-0.044628855
156	0xbd24ef90	-0.040267527
157	0xbe103ca6	-0.14085636
158	0xbe42df82	-0.19030574
159	0x3ccdd288	0.025124803
160	0xbdd25c6a	-0.10271533
161	0x3cceb318	0.025231883
162	0x3b978400	0.00462389
163	0xbda323f0	-0.07965839
164	0xbc0cafbd	-0.008586821
165	0x3d8f779a	0.07005234
166	0xbd94dfe7	-0.072692685
167	0xbd917b62	-0.071036115
168	0xbe0898d8	-0.13339555
169	0x3ae1a000	0.0017213821
170	0xbe19f4e7	-0.15034829
171	0xbe18a6fe	-0.14907452
172	0xbc98bf40	-0.018645883
173	0xbdec9aac	-0.11552939
174	0x3cfb5f50	0.030685097
175	0xbde3083a	-0.110855535
176	0xbda28a01	-0.079364784
177	0xbd436bc4	-0.047710195
178	0xbde9f2c4	-0.11423257
179	0x3d57d925	0.05269732
180	0xbd60196a	-0.054711737
181	0x3d80e4bb	0.06293627
182	0xbdce98bf	-0.10087728
183	0xbde65a47	-0.11247688
184	0xbdf0aacc	-0.11751327
185	0xbd425c54	-0.047451332
186	0x3b5562fe	0.0032560225
187	0xbe528a5c	-0.20560592
188	0xbd331474	-0.043720677
189	0xbb8d25ec	-0.004307499
190	0xbc2aae51	-0.010417537
191	0xbd098b29	-0.03357998
192	0xbe2a2a31	-0.16617657
193	0xbd65bfc8	-0.0560911
194	0xbe0c8005	-0.1372071
195	0xbe14fec7	-0.14550315
196	0x3d55ab90	0.052165568
197	0xbe3c3b7e	-0.1838207
198	0xbe26b785	-0.16280945
199	0xbda38679	-0.07984633
200	0xbe396fe1	-0.18109085
201	0xbdd720c6	-0.10504298
202	0xbd0bed12	-0.034161635
203	0xbd6f3df1	-0.05840868
204	0x3bb0492e	0.0053798174
205	0xbe6b8671	-0.23000504
206	0x3a8e7380	0.0010868162
207	0xbdfb2dc8	-0.122645915
208	0xbd8f2f62	-0.069914594
209	0xbd900382	-0.07031919
210	0xbd900999	-0.070330806
211	0xbdcf9724	-0.1013625
212	0xbe3c093d	-0.18362899
213	0xbdb471ac	-0.08810744
214	0xbdd41a6c	-0.10356602
215	0x3c188513	0.009309071
216	0xbda4d805	-0.08049015
217	0xbdef8b4c	-0.11696491
218	0xbe186333	-0.14881591
219	0xbe4a15f8	-0.19734943
220	0xbe5f359e	-0.21797797
221	0xbe367b1b	-0.17820399
222	0xbd54bc65	-0.05193748
223	0xbda7c482	-0.08191778
224	0xbe16cb30	-0.14725947
225	0xbe1facd4	-0.15593272
226	0x3da3894e	0.07985173
227	0x3db88946	0.09010558
228	0x3ca6136b	0.020272931
229	0x3d155a70	0.0364632
230	0xbd2795b9	-0.04091427
231	0xbe20e0e0	-0.15710783
232	0xbe3842a4	-0.17994171
233	0xbdfacc6c	-0.12246022
234	0xbcc628c8	-0.024189368
235	0xbe0d39d2	-0.13791588
236	0xbdbf1999	-0.09331054
237	0xbdca65fe	-0.09882735
238	0xbe7c4644	-0.24636179
239	0xbe1cd76a	-0.15316549
240	0xbd45453a	-0.048161723
241	0xbccf4210	-0.025300056
242	0xbe5dc5ac	-0.21657437
243	0xbda2177a	-0.07914634
244	0xbdc174b6	-0.09446089
245	0xbe03bd27	-0.12865125
246	0xbd794230	-0.060854137
247	0xbdb469fe	-0.08809279
248	0xbd3cd3c0	-0.046100378
249	0x3b4f651d	0.0031645962
250	0xbd136b92	-0.03599126
251	0xbe0fb5d4	-0.14034206
252	0xbe29e501	-0.16591264
253	0xbe644459	-0.22291698
254	0xbd4c1c02	-0.049831398
255	0xbe0e93fe	-0.13923642

fc2.bias f4 [64]
0	0xbf3138a5	-0.6922706
1	0xbe05675f	-0.13027714
2	0xbe364d25	-0.17802866
3	0xbe193892	-0.14962986
4	0xbe30e65a	-0.17275372
5	0xbd4cfd29	-0.05004612
6	0xbd3a5df8	-0.04549977
7	0xbea7a256	-0.3274104
8	0x3e242c41	0.16032507
9	0x3eb58969	0.35456398
10	0xbe11b7f7	-0.14230333
11	0xbe446fcc	-0.19183272
12	0xbe51f955	-0.20505269
13	0xbe29f651	-0.16597869
14	0x3fae6675	1.3625017
15	0xbe23a76a	-0.15981832
16	0x3dd93bd5	0.10607115
17	0xbe0bcc8d	-0.13652249
18	0xbe499bae	-0.19688293
19	0xbe96266a	-0.29326183
20	0x3e645926	0.22299632
21	0x3f817f5d	1.0116993
22	0x3be55ca6	0.00699957
23	0xbdb11b3d	-0.086477734
24	0xbd372f32	-0.044722743
25	0xbda45071	-0.080231555
26	0xbd941e74	-0.07232371
27	0xbe8bf349	-0.2733405
28	0xbe4e4db5	-0.2014683
29	0xbdcf1b41	-0.1011262
30	0xbe879e2c	-0.26487863
31	0xbe273d15	-0.16331895
32	0xbe573ce1	-0.21019317
33	0xbe4d9103	-0.20074849
34	0x3ec90889	0.39264324
35	0x3df4a271	0.11945046
36	0xbea59fd5	-0.32348505
37	0xbd8191c7	-0.06326633
38	0x3ee09e70	0.43870878
39	0xbe4970bb	-0.1967191
40	0xbd3e52ca	-0.046465673
41	0xbe1b4619	-0.15163459
42	0xbc4ad889	-0.012380728
43	0x3c007849	0.007841178
44	0x3e9bbaf5	0.30416074
45	0xbe6f7986	-0.23386201
46	0xbdf60afe	-0.12013815
47	0x3c74bedf	0.014938085
48	0xbdb1a436	-0.08673899
49	0xbd815cca	-0.06316526
50	0xbdf7ef5f	-0.12106203
51	0xbe480856	-0.1953443
52	0xbc84787e	-0.016170736
53	0x3f84e33f	1.038185
54	0xbe4fd77f	-0.20297049
55	0xbeb45b6c	-0.35226
56	0xbe50e1f0	-0.20398688
57	0x3b0c5500	0.0021412969
58	0x3eaf5efd	0.34252158
59	0xbde26716	-0.11054818
60	0x3ed9cb7f	0.42538068
61	0xbec775f8	-0.3895719
62	0x3f9a9c84	1.2079015
63	0xbc2bad10	-0.010478273

fc3.weight f4 [32, 64]
0	0xbca8dcde	-0.02061313
1	0x3d7c22e5	0.061556716
2	0x3df0c5e0	0.11756492
3	0xbe102e6a	-0.14080206
4	0xbe8b867c	-0.2725104
5	0x3cd61599	0.026133345
6	0x3d97a7ec	0.074050754
7	0xbf108d4d	-0.5646561
8	0xbf55a74a	-0.8345839
9	0xbe59509f	-0.21222161
10	0x3dd044d2	0.101693764
11	0x3e5056d8	0.20345628
12	0xbe78432c	-0.24244374
13	0xbd88d3e7	-0.06681042
14	0x4046caaf	3.1061208
15	0xbc8cf897	-0.01720838
16	0x3e2293d1	0.158767
17	0x3b96b890	0.0045996383
18	0xbe933617	-0.28752205
19	0xbe839c37	-0.2570512
20	0x3ed1e7ca	0.40997154
21	0x3e339cda	0.17540303
22	0x3dad4149	0.08459718
23	0x3daf9c4b	0.085747324
24	0xbd3d201d	-0.046173204
25	0x3c770859	0.015077674
26	0x3d8ab03e	0.06771897
27	0xbf03e757	-0.5152487
28	0xbcd6a619	-0.026202248
29	0xbd766c8a	-0.060162105
30	0xbc86d09a	-0.01645689
31	0xbd11f91b	-0.035637956
32	0xbe13c86a	-0.1443192
33	0xbe5fdda2	-0.2186189
34	0xbf0e21b7	-0.55520195
35	0xbe96a9c4	-0.29426396
36	0x3e44a710	0.19204354
37	0x3d98bb91	0.074576505
38	0x3ca893bb	0.020578256
39	0x3df5b087	0.119965605
40	0xbd6834c1	-0.056690935
41	0xbcd96adb	-0.02654021
42	0xbd025bcd	-0.03182583
43	0x3f039168	0.5139375
44	0xbd1c4144	-0.03814818
45	0xbe4004bd	-0.18751808
46	0xbd7fe95a	-0.0624784
47	0xbcaf3218	-0.021386191
48	0xbd6a86ec	-0.057257578
49	0x3e2e6434	0.17030412
50	0xbe0c0473	-0.13673572
51	0xbc961724	-0.018321581
52	0x3dc7eda2	0.09762122
53	0x3dfa2b7f	0.122153275
54	0xbdc2efb5	-0.09518377
55	0xbd63c53c	-0.05560802
56	0xbd55e07d	-0.05221604
57	0xbdd141ac	-0.10217604
58	0xbfae1339	-1.3599616
59	0x3d16dada	0.036829807
60	0xbed07530	-0.40714407
61	0x3daa07e5	0.08302287
62	0xbedd1647	-0.4318106
63	0xbde53c8e	-0.111931905
64	0xbed7c228	-0.42140317
65	0x3cdbe358	0.026841804
66	0x3df6e669	0.12055666
67	0xbdf08ada	-0.11745234
68	0xbd47acb2	-0.04874868
69	0xbd791f5e	-0.06082093
70	0xbcac4008	-0.021026626
71	0x3e204497	0.15651165
72	0x3ec6084c	0.38678205
73	0x3d851b56	0.064993545
74	0xbdf6a40c	-0.12043008
75	0xbce5b64f	-0.028041033
76	0x3e770f6a	0.24126974
77	0x3d335e26	0.04379096
78	0x3f791151	0.9729205
79	0xbc8b1a70	-0.01698038
80	0x3dae461b	0.08509465
81	0xbd9c9af9	-0.07646746
82	0xbe3a5587	-0.18196689
83	0x3e5eefcd	0.21771164
84	0xbe36865c	-0.17824692
85	0xbf41c4e2	-0.75691044
86	0x3b97672e	0.0046204543
87	0x3e2ef2eb	0.17084853
88	0xbc0d4f69	-0.00862489
89	0xbd42e9ba	-0.04758618
90	0xbcbd4833	-0.023105716
91	0xbf0bf520	-0.54670906
92	0xbd6bf909	-0.057610545
93	0xbb777af2	-0.003776249
94	0xbdfd45cc	-0.12366828
95	0xbdfc5f9d	-0.12322924
96	0xbe25e8f6	-0.16202149
97	0xbdfb1429	-0.122597046
98	0x3cb8f7d7	0.022579117
99	0xbe994913	-0.29938564
100	0x3e72265c	0.23647445
101	0x3deb0deb	0.11477264
102	0x3e22c8dc	0.15896934
103	0xbab4c1fd	-0.0013790723
104	0xbe05c50d	-0.1306345
105	0x3e207103	0.1566811
106	0xbd22630d	-0.039645243
107	0xbe19f4f1	-0.15034844
108	0xbf0d149c	-0.5510957
109	0xbd5e47e7	-0.05426779
110	0x3cde8b73	0.027166104
111	0x3d1b9e83	0.037992965
112	0x3da81664	0.08207396
113	0x3ea79dea	0.32737666
114	0xbcd6426f	-0.026154725
115	0x3cb5925a	0.022164512
116	0xbc9b1a2b	-0.018933376
117	0xbbd964b6	-0.00663432
118	0xbe2f14e9	-0.1709782
119	0x3bea94bf	0.007158845
120	0x3e74a870	0.23892379
121	0xbd14c770	-0.03632301
122	0xbea490fc	-0.32141864
123	0xbd74228d	-0.059603263
124	0xbefd6f60	-0.49499035
125	0x3cb81494	0.02247075
126	0xbe9bad9a	-0.30405885
127	0x3d986492	0.07441057
128	0xbf5eba47	-0.87002987
129	0xbdd0272e	-0.10163723
130	0xbe0a54d5	-0.13508923
131	0x3dff2e66	0.12460022
132	0xbe2327d2	-0.15933159
133	0x3c40daa6	0.01177088
134	0x3d03abbc	0.0321462
135	0xbe8a881a	-0.27056962
136	0x3ef04fb3	0.46935806
137	0xbe0d57d9	-0.13803042
138	0xbd809f9b	-0.06280442
139	0x3e7ee0f1	0.24890496
140	0xbdb9bd0b	-0.0906926
141	0x3c3944af	0.011307879
142	0x3ef27132	0.47351986
143	0xbddaab19	-0.106771655
144	0xbf266a3e	-0.6500586
145	0x3e00007a	0.12500182
146	0xbdd02399	-0.1016304
147	0x3eb958e1	0.36200622
148	0xbf043536	-0.51643693
149	0x3ed4b6f4	0.41545832
150	0x3cefc773	0.02926991
151	0xbcb65739	-0.022258388
152	0x3cc8440a	0.024446506
153	0x3d958161	0.07300068
154	0xbd426b1a	-0.04746542
155	0xbf3dc01f	-0.7412128
156	0xbcc22a9e	-0.023701962
157	0x3d3c78f2	0.04601378
158	0x3de4dd8b	0.111750685
159	0xbe88da0c	-0.26728857
160	0x3e2302be	0.15919015
161	0x3e02f65f	0.12789296
162	0x3e9f88a0	0.31158924
163	0x3d0a444a	0.03375653
164	0xbe23e253	-0.16004305
165	0x3bf5d18e	0.0075017875
166	0xbf3ef510	-0.74592686
167	0x3d1a00ed	0.03759854
168	0x3d87b965	0.06627158
169	0xbe3bfd0e	-0.18358251
170	0xbdde9c7a	-0.10869689
171	0xbdcffa80	-0.10155201
172	0xbd6408b2	-0.055672355
173	0x3e139a50	0.14414334
174	0xbdb7fa63	-0.08983304
175	0xbe2d9b84	-0.16953856
176	0xbe307093	-0.17230444
177	0x3e39e7f0	0.18154883
178	0x3e0a6e3b	0.13518612
179	0xbd83eba3	-0.064414285
180	0x3d00b83a	0.031425692
181	0x3e9f47dc	0.31109512
182	0x3e0bf183	0.13666348
183	0x3f38a10c	0.7212074
184	0xbe4663fe	-0.19374081
185	0x3d088848	0.033333093
186	0xbe7bb730	-0.24581599
187	0x3cd1619a	0.025559235
188	0xbed012d7	-0.40639374
189	0x3f0fcc45	0.56171066
190	0x3e8330e8	0.2562325
191	0xbda7332a	-0.08164056
192	0xbf2dc883	-0.6788408
193	0x3cdca784	0.026935346
194	0xbb142236	-0.00226034
195	0x3d3fcf20	0.04682839
196	0xbd24aa24	-0.04020132
197	0xbe330603	-0.17482762
198	0xbdf1fc2e	-0.118156776
199	0x3d899218	0.06717318
200	0x3ca10597	0.019655986
201	0x3f85e213	1.0459617
202	0xbdced373	-0.100989245
203	0xbea75db7	-0.32688686
204	0x3e12cffc	0.14337152
205	0xbe2fa8bf	-0.17154215
206	0xbfaa5341	-1.3306657
207	0x3d762cb6	0.060101233
208	0x3d92689c	0.07148859
209	0xbe77d680	-0.24202919
210	0xbe2bac99	-0.1676506
211	0xbeb5ab79	-0.35482386
212	0x3eb06e4a	0.34459144
213	0x3fb83bc2	1.4393237
214	0x3e4f68a9	0.20254768
215	0x3e075c7e	0.13218877
216	0x3c8d3b09	0.017240064
217	0x3e435d52	0.19078568
218	0x3ed03e62	0.40672594
219	0x3ee487c1	0.44634822
220	0x3e1cd8cd	0.15317078
221	0xbd5fcd65	-0.05463924
222	0xbdcc6ce1	-0.099817045
223	0x3ebe193e	0.37128633
224	0xbd358777	-0.044318642
225	0xbe5cebc3	-0.21574311
226	0x3e3335fa	0.17501059
227	0xbf8bd186	-1.0923316
228	0xbea250f3	-0.31702384
229	0xbd1c07cc	-0.038093373
230	0x3f0028ad	0.50062066
231	0x3d229a6c	0.03969805
232	0x3e5fc0b0	0.21850848
233	0xbe2ae3b8	-0.1668843
234	0xbd7aaa91	-0.06119782
235	0xbddb89e4	-0.1071966
236	0xbf301c49	-0.6879316
237	0x3c1757a3	0.009237203
238	0x3e392226	0.18079433
239	0xbe2dedaf	-0.169852
240	0x3e0322f9	0.1280631
241	0x3d3378f6	0.04381653
242	0x3dd9b4de	0.10630201
243	0xbc198a24	-0.009371314
244	0x3e3801aa	0.17969385
245	0xbf48592a	-0.78261054
246	0x3d77bda1	0.06048358
247	0xbee0bf25	-0.43895832
248	0x3d8cb9fc	0.06871411
249	0x3d8c44a6	0.06849031
250	0x3f8c80ef	1.0976847
251	0x3e461645	0.19344433
252	0x3f10a47c	0.56500983
253	0xbf1cf736	-0.61314714
254	0xbed2cab9	-0.4117029
255	0xbdac8814	-0.08424392

fc3.bias f4 [32]
0	0xbe77a6ba	-0.24184695
1	0xbce475e2	-0.027888242
2	0xbe429b29	-0.19004501
3	0x3f1aaa8a	0.6041647
4	0xbee11a56	-0.43965405
5	0xbd0d202b	-0.034454506
6	0xbf1660c9	-0.5874143
7	0x3f3ec777	0.7452311
8	0x3d95badf	0.073110335
9	0xbed5c9b7	-0.4175546
10	0xbf34cb0f	-0.7062234
11	0xbeeff634	-0.46867526
12	0xbda09e41	-0.078426845
13	0x3b7c42cd	0.0038491965
14	0xbcc57dc9	-0.02410783
15	0xbf01ee72	-0.50754464
16	0xbd9f9430	-0.077919364
17	0xbe96f874	-0.2948643
18	0xbea97c6a	-0.33102733
19	0x3e6a08d0	0.22854924
20	0xbec8e140	-0.39234352
21	0xbf259f0c	-0.6469581
22	0x3e906716	0.28203648
23	0x3eea7d1a	0.4579857
24	0xbdaf3ec5	-0.08556894
25	0xbe9fc4c5	-0.3120481
26	0x3e813adf	0.25240228
27	0x3f889002	1.0668948
28	0x3d8bdf47	0.06829696
29	0x3f3975fe	0.72445667
30	0x3de3ed1b	0.11129209
31	0xbf02728e	-0.50956047

in_fn.weight f4 [33]
0	0x3fbf761e	1.4957922
1	0x3f4b2059	0.79346234
2	0x3e3ce080	0.18445015
3	0x3e400e2a	0.18755403
4	0x3eab4434	0.33450472
5	0x3e10a336	0.1412476
6	0x3e1bbae9	0.1520802
7	0x3e3f8273	0.18702106
8	0x3ee0ab80	0.43880844
9	0x3ec2dcbe	0.38059038
10	0x3d9604f3	0.07325163
11	0x3ed2d670	0.41179228
12	0x3efb7625	0.49113575
13	0x3ed942e6	0.42433852
14	0x3eb0d588	0.3453791
15	0x3e9f5166	0.3111679
16	0x3f4006de	0.7501048
17	0x3eaeb9e2	0.34126192
18	0x3e087dc9	0.13329233
19	0x3e7306dd	0.23733087
20	0x3ed2be7b	0.4116095
21	0x3da71de5	0.08159999
22	0x3e7b1d73	0.24522953
23	0x3ea104f1	0.31449082
24	0x3f55e683	0.8355486
25	0x3e50dfc5	0.20397861
26	0x3eced4f1	0.40396836
27	0x3edf0c42	0.4356404
28	0x3f41a655	0.7564443
29	0x3e5f0c4c	0.21782035
30	0x3f4d5e5c	0.80222106
31	0x3f4c61a6	0.798365
32	0x3f81f819	1.0153838

in_fn.bias f4 [33]
0	0x3d6febd1	0.0585745
1	0x3c4c796a	0.012480119
2	0x3c18c16a	0.009323457
3	0x3cd7565d	0.026286298
4	0x3ba5195c	0.0050384235
5	0xbb8c2018	-0.004276287
6	0xbde3e187	-0.11127
7	0xbd1008cd	-0.035164643
8	0xbd9b4b9f	-0.07582783
9	0x3d82977a	0.06376548
10	0xbca0ee81	-0.019644978
11	0x3cf8cb8d	0.030370498
12	0x3db17917	0.08665674
13	0x3c689ddf	0.014197796
14	0xbd552442	-0.05203653
15	0xbc8657fc	-0.016399376
16	0x3dcb88d9	0.09938211
17	0x3d6ea1f5	0.058259923
18	0xbc698a58	-0.014254175
19	0x3df5673f	0.11982583
20	0xbb7dd449	-0.0038731268
21	0xbcb29b9e	-0.02180272
22	0xbc1fef98	-0.009761713
23	0xbc9a1564	-0.018809028
24	0x3e51c615	0.20485719
25	0x3c1f2a37	0.009714655
26	0x3c1d1aca	0.009588907
27	0xbd44d6aa	-0.048056282
28	0x3dd5e933	0.1044487
29	0xbe4dbdbf	-0.20091914
30	0x3e8b2b9f	0.27181718
31	0x3eacc5bb	0.33744606
32	0x3dc40904	0.09572032

in_fn.running_mean f4 [33]
0	0x4010f5f1	2.265011
1	0x3d5db981	0.05413199
2	0x3b9bc971	0.0047542383
3	0x3bb2e1f2	0.0054590637
4	0x3ce29af9	0.027661787
5	0x3b8a2ae8	0.0042165406
6	0x3bea1daa	0.0071446495
7	0x3be0a1fe	0.0068552485
8	0x3d48a65a	0.04898677
9	0x3c2eda12	0.010672109
10	0x3b2be55c	0.0026229238
11	0x3b8f11d6	0.00436614
12	0x3d04f5b6	0.03246089
13	0x3ca27c52	0.019834671
14	0x3c648849	0.013948509
15	0x3c9016d9	0.01758902
16	0x3d699e76	0.057035886
17	0x3bbc3fdd	0.005744918
18	0x3c87d413	0.016580617
19	0x3bac55cf	0.0052592526
20	0x3cc8fae6	0.0245337
21	0x3ba321c6	0.0049783913
22	0x3c21712a	0.009853641
23	0x3c06a8df	0.008218973
24	0x3db2b0f1	0.08725155
25	0x3bfd14ea	0.0077234404
26	0x3c2a3200	0.0103878975
27	0x3ca033a8	0.019555882
28	0x3d89d300	0.06729698
29	0x3c168dff	0.009189128
30	0x3db5c051	0.08874572
31	0x3dce8705	0.10084347
32	0x3e5d4845	0.216096

in_fn.running_var f4 [33]
0	0x40d31c5b	6.5972114
1	0x3d4e8748	0.050421983
2	0x3b9aff03	0.004730107
3	0x3bb19a62	0.005420015
4	0x3cdc0143	0.02685607
5	0x3b898ca6	0.004197675
6	0x3be87adb	0.0070947236
7	0x3bdf0eab	0.0068071685
8	0x3d3dd5cc	0.04634647
9	0x3c2ce0d3	0.010551649
10	0x3b2b695f	0.0026155335
11	0x3b8e5da2	0.004344658
12	0x3d00a2d7	0.031405296
13	0x3c9f0941	0.019413592
14	0x3c615444	0.013753001
15	0x3c8d663c	0.017260663
16	0x3d5a7417	0.05333337
17	0x3bbb2201	0.0057108407
18	0x3c84a9ce	0.01619425
19	0x3bab3f67	0.005226064
20	0x3cc2deae	0.023787823
21	0x3ba23bad	0.0049509616
22	0x3c1f9ee4	0.009742472
23	0x3c059a51	0.008154468
24	0x3da2e124	0.079530984
25	0x3bfae031	0.00765612
26	0x3c286281	0.010277391
27	0x3c9cdbb2	0.019147728
28	0x3d7c2131	0.06155509
29	0x3c152801	0.009103776
30	0x3da44aa7	0.08022051
31	0x3db53486	0.08847909
32	0x3e2d1f6c	0.16906518

fc1.weight f4 [64, 33]
0	0x3de8c6e4	0.113660604
1	0xbdb99d8c	-0.09063253
2	0xbe6cd812	-0.231293
3	0x3df77012	0.120819226
4	0xbe61aa6b	-0.22037666
5	0x3e297f4e	0.16552469
6	0xbdf4f739	-0.119612165
7	0xbe988ef9	-0.2979658
8	0x3f00d9e9	0.50332505
9	0xbe7ec5fd	-0.24880214
10	0xbe023c71	-0.12718369
11	0xbd93d7c4	-0.072188884
12	0x3e68e230	0.22742534
13	0x3e806d08	0.25083184
14	0xbe3ff210	-0.18744683
15	0x3eb66ad9	0.35628393
16	0xbdb9116c	-0.09036526
17	0xbdf1dfbf	-0.11810254
18	0xbe6a1894	-0.22860938
19	0x3d90e450	0.07074797
20	0x3ea4702e	0.32116836
21	0xbe2d8b06	-0.16947564
22	0x3eb3f1b3	0.3514534
23	0xbcd091bf	-0.025460122
24	0xbe5ee6f3	-0.21767788
25	0x3d2b96a0	0.041891694
26	0x3e0e56a8	0.13900244
27	0xbe452806	-0.19253549
28	0xbdc550eb	-0.096345745
29	0x3c16b2b4	0.00919788
30	0x3d3b07cd	0.045661736
31	0xbdea2c3b	-0.114342175
32	0xbda2f8cf	-0.07957613
33	0x3d8722ca	0.06598432
34	0xbd24952e	-0.04018133
35	0xbd6b2351	-0.057406727
36	0x3d97dc0f	0.0741502
37	0xbd55501f	-0.052078363
38	0x3e4c3ad1	0.19944312
39	0x3db11b04	0.08647731
40	0x3cd171d2	0.025566969
41	0x3e34224d	0.1759121
42	0x3d1d848c	0.038456485
43	0x3d81fa5f	0.063465826
44	0xbd2b14f4	-0.04176803
45	0x3c7a5ae8	0.015280463
46	0xbe262083	-0.1622334
47	0xbd75018d	-0.059815932
48	0xbe6fe813	-0.23428373
49	0x3e2aec7e	0.16691777
50	0xbc2817a7	-0.010259545
51	0x3c298bc7	0.010348267
52	0xbea71fbf	-0.32641408
53	0x3e055ad9	0.13022937
54	0xbd828daa	-0.063746765
55	0x3d99b3ec	0.075050205
56	0xbe0813a4	-0.13288742
57	0xbd91e558	-0.07123822
58	0x3ee8bb15	0.45455232
59	0xbd747e0b	-0.059690516
60	0xbd0def63	-0.034652125
61	0xbcc28029	-0.023742752
62	0x3e10c5d2	0.14137962
63	0xbe2c6d97	-0.1683868
64	0x3dae0660	0.0849731
65	0x3d5fb0e8	0.05461207
66	0xbf88924a	-1.0669644
67	0xbe5bc86a	-0.2146317
68	0x3cd853e1	0.026407184
69	0xbe9fc887	-0.31207678
70	0xbc37a804	-0.011209492
71	0xbe966005	-0.29370132
72	0x3d57b696	0.052664362
73	0xbe9a8ca7	-0.30185434
74	0xbe01bd86	-0.12669954
75	0xbe4126f5	-0.18862517
76	0xbd2f319a	-0.042771913
77	0xbe9ff049	-0.3123801
78	0x3e3750ae	0.1790187
79	0x3ead231a	0.33815843
80	0x3e189e34	0.149041
81	0x3eec3022	0.46130472
82	0xbe13a02b	-0.14416568
83	0xbe8028e9	-0.25031212
84	0x3ecaab05	0.39583603
85	0xbeddadd6	-0.4329669
86	0x3ee6e730	0.45098257
87	0xbddadcd8	-0.10686654
88	0xbb7ec3ba	-0.0038873986
89	0xbead2766	-0.3381912
90	0x3d0d4e77	0.034498658
91	0x3d7183a9	0.05896345
92	0x3d65051c	0.055913076
93	0x3ebf303f	0.37341496
94	0xbe405151	-0.1878102
95	0x3e835d91	0.25657323
96	0xbec5a587	-0.3860285
97	0xbede40eb	-0.43408903
98	0x3f40bcb9	0.7528797
99	0xbfb6fff4	-1.4296861
100	0x3df9211c	0.12164518
101	0x3d9147a0	0.070937395
102	0x3c857670	0.016291827
103	0xbf4ee466	-0.8081726
104	0x3d46d73d	0.04854511
105	0x3d120d19	0.035657022
106	0xbd324aa9	-0.043528233
107	0xbea8d230	-0.3297286
108	0x3de7384d	0.112900354
109	0x3c1b6a7a	0.009485835
110	0xbe6641e1	-0.22486068
111	0x3d0cd328	0.03438106
112	0xbd022afa	-0.031779267
113	0x3cf54f3c	0.029945008
114	0xbea2f648	-0.31828523
115	0x3e05debf	0.13073252
116	0xbc250606	-0.010072237
117	0x3e43bba9	0.19114555
118	0x3ed0f431	0.40811303
119	0x3e735331	0.23762204
120	0xbd93db79	-0.072195955
121	0xbddaec3a	-0.10689588
122	0xbe22e00c	-0.1590578
123	0xbd0054f0	-0.031331003
124	0xbe53991e	-0.20663878
125	0x3e97cafe	0.29647058
126	0x3d4923ac	0.049106285
127	0xbef4b71b	-0.47795948
128	0xbd2c04b3	-0.04199667
129	0xbdeba119	-0.11505336
130	0xbeb5a1f9	-0.35475138
131	0x3f34593e	0.7044867
132	0x3df35bb6	0.11882727
133	0xbe189be7	-0.14903222
134	0x3dd440fe	0.10363959
135	0xbcc044d8	-0.023470327
136	0xbebd6a1c	-0.36995018
137	0x3deb573c	0.11491248
138	0xbc61a9c8	-0.013773389
139	0xbe6bd286	-0.23029527
140	0xbe9842ae	-0.29738373
141	0xbe6ba140	-0.2301073
142	0x3e032d73	0.12810306
143	0xbe2ce1cc	-0.1688301
144	0xbe580be7	-0.2109829
145	0x3e826927	0.2547085
146	0x3edcd763	0.43133077
147	0x3ea15336	0.31508797
148	0xbe202783	-0.15640073
149	0xbe69ad11	-0.22819926
150	0xbe767346	-0.24067411
151	0xbe6feee6	-0.23430976
152	0xbe870bee	-0.2637629
153	0xbe217b67	-0.1576973
154	0xbd39b222	-0.045335896
155	0xbe8c8e1d	-0.27452174
156	0xbe816354	-0.25271094
157	0xbc1a5676	-0.009420028
158	0x3e861d30	0.26194143
159	0xbe881cd6	-0.265845
160	0x3eca8765	0.39556423
161	0xbe13f0e4	-0.14447361
162	0x3e8605a4	0.26176178
163	0x3e879a02	0.26484686
164	0x3ee94d46	0.45566767
165	0x3e5f328a	0.21796623
166	0xbd977443	-0.07395222
167	0x3de22bfb	0.11043545
168	0xbe3ebf61	-0.18627693
169	0x3c51857c	0.012788173
170	0xbe1e8583	-0.15480618
171	0xbce49980	-0.027905226
172	0x3c6a019f	0.014282613
173	0xbd328c06	-0.043590568
174	0xbd8187ab	-0.06324705
175	0x3d42465e	0.04743039
176	0x3dc04b76	0.09389393
177	0x3d4d4bf6	0.05012127
178	0x3e037ab5	0.12839778
179	0xbc5cf2df	-0.013485639
180	0x3e8537f2	0.26019245
181	0xbe040486	-0.1289235
182	0x3dd0f3b1	0.102027304
183	0x3e31cbdd	0.17362924
184	0xbd570e7b	-0.052504044
185	0x3e58c14a	0.21167484
186	0x3d892928	0.06697303
187	0x3d46c585	0.048528213
188	0x3d8571b2	0.06515826
189	0x3db6fce0	0.08934951
190	0xbdaea6df	-0.08527922
191	0x3e467ca9	0.19383492
192	0x3e3d5c39	0.18492211
193	0x3dd4c9e8	0.10390073
194	0x3d130069	0.035889063
195	0xbda03da8	-0.0782426
196	0xbe90bf24	-0.2827083
197	0x3e248064	0.16064602
198	0x3d59e1af	0.053193744
199	0xbd1ad3c4	-0.03779961
200	0xbd938557	-0.07203167
201	0xbe8bed29	-0.27329376
202	0xbe5a1667	-0.21297608
203	0x3e427734	0.18990785
204	0xbd92a90d	-0.0716115
205	0xbdf39934	-0.118944556
206	0xbcf387e7	-0.02972789
207	0xbdea0506	-0.114267394
208	0x3d757362	0.05992449
209	0xbc4a5c36	-0.012351086
210	0x3e2d1510	0.16902566
211	0xbe2e014e	-0.16992685
212	0x3e871076	0.26379746
213	0xbd74defd	-0.05978297
214	0x3ebba4cf	0.36649176
215	0xbe2a9687	-0.16658984
216	0x3d99a5b9	0.07502312
217	0xbe8ea417	-0.27859566
218	0x3b789c1c	0.0037934845
219	0xbe53a1a4	-0.2066713
220	0x3e831209	0.25599697
221	0x3e8993f7	0.268707
222	0xbcaa82f0	-0.020814389
223	0xbd153e97	-0.036436643
224	0xbe0ce14e	-0.13757822
225	0x3dbabb47	0.091177516
226	0x3e47313b	0.19452374
227	0x3e3e4b93	0.18583517
228	0x3e45ee50	0.1932919
229	0x3e41057d	0.1884975
230	0x3cc0255f	0.02345532
231	0x3e6d009a	0.2314476
232	0x3cf4791c	0.029842906
233	0x3de3b3ec	0.11118302
234	0xbde1780d	-0.11009226
235	0xbd473616	-0.048635565
236	0x3aac606f	0.0013151298
237	0x3e8241da	0.25440866
238	0x3d5a922e	0.053362064
239	0x3dd11667	0.10209351
240	0x3c24ff67	0.010070658
241	0x3d65f772	0.056144185
242	0x3e8597af	0.26092288
243	0x3db36ecf	0.087613694
244	0x3e9a892b	0.30182776
245	0x3cafd47c	0.021463625
246	0x3e5ba50f	0.21449684
247	0x3e0cf503	0.1376534
248	0xbbf798cb	-0.007556056
249	0x3e46a975	0.1940058
250	0xbea4232a	-0.32058078
251	0x3e00551d	0.12532468
252	0x3d800da9	0.062526055
253	0x3df10529	0.11768562
254	0xbdfc34b1	-0.123147376
255	0xbb270ed6	-0.002549102

fc1.bias f4 [64]
0	0xbeb041fe	-0.34425348
1	0xbedb59d9	-0.42841986
2	0xbec923d2	-0.3928514
3	0xbe3fdefb	-0.18737404
4	0x3e168d41	0.14702322
5	0xbf08106d	-0.53150064
6	0xbe90aebd	-0.28258315
7	0xbf73d8f4	-0.9525292
8	0xbeaa4bff	-0.33261105
9	0xbe2f83d1	-0.17140128
10	0xbe736036	-0.2376717
11	0xbec7f21b	-0.390519
12	0xbdb90cdd	-0.090356566
13	0xbf0eceb3	-0.5578415
14	0xbf05d143	-0.52272433
15	0x3df7f57c	0.12107369
16	0xbf0e3a3d	-0.55557615
17	0xbe2e1fb8	-0.17004287
18	0xbf1ba0ea	-0.6079241
19	0x3ebaba6f	0.36470363
20	0xbf4acc45	-0.7921794
21	0xbf0726ff	-0.5279388
22	0xbe03178a	-0.12801948
23	0x3e21bc2b	0.15794437
24	0xbf0673eb	-0.52520627
25	0xbe7f4ff4	-0.24932843
26	0xbee06c50	-0.43832636
27	0xbe4bda64	-0.19907528
28	0xbf341160	-0.7033901
29	0x3e8201f1	0.25392106
30	0xbf045eb7	-0.51707023
31	0xbee1d6cd	-0.44109192
32	0x3e1701e0	0.14746809
33	0xbee97ffb	-0.45605454
34	0xbf24a114	-0.64308286
35	0xbed390a2	-0.41321284
36	0xbd38c2c2	-0.04510761
37	0xbe789189	-0.24274267
38	0x3e4c9268	0.19977725
39	0xbea9c2b1	-0.3315635
40	0xbdb4ed21	-0.08834291
41	0xbefa8b4c	-0.489344
42	0xbf4ba4cf	-0.7954835
43	0xbf7b6ff9	-0.9821773
44	0xbee9ae04	-0.45640576
45	0xbec58daa	-0.38584644
46	0xbe9db9b9	-0.30805758
47	0xbeb26154	-0.3483988
48	0xbea63041	-0.3245869
49	0xbf22f9aa	-0.6366221
50	0x3b9aef2c	0.0047282185
51	0xbef8abec	-0.48568666
52	0xbf2f7efb	-0.6855313
53	0xbf49b9d9	-0.78799206
54	0xbed84bce	-0.42245334
55	0xbf16e94e	-0.58949745
56	0xbf3cd9cb	-0.73769826
57	0xbeba8258	-0.3642757
58	0xbdf2cf3b	-0.11855932
59	0x3d56ba7e	0.052423947
60	0xbea37180	-0.3192253
61	0xbefc1f31	-0.49242547
62	0xbefb3741	-0.49065593
63	0xbf251617	-0.6448683

fc2.weight f4 [64, 64]
0	0x3d0e01e1	0.03466976
1	0xbddf0fb9	-0.10891671
2	0xbe0e5403	-0.13899235
3	0xbe740b78	-0.238325
4	0xbadd2d62	-0.0016874487
5	0xbe51969c	-0.20467609
6	0xbe365ec3	-0.17809586
7	0xbcef6bc4	-0.029226191
8	0xbdbc9624	-0.092083246
9	0xbcb460ac	-0.022018753
10	0xbe3f030a	-0.18653503
11	0xbe8a93fa	-0.27066022
12	0xbdb8cc3e	-0.09023331
13	0xbe23ae83	-0.1598454
14	0xbd72ce35	-0.059278686
15	0xbe9f7681	-0.311451
16	0x3cfa7aaf	0.030576078
17	0x3d040b90	0.03223759
18	0xbd095604	-0.033529297
19	0xbe0eedef	-0.13957952
20	0x3d92b781	0.07163907
21	0xbe3e4960	-0.18582678
22	0xbd892f0e	-0.06698428
23	0xbe233311	-0.15937449
24	0xbdcbc992	-0.09950556
25	0x3d412049	0.04714993
26	0xbd1041c7	-0.03521898
27	0xbebb117e	-0.36536783
28	0x3cffb52f	0.031214325
29	0xbe7155ab	-0.23567836
30	0xbd34f1d4	-0.044175938
31	0xbdba2e91	-0.09090913
32	0xbe02572b	-0.12728564
33	0x3d428cfe	0.047497742
34	0xbd0e4c86	-0.034740947
35	0x3d5394ef	0.051655706
36	0xbd97a524	-0.07404545
37	0x3cd38f12	0.025825057
38	0xbe076078	-0.13220394
39	0x3c4b1d80	0.01239717
40	0xbe5dde35	-0.21666797
41	0xbc2c1073	-0.010501969
42	0xbcd33bab	-0.025785288
43	0x3ccb75b5	0.0248364
44	0x3cb338e2	0.02187771
45	0xbd45c740	-0.048285723
46	0x3d6d26fc	0.057898507
47	0x3c5e0701	0.013551475
48	0xbe1d0c01	-0.1533661
49	0x3d2b2c00	0.04179001
50	0xbeaa2536	-0.33231515
51	0x3de795b5	0.11307851
52	0xbdf4c001	-0.11950684
53	0x3a81d126	0.000990425
54	0xbd82a9aa	-0.06380017
55	0xbe5ce862	-0.21573022
56	0xbb98f147	-0.0046674344
57	0xbdaa3cac	-0.083123535
58	0xbc0c8990	-0.008577719
59	0xbe5818a3	-0.21103148
60	0x3c4738eb	0.012159566
61	0xbe05e9fb	-0.13077538
62	0x3ca8d940	0.020611405
63	0xbc928bdb	-0.017888954
64	0xbe09553e	-0.13411424
65	0xbe8a1d84	-0.26975644
66	0xbe154512	-0.1457713
67	0xbe09127b	-0.13385956
68	0x3d1fb9b6	0.038995467
69	0xbed0695e	-0.4070539
70	0xbc9aa38b	-0.018876811
71	0xbe79790b	-0.2436258
72	0xbe1a8977	-0.15091501
73	0xbe01a94f	-0.12662242
74	0xbdb28bc4	-0.087180644
75	0xbdab3dc3	-0.083613895
76	0x3d9947a3	0.07484367
77	0xbf072076	-0.52783906
78	0xbeabb1f6	-0.3353421
79	0x3dddae19	0.10824222
80	0xbe58de3b	-0.21178524
81	0xbcedd3d9	-0.02903168
82	0xbe5ccf62	-0.21563485
83	0x3d28a0c3	0.04116894
84	0xbe5eaa4e	-0.21744654
85	0x3d6ebb5b	0.058284145
86	0xbea03f1e	-0.31298155
87	0xbc4fa154	-0.012672741
88	0xbee9e442	-0.4568196
89	0xbd6ae916	-0.057351194
90	0xbe55e982	-0.20889857
91	0xbe389ae8	-0.18027842
92	0xbd5fb3fe	-0.054615013
93	0xbe2b027f	-0.16700171
94	0xbe4b0f25	-0.19829996
95	0x3d355278	0.0442681
96	0xbe65f2c7	-0.22455893
97	0xbeb03c05	-0.3442079
98	0xbd809c2d	-0.06279788
99	0xbcf8a53a	-0.030352224
100	0xbec9aab7	-0.39388058
101	0xbd32b200	-0.043626785
102	0xbedd6f86	-0.43249148
103	0xbb777e77	-0.0037764588
104	0xbd882884	-0.06648353
105	0x3d1aa9d9	0.037759636
106	0xbdd438bb	-0.10362383
107	0x3e0686cb	0.13137357
108	0x3da6d808	0.081466734
109	0x3e4318d7	0.19052444
110	0xbeac1ed0	-0.33617258
111	0xbd4d3690	-0.050100863
112	0xbe093ad1	-0.13401343
113	0x3b42b1ac	0.0029707951
114	0xbd9388f3	-0.07203855
115	0xbdd39423	-0.10330989
116	0xbe351fe4	-0.17687947
117	0xbe0b0cc2	-0.13579085
118	0x3bffa616	0.0078017814
119	0xbb73e71e	-0.0037216614
120	0xbef4e80a	-0.47833282
121	0xbdbc3735	-0.091902174
122	0xbeaa39fe	-0.3324737
123	0xbe78046c	-0.24220437
124	0xbe263bc0	-0.1623373
125	0xbd5bc34d	-0.05365305
126	0x3da08ee4	0.07839754
127	0x3cc7cf66	0.024390887
128	0xbdd176b9	-0.10227723
129	0xbe391aa7	-0.18076573
130	0xbe6f0ada	-0.23343983
131	0xbd700f09	-0.05860809
132	0x3d03f692	0.03221757
133	0xbddc992c	-0.10771403
134	0xbe4363fa	-0.19081107
135	0xbe0b9e2a	-0.13634554
136	0x3c999c9f	0.01875144
137	0x3d710f0d	0.058852244
138	0xbdef808c	-0.1169444
139	0x3d36fa66	0.044672392
140	0xbe17028b	-0.14747064
141	0xbe0159d1	-0.12631918
142	0xbe2aaea2	-0.1666818
143	0x3c5dc592	0.013535874
144	0x3c668a57	0.014071069
145	0xbdebec47	-0.11519676
146	0xbd234f54	-0.039870575
147	0xbd64f8f4	-0.055901483
148	0xbe3cb239	-0.18427362
149	0xbddf8ebb	-0.109158956
150	0xbd467c2d	-0.048458267
151	0xbd97401b	-0.07385274
152	0xbdd891cf	-0.10574686
153	0xbce4b5f2	-0.02791879
154	0xbd01943e	-0.031635515
155	0x3d63db1c	0.05562888
156	0xbccaaa91	-0.024739536
157	0xbdf4f94f	-0.11961614
158	0xbdb0006a	-0.08593829
159	0xbdee4dde	-0.11635946
160	0xbc6f54f4	-0.014607657
161	0xbe2d1046	-0.16900739
162	0x3ddbce8a	0.107327536
163	0x3b2289c2	0.0024801348
164	0x3d5f4378	0.054507703
165	0xbe045217	-0.1292194
166	0xbd57ea30	-0.052713573
167	0xbe4045e0	-0.18776655
168	0xbe470c7f	-0.1943836
169	0xbd07970a	-0.033103026
170	0xbc3928fe	-0.011301277
171	0x3cd60e9e	0.026130017
172	0x3d64d6ba	0.05586884
173	0xbdb4ac98	-0.08821982
174	0xbdf24782	-0.11830045
175	0xbd3eb239	-0.046556685
176	0xbc984fed	-0.0185928
177	0xbd22b631	-0.039724533
178	0xbdb20900	-0.08693123
179	0xbbd58ca5	-0.0065170103
180	0xbe4ff8ae	-0.20309708
181	0xbbceb517	-0.0063082087
182	0xbe62b59c	-0.22139591
183	0xbe38d8e8	-0.18051493
184	0xbe3a8abf	-0.1821699
185	0x3dc3a6bb	0.09553286
186	0xbd4cd85c	-0.050011024
187	0xbea167a0	-0.31524372
188	0x3da6b28b	0.08139523
189	0x3d8174d2	0.0632111
190	0x3d7e9243	0.062151205
191	0xbd32cf71	-0.043654863
192	0xbdd87f1e	-0.10571121
193	0xbc8c7877	-0.017147286
194	0xbe0e23c0	-0.13880825
195	0x3dbc52c0	0.09195471
196	0xbd84fa81	-0.06493092
197	0x3db87e02	0.09008409
198	0xbe3a856a	-0.18214956
199	0xbba5fde7	-0.005065668
200	0xbcbadd0a	-0.022810478
201	0x3da3ce44	0.079983264
202	0x3cfc6bf6	0.030813199
203	0xbe0716b8	-0.1319226
204	0xbe00673b	-0.1253938
205	0xbdf40d4f	-0.11916601
206	0xbdd6fb10	-0.10497105
207	0xbd8de824	-0.06929043
208	0xbd8cfff0	-0.06884754
209	0xbd17f3e5	-0.03709783
210	0x3c66df6c	0.014091354
211	0xbe1c5199	-0.15265502
212	0xbe165e12	-0.14684322
213	0x3b3f6940	0.002920702
214	0xbe190541	-0.1494341
215	0xbe484dd7	-0.19560944
216	0xbe258760	-0.16164923
217	0xbd1906a1	-0.037359837
218	0xbe3eac22	-0.18620351
219	0xbcf312de	-0.029672083
220	0x3d976b5f	0.07393526
221	0xbcc50e40	-0.024054646
222	0x3c651fe2	0.013984652
223	0x3d7025ec	0.058629915
224	0xbe0eeb4e	-0.13956949
225	0x3cecf0f2	0.028923485
226	0x3d0658c8	0.032799512
227	0x3c4fa2d4	0.012673099
228	0xbe17a8ec	-0.14810532
229	0x3d9de9d4	0.07710615
230	0xbdfc35eb	-0.123149715
231	0x3d6da489	0.05801824
232	0xbe0c9fcf	-0.13732837
233	0xbbe8baae	-0.007102332
234	0x3d8b10f7	0.06790345
235	0xbdbffe55	-0.09374682
236	0xbe2c0dc6	-0.16802129
237	0xbe10cb2b	-0.14140002
238	0x3da7d510	0.08194935
239	0xbd5fd368	-0.054644972
240	0x3bf1c95b	0.00737874
241	0xbce5ba8d	-0.028043056
242	0x3d3f34ff	0.0466814
243	0xbdcc5afe	-0.09978293
244	0x3d480a2b	0.048837822
245	0xbd12a37a	-0.035800435
246	0x3c6c1576	0.014409414
247	0xbdadee4d	-0.08492718
248	0x3d495afe	0.049159043
249	0x3d707922	0.05870927
250	0xbe7ba743	-0.24575524
251	0xbcc43b51	-0.023954066
252	0xbd4b44e6	-0.049626254
253	0xbced7446	-0.028986108
254	0xbd75d722	-0.06001962
255	0x3cc4bf5a	0.024017025

fc2.bias f4 [64]
0	0xbe336586	-0.17519197
1	0xbde81d31	-0.11333693
2	0xbe067397	-0.13130032
3	0xbd40f328	-0.047106892
4	0xbd936e66	-0.07198791
5	0x3cc70fdb	0.024299553
6	0x3f1daa52	0.61588013
7	0xbca1bc5f	-0.019743143
8	0x3bf9e13b	0.0076257265
9	0xbd262041	-0.040558103
10	0x3d19733e	0.03746342
11	0xbe482991	-0.19547106
12	0x3cec4618	0.028842017
13	0xbe6741c4	-0.22583681
14	0xbdad9faf	-0.08477723
15	0xbe47cb70	-0.19511199
16	0x3e8c043d	0.27346984
17	0x3f2c4fa7	0.6730904
18	0x3d514c35	0.051098067
19	0x3c9fd59e	0.01951104
20	0x3d8ca69e	0.06867717
21	0x3d119e6c	0.035551473
22	0xbd9f39fd	-0.07774732
23	0xbe050feb	-0.12994353
24	0x3d96e34f	0.073675744
25	0x3c4d7c20	0.012541801
26	0xbe323499	-0.17402877
27	0xbea783a1	-0.32717612
28	0x3f3de1be	0.7417258
29	0xbdbdda64	-0.0927017
30	0xbe155d65	-0.14586408
31	0xbd6d6c14	-0.0579644
32	0x3dde713b	0.10861441
33	0x3ce9f4e6	0.02855916
34	0xbdac0784	-0.08399871
35	0xbe319e53	-0.17345552
36	0xbe0cc658	-0.13747537
37	0xbe4f4ac1	-0.2024336
38	0xbd2e1363	-0.042498957
39	0x3d350d17	0.044201937
40	0xbe37d415	-0.17951997
41	0xbe38af60	-0.1803565
42	0x3d1b8985	0.037972946
43	0xbe14e275	-0.14539512
44	0xbee2609b	-0.4421433
45	0xbe1843fc	-0.14869684
46	0xbbaef0d8	-0.0053387694
47	0x3e203cee	0.15648243
48	0x3aa312f6	0.0012441564
49	0xbd44f620	-0.048086286
50	0x3b829704	0.0039852876
51	0xbd2b72b9	-0.041857455
52	0xbe3cb087	-0.18426715
53	0xbd7bd02e	-0.061477832
54	0xbe60fa23	-0.2197042
55	0xbe45fff7	-0.19335924
56	0x3e332c89	0.17497458
57	0x3e0f0e7d	0.1397037
58	0xbe23892e	-0.15970299
59	0xbf269938	-0.65077543
60	0x398d315b	0.00026930388
61	0xbbb25b6f	-0.0054430286
62	0x3f0315df	0.5120525
63	0x3c66ebf3	0.014094341

fc3.weight f4 [1, 64]
0	0xbe1b7c86	-0.1518422
1	0x3da16afa	0.07881732
2	0xbd8f6cbe	-0.07003163
3	0x3c06dc33	0.0082312105
4	0xbd5ddba3	-0.05416454
5	0x3cad9b78	0.021192297
6	0x3dd22368	0.102606595
7	0x3c27d886	0.010244494
8	0x39eff854	0.0004577065
9	0x3d009141	0.031388525
10	0x3b196d66	0.0023411154
11	0x3d9f5c13	0.07781234
12	0x3c3407ce	0.010988189
13	0x3dbe90b1	0.093049414
14	0x3b489f05	0.003061236
15	0xbc2f9486	-0.010716563
16	0x3db00285	0.085942306
17	0xbe06cdfd	-0.13164516
18	0x3bcf3e70	0.006324582
19	0x3e07c360	0.13258123
20	0xbde161fd	-0.11005018
21	0xbd4916bd	-0.04909395
22	0x3a9e0c7e	0.0012058166
23	0xbc1db2a9	-0.009625115
24	0xbd1db9d2	-0.03850729
25	0x3b1f1d94	0.0024279105
26	0xbb3fca34	-0.002926481
27	0x3ba35c54	0.0049853716
28	0x3e0caf44	0.13738734
29	0xbc0b0534	-0.008485127
30	0xbc1c7ded	-0.009551507
31	0x3a37d1e8	0.00070121745
32	0x3d8839c6	0.066516444
33	0x3be85b0d	0.007090932
34	0x3cde0e4e	0.02710643
35	0x3bebaa9a	0.007191968
36	0x3ba9a1ea	0.0051767724
37	0xbd529d1c	-0.051419362
38	0x3ac4b593	0.0015007727
39	0x3ba890d1	0.0051442166
40	0xbd034360	-0.032046676
41	0xbc412e35	-0.011790802
42	0x3c45212a	0.012031833
43	0x3cd7dd1e	0.026350554
44	0x3d87daf7	0.06633561
45	0xbcc19dfe	-0.023634907
46	0x3bacc792	0.005272814
47	0x3dce463b	0.10071989
48	0xba364f9f	-0.00069546135
49	0x3b537003	0.003226281
50	0xbd0e0e78	-0.034681767
51	0xba2493f2	-0.0006278149
52	0xbd039519	-0.032124612
53	0x3b89ef54	0.0042094383
54	0x3c0b1b0e	0.008490337
55	0xbdc95fa4	-0.09832695
56	0xbd50f808	-0.05101779
57	0xbc3443c4	-0.011002485
58	0x3cd46ebd	0.02593171
59	0xbe0e84f4	-0.13917905
60	0xbc39414f	-0.011307075
61	0x3c76dc33	0.015067148
62	0x3d6f9a3c	0.0584967
63	0xbb86e3c1	-0.004116506

fc1.weight f4 [64, 1]
0	0x3f1f914c	0.6233108
1	0xbebf333b	-0.37343773
2	0xbe63a42c	-0.22230595
3	0xbf449802	-0.76794446
4	0xbfc2f8fb	-1.5232233
5	0x3f833397	1.0250119
6	0xbda1b968	-0.078966916
7	0x3f29ad93	0.6628048
8	0xbc94a247	-0.018143786
9	0x3d92f16c	0.07174954
10	0xbd8be137	-0.06830066
11	0x3c15707b	0.009121056
12	0xbec2f616	-0.38078374
13	0xbe76b5ad	-0.24092741
14	0xbd955130	-0.07290876
15	0xbcc2049b	-0.023683837
16	0x3e146c30	0.14494395
17	0xbb82e700	-0.0039948225
18	0x3db04dc0	0.0860858
19	0x3d807b57	0.06273525
20	0xbd97f8d0	-0.07420504
21	0xbead4148	-0.33838868
22	0xbe2ba370	-0.16761565
23	0xbecb99b3	-0.397657
24	0xbfbeab2f	-1.4895991
25	0xbebeae70	-0.3724246
26	0x3a9fe2bf	0.0012198313
27	0x3f7ee0a7	0.9956154
28	0xbfb1b2e6	-1.388272
29	0xbd9d2617	-0.07673281
30	0x3ed41b78	0.41427207
31	0x3f62a14a	0.8852736
32	0xbe318010	-0.17334008
33	0xbfc4941e	-1.5357702
34	0xbfd47c13	-1.6600364
35	0xbd674b0a	-0.056468047
36	0x3e767652	0.24068573
37	0x3d3bd91b	0.045861345
38	0xbd617682	-0.05504466
39	0xbf2bd137	-0.6711611
40	0x3f9fc648	1.2482386
41	0xbed8a05c	-0.42309844
42	0xbe1aef02	-0.15130237
43	0xbd7d4cca	-0.06184081
44	0xbdf41bf4	-0.11919394
45	0xbd6da918	-0.05802259
46	0xbf8dcaa7	-1.107747
47	0xbf34d8c6	-0.7064327
48	0xbef65832	-0.48114163
49	0xbde08800	-0.1096344
50	0xbfb14e0f	-1.3851947
51	0xbf8ac87c	-1.0842433
52	0x3c43f5df	0.011960476
53	0xbc60a9ec	-0.0137123875
54	0x3f75204b	0.957524
55	0x3f9935df	1.1969565
56	0xbd3fca20	-0.04682362
57	0xbf95ff85	-1.1718603
58	0xbdb8b1e1	-0.09018303
59	0x3f11efb1	0.57006365
60	0xbe1da7bb	-0.15396015
61	0x3f72aca7	0.94794697
62	0x3f994f65	1.1977354
63	0x3e47242a	0.19447389

fc1.bias f4 [64]
0	0xbf81a69d	-1.0128971
1	0xbf173cc4	-0.59077096
2	0xbee88023	-0.4541026
3	0xbe99fc32	-0.30075222
4	0xbf27dce0	-0.65571404
5	0xbf3f0b3e	-0.7462653
6	0xbe2006a5	-0.15627535
7	0xbda4d40b	-0.080482565
8	0xbda8096c	-0.08204922
9	0xbebea90c	-0.37238348
10	0xbdf07162	-0.11740376
11	0xbe3098d6	-0.17245802
12	0xbe34b589	-0.17647375
13	0xbea1dc2d	-0.31613293
14	0xbf6d15ae	-0.92611206
15	0xbdd78740	-0.10523844
16	0xbf33ffe2	-0.7031232
17	0xbf412783	-0.75450915
18	0xbdba0e22	-0.09084727
19	0xbe918750	-0.28423548
20	0xbe1fd0a9	-0.15606941
21	0xbf583f2d	-0.844714
22	0xbf639452	-0.88898194
23	0xbc319262	-0.010838123
24	0xbdd18f8f	-0.1023246
25	0xbe3097d4	-0.17245418
26	0xbca7099d	-0.020390326
27	0xbf39a78f	-0.725213
28	0xbe142830	-0.14468455
29	0xbee23737	-0.4418275
30	0x3e9894e5	0.29801098
31	0xbf06a108	-0.52589464
32	0xbe7d3ec4	-0.24730974
33	0xbcfc0e98	-0.030768678
34	0xbebec264	-0.37257683
35	0xbf3ad02a	-0.72973883
36	0xbdf52ba0	-0.119712114
37	0xbf086119	-0.5327316
38	0xbe122a15	-0.14273866
39	0x3d1553f9	0.036457036
40	0xbf156d80	-0.5837021
41	0xbf59b5c0	-0.85042953
42	0xbe88a919	-0.2669151
43	0xbe1ebe84	-0.15502363
44	0x3e5bd16c	0.21466607
45	0xbe40b537	-0.18819128
46	0x3e109545	0.14119442
47	0xbeaa68d6	-0.33283108
48	0xbe6de919	-0.23233451
49	0xbf29e072	-0.663581
50	0xbe8b73b5	-0.27236715
51	0x3e0cb218	0.13739812
52	0xbddeb4c0	-0.10874319
53	0xbcebf6e5	-0.028804252
54	0xbf302000	-0.6879883
55	0xbf559437	-0.8342928
56	0xbf1ad250	-0.6047716
57	0xbe8ce430	-0.27517843
58	0xbe84095b	-0.25788388
59	0x3e472e97	0.19451366
60	0xbe33b177	-0.17548166
61	0xbf9cd9a1	-1.2253915
62	0xbf568490	-0.83796024
63	0x3e125e41	0.14293768
