maddpg_pytorch/models/cache_data/model/run51/incremental/model_ep5001.pt (torch, 690099 bytes, 168 tensors)

fc1.weight f4 [64, 1]
000000 13 2a 98 3f 97 26 bf be 17 8f 63 be a6 42 22 bf
       1.188784 -0.3733413 -0.22222553 -0.6338295
000010 7a 93 c2 bf 4e 96 fe 3e 27 b9 a1 bd 12 b7 cd 3f
       -1.5201256 0.49724048 -0.07896643 1.6071494
000020 88 ad 94 bc 37 e9 92 3d 45 e1 8b bd 42 70 15 3c
       -0.018149152 0.071733885 -0.06830076 0.009121003
000030 65 74 c7 be 60 b5 76 be 30 51 95 bd e3 04 c2 bc
       -0.3895599 -0.24092627 -0.07290876 -0.02368397
000040 30 6c 14 3e 00 e7 82 bb 18 47 9e 3d 0e 7b 80 3d
       0.14494395 -0.0039948225 0.07728404 0.06273471
000050 e5 eb 97 bd 16 35 ad be 70 a3 2b be 7b dc dc be
       -0.0741804 -0.33829564 -0.16761565 -0.43136963
000060 d1 d5 7e bf 46 6b c7 be 95 e5 9f 3a 4a 64 00 3f
       -0.9954501 -0.3894903 0.0012199158 0.5015303
000070 50 8a 27 c0 26 e3 9c bd d0 27 47 3d bd 7f 54 3e
       -2.617817 -0.076605126 0.048621953 0.20751853
000080 ec 83 31 be c9 a7 ab bf 4f 55 bf bf fc c5 66 bd
       -0.1733548 -1.3410579 -1.4947909 -0.056341156
000090 6b b6 ee bc 0a 45 3c 3d 58 5a 61 bd 21 f5 c1 be
       -0.029139718 0.04596428 -0.0550178 -0.3788233
0000a0 33 72 56 3e 5c a0 d8 be 5b 02 1b be d4 4c 7d bd
       0.20942001 -0.42309844 -0.15137617 -0.061840847
0000b0 8b 7b 52 be aa c5 6d bd 74 4d 4c bf 28 12 2c bf
       -0.2055494 -0.058049835 -0.79805684 -0.67215204
0000c0 54 79 24 bf 00 88 e0 bd 68 c0 88 bf 4a 95 4c bf
       -0.6424763 -0.1096344 -1.0683718 -0.799153
0000d0 83 f5 43 3c a9 a9 60 bc 42 ba f7 3e d4 e1 f2 3e
       0.01196039 -0.013712325 0.4838429 0.47437918
0000e0 20 ca 3f bd f2 3e 8b bf bc b1 b8 bd 76 af 9f 3d
       -0.04682362 -1.0878584 -0.09018275 0.077971384
0000f0 02 52 1d be 16 7b 29 3f e5 ac ef 3e 77 7f 73 3c
       -0.15363315 0.6620344 0.46811596 0.014861933

fc1.bias f4 [64]
000000 c4 6b 82 bf c2 40 17 bf fc 85 e8 be 96 bd 34 bf
       -1.0189137 -0.5908319 -0.45414722 -0.70601785
000010 0b 12 7f bf 4b da ea bf b3 06 20 be 6a 4c 1d 3f
       -0.99636906 -1.8347868 -0.15627556 0.61444724
000020 5a 0c a8 bd 4c ac be be 8d 71 f0 bd 13 99 30 be
       -0.08205481 -0.37240827 -0.11740408 -0.17245893
000030 dc 6e 98 be 24 dc a1 be ae 15 6d bf 3f 87 d7 bd
       -0.2977208 -0.31613266 -0.92611206 -0.10523843
000040 e2 ff 33 bf 80 27 41 bf fa 98 a2 be 58 87 91 be
       -0.7031232 -0.754509 -0.31757337 -0.28423572
000050 fa d5 1f be 0d 45 58 bf 52 94 63 bf 4c b3 b7 be
       -0.1560897 -0.84480363 -0.88898194 -0.3587898
000060 9e a2 2d bf f5 63 93 be a8 0a a7 bc 4a 73 e6 bf
       -0.6782626 -0.287872 -0.020390823 -1.8003933
000070 4a 5f 51 3f e6 64 e2 be 82 9c 89 be 3b fb 53 bf
       0.81786025 -0.44217604 -0.26877218 -0.8280522
000080 75 5c 7d be b0 fa f4 be 6a 34 94 bf 91 d8 3a bf
       -0.24742301 -0.4784751 -1.1578496 -0.72986704
000090 47 a8 90 be 53 6b 08 bf 38 30 12 be 35 02 f0 be
       -0.28253385 -0.53288764 -0.14276206 -0.46876684
0000a0 18 5f 7b bf c0 b5 59 bf 94 be 88 be a9 be 1e be
       -0.98191977 -0.85042953 -0.267079 -0.15502419
0000b0 48 ed 8a be 13 e6 40 be 7b d8 0d bf 9b d8 2e bf
       -0.27134156 -0.18837766 -0.5540845 -0.68299264
0000c0 fc fd 00 bf 72 e0 29 bf b3 75 45 bf d5 47 91 be
       -0.5038755 -0.663581 -0.7713272 -0.28375116
0000d0 f8 b4 de bd 38 f7 eb bc 34 63 cb bf 6b 40 c2 bf
       -0.10874361 -0.028804407 -1.5889649 -1.5175909
0000e0 50 d2 1a bf 17 cc 35 bf 64 1a 84 be 80 42 b0 be
       -0.6047716 -0.7101454 -0.25801384 -0.34425735
0000f0 12 fe 33 be 80 89 0b c0 04 dc bd bf 2e e3 48 be
       -0.17577389 -2.1802673 -1.4832768 -0.19617912

fc2.weight f4 [64, 64]
000000 c7 ff b5 bd 96 95 b6 3e d1 18 98 bc fb d6 23 bd
       -0.08886676 0.35661 -0.01856652 -0.039999943
000010 e3 68 85 3e fd cb 6e bd 8a 41 b3 bc 12 6e e8 bb
       0.26056585 -0.058300007 -0.021881837 -0.0070931995
000020 67 e2 01 be 3f 84 eb 3d d6 db 93 be b7 55 fe bd
       -0.12684022 0.11499833 -0.2887866 -0.124186926
000030 44 33 34 3c 11 dc 8e bd 70 ea 9c bd 43 32 8b bd
       0.010998551 -0.06975568 -0.07661903 -0.06796696
000040 30 75 1e 3d a8 de e7 bc a9 97 03 bf b2 8b 5d bd
       0.038685977 -0.028304413 -0.5140329 -0.054088302
000050 d1 f1 9d bc 06 c0 9d 3e e4 63 2d bd 5c a9 82 bd
       -0.019280346 0.30810565 -0.04233159 -0.06379959
000060 66 02 7e bd 71 22 b0 3d d8 ac a2 be 46 9c 70 be
       -0.062014006 0.08600319 -0.31772494 -0.23497114
000070 c6 af 81 bc 5e 8a 8d be e8 3a 89 be 12 c8 33 be
       -0.015830886 -0.27644628 -0.26802754 -0.1755679
000080 85 1f b1 be 17 0a 98 3d 04 f0 8f 3e 8d cb 0a bd
       -0.3459436 0.074237995 0.28112805 -0.033885527
000090 dc 0b 93 be 34 64 31 3e 1a 2b 59 be 7a 02 85 be
       -0.28719985 0.1732338 -0.21207848 -0.25978452
0000a0 d7 84 81 be 80 59 69 bd 01 1a 9d be 7c f0 d1 3d
       -0.2529666 -0.05697012 -0.30683902 0.10250947
0000b0 37 6a 43 be bf 01 04 be 44 56 0f bd b6 38 e9 bd
       -0.19083486 -0.12891291 -0.03499438 -0.1138777
0000c0 21 28 b8 bd 60 6e 82 3b 90 37 6e 3d 7a 1c 1e be
       -0.08992029 0.003980443 0.058158457 -0.1544055
0000d0 c5 a7 8a be ed 9e e8 bd 0a 1e 7e be ed 0b 28 be
       -0.27081123 -0.11358438 -0.24816146 -0.164108
0000e0 ec 1d a5 bd c1 65 05 3e ff fd b1 be ec c4 0e bf
       -0.08062348 0.13027097 -0.34764096 -0.5576923
0000f0 11 e3 31 be 78 0a 5e be 0f 68 e5 bd 57 05 3e bf
       -0.17371775 -0.21683681 -0.11201488 -0.742269
000100 65 f9 f2 bd 03 cc ef bd 3e 16 0a bd 0a 64 17 be
       -0.118639745 -0.11708834 -0.033712618 -0.14784256
000110 3c 70 70 3d 26 d4 a6 3c 21 a9 69 3d 2d fb 16 be
       0.058700785 0.020364832 0.05704606 -0.14744253
000120 7a 44 02 be 14 4b bd bd 2b 67 9e bc 74 5b dd bd
       -0.12721434 -0.09242836 -0.019336304 -0.10808459
000130 9c 49 94 bc 06 55 d0 bd f0 80 1f bc af 10 3f be
       -0.018101506 -0.10172467 -0.009735331 -0.18658708
000140 08 13 ae 3c d4 5a 71 3d 51 7e 23 bd 67 35 b2 bc
       0.02124931 0.05892451 -0.039915387 -0.02175398
000150 48 80 39 be 6e 81 ba 3d 7a 32 df 3d 1a 65 1a 3d
       -0.18115342 0.09106718 0.108982995 0.037694074
000160 57 40 03 bd 16 53 28 be 31 df 13 be a3 0b 4e 3d
       -0.03204378 -0.16437945 -0.1444061 0.050304066
000170 f4 f5 60 be 4d dd ce bb be fc 20 be ab 99 17 be
       -0.21968824 -0.006313002 -0.15721413 -0.14804713
000180 4c 53 ae bd 99 6f 5b be a3 9e 1c be e8 3c ba 3d
       -0.08511981 -0.2142929 -0.1529489 0.09093648
000190 22 50 66 3c 0c 1d f2 3d 68 c9 fd bd 3e 8a 55 be
       0.014057191 0.118219465 -0.12391931 -0.20853516
0001a0 4b 2d 81 3d 88 23 da bc 18 c1 5d be e1 a6 e6 bc
       0.06307467 -0.02662827 -0.2165569 -0.028155746
0001b0 c4 ba 40 be 27 32 b6 3c 63 dd 3c bd 43 7e 8c be
       -0.18821245 0.022240711 -0.04610957 -0.2744008
0001c0 0d cd 91 be c0 65 33 bc da 2b 93 bd 84 87 8f bd
       -0.28476754 -0.010949552 -0.071860984 -0.070082694
0001d0 56 99 57 be 34 c5 7d bd 87 c0 35 be 00 e3 17 be
       -0.21054587 -0.061955646 -0.17749225 -0.14832687
0001e0 9e 6a aa bd 24 36 b0 bc 6a e7 3d bd 0d f1 d0 bd
       -0.08321117 -0.021510191 -0.04636327 -0.10202227
0001f0 06 e6 d9 bd b6 43 8a bb 54 09 38 bd e3 06 fb bd
       -0.106395766 -0.0042194976 -0.04493077 -0.12257173
000200 05 16 a6 be 38 5f 9d 3d c0 62 ed bb 46 98 c2 bd
       -0.32438675 0.07684177 -0.007244438 -0.095017
000210 86 a3 e8 3d c1 ab e1 3c 68 8a f8 bd d6 25 8c be
       0.113593146 0.027547719 -0.12135774 -0.27372617
000220 01 99 3f bd 00 0d aa bd 99 39 23 bc 77 c7 2f be
       -0.046776775 -0.08303261 -0.009962463 -0.17165934
000230 8a a7 14 3d ba 93 a4 bd d4 ce 10 3d bf 19 18 bd
       0.03629259 -0.08035989 0.035353497 -0.03713393
000240 08 91 f3 3c 04 55 d4 3d 42 81 06 be 6c ab 08 be
       0.029732242 0.10367778 -0.13135245 -0.13346642
000250 27 44 27 be 40 19 a8 bb 80 8b 72 bd f4 75 46 bd
       -0.16334592 -0.005129963 -0.05921507 -0.048452333
000260 20 eb d1 bc 1d dc 13 bd 3b ec ed 3c bf cc 36 bd
       -0.025624812 -0.03609859 0.029043308 -0.044628855
000270 90 ef 24 bd a6 3c 10 be 82 df 42 be 88 d2 cd 3c
       -0.040267527 -0.14085636 -0.19030574 0.025124803
000280 6a 5c d2 bd 18 b3 ce 3c 00 84 97 3b f0 23 a3 bd
       -0.10271533 0.025231883 0.00462389 -0.07965839
000290 bd af 0c bc 9a 77 8f 3d e7 df 94 bd 62 7b 91 bd
       -0.008586821 0.07005234 -0.072692685 -0.071036115
0002a0 d8 98 08 be 00 a0 e1 3a e7 f4 19 be fe a6 18 be
       -0.13339555 0.0017213821 -0.15034829 -0.14907452
0002b0 40 bf 98 bc ac 9a ec bd 50 5f fb 3c 3a 08 e3 bd
       -0.018645883 -0.11552939 0.030685097 -0.110855535
0002c0 01 8a a2 bd c4 6b 43 bd c4 f2 e9 bd 25 d9 57 3d
       -0.079364784 -0.047710195 -0.11423257 0.05269732
0002d0 6a 19 60 bd bb e4 80 3d bf 98 ce bd 47 5a e6 bd
       -0.054711737 0.06293627 -0.10087728 -0.11247688
0002e0 cc aa f0 bd 54 5c 42 bd fe 62 55 3b 5c 8a 52 be
       -0.11751327 -0.047451332 0.0032560225 -0.20560592
0002f0 74 14 33 bd ec 25 8d bb 51 ae 2a bc 29 8b 09 bd
       -0.043720677 -0.004307499 -0.010417537 -0.03357998
000300 31 2a 2a be c8 bf 65 bd 05 80 0c be c7 fe 14 be
       -0.16617657 -0.0560911 -0.1372071 -0.14550315
000310 90 ab 55 3d 7e 3b 3c be 85 b7 26 be 79 86 a3 bd
       0.052165568 -0.1838207 -0.16280945 -0.07984633
000320 e1 6f 39 be c6 20 d7 bd 12 ed 0b bd f1 3d 6f bd
       -0.18109085 -0.10504298 -0.034161635 -0.05840868
000330 2e 49 b0 3b 71 86 6b be 80 73 8e 3a c8 2d fb bd
       0.0053798174 -0.23000504 0.0010868162 -0.122645915
000340 62 2f 8f bd 82 03 90 bd 99 09 90 bd 24 97 cf bd
       -0.069914594 -0.07031919 -0.070330806 -0.1013625
000350 3d 09 3c be ac 71 b4 bd 6c 1a d4 bd 13 85 18 3c
       -0.18362899 -0.08810744 -0.10356602 0.009309071
000360 05 d8 a4 bd 4c 8b ef bd 33 63 18 be f8 15 4a be
       -0.08049015 -0.11696491 -0.14881591 -0.19734943
000370 9e 35 5f be 1b 7b 36 be 65 bc 54 bd 82 c4 a7 bd
       -0.21797797 -0.17820399 -0.05193748 -0.08191778
000380 30 cb 16 be d4 ac 1f be 4e 89 a3 3d 46 89 b8 3d
       -0.14725947 -0.15593272 0.07985173 0.09010558
000390 6b 13 a6 3c 70 5a 15 3d b9 95 27 bd e0 e0 20 be
       0.020272931 0.0364632 -0.04091427 -0.15710783
0003a0 a4 42 38 be 6c cc fa bd c8 28 c6 bc d2 39 0d be
       -0.17994171 -0.12246022 -0.024189368 -0.13791588
0003b0 99 19 bf bd fe 65 ca bd 44 46 7c be 6a d7 1c be
       -0.09331054 -0.09882735 -0.24636179 -0.15316549
0003c0 3a 45 45 bd 10 42 cf bc ac c5 5d be 7a 17 a2 bd
       -0.048161723 -0.025300056 -0.21657437 -0.07914634
0003d0 b6 74 c1 bd 27 bd 03 be 30 42 79 bd fe 69 b4 bd
       -0.09446089 -0.12865125 -0.060854137 -0.08809279
0003e0 c0 d3 3c bd 1d 65 4f 3b 92 6b 13 bd d4 b5 0f be
       -0.046100378 0.0031645962 -0.03599126 -0.14034206
0003f0 01 e5 29 be 59 44 64 be 02 1c 4c bd fe 93 0e be
       -0.16591264 -0.22291698 -0.049831398 -0.13923642

fc2.bias f4 [64]
000000 a5 38 31 bf 5f 67 05 be 9b b3 fc be 92 38 19 be
       -0.6922706 -0.13027714 -0.49355778 -0.14962986
000010 ad 53 8f be 29 fd 4c bd e4 57 1b bf 35 52 70 bf
       -0.27993527 -0.05004612 -0.60680985 -0.9387544
000020 19 82 81 bd 84 ce 84 bd f7 b7 11 be cc 6f 44 be
       -0.06323642 -0.06484702 -0.14230333 -0.19183272
000030 55 f9 51 be 51 f6 29 be 18 95 88 3f 6a a7 23 be
       -0.20505269 -0.16597869 1.06705 -0.15981832
000040 f4 79 c7 bd 8d cc 0b be ae 9b 49 be 6a 26 96 be
       -0.097400576 -0.13652249 -0.19688293 -0.29326183
000050 15 7b 46 bf bc ce 66 3f 68 39 35 be bf 15 25 3f
       -0.7753156 0.901592 -0.1769768 0.64486307
000060 32 2f 37 bd 71 50 a4 bd 74 1e 94 bd 49 f3 8b be
       -0.044722743 -0.080231555 -0.07232371 -0.2733405
000070 b5 4d 4e be 05 1d d3 be 2c 9e 87 be 15 3d 27 be
       -0.2014683 -0.41233078 -0.26487863 -0.16331895
000080 e1 3c 57 be 03 91 4d be ca 39 10 3e 0f 12 ba bd
       -0.21019317 -0.20074849 0.14084545 -0.09085476
000090 d5 9f a5 be 99 ea b5 be 08 ac 10 be b0 69 1d c0
       -0.32348505 -0.35530546 -0.14128125 -2.4595757
0000a0 cd 24 65 be 19 46 1b be 06 58 a2 be 86 69 d9 be
       -0.2237732 -0.15163459 -0.31707782 -0.4246332
0000b0 52 b0 96 3f 86 79 6f be fe 0a f6 bd f5 3f 18 bf
       1.1772559 -0.23386201 -0.12013815 -0.5947259
0000c0 88 f5 c9 be 21 b5 df bd 5f ef f7 bd 56 08 48 be
       -0.39445138 -0.109232195 -0.12106203 -0.1953443
0000d0 7e 78 84 bc bb 17 2b be 7f d7 4f be 6c 5b b4 be
       -0.016170736 -0.16708271 -0.20297049 -0.35226
0000e0 f0 e1 50 be 5f 52 33 bc 28 17 d1 3e 16 67 e2 bd
       -0.20398688 -0.010944932 0.4083798 -0.11054818
0000f0 71 f8 9d be f8 75 c7 be d2 d5 ed bc 10 ad 2b bc
       -0.30853608 -0.3895719 -0.029032622 -0.010478273

fc3.weight f4 [32, 64]
000000 de dc a8 bc e5 22 7c 3d 2d 40 ed 3d 6a 2e 10 be
       -0.02061313 0.061556716 0.11584506 -0.14080206
000010 1f 70 8b be 99 15 d6 3c df a9 79 be 55 07 28 bf
       -0.2723398 0.026133345 -0.24381207 -0.6563619
000020 47 30 05 bf 61 2a c5 3f d2 44 d0 3d d8 56 50 3e
       -0.5202679 1.5403558 0.101693764 0.20345628
000030 2c 43 78 be e7 d3 88 bd fd 2e 8f 40 97 f8 8c bc
       -0.24244374 -0.06681042 4.474486 -0.01720838
000040 c2 fa 81 3e 90 b8 96 3b 17 36 93 be 37 9c 83 be
       0.25386626 0.0045996383 -0.28752205 -0.2570512
000050 2a 4e 06 3e 74 95 9b be 55 fa ad 3d 70 01 8d 3e
       0.13115755 -0.3038746 0.08495013 0.2754016
000060 1d 20 3d bd 59 08 77 3c 3e b0 8a 3d 57 e7 03 bf
       -0.046173204 0.015077674 0.06771897 -0.5152487
000070 19 a6 d6 bc 94 e3 5a 3d 9a d0 86 bc 1b f9 11 bd
       -0.026202248 0.05343969 -0.01645689 -0.035637956
000080 6a c8 13 be a2 dd 5f be 30 53 a0 3c 52 ec 94 be
       -0.1443192 -0.2186189 0.019570917 -0.29086548
000090 10 a7 44 3e d6 11 f0 bd 73 94 f3 3d b1 e9 0f 3f
       0.19204354 -0.11722152 0.11893549 0.5621596
0000a0 e2 e9 69 bd db 6a d9 bc 25 3a a8 3d 94 b6 d6 3d
       -0.057107814 -0.02654021 0.08214215 0.10484043
0000b0 77 0e 6f bf bd 04 40 be 5a e9 7f bd e6 12 8f 3f
       -0.93381447 -0.18751808 -0.0624784 1.1177642
0000c0 48 ce 4f bd b0 59 2f 3e 73 04 0c be 24 17 96 bc
       -0.050733835 0.17124057 -0.13673572 -0.018321581
0000d0 a2 ed c7 3d ce f5 02 3f b5 ef c2 bd 3c c5 63 bd
       0.09762122 0.5115632 -0.09518377 -0.05560802
0000e0 7d e0 55 bd 79 a7 54 3f c0 d9 04 c0 da da 16 3d
       -0.05221604 0.83068043 -2.0757904 0.036829807
0000f0 07 f1 2a be e5 07 aa 3d c6 a4 c6 3e 8e 3c e5 bd
       -0.16693507 0.08302287 0.38797587 -0.111931905
000100 28 c2 d7 be 58 e3 db 3c 1a d9 f6 3d da 8a f0 bd
       -0.42140317 0.026841804 0.120531276 -0.11745234
000110 b7 9e 47 bd 5e 1f 79 bd c8 95 69 be 14 42 36 3e
       -0.048735347 -0.06082093 -0.22811043 0.17798644
000120 aa e1 29 3f 91 20 c7 3e 0c a4 f6 bd 4f b6 e5 bc
       0.6635996 0.38892034 -0.12043008 -0.028041033
000130 6a 0f 77 3e 26 5e 33 3d 6b 0a d5 3e 70 1a 8b bc
       0.24126974 0.04379096 0.4160951 -0.01698038
000140 b9 ac a4 3d f9 9a 9c bd 87 55 3a be cd ef 5e 3e
       0.08040757 -0.07646746 -0.18196689 0.21771164
000150 79 37 20 bf b0 2a c1 bf a1 6e 8b bd 50 64 05 3e
       -0.62584645 -1.5091152 -0.0680821 0.13026547
000160 69 4f 0d bc ba e9 42 bd 33 48 bd bc 20 f5 0b bf
       -0.00862489 -0.04758618 -0.023105716 -0.54670906
000170 09 f9 6b bd 84 50 8e 3e cc 45 fd bd 9d 5f fc bd
       -0.057610545 0.27795804 -0.12366828 -0.12322924
000180 f6 e8 25 be 29 14 fb bd 4c 77 74 bf 90 8b 9b be
       -0.16202149 -0.122597046 -0.9549453 -0.30379915
000190 5c 26 72 3e 76 e7 3f be 61 f9 05 3e 62 10 8a 3e
       0.23647445 -0.18740639 0.13083412 0.26965624
0001a0 5a 10 06 be 03 71 20 3e a2 e5 ec bc c0 06 a9 be
       -0.13092175 0.1566811 -0.028918091 -0.33012962
0001b0 35 6a 49 3f e7 47 5e bd 73 8b de 3c 4b 47 09 40
       0.78677684 -0.05426779 0.027166104 2.1449764
0001c0 58 80 ac 3d 0f c3 a7 3e 6f 42 d6 bc 5a 92 b5 3c
       0.08422917 0.32766005 -0.026154725 0.022164512
0001d0 2b 1a 9b bc f5 41 82 bf e9 14 2f be bf 94 ea 3b
       -0.018933376 -1.0176378 -0.1709782 0.007158845
0001e0 70 a8 74 3e 87 c9 ab 3f 4d 8d 4e bf 8d 22 74 bd
       0.23892379 1.3420876 -0.8068436 -0.059603263
0001f0 16 21 41 bf 94 14 b8 3c 7c e2 83 3f 92 64 98 3d
       -0.7544111 0.02247075 1.0303493 0.07441057
000200 47 ba 5e bf 2e 27 d0 bd f7 39 0a be 66 2e ff 3d
       -0.87002987 -0.10163723 -0.13498674 0.12460022
000210 d6 1e 23 be a6 da 40 3c d6 18 1b bf ec 23 b1 3e
       -0.15929732 0.01177088 -0.6058477 0.3459772
000220 9c bc 3a 3f f6 a7 63 3f 9b 9f 80 bd f1 e0 7e 3e
       0.72944045 0.88928163 -0.06280442 0.24890496
000230 0b bd b9 bd af 44 39 3c f8 a5 9f bd 19 ab da bd
       -0.0906926 0.011307879 -0.07795328 -0.106771655
000240 14 88 24 bf 7a 00 00 3e 99 23 d0 bd e1 58 b9 3e
       -0.6427014 0.12500182 -0.1016304 0.36200622
000250 f6 99 24 bf ab e0 03 bf de 6b 61 3d da c3 0e be
       -0.64297426 -0.5151469 0.05503451 -0.13941899
000260 0a 44 c8 3c 61 81 95 3d 1a 6b 42 bd 1f c0 3d bf
       0.024446506 0.07300068 -0.04746542 -0.7412128
000270 9e 2a c2 bc cf 0f 1f 3d 8b dd e4 3d 0c da 88 be
       -0.023701962 0.038833436 0.111750685 -0.26728857
000280 be 02 23 3e 5f f6 02 3e 14 b5 03 bf 87 7d 1b 3d
       0.15919015 0.12789296 -0.5144818 0.03796151
000290 53 e2 23 be c4 4b 83 bd 27 13 1c bf 7b 0a 64 3e
       -0.16004305 -0.064109355 -0.60966724 0.22269623
0002a0 ff b2 87 3d 0e fd 3b be a3 08 79 3d 36 57 8b 3e
       0.06625938 -0.18358251 0.060799252 0.27214974
0002b0 c1 93 2f 3f 50 9a 13 3e 63 fa b7 bd 62 40 b0 3f
       0.6858483 0.14414334 -0.08983304 1.3769648
0002c0 ef 16 2d be 70 1f 3c 3e 3b 6e 0a 3e a3 eb 83 bd
       -0.1690328 0.18371367 0.13518612 -0.064414285
0002d0 3a b8 00 3d 5f db 7a 3f 83 f1 0b 3e 0c a1 38 3f
       0.031425692 0.97990984 0.13666348 0.7212074
0002e0 fe 63 46 be 2c 96 35 bf f7 35 38 bf 9a 61 d1 3c
       -0.19374081 -0.7093227 -0.71957344 0.025559235
0002f0 ae 1f 48 bf 45 cc 0f 3f 76 1f ab 3f 2a 33 a7 bd
       -0.7817334 0.56171066 1.3368976 -0.08164056
000300 83 c8 2d bf 84 a7 dc 3c 5f 87 46 bb 20 cf 3f 3d
       -0.6788408 0.026935346 -0.003029309 0.04682839
000310 4d a3 24 bd 03 06 33 be 84 9c b0 be e2 b1 86 3f
       -0.0401948 -0.17482762 -0.34494412 1.0523036
000320 76 7a 55 bf 56 9d 7f bf 73 d3 ce bd b7 5d a7 be
       -0.83389986 -0.9984945 -0.100989245 -0.32688686
000330 fc cf 12 3e bf a8 2f be 2c cf 0e bf b6 2c 76 3d
       0.14337152 -0.17154215 -0.5578487 0.060101233
000340 ea 92 91 3d 80 d6 77 be 99 ac 2b be 79 ab b5 be
       0.071081 -0.24202919 -0.1676506 -0.35482386
000350 5c cc 1f bf bf 78 83 bc e7 7e 4e 3e 9f e7 2f 3e
       -0.624212 -0.016048787 0.20165597 0.171782
000360 09 3b 8d 3c 52 5d 43 3e 62 3e d0 3e c1 87 e4 3e
       0.017240064 0.19078568 0.40672594 0.44634822
000370 cd d8 1c 3e 1f 48 aa bd e1 6c cc bd 3e 19 be 3e
       0.15317078 -0.08314537 -0.099817045 0.37128633
000380 77 87 35 bd c3 eb 5c be 6b f5 3e be d4 fc 8b bf
       -0.044318642 -0.21574311 -0.18648307 -1.0936532
000390 f3 50 a2 be 4a d8 9c 3d 5c be 26 3f a9 03 f1 3d
       -0.31702384 0.07658441 0.65134215 0.11768276
0003a0 56 b7 5f 3e b8 e3 2a be 80 e2 f3 3d 59 8e 58 be
       0.21847281 -0.1668843 0.11908436 -0.21148051
0003b0 a7 a0 86 bf a3 57 17 3c 26 22 39 3e a8 08 85 3e
       -1.0517777 0.009237203 0.18079433 0.25983167
0003c0 f0 58 06 3e c9 7f 30 3d de b4 d9 3d 24 8a 19 bc
       0.13119864 0.043090615 0.10630201 -0.009371314
0003d0 aa 01 38 3e 42 60 7d be a1 bd 77 3d 25 bf e0 be
       0.17969385 -0.2474375 0.06048358 -0.43895832
0003e0 fc b9 8c 3d 7d a1 2c bf 1d d7 ac 3d 45 16 46 3e
       0.06871411 -0.6743391 0.08439467 0.19344433
0003f0 b1 a2 e6 3e 36 f7 1c bf 26 56 0a 3f 14 88 ac bd
       0.45046 -0.61314714 0.540377 -0.08424392

fc3.bias f4 [32]
000000 9c 3a 07 3f 19 fa 2f bd 70 84 18 be 6c 5e c1 bf
       0.52823806 -0.04296312 -0.14894271 -1.510694
000010 89 5b 66 be 68 a1 0f bf c9 3b e2 be 6e da 44 3f
       -0.22495855 -0.5610566 -0.44186237 0.768958
000020 f1 4f b8 bd 35 c8 ed bf e3 d4 de bd 91 d2 ac bf
       -0.089996226 -1.8576723 -0.10880449 -1.350176
000030 fd 21 70 bf 5b a3 20 3d e9 bc 31 3f d3 4e d0 3f
       -0.9380186 0.039218288 0.6942888 1.6274055
000040 1c 53 86 3e 64 14 2e bf cd 29 ef bf 39 35 e4 be
       0.26235282 -0.67999864 -1.8684632 -0.44571856
000050 2c 6f 95 bf 30 d7 b6 be f0 36 a3 be c1 3c c4 3f
       -1.1674552 -0.3571105 -0.3187785 1.5331041
000060 77 e2 81 bf 35 68 1a 3d 2e ca 4b 3d af fa 3e 3f
       -1.0147237 0.037697036 0.04975336 0.7460126
000070 8c 7a b5 be 15 05 88 3e 4f f1 99 bd 27 af 37 c0
       -0.35445058 0.26566377 -0.07516729 -2.8700655

in_fn.weight f4 [33]
000000 1d cf b1 3f 0b 5e 0f 3f b0 71 61 3e 52 86 2b 3e
       1.3891331 0.56002873 0.22016025 0.16750458
000010 2e ca 11 3d a6 17 25 3e 5d 3f 93 3e 44 2d d4 3d
       0.035593204 0.16122302 0.2875928 0.10360196
000020 cb 1c 22 3f 09 fe 62 3e f4 aa 80 3b d3 df 67 3e
       0.63325185 0.22167219 0.003926629 0.22643976
000030 9c 40 92 3e cd 63 3c 3e 7c 67 72 3e a6 7d c7 3e
       0.28564918 0.18397446 0.23672289 0.3896305
000040 38 1b 13 3f 41 1b 3a 3e 43 6d c6 3d 08 ff 6e be
       0.5746341 0.18174459 0.09688809 -0.23339474
000050 e9 de 38 3e c9 9e 66 3e ee c0 93 3d 0c 5a 43 3e
       0.18053783 0.22521509 0.07214533 0.19077319
000060 3e c0 57 3f a4 ba 90 3d 11 db 58 3e 9e b7 b0 3e
       0.84277713 0.07066849 0.21177317 0.3451509
000070 a6 03 39 3f d7 12 4b 3e 90 72 35 3f 1f 3c f7 3e
       0.7227119 0.19831406 0.70877934 0.48288056
000080 7c 72 67 3f
       0.90409064

in_fn.bias f4 [33]
000000 fa da 8c 3d aa f2 cd 3c e5 20 50 3d a4 a6 b8 3c
       0.06877704 0.025140125 0.05081262 0.022540398
000010 ea 62 50 3c 49 7c 47 3d 4f 08 ec bd bc 6c 71 3d
       0.012718895 0.048702512 -0.11525022 0.058941588
000020 6f 4b 66 3d 6d 5f 26 bc c6 51 e0 3c a8 f6 16 bb
       0.056224283 -0.010154587 0.027382743 -0.0023035202
000030 06 19 35 bd a6 1c c1 3c e0 81 6c bd e4 cf da 3c
       -0.044213317 0.023573231 -0.057741046 0.026710458
000040 15 0c ca 3d c9 9b b2 3d a0 c8 23 3d 94 b1 9b 3c
       0.09865586 0.0872112 0.039986253 0.019005574
000050 10 6a ec 3c 53 cc 60 3d 41 9a 26 bd b5 10 18 3d
       0.028859168 0.05488236 -0.04067445 0.037125308
000060 84 9f 94 3e e1 f3 2b 3d 49 a4 03 3d b1 16 23 bd
       0.2902795 0.041980628 0.032139096 -0.039816562
000070 4b 84 32 3e a1 76 53 bd 6f 4c 9e 3e 84 a7 5d 3e
       0.17433278 -0.051626805 0.3091769 0.21645933
000080 02 d4 e6 3d
       0.11270906

in_fn.running_mean f4 [33]
000000 dd fa 0f 40 b7 53 cb 3c 9c b8 e8 3b 11 27 c9 3b
       2.2496865 0.024820192 0.0071020853 0.0061386903
000010 57 c3 e3 3b 5a be 58 3b bf 3c ba 3b 52 e3 81 3b
       0.0069507766 0.0033072443 0.005683511 0.0039638663
000020 10 3e 72 3d 2f ba ea 3b ba 77 9a 3a 52 5f fd 3b
       0.05914122 0.007163308 0.0011784949 0.0077323103
000030 c4 6e 32 3c fe c6 c2 3b fb 89 04 3c 41 07 dd 3c
       0.010890666 0.005944132 0.008089538 0.026980998
000040 08 76 96 3d d9 30 cd 3b a2 7a c3 3b b3 cd b4 3a
       0.073467314 0.0062619266 0.0059655467 0.0013794213
000050 81 76 87 3c a0 02 52 3b fa c5 b8 3b f6 53 af 3b
       0.016536 0.0032045022 0.005638835 0.005350585
000060 82 3e 17 3e 60 fb 97 3b 10 b2 df 3b 6b 45 f5 3b
       0.14769939 0.0046381205 0.0068266466 0.007485082
000070 cc 6b a2 3d ea b8 9a 3b 29 8a 4b 3e d0 aa 8c 3d
       0.07930717 0.0047217505 0.19876923 0.068685174
000080 8f 45 37 3e
       0.17897628

in_fn.running_var f4 [33]
000000 d6 8e d9 40 4b 7c c5 3c 04 17 e7 3b 32 e1 c7 3b
       6.798686 0.024107119 0.007052304 0.0060998434
000010 01 1e e1 3b 9e fb 57 3b 51 41 b9 3b 7a 58 81 3b
       0.006870032 0.0032956372 0.0056535383 0.003947315
000020 5c 52 61 3d 95 f1 e8 3b 18 49 9a 3a cb 3a fb 3b
       0.055010185 0.007108877 0.0011771051 0.007666921
000030 6b df 2f 3c c0 3b c1 3b cd 4c 03 3c 78 b1 d6 3c
       0.010734419 0.0058970153 0.008013916 0.02620767
000040 da 12 8b 3d ad c4 cb 3b 27 4b c2 3b 66 83 b4 3a
       0.06790705 0.006218514 0.005929369 0.001377207
000050 10 d4 84 3c b9 4e 51 3b 8e c9 b7 3b cb 2f ae 3b
       0.0162144 0.0031937792 0.005608744 0.005315756
000060 e8 ac 00 3e 8e 4b 97 3b 60 fb dd 3b 31 20 f3 3b
       0.12565958 0.004617161 0.006774351 0.007419609
000070 67 b7 94 3d 9c 9d 99 3b a0 7c 21 3e b3 87 82 3d
       0.07261544 0.004687978 0.15770197 0.06373539
000080 8f 68 16 3e
       0.14688323

fc1.weight f4 [64, 33]
000000 c7 7a 29 3e d2 75 5d bd 75 73 91 be 7a 8d 93 3c
       0.16550742 -0.05406744 -0.284084 0.018011797
000010 05 e3 4a be 4c c4 c5 3d 60 c4 33 3d e6 a8 bf be
       -0.19813164 0.09656581 0.04388845 -0.37433547
000020 a5 e3 e2 3c 47 9a 88 be 71 34 bd bd a4 98 87 3c
       0.02769644 -0.26680204 -0.09238518 0.016552277
000030 b3 af b8 3e f7 26 ba 3d 56 0b c6 bc 42 aa ee 3e
       0.36071548 0.09089463 -0.024175327 0.4661427
000040 cf a8 48 bc 6e 39 11 be 51 5d 78 be f4 f3 16 be
       -0.012247278 -0.14182064 -0.24254347 -0.14741498
000050 52 f4 c7 3e 4b ff 12 bf 1d 06 47 3d b2 39 44 bc
       0.3905359 -0.57420796 0.048589814 -0.011976646
000060 46 06 17 be de 71 5c 3d d7 d2 c6 3c 5d 58 f7 bd
       -0.14748487 0.05381953 0.024270458 -0.12077401
000070 77 e8 eb bd 50 48 64 3c 9c 74 fa 3d 06 63 33 be
       -0.115189485 0.013933256 0.12229273 -0.17518243
000080 19 ec a3 bc c3 d9 d1 3c fd bd 34 bd 54 ce bd bd
       -0.020010041 0.025616532 -0.0441265 -0.092678696
000090 de ae 61 3d 32 27 27 bd db b5 85 3d 86 19 55 3d
       0.055098407 -0.040808864 0.06528827 0.052026294
0000a0 f8 8b a6 bb 2b d8 25 3e 0d bc 33 3c 01 b1 81 3d
       -0.0050826035 0.16195743 0.010970128 0.06332589
0000b0 18 1c 86 bd 4a 91 0a 3d 0c de 3f be 59 ce f3 3c
       -0.06548327 0.033829965 -0.18737048 0.02976148
0000c0 6f b2 86 bd 9b 0a 23 3e 8e 3e 20 bd db 59 bc bb
       -0.06577002 0.15922014 -0.039122157 -0.0057480163
0000d0 00 9d 15 be 1c 66 ab 3d ee a1 d6 bd 24 a5 9f 3d
       -0.14610672 0.08369085 -0.104801044 0.0779517
0000e0 4e 1c 01 be f9 48 83 bb f9 d3 81 3e 15 b9 09 bd
       -0.12608454 -0.0040065018 0.25357035 -0.033623774
0000f0 99 01 43 b8 f9 bc c8 bc 8a 29 35 3e de d5 97 bd
       -4.649311e-05 -0.024504172 0.17691627 -0.07413839
000100 e4 d5 9e 3d c1 36 2c 3e f0 1c 94 bf da cf 8c be
       0.0775564 0.16817762 -1.1571331 -0.27502328
000110 96 fa 9f be 96 d1 ad be 20 a8 8f bd 71 9f 5f 3e
       -0.3124587 -0.33948964 -0.07014489 0.21838166
000120 dc 09 a8 3d 53 69 8f be b7 dc 53 3e f2 be 95 be
       0.082050055 -0.28010044 0.20689665 -0.29247242
000130 e3 6e 3c 3e 9c 7b ef be 7b 81 5a 3d 8d 06 a4 3e
       0.18401675 -0.46773994 0.05334614 0.32036248
000140 8d d5 de 3e 51 f7 17 3e ff 51 64 be 92 ae d8 be
       0.435223 0.14840437 -0.22296904 -0.42320687
000150 7c 24 49 3e a3 73 42 bf 0f 25 b4 3d ed 3e 73 be
       0.19642824 -0.759577 0.08796131 -0.23754473
000160 28 fc d9 3c 86 99 98 ba 6a 16 37 3e 1f f0 14 be
       0.026609495 -0.0011642433 0.17879644 -0.14544724
000170 21 18 62 be 67 8a e6 3e bd 99 96 be 2d 18 85 bd
       -0.22079517 0.45027468 -0.29414168 -0.06498752
000180 2e d8 94 be ec 6d e6 be 7b 00 5e 3f b7 fe e4 bf
       -0.29071182 -0.4500574 0.86719483 -1.7890233
000190 1e a4 a3 3e 3c 1d 9e 3e f8 aa 95 be 55 94 4a bf
       0.3196115 0.3088168 -0.29232 -0.79132587
0001a0 35 88 40 be aa f5 91 be 92 d6 2b be 32 c1 93 bc
       -0.18801959 -0.2850774 -0.16781071 -0.018036459
0001b0 6d 02 f8 be 42 57 03 bd d3 b8 62 3e 90 fc 04 be
       -0.4843935 -0.032065637 0.22140817 -0.1298697
0001c0 2b e7 a0 be 69 f2 79 3e 0e e1 18 bd 40 98 12 bf
       -0.31426367 0.24408878 -0.037324004 -0.57263565
0001d0 77 ed 7a bc 53 26 45 be 26 78 8e 3e ee 85 47 bc
       -0.015315405 -0.19252901 0.2782604 -0.012177927
0001e0 17 c5 39 be ba de 6b 3e 01 a0 45 be 1e 84 ee bd
       -0.1814159 0.23034182 -0.19299318 -0.11646293
0001f0 30 ba 88 bd bf 60 60 3e c9 bf e9 be f7 48 03 bf
       -0.066761374 0.21911906 -0.45654133 -0.5128321
000200 ec 16 bb bd 47 66 17 be b1 cf b6 bd 3e b9 82 3f
       -0.091352314 -0.1478511 -0.08926333 1.0212781
000210 df 39 92 ba 2a e1 38 bd 3f dd d3 bc 4d db a4 bd
       -0.0011156163 -0.04513661 -0.025862334 -0.08049641
000220 85 13 7b be 7f 60 64 bd 48 06 82 bd 99 a7 56 be
       -0.24519165 -0.05575609 -0.06348854 -0.20962371
000230 10 9b fa bd d6 09 3d be 33 22 97 3d 3c 45 30 bc
       -0.12236607 -0.18460783 0.0737957 -0.010758694
000240 18 33 6f be 3a c0 45 3d 1d 4b 00 3f fa e6 18 3d
       -0.23359334 0.048279025 0.50114614 0.03732965
000250 e4 41 92 be 93 cc 1c be d5 01 84 be 7d e1 2b 3c
       -0.28565896 -0.15312414 -0.25782648 0.010490772
000260 e6 a0 9e be 90 ed 8c bd d5 f1 40 bd fb 8a bc be
       -0.3098213 -0.06881249 -0.04710563 -0.36824784
000270 32 c4 45 be a5 1b 2c bd 9a f4 b4 3c 1a 55 17 be
       -0.19313124 -0.04201855 0.022089291 -0.14778557
000280 ee 91 15 3f f9 12 ee bd 55 a7 dd 3d d6 77 a8 3d
       0.58425796 -0.116247125 0.10822932 0.08225982
000290 50 e5 c9 3e 25 5e e0 3d 89 af c7 bc 99 c9 5e 3c
       0.39432764 0.10955457 -0.024375694 0.013597869
0002a0 1c 4c 63 be 20 0c 55 3e cc 22 7c be 1d 2f 18 3b
       -0.22197002 0.20805407 -0.24622649 0.002322144
0002b0 a9 aa d1 bb bd f7 5f 3c c9 87 47 bd 01 d7 6e 3d
       -0.006398518 0.013669905 -0.04871348 0.058310512
0002c0 0a 37 2d bc a0 9d 01 3d e6 0c b2 3d 98 c9 8e 3d
       -0.010572204 0.031644464 0.086938664 0.06972045
0002d0 56 32 b4 3d ae 01 be bd 68 84 52 3d 69 89 14 3e
       0.08798663 -0.09277664 0.051395804 0.14505543
0002e0 6d 00 a0 bd 81 88 08 3e 85 36 21 bd 67 2d eb 3d
       -0.07812581 0.13333322 -0.039358635 0.11483269
0002f0 7e 57 31 3d 0b 15 dd 3d ac 77 03 be a2 04 86 3e
       0.04329633 0.10795029 -0.1283862 0.2617541
000300 1e 80 2f 3d c2 a0 df 3d bb 15 af 3d e3 86 01 bc
       0.04284679 0.10919334 0.08549067 -0.007905695
000310 81 86 a2 be ba 9b 67 3d 47 06 88 be 5c bf 21 3e
       -0.31743243 0.056544997 -0.2656729 0.15795654
000320 75 c3 f2 bd d7 b2 a4 be ef 88 64 be 59 8a 91 3d
       -0.11853687 -0.32167694 -0.22317861 0.07106466
000330 af 02 1e 3d 5f f6 3b be 8c 81 1d 3e da 55 0a be
       0.038576778 -0.18355702 0.1538145 -0.13509312
000340 6a 8a dc 3d 87 d4 eb bc 50 7a 0b 3e f9 dc 60 be
       0.10768588 -0.028787864 0.13620877 -0.21959294
000350 9e e7 21 3e f8 82 10 bd 56 1f 74 3e e2 4d ce be
       0.15811011 -0.03528115 0.23840079 -0.40293795
000360 71 23 99 3d d6 35 35 bf 3f c9 82 bc 03 ae 49 be
       0.07477463 -0.7078527 -0.015965102 -0.19695286
000370 79 33 18 3e c0 9a 29 3e 6f bf 09 3c 6c 19 e4 bd
       0.14863385 0.16562939 0.008407458 -0.11137661
000380 0e d4 26 be 69 56 8b 3d 66 ce a3 3d 3e ca b8 3e
       -0.1629183 0.06803591 0.07998352 0.360918
000390 9c 50 2d 3e b9 af ed 3d a4 4d 83 3e 94 85 14 3d
       0.16925281 0.11605782 0.25645173 0.036260203
0003a0 2d 37 85 3c 0a 2a c3 bb d8 1d e6 bd 29 fc a0 bd
       0.016261661 -0.005955939 -0.11236161 -0.07860596
0003b0 69 5e 48 3d 65 bd 8d 3e 8d 0c 3d bd 87 b1 28 3e
       0.04891816 0.2768356 -0.046154547 0.16473971
0003c0 7b b8 2c bd 76 b2 ab bc df e4 81 3e c3 b5 62 3e
       -0.04216812 -0.02095912 0.25369927 0.22139649
0003d0 54 5d b3 3e 1a 6e a2 3b 1d 97 05 3e 41 4f 2c 3d
       0.3503214 0.004956973 0.13045926 0.04206777
0003e0 6c 75 91 bc f0 51 f3 3d ea ff b5 be 16 b2 23 bd
       -0.017756186 0.11880863 -0.3554681 -0.039964758
0003f0 d9 a5 8b 3d af 62 6e 3e ee 2d 29 bd 29 45 6a bd
       0.06818742 0.23279832 -0.041303568 -0.057194863

fc1.bias f4 [64]
000000 85 b5 46 bf 68 64 42 bf 18 8d ff be 1b 3c 13 bf
       -0.77620727 -0.7593446 -0.49912333 -0.5751359
000010 97 43 24 be 6d 05 4e bf bb 74 3e bf 38 3d ad bf
       -0.16041408 -0.8047703 -0.74396867 -1.3534307
000020 07 1c 00 bf aa f9 5d be 97 dd 1d bf f0 94 69 bf
       -0.50042766 -0.2167727 -0.61666244 -0.91242886
000030 2f 42 be be 05 38 60 bf 36 e6 43 bf 87 60 21 be
       -0.3715987 -0.8758548 -0.7652315 -0.15759479
000040 b5 10 72 bf d6 79 05 bf b9 5c 4c bf 76 b9 de 3e
       -0.9455674 -0.5213903 -0.79828984 0.4350087
000050 c3 f8 87 bf 1f 35 b5 bf e5 d9 a0 be a8 0c c1 3d
       -1.0622791 -1.4156836 -0.3141624 0.09426242
000060 97 2d 90 bf 75 a1 a4 be 57 2d 40 bf 5d 19 f0 be
       -1.1263913 -0.32154432 -0.75069183 -0.4689435
000070 ab 58 93 bf c0 4d 3c 3e e5 ba 2e bf 4a 6d 38 bf
       -1.1511434 0.18389034 -0.6825393 -0.7204176
000080 24 d5 17 be 2e b0 32 bf 08 03 63 bf 60 a0 21 bf
       -0.148274 -0.6980008 -0.886765 -0.6313534
000090 84 1f f4 be 57 44 e1 be 2e 42 a1 3e be 81 d9 be
       -0.47680295 -0.43997452 0.31495804 -0.42481798
0000a0 a7 9b e2 be ab 35 67 bf c4 90 97 bf 2c 15 c9 bf
       -0.44259378 -0.90316266 -1.1841054 -1.5709586
0000b0 21 d4 a2 be 69 48 20 bf ef c4 d8 be 00 f0 40 bf
       -0.31802467 -0.6261049 -0.42337748 -0.7536621
0000c0 57 f3 01 bf 8a e7 96 bf de 4c eb bd 95 ec 08 bf
       -0.5076193 -1.178941 -0.11489271 -0.53485996
0000d0 21 ad 76 bf 48 c2 97 bf f5 85 3f bf 01 83 57 bf
       -0.96357924 -1.1856165 -0.7481378 -0.8418427
0000e0 79 24 a0 bf 74 c9 2c bf e7 71 d4 be 1f c5 db 3d
       -1.251113 -0.67494893 -0.4149315 0.10730957
0000f0 a5 86 1f bf 61 39 36 bf 80 20 20 bf f9 57 77 bf
       -0.62314826 -0.71181303 -0.6254959 -0.9661861

fc2.weight f4 [64, 64]
000000 e1 01 0e 3d b9 0f df bd 03 54 0e be 78 0b 74 be
       0.03466976 -0.10891671 -0.13899235 -0.238325
000010 62 2d dd ba 9c 96 51 be c3 5e 36 be c4 6b ef bc
       -0.0016874487 -0.20467609 -0.17809586 -0.029226191
000020 24 96 bc bd ac 60 b4 bc 0a 03 3f be fa 93 8a be
       -0.092083246 -0.022018753 -0.18653503 -0.27066022
000030 3e cc b8 bd 83 ae 23 be 35 ce 72 bd 81 76 9f be
       -0.09023331 -0.1598454 -0.059278686 -0.311451
000040 af 7a fa 3c 90 0b 04 3d 04 56 09 bd ef ed 0e be
       0.030576078 0.03223759 -0.033529297 -0.13957952
000050 81 b7 92 3d 60 49 3e be 0e 2f 89 bd 11 33 23 be
       0.07163907 -0.18582678 -0.06698428 -0.15937449
000060 92 c9 cb bd 49 20 41 3d c7 41 10 bd 7e 11 bb be
       -0.09950556 0.04714993 -0.03521898 -0.36536783
000070 2f b5 ff 3c ab 55 71 be d4 f1 34 bd 91 2e ba bd
       0.031214325 -0.23567836 -0.044175938 -0.09090913
000080 2b 57 02 be fe 8c 42 3d 86 4c 0e bd ef 94 53 3d
       -0.12728564 0.047497742 -0.034740947 0.051655706
000090 24 a5 97 bd 12 8f d3 3c 78 60 07 be 80 1d 4b 3c
       -0.07404545 0.025825057 -0.13220394 0.01239717
0000a0 35 de 5d be 73 10 2c bc ab 3b d3 bc b5 75 cb 3c
       -0.21666797 -0.010501969 -0.025785288 0.0248364
0000b0 e2 38 b3 3c 40 c7 45 bd fc 26 6d 3d 01 07 5e 3c
       0.02187771 -0.048285723 0.057898507 0.013551475
0000c0 01 0c 1d be 00 2c 2b 3d 36 25 aa be b5 95 e7 3d
       -0.1533661 0.04179001 -0.33231515 0.11307851
0000d0 01 c0 f4 bd 26 d1 81 3a aa a9 82 bd 62 e8 5c be
       -0.11950684 0.000990425 -0.06380017 -0.21573022
0000e0 47 f1 98 bb ac 3c aa bd 90 89 0c bc a3 18 58 be
       -0.0046674344 -0.083123535 -0.008577719 -0.21103148
0000f0 eb 38 47 3c fb e9 05 be 40 d9 a8 3c db 8b 92 bc
       0.012159566 -0.13077538 0.020611405 -0.017888954
000100 3e 55 09 be 84 1d 8a be 12 45 15 be 7b 12 09 be
       -0.13411424 -0.26975644 -0.1457713 -0.13385956
000110 b6 b9 1f 3d 5e 69 d0 be 8b a3 9a bc 0b 79 79 be
       0.038995467 -0.4070539 -0.018876811 -0.2436258
000120 77 89 1a be 4f a9 01 be c4 8b b2 bd c3 3d ab bd
       -0.15091501 -0.12662242 -0.087180644 -0.083613895
000130 a3 47 99 3d 76 20 07 bf f6 b1 ab be 19 ae dd 3d
       0.07484367 -0.52783906 -0.3353421 0.10824222
000140 3b de 58 be d9 d3 ed bc 62 cf 5c be c3 a0 28 3d
       -0.21178524 -0.02903168 -0.21563485 0.04116894
000150 4e aa 5e be 5b bb 6e 3d 1e 3f a0 be 54 a1 4f bc
       -0.21744654 0.058284145 -0.31298155 -0.012672741
000160 42 e4 e9 be 16 e9 6a bd 82 e9 55 be e8 9a 38 be
       -0.4568196 -0.057351194 -0.20889857 -0.18027842
000170 fe b3 5f bd 7f 02 2b be 25 0f 4b be 78 52 35 3d
       -0.054615013 -0.16700171 -0.19829996 0.0442681
000180 c7 f2 65 be 05 3c b0 be 2d 9c 80 bd 3a a5 f8 bc
       -0.22455893 -0.3442079 -0.06279788 -0.030352224
000190 b7 aa c9 be 00 b2 32 bd 86 6f dd be 77 7e 77 bb
       -0.39388058 -0.043626785 -0.43249148 -0.0037764588
0001a0 84 28 88 bd d9 a9 1a 3d bb 38 d4 bd cb 86 06 3e
       -0.06648353 0.037759636 -0.10362383 0.13137357
0001b0 08 d8 a6 3d d7 18 43 3e d0 1e ac be 90 36 4d bd
       0.081466734 0.19052444 -0.33617258 -0.050100863
0001c0 d1 3a 09 be ac b1 42 3b f3 88 93 bd 23 94 d3 bd
       -0.13401343 0.0029707951 -0.07203855 -0.10330989
0001d0 e4 1f 35 be c2 0c 0b be 16 a6 ff 3b 1e e7 73 bb
       -0.17687947 -0.13579085 0.0078017814 -0.0037216614
0001e0 0a e8 f4 be 35 37 bc bd fe 39 aa be 6c 04 78 be
       -0.47833282 -0.091902174 -0.3324737 -0.24220437
0001f0 c0 3b 26 be 4d c3 5b bd e4 8e a0 3d 66 cf c7 3c
       -0.1623373 -0.05365305 0.07839754 0.024390887
000200 44 28 9c be a7 1a 39 be ce b2 8c be dc 1c 22 be
       -0.3049947 -0.18076573 -0.27480167 -0.15831321
000210 fc 10 ce bd 87 25 09 be fa 63 43 be 2a 9e 0b be
       -0.10061833 -0.13393222 -0.19081107 -0.13634554
000220 9f 9c 99 3c 1d 51 9b 3a 36 a1 dc be 66 fa 36 3d
       0.01875144 0.0011849735 -0.43091744 0.044672392
000230 5d 1f 26 bf 99 3d 32 3c a2 ae 2a be 92 c5 5d 3c
       -0.64891607 0.010878944 -0.1666818 0.013535874
000240 57 8a 66 3c 2b 30 a6 be 54 4f 23 bd 0b f5 72 3d
       0.014071069 -0.32458624 -0.039870575 0.059315722
000250 63 58 07 bf ff 9e 1d be c7 eb 94 be e5 c9 9a be
       -0.5286924 -0.15392683 -0.29086134 -0.30232158
000260 3b 26 f1 be f2 b5 e4 bc 3e 94 01 bd 30 10 d6 3c
       -0.4709948 -0.02791879 -0.031635515 0.026130766
000270 46 14 3c bd b5 05 f4 bd 6a 00 b0 bd d2 53 27 be
       -0.04591777 -0.11915151 -0.08593829 -0.16340569
000280 6e 6f a4 be 6b e8 12 be 7c c9 0c 3d 85 8c 96 bd
       -0.32116264 -0.14346473 0.034371838 -0.07351021
000290 bc 94 db 3d 26 6c 7a be 5a ca 28 bf 26 4e cb be
       0.10721728 -0.24455318 -0.65933764 -0.3970806
0002a0 7f 0c 47 be 0a 97 07 bd 5a 4f 4b be 8c 20 98 bc
       -0.1943836 -0.033103026 -0.19854489 -0.018570207
0002b0 79 b3 9c 3d 98 ac b4 bd 82 47 f2 bd 39 b2 3e bd
       0.07651419 -0.08821982 -0.11830045 -0.046556685
0002c0 3e 3b 4d bd 8c cf d7 bd 00 09 b2 bd 1d ad 79 3b
       -0.050105326 -0.10537633 -0.08693123 0.0038097568
0002d0 ae f8 4f be 17 b5 ce bb dd 5e 65 be e8 d8 38 be
       -0.20309708 -0.0063082087 -0.22399469 -0.18051493
0002e0 0f f0 12 bf 79 f5 26 be 2b 58 d2 be b4 89 59 bf
       -0.5739755 -0.16304578 -0.41082892 -0.84975743
0002f0 8b b2 a6 3d d2 74 81 3d 43 92 7e 3d c6 9b 4a be
       0.08139523 0.0632111 0.062151205 -0.19785985
000300 1e 7f d8 bd 77 78 8c bc ab 48 fe bd 0c 9c d3 3d
       -0.10571121 -0.017147286 -0.12416204 0.10332498
000310 81 fa 84 bd a3 7e ed 3d 6a 85 3a be e7 fd a5 bb
       -0.06493092 0.1159642 -0.18214956 -0.005065668
000320 cb 24 a0 bc 04 6e 58 bd b9 79 dd 3c b8 16 07 be
       -0.019548794 -0.052839294 0.027035581 -0.1319226
000330 62 ba cc bd f4 9e df bd 56 d9 d5 bd 24 e8 8d bd
       -0.09996487 -0.1091899 -0.10441844 -0.06929043
000340 77 56 7a bd 65 24 1b bd 6c df 66 3c 99 51 1c be
       -0.061117616 -0.037876505 0.014091354 -0.15265502
000350 05 df 67 be c5 59 98 3c 41 05 19 be d7 4d 48 be
       -0.22643669 0.018597493 -0.1494341 -0.19560944
000360 aa d2 30 be 20 12 17 bd 22 ac 3e be 8a c3 10 3d
       -0.17267862 -0.03688252 -0.18620351 0.03534273
000370 0f b6 c3 3d fa 3a d9 bc e2 1f 65 3c ec 25 70 3d
       0.09556209 -0.02651738 0.013984652 0.058629915
000380 4e eb 0e be 80 61 2c bb c8 58 06 3d d4 a2 4f 3c
       -0.13956949 -0.0026303232 0.032799512 0.012673099
000390 ec a8 17 be d4 e9 9d 3d be 35 ad be 89 a4 6d 3d
       -0.14810532 0.07710615 -0.33830065 0.05801824
0003a0 cf 9f 0c be ae ba e8 bb f7 10 8b 3d d4 30 d8 bd
       -0.13732837 -0.007102332 0.06790345 -0.10556188
0003b0 a6 f9 37 be 40 3d 10 be 10 d5 a7 3d 68 d3 5f bd
       -0.17966327 -0.14085865 0.08194935 -0.054644972
0003c0 5b c9 f1 3b 8d ba e5 bc ff 34 3f 3d 22 c3 d2 bd
       0.00737874 -0.028043056 0.0466814 -0.10291125
0003d0 2b 0a 48 3d 7a a3 12 bd 76 15 6c 3c 4d ee ad bd
       0.048837822 -0.035800435 0.014409414 -0.08492718
0003e0 de 04 41 3d 22 79 70 3d 13 06 b2 be 0a db 45 bd
       0.047123782 0.05870927 -0.3477026 -0.048304595
0003f0 80 a9 42 bd 46 74 ed bc 22 d7 75 bd 6e 01 b4 bd
       -0.04752493 -0.028986108 -0.06001962 -0.08789335

fc2.bias f4 [64]
000000 86 65 33 be 31 1d e8 bd a5 3a 97 be 85 23 ec bd
       -0.17519197 -0.11333693 -0.2953693 -0.11530212
000010 3a bf 1d be 69 a8 c7 be 18 98 40 3f 1c 4d 6a bd
       -0.15404978 -0.38995674 0.75232077 -0.057202443
000020 c4 6c 89 bd 7a 8f a5 bd 13 12 ef bc 5f 95 49 be
       -0.067101985 -0.080840066 -0.029183423 -0.19685887
000030 5d 28 c4 bb be 9c 73 be 50 81 d4 bd b4 99 5c be
       -0.005986257 -0.23790261 -0.10376227 -0.21543008
000040 72 f1 05 3f dd d4 73 3f 4b 2e e2 bc ef 2d b4 3b
       0.5232154 0.9524668 -0.027609965 0.00549864
000050 5c 04 32 3f ef 4e aa bd fc ac c7 bd 51 90 15 be
       0.695379 -0.08315837 -0.09749791 -0.14605834
000060 89 4f 90 3c 02 9c 37 bd 81 fa 3f bf 0b 0a c2 be
       0.01761605 -0.044826515 -0.74991614 -0.37898287
000070 79 d1 41 3f 17 42 0c be ab f9 33 be 8d d7 d1 bd
       0.75710255 -0.13697086 -0.1757571 -0.10246191
000080 be 15 c6 bd 08 cd cb bb 50 2b e9 be 53 9e 31 be
       -0.09672116 -0.00621951 -0.45540857 -0.17345552
000090 58 c6 0c be 57 6d 67 be 31 49 b9 be c9 cb 35 3d
       -0.13747537 -0.22600304 -0.36188653 0.044383798
0000a0 15 d4 37 be 54 17 3b be 3e da 6e be 75 e2 14 be
       -0.17951997 -0.18270618 -0.2332544 -0.14539512
0000b0 66 e7 ed be fc 43 18 be 7f 71 df bd b2 6b bb 3d
       -0.46465605 -0.14869684 -0.109103195 0.091514006
0000c0 24 80 b2 be c5 b6 e2 bd 28 1a 6e bc e5 70 34 bd
       -0.3486339 -0.11070017 -0.014532603 -0.044052977
0000d0 54 3d 50 be 73 90 ba bd d6 2c 67 be d4 71 87 be
       -0.20335895 -0.09109583 -0.22575697 -0.2645403
0000e0 33 c8 53 3f a0 3c 98 3d 6e 39 49 be 9c aa 89 3d
       0.82727355 0.07433438 -0.19650814 0.06721994
0000f0 f9 fd 96 bc 10 ed 9a bc 36 90 7f 3e 43 54 8e bd
       -0.01843165 -0.018911868 0.24957356 -0.069496654

fc3.weight f4 [1, 64]
000000 86 7c 1b be fa 6a a1 3d 27 a2 cf 3c e7 80 01 bd
       -0.1518422 0.07881732 0.025345875 -0.03161707
000010 9c b2 5a 3c be 25 a8 bb 3f a1 9f 3d 20 e6 76 bb
       0.013348248 -0.0051314523 0.07794427 -0.0037673786
000020 64 9e 98 bd 1f 9b 3b 3c 6f e1 6d bc 32 38 9f 3d
       -0.074520856 0.011450558 -0.01451908 0.0777439
000030 2c e8 96 ba 54 83 a4 3d 63 93 e0 3b d1 d8 a7 bb
       -0.0011513284 0.08032861 0.0068535074 -0.005122282
000040 e5 c1 91 3d 86 1b 19 be f2 6c 8c 3d ef 18 07 3e
       0.071170606 -0.14951906 0.06856717 0.13193105
000050 80 24 1d be 96 5d 0a 3c 5d 84 45 bb b0 e0 15 bc
       -0.15345955 0.008445164 -0.003013871 -0.009147808
000060 75 af 69 bc 9d e2 92 bc 49 76 57 3e 21 7a 8c bc
       -0.014263024 -0.017930323 0.21041216 -0.01714808
000070 c1 3d c1 3d b2 59 23 3c cf c5 14 3d 1b e6 c7 3c
       0.09435607 0.0099701155 0.036321457 0.024401715
000080 7b f0 52 3c d0 bd f2 3b d6 b6 38 bc 9a aa eb 3b
       0.012874718 0.0074078813 -0.01127406 0.007191968
000090 ea a1 a9 3b bd 8f 51 bd 91 65 17 be 96 0a 84 3d
       0.0051767724 -0.05116247 -0.14784838 0.064473316
0000a0 60 43 03 bd 88 28 39 bc b0 d1 a6 bd 1e dd d7 3c
       -0.032046676 -0.011301167 -0.081454635 0.026350554
0000b0 f1 e5 7b 3d fe 9d c1 bc 3a 9f ab bc bb 98 a3 3d
       0.061498586 -0.023634907 -0.020949949 0.079881154
0000c0 9f 0b b2 3d b9 5a 0d bc 9d bc 03 bd e3 a2 f8 b8
       0.08693623 -0.008627587 -0.032162298 -0.000118559015
0000d0 d6 ec fc bc 72 5d 03 3c 2f ed 8d 3c 2c c7 28 bd
       -0.03087465 0.008017885 0.017325012 -0.04120557
0000e0 a6 92 c5 bd 0f b5 bb 3c 74 6e 50 3c 15 e0 68 be
       -0.096471116 0.022913484 0.012721647 -0.2274173
0000f0 4a 71 8e bb b2 82 7f bb 6e 9c b6 3d b9 12 99 3c
       -0.004347001 -0.0038987813 0.08916555 0.018685685

fc1.weight f4 [64, 1]
000000 21 9d 8f 3f 01 27 bf be 54 8f 63 be e8 42 22 bf
       1.1219827 -0.37334445 -0.22222644 -0.6338334
000010 92 93 c2 bf 79 96 fe 3e 68 b9 a1 bd 32 01 d1 3f
       -1.5201285 0.49724177 -0.078966916 1.632849
000020 90 ad 94 bc 9b e9 92 3d 37 e1 8b bd 7b 70 15 3c
       -0.018149167 0.07173463 -0.06830066 0.009121056
000030 ca 74 c7 be ad b5 76 be 30 51 95 bd 9b 04 c2 bc
       -0.3895629 -0.24092741 -0.07290876 -0.023683837
000040 30 6c 14 3e 00 e7 82 bb 5f 47 9e 3d 57 7b 80 3d
       0.14494395 -0.0039948225 0.07728457 0.06273525
000050 07 ec 97 bd 40 35 ad be 70 a3 2b be df dc dc be
       -0.074180655 -0.3382969 -0.16761565 -0.4313726
000060 25 d6 7e bf 6a 6b c7 be 70 e5 9f 3a 7d 64 00 3f
       -0.9954551 -0.38949138 0.0012199115 0.5015333
000070 7a 2d 21 c0 83 e3 9c bd 3a 28 47 3d db 7f 54 3e
       -2.5184007 -0.07660582 0.048622347 0.20751898
000080 9a 83 31 be 4c 5d ac bf 7d 55 bf bf 60 c6 66 bd
       -0.17335358 -1.3465972 -1.4947964 -0.05634153
000090 69 b6 ee bc ba 44 3c 3d 7c 5a 61 bd 5e f5 c1 be
       -0.029139714 0.04596398 -0.055017933 -0.37882513
0000a0 4b 72 56 3e 5c a0 d8 be 44 02 1b be ca 4c 7d bd
       0.20942037 -0.42309844 -0.15137583 -0.06184081
0000b0 d7 7b 52 be 65 c5 6d bd 36 47 4e bf 3c 12 2c bf
       -0.20555054 -0.05804958 -0.8057741 -0.67215323
0000c0 b4 79 24 bf 00 88 e0 bd d2 c0 88 bf a0 1c 4e bf
       -0.64248204 -0.1096344 -1.0683844 -0.8051243
0000d0 de f5 43 3c ec a9 60 bc 9d ba f7 3e b8 df f2 3e
       0.011960475 -0.0137123875 0.48384562 0.4743631
0000e0 20 ca 3f bd 1a 3f 8b bf e1 b1 b8 bd 87 af 9f 3d
       -0.04682362 -1.0878632 -0.09018303 0.07797151
0000f0 0f 52 1d be be 7c 29 3f df ad ef 3e cd 7f 73 3c
       -0.15363334 0.66205966 0.4681234 0.014862013

fc1.bias f4 [64]
000000 58 6e 90 bf 8c 40 17 bf 09 86 e8 be 62 bd 34 bf
       -1.1283674 -0.59082866 -0.4541476 -0.70601475
000010 ea 11 7f bf 21 da ea bf a5 06 20 be d3 d8 13 3f
       -0.9963671 -1.8347818 -0.15627535 0.5775272
000020 29 0c a8 bd f6 ab be be 62 71 f0 bd d6 98 30 be
       -0.08205444 -0.3724057 -0.11740376 -0.17245802
000030 e4 6e 98 be 2d dc a1 be ae 15 6d bf 40 87 d7 bd
       -0.29772103 -0.31613293 -0.92611206 -0.10523844
000040 e2 ff 33 bf 83 27 41 bf d9 98 a2 be 50 87 91 be
       -0.7031232 -0.75450915 -0.31757239 -0.28423548
000050 d0 d5 1f be 18 45 58 bf 52 94 63 bf 32 b3 b7 be
       -0.15608907 -0.8448043 -0.88898194 -0.35878903
000060 a1 a2 2d bf e0 63 93 be 59 0a a7 bc 2d 73 e6 bf
       -0.67826277 -0.28787136 -0.020390676 -1.8003899
000070 53 35 50 3f e5 64 e2 be 5b 9c 89 be 0c fb 53 bf
       0.81331366 -0.442176 -0.26877102 -0.8280494
000080 6a 5c 7d be 55 28 f3 be 14 34 94 bf 46 d8 3a bf
       -0.24742284 -0.47491708 -1.1578393 -0.7298626
000090 44 a8 90 be 47 6b 08 bf 10 30 12 be 0e 02 f0 be
       -0.28253376 -0.5328869 -0.14276147 -0.46876568
0000a0 0a 5f 7b bf c0 b5 59 bf 7b be 88 be 84 be 1e be
       -0.98191893 -0.85042953 -0.26707825 -0.15502363
0000b0 13 ed 8a be e3 e5 40 be 2e 7f 0c bf 65 d8 2e bf
       -0.27133998 -0.18837695 -0.5488156 -0.6829894
0000c0 d0 fd 00 bf 72 e0 29 bf 77 75 45 bf a7 35 8f be
       -0.5038729 -0.663581 -0.7713236 -0.2797062
0000d0 c0 b4 de bd e5 f6 eb bc 0b 63 cb bf c2 40 c2 bf
       -0.10874319 -0.028804252 -1.58896 -1.5176013
0000e0 50 d2 1a bf 16 cc 35 bf 33 1a 84 be 82 42 b0 be
       -0.6047716 -0.71014535 -0.25801238 -0.3442574
0000f0 fa fd 33 be 21 89 0b c0 c2 db bd bf 33 e3 48 be
       -0.17577353 -2.1802447 -1.483269 -0.1961792
