maddpg_pytorch/models/cache_data/model/run51/incremental/model_ep14001.pt (torch, 690099 bytes, 168 tensors)

fc1.weight f4 [64, 1]
0	0x3f9e7842	1.238045
1	0xbebf2697	-0.3733413
2	0xbe638f17	-0.22222553
3	0xbef32278	-0.47487235
4	0xbfcb41f4	-1.5879502
5	0x3eaff8c4	0.3436948
6	0xbda1b927	-0.07896643
7	0x3f7e7794	0.9940121
8	0xbc94ad88	-0.018149152
9	0x3d92e937	0.071733885
10	0xbd8be145	-0.06830076
11	0x3c157042	0.009121003
12	0xbfdc739c	-1.7222781
13	0x3d997deb	0.0749472
14	0xbd955130	-0.07290876
15	0xbcc204e3	-0.02368397
16	0xbe00894c	-0.12552375
17	0xbb82e700	-0.0039948225
18	0xbe226c90	-0.15861726
19	0xbe81ddf8	-0.2536466
20	0xbd97ebe5	-0.0741804
21	0xbead3516	-0.33829564
22	0xbe2ba370	-0.16761565
23	0xbeb0091f	-0.3438196
24	0xbfa213f0	-1.2662334
25	0xbeb02c91	-0.34409
26	0x3a9fe595	0.0012199158
27	0x3e896b9c	0.26839912
28	0xc0086417	-2.131109
29	0xbd9ce326	-0.076605126
30	0x3d4727d0	0.048621953
31	0x3f064d79	0.52461964
32	0xbe3183ec	-0.1733548
33	0xc00b02bb	-2.1720417
34	0xbf33c8ba	-0.7022816
35	0xbd66c5fc	-0.056341156
36	0xbceeb66b	-0.029139718
37	0x3d3c450a	0.04596428
38	0xbd615a58	-0.0550178
39	0xbe90604c	-0.2819847
40	0x3d8141ad	0.06311355
41	0xbed8a05c	-0.42309844
42	0xbe1b025b	-0.15137617
43	0xbd7d4cd4	-0.061840847
44	0x3db2f31a	0.08737774
45	0xbd6dc5aa	-0.058049835
46	0xc00048d9	-2.0044463
47	0xbf9c1564	-1.2194028
48	0xbeec48c5	-0.4614927
49	0xbde08800	-0.1096344
50	0xbf34f2f7	-0.70683235
51	0xc00253e9	-2.0363715
52	0x3c43f583	0.01196039
53	0xbc60a9a9	-0.013712325
54	0x3ddb1a16	0.10698335
55	0x3e97f9e9	0.29682854
56	0xbd3fca20	-0.04682362
57	0xc0024cc1	-2.0359347
58	0xbdb8b1bc	-0.09018275
59	0xbc91bcd9	-0.017790245
60	0xbdff97f7	-0.12480157
61	0x3ea1ca65	0.31599727
62	0x3e5f37ce	0.21798632
63	0x3c737f77	0.014861933

fc1.bias f4 [64]
0	0xbf9da8bf	-1.2317122
1	0xbf1740c2	-0.5908319
2	0xbee885fc	-0.45414722
3	0xbf5078ad	-0.81434137
4	0xbf8dd1f0	-1.1079693
5	0xbfde09fe	-1.7346799
6	0xbe2006b3	-0.15627556
7	0x3e347fce	0.17626879
8	0xbda80c5a	-0.08205481
9	0xbebeac4c	-0.37240827
10	0xbdf0718d	-0.11740408
11	0xbe309913	-0.17245893
12	0x3fa4672c	1.2843986
13	0xbf1f9841	-0.62341696
14	0xbf6d15ae	-0.92611206
15	0xbdd7873f	-0.10523843
16	0xbf757115	-0.95875674
17	0xbf412780	-0.754509
18	0xbeca06ef	-0.39458415
19	0xbf196457	-0.5991873
20	0xbe1fd5fa	-0.1560897
21	0xbf58450d	-0.84480363
22	0xbf639452	-0.88898194
23	0xbef58ca0	-0.4795885
24	0xbf48e1d6	-0.784696
25	0xbefd1f9b	-0.49438176
26	0xbca70aa8	-0.020390823
27	0xbffc14ea	-1.9693882
28	0x3dcfaa7e	0.10139941
29	0xbee264e6	-0.44217604
30	0xbe899c82	-0.26877218
31	0xbf349450	-0.70538807
32	0xbe7d5c75	-0.24742301
33	0xbe25d4d1	-0.16194464
34	0xbfe94399	-1.8223754
35	0xbf3ad891	-0.72986704
36	0xbe90a847	-0.28253385
37	0xbf086b53	-0.53288764
38	0xbe123038	-0.14276206
39	0xbf195497	-0.598947
40	0xbf81a359	-1.0127975
41	0xbf59b5c0	-0.85042953
42	0xbe88be94	-0.267079
43	0xbe1ebea9	-0.15502419
44	0xbf0f591e	-0.5599536
45	0xbe40e613	-0.18837766
46	0x3d570ce5	0.05250253
47	0x3d21bafd	0.039484967
48	0xbf26d165	-0.6516326
49	0xbf29e072	-0.663581
50	0xbf87e076	-1.0615375
51	0xbc09bda3	-0.008407029
52	0xbddeb4f8	-0.10874361
53	0xbcebf738	-0.028804407
54	0xbfed014c	-1.8516021
55	0xbfcbc930	-1.5920773
56	0xbf1ad250	-0.6047716
57	0xbeaeee9d	-0.34166422
58	0xbe841a64	-0.25801384
59	0xbf214c02	-0.63006604
60	0xbe475b31	-0.1946838
61	0xc01e6f5d	-2.475547
62	0xbfe4f8cd	-1.7888428
63	0xbe48e32e	-0.19617912

fc2.weight f4 [64, 64]
0	0xbdb5ffc7	-0.08886676
1	0x3eb69596	0.35661
2	0xbc9818d1	-0.01856652
3	0xbd23d6fb	-0.039999943
4	0x3e8568e3	0.26056585
5	0xbd6ecbfd	-0.058300007
6	0xbcb3418a	-0.021881837
7	0xbbe86e12	-0.0070931995
8	0xbe01e267	-0.12684022
9	0x3deb843f	0.11499833
10	0xbe93dbd6	-0.2887866
11	0xbdfe55b7	-0.124186926
12	0x3c343344	0.010998551
13	0xbd8edc11	-0.06975568
14	0xbd9cea70	-0.07661903
15	0xbd8b3243	-0.06796696
16	0x3d1e7530	0.038685977
17	0xbce7dea8	-0.028304413
18	0xbf0397a9	-0.5140329
19	0xbd5d8bb2	-0.054088302
20	0xbc9df1d1	-0.019280346
21	0x3e9dc006	0.30810565
22	0xbd2d63e4	-0.04233159
23	0xbd82a95c	-0.06379959
24	0xbd7e0266	-0.062014006
25	0x3db02271	0.08600319
26	0xbea2acd8	-0.31772494
27	0xbe709c46	-0.23497114
28	0xbc81afc6	-0.015830886
29	0xbe8d8a5e	-0.27644628
30	0xbe893ae8	-0.26802754
31	0xbe33c812	-0.1755679
32	0xbeb11f85	-0.3459436
33	0x3d980a17	0.074237995
34	0x3e8ff004	0.28112805
35	0xbd0acb8d	-0.033885527
36	0xbe930bdc	-0.28719985
37	0x3e316434	0.1732338
38	0xbe592b1a	-0.21207848
39	0xbe85027a	-0.25978452
40	0xbe8184d7	-0.2529666
41	0xbd695980	-0.05697012
42	0xbe9d1a01	-0.30683902
43	0x3dd1f07c	0.10250947
44	0xbe436a37	-0.19083486
45	0xbe0401bf	-0.12891291
46	0xbd0f5644	-0.03499438
47	0xbde938b6	-0.1138777
48	0xbdb82821	-0.08992029
49	0x3b826e60	0.003980443
50	0x3d6e3790	0.058158457
51	0xbe1e1c7a	-0.1544055
52	0xbe8aa7c5	-0.27081123
53	0xbde89eed	-0.11358438
54	0xbe7e1e0a	-0.24816146
55	0xbe280bed	-0.164108
56	0xbda51dec	-0.08062348
57	0x3e0565c1	0.13027097
58	0xbeb1fdff	-0.34764096
59	0xbf0ec4ec	-0.5576923
60	0xbe31e311	-0.17371775
61	0xbe5e0a78	-0.21683681
62	0xbde5680f	-0.11201488
63	0xbf3e0557	-0.742269
64	0xbdf2f965	-0.118639745
65	0xbdefcc03	-0.11708834
66	0xbd0a163e	-0.033712618
67	0xbe17640a	-0.14784256
68	0x3d70703c	0.058700785
69	0x3ca6d426	0.020364832
70	0x3d69a921	0.05704606
71	0xbe16fb2d	-0.14744253
72	0xbe02447a	-0.12721434
73	0xbdbd4b14	-0.09242836
74	0xbc9e672b	-0.019336304
75	0xbddd5b74	-0.10808459
76	0xbc94499c	-0.018101506
77	0xbdd05506	-0.10172467
78	0xbc1f80f0	-0.009735331
79	0xbe3f10af	-0.18658708
80	0x3cae1308	0.02124931
81	0x3d715ad4	0.05892451
82	0xbd237e51	-0.039915387
83	0xbcb23567	-0.02175398
84	0xbe398048	-0.18115342
85	0x3dba816e	0.09106718
86	0x3ddf327a	0.108982995
87	0x3d1a651a	0.037694074
88	0xbd034057	-0.03204378
89	0xbe285316	-0.16437945
90	0xbe13df31	-0.1444061
91	0x3d4e0ba3	0.050304066
92	0xbe60f5f4	-0.21968824
93	0xbbcedd4d	-0.006313002
94	0xbe20fcbe	-0.15721413
95	0xbe1799ab	-0.14804713
96	0xbdae534c	-0.08511981
97	0xbe5b6f99	-0.2142929
98	0xbe1c9ea3	-0.1529489
99	0x3dba3ce8	0.09093648
100	0x3c665022	0.014057191
101	0x3df21d0c	0.118219465
102	0xbdfdc968	-0.12391931
103	0xbe558a3e	-0.20853516
104	0x3d812d4b	0.06307467
105	0xbcda2388	-0.02662827
106	0xbe5dc118	-0.2165569
107	0xbce6a6e1	-0.028155746
108	0xbe40bac4	-0.18821245
109	0x3cb63227	0.022240711
110	0xbd3cdd63	-0.04610957
111	0xbe8c7e43	-0.2744008
112	0xbe91cd0d	-0.28476754
113	0xbc3365c0	-0.010949552
114	0xbd932bda	-0.071860984
115	0xbd8f8784	-0.070082694
116	0xbe579956	-0.21054587
117	0xbd7dc534	-0.061955646
118	0xbe35c087	-0.17749225
119	0xbe17e300	-0.14832687
120	0xbdaa6a9e	-0.08321117
121	0xbcb03624	-0.021510191
122	0xbd3de76a	-0.04636327
123	0xbdd0f10d	-0.10202227
124	0xbdd9e606	-0.106395766
125	0xbb8a43b6	-0.0042194976
126	0xbd380954	-0.04493077
127	0xbdfb06e3	-0.12257173
128	0xbea61605	-0.32438675
129	0x3d9d5f38	0.07684177
130	0xbbed62c0	-0.007244438
131	0xbdc29846	-0.095017
132	0x3de8a386	0.113593146
133	0x3ce1abc1	0.027547719
134	0xbdf88a68	-0.12135774
135	0xbe8c25d6	-0.27372617
136	0xbd3f9901	-0.046776775
137	0xbdaa0d00	-0.08303261
138	0xbc233999	-0.009962463
139	0xbe2fc777	-0.17165934
140	0x3d14a78a	0.03629259
141	0xbda493ba	-0.08035989
142	0x3d10ced4	0.035353497
143	0xbd1819bf	-0.03713393
144	0x3cf39108	0.029732242
145	0x3dd45504	0.10367778
146	0xbe068142	-0.13135245
147	0xbe08ab6c	-0.13346642
148	0xbe274427	-0.16334592
149	0xbba81940	-0.005129963
150	0xbd728b80	-0.05921507
151	0xbd4675f4	-0.048452333
152	0xbcd1eb20	-0.025624812
153	0xbd13dc1d	-0.03609859
154	0x3cedec3b	0.029043308
155	0xbd36ccbf	-0.044628855
156	0xbd24ef90	-0.040267527
157	0xbe103ca6	-0.14085636
158	0xbe42df82	-0.19030574
159	0x3ccdd288	0.025124803
160	0xbdd25c6a	-0.10271533
161	0x3cceb318	0.025231883
162	0x3b978400	0.00462389
163	0xbda323f0	-0.07965839
164	0xbc0cafbd	-0.008586821
165	0x3d8f779a	0.07005234
166	0xbd94dfe7	-0.072692685
167	0xbd917b62	-0.071036115
168	0xbe0898d8	-0.13339555
169	0x3ae1a000	0.0017213821
170	0xbe19f4e7	-0.15034829
171	0xbe18a6fe	-0.14907452
172	0xbc98bf40	-0.018645883
173	0xbdec9aac	-0.11552939
174	0x3cfb5f50	0.030685097
175	0xbde3083a	-0.110855535
176	0xbda28a01	-0.079364784
177	0xbd436bc4	-0.047710195
178	0xbde9f2c4	-0.11423257
179	0x3d57d925	0.05269732
180	0xbd60196a	-0.054711737
181	0x3d80e4bb	0.06293627
182	0xbdce98bf	-0.10087728
183	0xbde65a47	-0.11247688
184	0xbdf0aacc	-0.11751327
185	0xbd425c54	-0.047451332
186	0x3b5562fe	0.0032560225
187	0xbe528a5c	-0.20560592
188	0xbd331474	-0.043720677
189	0xbb8d25ec	-0.004307499
190	0xbc2aae51	-0.010417537
191	0xbd098b29	-0.03357998
192	0xbe2a2a31	-0.16617657
193	0xbd65bfc8	-0.0560911
194	0xbe0c8005	-0.1372071
195	0xbe14fec7	-0.14550315
196	0x3d55ab90	0.052165568
197	0xbe3c3b7e	-0.1838207
198	0xbe26b785	-0.16280945
199	0xbda38679	-0.07984633
200	0xbe396fe1	-0.18109085
201	0xbdd720c6	-0.10504298
202	0xbd0bed12	-0.034161635
203	0xbd6f3df1	-0.05840868
204	0x3bb0492e	0.0053798174
205	0xbe6b8671	-0.23000504
206	0x3a8e7380	0.0010868162
207	0xbdfb2dc8	-0.122645915
208	0xbd8f2f62	-0.069914594
209	0xbd900382	-0.07031919
210	0xbd900999	-0.070330806
211	0xbdcf9724	-0.1013625
212	0xbe3c093d	-0.18362899
213	0xbdb471ac	-0.08810744
214	0xbdd41a6c	-0.10356602
215	0x3c188513	0.009309071
216	0xbda4d805	-0.08049015
217	0xbdef8b4c	-0.11696491
218	0xbe186333	-0.14881591
219	0xbe4a15f8	-0.19734943
220	0xbe5f359e	-0.21797797
221	0xbe367b1b	-0.17820399
222	0xbd54bc65	-0.05193748
223	0xbda7c482	-0.08191778
224	0xbe16cb30	-0.14725947
225	0xbe1facd4	-0.15593272
226	0x3da3894e	0.07985173
227	0x3db88946	0.09010558
228	0x3ca6136b	0.020272931
229	0x3d155a70	0.0364632
230	0xbd2795b9	-0.04091427
231	0xbe20e0e0	-0.15710783
232	0xbe3842a4	-0.17994171
233	0xbdfacc6c	-0.12246022
234	0xbcc628c8	-0.024189368
235	0xbe0d39d2	-0.13791588
236	0xbdbf1999	-0.09331054
237	0xbdca65fe	-0.09882735
238	0xbe7c4644	-0.24636179
239	0xbe1cd76a	-0.15316549
240	0xbd45453a	-0.048161723
241	0xbccf4210	-0.025300056
242	0xbe5dc5ac	-0.21657437
243	0xbda2177a	-0.07914634
244	0xbdc174b6	-0.09446089
245	0xbe03bd27	-0.12865125
246	0xbd794230	-0.060854137
247	0xbdb469fe	-0.08809279
248	0xbd3cd3c0	-0.046100378
249	0x3b4f651d	0.0031645962
250	0xbd136b92	-0.03599126
251	0xbe0fb5d4	-0.14034206
252	0xbe29e501	-0.16591264
253	0xbe644459	-0.22291698
254	0xbd4c1c02	-0.049831398
255	0xbe0e93fe	-0.13923642

fc2.bias f4 [64]
0	0xbf3138a5	-0.6922706
1	0xbe05675f	-0.13027714
2	0xbefcb39b	-0.49355778
3	0xbe193892	-0.14962986
4	0xbe8f53ad	-0.27993527
5	0xbd4cfd29	-0.05004612
6	0xbf8183d2	-1.0118353
7	0xbf705235	-0.9387544
8	0xbeaea151	-0.3410745
9	0x3f8bfda1	1.0936776
10	0xbe11b7f7	-0.14230333
11	0xbe446fcc	-0.19183272
12	0xbe51f955	-0.20505269
13	0xbe29f651	-0.16597869
14	0xbf250230	-0.6445646
15	0xbe23a76a	-0.15981832
16	0xbdc779f4	-0.097400576
17	0xbe0bcc8d	-0.13652249
18	0xbe499bae	-0.19688293
19	0xbe96266a	-0.29326183
20	0x3ec60ebb	0.38683113
21	0x3ea1871a	0.31548387
22	0xbe353968	-0.1769768
23	0x3fdde9a2	1.7336924
24	0xbd372f32	-0.044722743
25	0xbecb1c55	-0.39670053
26	0xbd941e74	-0.07232371
27	0xbe8bf349	-0.2733405
28	0xbe4e4db5	-0.2014683
29	0xbed31d05	-0.41233078
30	0xbe879e2c	-0.26487863
31	0xbe273d15	-0.16331895
32	0xbf014617	-0.50497574
33	0xbe4d9103	-0.20074849
34	0xbc011f46	-0.007880991
35	0xbdba120f	-0.09085476
36	0xbea59fd5	-0.32348505
37	0xbeb5ea99	-0.35530546
38	0xbe10ac08	-0.14128125
39	0xc0276403	-2.6154792
40	0xbe6524cd	-0.2237732
41	0xbe1b4619	-0.15163459
42	0xbea25806	-0.31707782
43	0xbf29a5a4	-0.6626837
44	0x3f5d1d2e	0.8637265
45	0xbe6f7986	-0.23386201
46	0xbdf60afe	-0.12013815
47	0xbf4c44de	-0.79792583
48	0xbec9f588	-0.39445138
49	0xbecd722c	-0.4012617
50	0xbdf7ef5f	-0.12106203
51	0xbe480856	-0.1953443
52	0xbeaab818	-0.33343577
53	0xbf26f812	-0.65222275
54	0xbe4fd77f	-0.20297049
55	0xbeb45b6c	-0.35226
56	0xbe50e1f0	-0.20398688
57	0xbc33525f	-0.010944932
58	0xbdd9ddba	-0.10637994
59	0xbde26716	-0.11054818
60	0xbe9df871	-0.30853608
61	0xbf12eef5	-0.5739587
62	0xbcedd5d2	-0.029032622
63	0x3e82241e	0.2541818

fc3.weight f4 [32, 64]
0	0xbca8dcde	-0.02061313
1	0x3d7c22e5	0.061556716
2	0x3ded402d	0.11584506
3	0xbe102e6a	-0.14080206
4	0xbe8b701f	-0.2723398
5	0x3cd61599	0.026133345
6	0xbcc28852	-0.023746643
7	0xbf280755	-0.6563619
8	0xbeff73e7	-0.49893114
9	0x3ff11bfb	1.8836664
10	0x3dd044d2	0.101693764
11	0x3e5056d8	0.20345628
12	0xbe78432c	-0.24244374
13	0xbd88d3e7	-0.06681042
14	0x40882d7f	4.2555537
15	0xbc8cf897	-0.01720838
16	0x3e81fac2	0.25386626
17	0x3b96b890	0.0045996383
18	0xbe933617	-0.28752205
19	0xbe839c37	-0.2570512
20	0x3fdaf393	1.7105583
21	0xbf54ed06	-0.8317417
22	0x3dadfa55	0.08495013
23	0xbf9e794f	-1.238077
24	0xbd3d201d	-0.046173204
25	0xbb5ab398	-0.0033371206
26	0x3d8ab03e	0.06771897
27	0xbf03e757	-0.5152487
28	0xbcd6a619	-0.026202248
29	0x3d5ae394	0.05343969
30	0xbc86d09a	-0.01645689
31	0xbd11f91b	-0.035637956
32	0xbe125ebb	-0.1429395
33	0xbe5fdda2	-0.2186189
34	0x3c00ebd6	0.007868728
35	0xbe94ec52	-0.29086548
36	0x3e44a710	0.19204354
37	0xbdf011d6	-0.11722152
38	0x3df39473	0.11893549
39	0x3ed4dfaa	0.41576892
40	0xbd69e9e2	-0.057107814
41	0xbcd96adb	-0.02654021
42	0x3da83a25	0.08214215
43	0x3f1a6357	0.6030783
44	0x4028f762	2.640099
45	0xbe4004bd	-0.18751808
46	0xbd7fe95a	-0.0624784
47	0x3f8a09cf	1.0784243
48	0xbd4fce48	-0.050733835
49	0xbd9875c4	-0.07444337
50	0xbe0c0473	-0.13673572
51	0xbc961724	-0.018321581
52	0x3dbf8fdc	0.09353611
53	0x3f062199	0.52395016
54	0xbdc2efb5	-0.09518377
55	0xbd63c53c	-0.05560802
56	0xbd55e07d	-0.05221604
57	0x3f54a779	0.83068043
58	0xc00672ec	-2.1007643
59	0x3d16dada	0.036829807
60	0xbe2af107	-0.16693507
61	0xbf3d593a	-0.73964274
62	0x3ec6a4c6	0.38797587
63	0xbdc30c9f	-0.09523892
64	0xbed7c228	-0.42140317
65	0x3cdbe358	0.026841804
66	0x3df6d91a	0.120531276
67	0xbdf08ada	-0.11745234
68	0xbd479eb7	-0.048735347
69	0xbd791f5e	-0.06082093
70	0x3d7963dc	0.06088625
71	0x3e364214	0.17798644
72	0x3f3a8189	0.72853905
73	0x3fa39d92	1.2782462
74	0xbdf6a40c	-0.12043008
75	0xbce5b64f	-0.028041033
76	0x3e770f6a	0.24126974
77	0x3d335e26	0.04379096
78	0x3f0bba1e	0.5458087
79	0xbc8b1a70	-0.01698038
80	0x3da4acb9	0.08040757
81	0xbd9c9af9	-0.07646746
82	0xbe3a5587	-0.18196689
83	0x3e5eefcd	0.21771164
84	0x3fce431b	1.6114229
85	0xbf3243d8	-0.6963477
86	0xbd8b6ea1	-0.0680821
87	0x3f3586be	0.70908725
88	0xbc0d4f69	-0.00862489
89	0xbd565f8f	-0.052337226
90	0xbcbd4833	-0.023105716
91	0xbf0bf520	-0.54670906
92	0xbd6bf909	-0.057610545
93	0x3e8e5084	0.27795804
94	0xbdfd45cc	-0.12366828
95	0xbdfc5f9d	-0.12322924
96	0xbe255d94	-0.16148978
97	0xbdfb1429	-0.122597046
98	0xbf72610e	-0.94679344
99	0xbe9b8b90	-0.30379915
100	0x3e72265c	0.23647445
101	0xbe3fe776	-0.18740639
102	0x3e05f961	0.13083412
103	0xbeeba3f2	-0.46023518
104	0xbe06105a	-0.13092175
105	0x3e207103	0.1566811
106	0xbcece5a2	-0.028918091
107	0xbf07bb31	-0.53020006
108	0x400b65fd	2.1780999
109	0xbd5e47e7	-0.05426779
110	0x3cde8b73	0.027166104
111	0x4008b4a7	2.1360261
112	0x3dac8058	0.08422917
113	0xbc097569	-0.008389809
114	0xbcd6426f	-0.026154725
115	0x3cb5925a	0.022164512
116	0xbc8d8be0	-0.017278612
117	0xbf6d05b4	-0.9258683
118	0xbe2f14e9	-0.1709782
119	0x3bea94bf	0.007158845
120	0x3e74a870	0.23892379
121	0x3fabc987	1.3420876
122	0xbf29cb87	-0.66326183
123	0xbd74228d	-0.059603263
124	0xbf412116	-0.7544111
125	0x3ffaa2e6	1.9580963
126	0x3f83e27c	1.0303493
127	0xbf36ab85	-0.7135547
128	0xbf5eba47	-0.87002987
129	0xbdd0272e	-0.10163723
130	0xbe0a39f7	-0.13498674
131	0x3dff2e66	0.12460022
132	0xbe231ed6	-0.15929732
133	0x3c40daa6	0.01177088
134	0xbe25cda8	-0.16191733
135	0x3eb123ec	0.3459772
136	0x3f3a673b	0.7281377
137	0x3fcdb4da	1.6070817
138	0xbd809f9b	-0.06280442
139	0x3e7ee0f1	0.24890496
140	0xbdb9bd0b	-0.0906926
141	0x3c3944af	0.011307879
142	0xbdc23029	-0.09481842
143	0xbddaab19	-0.106771655
144	0xbf248814	-0.6427014
145	0x3e00007a	0.12500182
146	0xbdd02399	-0.1016304
147	0x3eb958e1	0.36200622
148	0x3e109b2d	0.14121695
149	0xbf107366	-0.56426084
150	0x3d616bde	0.05503451
151	0x3f135ff8	0.5756831
152	0x3cc8440a	0.024446506
153	0x3daa4c78	0.083153665
154	0xbd426b1a	-0.04746542
155	0xbf3dc01f	-0.7412128
156	0xbcc22a9e	-0.023701962
157	0x3d1f0fcf	0.038833436
158	0x3de4dd8b	0.111750685
159	0xbe88da0c	-0.26728857
160	0x3e23af45	0.15984829
161	0x3e02f65f	0.12789296
162	0xbf020c4d	-0.5080002
163	0x3d1b7d87	0.03796151
164	0xbe23e253	-0.16004305
165	0xbd834bc4	-0.064109355
166	0xbf1c1327	-0.60966724
167	0xbe4792ee	-0.19489643
168	0x3d87b2ff	0.06625938
169	0xbe3bfd0e	-0.18358251
170	0x3d7908a3	0.060799252
171	0xbe82af09	-0.25524166
172	0xbf828e69	-1.019971
173	0x3e139a50	0.14414334
174	0xbdb7fa63	-0.08983304
175	0x3f7930e6	0.9734024
176	0xbe2d16ef	-0.1690328
177	0x3d1bddd3	0.038053345
178	0x3e0a6e3b	0.13518612
179	0xbd83eba3	-0.064414285
180	0x3d02e661	0.031957988
181	0x3f7acff2	0.9797355
182	0x3e0bf183	0.13666348
183	0x3f38a10c	0.7212074
184	0xbe4663fe	-0.19374081
185	0xbf35962c	-0.7093227
186	0xbf1d1933	-0.61366576
187	0x3cd1619a	0.025559235
188	0xbf481fae	-0.7817334
189	0x3d26fe04	0.040769592
190	0x3fab1f76	1.3368976
191	0x3f8b554d	1.0885407
192	0xbf2dc883	-0.6788408
193	0x3cdca784	0.026935346
194	0xbb46875f	-0.003029309
195	0x3d3fcf20	0.04682839
196	0xbd24a34d	-0.0401948
197	0xbe330603	-0.17482762
198	0xbdba0bbe	-0.09084271
199	0x3f86b1e2	1.0523036
200	0xbf555424	-0.83331513
201	0xbe23318b	-0.15936868
202	0xbdced373	-0.100989245
203	0xbea75db7	-0.32688686
204	0x3e12cffc	0.14337152
205	0xbe2fa8bf	-0.17154215
206	0xbef300d6	-0.47461575
207	0x3d762cb6	0.060101233
208	0x3d9192ea	0.071081
209	0xbe77d680	-0.24202919
210	0xbe2bac99	-0.1676506
211	0xbeb5ab79	-0.35482386
212	0x3f898c2b	1.0745901
213	0xbd19fd83	-0.037595283
214	0x3e4e7ee7	0.20165597
215	0xbebf3f43	-0.37352952
216	0x3c8d3b09	0.017240064
217	0x3e44a252	0.19202545
218	0x3ed03e62	0.40672594
219	0x3ee487c1	0.44634822
220	0x3e1cd8cd	0.15317078
221	0xbdaa481f	-0.08314537
222	0xbdcc6ce1	-0.099817045
223	0x3ebe193e	0.37128633
224	0xbd34743e	-0.04405617
225	0xbe5cebc3	-0.21574311
226	0xbe3a2955	-0.1817983
227	0xbf8bfcd4	-1.0936532
228	0xbea250f3	-0.31702384
229	0x3d9cd84a	0.07658441
230	0x3f26be5c	0.65134215
231	0x3eb585bd	0.35453597
232	0x3e5fb756	0.21847281
233	0xbe2ae3b8	-0.1668843
234	0x3df3e280	0.11908436
235	0x3f9065c7	1.128106
236	0x3f36d8e1	0.7142468
237	0x3c1757a3	0.009237203
238	0x3e392226	0.18079433
239	0x3e8e4e3d	0.27794066
240	0x3e0658f0	0.13119864
241	0xbdac9dc7	-0.08428531
242	0x3dd9b4de	0.10630201
243	0xbc198a24	-0.009371314
244	0x3e3305fb	0.1748275
245	0xbe84e8a2	-0.25958735
246	0x3d77bda1	0.06048358
247	0xbee0bf25	-0.43895832
248	0x3d8cb9fc	0.06871411
249	0xbf2ca17d	-0.6743391
250	0x3e3b0a51	0.18265654
251	0x3e461645	0.19344433
252	0x3ee6a2b1	0.45046
253	0x3ebd0776	0.36919755
254	0x3f0a5626	0.540377
255	0xbe4b0ffd	-0.19830318

fc3.bias f4 [32]
0	0x3fcdb8ec	1.6072059
1	0xbe525d3b	-0.20543377
2	0xbe168932	-0.14700773
3	0x3f08e7a2	0.53478444
4	0xbfab05a4	-1.3361096
5	0xc000c5ec	-2.0120802
6	0xbf85098a	-1.0393536
7	0x3e1feda6	0.15618
8	0xbfb580cd	-1.4179932
9	0xbfc849e4	-1.564755
10	0xbfe2fbeb	-1.7733129
11	0x3ff22b98	1.8919554
12	0xbfcc02da	-1.593837
13	0xbf16f243	-0.5896341
14	0xbfc23068	-1.5171022
15	0x4042ff86	3.046846
16	0x3e853eab	0.26024374
17	0xbe7b1517	-0.24519764
18	0xbfc83bf8	-1.5643301
19	0xbfcbfe66	-1.5937011
20	0xbfacf7dd	-1.3513142
21	0xbfaf7679	-1.370803
22	0xbfac5dd6	-1.3466136
23	0x406207d0	3.5317268
24	0xc002a6bb	-2.0414264
25	0xbd80ec4b	-0.06295069
26	0xbebd33fe	-0.3695373
27	0x40878be6	4.2358274
28	0xbe82a818	-0.2551887
29	0x3d0f41ed	0.03497498
30	0x3ec0eb37	0.37679455
31	0xc057b487	-3.3703935

in_fn.weight f4 [33]
0	0x3fe2a365	1.7706114
1	0x3f0b2ab4	0.54362035
2	0x3d8b4f80	0.06802273
3	0x3e934b6f	0.2876849
4	0xbe85e27c	-0.26149356
5	0x3dfe03eb	0.12403091
6	0x3e8d75c7	0.2762892
7	0xbe5fe8e3	-0.21866183
8	0x3f257130	0.64625835
9	0x3e7122bb	0.23548405
10	0xbd4082d7	-0.04699978
11	0xbe4611b2	-0.19342688
12	0xbf083093	-0.5319912
13	0x3e162f8b	0.14666574
14	0x3e8965bb	0.26835427
15	0x3e037a93	0.12839727
16	0x3f0d5ad4	0.5521672
17	0x3e61ff3a	0.22070017
18	0xbe9d27f2	-0.30694538
19	0xbe81957c	-0.2530936
20	0x3e6a7937	0.22897802
21	0xbe7ad72a	-0.24496141
22	0xbded9fc2	-0.11602737
23	0x3e9582b2	0.29201275
24	0x3f482c50	0.78192616
25	0xbe6ec90c	-0.23318881
26	0x3ee67b2e	0.45015854
27	0x3ea18e58	0.31553912
28	0x3f616406	0.8804325
29	0x3e546d37	0.20744787
30	0x3f074ccb	0.5285155
31	0x3e86fe27	0.26365778
32	0x3f8fef0d	1.1244828

in_fn.bias f4 [33]
0	0x3e3e48ed	0.18582506
1	0x3ef2c2a9	0.4741414
2	0x3dedccfa	0.11611362
3	0x3e1c2da1	0.15251781
4	0x3c7dca58	0.015490137
5	0xbce3d768	-0.027812675
6	0xbe74caf4	-0.23905545
7	0x3dc6a816	0.097000286
8	0x3ca91bbc	0.020643108
9	0x3c865f9d	0.016403014
10	0xbbf63ef8	-0.0075148307
11	0x3d7102f3	0.058840703
12	0x3c869bf5	0.016431788
13	0xbce0ad0d	-0.027426267
14	0xbc12b4e0	-0.008954257
15	0x3bca2cf8	0.0061699115
16	0x3e124278	0.14283168
17	0x3e7c4d2c	0.24638814
18	0x3d7551e9	0.05989257
19	0xbcb1ebba	-0.021718848
20	0xbc415314	-0.0117995925
21	0x3e508924	0.20364815
22	0x3a3a006c	0.00070954
23	0x3b8d7ed6	0.0043180985
24	0x3f0b8acb	0.54508656
25	0x3dbd1342	0.09232189
26	0x3ddaa155	0.10675303
27	0x3dbe6c8d	0.09298048
28	0x3f281996	0.6566404
29	0x3d425e0e	0.04745298
30	0x3e9915c3	0.29899415
31	0x3eb03c07	0.34420797
32	0x3eca3c8e	0.39499325

in_fn.running_mean f4 [33]
0	0x400e60ea	2.2246652
1	0x3cca0c37	0.024664028
2	0x3b99decf	0.0046957503
3	0x3cc93e2f	0.024565784
4	0x3b8f00a8	0.004364092
5	0x3b087b08	0.0020825285
6	0x3b9b8959	0.0047465977
7	0x3acc18c7	0.0015571349
8	0x3c5a8ddc	0.013339486
9	0x3baa5b03	0.0051988377
10	0x3a88fb80	0.0010450929
11	0x3c11ac39	0.008891159
12	0x3dd96998	0.106158435
13	0x3b2b2ab4	0.0026117982
14	0x3bd3e3b5	0.006466354
15	0x3bd6aad6	0.006551127
16	0x3d97ff51	0.074217446
17	0x3bc12c9f	0.005895212
18	0x3d0960b8	0.033539504
19	0x3ae7d913	0.0017688595
20	0x3ad5c700	0.0016309917
21	0x3beb6599	0.0071837422
22	0x3b5a2052	0.0033283425
23	0x3b0ea99f	0.0021768583
24	0x3e1e35b9	0.15450181
25	0x3a875135	0.0010323884
26	0x3ca695c4	0.020335086
27	0x3c4ee3ee	0.012627585
28	0x3e801e78	0.25023246
29	0x3bd1c458	0.00640158
30	0x3cac0033	0.020996189
31	0x3c0c9d01	0.0085823545
32	0x3e36e5eb	0.17861144

in_fn.running_var f4 [33]
0	0x40db43c9	6.8520246
1	0x3cc48866	0.023990821
2	0x3b99010a	0.0046693133
3	0x3cc387ea	0.02386852
4	0x3b8e44e1	0.004341707
5	0x3b0829e1	0.0020776915
6	0x3b9acab8	0.004723873
7	0x3acbdef0	0.0015554111
8	0x3c55f439	0.0130587155
9	0x3ba979f1	0.0051720073
10	0x3a88d5cf	0.0010439696
11	0x3c103003	0.008800509
12	0x3dbfab88	0.09358889
13	0x3b2a83e2	0.002601855
14	0x3bd1f2d3	0.0064071207
15	0x3bd51a45	0.0065033757
16	0x3d8cae39	0.06869168
17	0x3bc01707	0.00586212
18	0x3d044c7c	0.032299504
19	0x3ae76adf	0.0017655751
20	0x3ad5113e	0.0016255749
21	0x3be9714e	0.0071241027
22	0x3b5903ae	0.0033113766
23	0x3b0e3931	0.002170157
24	0x3e04f880	0.1298542
25	0x3a871883	0.0010306988
26	0x3ca03173	0.01955483
27	0x3c4a72f3	0.012356508
28	0x3e40155d	0.1875815
29	0x3bd00e4a	0.0063493596
30	0x3ca573de	0.020196851
31	0x3c0b2438	0.008492522
32	0x3e13c4ae	0.14430496

fc1.weight f4 [64, 33]
0	0xbe956534	-0.29178774
1	0xbf1ecf87	-0.6203541
2	0xbfb8db47	-1.4441918
3	0xbed13ef8	-0.40868354
4	0xbe1517b7	-0.14559828
5	0xbe9ace5c	-0.30235565
6	0x3f2eed7a	0.6833111
7	0xbf0a5d2b	-0.54048413
8	0x3e4cb47d	0.19990726
9	0xbf06cd1f	-0.5265674
10	0x3e566e56	0.20940527
11	0xbec4bb25	-0.3842403
12	0x3dccfda3	0.10009315
13	0xbce3c8d2	-0.02780572
14	0x3e9c7585	0.3055841
15	0x3ea56aa5	0.32307926
16	0x3e9c028d	0.30470696
17	0xbf70538e	-0.93877494
18	0xbebf9120	-0.3741541
19	0x3efa6c26	0.48910636
20	0x3ec3f898	0.382756
21	0xbee37ffd	-0.44433585
22	0x3ed06234	0.40699923
23	0x3d4fc954	0.05072911
24	0xbed4b1f3	-0.41542014
25	0x3e630893	0.2217124
26	0xbde2be7c	-0.11071488
27	0xbe207f1d	-0.1567349
28	0xbed521a5	-0.4162723
29	0xbc7f5dd1	-0.015586332
30	0xbea3f2bc	-0.3202113
31	0xbf2697bf	-0.65075296
32	0x3ef81f7b	0.48461518
33	0xbe19e62f	-0.15029214
34	0xbef9b466	-0.48770446
35	0xbf7565f1	-0.95858675
36	0xbead4d21	-0.33847907
37	0xbe765902	-0.24057391
38	0xbe7f7ea8	-0.2495066
39	0x3f1a1dd5	0.6020177
40	0xbe68955e	-0.22713229
41	0x3f479e59	0.77975994
42	0x3e5520bd	0.2081327
43	0x3f0d8bbb	0.55291337
44	0xbed711cc	-0.42005765
45	0xbe3f88ff	-0.18704604
46	0xbe7d9b17	-0.24766193
47	0x3e7801d4	0.24219447
48	0x3e4fed38	0.20305336
49	0x3e82ab93	0.25521526
50	0xbf1dd6d7	-0.61655945
51	0xbeb937e2	-0.36175448
52	0x3da6ee94	0.08150974
53	0x3dc517ca	0.09623678
54	0xbe8eb8cb	-0.2787536
55	0x3e4b009f	0.19824456
56	0x3df1fb78	0.11815542
57	0x3cdb09d9	0.026738094
58	0xbd7350fd	-0.05940341
59	0xbf1407b3	-0.5782425
60	0xbf218ab9	-0.631023
61	0xbe8ba169	-0.27271584
62	0xbdfcc33f	-0.12341928
63	0x3e891591	0.26774266
64	0xbec4e7b7	-0.38458034
65	0x3e4a7fef	0.19775365
66	0xbf7b81db	-0.9824502
67	0xbf392ee5	-0.7233718
68	0xbfb163fe	-1.385864
69	0xbfca52eb	-1.5806555
70	0x3e43b3f4	0.19111615
71	0xbf5a74e9	-0.8533464
72	0x3f48b529	0.7840143
73	0xbf4195eb	-0.7561938
74	0x3d077300	0.033068657
75	0x3c45ac53	0.012065011
76	0x3db9f532	0.090799704
77	0xbf6dd7c1	-0.9290734
78	0xbea6b038	-0.3255632
79	0x3f34b2ee	0.70585525
80	0x3eb450a1	0.35217765
81	0x3e84232a	0.25808078
82	0x3d5c8dfc	0.053846344
83	0xbfcee0f0	-1.6162395
84	0xbe5f046a	-0.21779028
85	0x3f07b482	0.5300981
86	0x3d34c2a2	0.04413093
87	0xbf32bfc4	-0.6982386
88	0x3ec08e68	0.37608647
89	0x3d8bea79	0.068318315
90	0x3d6ea22e	0.058260135
91	0xbe0434bf	-0.12910746
92	0xbf2a8fe0	-0.66625786
93	0x3df744a7	0.12073641
94	0xbf6d9d04	-0.9281771
95	0xbeb8c515	-0.36087862
96	0xbcf1cb42	-0.029515866
97	0xbe34295a	-0.175939
98	0x3f08bf34	0.5341675
99	0xc003cf79	-2.0595381
100	0xbebb65c7	-0.36601087
101	0x3dbe294a	0.09285219
102	0xbf10e355	-0.5659688
103	0x3d89a928	0.06721717
104	0x3eb55688	0.3541758
105	0x3e6ff3f3	0.23432903
106	0x3e1b624d	0.15174218
107	0x3cf1af30	0.029502481
108	0xbf1d93cc	-0.61553645
109	0xbd8c1f88	-0.068419516
110	0x3cae0106	0.021240722
111	0x3d113fd7	0.035461273
112	0xbcdb37cc	-0.026760004
113	0x3e4e5008	0.20147717
114	0x3dae5bee	0.08513628
115	0xbcde99d8	-0.027172968
116	0x3e9c1cc0	0.30490685
117	0xbe28c81c	-0.16482586
118	0x3ded48d3	0.11586156
119	0x3d99598a	0.07487781
120	0xbd3faf98	-0.04679832
121	0x3e0acc2b	0.13554446
122	0xbecac6e3	-0.39604864
123	0x3cb6ed6f	0.022330014
124	0x3d07dff7	0.033172574
125	0x3db13c75	0.086541094
126	0x3e9d80e0	0.30762386
127	0x3d302cd7	0.043011513
128	0xbe125685	-0.14290817
129	0xbf338291	-0.70121104
130	0xbef4400f	-0.47705123
131	0x3ff20a75	1.8909441
132	0xbef161fe	-0.47145075
133	0xbf13f8f1	-0.5780173
134	0xbf8d3121	-1.1030618
135	0xbefadae1	-0.48995116
136	0xbe1ac264	-0.15113217
137	0x3dd92902	0.10603525
138	0x3f8e8755	1.113505
139	0xbe112db1	-0.14177586
140	0x3f40082c	0.7501247
141	0xbe0fa4df	-0.14027737
142	0x3d26fe43	0.040769827
143	0xbe9ff1e1	-0.31239226
144	0xbf1fac17	-0.62371963
145	0xbd5a60c2	-0.05331493
146	0x3e3332e0	0.17499876
147	0x3eb9e9ba	0.36311132
148	0x3f1b2193	0.60598105
149	0xbfa87840	-1.3161697
150	0xbe14279a	-0.14468232
151	0x3e84caf7	0.259361
152	0x3ec76180	0.38941574
153	0xbf0fa397	-0.56108993
154	0x3df91c12	0.12163557
155	0x3d5249d6	0.051339947
156	0xbf60635b	-0.87651604
157	0x3e9fc631	0.31205896
158	0x3cf52e6d	0.029929364
159	0xbf8392fa	-1.0279229
160	0x3dc13437	0.09433787
161	0x3e14981b	0.14511149
162	0xbf1e8779	-0.61925465
163	0xbf4bb986	-0.7957996
164	0x3e9a715e	0.30164617
165	0xbe54a3dc	-0.20765632
166	0x3eb41692	0.3517347
167	0xbf5b2c04	-0.8561404
168	0x3e006f5d	0.12542482
169	0xbe4ea976	-0.20181832
170	0xbcc28799	-0.023746299
171	0x3f22629f	0.63431734
172	0xbe742270	-0.23841262
173	0x3f51525e	0.8176631
174	0xbf05c862	-0.52258885
175	0xbdf3b221	-0.1189921
176	0xbe85955b	-0.26090512
177	0xbed7a815	-0.42120424
178	0xbe0c63bf	-0.13709925
179	0x3b79c64e	0.0038112584
180	0x3e8fc5e5	0.2808067
181	0x3ecd8bca	0.40145713
182	0xbf00e404	-0.50347924
183	0x3c08c1ef	0.008347019
184	0x3effae37	0.49937603
185	0x3e2a2d52	0.16618851
186	0xbeb8b7d0	-0.36077738
187	0x3e3e3ec1	0.18578626
188	0x3e350254	0.1767667
189	0xbe371a6b	-0.17881171
190	0xbd0fd3b1	-0.035113994
191	0xbe7c9bc5	-0.24668796
192	0xbe6cfded	-0.2314374
193	0xbf208db3	-0.62716216
194	0xbe814bc1	-0.25253108
195	0xbf8cdc1b	-1.1004671
196	0xbf880f58	-1.0629683
197	0x3ed88468	0.42288518
198	0xbc97269e	-0.018451031
199	0x3e0eed3a	0.13957682
200	0xbe9fd65a	-0.31218225
201	0xbf0bf054	-0.54663587
202	0xbe2ee021	-0.17077686
203	0x3d491e4f	0.04910117
204	0x3e906e48	0.28209138
205	0xbe052bda	-0.1300501
206	0x3e635a83	0.22202496
207	0xbda692d5	-0.08133475
208	0xbe11416c	-0.14185113
209	0xbd39cfad	-0.04536407
210	0x3dc2d412	0.095131055
211	0xbe3baeef	-0.1832845
212	0x3e40d4a0	0.1883111
213	0x3d3afd83	0.045651924
214	0x3e814323	0.25246534
215	0xbf862251	-1.0479223
216	0x3d24f7aa	0.040275253
217	0xbe4cb19b	-0.19989626
218	0x3b2cb200	0.0026351213
219	0xbdc7de26	-0.09759168
220	0x3e1dc9e6	0.1540905
221	0xbd8700c3	-0.06591942
222	0x3d638925	0.055550713
223	0xbcedd2d2	-0.029031191
224	0xbd987027	-0.07443266
225	0x3dc521d9	0.096255966
226	0xbba82a47	-0.005131993
227	0x3e3296da	0.17440358
228	0x3dfbe0d9	0.12298746
229	0x3da53a7b	0.08067795
230	0x3e34f4a3	0.17671447
231	0x3d43bdd7	0.047788467
232	0xbd7e88b9	-0.062142108
233	0xbebc478b	-0.36773333
234	0xbea212be	-0.31654924
235	0xbe0c99f1	-0.13730599
236	0xbee3ce7d	-0.44493476
237	0x3e8109b1	0.25202706
238	0xbd6743be	-0.05646109
239	0xbdc470f1	-0.09591854
240	0xbcfaf60a	-0.030634899
241	0x3df28134	0.1184105
242	0xbcea5020	-0.02860266
243	0x3e171ce2	0.14757112
244	0x3ec6b6b9	0.3881128
245	0x3e6f54a2	0.23372129
246	0x3e87a9ca	0.26496726
247	0xbe11b0c3	-0.14227585
248	0xbea0e3c0	-0.3142376
249	0x3c807c47	0.01568426
250	0x3deeb6a4	0.1165593
251	0xbdb9372f	-0.090437286
252	0xbe34ea65	-0.1766754
253	0x3e669752	0.22518662
254	0xbdaa759a	-0.08323212
255	0xbe1f63ff	-0.15565489

fc1.bias f4 [64]
0	0xbfe626e7	-1.7980622
1	0xbfc313e8	-1.524045
2	0xbfd08a0d	-1.629213
3	0xbf6f2369	-0.93413407
4	0xbfb2e247	-1.3975304
5	0xbfdf31d0	-1.7437077
6	0xbfa098cd	-1.2546631
7	0xbff67f9c	-1.9257693
8	0xbfdb34b4	-1.7125459
9	0xbeddc911	-0.43317464
10	0xbfe812ad	-1.8130699
11	0xc002dff9	-2.0449202
12	0xbfd935e2	-1.6969569
13	0xc0113afd	-2.2692254
14	0xbff54671	-1.9162122
15	0xbf53e59d	-0.8277224
16	0xbffc129d	-1.969318
17	0xbfa3ae93	-1.2787651
18	0xbf75be46	-0.9599346
19	0x3f03e49b	0.515207
20	0xbfd7e0c7	-1.6865472
21	0xbfaab24a	-1.333566
22	0xbede3832	-0.4340225
23	0xbe96fd4c	-0.29490125
24	0xc0283e19	-2.6287901
25	0xbfa21937	-1.2663945
26	0xbfa31c9b	-1.2743105
27	0xbfcc6609	-1.5968639
28	0xc02fbaca	-2.7457757
29	0xbe900f65	-0.28136745
30	0xbfebb6e5	-1.841519
31	0xbfc8b59c	-1.5680423
32	0xbf955f2d	-1.166967
33	0xbfc68830	-1.5510311
34	0xbffe66aa	-1.987508
35	0xbf762f08	-0.96165514
36	0xbfbf9663	-1.4967769
37	0xbf4912d9	-0.78544384
38	0x3d9ccf0c	0.076566786
39	0xbfc23bc2	-1.5174487
40	0xbfd15df3	-1.6356796
41	0xc0097b8c	-2.1481657
42	0xc016af68	-2.354456
43	0xc01f9705	-2.4935925
44	0xbe7771ec	-0.24164551
45	0xc0143481	-2.3157046
46	0xbf09359a	-0.53597414
47	0xbf80fcab	-1.0077108
48	0xbfbbc046	-1.4668052
49	0xc007a340	-2.119339
50	0xbf26f601	-0.6521912
51	0xbf8330f6	-1.0249317
52	0xbfdf9914	-1.7468591
53	0xc029180f	-2.6420934
54	0xbf546b37	-0.82976097
55	0xbfdb915f	-1.7153739
56	0xc02428d7	-2.5649927
57	0xbfab1967	-1.3367127
58	0xbeb15397	-0.34634086
59	0xbf26f2a3	-0.65213984
60	0xc012fecc	-2.2968016
61	0xc010c921	-2.262276
62	0xbff50513	-1.9142174
63	0xbf8f0abe	-1.1175153

fc2.weight f4 [64, 64]
0	0x3d0e01e1	0.03466976
1	0xbddf0fb9	-0.10891671
2	0xbe0e5403	-0.13899235
3	0xbe740b78	-0.238325
4	0xbadd2d62	-0.0016874487
5	0xbe51969c	-0.20467609
6	0xbe365ec3	-0.17809586
7	0xbe04130f	-0.12897895
8	0xbdbc9624	-0.092083246
9	0xbcb460ac	-0.022018753
10	0xbeb9301b	-0.36169514
11	0xbe8a93fa	-0.27066022
12	0xbdb8cc3e	-0.09023331
13	0xbe23ae83	-0.1598454
14	0xbd72ce35	-0.059278686
15	0xbe9f7681	-0.311451
16	0x3cfa7aaf	0.030576078
17	0x3d040b90	0.03223759
18	0xbd095604	-0.033529297
19	0xbe26316b	-0.16229789
20	0x3d92b781	0.07163907
21	0xbe3e4960	-0.18582678
22	0xbd892f0e	-0.06698428
23	0xbe233311	-0.15937449
24	0xbdcbc992	-0.09950556
25	0xbd54d3bd	-0.05195974
26	0xbd1041c7	-0.03521898
27	0xbebb117e	-0.36536783
28	0x3cffb52f	0.031214325
29	0xbe7155ab	-0.23567836
30	0xbd34f1d4	-0.044175938
31	0xbdba2e91	-0.09090913
32	0xbe02572b	-0.12728564
33	0x3d428cfe	0.047497742
34	0xbd0e4c86	-0.034740947
35	0x3d5394ef	0.051655706
36	0xbd97a524	-0.07404545
37	0xbb2b892f	-0.0026174297
38	0xbe076078	-0.13220394
39	0xbe9c1023	-0.3048106
40	0xbe5dde35	-0.21666797
41	0xbc2c1073	-0.010501969
42	0xbcd33bab	-0.025785288
43	0x3ccb75b5	0.0248364
44	0xbe8a9880	-0.27069473
45	0xbd45c740	-0.048285723
46	0x3d6d26fc	0.057898507
47	0x3c5e0701	0.013551475
48	0xbe1d0c01	-0.1533661
49	0x3d2b2c00	0.04179001
50	0xbeaa2536	-0.33231515
51	0xbe516476	-0.20448479
52	0xbdf4c001	-0.11950684
53	0x3a81d126	0.000990425
54	0xbd82a9aa	-0.06380017
55	0xbe5ce862	-0.21573022
56	0xbc882664	-0.016619869
57	0xbdaa3cac	-0.083123535
58	0xbc0c8990	-0.008577719
59	0xbf073b26	-0.5282463
60	0x3c4738eb	0.012159566
61	0xbe05e9fb	-0.13077538
62	0x3ca8d940	0.020611405
63	0xbc928bdb	-0.017888954
64	0xbe069f85	-0.1314679
65	0xbe8a1d84	-0.26975644
66	0xbe585211	-0.21125056
67	0xbed52fef	-0.41638133
68	0xbc1d225a	-0.00959071
69	0xbed0695e	-0.4070539
70	0xbc9aa38b	-0.018876811
71	0xbe6f3fe0	-0.2336421
72	0xbe1a8977	-0.15091501
73	0xbe1a7f0a	-0.15087524
74	0xbda69143	-0.08133175
75	0xbdab3dc3	-0.083613895
76	0xbccdd717	-0.025126977
77	0xbf0193ba	-0.5061604
78	0xbeabb1f6	-0.3353421
79	0x3dddae19	0.10824222
80	0xbe58de3b	-0.21178524
81	0xbd0b430e	-0.033999495
82	0xbe5ccf62	-0.21563485
83	0xbe6e3832	-0.23263624
84	0xbe1ce8e4	-0.15323216
85	0xbe0a605f	-0.13513325
86	0xbed69896	-0.4191329
87	0xbd2cb5ac	-0.042165443
88	0xbf21459a	-0.6299683
89	0xbdbb0910	-0.09132588
90	0xbe55e982	-0.20889857
91	0xbe2b79e2	-0.16745713
92	0xbd5fb3fe	-0.054615013
93	0xbe2b027f	-0.16700171
94	0xbe4b0f25	-0.19829996
95	0x3d355278	0.0442681
96	0xbe2c280a	-0.16812149
97	0xbeb03c05	-0.3442079
98	0xbe687573	-0.22701053
99	0xbd0265a8	-0.03183523
100	0xbf477184	-0.77907586
101	0xbec1a65a	-0.3782223
102	0xbef89990	-0.4855466
103	0xbeca4ac5	-0.3951017
104	0xbd882884	-0.06648353
105	0x3d1aa9d9	0.037759636
106	0xbdd438bb	-0.10362383
107	0x3da092fa	0.078405336
108	0xbdbb5537	-0.09147113
109	0xbc4abdaf	-0.012374326
110	0xbeac1ed0	-0.33617258
111	0xbd4d3690	-0.050100863
112	0xbe9fcf14	-0.31212676
113	0xbe35f50b	-0.17769258
114	0xbd9388f3	-0.07203855
115	0xbe52331e	-0.20527312
116	0xbe351fe4	-0.17687947
117	0xbdf41f36	-0.119200155
118	0x3bffa616	0.0078017814
119	0xbb73e71e	-0.0037216614
120	0xbf4baa10	-0.7955637
121	0xbdbc3735	-0.091902174
122	0xbe79c43a	-0.2439126
123	0xbefc6a40	-0.49299812
124	0xbe263bc0	-0.1623373
125	0xbeb5a30c	-0.35475957
126	0x3da08ee4	0.07839754
127	0x3cc7cf66	0.024390887
128	0xbe9c2844	-0.3049947
129	0xbe391aa7	-0.18076573
130	0xbea503a2	-0.32229334
131	0xbe221cdc	-0.15831321
132	0xbdb729da	-0.089435294
133	0xbe092587	-0.13393222
134	0xbe4363fa	-0.19081107
135	0xbea99921	-0.3312464
136	0x3c999c9f	0.01875144
137	0x3a9b511d	0.0011849735
138	0xbedca136	-0.43091744
139	0x3d36fa66	0.044672392
140	0xbf246018	-0.6420913
141	0xbd31ee4e	-0.043440156
142	0xbe2aaea2	-0.1666818
143	0x3c5dc592	0.013535874
144	0x3c668a57	0.014071069
145	0xbea6302b	-0.32458624
146	0xbd234f54	-0.039870575
147	0xbc338d87	-0.010959036
148	0xbf075863	-0.5286924
149	0xbe1d9eff	-0.15392683
150	0xbe94ebc7	-0.29086134
151	0xbe9ac9e5	-0.30232158
152	0xbef40a74	-0.47664225
153	0xbe8582d6	-0.26076382
154	0xbd01943e	-0.031635515
155	0xbccdbe1b	-0.025115063
156	0xbd3c1446	-0.04591777
157	0xbdf405b5	-0.11915151
158	0xbdb0006a	-0.08593829
159	0xbe2753d2	-0.16340569
160	0xbea46f6e	-0.32116264
161	0xbe12e86b	-0.14346473
162	0x3d0cc97c	0.034371838
163	0xbd97ea7b	-0.074177705
164	0xbda2e190	-0.07953179
165	0xbe877ba2	-0.26461512
166	0xbf28ca5a	-0.65933764
167	0xbecb4e26	-0.3970806
168	0xbe470c7f	-0.1943836
169	0xbd07970a	-0.033103026
170	0xbe4b4f5a	-0.19854489
171	0xbcc40dbb	-0.023932328
172	0xbd957732	-0.07298125
173	0xbdb4ac98	-0.08821982
174	0xbe1b37a2	-0.15157941
175	0xbd3eb239	-0.046556685
176	0xbd0b7c53	-0.03405411
177	0xbdd7cf8c	-0.10537633
178	0xbdb20900	-0.08693123
179	0x3b79ad1d	0.0038097568
180	0xbe4ff8ae	-0.20309708
181	0xbbceb517	-0.0063082087
182	0xbe655edd	-0.22399469
183	0xbe38d8e8	-0.18051493
184	0xbf13e0d5	-0.5776494
185	0xbe26f579	-0.16304578
186	0xbed59e23	-0.4172221
187	0xbf5989b4	-0.84975743
188	0x3da6b28b	0.08139523
189	0x3d8174d2	0.0632111
190	0x3d7e9243	0.062151205
191	0xbe4a9bc6	-0.19785985
192	0xbdd87f1e	-0.10571121
193	0xbdb65b3d	-0.08904121
194	0xbdfe48ab	-0.12416204
195	0xbe437018	-0.19085729
196	0xbd84fa81	-0.06493092
197	0x3d54c6ba	0.051947333
198	0xbe3a856a	-0.18214956
199	0xbba5fde7	-0.005065668
200	0xbca024cb	-0.019548794
201	0xbd586e36	-0.05283948
202	0xbd8e2099	-0.06939811
203	0xbe0716b8	-0.1319226
204	0xbdccba62	-0.09996487
205	0xbddf9ef4	-0.1091899
206	0xbde3b572	-0.11118592
207	0xbd8de824	-0.06929043
208	0xbd7a5677	-0.061117616
209	0xbd1b2465	-0.037876505
210	0x3c66df6c	0.014091354
211	0xbe1c5199	-0.15265502
212	0xbe67df05	-0.22643669
213	0x3c9859c5	0.018597493
214	0xbe190541	-0.1494341
215	0xbe484dd7	-0.19560944
216	0xbe30d2aa	-0.17267862
217	0xbe99b181	-0.30018237
218	0xbe3eac22	-0.18620351
219	0x3d10c38a	0.03534273
220	0x3dc3b60d	0.09556208
221	0xbcd93afa	-0.02651738
222	0xbe15033c	-0.14552015
223	0x3d7025ec	0.058629915
224	0xbed6a4b1	-0.41922525
225	0xbea0fe20	-0.31443882
226	0xbe8fe5f6	-0.28105134
227	0xbe9af0bd	-0.30261794
228	0xbe17a8ec	-0.14810532
229	0x3d9de9d4	0.07710615
230	0xbead35c4	-0.33830082
231	0xbe7f7064	-0.24945217
232	0xbe0c9fcf	-0.13732837
233	0xbbe8baae	-0.007102332
234	0x3d8b10f7	0.06790345
235	0xbdd830d4	-0.10556188
236	0xbe37f9a6	-0.17966327
237	0xbe103d40	-0.14085865
238	0x3da7d510	0.08194935
239	0xbd5fd368	-0.054644972
240	0x3bf1c95b	0.00737874
241	0xbce5ba8d	-0.028043056
242	0x3d3f34ff	0.0466814
243	0xbe9c57aa	-0.30535632
244	0xbdcbab65	-0.099448
245	0xbd12a37a	-0.035800435
246	0x3c6c1576	0.014409414
247	0xbdadee4d	-0.08492718
248	0xbdd2a5da	-0.1028554
249	0x3d707922	0.05870927
250	0xbeb20613	-0.3477026
251	0xbe8f1bd8	-0.2795093
252	0xbd42a980	-0.04752493
253	0xbced7446	-0.028986108
254	0xbd75d722	-0.06001962
255	0xbdb4016e	-0.08789335

fc2.bias f4 [64]
0	0xbf052dad	-0.5202282
1	0xbec6ab1b	-0.38802418
2	0xbeac2352	-0.33620697
3	0xbe8a0ec8	-0.26964402
4	0xbe1dbf3a	-0.15404978
5	0xbec7a869	-0.38995674
6	0x3f39ea6a	0.7262331
7	0xbed6f31b	-0.4198235
8	0xbe2e4ed7	-0.17022263
9	0xbe000728	-0.1250273
10	0xbeb289fd	-0.34870902
11	0xbe49955f	-0.19685887
12	0xbf12f9b8	-0.5741229
13	0xbe739cbe	-0.23790261
14	0xbe2e178d	-0.17001171
15	0xbe766752	-0.24062851
16	0x3c5b6fdd	0.0133933695
17	0x3f115fa9	0.5678659
18	0xbe6162bc	-0.2201032
19	0xbd3bf433	-0.045887183
20	0x3feae734	1.8351808
21	0xbe0a2421	-0.13490345
22	0xbf28a41d	-0.65875417
23	0xbf8be3b8	-1.0928869
24	0xbdeb8c9d	-0.11501429
25	0xbd980b1a	-0.074239925
26	0xbf3ffa81	-0.74991614
27	0xbf0725d0	-0.5279207
28	0x3f361794	0.7112973
29	0xbe98c621	-0.2983866
30	0xbe42f425	-0.19038446
31	0xbec00083	-0.3750039
32	0xbe06ac5b	-0.13151686
33	0xbd97eaff	-0.07417869
34	0xbf5958ea	-0.849013
35	0xbe319e53	-0.17345552
36	0xbe8f5479	-0.27994135
37	0xbe7c058c	-0.24611491
38	0xbeb94931	-0.36188653
39	0xbd95ddbb	-0.07317682
40	0xbeff34f4	-0.49845088
41	0xbe853855	-0.2601954
42	0xbf0c1f62	-0.54735386
43	0xbe17574a	-0.14779392
44	0xbf36d7c8	-0.71423006
45	0xbe1843fc	-0.14869684
46	0xbe0f207f	-0.1397724
47	0xbd0c9dd4	-0.034330204
48	0xbf34ac51	-0.70575434
49	0xbefff92a	-0.49994785
50	0xbd1274f5	-0.03575607
51	0xbd90ce41	-0.0707059
52	0xbef3b48b	-0.4759868
53	0xbddb8e05	-0.107204475
54	0xbecdcfb4	-0.40197527
55	0xbec9e0fe	-0.39429468
56	0x3fb7fa8b	1.4373335
57	0xbdc48e76	-0.09597485
58	0xbe49396e	-0.19650814
59	0xbc661028	-0.014041938
60	0xbeb2f7b2	-0.34954602
61	0xbe2724e2	-0.16322663
62	0xbe68e146	-0.22742185
63	0xbd8e5443	-0.069496654

fc3.weight f4 [1, 64]
0	0xbd81a4a6	-0.06330232
1	0x3df9d8e6	0.12199573
2	0xbc16e679	-0.009210222
3	0xbcbeea2e	-0.023305025
4	0x3c5ab29c	0.013348248
5	0xbba825be	-0.0051314523
6	0x3dd4b0dc	0.10385296
7	0xbd808796	-0.06275861
8	0xbd8fc114	-0.070192486
9	0x3b5acc0c	0.0033385782
10	0xbbc00172	-0.0058595473
11	0x3d9f3832	0.0777439
12	0x3e115b71	0.14195038
13	0x3da48354	0.08032861
14	0x3d4630c7	0.04838636
15	0xbb726f69	-0.0036992675
16	0xbb83303a	-0.004003552
17	0xbe94e2ee	-0.29079384
18	0xbd89d3c2	-0.06729843
19	0x3e077bef	0.1323087
20	0xbe8a1fdb	-0.2697743
21	0x3c2486f4	0.010041941
22	0xbd8520d0	-0.06500399
23	0x3d518f43	0.051162016
24	0x39e33a31	0.0004334017
25	0xbc568118	-0.013092302
26	0x3e577649	0.21041216
27	0x3e1633c0	0.14668179
28	0x3deeffc9	0.11669881
29	0xbc8b36d5	-0.01699392
30	0x3d0f744e	0.035023026
31	0xbe724308	-0.23658383
32	0x3c3e13c7	0.011601395
33	0x3bbec2ac	0.0058215465
34	0x3e126acc	0.14298552
35	0x3bebaa9a	0.007191968
36	0xbdad065b	-0.08448478
37	0xbd4ca938	-0.049966067
38	0xbe176591	-0.14784838
39	0x3d6db9cc	0.058038518
40	0xbd6ec988	-0.058297664
41	0xb6e8960a	-6.9316056e-06
42	0xbca023be	-0.019548293
43	0x3cd66c19	0.026174592
44	0x3d4199fe	0.047266
45	0xbcc19dfe	-0.023634907
46	0xbc552d5e	-0.013011305
47	0x3d8b91f4	0.06814948
48	0x3d2b472c	0.04181592
49	0xbe58f4fc	-0.21187204
50	0xbcfff99c	-0.031246953
51	0xbcbc48d4	-0.022983946
52	0xbe21b8e9	-0.15793194
53	0x3bd78692	0.0065773213
54	0xbe4cc7da	-0.19998112
55	0x3cda4ad1	0.026647003
56	0xbe011151	-0.12604262
57	0xbd5a629c	-0.053316697
58	0x3c506e74	0.012721647
59	0xbd8d7621	-0.06907297
60	0xbcc93dba	-0.024565566
61	0x3b3faf3b	0.0029248733
62	0xbe7b576a	-0.24545065
63	0x3c9912b9	0.018685685

fc1.weight f4 [64, 1]
0	0x3f8c329a	1.0952942
1	0xbebf2701	-0.37334445
2	0xbe638f54	-0.22222644
3	0xbef322d5	-0.47487512
4	0xbfcb423a	-1.5879586
5	0x3ecee6cd	0.40410462
6	0xbda1b968	-0.078966916
7	0x3f73f381	0.9529343
8	0xbc94ad90	-0.018149167
9	0x3d92e99b	0.07173463
10	0xbd8be137	-0.06830066
11	0x3c15707b	0.009121056
12	0xbfc03a75	-1.501784
13	0x3d997d98	0.07494658
14	0xbd955130	-0.07290876
15	0xbcc2049b	-0.023683837
16	0x3de5d69f	0.11222576
17	0xbb82e700	-0.0039948225
18	0xbe226c51	-0.15861632
19	0xbd644d3b	-0.055737715
20	0xbd97ec07	-0.074180655
21	0xbead3540	-0.3382969
22	0xbe2ba370	-0.16761565
23	0xbeb00979	-0.34382227
24	0xbfa21408	-1.2662363
25	0xbeb02ca1	-0.3440905
26	0x3a9fe570	0.0012199115
27	0x3e896bea	0.26840144
28	0xc0065232	-2.0987668
29	0xbd9ce383	-0.07660582
30	0x3d47283a	0.048622347
31	0x3e57d9ba	0.2107915
32	0xbe31839a	-0.17335358
33	0xc00a6680	-2.162506
34	0xbf33c8d9	-0.70228344
35	0xbd66c660	-0.05634153
36	0xbceeb669	-0.029139714
37	0x3d3c44ba	0.04596398
38	0xbd615a7c	-0.055017933
39	0xbe906063	-0.28198537
40	0x3e402160	0.18762732
41	0xbed8a05c	-0.42309844
42	0xbe1b0244	-0.15137583
43	0xbd7d4cca	-0.06184081
44	0x3db2f2ca	0.087377146
45	0xbd6dc565	-0.05804958
46	0xc000455e	-2.0042338
47	0xbf9bc9c6	-1.2170951
48	0xbeec48ec	-0.46149385
49	0xbde08800	-0.1096344
50	0xbf34f349	-0.70683724
51	0xc0013a8b	-2.0191982
52	0x3c43f5de	0.011960475
53	0xbc60a9ec	-0.0137123875
54	0x3ddb1a7b	0.1069841
55	0x3e97fa17	0.2968299
56	0xbd3fca20	-0.04682362
57	0xc0024cde	-2.0359416
58	0xbdb8b1e1	-0.09018303
59	0x3db2fc5a	0.087395385
60	0xbdff9849	-0.12480218
61	0x3eee1589	0.46500805
62	0x3e5f37ff	0.21798705
63	0x3c737fcd	0.014862013

fc1.bias f4 [64]
0	0xbfb59ab8	-1.4187841
1	0xbf17408c	-0.59082866
2	0xbee88609	-0.4541476
3	0xbf50789c	-0.81434035
4	0xbf8dd1b3	-1.107962
5	0xbfd85eee	-1.690397
6	0xbe2006a5	-0.15627535
7	0x3e26e3bb	0.1629781
8	0xbda80c29	-0.08205444
9	0xbebeabf6	-0.3724057
10	0xbdf07162	-0.11740376
11	0xbe3098d6	-0.17245802
12	0x3fb05c64	1.3778195
13	0xbf1f9818	-0.6234145
14	0xbf6d15ae	-0.92611206
15	0xbdd78740	-0.10523844
16	0xbf3bea9d	-0.73404866
17	0xbf412783	-0.75450915
18	0xbeca069b	-0.39458165
19	0xbecde9af	-0.4021735
20	0xbe1fd5d0	-0.15608907
21	0xbf584518	-0.8448043
22	0xbf639452	-0.88898194
23	0xbef58c6a	-0.4795869
24	0xbf48e1a3	-0.78469294
25	0xbefd1f7a	-0.49438077
26	0xbca70a59	-0.020390676
27	0xbffc14ae	-1.9693811
28	0x3db16384	0.08661559
29	0xbee264e5	-0.442176
30	0xbe899c5b	-0.26877102
31	0xbf5367d7	-0.8258032
32	0xbe7d5c6a	-0.24742284
33	0xbe3f29d9	-0.18668307
34	0xbfe9437d	-1.8223721
35	0xbf3ad846	-0.7298626
36	0xbe90a844	-0.28253376
37	0xbf086b47	-0.5328869
38	0xbe123010	-0.14276147
39	0xbf195494	-0.5989468
40	0xbf7c8c7e	-0.98651874
41	0xbf59b5c0	-0.85042953
42	0xbe88be7b	-0.26707825
43	0xbe1ebe84	-0.15502363
44	0xbf0f591b	-0.5599534
45	0xbe40e5e3	-0.18837695
46	0x3d5df2f3	0.054186773
47	0x3d147f29	0.036254082
48	0xbf26d151	-0.6516314
49	0xbf29e072	-0.663581
50	0xbf87e037	-1.06153
51	0xbc6c665e	-0.014428703
52	0xbddeb4c0	-0.10874319
53	0xbcebf6e5	-0.028804252
54	0xbfed014d	-1.8516022
55	0xbfcbc8ff	-1.5920714
56	0xbf1ad250	-0.6047716
57	0xbeaeee45	-0.3416616
58	0xbe841a33	-0.25801238
59	0xbf0b40d4	-0.54395795
60	0xbe475b03	-0.19468312
61	0xc014539d	-2.3176033
62	0xbfe4f8a9	-1.7888385
63	0xbe48e333	-0.1961792
