maddpg_pytorch/models/cache_data/model/run51/model.pt (torch, 690099 bytes, 168 tensors)

fc1.weight f4 [64, 1]
1.448285 -0.3733413 -0.22222553 -0.47487235 -1.5879502 0.3061825 -0.07896643 0.8020742
-0.018149152 -0.07694378 -0.06830076 0.009121003 -1.7361882 0.0749472 -0.07290876 -0.02368397
-0.16822666 -0.0039948225 -0.15861726 -0.25454018 -0.0741804 -0.33829564 -0.16761565 -0.3438196
-1.2662334 -0.34409 0.0012199158 0.26839912 -2.1214046 -0.076605126 0.048621953 1.2133688
-0.1733548 -2.1720626 -0.7022816 -0.056341156 -0.029139718 0.04596428 -0.0550178 -0.2819847
0.048704732 -0.42309844 -0.15137617 -0.061840847 0.08737774 -0.058049835 -2.002782 -1.2175814
-0.4614927 -0.1096344 -0.70683235 -2.0310159 0.01196039 -0.013712325 0.10698335 0.29682854
-0.04682362 -2.0359347 -0.09018275 -0.020208731 -0.12480157 0.26312816 0.21798632 0.014861933
00000000: 6761 b93f 9726 bfbe 178f 63be 7822 f3be
00000010: f441 cbbf f4c3 9c3e 27b9 a1bd bc54 4d3f
00000020: 88ad 94bc b394 9dbd 45e1 8bbd 4270 153c
00000030: 6a3b debf eb7d 993d 3051 95bd e304 c2bc
00000040: 9c43 2cbe 00e7 82bb 906c 22be 1753 82be
00000050: e5eb 97bd 1635 adbe 70a3 2bbe 1f09 b0be
00000060: f013 a2bf 912c b0be 95e5 9f3a 9c6b 893e
00000070: 18c5 07c0 26e3 9cbd d027 473d ab4f 9b3f
00000080: ec83 31be 1303 0bc0 bac8 33bf fcc5 66bd
00000090: 6bb6 eebc 0a45 3c3d 585a 61bd 4c60 90be
000000a0: 9d7e 473d 5ca0 d8be 5b02 1bbe d44c 7dbd
000000b0: 1af3 b23d aac5 6dbd 952d 00c0 b5d9 9bbf
000000c0: c548 ecbe 0088 e0bd f7f2 34bf 2afc 01c0
000000d0: 83f5 433c a9a9 60bc 161a db3d e9f9 973e
000000e0: 20ca 3fbd c14c 02c0 bcb1 b8bd c88c a5bc
000000f0: f797 ffbd bcb8 863e ce37 5f3e 777f 733c

fc1.bias f4 [64]
-0.81857246 -0.5908319 -0.45414722 -0.81434137 -1.1079693 -1.7545416 -0.15627556 0.34393594
-0.08205481 -0.7919568 -0.11740408 -0.17245893 1.2730222 -0.62341696 -0.92611206 -0.10523843
-0.99909335 -0.754509 -0.39458415 -0.60007674 -0.1560897 -0.84480363 -0.88898194 -0.4795885
-0.784696 -0.49438176 -0.020390823 -1.9693882 0.048983864 -0.44217604 -0.26877218 -0.69237113
-0.24742301 -0.16188736 -1.8223754 -0.72986704 -0.28253385 -0.53288764 -0.14276206 -0.598947
-1.015838 -0.85042953 -0.267079 -0.15502419 -0.5599536 -0.18837766 0.0488365 0.021769702
-0.6516326 -0.663581 -1.0615375 -0.063006185 -0.10874361 -0.028804407 -1.8516021 -1.5920773
-0.6047716 -0.34166422 -0.25801384 -0.6317249 -0.1946838 -2.5276644 -1.7888428 -0.19617912
00000000: f78d 51bf c240 17bf fc85 e8be ad78 50bf
00000010: f0d1 8dbf d294 e0bf b306 20be 5f18 b03e
00000020: 5a0c a8bd aebd 4abf 8d71 f0bd 1399 30be
00000030: 64f2 a23f 4198 1fbf ae15 6dbf 3f87 d7bd
00000040: 95c4 7fbf 8027 41bf ef06 cabe a19e 19bf
00000050: fad5 1fbe 0d45 58bf 5294 63bf a08c f5be
00000060: d6e1 48bf 9b1f fdbe a80a a7bc ea14 fcbf
00000070: 4ea3 483d e664 e2be 829c 89be 3c3f 31bf
00000080: 755c 7dbe cdc5 25be 9943 e9bf 91d8 3abf
00000090: 47a8 90be 536b 08bf 3830 12be 9754 19bf
000000a0: fb06 82bf c0b5 59bf 94be 88be a9be 1ebe
000000b0: 1e59 0fbf 13e6 40be c808 483d 6056 b23c
000000c0: 65d1 26bf 72e0 29bf 76e0 87bf 6309 81bd
000000d0: f8b4 debd 38f7 ebbc 4c01 edbf 30c9 cbbf
000000e0: 50d2 1abf 9dee aebe 641a 84be b9b8 21bf
000000f0: 315b 47be 41c5 21c0 cdf8 e4bf 2ee3 48be

fc2.weight f4 [64, 64]
-0.08886676 0.35661 -0.01856652 -0.039999943 0.26056585 -0.058300007 -0.021881837 -0.0070931995
-0.12684022 0.11499833 -0.2887866 -0.124186926 0.010998551 -0.06975568 -0.07661903 -0.06796696
0.038685977 -0.028304413 -0.5140329 -0.054088302 -0.019280346 0.30810565 -0.04233159 -0.06379959
-0.062014006 0.08600319 -0.31772494 -0.23497114 -0.015830886 -0.27644628 -0.26802754 -0.1755679
-0.3459436 0.074237995 0.28112805 -0.033885527 -0.28719985 0.1732338 -0.21207848 -0.25978452
-0.2529666 -0.05697012 -0.30683902 0.10250947 -0.19083486 -0.12891291 -0.03499438 -0.1138777
-0.08992029 0.003980443 0.058158457 -0.1544055 -0.27081123 -0.11358438 -0.24816146 -0.164108
-0.08062348 0.13027097 -0.34764096 -0.5576923 -0.17371775 -0.21683681 -0.11201488 -0.742269
-0.118639745 -0.11708834 -0.033712618 -0.14784256 0.058700785 0.020364832 0.05704606 -0.14744253
-0.12721434 -0.09242836 -0.019336304 -0.10808459 -0.018101506 -0.10172467 -0.009735331 -0.18658708
0.02124931 0.05892451 -0.039915387 -0.02175398 -0.18115342 0.09106718 0.108982995 0.037694074
-0.03204378 -0.16437945 -0.1444061 0.050304066 -0.21968824 -0.006313002 -0.15721413 -0.14804713
-0.08511981 -0.2142929 -0.1529489 0.09093648 0.014057191 0.118219465 -0.12391931 -0.20853516
0.06307467 -0.02662827 -0.2165569 -0.028155746 -0.18821245 0.022240711 -0.04610957 -0.2744008
-0.28476754 -0.010949552 -0.071860984 -0.070082694 -0.21054587 -0.061955646 -0.17749225 -0.14832687
-0.08321117 -0.021510191 -0.04636327 -0.10202227 -0.106395766 -0.0042194976 -0.04493077 -0.12257173
-0.32438675 0.07684177 -0.007244438 -0.095017 0.113593146 0.027547719 -0.12135774 -0.27372617
-0.046776775 -0.08303261 -0.009962463 -0.17165934 0.03629259 -0.08035989 0.035353497 -0.03713393
0.029732242 0.10367778 -0.13135245 -0.13346642 -0.16334592 -0.005129963 -0.05921507 -0.048452333
-0.025624812 -0.03609859 0.029043308 -0.044628855 -0.040267527 -0.14085636 -0.19030574 0.025124803
-0.10271533 0.025231883 0.00462389 -0.07965839 -0.008586821 0.07005234 -0.072692685 -0.071036115
-0.13339555 0.0017213821 -0.15034829 -0.14907452 -0.018645883 -0.11552939 0.030685097 -0.110855535
-0.079364784 -0.047710195 -0.11423257 0.05269732 -0.054711737 0.06293627 -0.10087728 -0.11247688
-0.11751327 -0.047451332 0.0032560225 -0.20560592 -0.043720677 -0.004307499 -0.010417537 -0.03357998
-0.16617657 -0.0560911 -0.1372071 -0.14550315 0.052165568 -0.1838207 -0.16280945 -0.07984633
-0.18109085 -0.10504298 -0.034161635 -0.05840868 0.0053798174 -0.23000504 0.0010868162 -0.122645915
-0.069914594 -0.07031919 -0.070330806 -0.1013625 -0.18362899 -0.08810744 -0.10356602 0.009309071
-0.08049015 -0.11696491 -0.14881591 -0.19734943 -0.21797797 -0.17820399 -0.05193748 -0.08191778
-0.14725947 -0.15593272 0.07985173 0.09010558 0.020272931 0.0364632 -0.04091427 -0.15710783
-0.17994171 -0.12246022 -0.024189368 -0.13791588 -0.09331054 -0.09882735 -0.24636179 -0.15316549
-0.048161723 -0.025300056 -0.21657437 -0.07914634 -0.09446089 -0.12865125 -0.060854137 -0.08809279
-0.046100378 0.0031645962 -0.03599126 -0.14034206 -0.16591264 -0.22291698 -0.049831398 -0.13923642
00000000: c7ff b5bd 9695 b63e d118 98bc fbd6 23bd
00000010: e368 853e fdcb 6ebd 8a41 b3bc 126e e8bb
00000020: 67e2 01be 3f84 eb3d d6db 93be b755 febd
00000030: 4433 343c 11dc 8ebd 70ea 9cbd 4332 8bbd
00000040: 3075 1e3d a8de e7bc a997 03bf b28b 5dbd
00000050: d1f1 9dbc 06c0 9d3e e463 2dbd 5ca9 82bd
00000060: 6602 7ebd 7122 b03d d8ac a2be 469c 70be
00000070: c6af 81bc 5e8a 8dbe e83a 89be 12c8 33be
00000080: 851f b1be 170a 983d 04f0 8f3e 8dcb 0abd
00000090: dc0b 93be 3464 313e 1a2b 59be 7a02 85be
000000a0: d784 81be 8059 69bd 011a 9dbe 7cf0 d13d
000000b0: 376a 43be bf01 04be 4456 0fbd b638 e9bd
000000c0: 2128 b8bd 606e 823b 9037 6e3d 7a1c 1ebe
000000d0: c5a7 8abe ed9e e8bd 0a1e 7ebe ed0b 28be
000000e0: ec1d a5bd c165 053e fffd b1be ecc4 0ebf
000000f0: 11e3 31be 780a 5ebe 0f68 e5bd 5705 3ebf
00000100: 65f9 f2bd 03cc efbd 3e16 0abd 0a64 17be
00000110: 3c70 703d 26d4 a63c 21a9 693d 2dfb 16be
00000120: 7a44 02be 144b bdbd 2b67 9ebc 745b ddbd
00000130: 9c49 94bc 0655 d0bd f080 1fbc af10 3fbe
00000140: 0813 ae3c d45a 713d 517e 23bd 6735 b2bc
00000150: 4880 39be 6e81 ba3d 7a32 df3d 1a65 1a3d
00000160: 5740 03bd 1653 28be 31df 13be a30b 4e3d
00000170: f4f5 60be 4ddd cebb befc 20be ab99 17be
00000180: 4c53 aebd 996f 5bbe a39e 1cbe e83c ba3d
00000190: 2250 663c 0c1d f23d 68c9 fdbd 3e8a 55be
000001a0: 4b2d 813d 8823 dabc 18c1 5dbe e1a6 e6bc
000001b0: c4ba 40be 2732 b63c 63dd 3cbd 437e 8cbe
000001c0: 0dcd 91be c065 33bc da2b 93bd 8487 8fbd
000001d0: 5699 57be 34c5 7dbd 87c0 35be 00e3 17be
000001e0: 9e6a aabd 2436 b0bc 6ae7 3dbd 0df1 d0bd
000001f0: 06e6 d9bd b643 8abb 5409 38bd e306 fbbd
00000200: 0516 a6be 385f 9d3d c062 edbb 4698 c2bd
00000210: 86a3 e83d c1ab e13c 688a f8bd d625 8cbe
00000220: 0199 3fbd 000d aabd 9939 23bc 77c7 2fbe
00000230: 8aa7 143d ba93 a4bd d4ce 103d bf19 18bd
00000240: 0891 f33c 0455 d43d 4281 06be 6cab 08be
00000250: 2744 27be 4019 a8bb 808b 72bd f475 46bd
00000260: 20eb d1bc 1ddc 13bd 3bec ed3c bfcc 36bd
00000270: 90ef 24bd a63c 10be 82df 42be 88d2 cd3c
00000280: 6a5c d2bd 18b3 ce3c 0084 973b f023 a3bd
00000290: bdaf 0cbc 9a77 8f3d e7df 94bd 627b 91bd
000002a0: d898 08be 00a0 e13a e7f4 19be fea6 18be
000002b0: 40bf 98bc ac9a ecbd 505f fb3c 3a08 e3bd
000002c0: 018a a2bd c46b 43bd c4f2 e9bd 25d9 573d
000002d0: 6a19 60bd bbe4 803d bf98 cebd 475a e6bd
000002e0: ccaa f0bd 545c 42bd fe62 553b 5c8a 52be
000002f0: 7414 33bd ec25 8dbb 51ae 2abc 298b 09bd
00000300: 312a 2abe c8bf 65bd 0580 0cbe c7fe 14be
00000310: 90ab 553d 7e3b 3cbe 85b7 26be 7986 a3bd
00000320: e16f 39be c620 d7bd 12ed 0bbd f13d 6fbd
00000330: 2e49 b03b 7186 6bbe 8073 8e3a c82d fbbd
00000340: 622f 8fbd 8203 90bd 9909 90bd 2497 cfbd
00000350: 3d09 3cbe ac71 b4bd 6c1a d4bd 1385 183c
00000360: 05d8 a4bd 4c8b efbd 3363 18be f815 4abe
00000370: 9e35 5fbe 1b7b 36be 65bc 54bd 82c4 a7bd
00000380: 30cb 16be d4ac 1fbe 4e89 a33d 4689 b83d
00000390: 6b13 a63c 705a 153d b995 27bd e0e0 20be
000003a0: a442 38be 6ccc fabd c828 c6bc d239 0dbe
000003b0: 9919 bfbd fe65 cabd 4446 7cbe 6ad7 1cbe
000003c0: 3a45 45bd 1042 cfbc acc5 5dbe 7a17 a2bd
000003d0: b674 c1bd 27bd 03be 3042 79bd fe69 b4bd
000003e0: c0d3 3cbd 1d65 4f3b 926b 13bd d4b5 0fbe
000003f0: 01e5 29be 5944 64be 021c 4cbd fe93 0ebe

fc2.bias f4 [64]
-0.6922706 -0.13027714 -0.49355778 -0.14962986 -0.27993527 -0.05004612 -1.0118353 -0.9387544
-0.3410745 0.73795074 -0.14230333 -0.19183272 -0.20505269 -0.16597869 -0.6445646 -0.15981832
-0.097400576 -0.13652249 -0.19688293 -0.29326183 0.8046614 0.31548387 -0.1769768 1.394416
-0.044722743 -0.39670053 -0.07232371 -0.2733405 -0.2014683 -0.41233078 -0.26487863 -0.16331895
-0.50497574 -0.20074849 -0.007880991 -0.09085476 -0.32348505 -0.35530546 -0.14128125 -2.6154792
-0.2237732 -0.15163459 -0.31707782 -0.6626837 0.6534941 -0.23386201 -0.12013815 -0.79792583
-0.39445138 -0.4012617 -0.12106203 -0.1953443 -0.33343577 -0.65222275 -0.20297049 -0.35226
-0.20398688 -0.010944932 -0.10637994 -0.11054818 -0.30853608 -0.5739587 -0.029032622 0.24655606
00000000: a538 31bf 5f67 05be 9bb3 fcbe 9238 19be
00000010: ad53 8fbe 29fd 4cbd d283 81bf 3552 70bf
00000020: 51a1 aebe 57ea 3c3f f7b7 11be cc6f 44be
00000030: 55f9 51be 51f6 29be 3002 25bf 6aa7 23be
00000040: f479 c7bd 8dcc 0bbe ae9b 49be 6a26 96be
00000050: 4afe 4d3f 1a87 a13e 6839 35be 397c b23f
00000060: 322f 37bd 551c cbbe 741e 94bd 49f3 8bbe
00000070: b54d 4ebe 051d d3be 2c9e 87be 153d 27be
00000080: 1746 01bf 0391 4dbe 461f 01bc 0f12 babd
00000090: d59f a5be 99ea b5be 08ac 10be 0364 27c0
000000a0: cd24 65be 1946 1bbe 0658 a2be a4a5 29bf
000000b0: 644b 273f 8679 6fbe fe0a f6bd de44 4cbf
000000c0: 88f5 c9be 2c72 cdbe 5fef f7bd 5608 48be
000000d0: 18b8 aabe 12f8 26bf 7fd7 4fbe 6c5b b4be
000000e0: f0e1 50be 5f52 33bc badd d9bd 1667 e2bd
000000f0: 71f8 9dbe f5ee 12bf d2d5 edbc 3179 7c3e

fc3.weight f4 [32, 64]
-0.02061313 0.061556716 0.11584506 -0.14080206 -0.2723398 0.026133345 -0.023746643 -0.6563619
-0.49893114 1.805429 0.101693764 0.20345628 -0.24244374 -0.06681042 4.2555537 -0.01720838
0.25386626 0.0045996383 -0.28752205 -0.2570512 1.2546629 -0.8317417 0.08495013 -1.635319
-0.046173204 -0.0033371206 0.06771897 -0.5152487 -0.026202248 0.05343969 -0.01645689 -0.035637956
-0.1429395 -0.2186189 0.007868728 -0.29086548 0.19204354 -0.11722152 0.11893549 0.41576892
-0.057107814 -0.02654021 0.08214215 0.6030783 2.6407266 -0.18751808 -0.0624784 1.0784243
-0.050733835 -0.07444337 -0.13673572 -0.018321581 0.09353611 0.52395016 -0.09518377 -0.05560802
-0.05221604 0.83068043 -2.1007643 0.036829807 -0.16693507 -0.73964274 0.38797587 -0.92251104
-0.42140317 0.026841804 0.120531276 -0.11745234 -0.048735347 -0.06082093 0.06088625 0.17798644
0.72853905 1.2011601 -0.12043008 -0.028041033 0.24126974 0.04379096 0.5458087 -0.01698038
0.08040757 -0.07646746 -0.18196689 0.21771164 1.2755054 -0.6963477 -0.0680821 0.57061553
-0.00862489 -0.052337226 -0.023105716 -0.54670906 -0.057610545 0.27795804 -0.12366828 -0.12322924
-0.16148978 -0.122597046 -0.94679344 -0.30379915 0.23647445 -0.18740639 0.13083412 -0.46023518
-0.13092175 0.1566811 -0.028918091 -0.53020006 2.1768625 -0.05426779 0.027166104 2.1360261
0.08422917 -0.008389809 -0.026154725 0.022164512 -0.017278612 -0.9258683 -0.1709782 0.007158845
0.23892379 1.3420876 -0.66326183 -0.059603263 -0.7544111 1.9580963 1.0303493 -0.048768915
-0.87002987 -0.10163723 -0.13498674 0.12460022 -0.15929732 0.01177088 -0.16191733 0.3459772
0.7281377 1.5546842 -0.06280442 0.24890496 -0.0906926 0.011307879 -0.09481842 -0.106771655
-0.6427014 0.12500182 -0.1016304 0.36200622 -0.5926148 -0.56426084 0.05503451 -0.7599306
0.024446506 0.083153665 -0.04746542 -0.7412128 -0.023701962 0.038833436 0.111750685 -0.26728857
0.15984829 0.12789296 -0.5080002 0.03796151 -0.16004305 -0.064109355 -0.60966724 -0.19489643
0.06625938 -0.18358251 0.060799252 -0.25524166 -1.0143273 0.14414334 -0.08983304 0.9734024
-0.1690328 0.038053345 0.13518612 -0.064414285 0.031957988 0.9797355 0.13666348 0.7212074
-0.19374081 -0.7093227 -0.61366576 0.025559235 -0.7817334 0.040769592 1.3368976 0.32979473
-0.6788408 0.026935346 -0.003029309 0.04682839 -0.0401948 -0.17482762 -0.09084271 1.0523036
-0.83331513 -0.48407632 -0.100989245 -0.32688686 0.14337152 -0.17154215 -0.47461575 0.060101233
0.071081 -0.24202919 -0.1676506 -0.35482386 2.7581754 -0.037595283 0.20165597 1.7564572
0.017240064 0.19202545 0.40672594 0.44634822 0.15317078 -0.08314537 -0.099817045 0.37128633
-0.04405617 -0.21574311 -0.1817983 -1.0936532 -0.31702384 0.07658441 0.65134215 0.35453597
0.21847281 -0.1668843 0.11908436 1.128106 0.7237457 0.009237203 0.18079433 0.27794066
0.13119864 -0.08428531 0.10630201 -0.009371314 0.1748275 -0.25958735 0.06048358 -0.43895832
0.06871411 -0.6743391 0.18265654 0.19344433 0.45046 0.36919755 0.540377 -0.017764434
00000000: dedc a8bc e522 7c3d 2d40 ed3d 6a2e 10be
00000010: 1f70 8bbe 9915 d63c 5288 c2bc 5507 28bf
00000020: e773 ffbe 4c18 e73f d244 d03d d856 503e
00000030: 2c43 78be e7d3 88bd 7f2d 8840 97f8 8cbc
00000040: c2fa 813e 90b8 963b 1736 93be 379c 83be
00000050: cb98 a03f 06ed 54bf 55fa ad3d 2252 d1bf
00000060: 1d20 3dbd 98b3 5abb 3eb0 8a3d 57e7 03bf
00000070: 19a6 d6bc 94e3 5a3d 9ad0 86bc 1bf9 11bd
00000080: bb5e 12be a2dd 5fbe d6eb 003c 52ec 94be
00000090: 10a7 443e d611 f0bd 7394 f33d aadf d43e
000000a0: e2e9 69bd db6a d9bc 253a a83d 5763 1a3f
000000b0: aa01 2940 bd04 40be 5ae9 7fbd cf09 8a3f
000000c0: 48ce 4fbd c475 98bd 7304 0cbe 2417 96bc
000000d0: dc8f bf3d 9921 063f b5ef c2bd 3cc5 63bd
000000e0: 7de0 55bd 79a7 543f ec72 06c0 dada 163d
000000f0: 07f1 2abe 3a59 3dbf c6a4 c63e af29 6cbf
00000100: 28c2 d7be 58e3 db3c 1ad9 f63d da8a f0bd
00000110: b79e 47bd 5e1f 79bd dc63 793d 1442 363e
00000120: 8981 3a3f 9dbf 993f 0ca4 f6bd 4fb6 e5bc
00000130: 6a0f 773e 265e 333d 1eba 0b3f 701a 8bbc
00000140: b9ac a43d f99a 9cbd 8755 3abe cdef 5e3e
00000150: c343 a33f d843 32bf a16e 8bbd dc13 123f
00000160: 694f 0dbc 8f5f 56bd 3348 bdbc 20f5 0bbf
00000170: 09f9 6bbd 8450 8e3e cc45 fdbd 9d5f fcbd
00000180: 945d 25be 2914 fbbd 0e61 72bf 908b 9bbe
00000190: 5c26 723e 76e7 3fbe 61f9 053e f2a3 ebbe
000001a0: 5a10 06be 0371 203e a2e5 ecbc 31bb 07bf
000001b0: b751 0b40 e747 5ebd 738b de3c a7b4 0840
000001c0: 5880 ac3d 6975 09bc 6f42 d6bc 5a92 b53c
000001d0: e08b 8dbc b405 6dbf e914 2fbe bf94 ea3b
000001e0: 70a8 743e 87c9 ab3f 87cb 29bf 8d22 74bd
000001f0: 1621 41bf e6a2 fa3f 7ce2 833f eac1 47bd
00000200: 47ba 5ebf 2e27 d0bd f739 0abe 662e ff3d
00000210: d61e 23be a6da 403c a8cd 25be ec23 b13e
00000220: 3b67 3a3f e4ff c63f 9b9f 80bd f1e0 7e3e
00000230: 0bbd b9bd af44 393c 2930 c2bd 19ab dabd
00000240: 1488 24bf 7a00 003e 9923 d0bd e158 b93e
00000250: 9bb5 17bf 6673 10bf de6b 613d d08a 42bf
00000260: 0a44 c83c 784c aa3d 1a6b 42bd 1fc0 3dbf
00000270: 9e2a c2bc cf0f 1f3d 8bdd e43d 0cda 88be
00000280: 45af 233e 5ff6 023e 4d0c 02bf 877d 1b3d
00000290: 53e2 23be c44b 83bd 2713 1cbf ee92 47be
000002a0: ffb2 873d 0efd 3bbe a308 793d 09af 82be
000002b0: 7ad5 81bf 509a 133e 63fa b7bd e630 793f
000002c0: ef16 2dbe d3dd 1b3d 3b6e 0a3e a3eb 83bd
000002d0: 61e6 023d f2cf 7a3f 83f1 0b3e 0ca1 383f
000002e0: fe63 46be 2c96 35bf 3319 1dbf 9a61 d13c
000002f0: ae1f 48bf 04fe 263d 761f ab3f dbda a83e
00000300: 83c8 2dbf 84a7 dc3c 5f87 46bb 20cf 3f3d
00000310: 4da3 24bd 0306 33be be0b babd e2b1 863f
00000320: 2454 55bf dad8 f7be 73d3 cebd b75d a7be
00000330: fccf 123e bfa8 2fbe d600 f3be b62c 763d
00000340: ea92 913d 80d6 77be 99ac 2bbe 79ab b5be
00000350: f285 3040 83fd 19bd e77e 4e3e 97d3 e03f
00000360: 093b 8d3c 52a2 443e 623e d03e c187 e43e
00000370: cdd8 1c3e 1f48 aabd e16c ccbd 3e19 be3e
00000380: 3e74 34bd c3eb 5cbe 5529 3abe d4fc 8bbf
00000390: f350 a2be 4ad8 9c3d 5cbe 263f bd85 b53e
000003a0: 56b7 5f3e b8e3 2abe 80e2 f33d c765 903f
000003b0: 6647 393f a357 173c 2622 393e 3d4e 8e3e
000003c0: f058 063e c79d acbd deb4 d93d 248a 19bc
000003d0: fb05 333e a2e8 84be a1bd 773d 25bf e0be
000003e0: fcb9 8c3d 7da1 2cbf 510a 3b3e 4516 463e
000003f0: b1a2 e63e 7607 bd3e 2656 0a3f b886 91bc

fc3.bias f4 [32]
1.8727436 0.16461173 0.082290746 0.19156545 -1.4791138 -1.7870245 -1.7413098 2.2311895
-0.008632621 -1.7129406 -1.7031536 -0.91232103 -0.46383312 -1.5776079 -2.1988993 2.3050866
0.35085157 -0.3964531 0.1371701 -0.95503235 -1.1575602 -0.85967994 -1.0808349 3.8643663
-2.0557194 -0.41088054 -0.95626605 2.9137306 -0.1782397 1.1749215 1.9802518 -2.7907922
00000000: 10b6 ef3f fa8f 283e 0d88 a83d bc29 443e
00000010: 9a53 bdbf 38bd e4bf 3de3 debf cfcb 0e40
00000020: d66f 0dbc a341 dbbf f000 dabf df8d 69bf
00000030: 897b edbe 0eef c9bf c4ba 0cc0 8a86 1340
00000040: d1a2 b33e e7fb cabe 5276 0c3e 007d 74bf
00000050: ef2a 94bf fc13 5cbf cc58 8abf c751 7740
00000060: e890 03c0 ef5e d2be dacd 74bf 907a 3a40
00000070: 7884 36be d463 963f e478 fd3f 579c 32c0

in_fn.weight f4 [33]
1.7772994 0.35499197 0.26501006 0.27763027 -0.2750598 0.014507751 0.25608784 -0.20471345
0.7214702 0.13470085 -0.016812546 -0.27457047 -0.6791137 0.25736818 0.11935924 0.23109776
0.6521017 0.2078536 -0.44030508 -0.27724636 0.3183147 -0.3090256 -0.2593346 0.3249693
0.87038267 -0.15238865 0.47497576 0.33826986 0.94987106 0.21663581 0.3783462 0.48804846
1.0979656
00000000: 8c7e e33f 82c1 b53e 66af 873e 8e25 8e3e
00000010: a3d4 8cbe ebb1 6d3c f21d 833e 67a0 51be
00000020: 45b2 383f 05ef 093e 77ba 89bc 8094 8cbe
00000030: 65da 2dbf c3c5 833e 9e72 f43d e4a4 6c3e
00000040: 23f0 263f 93d7 543e ab6f e1be 3cf3 8dbe
00000050: 25fa a23e 9a38 9ebe 81c7 84be 6062 a63e
00000060: 66d1 5e3f c50b 1cbe 0630 f33e b531 ad3e
00000070: c02a 733f c7d5 5d3e 98b6 c13e 7de1 f93e
00000080: 238a 8c3f

in_fn.bias f4 [33]
0.30799434 0.47472802 0.022416484 0.09425981 -0.030342389 -0.010534309 -0.2305332 -0.032674015
0.023009118 0.015823843 0.013012998 0.06940209 -0.08704548 -0.012063097 -0.00193679 0.025350071
0.15311827 0.1742872 0.08990711 -0.011091394 0.0104793925 0.29816514 0.107020006 0.044970997
0.490869 -0.014044737 0.058588613 0.113380246 0.6290222 0.024495104 0.19258131 0.23717254
0.33984014
00000000: 6fb1 9d3e 8d0f f33e c6a2 b73c 4a0b c13d
00000010: 9a90 f8bc 1898 2cbc e510 6cbe 30d5 05bd
00000020: 9e7d bc3c 01a1 813c 7834 553c af22 8e3d
00000030: e744 b2bd 4ca4 45bc e3db fdba f4aa cf3c
00000040: 09cb 1c3e 5878 323e 3821 b83d aeb8 35bc
00000050: c2b1 2b3c 1aa9 983e 4e2d db3d 8233 383d
00000060: 2e53 fb3e e61b 66bc 9dfa 6f3d e733 e83d
00000070: 9907 213f f5a9 c83c 0934 453e 5cdd 723e
00000080: 87ff ad3e

in_fn.running_mean f4 [33]
2.2491643 0.024067078 0.007166881 0.012756984 0.0076331566 0.0018774739 0.006179295 0.0012778962
0.057999395 0.0058029476 0.0014135132 0.011613169 0.048375502 0.0054966663 0.01156434 0.0022487645
0.061189998 0.007120196 0.035774782 0.0049529206 0.0076932497 0.009140288 0.0063577723 0.0048471973
0.19065776 0.0019995894 0.017891405 0.011686569 0.188871 0.0044282805 0.018591084 0.02724975
0.19607514
00000000: 4ff2 0f40 5228 c53c 28d8 ea3b ab02 513c
00000010: 8f1f fa3b 9215 f63a af7b ca3b 157f a73a
00000020: c690 6d3d a726 be3b a245 b93a 2945 3e3c
00000030: 6425 463d 611d b43b 5c78 3d3c 0260 133b
00000040: 5da2 7a3d 8850 e93b 9488 123d 1c4c a23b
00000050: a817 fc3b 26c1 153c dc54 d03b 3dd5 9e3b
00000060: ca3b 433e 8b0b 033b ff90 923c 0679 3f3c
00000070: 6667 413e 1c1b 913b 544c 983c de3a df3c
00000080: ecc7 483e

in_fn.running_var f4 [33]
7.1876636 0.023422742 0.0071133575 0.01258669 0.0075526247 0.0018745473 0.0061395084 0.0012760933
0.053977028 0.005769592 0.0014113422 0.011478831 0.043691 0.0054673897 0.011431681 0.0022435088
0.057375044 0.0070699477 0.034369104 0.0049277977 0.0076223477 0.009044564 0.0063157347 0.0048224716
0.15238288 0.001994553 0.017355576 0.011458247 0.14372157 0.00440859 0.018236022 0.026243022
0.15466037
00000000: 5701 e640 0de1 bf3c 2b17 e93b 6738 4e3c
00000010: 027c f73b 5fb3 f53a ee2d c93b 9642 a73a
00000020: 0417 5d3d d80e bd3b c9fc b83a b511 3c3c
00000030: 56f5 323d ca27 b33b f24b 3b3c d507 133b
00000040: 1802 6b3d 05ab e73b 9ec6 0c3d 5d79 a13b
00000050: e3c4 f93b a72f 143c 39f4 ce3b d305 9e3b
00000060: 420a 1c3e 0cb7 023b 482d 8e3c 5fbb 3b3c
00000070: bf2b 133e ef75 903b b663 953c 9bfb d63c
00000080: 4a5f 1e3e

fc1.weight f4 [64, 33]
-0.2110985 -0.67112565 -1.4617714 -0.43720976 -0.2571916 -0.2448333 0.72973555 -0.43387824
0.25606957 -0.5495199 0.21239112 -0.38243443 -0.036022343 0.05953739 0.30921072 0.31715068
0.5578169 -0.9958921 -0.38260484 0.49729207 0.3929442 -0.27134433 0.29326835 0.08680207
-0.42976895 0.2669737 -0.14880799 -0.17768653 -0.43498123 0.023823045 -0.3954593 -0.69395894
0.45380595 -0.18846911 -0.5147059 -1.0069345 -0.3532097 -0.24946295 -0.17913951 0.6624956
-0.21413353 0.70020956 0.19705525 0.5497189 -0.41726512 -0.308067 -0.22401352 0.29817718
0.22222866 0.2261095 -0.70414263 -0.3675934 0.049748942 0.10598489 -0.2639447 0.18963417
0.119616754 0.01952734 -0.20053352 -0.58529377 -0.64291435 -0.29821712 -0.14320941 0.25264907
-0.43890998 0.20505038 -0.8372109 -0.8699394 -1.4622315 -1.7654176 0.16656217 -0.85822785
0.89308035 -0.7466182 0.14401591 -0.014842723 0.050570745 -0.859094 -0.4618744 0.47323197
0.23677416 0.24135025 0.15265287 -1.7822542 -0.22174937 0.5404764 -0.02247522 -0.28009012
0.25118273 0.05307986 -0.013024648 -0.16679867 -0.69529176 0.05107276 -1.0445883 -0.4022744
-0.07754981 -0.24533963 0.5395824 -2.1696968 -0.67394245 0.31537864 -0.81210005 0.028549606
0.24351412 0.29145423 0.26190263 0.061724935 -0.57747996 -0.4342954 0.062124897 -0.06841553
0.2026088 0.22365852 -0.010355456 0.010698975 0.17405371 0.18817723 0.21297336 -0.09989603
-0.02075352 0.33898258 -0.5664508 0.21210596 0.22674027 0.2389082 0.1638372 0.009232688
-0.089372054 -0.66124636 -0.48207536 1.7285721 -0.4503214 -0.6185558 -1.1268073 -0.51278627
-0.15590495 0.107139416 1.1910647 -0.14997922 0.7637897 -0.14099874 0.04057172 -0.30071533
-0.6264418 -0.049332134 0.17749311 0.367973 0.6284922 -1.350377 -0.1526524 0.25880426
0.3958975 -0.2826075 0.10843676 0.057729326 -0.9256859 0.2796592 0.029552517 -1.073192
0.082021326 0.12564383 -0.6473576 -0.8258521 0.30861962 -0.25412023 0.33162746 -0.9593071
0.11039348 -0.2305664 0.10900916 0.70894057 -0.3697631 0.7229769 -0.54265034 -0.10954395
-0.3739322 -0.63007176 -0.029152934 0.10167699 0.3208601 0.3093627 -0.6878188 -0.11758503
0.49188116 0.1904014 -0.17131914 0.20130454 0.20516722 -0.3047819 -0.04869745 -0.26432982
-0.26928416 -0.7541383 -0.30343407 -1.2518806 -1.23302 0.4431933 -0.014312977 0.13845614
-0.31357336 -0.5503177 -0.030827127 0.049435787 0.28627294 -0.13012949 0.22214766 -0.08134524
-0.14204308 -0.04593592 0.09326467 -0.18305477 0.18871467 0.045308072 0.25277725 -1.0549185
0.03932694 -0.19307993 0.0033144876 -0.09928835 0.15337972 -0.065357864 0.053955235 -0.029592719
-0.07541015 0.09578307 -0.0059946184 0.1743332 0.1219924 0.07910078 0.17693807 0.043286026
-0.08922762 -0.3733554 -0.33331975 -0.14210874 -0.43001115 0.26801577 -0.059766628 -0.093037635
-0.031579044 0.11623236 -0.030195048 0.13819177 0.2598128 0.2326367 0.26466903 -0.13685726
-0.32370055 0.0088088615 0.119275935 -0.091222875 -0.18846048 0.22296415 -0.08390161 -0.16133185
00000000: 352a 58be e4ce 2bbf 531b bbbf f5d9 dfbe
00000010: 9eae 83be 95b5 7abe f3cf 3a3f 4a25 debe
00000020: 8d1b 833e 56ad 0cbf 0f7d 593e 72ce c3be
00000030: 2a8c 13bd 7add 733d de50 9e3e 9361 a23e
00000040: 17cd 0e3f c9f2 7ebf c8e4 c3be 119d fe3e
00000050: fb2f c93e a5ed 8abe 4527 963e 49c5 b13d
00000060: ad0a dcbe c7b0 883e 1f61 18be 75f3 35be
00000070: dcb5 debe 8c28 c33c a479 cabe 4ba7 31bf
00000080: 4159 e83e 0cfe 40be c4c3 03bf 3be3 80bf
00000090: e7d7 b4be 3773 7fbe 5970 37be 5099 293f
000000a0: d245 5bbe ef40 333f dac8 493e 61ba 0c3f
000000b0: c6a3 d5be f5ba 9dbe cd63 65be aeaa 983e
000000c0: e98f 633e 4089 673e b142 34bf 3435 bcbe
000000d0: 8cc5 4b3d 9b0e d93d c223 87be 762f 423e
000000e0: a1f9 f43d cdf7 9f3c a958 4dbe d0d5 15bf
000000f0: 0996 24bf eaaf 98be 7da5 12be 385b 813e
00000100: cfb8 e0be baf8 513e 7453 56bf 59b4 5ebf
00000110: 672a bbbf 34f9 e1bf 468f 2a3e d2b4 5bbf
00000120: eaa0 643f 5f22 3fbf e878 133e e42e 73bc
00000130: 4523 4f3d 96ed 5bbf cd7a ecbe 764b f23e
00000140: ed74 723e 8524 773e 0951 1c3e e820 e4bf
00000150: 4412 63be a95c 0a3f f41d b8bc f967 8fbe
00000160: 069b 803e 446a 593d 5565 55bc 45cd 2abe
00000170: a4fe 31bf ac31 513d 12b5 85bf e9f6 cdbe
00000180: 6fd2 9ebd 503a 7bbe 1222 0a3f 50dc 0ac0
00000190: 7e87 2cbf 4f79 a13e cae5 4fbf dde0 e93c
000001a0: c45b 793e 7d39 953e 1a18 863e 49d3 7c3d
000001b0: bad5 13bf f75b debe ad76 7e3d 711d 8cbd
000001c0: ae78 4f3e bd06 653e eea9 29bc c14a 2f3c
000001d0: 233b 323e 88b1 403e b015 5a3e 4a96 ccbd
000001e0: 4903 aabc 208f ad3e eb02 11bf 4e32 593e
000001f0: 9a2e 683e 5aa4 743e f0c4 273e b344 173c
00000200: b208 b7bd 7147 29bf 95d2 f6be da41 dd3f
00000210: 8790 e6be ac59 1ebf 393b 90bf f645 03bf
00000220: 8ca5 1fbe e96b db3d cf74 983f 2794 19be
00000230: b987 433f f961 10be 882e 263d 5cf7 99be
00000240: 7d5e 20bf 7e10 4abd c1c0 353e f566 bc3e
00000250: dde4 203f 27d9 acbf e950 1cbe fe81 843e
00000260: 14b3 ca3e eeb1 90be 1814 de3d 9675 6c3d
00000270: c0f9 6cbf 7e2f 8f3e 1f18 f23c 5b5e 89bf
00000280: ccfa a73d c7a8 003e 3ab9 25bf 0b6b 53bf
00000290: 6403 9e3e 0c1c 82be 13cb a93e 2695 75bf
000002a0: fa15 e23d 9919 6cbe 3240 df3d 217d 353f
000002b0: 9751 bdbe 0415 393f 22eb 0abf 9458 e0bd
000002c0: 0b74 bfbe 624c 21bf 22d2 eebc 073c d03d
000002d0: c647 a43e ca64 9e3e e514 30bf 6cd0 f0bd
000002e0: d9d7 fb3e 96f8 423e 496e 2fbe c722 4e3e
000002f0: 5b17 523e 600c 9cbe fa76 47bd 3d56 87be
00000300: 9ddf 89be 350f 41bf b65b 9bbe a03d a0bf
00000310: 99d3 9dbf 3bea e23e fa80 6abc 72c7 0d3e
00000320: b08c a0be 9fe1 0cbf 2c89 fcbc 2e7d 4a3d
00000330: 5e92 923e aa40 05be ad7a 633e 5598 a6bd
00000340: be73 11be 4e27 3cbd 8c01 bf3d b672 3bbe
00000350: 6b3e 413e f594 393d 056c 813e 9207 87bf
00000360: 4915 213d bfb6 45be e037 593b b157 cbbd
00000370: 930f 1d3e 58da 85bd 2a00 5d3d 6e6c f2bc
00000380: a370 9abd ea29 c43d 816e c4bb 6784 323e
00000390: 27d7 f93d 97ff a13d 412f 353e b04c 313d
000003a0: f8bc b6bd 7028 bfbe e3a8 aabe f484 11be
000003b0: 6c2a dcbe 5d39 893e dacd 74bd 848a bebd
000003c0: 0759 01bd 3b0b ee3d 9b5b f7bc 2582 0d3e
000003d0: 2f06 853e 5138 6e3e b382 873e 4f24 0cbe
000003e0: 14bc a5be 0b53 103c f146 f43d 0fd3 babd
000003f0: c9fb 40be b750 643e 9bd4 abbd 2d34 25be

fc1.bias f4 [64]
-1.8405563 -1.5714775 -1.7400748 -1.034874 -1.4297904 -1.8584092 -1.2587043 -1.9370985
-2.1963422 -0.29216897 -1.8517478 -2.081463 -1.6797116 -2.2783577 -2.3807187 -0.8277224
-1.9991599 -1.3096125 -1.0082332 0.5053031 -1.9746948 -1.116651 -0.47152436 -0.24629597
-2.637891 -1.3905876 -1.3258436 -1.6094114 -2.766981 -0.25823689 -1.8520787 -1.9440635
-1.2009994 -1.518903 -2.0319946 -1.0261145 -1.6178902 -0.71337336 0.15952045 -1.4791148
-1.663876 -2.142834 -2.3964288 -2.4935925 -0.17363322 -2.2909305 -0.53597414 -1.4230932
-1.4919142 -2.3792193 -0.73408484 -1.1456915 -1.7468591 -2.8357759 -1.0624796 -1.7733299
-2.6662598 -1.482482 -0.23231225 -0.7633299 -2.4467235 -2.3433585 -1.9653462 -1.0072883
00000000: 5997 ebbf 2d26 c9bf c5ba debf c076 84bf
00000010: 5f03 b7bf 5ae0 edbf 391d a1bf d8f2 f7bf
00000020: df90 0cc0 2c97 95be 1206 edbf b136 05c0
00000030: ca00 d7bf 9dd0 11c0 b25d 18c0 9de5 53bf
00000040: 79e4 ffbf 62a1 a7bf c90d 81bf 8b5b 013f
00000050: cdc2 fcbf 6cee 8ebf a46b f1be 0335 7cbe
00000060: 35d3 28c0 c6fe b1bf 3eb5 a9bf 3101 cebf
00000070: 3716 31c0 a037 84be ea10 edbf 13d7 f8bf
00000080: 59ba 99bf 6a6b c2bf 330c 02c0 b857 83bf
00000090: 0717 cfbf a39f 36bf 5459 233e a253 bdbf
000000a0: e4f9 d4bf 3124 09c0 175f 19c0 0597 1fc0
000000b0: e8cc 31be 9b9e 12c0 9a35 09bf eb27 b6bf
000000c0: 0bf7 bebf 2145 18c0 fcec 3bbf 05a6 92bf
000000d0: 1499 dfbf 5a7d 35c0 55ff 87bf 79fc e2bf
000000e0: 00a4 2ac0 f8c1 bdbf 43e3 6dbe 9769 43bf
000000f0: 1e97 1cc0 96f9 15c0 7790 fbbf d3ee 80bf

fc2.weight f4 [64, 64]
0.03466976 -0.10891671 -0.13899235 -0.238325 -0.0016874487 -0.20467609 -0.17809586 -0.12897895
-0.092083246 -0.022018753 -0.36169514 -0.27066022 -0.09023331 -0.1598454 -0.059278686 -0.311451
0.030576078 0.03223759 -0.033529297 -0.16229789 0.07163907 -0.18582678 -0.06698428 -0.15937449
-0.09950556 -0.05195974 -0.03521898 -0.36536783 0.031214325 -0.23567836 -0.044175938 -0.09090913
-0.12728564 0.047497742 -0.034740947 0.051655706 -0.07404545 -0.0026174297 -0.13220394 -0.3048106
-0.21666797 -0.010501969 -0.025785288 0.0248364 -0.27069473 -0.048285723 0.057898507 0.013551475
-0.1533661 0.04179001 -0.33231515 -0.20448479 -0.11950684 0.000990425 -0.06380017 -0.21573022
-0.016619869 -0.083123535 -0.008577719 -0.5282463 0.012159566 -0.13077538 0.020611405 -0.017888954
-0.1314679 -0.26975644 -0.21125056 -0.41638133 -0.00959071 -0.4070539 -0.018876811 -0.2336421
-0.15091501 -0.15087524 -0.08133175 -0.083613895 -0.025126977 -0.5061604 -0.3353421 0.10824222
-0.21178524 -0.033999495 -0.21563485 -0.23263624 -0.15323216 -0.13513325 -0.4191329 -0.042165443
-0.6299683 -0.09132588 -0.20889857 -0.16745713 -0.054615013 -0.16700171 -0.19829996 0.0442681
-0.16812149 -0.3442079 -0.22701053 -0.03183523 -0.77907586 -0.3782223 -0.4855466 -0.3951017
-0.06648353 0.037759636 -0.10362383 0.078405336 -0.09147113 -0.012374326 -0.33617258 -0.050100863
-0.31212676 -0.17769258 -0.07203855 -0.20527312 -0.17687947 -0.119200155 0.0078017814 -0.0037216614
-0.7955637 -0.091902174 -0.2439126 -0.49299812 -0.1623373 -0.35475957 0.07839754 0.024390887
-0.3049947 -0.18076573 -0.32229334 -0.15831321 -0.089435294 -0.13393222 -0.19081107 -0.3312464
0.01875144 0.0011849735 -0.43091744 0.044672392 -0.6420913 -0.043440156 -0.1666818 0.013535874
0.014071069 -0.32458624 -0.039870575 -0.010959036 -0.5286924 -0.15392683 -0.29086134 -0.30232158
-0.47664225 -0.26076382 -0.031635515 -0.025115063 -0.04591777 -0.11915151 -0.08593829 -0.16340569
-0.32116264 -0.14346473 0.034371838 -0.074177705 -0.07953179 -0.26461512 -0.65933764 -0.3970806
-0.1943836 -0.033103026 -0.19854489 -0.023932328 -0.07298125 -0.08821982 -0.15157941 -0.046556685
-0.03405411 -0.10537633 -0.08693123 0.0038097568 -0.20309708 -0.0063082087 -0.22399469 -0.18051493
-0.5776494 -0.16304578 -0.4172221 -0.84975743 0.08139523 0.0632111 0.062151205 -0.19785985
-0.10571121 -0.08904121 -0.12416204 -0.19085729 -0.06493092 0.051947333 -0.18214956 -0.005065668
-0.019548794 -0.05283948 -0.06939811 -0.1319226 -0.09996487 -0.1091899 -0.11118592 -0.06929043
-0.061117616 -0.037876505 0.014091354 -0.15265502 -0.22643669 0.018597493 -0.1494341 -0.19560944
-0.17267862 -0.30018237 -0.18620351 0.03534273 0.09556208 -0.02651738 -0.14552015 0.058629915
-0.41922525 -0.31443882 -0.28105134 -0.30261794 -0.14810532 0.07710615 -0.33830082 -0.24945217
-0.13732837 -0.007102332 0.06790345 -0.10556188 -0.17966327 -0.14085865 0.08194935 -0.054644972
0.00737874 -0.028043056 0.0466814 -0.30535632 -0.099448 -0.035800435 0.014409414 -0.08492718
-0.1028554 0.05870927 -0.3477026 -0.2795093 -0.04752493 -0.028986108 -0.06001962 -0.08789335
00000000: e101 0e3d b90f dfbd 0354 0ebe 780b 74be
00000010: 622d ddba 9c96 51be c35e 36be 0f13 04be
00000020: 2496 bcbd ac60 b4bc 1b30 b9be fa93 8abe
00000030: 3ecc b8bd 83ae 23be 35ce 72bd 8176 9fbe
00000040: af7a fa3c 900b 043d 0456 09bd 6b31 26be
00000050: 81b7 923d 6049 3ebe 0e2f 89bd 1133 23be
00000060: 92c9 cbbd bdd3 54bd c741 10bd 7e11 bbbe
00000070: 2fb5 ff3c ab55 71be d4f1 34bd 912e babd
00000080: 2b57 02be fe8c 423d 864c 0ebd ef94 533d
00000090: 24a5 97bd 2f89 2bbb 7860 07be 2310 9cbe
000000a0: 35de 5dbe 7310 2cbc ab3b d3bc b575 cb3c
000000b0: 8098 8abe 40c7 45bd fc26 6d3d 0107 5e3c
000000c0: 010c 1dbe 002c 2b3d 3625 aabe 7664 51be
000000d0: 01c0 f4bd 26d1 813a aaa9 82bd 62e8 5cbe
000000e0: 6426 88bc ac3c aabd 9089 0cbc 263b 07bf
000000f0: eb38 473c fbe9 05be 40d9 a83c db8b 92bc
00000100: 859f 06be 841d 8abe 1152 58be ef2f d5be
00000110: 5a22 1dbc 5e69 d0be 8ba3 9abc e03f 6fbe
00000120: 7789 1abe 0a7f 1abe 4391 a6bd c33d abbd
00000130: 17d7 cdbc ba93 01bf f6b1 abbe 19ae dd3d
00000140: 3bde 58be 0e43 0bbd 62cf 5cbe 3238 6ebe
00000150: e4e8 1cbe 5f60 0abe 9698 d6be acb5 2cbd
00000160: 9a45 21bf 1009 bbbd 82e9 55be e279 2bbe
00000170: feb3 5fbd 7f02 2bbe 250f 4bbe 7852 353d
00000180: 0a28 2cbe 053c b0be 7375 68be a865 02bd
00000190: 8471 47bf 5aa6 c1be 9099 f8be c54a cabe
000001a0: 8428 88bd d9a9 1a3d bb38 d4bd fa92 a03d
000001b0: 3755 bbbd afbd 4abc d01e acbe 9036 4dbd
000001c0: 14cf 9fbe 0bf5 35be f388 93bd 1e33 52be
000001d0: e41f 35be 361f f4bd 16a6 ff3b 1ee7 73bb
000001e0: 10aa 4bbf 3537 bcbd 3ac4 79be 406a fcbe
000001f0: c03b 26be 0ca3 b5be e48e a03d 66cf c73c
00000200: 4428 9cbe a71a 39be a203 a5be dc1c 22be
00000210: da29 b7bd 8725 09be fa63 43be 2199 a9be
00000220: 9f9c 993c 1d51 9b3a 36a1 dcbe 66fa 363d
00000230: 1860 24bf 4eee 31bd a2ae 2abe 92c5 5d3c
00000240: 578a 663c 2b30 a6be 544f 23bd 878d 33bc
00000250: 6358 07bf ff9e 1dbe c7eb 94be e5c9 9abe
00000260: 740a f4be d682 85be 3e94 01bd 1bbe cdbc
00000270: 4614 3cbd b505 f4bd 6a00 b0bd d253 27be
00000280: 6e6f a4be 6be8 12be 7cc9 0c3d 7bea 97bd
00000290: 90e1 a2bd a27b 87be 5aca 28bf 264e cbbe
000002a0: 7f0c 47be 0a97 07bd 5a4f 4bbe bb0d c4bc
000002b0: 3277 95bd 98ac b4bd a237 1bbe 39b2 3ebd
000002c0: 537c 0bbd 8ccf d7bd 0009 b2bd 1dad 793b
000002d0: aef8 4fbe 17b5 cebb dd5e 65be e8d8 38be
000002e0: d5e0 13bf 79f5 26be 239e d5be b489 59bf
000002f0: 8bb2 a63d d274 813d 4392 7e3d c69b 4abe
00000300: 1e7f d8bd 3d5b b6bd ab48 febd 1870 43be
00000310: 81fa 84bd bac6 543d 6a85 3abe e7fd a5bb
00000320: cb24 a0bc 366e 58bd 9920 8ebd b816 07be
00000330: 62ba ccbd f49e dfbd 72b5 e3bd 24e8 8dbd
00000340: 7756 7abd 6524 1bbd 6cdf 663c 9951 1cbe
00000350: 05df 67be c559 983c 4105 19be d74d 48be
00000360: aad2 30be 81b1 99be 22ac 3ebe 8ac3 103d
00000370: 0db6 c33d fa3a d9bc 3c03 15be ec25 703d
00000380: b1a4 d6be 20fe a0be f6e5 8fbe bdf0 9abe
00000390: eca8 17be d4e9 9d3d c435 adbe 6470 7fbe
000003a0: cf9f 0cbe aeba e8bb f710 8b3d d430 d8bd
000003b0: a6f9 37be 403d 10be 10d5 a73d 68d3 5fbd
000003c0: 5bc9 f13b 8dba e5bc ff34 3f3d aa57 9cbe
000003d0: 65ab cbbd 7aa3 12bd 7615 6c3c 4dee adbd
000003e0: daa5 d2bd 2279 703d 1306 b2be d81b 8fbe
000003f0: 80a9 42bd 4674 edbc 22d7 75bd 6e01 b4bd

fc2.bias f4 [64]
-0.5202282 -0.38802418 -0.33620697 -0.26964402 -0.15404978 -0.38995674 0.53954947 -0.4198235
-0.17022263 -0.1250273 -0.34870902 -0.19685887 -0.5741229 -0.23790261 -0.17001171 -0.24062851
-0.024858315 0.48996004 -0.2201032 -0.045887183 1.8535737 -0.11883993 -0.65875417 -1.0928869
-0.11501429 -0.074239925 -0.74991614 -0.5279207 0.6272283 -0.2983866 -0.19038446 -0.3750039
-0.13151686 -0.07417869 -0.849013 -0.17345552 -0.27994135 -0.24611491 -0.36188653 -0.07317682
-0.49845088 -0.2601954 -0.54735386 -0.14779392 -0.71423006 -0.14869684 -0.1397724 -0.034330204
-0.70575434 -0.49994785 -0.03575607 -0.0707059 -0.4759868 -0.37174836 -0.40197527 -0.39429468
1.5289147 -0.09597485 -0.19650814 -0.017433695 -0.34954602 -0.16322663 -0.22742185 -0.069496654
00000000: ad2d 05bf 1bab c6be 5223 acbe c80e 8abe
00000010: 3abf 1dbe 69a8 c7be ea1f 0a3f 1bf3 d6be
00000020: d74e 2ebe 2807 00be fd89 b2be 5f95 49be
00000030: b8f9 12bf be9c 73be 8d17 2ebe 5267 76be
00000040: aaa3 cbbc 0bdc fa3e bc62 61be 33f4 3bbd
00000050: e741 ed3f 5962 f3bd 1da4 28bf b8e3 8bbf
00000060: 9d8c ebbd 1a0b 98bd 81fa 3fbf d025 07bf
00000070: 0992 203f 21c6 98be 25f4 42be 8300 c0be
00000080: 5bac 06be ffea 97bd ea58 59bf 539e 31be
00000090: 7954 8fbe 8c05 7cbe 3149 b9be bbdd 95bd
000000a0: f434 ffbe 5538 85be 621f 0cbf 4a57 17be
000000b0: c8d7 36bf fc43 18be 7f20 0fbe d49d 0cbd
000000c0: 51ac 34bf 2af9 ffbe f574 12bd 41ce 90bd
000000d0: 8bb4 f3be cd55 bebe b4cf cdbe fee0 c9be
000000e0: 7ab3 c33f 768e c4bd 6e39 49be 1cd1 8ebc
000000f0: b2f7 b2be e224 27be 46e1 68be 4354 8ebd

fc3.weight f4 [1, 64]
-0.06330232 0.12199573 -0.009210222 -0.023305025 0.013348248 -0.0051314523 0.06373621 -0.06275861
-0.070192486 0.0033385782 -0.0058595473 0.0777439 0.14195038 0.08032861 0.04838636 -0.0036992675
-0.0060404055 -0.3437873 -0.06729843 0.1323087 -0.26139027 -0.001595029 -0.06500399 0.051162016
0.0004334017 -0.013092302 0.21041216 0.14668179 0.12357014 -0.01699392 0.035023026 -0.23658383
0.011601395 0.0058215465 0.1429856 0.007191968 -0.08448478 -0.049966067 -0.14784838 0.058038518
-0.058297664 -6.9316056e-06 -0.019548293 0.026174592 0.047266 -0.023634907 -0.013011305 0.06814948
0.04181592 -0.21187204 -0.031246953 -0.022983946 -0.15793194 -0.30567774 -0.19998112 0.026647003
-0.13786577 -0.053316697 0.012721647 -0.07218132 -0.024565566 0.0029248733 -0.24545065 0.018685685
00000000: a6a4 81bd e6d8 f93d 79e6 16bc 2eea bebc
00000010: 9cb2 5a3c be25 a8bb 2188 823d 9687 80bd
00000020: 14c1 8fbd 0ccc 5a3b 7201 c0bb 3238 9f3d
00000030: 715b 113e 5483 a43d c730 463d 696f 72bb
00000040: 98ee c5bb e404 b0be c2d3 89bd ef7b 073e
00000050: f2d4 85be 4b10 d1ba d020 85bd 438f 513d
00000060: 313a e339 1881 56bc 4976 573e c033 163e
00000070: 5712 fd3d d536 8bbc 4e74 0f3d 0843 72be
00000080: c713 3e3c acc2 be3b d16a 123e 9aaa eb3b
00000090: 5b06 adbd 38a9 4cbd 9165 17be ccb9 6d3d
000000a0: 88c9 6ebd 0a96 e8b6 be23 a0bc 196c d63c
000000b0: fe99 413d fe9d c1bc 5e2d 55bc f491 8b3d
000000c0: 2c47 2b3d fcf4 58be 9cf9 ffbc d448 bcbc
000000d0: e9b8 21be cb81 9cbe dac7 4cbe d14a da3c
000000e0: af2c 0dbe 9c62 5abd 746e 503c cdd3 93bd
000000f0: ba3d c9bc 3baf 3f3b 6a57 7bbe b912 993c

fc1.weight f4 [64, 1]
1.404392 -0.37334445 -0.22222644 -0.47487512 -1.5879586 0.3533332 -0.078966916 0.79256546
-0.018149167 0.0084832255 -0.06830066 0.009121056 -1.6987498 0.07494658 -0.07290876 -0.023683837
-0.1682144 -0.0039948225 -0.15861632 -0.25453314 -0.074180655 -0.3382969 -0.16761565 -0.34382227
-1.2662363 -0.3440905 0.0012199115 0.26840144 -2.121462 -0.07660582 0.048622347 1.1729357
-0.17335358 -2.172055 -0.70228344 -0.05634153 -0.029139714 0.04596398 -0.055017933 -0.28198537
0.048710987 -0.42309844 -0.15137583 -0.06184081 0.087377146 -0.05804958 -2.0027955 -1.2175937
-0.46149385 -0.1096344 -0.70683724 -2.0310473 0.011960475 -0.0137123875 0.1069841 0.2968299
-0.04682362 -2.0359416 -0.09018303 -0.020204086 -0.12480218 0.26313704 0.21798705 0.014862013
00000000: 1ec3 b33f 0127 bfbe 548f 63be d522 f3be
00000010: 3a42 cbbf 17e8 b43e 68b9 a1bd 92e5 4a3f
00000020: 90ad 94bc 3afd 0a3c 37e1 8bbd 7b70 153c
00000030: a270 d9bf 987d 993d 3051 95bd 9b04 c2bc
00000040: 6540 2cbe 00e7 82bb 516c 22be 2b52 82be
00000050: 07ec 97bd 4035 adbe 70a3 2bbe 7909 b0be
00000060: 0814 a2bf a12c b0be 70e5 9f3a ea6b 893e
00000070: 09c6 07c0 83e3 9cbd 3a28 473d c222 963f
00000080: 9a83 31be f302 0bc0 d9c8 33bf 60c6 66bd
00000090: 69b6 eebc ba44 3c3d 7c5a 61bd 6360 90be
000000a0: 2c85 473d 5ca0 d8be 4402 1bbe ca4c 7dbd
000000b0: caf2 b23d 65c5 6dbd cd2d 00c0 1cda 9bbf
000000c0: ec48 ecbe 0088 e0bd 49f3 34bf aefc 01c0
000000d0: def5 433c eca9 60bc 7b1a db3d 17fa 973e
000000e0: 20ca 3fbd de4c 02c0 e1b1 b8bd 0a83 a5bc
000000f0: 4998 ffbd e6b9 863e ff37 5f3e cd7f 733c

fc1.bias f4 [64]
-0.9285284 -0.59082866 -0.4541476 -0.81434035 -1.107962 -1.7306865 -0.15627535 0.32147223
-0.08205444 -0.58075875 -0.11740376 -0.17245802 1.3644538 -0.6234145 -0.92611206 -0.10523844
-0.999082 -0.75450915 -0.39458165 -0.6000677 -0.15608907 -0.8448043 -0.88898194 -0.4795869
-0.78469294 -0.49438077 -0.020390676 -1.9693811 0.049038924 -0.442176 -0.26877102 -0.75664634
-0.24742284 -0.16188899 -1.8223721 -0.7298626 -0.28253376 -0.5328869 -0.14276147 -0.5989468
-1.0158371 -0.85042953 -0.26707825 -0.15502363 -0.5599534 -0.18837695 0.04880151 0.021814121
-0.6516314 -0.663581 -1.06153 -0.06271704 -0.10874319 -0.028804252 -1.8516022 -1.5920714
-0.6047716 -0.3416616 -0.25801238 -0.6317226 -0.19468312 -2.5276568 -1.7888385 -0.1961792
00000000: 0ab4 6dbf 8c40 17bf 0986 e8be 9c78 50bf
00000010: b3d1 8dbf 2387 ddbf a506 20be 0298 a43e
00000020: 290c a8bd 9bac 14bf 6271 f0bd d698 30be
00000030: 6ca6 ae3f 1898 1fbf ae15 6dbf 4087 d7bd
00000040: d7c3 7fbf 8327 41bf 9b06 cabe 099e 19bf
00000050: d0d5 1fbe 1845 58bf 5294 63bf 6a8c f5be
00000060: a3e1 48bf 7a1f fdbe 590a a7bc ae14 fcbf
00000070: 0add 483d e564 e2be 5b9c 89be 93b3 41bf
00000080: 6a5c 7dbe 3ac6 25be 7d43 e9bf 46d8 3abf
00000090: 44a8 90be 476b 08bf 1030 12be 9454 19bf
000000a0: f306 82bf c0b5 59bf 7bbe 88be 84be 1ebe
000000b0: 1b59 0fbf e3e5 40be 18e4 473d 87b3 b23c
000000c0: 51d1 26bf 72e0 29bf 37e0 87bf cb71 80bd
000000d0: c0b4 debd e5f6 ebbc 4d01 edbf ffc8 cbbf
000000e0: 50d2 1abf 45ee aebe 331a 84be 93b8 21bf
000000f0: 035b 47be 21c5 21c0 a9f8 e4bf 33e3 48be

fc2.weight f4 [64, 64]
-0.08886652 0.3566075 -0.018566584 -0.040000156 0.26056346 -0.058299918 -0.021881726 -0.0070931693
-0.12683956 0.11499796 -0.2887863 -0.12418677 0.010998512 -0.06975501 -0.07661903 -0.06796687
0.038685977 -0.028304413 -0.514028 -0.0540881 -0.019280536 0.30810416 -0.04233159 -0.063799016
-0.062014036 0.08600326 -0.31772438 -0.23496994 -0.015830731 -0.27644807 -0.26802596 -0.1755679
-0.3459442 0.07423877 0.28113002 -0.03388546 -0.28719783 0.17323288 -0.21207874 -0.25978264
-0.25296685 -0.05697012 -0.3068405 0.10250929 -0.19083415 -0.12891379 -0.034994107 -0.11387739
-0.08992003 0.003980443 0.058158726 -0.15440524 -0.2708095 -0.11358384 -0.24816045 -0.1641074
-0.08062348 0.13027129 -0.34764293 -0.5576884 -0.17371717 -0.21683669 -0.11201475 -0.7422663
-0.11863981 -0.11708785 -0.033712607 -0.14784127 0.058700785 0.02036497 0.057046354 -0.14744192
-0.12721358 -0.09242836 -0.019336231 -0.10808456 -0.018101484 -0.101724744 -0.009735331 -0.18658581
0.02124931 0.05892451 -0.039915223 -0.021753948 -0.18115285 0.09106718 0.108982995 0.037694197
-0.032043677 -0.1643786 -0.14440507 0.050304316 -0.2196873 -0.0063129994 -0.15721412 -0.14804691
-0.08511961 -0.21429306 -0.1529479 0.09093648 0.014057256 0.118219465 -0.12391929 -0.20853525
0.063075 -0.02662827 -0.21655655 -0.028155679 -0.18821155 0.022240842 -0.046109267 -0.27440068
-0.28476596 -0.010949552 -0.07186055 -0.07008209 -0.21054542 -0.06195555 -0.17749164 -0.14832556
-0.08321117 -0.021510128 -0.04636296 -0.10202202 -0.10639551 -0.0042194775 -0.044930585 -0.12257148
-0.3243852 0.07684177 -0.007244438 -0.09501698 0.113593146 0.027547896 -0.12135778 -0.27372417
-0.046776466 -0.08303261 -0.009962414 -0.1716593 0.036292743 -0.08035989 0.035353497 -0.037133917
0.029732242 0.10367778 -0.13135163 -0.13346611 -0.16334595 -0.005129963 -0.05921507 -0.048452105
-0.025624812 -0.036098287 0.029043414 -0.044628836 -0.040267527 -0.14085561 -0.19030516 0.025124963
-0.102714926 0.025231883 0.00462389 -0.07965839 -0.008586756 0.07005234 -0.07269204 -0.071036115
-0.13339458 0.0017213827 -0.15034765 -0.1490736 -0.018645883 -0.11552919 0.030685097 -0.11085544
-0.079364784 -0.047710195 -0.11423257 0.052697446 -0.054711718 0.06293679 -0.10087686 -0.112476684
-0.117513284 -0.047451332 0.0032560348 -0.20560569 -0.043720677 -0.0043074875 -0.010417459 -0.033579987
-0.16617568 -0.05609082 -0.1372063 -0.14550328 0.052165568 -0.18382016 -0.1628095 -0.07984609
-0.18109027 -0.10504249 -0.034161504 -0.058408696 0.00537986 -0.23000486 0.0010868162 -0.12264599
-0.069914594 -0.07031919 -0.0703302 -0.10136189 -0.18362793 -0.08810744 -0.10356602 0.00930909
-0.08048982 -0.116964914 -0.14881581 -0.19734894 -0.21797812 -0.17820391 -0.05193749 -0.08191735
-0.14725864 -0.1559326 0.07985173 0.09010558 0.020272955 0.0364632 -0.040913973 -0.15710683
-0.17994139 -0.12246022 -0.024189359 -0.1379156 -0.09331004 -0.098827206 -0.24636188 -0.15316546
-0.048161533 -0.025300056 -0.21657443 -0.07914574 -0.09446042 -0.12865005 -0.06085398 -0.0880924
-0.046100378 0.003164602 -0.035991 -0.1403415 -0.16591193 -0.22291638 -0.049831208 -0.13923584
00000000: a6ff b5bd 4295 b63e f318 98bc 34d7 23bd
00000010: 9368 853e e5cb 6ebd 4e41 b3bc d16d e8bb
00000020: 3be2 01be 0d84 eb3d ccdb 93be a255 febd
00000030: 1a33 343c b7db 8ebd 70ea 9cbd 3732 8bbd
00000040: 3075 1e3d a8de e7bc 5797 03bf 7c8b 5dbd
00000050: 37f2 9dbc d4bf 9d3e e463 2dbd 0fa9 82bd
00000060: 6e02 7ebd 7a22 b03d c5ac a2be f69b 70be
00000070: 73af 81bc 9a8a 8dbe b33a 89be 12c8 33be
00000080: 991f b1be 7f0a 983d 46f0 8f3e 7bcb 0abd
00000090: 980b 93be f663 313e 2b2b 59be 3b02 85be
000000a0: df84 81be 8059 69bd 331a 9dbe 64f0 d13d
000000b0: 076a 43be fa01 04be fb55 0fbd 8d38 e9bd
000000c0: fe27 b8bd 606e 823b d837 6e3d 681c 1ebe
000000d0: 8ba7 8abe a59e e8bd c61d 7ebe c50b 28be
000000e0: ec1d a5bd d665 053e 41fe b1be abc4 0ebf
000000f0: eae2 31be 700a 5ebe fd67 e5bd 2a05 3ebf
00000100: 6ef9 f2bd c1cb efbd 3b16 0abd b463 17be
00000110: 3c70 703d 70d4 a63c 70a9 693d 04fb 16be
00000120: 4744 02be 144b bdbd 0467 9ebc 705b ddbd
00000130: 9049 94bc 1055 d0bd f080 1fbc 5a10 3fbe
00000140: 0813 ae3c d45a 713d 257e 23bd 5635 b2bc
00000150: 2280 39be 6e81 ba3d 7a32 df3d 3b65 1a3d
00000160: 3b40 03bd dd52 28be ecde 13be e60b 4e3d
00000170: b5f5 60be 47dd cebb bdfc 20be 9c99 17be
00000180: 3153 aebd a46f 5bbe 609e 1cbe e83c ba3d
00000190: 6850 663c 0c1d f23d 66c9 fdbd 448a 55be
000001a0: 772d 813d 8823 dabc 00c1 5dbe bda6 e6bc
000001b0: 87ba 40be 6d32 b63c 12dd 3cbd 3f7e 8cbe
000001c0: d8cc 91be c065 33bc a02b 93bd 3387 8fbd
000001d0: 3899 57be 1ac5 7dbd 5ec0 35be a8e2 17be
000001e0: 9e6a aabd 0236 b0bc 16e7 3dbd ecf0 d0bd
000001f0: e4e5 d9bd 8b43 8abb 2209 38bd c206 fbbd
00000200: d115 a6be 385f 9d3d c062 edbb 4398 c2bd
00000210: 86a3 e83d 20ac e13c 6e8a f8bd 9325 8cbe
00000220: ae98 3fbd 000d aabd 6539 23bc 75c7 2fbe
00000230: b3a7 143d ba93 a4bd d4ce 103d bc19 18bd
00000240: 0891 f33c 0455 d43d 0b81 06be 57ab 08be
00000250: 2944 27be 4019 a8bb 808b 72bd b775 46bd
00000260: 20eb d1bc ccdb 13bd 74ec ed3c bacc 36bd
00000270: 90ef 24bd 743c 10be 5bdf 42be ded2 cd3c
00000280: 345c d2bd 18b3 ce3c 0084 973b f023 a3bd
00000290: 77af 0cbc 9a77 8f3d 90df 94bd 627b 91bd
000002a0: 9798 08be 05a0 e13a bcf4 19be c0a6 18be
000002b0: 40bf 98bc 919a ecbd 505f fb3c 2d08 e3bd
000002c0: 018a a2bd c46b 43bd c4f2 e9bd 47d9 573d
000002d0: 6519 60bd 01e5 803d 8798 cebd 2d5a e6bd
000002e0: ceaa f0bd 545c 42bd 3363 553b 4c8a 52be
000002f0: 7414 33bd d325 8dbb fdad 2abc 2b8b 09bd
00000300: f529 2abe 7dbf 65bd cf7f 0cbe d0fe 14be
00000310: 90ab 553d 5a3b 3cbe 89b7 26be 5986 a3bd
00000320: ba6f 39be 8420 d7bd efec 0bbd f53d 6fbd
00000330: 8949 b03b 6586 6bbe 8073 8e3a d22d fbbd
00000340: 622f 8fbd 8203 90bd 4809 90bd d396 cfbd
00000350: f608 3cbe ac71 b4bd 6c1a d4bd 2785 183c
00000360: d9d7 a4bd 4d8b efbd 2c63 18be d715 4abe
00000370: a835 5fbe 167b 36be 68bc 54bd 49c4 a7bd
00000380: f8ca 16be ccac 1fbe 4e89 a33d 4689 b83d
00000390: 7813 a63c 705a 153d 6995 27bd 9de0 20be
000003a0: 8e42 38be 6ccc fabd c328 c6bc bf39 0dbe
000003b0: 5619 bfbd eb65 cabd 4a46 7cbe 68d7 1cbe
000003c0: 0745 45bd 1042 cfbc b0c5 5dbe 2917 a2bd
000003d0: 7774 c1bd d7bc 03be 0642 79bd ca69 b4bd
000003e0: c0d3 3cbd 3665 4f3b 4c6b 13bd afb5 0fbe
000003f0: d1e4 29be 3144 64be cf1b 4cbd d793 0ebe

fc2.bias f4 [64]
-0.6922699 -0.13027726 -0.49355525 -0.14962941 -0.27993497 -0.050046157 -1.0118316 -0.93875325
-0.3410745 0.7394471 -0.14230251 -0.19183253 -0.20505285 -0.1659775 -0.6445623 -0.15981735
-0.09740042 -0.13652234 -0.19688253 -0.29325962 0.90909946 0.31548324 -0.17697605 1.4454613
-0.044722714 -0.3967006 -0.07232323 -0.27333972 -0.20146762 -0.41232896 -0.26487884 -0.16331764
-0.5049726 -0.20074789 -0.00788093 -0.09085433 -0.32348517 -0.35530514 -0.1412803 -2.6154664
-0.2237732 -0.15163362 -0.31707767 -0.6626821 0.6542523 -0.23386128 -0.12013812 -0.7979252
-0.39445052 -0.40126035 -0.121061996 -0.19534324 -0.33343318 -0.6522215 -0.20296966 -0.35225934
-0.20398593 -0.0109448675 -0.10637987 -0.11054773 -0.3085363 -0.5739546 -0.029032612 0.21056698
00000000: 9a38 31bf 6767 05be 46b3 fcbe 7438 19be
00000010: a353 8fbe 33fd 4cbd b383 81bf 2252 70bf
00000020: 51a1 aebe 684c 3d3f c0b7 11be bf6f 44be
00000030: 60f9 51be 01f6 29be 0902 25bf 29a7 23be
00000040: df79 c7bd 83cc 0bbe 939b 49be 2026 96be
00000050: beba 683f 0587 a13e 3639 35be e004 b93f
00000060: 2a2f 37bd 571c cbbe 341e 94bd 2ff3 8bbe
00000070: 874d 4ebe c81c d3be 339e 87be bd3c 27be
00000080: e245 01bf db90 4dbe 041f 01bc d611 babd
00000090: d99f a5be 8eea b5be c8ab 10be cd63 27c0
000000a0: cd24 65be d845 1bbe 0158 a2be 89a5 29bf
000000b0: 147d 273f 5579 6fbe fa0a f6bd d344 4cbf
000000c0: 6bf5 c9be ff71 cdbe 5aef f7bd 0f08 48be
000000d0: c1b7 aabe fdf7 26bf 47d7 4fbe 565b b4be
000000e0: b0e1 50be 1a52 33bc b0dd d9bd d966 e2bd
000000f0: 78f8 9dbe b0ee 12bf cdd5 edbc df9e 573e
