maddpg_pytorch/models/cache_data/model/run48/model.pt (torch, 690099 bytes, 168 tensors)

fc1.weight f4 [64, 1]
0	0x3f269a10	0.6507883
1	0xbf78be7f	-0.97165674
2	0xbfabf1b4	-1.3433137
3	0xbb86b7e4	-0.004111277
4	0xbf3bb231	-0.73318774
5	0x3e60238d	0.21888562
6	0xbea378fb	-0.31928238
7	0x3f812991	1.009081
8	0x3d167708	0.03673461
9	0xbe097332	-0.1342285
10	0x3c7249f8	0.014788143
11	0xbded4f20	-0.115873575
12	0xbe3d7aaf	-0.18503831
13	0xbf5c4faf	-0.8605909
14	0xbd955130	-0.07290876
15	0xbd2108df	-0.0393151
16	0x3e146c30	0.14494395
17	0xbb82e700	-0.0039948225
18	0x3e195eb5	0.14977534
19	0xbde09a91	-0.10966981
20	0xbc9ae99f	-0.018910227
21	0xbf08ac1e	-0.5338763
22	0xbe2ba370	-0.16761565
23	0xbf0bfde4	-0.5468428
24	0xbed943cb	-0.42434534
25	0xbda9938e	-0.08280097
26	0xbc8f22f6	-0.017472725
27	0x3f5cf728	0.8631463
28	0xbd4950e9	-0.049149428
29	0x3cbfd0c1	0.023414971
30	0x3e326120	0.17419863
31	0x3fbbac40	1.4661942
32	0x3e85b2a8	0.26112866
33	0xbe2ccabb	-0.1687421
34	0xc018460a	-2.3792748
35	0xbfeb9cbb	-1.8407205
36	0x3f3d9849	0.74060494
37	0x3c9d0777	0.019168599
38	0x3c22cf99	0.00993719
39	0xbec76c2c	-0.38949716
40	0x3ed91724	0.42400467
41	0xbed8a05c	-0.42309844
42	0x3f01698f	0.50551695
43	0xbd957a09	-0.07298667
44	0xbdec1185	-0.11526779
45	0xbd00ebb2	-0.031474777
46	0xbfc02b6f	-1.5013255
47	0x3ce72fff	0.028221129
48	0xbe7fc14f	-0.24976085
49	0xbde08800	-0.1096344
50	0xbf50f366	-0.81621397
51	0xbf3fb1e8	-0.7488084
52	0x3dcdc8cb	0.10048064
53	0xbd677d7c	-0.056516156
54	0x3effd0f3	0.49964103
55	0x3eadc095	0.3393599
56	0xbd3fca20	-0.04682362
57	0xbf403a7e	-0.7508925
58	0x3e1cf2eb	0.15327041
59	0x3e36a97e	0.17838094
60	0xbd35bdde	-0.044370525
61	0x3e80a374	0.25124705
62	0x3eed759c	0.4637879
63	0x3efdd87e	0.49579233

fc1.bias f4 [64]
0	0x3e5a917e	0.21344563
1	0xbedca8ba	-0.43097478
2	0xbf2f58ed	-0.68495065
3	0xbe93b83b	-0.28851494
4	0xbf74e6c8	-0.95664644
5	0xbf8a2e88	-1.079545
6	0xbec4acf4	-0.38413203
7	0x3eb04833	0.34430084
8	0xbe264fd7	-0.16241394
9	0xbe34f74a	-0.17672458
10	0xbe08bdcc	-0.13353652
11	0xbe0fed4e	-0.14055368
12	0xbd980779	-0.074233
13	0xbf05d81f	-0.522829
14	0xbf6d15ae	-0.92611206
15	0xbd9815a1	-0.074260004
16	0xbf33ffe2	-0.7031232
17	0xbf412780	-0.754509
18	0xbf10fdc3	-0.5663721
19	0xbe8c4539	-0.27396563
20	0xbd81fcf5	-0.06347076
21	0xbf2642fc	-0.6494596
22	0xbf639452	-0.88898194
23	0xbeaed9e5	-0.34150615
24	0xbe5b73bd	-0.2143087
25	0xbdc1acdd	-0.09456799
26	0x3b56289e	0.0032678018
27	0xbf9a451c	-1.205234
28	0x3f0d384b	0.5516402
29	0xbba19aae	-0.0049317693
30	0xbf45986e	-0.77185714
31	0x3e8a49f2	0.2700954
32	0x3e35e890	0.17764497
33	0x3f59f5f9	0.8514095
34	0xbf56bfee	-0.8388661
35	0xbf25a1e4	-0.6470015
36	0x3ecdeb47	0.40218565
37	0xbebdccbb	-0.3707026
38	0xbd2adc6f	-0.041714128
39	0xbeee5ab7	-0.46553585
40	0xbfdb8c35	-1.7152163
41	0xbf59b5c0	-0.85042953
42	0x3ec69769	0.38787392
43	0xbe042628	-0.1290518
44	0xbe1cb548	-0.15303528
45	0xbbf89e15	-0.007587204
46	0xbf3a813f	-0.72853464
47	0xbe491796	-0.19637904
48	0x3d69a87e	0.057045452
49	0xbf29e072	-0.663581
50	0x3c2180bf	0.009857356
51	0xbea5da8f	-0.3239331
52	0x3dbde1fc	0.09271619
53	0xbe02a803	-0.12759404
54	0xbff594b9	-1.9186012
55	0xbfc66750	-1.5500278
56	0xbf1ad250	-0.6047716
57	0x3d964be5	0.073386945
58	0x3e13498a	0.14383522
59	0xbf429c02	-0.760193
60	0xbe96afd0	-0.2943101
61	0xbfb8bc91	-1.4432546
62	0xbfe7e3ca	-1.8116391
63	0x3ebc9b58	0.36837268

fc2.weight f4 [64, 64]
0	0x3d937ff0	0.072021365
1	0x3d58b9c7	0.052911546
2	0xbe111f0b	-0.14171998
3	0xbcf20686	-0.029544126
4	0x3d69dc97	0.057095136
5	0x3da9a3aa	0.082831696
6	0xbc420846	-0.011842793
7	0x3db5ec04	0.08882907
8	0xbc5b9497	-0.013402126
9	0xbd5b8bb9	-0.053600047
10	0xbe36ba5b	-0.17844526
11	0xbe490322	-0.19630101
12	0xbe18c916	-0.14920458
13	0xbdd33e86	-0.1031466
14	0xbd9cea70	-0.07661903
15	0xbd36d3a2	-0.044635423
16	0x3d1e7530	0.038685977
17	0xbce7dea8	-0.028304413
18	0x3d44c850	0.048042595
19	0x3d257878	0.04039809
20	0xbc51928a	-0.012791285
21	0x3d3ad556	0.04561361
22	0xbd2d63e4	-0.04233159
23	0x3d06f810	0.032951415
24	0xbda13e25	-0.07873181
25	0xbdc3e8a2	-0.095658556
26	0xbe350baf	-0.17680238
27	0xbda4c408	-0.080452025
28	0xbe224f52	-0.15850571
29	0xbde4ab19	-0.11165447
30	0x3db6021a	0.088871196
31	0xbd274fd8	-0.04084763
32	0xbe1bef4e	-0.15228006
33	0xbd18ff6b	-0.03735296
34	0xbcb7591d	-0.02238136
35	0x3c8df4f3	0.017328715
36	0xbe1eb8f4	-0.15500242
37	0x3cde04c0	0.027101874
38	0xbe0e984c	-0.13925284
39	0xbdee0dc2	-0.11623718
40	0xbdcc02d8	-0.0996148
41	0xbd695980	-0.05697012
42	0xbe073eed	-0.13207598
43	0xbd054153	-0.032533
44	0xbd87187e	-0.065964684
45	0xbcddbe37	-0.02706824
46	0x3d19ab0f	0.03751665
47	0x3cf0eaab	0.029408773
48	0xbb9a2cd9	-0.0047050533
49	0x3b826e60	0.003980443
50	0xbe2f5422	-0.17121938
51	0x3c0b8b05	0.008517032
52	0xbe0007ee	-0.12503025
53	0xbdccbaa9	-0.0999654
54	0xbddc8b32	-0.10768737
55	0xbcca44f0	-0.024691075
56	0xbda51dec	-0.08062348
57	0x3cf18f4d	0.029487276
58	0xbe4ea6f0	-0.20180869
59	0xbdc78c2e	-0.09743534
60	0xbdbcd271	-0.09219826
61	0xbd8a6c54	-0.06758943
62	0x3d373318	0.04472646
63	0xbd4514f8	-0.0481157
64	0xbeacf747	-0.33782408
65	0xbe95ca51	-0.29255918
66	0xbe51080c	-0.20413226
67	0xbe3d4a53	-0.18485384
68	0xb9933f08	-0.00028084987
69	0xbd8f8779	-0.07008261
70	0xbd21fa30	-0.039545238
71	0xbe9d1b09	-0.3068469
72	0xbdb09539	-0.08622212
73	0xbeaefa3b	-0.34175286
74	0x3d40a253	0.047029804
75	0xbe19a6ea	-0.15005079
76	0x3c2b976b	0.010473113
77	0xbdf4eece	-0.11959611
78	0xbc1f80f0	-0.009735331
79	0xbdf9a3c9	-0.12189443
80	0x3cae1308	0.02124931
81	0x3d715ad4	0.05892451
82	0xbdcdb082	-0.10043432
83	0xbe233f75	-0.15942176
84	0xbe9beb6c	-0.3045305
85	0x3dba816e	0.09106718
86	0x3ddf327a	0.108982995
87	0xbd92180a	-0.07133491
88	0xbe439e9a	-0.1910347
89	0xbe3c74e9	-0.18403973
90	0xbdfdcb7d	-0.12392328
91	0xbdf1f741	-0.11814738
92	0xbeb6b188	-0.3568232
93	0x3d126ddd	0.035749305
94	0xbd828cc8	-0.06374508
95	0xbea00d58	-0.3126018
96	0xbc6f7cef	-0.014617189
97	0xbeb459ac	-0.35224664
98	0xbe9ba266	-0.30397338
99	0xbe32ce9d	-0.17461629
100	0x3d0cdb90	0.03438908
101	0x3df21d0c	0.118219465
102	0xbdad8139	-0.08471913
103	0xbe86b956	-0.26313275
104	0xbe011f4e	-0.12609598
105	0xbcda2388	-0.02662827
106	0xbdf58236	-0.119877264
107	0x3d8d7b87	0.069083266
108	0xbe97a0ec	-0.2961496
109	0x3bff2049	0.007785831
110	0xbe04d0de	-0.12970302
111	0xbe36c59b	-0.17848818
112	0xbe815d21	-0.25266364
113	0xbc3365c0	-0.010949552
114	0xbe67c96c	-0.2263543
115	0xbe309e12	-0.17247799
116	0xbe02912d	-0.12750693
117	0xbe14313d	-0.14471908
118	0xbebb05a3	-0.36527738
119	0xbeaab134	-0.3333832
120	0xbdaa6a9e	-0.08321117
121	0xbe1f7aad	-0.15574141
122	0x3d1d3bb4	0.038387015
123	0xbd60c7c8	-0.054878026
124	0xbe20e34b	-0.15711705
125	0xbe43bcf3	-0.19115047
126	0xbd189396	-0.037250124
127	0xbe794afb	-0.24345009
128	0xbe9954c8	-0.29947495
129	0xbecfd668	-0.40593266
130	0xbf0af63e	-0.54281986
131	0xbd740cd3	-0.059582543
132	0x3e1fce75	0.15606101
133	0xbdadeb9c	-0.084922045
134	0xbccbdcd7	-0.024885578
135	0xbdc93200	-0.0982399
136	0x3ca68287	0.020325912
137	0xbea86382	-0.32888418
138	0x3c5121b5	0.012764384
139	0xbd6a57cf	-0.057212647
140	0x3d451b9a	0.048122026
141	0xbddfcbcf	-0.10927545
142	0x3d10ced4	0.035353497
143	0x3dab5d11	0.083673604
144	0x3cf39108	0.029732242
145	0x3dd45504	0.10367778
146	0xbe2cf110	-0.16888833
147	0xbe71dd54	-0.23619586
148	0xbdb877cc	-0.090072244
149	0xbd5ef2f0	-0.054430902
150	0xbd728b80	-0.05921507
151	0x3cceefad	0.02526077
152	0xbefafff2	-0.49023396
153	0x3d83ca42	0.06435062
154	0x3d1bf468	0.03807488
155	0xbe509055	-0.20367558
156	0xbec73a40	-0.3891163
157	0xbdf3b287	-0.11899286
158	0xbda36df6	-0.07979958
159	0xbe4b0483	-0.1982594
160	0xbdbcbb73	-0.092154406
161	0xbea43091	-0.32068303
162	0xbed1e423	-0.40994367
163	0xbef4901e	-0.47766203
164	0x3c08ef6d	0.008357865
165	0x3d8f779a	0.07005234
166	0xbd317634	-0.043325618
167	0xbdf97924	-0.12181309
168	0xbeec476a	-0.46148235
169	0x3ae1a000	0.0017213821
170	0xbe087f25	-0.13329752
171	0xbdbfee43	-0.09371617
172	0xbc9f45c1	-0.019442441
173	0xbdf85535	-0.12125627
174	0xbe8bd514	-0.27311003
175	0xbd93ee32	-0.072231665
176	0x3d0136db	0.031546455
177	0xbd436bc4	-0.047710195
178	0xbf0b1f88	-0.5434499
179	0x3df20d39	0.11818928
180	0xbce21ee2	-0.027602617
181	0x3e1794c2	0.1480284
182	0xbedc8af6	-0.4307477
183	0xbee8e497	-0.454869
184	0xbdf0aacc	-0.11751327
185	0xbec9e144	-0.39429677
186	0x3cf9df41	0.030501964
187	0xbe301946	-0.17197141
188	0xbdf9e5d5	-0.1220204
189	0xbe99e92b	-0.30060706
190	0xbdf640f6	-0.12024109
191	0xbe2cd9b1	-0.16879918
192	0xbef73d5b	-0.48288998
193	0xbf13d784	-0.57750726
194	0xbf13586b	-0.5755679
195	0xbe236608	-0.1595689
196	0xb9a84806	-0.0003209712
197	0xbe879c69	-0.2648652
198	0xbd43b383	-0.047778618
199	0xbe99dcad	-0.30051175
200	0xbd1b5947	-0.03792694
201	0xbec9d14c	-0.39417493
202	0x3d225e73	0.039640855
203	0x3da4938f	0.08035957
204	0x3da68388	0.08130556
205	0xbe109ccb	-0.14122312
206	0x3a8e7380	0.0010868162
207	0xbceb1cc5	-0.028700242
208	0xbd8f2f62	-0.069914594
209	0xbd900382	-0.07031919
210	0xbe465212	-0.19367245
211	0xbe90aab2	-0.2825523
212	0xbdb91795	-0.09037701
213	0xbdb471ac	-0.08810744
214	0xbdd41a6c	-0.10356602
215	0x3deb9861	0.11503673
216	0xbf224609	-0.63388115
217	0xbd2f0f25	-0.042739052
218	0xbe0a711a	-0.13519707
219	0xbebaed76	-0.36509293
220	0xbf03f22f	-0.5154142
221	0xbe713787	-0.23556338
222	0x3da1c7a6	0.07899408
223	0xbec783b4	-0.3896767
224	0xbe0dbf94	-0.13842613
225	0xbee42923	-0.44562635
226	0xbeebd2c1	-0.4605923
227	0xbeeadb20	-0.45870304
228	0x3dcb35d2	0.09922375
229	0x3d155a70	0.0364632
230	0x3d8a41e9	0.067508526
231	0xbd2f536f	-0.042804178
232	0xbf1f3953	-0.62196845
233	0xbdfacc6c	-0.12246022
234	0x3dad4724	0.084608346
235	0xbde3b871	-0.11119164
236	0x3c895e51	0.016768606
237	0xbdb04ec4	-0.08608773
238	0xbef62a52	-0.48079163
239	0xbca6f4d9	-0.020380424
240	0x3d1bab48	0.038005143
241	0xbccf4210	-0.025300056
242	0xbf1a71af	-0.6032972
243	0x3d115d17	0.035489168
244	0x3ca77c0f	0.020444898
245	0xbd5a076e	-0.05322974
246	0xbf01c9cf	-0.5069856
247	0xbf0f5dcb	-0.5600249
248	0xbd3cd3c0	-0.046100378
249	0xbe9115b6	-0.28336877
250	0x3db919f4	0.09038153
251	0xbd0dc562	-0.034612067
252	0xbe0aa5a6	-0.13539752
253	0xbf17eb3d	-0.5934332
254	0xbe076477	-0.13221918
255	0xbeb90ad3	-0.3614107

fc2.bias f4 [64]
0	0xbe32c925	-0.17459543
1	0xbdc6ece0	-0.09713149
2	0xbdb79b2c	-0.089651436
3	0xbcd21c7b	-0.025648346
4	0x3d0cc9e9	0.034372244
5	0xbd440bc4	-0.047862783
6	0xbd9c4947	-0.07631164
7	0xbe4fab8c	-0.20280284
8	0xbe2e87c6	-0.17043981
9	0x3e45d241	0.19318487
10	0xbe37c3a7	-0.17945729
11	0xbf2a8447	-0.6660809
12	0xbde1564a	-0.110027865
13	0x3cda7bdb	0.026670387
14	0x3d061927	0.03273883
15	0xbe1c1a42	-0.15244392
16	0xbd9a16c8	-0.075238764
17	0xbef02fcc	-0.46911466
18	0xbd0c55c4	-0.03426148
19	0xbe85c392	-0.2612577
20	0xbee61114	-0.44934905
21	0x3e3ffb8b	0.187483
22	0x3ed08e67	0.40733644
23	0xbdb130a9	-0.08651859
24	0xbd60d9c8	-0.054895192
25	0x3f05d7ff	0.5228271
26	0xbe01f03d	-0.126893
27	0xbd85b614	-0.06528869
28	0xbd56e484	-0.052464023
29	0xbdcbd23f	-0.09952211
30	0xbe8849b6	-0.26618737
31	0xbe369b29	-0.17832626
32	0xbe7dda6b	-0.24790351
33	0xbeda511a	-0.4264
34	0xbe404219	-0.18775214
35	0xbcd79844	-0.026317723
36	0xbe975904	-0.295601
37	0xbdd645ae	-0.10462509
38	0xbe3ea12d	-0.18616171
39	0xbe4d5712	-0.20052746
40	0x3f55873c	0.83409476
41	0xbe1bad5c	-0.1520285
42	0xbc4a8e46	-0.012363022
43	0x3c820c13	0.015874898
44	0xbcde304f	-0.027122645
45	0xbcbe0f10	-0.023200542
46	0xbe88deb4	-0.2673241
47	0xbe88abcd	-0.26693574
48	0xbdb19778	-0.086714685
49	0xbdfdc19a	-0.12390442
50	0xbdce376d	-0.100691654
51	0xbd7bdf26	-0.061492108
52	0xbd1ab6fb	-0.03777216
53	0xbebf9984	-0.3742181
54	0xbf1f3c00	-0.6220093
55	0xbd0e2f47	-0.034713056
56	0xbec35b74	-0.3815571
57	0xbed40659	-0.41411093
58	0x3ca90093	0.020630157
59	0xbc7fc9da	-0.01561209
60	0xbec117bd	-0.37713423
61	0x3b2aee01	0.0026081803
62	0xbcf538c9	-0.029934304
63	0xbe7d5a0f	-0.24741386

fc3.weight f4 [32, 64]
0	0xbe218b70	-0.15775847
1	0xbd3e4112	-0.046448775
2	0xbda1f4c7	-0.07908016
3	0xbd8a57eb	-0.0675505
4	0xbda46366	-0.08026771
5	0xbcbd3873	-0.023098206
6	0x3f1e7f2a	0.61912787
7	0xbe2842a0	-0.16431665
8	0xbf07fa77	-0.53116554
9	0xbe2b37e7	-0.16720544
10	0xbd868e6e	-0.06570135
11	0xbdb85005	-0.089996375
12	0xbdf47048	-0.119354784
13	0xbdbc004a	-0.09179743
14	0xbd972582	-0.07380201
15	0xbe027804	-0.12741095
16	0xbd8633bf	-0.065528385
17	0x3ea6bd7f	0.3256645
18	0xbdb9b15c	-0.09067032
19	0x3cf49a4a	0.029858727
20	0xbdb14342	-0.086554065
21	0xbecd9355	-0.40151468
22	0xbf206535	-0.6265443
23	0xbd009c81	-0.031399254
24	0x3dad46c8	0.08460766
25	0xbe2fe2e4	-0.17176396
26	0x3ddff206	0.10934834
27	0x3d05d2bc	0.032671675
28	0xbda90788	-0.082533896
29	0xbe188427	-0.14894162
30	0x3dccaa12	0.09993376
31	0xbd12fa5d	-0.035883296
32	0xbe15276b	-0.14565818
33	0xbe2be9aa	-0.16788355
34	0xbde1e57c	-0.11030099
35	0xbe6591a4	-0.22418839
36	0xbe869064	-0.26282036
37	0x3da50d90	0.080592275
38	0xbd448103	-0.047974598
39	0x3dd53db4	0.104121596
40	0x3da0b0ce	0.07846223
41	0xbcde6551	-0.02714792
42	0xbe15afce	-0.14617845
43	0xbd301046	-0.04298427
44	0xbdfe5f6e	-0.124205455
45	0x3e3a40fa	0.18188849
46	0x3e14b24f	0.14521144
47	0xbeb36617	-0.35038826
48	0xbe30b0d9	-0.17254962
49	0xbdb6c180	-0.08923626
50	0xbd33e19a	-0.043916322
51	0x3c1804d2	0.009278493
52	0x3d3dd3bd	0.046344507
53	0x3ecf6c3e	0.4051227
54	0x3e8b5046	0.2720968
55	0x3daa7db8	0.0832476
56	0xbd02bcf5	-0.031918485
57	0xbf0a6f33	-0.54075927
58	0xbeca0afb	-0.39461502
59	0x3e0d4557	0.13795982
60	0xbe34b871	-0.17648484
61	0x3c954eae	0.018225994
62	0xbd652cd3	-0.05595095
63	0x3e57c0c0	0.21069622
64	0x3e20d3ed	0.15705843
65	0xbe815309	-0.25258663
66	0xbebc15a1	-0.36735252
67	0xbe8ca542	-0.27469832
68	0x3dbf9ff7	0.09356683
69	0xbd2525f5	-0.0403194
70	0x3e7084c4	0.23488146
71	0xbdb208ec	-0.08693108
72	0xbe8d6077	-0.2761266
73	0x3e7754a9	0.24153389
74	0x3d9f5158	0.07779187
75	0x3caa239d	0.020768935
76	0x3e8bfccf	0.27341315
77	0xbce8d5e9	-0.028422313
78	0xbdb0a78f	-0.08625709
79	0x3c3b6699	0.011438035
80	0xbd55388f	-0.05205589
81	0xbe6aa49a	-0.22914353
82	0x3ca15d90	0.019697934
83	0xbd8b493b	-0.06801077
84	0x3d851ab3	0.06499233
85	0xbcaf2042	-0.021377686
86	0xbf66f1a6	-0.90212476
87	0x3d510e68	0.05103913
88	0x3d3c7d42	0.046017893
89	0x3d8c0546	0.06836943
90	0x3e0faf01	0.14031602
91	0xbd39922c	-0.045305416
92	0x3e66f320	0.22553682
93	0x3c58b663	0.013227078
94	0x3e20d61a	0.15706673
95	0xbdfc708e	-0.123261556
96	0x3e599114	0.21246749
97	0x3eb50111	0.35352376
98	0x3d5985fc	0.053106293
99	0x3e8a5946	0.27021235
100	0x3e7e47fa	0.24832144
101	0x3ea95bef	0.33077952
102	0xbcdee2f7	-0.027207835
103	0x3b980cc7	0.004640195
104	0x3ffe9d93	1.9891838
105	0x3d1714bb	0.036885004
106	0xbe23083f	-0.15921114
107	0xbe8eaf37	-0.27868053
108	0xbdded1fd	-0.10879896
109	0x3e5614fe	0.20906445
110	0xbe89b45b	-0.26895413
111	0x3e3c50c7	0.18390189
112	0xbd197e14	-0.037473753
113	0xbdf69fb4	-0.1204218
114	0xbb499d32	-0.0030763862
115	0xbe961499	-0.2931259
116	0x3bfeb6a3	0.007773237
117	0xbecadf1f	-0.39623353
118	0xbcc2ed06	-0.023794662
119	0x3e150acc	0.145549
120	0x3dfabbdb	0.12242862
121	0xbe40a4a9	-0.18812813
122	0xbec962b0	-0.39333105
123	0xbec1bf40	-0.37841225
124	0x3d99d03d	0.075104214
125	0x3e629255	0.22126134
126	0x3bcd14a3	0.0062585636
127	0xbeea8b82	-0.4580956
128	0xbd7cc279	-0.0617089
129	0xbe5b9807	-0.21444713
130	0xbea30383	-0.31838617
131	0xbe80032c	-0.2500242
132	0xbb606fb0	-0.0034246258
133	0x3dc4b618	0.09605044
134	0x3fed2235	1.8526064
135	0xbe7c3738	-0.2463044
136	0x3ef6ceea	0.48204738
137	0x3da94d6a	0.08266719
138	0xbd4b84af	-0.049687084
139	0x3e51372c	0.20431203
140	0x3df2c934	0.11854783
141	0x3e2cee8d	0.16887875
142	0x3e5be576	0.21474251
143	0xbc3ad8c0	-0.011404216
144	0xbe4209b8	-0.1894902
145	0xbeb076e5	-0.3446571
146	0x3dcf6ab6	0.10127775
147	0x3d93b7ad	0.07212768
148	0xbcd29489	-0.025705593
149	0x3ebbc22c	0.3667158
150	0xbecc55ce	-0.39909214
151	0x3dbdff95	0.09277264
152	0xbe45b987	-0.19309054
153	0x3d82986a	0.06376727
154	0xbdef491f	-0.116838686
155	0x3da0214e	0.07818852
156	0x3dad6d2f	0.08468091
157	0x3e007d17	0.12547718
158	0xbc4bd642	-0.01244122
159	0x3c80b6f2	0.015712235
160	0x3d58bf31	0.05291671
161	0xbeee87f4	-0.465881
162	0x3e4375c8	0.19087899
163	0xbe8de513	-0.27713832
164	0xbe8d9e68	-0.27659917
165	0x3e306ae9	0.17228283
166	0x3df96f0b	0.12179383
167	0x3c8e5b64	0.017377563
168	0xbc4a0554	-0.012330372
169	0xbe3bb92e	-0.18332359
170	0xbdde5ab7	-0.10857146
171	0xbd129b6d	-0.035792757
172	0x3dc2489b	0.09486505
173	0x3c2afa92	0.010435717
174	0x3e12abcb	0.14323346
175	0x3e9a8569	0.3017991
176	0xbe3048d2	-0.17215279
177	0x3d27b1c4	0.040941015
178	0xbce434b9	-0.027857171
179	0xbed99d6a	-0.4250291
180	0xbdc1a729	-0.094557114
181	0x3eddc871	0.43316987
182	0xbcce5065	-0.02518482
183	0xbd36d5c7	-0.044637468
184	0x3dc44c5c	0.09584877
185	0x3cfebaa6	0.03109486
186	0xbdcf5d6e	-0.10125242
187	0xbed2047c	-0.41019046
188	0x3d532b94	0.05155523
189	0x3dfd9f14	0.12383857
190	0x3d562236	0.05227872
191	0x3f5becc6	0.8590816
192	0x3c04a88a	0.0080968235
193	0xbdf0a2fa	-0.11749835
194	0xbee8e5a9	-0.45487717
195	0xbdef3014	-0.11679092
196	0x3bbfd872	0.0058546597
197	0x3e10f494	0.14155799
198	0xbed6de43	-0.41966447
199	0xbdb8c892	-0.09022631
200	0xbd5adfb3	-0.053435992
201	0x3d45f412	0.048328467
202	0x3ddbae30	0.10726583
203	0xbf1ba025	-0.60791236
204	0x3c560ab7	0.013064078
205	0xbe279772	-0.16366366
206	0xbef0dc72	-0.47043186
207	0x3df53eaa	0.11974843
208	0xbe0562a2	-0.13025907
209	0xbf4ece6e	-0.80783737
210	0x3d085a60	0.033289313
211	0xbdeb60d7	-0.1149308
212	0x3e231693	0.1592658
213	0xbe4f42ba	-0.20240298
214	0xbebce90b	-0.36896548
215	0x3c67a19a	0.01413765
216	0x3c77eb07	0.0151317185
217	0x3f8b005f	1.0859488
218	0x3e32c91b	0.17459528
219	0x3dc4a38c	0.096015066
220	0x3e04eeea	0.12981763
221	0xbbb8208c	-0.0056191143
222	0x3e281381	0.1641369
223	0x3d8ef7a5	0.06980828
224	0x3e1c75d7	0.15279327
225	0xbec2c258	-0.38038898
226	0x3e208ff5	0.15679915
227	0xbef5ea81	-0.48030475
228	0x3e8c4f6d	0.27404347
229	0x3c2e9fd6	0.010658225
230	0xbd8c0f37	-0.068388395
231	0x3e0fd6b2	0.14046744
232	0xbee1895e	-0.44050115
233	0xbe2ba679	-0.16762723
234	0xbd7e29cd	-0.062051583
235	0xbdc2dd4f	-0.095148675
236	0xbd84046a	-0.064461544
237	0xbbe307df	-0.0069284285
238	0x3e2e4511	0.17018534
239	0xbe70eb7f	-0.23527335
240	0x3e0231e4	0.12714344
241	0x3dffef14	0.124967724
242	0x3bff7a76	0.007796581
243	0xbcfe127b	-0.031014672
244	0x3d8c5628	0.068523705
245	0xbe55fc96	-0.20897135
246	0x3e0a4160	0.13501501
247	0x3e4ed5c8	0.20198739
248	0xbba40c12	-0.0050063217
249	0x3ee56f81	0.44811633
250	0xbca7a7ea	-0.02046581
251	0xbe50eccf	-0.20402835
252	0x3d3b70a0	0.045761704
253	0x3e280767	0.16409074
254	0x3e7eb5d6	0.24874052
255	0x3db66524	0.0890601

fc3.bias f4 [32]
0	0xbf584752	-0.84483826
1	0xbfdc16ee	-1.7194498
2	0xbe66dc03	-0.22544865
3	0xbf24a14f	-0.6430864
4	0xbf84444e	-1.0333345
5	0x3e87c917	0.26520607
6	0xbe13d2a5	-0.14435823
7	0x3b9fe0d4	0.0048790965
8	0xbfb86b01	-1.4407655
9	0xbfd95879	-1.6980125
10	0x3fc68dde	1.5512044
11	0xbee07ca3	-0.4384509
12	0x3fa9b45b	1.3258165
13	0x3e4d8977	0.2007197
14	0x3e58a2f5	0.21155913
15	0xbfff6d13	-1.9955162
16	0x3f306b42	0.6891366
17	0xbe6fb7c0	-0.23409939
18	0xbe8fa5dc	-0.28056228
19	0xbf85eb87	-1.0462502
20	0xbf33a50e	-0.7017373
21	0x3fcef92a	1.6169789
22	0x3ecd4319	0.40090254
23	0x3fcb78bd	1.5896221
24	0x3f960436	1.1720035
25	0xbd815e5a	-0.06316824
26	0x3fc80db4	1.5629182
27	0xbfb13e5a	-1.3847153
28	0x4002e8bd	2.0454552
29	0xbf81e4f8	-1.0148001
30	0x3d9a76f1	0.075422175
31	0xbf864ffe	-1.0493162

in_fn.weight f4 [33]
0	0x3fbff5ae	1.499685
1	0x3eef5d49	0.46750858
2	0x3ed364b1	0.4128776
3	0x3e977206	0.2957918
4	0x3df42c22	0.1192248
5	0x3e922ee3	0.28551397
6	0x3e99810a	0.29981261
7	0x3e04c4d2	0.12965706
8	0x3e9b2a7b	0.30305848
9	0x3ef55e03	0.47923288
10	0x3e2dd6cf	0.16976474
11	0x3eade7e5	0.33965984
12	0x3e2ad8e8	0.16684306
13	0x3e973870	0.29535246
14	0x3ebab00c	0.36462438
15	0x3e496d6b	0.19670646
16	0x3f094d60	0.5363369
17	0x3ec7483a	0.38922292
18	0x3e7e0c1d	0.24809308
19	0x3e8389a1	0.2569094
20	0x3e401b12	0.18760327
21	0x3e14074e	0.14455912
22	0x3f52fcaf	0.82416815
23	0x3e9be516	0.30448216
24	0x3f37e4a7	0.7183327
25	0x3e954a71	0.29158357
26	0x3e974e31	0.29551843
27	0x3e989375	0.298
28	0x3f166a2a	0.58755744
29	0x3ec4080a	0.38287383
30	0x3f1af717	0.6053328
31	0x3f1993f5	0.5999139
32	0x3f787892	0.97058976

in_fn.bias f4 [33]
0	0x3e3c9ebf	0.18419932
1	0x3c6c36ee	0.014417393
2	0x3dfee611	0.124462254
3	0x3d8dd3ba	0.06925149
4	0x3d131eec	0.03591816
5	0x3e3a10d4	0.18170482
6	0xbdb401b5	-0.08789388
7	0xbd87ef54	-0.06637445
8	0xbd060748	-0.032721788
9	0x3e166329	0.14686264
10	0xbd47e543	-0.048802625
11	0xbc8b49c8	-0.017002955
12	0x3b090f9d	0.0020913847
13	0xbd91f7fc	-0.071273774
14	0x3d2f59e7	0.042810347
15	0xbd5c58c7	-0.053795602
16	0x3c83e57a	0.016100634
17	0x3c63719a	0.013882065
18	0x3ce0f215	0.027459184
19	0x3d24cdf5	0.04023548
20	0x3dadf43b	0.08493849
21	0xbd369866	-0.044578932
22	0x3dc9afce	0.09847985
23	0xbbf44740	-0.0074547827
24	0x3c50fd98	0.012755774
25	0xbd42fe82	-0.047606
26	0x3da3824f	0.07983839
27	0xbcb9cba5	-0.022680113
28	0x3e252dc0	0.16130733
29	0xbe53a63c	-0.20668882
30	0x3e152d3d	0.14568038
31	0x3dca0cfb	0.09865757
32	0xba5a5a89	-0.0008329531

in_fn.running_mean f4 [33]
0	0x40160813	2.3442428
1	0x3bbdcf3f	0.005792528
2	0x3c80d096	0.015724462
3	0x3c1c7c19	0.009551072
4	0x3c9819eb	0.018567046
5	0x3c2a695d	0.010401097
6	0x3c48d711	0.012258307
7	0x3ba24d5c	0.0049530696
8	0x3c97b8f1	0.018520804
9	0x3c4c08e4	0.012453292
10	0x3c6f9605	0.01462317
11	0x3d30a543	0.043126356
12	0x3c81334d	0.015771532
13	0x3c9a67bf	0.018848298
14	0x3cf6fdd4	0.030150332
15	0x3c0c04de	0.008546082
16	0x3d53c98e	0.05170589
17	0x3cd3606d	0.025802815
18	0x3c31ee16	0.010859987
19	0x3c59a1b6	0.013283184
20	0x3c512580	0.012765288
21	0x3bcafa4c	0.0061943885
22	0x3da0242c	0.07819399
23	0x3c0b23ee	0.008492453
24	0x3defac2c	0.11702761
25	0x3cb38dea	0.021918256
26	0x3c2a6841	0.010400833
27	0x3ccf252b	0.025286278
28	0x3d83b832	0.06431617
29	0x3cb68d76	0.02228425
30	0x3d886518	0.06659907
31	0x3e0dc8e2	0.13846162
32	0x3db26c38	0.08712047

in_fn.running_var f4 [33]
0	0x40ebd667	7.369922
1	0x3bbc7f95	0.0057525137
2	0x3c7d4da9	0.01546041
3	0x3c1ae2d0	0.00945349
4	0x3c951187	0.018196834
5	0x3c289773	0.010290015
6	0x3c46471d	0.012101916
7	0x3ba17af9	0.0049279896
8	0x3c947c7a	0.018125761
9	0x3c48e43f	0.012261449
10	0x3c6be420	0.014397651
11	0x3d28f319	0.04124746
12	0x3c7e2e3b	0.015513952
13	0x3c975e74	0.018477656
14	0x3ceef926	0.029171538
15	0x3c0ad819	0.008474373
16	0x3d460b00	0.048350334
17	0x3ccdf9ed	0.025143588
18	0x3c2f04a2	0.010682257
19	0x3c56b25f	0.01310405
20	0x3c4e53e6	0.012593245
21	0x3bc97944	0.006148489
22	0x3d902b1a	0.07039471
23	0x3c09bbc4	0.008406583
24	0x3dd0170d	0.101606466
25	0x3cae5035	0.02127848
26	0x3c288987	0.010286695
27	0x3cc708d2	0.024296198
28	0x3d73ecca	0.05955199
29	0x3cb181a4	0.021668263
30	0x3d7b039e	0.061282746
31	0x3de54582	0.11194898
32	0x3d97e18c	0.074160665

fc1.weight f4 [64, 33]
0	0x3f652aeb	0.8951861
1	0xbdc58d41	-0.09646083
2	0xbf30083f	-0.6876258
3	0xbcfbb412	-0.030725513
4	0x3df7079a	0.12061997
5	0xbedacd9f	-0.42735
6	0x3eb045f3	0.34428367
7	0x3e23455d	0.15944429
8	0x3e5b219e	0.21399543
9	0x3ead126d	0.3380312
10	0x3e73bd8d	0.23802777
11	0xbd145e36	-0.03622266
12	0x3e6e5ea9	0.23278297
13	0x3d25c5d1	0.040471856
14	0x3e26e28d	0.1629736
15	0x3c367f1f	0.0111387065
16	0x3e804edf	0.25060174
17	0xbe25dd76	-0.16197762
18	0xbdc2b2d7	-0.09506767
19	0x3d48fd2a	0.04906956
20	0x3d461369	0.048358355
21	0x3dace653	0.08442368
22	0x3de329af	0.11091935
23	0x3cb1943f	0.021677135
24	0x3f66805b	0.90039605
25	0xbe1c8832	-0.1528633
26	0xbdd70679	-0.104992814
27	0x3ec95b3e	0.39327425
28	0x3df3d513	0.11905875
29	0x3f42ad62	0.7604581
30	0x39be38a8	0.00036281836
31	0x3e26472f	0.16238092
32	0x3ef13cfd	0.47116843
33	0xbe667065	-0.22503813
34	0xbf140ff8	-0.57836866
35	0x3e6ae9ca	0.22940746
36	0x3e4a2f7a	0.19744673
37	0xbe94a2a5	-0.29030338
38	0x3e8eebef	0.27914378
39	0xbce7e25a	-0.028306175
40	0x3e30057b	0.1718959
41	0xbe108bfc	-0.141159
42	0x3e019568	0.1265465
43	0xbd66aed1	-0.05631906
44	0x3cbe7502	0.023249153
45	0xbe3827a9	-0.17983879
46	0xbe480fb1	-0.19537236
47	0xbe61b2e5	-0.22040899
48	0xbe2e2984	-0.17008024
49	0xbe107a95	-0.14109261
50	0x3ecae58a	0.3962825
51	0xbe00dac7	-0.12583457
52	0xbe9d038d	-0.30666772
53	0xbe146d8c	-0.14494914
54	0xb9d9b3e0	-0.00041523483
55	0xbdcb01c9	-0.0991245
56	0xbab9629c	-0.0014143768
57	0xbddc97e1	-0.10771156
58	0xbe757aa0	-0.23972559
59	0xbdf7064a	-0.120617464
60	0x3de8f574	0.113749415
61	0xbdd69d80	-0.104792595
62	0xbe0e9dfa	-0.13927451
63	0xbe5c2dda	-0.21501866
64	0xbda274f6	-0.07932465
65	0xbdb99cdc	-0.09063122
66	0xbf831531	-1.0240842
67	0xbe921cd1	-0.2853761
68	0xbf0baf0e	-0.5456399
69	0xbd994f3f	-0.07485818
70	0xbebe59d6	-0.37177914
71	0xbefae882	-0.49005514
72	0xbe082806	-0.13296518
73	0xbe909ab9	-0.28243044
74	0x3d6560f5	0.05600067
75	0xbef33cbc	-0.47507274
76	0x3e2d6838	0.16934288
77	0xbed4bb56	-0.41549176
78	0xbcf4919e	-0.029854592
79	0x3f50b503	0.815262
80	0x3e277dce	0.16356584
81	0x3e9fa475	0.31180158
82	0x3e8e0412	0.2773748
83	0xbef9d650	-0.4879632
84	0xbe9ab380	-0.30215073
85	0xbd6bd459	-0.057575557
86	0x3e87e1d1	0.26539472
87	0x3d66ff9c	0.05639611
88	0x3f46f9f6	0.7772516
89	0x3cfd8581	0.030947449
90	0xbee55ad8	-0.4479587
91	0xbe411486	-0.18855485
92	0x3cec5dce	0.028853323
93	0x3d4973d5	0.04918273
94	0xbf00d5a2	-0.5032598
95	0x3e148415	0.1450351
96	0xbe8b1f41	-0.27172282
97	0xbeff7934	-0.49897158
98	0x3f39c4e9	0.72566086
99	0xbf76b28d	-0.96366197
100	0xbe23f80b	-0.1601259
101	0xbaa4098b	-0.0012515051
102	0xbe9943eb	-0.2993463
103	0xbdc75ab7	-0.09734099
104	0x3df6ce00	0.1205101
105	0x3bae8785	0.005326214
106	0xbe0d64f3	-0.1380804
107	0xbe2ff165	-0.17181928
108	0xbd8efc97	-0.069817714
109	0xbdcf59c8	-0.10124546
110	0xbe846413	-0.258576
111	0x3d0a3ceb	0.033749502
112	0x3dc75134	0.09732285
113	0xbc9a10f3	-0.01880691
114	0xbd43d324	-0.04780878
115	0xbdf06bb5	-0.117392935
116	0x3e79ed12	0.24406841
117	0x3eb363bb	0.35037026
118	0xbb8c3a9b	-0.0042794473
119	0xbe700e97	-0.23443066
120	0x3d118d17	0.035534944
121	0xbd979d7c	-0.07403085
122	0x3c73c2f5	0.014878024
123	0xbdd907be	-0.1059718
124	0x3d251086	0.04029896
125	0xbe1f8e0e	-0.15581533
126	0x3e0bad4a	0.13640323
127	0xbe90c3e5	-0.28274456
128	0xbd9d0de8	-0.07668668
129	0x3d7edf95	0.062224943
130	0x3d0674fc	0.03282641
131	0x3e0c6ff1	0.13714577
132	0xbf06b66a	-0.5262209
133	0xbe82886e	-0.25494713
134	0xbc8a1133	-0.016853904
135	0x3d762339	0.060092185
136	0x3d9de518	0.07709712
137	0x3c82c6e0	0.015963972
138	0x3e08f204	0.13373572
139	0xbe16f92b	-0.14743488
140	0x3d06df44	0.032927766
141	0x3cfb65b7	0.03068815
142	0x3e5f4c04	0.21806341
143	0x3e165cc9	0.14683832
144	0x3947b888	0.00019046862
145	0x3e20d915	0.1570781
146	0x3ce202f3	0.027589297
147	0xbd9a448e	-0.07532607
148	0xbc1a105c	-0.009403314
149	0x3e1bc359	0.15211238
150	0xbe339d89	-0.17540564
151	0x3d7f7ac7	0.06237295
152	0x3d85a5bf	0.06525754
153	0xbe87e7ad	-0.26543942
154	0xbc603954	-0.013685543
155	0x3e0d172a	0.13778368
156	0xbde28029	-0.11059601
157	0x3bc95387	0.0061439904
158	0x3d28e310	0.04123217
159	0x3e682f43	0.22674279
160	0xbe4ea1bf	-0.20178889
161	0x3e32339d	0.17402501
162	0xbe25c1ba	-0.16187182
163	0xbe098f80	-0.13433647
164	0x3dfe44ad	0.124154426
165	0xbefb8a43	-0.49128923
166	0x3efd44c8	0.49466538
167	0x3de7f164	0.113253385
168	0x3e892653	0.26787052
169	0xbee6abfb	-0.45053086
170	0x3e40db24	0.18833596
171	0x3e7ef1fb	0.24896996
172	0x3d5e7561	0.05431116
173	0xbe26ed3c	-0.16301435
174	0x3e929b9f	0.28634354
175	0x3eb65a85	0.35615936
176	0xbdc1d740	-0.09464884
177	0xbe853929	-0.26020172
178	0x3e941f5b	0.28930172
179	0xbe9d5bcd	-0.307341
180	0xbe7201fc	-0.2363357
181	0xbef2cde9	-0.47422722
182	0x3d62d94d	0.055383015
183	0xbf1b0b86	-0.6056446
184	0x3f062c07	0.5241093
185	0xbe956dce	-0.29185337
186	0x3e7ca4b0	0.24672198
187	0xbe9da982	-0.30793387
188	0xbe6567ae	-0.22402832
189	0xbec12120	-0.37720585
190	0x3ee3f15e	0.44520086
191	0xbe807b1f	-0.25093934
192	0xbcafccce	-0.021459963
193	0xbee781e8	-0.45216298
194	0xbd7b9168	-0.061417967
195	0xbf223a6d	-0.633704
196	0xbed706a9	-0.4199727
197	0xbed8cab4	-0.4234215
198	0xbf75193e	-0.9574164
199	0xbf2dc45f	-0.67877764
200	0x3dbdd6ef	0.09269511
201	0xbea15ad3	-0.31514606
202	0x3e5fd156	0.21857199
203	0xbe2827d6	-0.16421446
204	0x3dc2f900	0.09520149
205	0x3dd31063	0.1030586
206	0x3e0b7efd	0.13622661
207	0xbdabc4ae	-0.08387123
208	0xbe579542	-0.21053031
209	0x3e021684	0.12703902
210	0x3e3467aa	0.1761767
211	0x3d8176d0	0.0632149
212	0x3e41048a	0.18849388
213	0x3e278200	0.16358185
214	0x3e3cb1db	0.18427221
215	0xbe9b40d0	-0.30322886
216	0x3e6b44e7	0.22975503
217	0xbe986a41	-0.29768565
218	0x3ddb82d1	0.107183106
219	0xbe190110	-0.14941812
220	0x3ddcf695	0.10789219
221	0x3e1bf806	0.15231332
222	0xbe74e258	-0.23914468
223	0x3e833f9a	0.25634462
224	0x3e2a622c	0.16639012
225	0x3e623e8c	0.22094172
226	0xbebc9925	-0.3683559
227	0x3e9690b3	0.29407272
228	0xbe889c34	-0.26681674
229	0xbea9e7d0	-0.3318467
230	0x3e890453	0.26761112
231	0xbc6a6909	-0.014307269
232	0x3cdb1c39	0.026746856
233	0xbbd39a56	-0.0064576073
234	0x3d063461	0.032764796
235	0x3d006996	0.031350695
236	0xbcaa8a70	-0.020817965
237	0x3dd17d85	0.10229019
238	0x3c3c4791	0.011491672
239	0x3d4873ca	0.04893855
240	0xbd39c086	-0.04534962
241	0x3d05870e	0.0325995
242	0x3dbc10d2	0.09182896
243	0xbbedbfd2	-0.007255533
244	0x3cc66908	0.024220005
245	0xbc19cee6	-0.009387707
246	0xbcb071fc	-0.021538727
247	0x3d8b886d	0.068131305
248	0x3d85ad1e	0.0652716
249	0x3cfc46d5	0.030795494
250	0xbcf21bc7	-0.02955426
251	0x3d1a8a1f	0.03772938
252	0x3c6d6e48	0.014491625
253	0x3d708adb	0.058726173
254	0x3d460da3	0.04835285
255	0x3d382ebe	0.04496645

fc1.bias f4 [64]
0	0xbf6ebad0	-0.93253803
1	0xbe3a5e5f	-0.18200062
2	0x3e1147a1	0.1418748
3	0xbec14efb	-0.3775557
4	0xbe9be3d1	-0.30447248
5	0x3d7ae498	0.06125316
6	0xbecb86b8	-0.3975122
7	0xbea6f086	-0.3260538
8	0xbe96f8ce	-0.29486698
9	0xbf2a81af	-0.6660413
10	0x3e14d114	0.14532882
11	0xbf17abc8	-0.5924649
12	0xbe4e1ec7	-0.20128928
13	0xbee9a9bd	-0.45637313
14	0xbecfcbfc	-0.40585315
15	0xbe5c64c4	-0.21522814
16	0xbf324fbb	-0.6965291
17	0xbe85ed40	-0.2615757
18	0xbe284131	-0.16431119
19	0x3e890691	0.26762822
20	0xbe2b8c14	-0.16752654
21	0xbf134695	-0.57529575
22	0xbc8cb1e8	-0.017174676
23	0xbe8470e7	-0.25867388
24	0xbf4fc235	-0.8115571
25	0xbf68d2c2	-0.9094659
26	0xbf5ad856	-0.8548635
27	0xbea935e2	-0.33048922
28	0xbed8e5c3	-0.42362794
29	0xbcb66bf0	-0.022268265
30	0xbeee1cf3	-0.46506462
31	0x3da13b27	0.078726105
32	0x3e0c01d9	0.1367258
33	0xbebb3136	-0.36560982
34	0xbf8632ff	-1.0484313
35	0xbdc8f659	-0.09812612
36	0xbee7eb06	-0.45296496
37	0xbe3ab0a5	-0.18231447
38	0xbe7bb3c2	-0.24580291
39	0xbe44db66	-0.19224319
40	0xbeac41ef	-0.33644053
41	0xbf439ddc	-0.7641275
42	0xbec33c0c	-0.3813175
43	0xbf020ba5	-0.5079902
44	0xbed937b6	-0.42425317
45	0xbe147506	-0.14497766
46	0xbf144a90	-0.57926273
47	0xbeca9d43	-0.39573106
48	0xbec09b41	-0.3761845
49	0xbf901120	-1.1255226
50	0xbe85660b	-0.26054415
51	0xbf07d02c	-0.5305202
52	0xbf2e63e2	-0.6812116
53	0xbec10c2c	-0.377046
54	0xbeacf553	-0.33780918
55	0xbe9bfc96	-0.30466145
56	0xbf01c5e9	-0.5069261
57	0xbeadaefe	-0.3392257
58	0xbebe4f77	-0.37170002
59	0x3e23d985	0.16000946
60	0xbf610aa8	-0.87906885
61	0xbc6c6d26	-0.01443032
62	0xbefc0996	-0.49226063
63	0xbdb9c022	-0.090698496

fc2.weight f4 [64, 64]
0	0xbe08fa72	-0.13376787
1	0x3cfea843	0.031086093
2	0xbdd4af4e	-0.10384999
3	0xbe71a7d0	-0.23599172
4	0x3cb9639e	0.022630509
5	0x3d9c2656	0.076244995
6	0xbc53343f	-0.012890874
7	0x3d5965dc	0.053075656
8	0xbd9f0012	-0.07763685
9	0x3c5cdae8	0.013479926
10	0xbe2b068c	-0.16701716
11	0xbdf657fe	-0.12028502
12	0xbd7c1998	-0.061547846
13	0xbe1f59b4	-0.15561563
14	0xbced05bf	-0.028933404
15	0xbe501b48	-0.20322907
16	0xbe08d773	-0.13363437
17	0xbd3f6474	-0.04672666
18	0xbca658a2	-0.020305935
19	0xbe50f9e8	-0.20407832
20	0xbc96956d	-0.018381799
21	0xbe70c9e8	-0.23514521
22	0xbd817608	-0.06321341
23	0xbd4aba4f	-0.049494084
24	0xbd86d69b	-0.065839015
25	0xbdef1866	-0.116745755
26	0xbd132bd5	-0.035930473
27	0xbe21d769	-0.15804829
28	0x3d067188	0.032823116
29	0xbe123e1f	-0.1428151
30	0xbdaf3e54	-0.0855681
31	0xbe057771	-0.13033845
32	0x3cc1d559	0.023661302
33	0x3bd83e02	0.006599189
34	0xbdad5de0	-0.08465171
35	0x3c0d7749	0.008634397
36	0x3d12b578	0.035817593
37	0xbd5105d6	-0.051030956
38	0xbdffbfc2	-0.12487747
39	0x3d5eaa9f	0.054361936
40	0xbe296f9f	-0.16546486
41	0xbd10754f	-0.035268124
42	0xbe0d105c	-0.13775772
43	0x3d800415	0.062507786
44	0x3d047a2b	0.03234307
45	0xbdbc6d60	-0.09200549
46	0x3d0d9969	0.03457013
47	0x3d1a4a15	0.037668306
48	0xbde88036	-0.11352579
49	0x3d4e7e9a	0.050413705
50	0x3bbbf2fe	0.005735754
51	0x3d288ca5	0.041149754
52	0xbd804a7a	-0.06264205
53	0x3d8c71e4	0.068576604
54	0xbcacd2f6	-0.021096688
55	0xbdfe018a	-0.12402637
56	0xbb57e8df	-0.0032945198
57	0x3c549ebd	0.012977299
58	0x3d46d945	0.048547048
59	0x3c8a7f3e	0.016906377
60	0xbce8765a	-0.028376747
61	0xbe8b25d7	-0.27177307
62	0x3d732c47	0.059368398
63	0x3c789fe5	0.015174841
64	0x3e67476c	0.22585839
65	0xbe9fa862	-0.31183153
66	0xbf4a686b	-0.7906558
67	0xbe7e4f8d	-0.24835034
68	0x3da7456f	0.0816754
69	0xbef48e0d	-0.47764626
70	0xbe3dea7b	-0.18546478
71	0xbd2bcab9	-0.04194138
72	0xbd756055	-0.059906323
73	0xbe9fec84	-0.31235135
74	0xbeaba9a8	-0.33527875
75	0xbd80e23a	-0.06293149
76	0xbdf8299d	-0.12117312
77	0x3e387020	0.18011522
78	0xbd980624	-0.07423046
79	0x3e9999dc	0.30000198
80	0x3e254d80	0.16142845
81	0x3c047d85	0.008086567
82	0xbedbc231	-0.42921594
83	0x3e9e574f	0.30925986
84	0x3e194fe7	0.14971887
85	0x3d8b800e	0.06811534
86	0xbe848148	-0.25879884
87	0x3cbfe7ff	0.023426054
88	0x3e488de8	0.19585383
89	0xb98e4156	-0.0002713303
90	0xbf25c758	-0.647573
91	0xbd8792c4	-0.0661979
92	0xbd8880e8	-0.06665212
93	0xbf0ca1ff	-0.54934686
94	0x3cd6bb55	0.026212374
95	0x3e2b3413	0.16719083
96	0xbf681378	-0.90654707
97	0x3e3be272	0.18348101
98	0x3e17d393	0.14826803
99	0xbe638c63	-0.22221522
100	0xbc3c79bb	-0.011503632
101	0xbecf212d	-0.40455
102	0xbe1844a5	-0.14869936
103	0xbdf6bcac	-0.12047705
104	0x3d906fbc	0.07052562
105	0xbe0e708c	-0.1391012
106	0xbd821374	-0.06351367
107	0x3c49daee	0.012320263
108	0x3d73d9ea	0.05953399
109	0x3bca9f02	0.006183506
110	0xbe687b50	-0.2270329
111	0x3cde0cd0	0.027105719
112	0xbe3cc6ce	-0.18435213
113	0x3e8a58eb	0.27020964
114	0xbe2620f8	-0.16223514
115	0x3d6513d5	0.055927116
116	0xbdeb4045	-0.11486868
117	0x3e40883b	0.18801968
118	0xbcd6aaab	-0.026204428
119	0xbe6ce218	-0.23133123
120	0xbd7471b5	-0.059678752
121	0xbea7c96b	-0.32770857
122	0xbee16ae1	-0.44026855
123	0xbec8b9b1	-0.3920417
124	0xbf2b5b3b	-0.6693608
125	0xbe8dbe45	-0.27684227
126	0xbd70656f	-0.058690485
127	0x3e2b56b0	0.16732287
128	0xbef7ca37	-0.48396465
129	0x3ce6cee2	0.028174821
130	0xbf299286	-0.662392
131	0x3e740cd7	0.23833023
132	0xbdb0eb20	-0.086385965
133	0x3e88d0d6	0.2672183
134	0xbdb6f0f0	-0.08932674
135	0xbd4d8f44	-0.050185457
136	0xbdac0a7d	-0.08400438
137	0x3d879aee	0.06621347
138	0x3dd960bd	0.106141545
139	0x3d0af69d	0.033926595
140	0xbdd45f63	-0.10369756
141	0xbe9ff951	-0.312449
142	0xbe871604	-0.26383984
143	0xbe9da4cb	-0.3078979
144	0xbe2292c1	-0.15876295
145	0xbe1db44a	-0.15400806
146	0xbe863347	-0.26210997
147	0xbed012d0	-0.40639353
148	0x3d1369a3	0.035989415
149	0xbd44d43c	-0.048053965
150	0xbd20681d	-0.03916179
151	0xbcf7561b	-0.030192425
152	0xbc830592	-0.015993867
153	0xbe5d8d4e	-0.21635935
154	0x3e968977	0.29401752
155	0xbd99dda3	-0.07512977
156	0x3d896c5c	0.06710121
157	0x3da471e4	0.080295354
158	0xbe3ad562	-0.18245462
159	0xbf0a2206	-0.53958166
160	0x3e579b3f	0.21055315
161	0xbef3cde5	-0.47618023
162	0x3bdd31f9	0.006750342
163	0xbe003ec9	-0.1252395
164	0x3d2d41e9	0.042299185
165	0xbda41490	-0.080117345
166	0x3b296362	0.002584659
167	0xbeceebac	-0.40414178
168	0xbd5ddc2d	-0.054165054
169	0xbd2f96e2	-0.042868502
170	0xbccb51cb	-0.024819275
171	0xbc95c67b	-0.01828312
172	0xbd282bdb	-0.04105745
173	0xbda09adf	-0.07842039
174	0xbeea918f	-0.45814177
175	0xbc95c3c7	-0.01828183
176	0x3c923883	0.017849213
177	0xbdfa574a	-0.1222368
178	0xbd3ffcf2	-0.046872087
179	0x3dd162fd	0.10223959
180	0xbe77aabe	-0.24186227
181	0x3e295541	0.16536428
182	0xbde0783f	-0.10960435
183	0xbf16ef8d	-0.58959275
184	0xbdcabe16	-0.09899537
185	0xbda6e3fb	-0.081489526
186	0xbc29f9b8	-0.010374479
187	0xbeb49ead	-0.3527731
188	0x3e70f2a3	0.23530059
189	0xbe92a08b	-0.2863811
190	0x3e414d55	0.18877156
191	0xbe20fe3d	-0.15721984
192	0xbe29c3e9	-0.1657864
193	0xbd2c9141	-0.042130712
194	0xbe03a183	-0.1285458
195	0x3ce113f2	0.027475331
196	0xbdc6689d	-0.09687922
197	0xbd373f6d	-0.044738222
198	0xbedba6e0	-0.42900753
199	0xbd36707d	-0.04454087
200	0xbda8ae81	-0.08236409
201	0xbad1aceb	-0.0015996968
202	0x3d7a4f10	0.061110556
203	0xbdfa95a8	-0.12235576
204	0xbe566125	-0.20935495
205	0xbe8943e5	-0.26809612
206	0xbe2fb26c	-0.17157906
207	0xbde03f2a	-0.109495476
208	0xbe00f16c	-0.12592095
209	0xbd6b9da2	-0.057523377
210	0xbdd355df	-0.10319113
211	0xbe442829	-0.19155945
212	0xbe462626	-0.1935049
213	0xbd5e8e0e	-0.054334693
214	0xbe5ec127	-0.2175337
215	0xbe8924c9	-0.26785877
216	0xbe3a2cd0	-0.18181157
217	0xbd9e340e	-0.077247724
218	0xbe48ba11	-0.19602229
219	0xbd6d2349	-0.05789498
220	0x3e162c04	0.14665228
221	0x3d944824	0.07240322
222	0x3d9016fd	0.07035635
223	0xbd58d220	-0.052934766
224	0xbe2be013	-0.16784696
225	0xbbf8c771	-0.0075921346
226	0xbdfc80ca	-0.12329252
227	0xbcd233f2	-0.025659535
228	0xbc3da26d	-0.01157437
229	0x3de11a24	0.10991314
230	0xbe1e2dd3	-0.15447168
231	0xbe029fba	-0.12756243
232	0xbdcf1332	-0.10111083
233	0xbda63a49	-0.08116586
234	0x3c2136c0	0.009839714
235	0xbd9201bc	-0.07129237
236	0xbe4daec6	-0.20086202
237	0xbe686f9d	-0.22698827
238	0x3d8b871e	0.06812881
239	0xbd524e3f	-0.051344153
240	0xbd4e9448	-0.05043438
241	0x3d1e1087	0.03858998
242	0x3d2ace6c	0.041700765
243	0xbd8977c3	-0.06712296
244	0x3de28663	0.110607885
245	0xbe70cf0c	-0.23516482
246	0x3d06a081	0.032867912
247	0xbdad4db5	-0.08462087
248	0xbe3c1840	-0.18368626
249	0x3dcad5dd	0.099040724
250	0xbe831e7b	-0.25609192
251	0x3c572b92	0.013132947
252	0x3d3ce135	0.04611321
253	0xbe57383d	-0.21017547
254	0xbe314e71	-0.1731508
255	0xbd096407	-0.03354266

fc2.bias f4 [64]
0	0xbe1be9f5	-0.15225966
1	0x3eb62ce9	0.3558114
2	0x3d386aba	0.045023657
3	0xbcb29803	-0.021801
4	0xbe1952df	-0.14973019
5	0x3c1b09fb	0.009462829
6	0xbe94500e	-0.28967327
7	0x3f5fb03f	0.87378305
8	0x3df9e7c0	0.12202406
9	0xbd717928	-0.058953434
10	0x3dae0f46	0.08499007
11	0x3c22eaef	0.009943708
12	0xbd619e21	-0.055082444
13	0xbe4506d9	-0.19240893
14	0xbd5f29e8	-0.054483324
15	0xbe25dde5	-0.16197927
16	0x3cdf1ac3	0.02723444
17	0x3eb9b30a	0.36269408
18	0xbe67db52	-0.22642258
19	0x3a3a0b51	0.0007097023
20	0x3dabf7b0	0.08396852
21	0xbd04a12f	-0.03238028
22	0xbd6f6d89	-0.05845407
23	0xbe18b885	-0.14914139
24	0xbd14ea11	-0.036356036
25	0x3f0844f9	0.53230244
26	0x3e15f5f9	0.14644612
27	0xbe0d1586	-0.13777742
28	0x3f201686	0.6253437
29	0xbdcba831	-0.09944189
30	0xbdbe675e	-0.092970595
31	0xbd0199ea	-0.031640925
32	0x3d253986	0.04033806
33	0x3ce92d2d	0.028463924
34	0xbdd41cb1	-0.10357035
35	0xbd8180e4	-0.06323412
36	0xbd87b733	-0.06626739
37	0xbe4f2853	-0.20230226
38	0xbd0e145d	-0.03468739
39	0xbda04e10	-0.07827389
40	0xbf1eccfd	-0.6203154
41	0xbd7816dd	-0.06056868
42	0x3d3dfac0	0.046381712
43	0x3d0e18c4	0.034691587
44	0xbd1615af	-0.036641773
45	0xbc074d05	-0.008258109
46	0x3e8f915e	0.28040594
47	0xbc6653a1	-0.014058025
48	0xbd6c5d6a	-0.057706274
49	0xbe4b6cbc	-0.19865698
50	0x3e4ec6ac	0.20192975
51	0xbd581fbd	-0.052764643
52	0xbe09d7df	-0.13461255
53	0xbd30274a	-0.04300622
54	0xbe2de667	-0.16982423
55	0xbdd35300	-0.10318565
56	0xbdd4d345	-0.10391859
57	0xbd89d916	-0.06730859
58	0xbe468e22	-0.19390157
59	0xbe0dce94	-0.13848335
60	0x3da11157	0.078646354
61	0x3f0f095f	0.55873674
62	0xbceffc3d	-0.029295081
63	0x3e4e50a4	0.2014795

fc3.weight f4 [1, 64]
0	0x3cb92c9b	0.022604277
1	0x3df92c15	0.12166611
2	0x3dce060e	0.100597486
3	0xbcc47090	-0.023979455
4	0x3e09c8f9	0.13455571
5	0x3c3eb97f	0.011640905
6	0x3da324a7	0.07965975
7	0xbe0d6418	-0.13807714
8	0xbc49e759	-0.012323224
9	0xbbb38f0c	-0.005479699
10	0xbb4040e3	-0.002933555
11	0x3cbadd72	0.022810671
12	0x3cab76fa	0.020930756
13	0xbc1dcc8b	-0.009631286
14	0xbc073b58	-0.008253895
15	0x3c9a4f02	0.018836502
16	0x3b92587d	0.004466115
17	0xbd3057f3	-0.043052625
18	0xbe1172de	-0.14203975
19	0x3c8ec905	0.017429838
20	0xbd40e846	-0.047096513
21	0xbcb858f6	-0.022503357
22	0xbb22f241	-0.0024863633
23	0xbcc3e67b	-0.023913613
24	0xbd36c08a	-0.044617213
25	0x3e132a03	0.14371495
26	0x3d165eef	0.03671163
27	0x3c526265	0.012840842
28	0x3e042ed0	0.12908483
29	0xbd05b393	-0.03264196
30	0xbb981c38	-0.004642036
31	0x3b58d832	0.0033087847
32	0x3c24b550	0.010052994
33	0x3d0eb752	0.034842797
34	0xb866a457	-5.4989327e-05
35	0x3c563bc6	0.013075775
36	0xbc0256e8	-0.00795529
37	0x3d8a69f4	0.0675849
38	0xbd3cc740	-0.046088457
39	0xbd404363	-0.046939265
40	0x3e44269e	0.19155356
41	0xbd30cff6	-0.043167077
42	0x3c2d2527	0.01056794
43	0xbda004cb	-0.07813414
44	0xba275e65	-0.00063846103
45	0xb9897b2e	-0.00026222452
46	0x3cc35222	0.023842875
47	0x3c309bcc	0.010779332
48	0xbc83a13d	-0.016068095
49	0x3c919100	0.017769337
50	0x3d052309	0.032504115
51	0x3bdf9c18	0.0068240277
52	0x3c0aca68	0.008471109
53	0x3b41c5ec	0.0029567434
54	0xbc7e4cda	-0.0155212525
55	0xbcf95bf2	-0.03043935
56	0xbc83b1ef	-0.016076056
57	0x3c87a33c	0.016557328
58	0x3d73297c	0.059365734
59	0x3d496f08	0.049178153
60	0x3b285c17	0.0025689655
61	0xbe0f461b	-0.13991587
62	0x3afe3c45	0.0019396624
63	0x3c60a32a	0.013710776

fc1.weight f4 [64, 1]
0	0x3f202128	0.6255059
1	0xbf6591ad	-0.8967541
2	0xbfadbf0a	-1.3573925
3	0xbb86b7bb	-0.004111258
4	0xbf3bb23d	-0.73318845
5	0x3e6026aa	0.21889749
6	0xbea37910	-0.319283
7	0x3f58bf33	0.84666747
8	0x3d166b98	0.036723703
9	0xbe097356	-0.13422903
10	0x3c722d49	0.014781305
11	0xbded4f6c	-0.11587414
12	0xbe2946c5	-0.16530903
13	0xbf604211	-0.8760081
14	0xbd955130	-0.07290876
15	0xbd21093c	-0.039315447
16	0x3e146c30	0.14494395
17	0xbb82e700	-0.0039948225
18	0x3e196b99	0.14982451
19	0xbdd3ef3d	-0.103483655
20	0xbc9aef1c	-0.018912844
21	0xbf08ac82	-0.53388226
22	0xbe2ba370	-0.16761565
23	0xbf024acd	-0.50895387
24	0xbeb969e6	-0.36213607
25	0xbda993ff	-0.08280181
26	0xbdb80c22	-0.08986689
27	0x3f6ab770	0.91686153
28	0x3d7f837c	0.062381253
29	0xbda4cda8	-0.08047038
30	0x3e326179	0.17419995
31	0x3fa10562	1.2579768
32	0x3e4bf199	0.19916381
33	0x3c2326ee	0.009958012
34	0xc00e448d	-2.222934
35	0xbfd89cdf	-1.6922873
36	0x3f368790	0.713006
37	0x3c9d0774	0.019168593
38	0x3c923749	0.017848628
39	0xbec76c96	-0.38950032
40	0x3f1dfb79	0.6171184
41	0xbed8a05c	-0.42309844
42	0x3ea5f48f	0.32413146
43	0xbd9579dc	-0.072986335
44	0xbdec13a0	-0.11527181
45	0xbde32497	-0.11090963
46	0xbfc01fa5	-1.5009657
47	0x3ce70eb3	0.028205251
48	0xbe08dbad	-0.1336505
49	0xbde08800	-0.1096344
50	0xbf2801fa	-0.65628016
51	0xbf36551d	-0.7122362
52	0xbab8433f	-0.0014058127
53	0xbd678040	-0.056518793
54	0x3f308d31	0.6896544
55	0x3f06ec7a	0.52704585
56	0xbd3fca20	-0.04682362
57	0xbf0314e1	-0.51203734
58	0x3d11bdb1	0.035581294
59	0x3e36a991	0.17838122
60	0xbd35e088	-0.044403583
61	0x3ee60c36	0.4493119
62	0x3eef5a15	0.46748415
63	0x3efd9c52	0.49533325

fc1.bias f4 [64]
0	0x3e75715b	0.23969023
1	0xbedcc60e	-0.43119854
2	0xbf14b4f4	-0.5808861
3	0xbe93b840	-0.2885151
4	0xbf74e6ca	-0.95664656
5	0xbf8a2e73	-1.0795425
6	0xbec4acaf	-0.38412997
7	0xbdebde81	-0.115170486
8	0xbe264655	-0.16237767
9	0xbe34f732	-0.17672423
10	0xbe08b907	-0.13351832
11	0xbe0fed27	-0.1405531
12	0x3d81f5e2	0.063457265
13	0xbecc1172	-0.3985706
14	0xbf6d15ae	-0.92611206
15	0xbd981570	-0.07425964
16	0xbf33ffe2	-0.7031232
17	0xbf412783	-0.75450915
18	0xbf10fc52	-0.5663501
19	0xbe8ba3ec	-0.272735
20	0xbd81fb6b	-0.06346782
21	0xbf2642bd	-0.64945585
22	0xbf639452	-0.88898194
23	0xbec174c6	-0.37784404
24	0xbe8d2b54	-0.2757212
25	0xbdc1ac99	-0.094567485
26	0x3e324a95	0.17411263
27	0xbf974371	-1.1817456
28	0x3f0f737f	0.5603561
29	0x3e283758	0.16427362
30	0xbf45983b	-0.7718541
31	0xbe11e8f9	-0.14249028
32	0x3dddd879	0.108323045
33	0x3f639a43	0.8890726
34	0xbf7517f6	-0.95739686
35	0xbf432ac8	-0.76237154
36	0x3e8b6fa5	0.27233616
37	0xbebdcc86	-0.37070101
38	0xbd0b5d86	-0.034024738
39	0xbeee5a9d	-0.46553507
40	0xbfca8b92	-1.5823843
41	0xbf59b5c0	-0.85042953
42	0x3f221fde	0.63329875
43	0xbe0425eb	-0.1290509
44	0xbe1cb429	-0.153031
45	0x3e388c3c	0.18022245
46	0xbf2309f0	-0.6368704
47	0xbe490f16	-0.19634661
48	0x3e7af33f	0.24506854
49	0xbf29e072	-0.663581
50	0xbe1014fd	-0.14070506
51	0xbe9ab45b	-0.30215725
52	0x3ea33da7	0.31882975
53	0xbe02a148	-0.12756836
54	0xbfe3a6c0	-1.7785263
55	0xbfb428c1	-1.4074937
56	0xbf1ad250	-0.6047716
57	0x3d4eb7a9	0.05046812
58	0x3ec02162	0.3752547
59	0xbf429bc7	-0.7601895
60	0xbe96aa06	-0.29426593
61	0xbfa50f2e	-1.2895257
62	0xbfe739ee	-1.8064554
63	0x3e5d51bc	0.2161321
