maddpg_pytorch/models/cache_data/model/run50/incremental/model_ep5001.pt (torch, 690099 bytes, 168 tensors)

fc1.weight f4 [64, 1]
000000 07 f4 a6 3f 8a 4c d5 be 17 57 55 be c8 4e 5a 3e
       1.3043221 -0.41659957 -0.20834003 0.21319115
000010 67 fc 64 bf da 30 b2 3f bd bc 19 bf 7d ed b5 bc
       -0.89447635 1.3921158 -0.60053617 -0.02220797
000020 99 7d f6 bd 3b 8b 4e 3f cf e5 8e be 18 b6 8c be
       -0.120356746 0.806812 -0.27909705 -0.27482677
000030 f5 9b 96 bd 03 5d ec be 30 51 95 bd 1e 1a b2 be
       -0.07353965 -0.46164712 -0.07290876 -0.3478555
000040 30 6c 14 3e 00 e7 82 bb ea de b9 bd 29 64 1f 3f
       0.14494395 -0.0039948225 -0.090757206 0.6226221
000050 6d 00 9e bf 36 9d 1a bf 70 a3 2b be 39 ae 8c bf
       -1.234388 -0.60396135 -0.16761565 -1.0990669
000060 05 ad 91 be 2d 0d 05 bf c2 d2 ee bc 62 bb bd 3f
       -0.28452316 -0.5197323 -0.029153232 1.482281
000070 ac ef be bf ef 76 3a be d2 6e 56 3f a0 87 32 3f
       -1.4916892 -0.18209432 0.8376285 0.697382
000080 d9 7f 82 be da 7f 77 bf 54 04 60 bf 46 b3 e7 be
       -0.25488165 -0.9667946 -0.87506604 -0.45253962
000090 16 7a bf 3e 10 91 2a be 23 4c fb bd c8 06 64 bf
       0.37397832 -0.166569 -0.12270381 -0.8907285
0000a0 f8 36 a4 3f 5c a0 d8 be bb 4d 9b 3e 29 05 38 be
       1.2829275 -0.42309844 0.3033274 -0.17970718
0000b0 4a 60 8c bf 67 fc 8c bd b9 f2 03 bf fc 39 35 be
       -1.0966885 -0.068840794 -0.5154224 -0.176979
0000c0 8d 19 d2 be 00 88 e0 bd cd f2 76 bf eb 7a 7b bf
       -0.4103512 -0.1096344 -0.96464235 -0.9823443
0000d0 ef f6 85 bc a8 01 d2 be 7e 6b c4 3f 42 93 c1 3f
       -0.016353099 -0.4101689 1.5345304 1.5123065
0000e0 20 ca 3f bd e6 1e af bf b7 ba 39 3e 72 58 6d 3f
       -0.04682362 -1.3681304 0.18137632 0.9271308
0000f0 d7 45 ae bf 66 a0 a7 3f 06 48 cb 3f e4 b5 4c 3f
       -1.3615063 1.3095825 1.5881355 0.79965043

fc1.bias f4 [64]
000000 3c 37 60 be 9d a8 a0 be 2d 1b 02 be 68 8b 6f 3f
       -0.2189607 -0.31378642 -0.12705679 0.9357209
000010 74 b2 4e bf 5f cd 82 be 41 d1 9f be 81 90 b1 bc
       -0.8074105 -0.2554731 -0.31214336 -0.02167535
000020 ca fc 9e bd cf 31 ba be 78 08 12 be 86 b2 08 bc
       -0.077630594 -0.36366126 -0.14261043 -0.008343345
000030 98 1b 85 3d 11 c6 95 be ae 15 6d bf cc c6 3a be
       0.06499404 -0.29252675 -0.92611206 -0.18239897
000040 e2 ff 33 bf 80 27 41 bf 7b e0 68 3e 2a 13 b8 be
       -0.7031232 -0.754509 0.22741883 -0.3595212
000050 5b 91 08 3e 3c 42 14 bf 52 94 63 bf 37 82 1e 3b
       0.13336699 -0.57913566 -0.88898194 0.00241865
000060 63 17 5e be 4c 5d 1d 3d ae 65 e0 3d 1f 9d 61 be
       -0.21688609 0.038419053 0.10956894 -0.22032593
000070 30 82 18 bd c8 39 9b 3e 0a 3b 35 be 36 e6 9e be
       -0.03723353 0.3031752 -0.17698303 -0.31035012
000080 7a a8 06 be bb 0f 41 bc 31 24 03 bf 15 7d af be
       -0.13150206 -0.011783536 -0.512271 -0.34275118
000090 d7 7d 05 3f 38 76 3d be e6 00 8f 3e f8 f6 7c bc
       0.5214514 -0.18502128 0.27930373 -0.015439741
0000a0 e3 b3 8c be c0 b5 59 bf 23 56 1e 3f d5 d7 ca bd
       -0.27480993 -0.85042953 0.61850184 -0.09904448
0000b0 86 76 fd 3d f0 c7 32 bd 73 f6 9f be 81 c7 81 3e
       0.12376122 -0.043647707 -0.31242713 0.25347522
0000c0 23 ce eb 3d 72 e0 29 bf e6 75 67 bd 57 dc c6 bc
       0.11513927 -0.663581 -0.05650892 -0.024274988
0000d0 a1 a4 bf 3e 0d 50 61 be 36 8f 8d be ba 69 8b be
       0.3743029 -0.22003193 -0.27648324 -0.272291
0000e0 50 d2 1a bf e4 b8 9a 3d c6 8d 1b 3f 30 4a 52 bd
       -0.6047716 0.07554796 0.60763204 -0.051340282
0000f0 8f a4 d8 bc 91 02 68 be 08 55 8d be 57 d1 14 be
       -0.026445655 -0.22657229 -0.27603936 -0.14532982

fc2.weight f4 [64, 64]
000000 dd 82 cb 3c 8d a8 69 3f da 51 1e 3e de 14 e0 be
       0.024842674 0.91272813 0.15460911 -0.4376592
000010 3f 7a f3 3d df 58 78 3c 5a 39 0f 3e 7b 2a ab bf
       0.11888551 0.015157907 0.13986722 -1.3372339
000020 c6 27 c7 3b 51 66 b3 be f5 7b ea be 71 dc 59 bd
       0.0060777394 -0.35039 -0.45797697 -0.053188745
000030 ee c4 01 bf de ee cf 3e 70 ea 9c bd 4e 30 1b 3e
       -0.50691116 0.4061193 -0.07661903 0.15155146
000040 30 75 1e 3d a8 de e7 bc ad 1e 7d bf 02 fe 25 bf
       0.038685977 -0.028304413 -0.9887493 -0.6484071
000050 25 aa 4a 3e ce 66 ac 3d e4 63 2d bd 35 24 76 3e
       0.19791467 0.08418046 -0.04233159 0.2403725
000060 67 c4 21 3d 7c 66 17 be f8 b2 54 bf 4b 2f 0b be
       0.039493944 -0.14785188 -0.83085585 -0.1359226
000070 b6 70 1c 3e 3c 6d 5c bf 1a 02 b6 3d 01 30 0c bf
       0.15277371 -0.8610418 0.088871196 -0.5476075
000080 2f a4 31 bf cf 69 d5 3e 6d 9a c0 3d 0c 29 e1 3d
       -0.6939115 0.41682288 0.094044544 0.10994157
000090 2d f7 41 bf c0 04 de 3c d0 79 00 bf 80 27 be 3d
       -0.75767785 0.027101874 -0.5018587 0.09284878
0000a0 18 91 f4 be 80 59 69 bd 51 f6 1a bf 4b dd d1 3e
       -0.47766948 -0.05697012 -0.605321 0.40989146
0000b0 25 9c 06 3e cb 9c 11 bf ef df 0e 3f 0e 75 5b be
       0.13145502 -0.5687987 0.55810446 -0.21431372
0000c0 b8 66 9f 3d 60 6e 82 3b f4 c9 33 3e e5 66 72 3e
       0.07783264 0.003980443 0.17557508 0.23672064
0000d0 55 a9 09 bf b3 75 86 3d cf 46 63 be 96 3d 0d be
       -0.53774005 0.06565418 -0.2219498 -0.13793024
0000e0 ec 1d a5 bd 27 0a 74 3e 8e 49 18 bf 2e 8c c7 bd
       -0.08062348 0.23831998 -0.59487236 -0.09743534
0000f0 ff af 21 3e 10 0e 61 be 18 33 37 3d e0 20 d1 bf
       0.15789793 -0.2197802 0.04472646 -1.6338158
000100 2c 46 8f be 0e 40 22 3d 08 37 31 3e 8b 71 a3 be
       -0.27983224 0.03961187 0.17306149 -0.31922564
000110 db 88 c2 bc ce 34 14 be 8a df 65 3e 10 de 9f be
       -0.023746898 -0.14473268 0.22448555 -0.31224108
000120 ac 0a f3 3c 4d 36 7e bd fd 3a b6 bb 90 20 4a 3d
       0.029668175 -0.062063504 -0.005561231 0.04934746
000130 82 d6 36 bd 9b 32 e7 3d f0 80 1f bc 25 97 b4 3d
       -0.044638164 0.11288949 -0.009735331 0.08817891
000140 08 13 ae 3c d4 5a 71 3d a2 0f 4f be 24 a6 47 be
       0.02124931 0.05892451 -0.20220807 -0.19496971
000150 68 b5 8d bc 6e 81 ba 3d 7a 32 df 3d 49 66 4e 3e
       -0.017298415 0.09106718 0.108982995 0.20156206
000160 2d d5 01 3e 6d 60 ec bd e0 7f 64 be 0f be ed bd
       0.12678976 -0.11541829 -0.22314405 -0.116085164
000170 96 96 31 bd 57 4e da bd 5f 21 bd be ab 2c 9c be
       -0.0433565 -0.106594734 -0.36939523 -0.3050283
000180 24 bc 14 be 2e c2 d6 bc f9 3d 1f bc 81 08 da 3d
       -0.14524895 -0.026215639 -0.009719365 0.10646153
000190 c5 2b e7 bc 0c 1d f2 3d ab ce 0a be 4d 3e 5b bc
       -0.028219113 0.118219465 -0.135554 -0.013381553
0001a0 b3 ff c6 bd 88 23 da bc eb 11 27 be ee 78 5d 3d
       -0.097167395 -0.02662827 -0.16315429 0.054070406
0001b0 f2 f7 48 b8 9d 82 f5 bd f1 22 27 3e 3f 24 3d be
       -4.7914633e-05 -0.11987803 0.16321923 -0.18470858
0001c0 1c bf b7 bc c0 65 33 bc 2f 55 bd 3d ed 19 b9 3d
       -0.022429995 -0.010949552 0.09244763 0.09038148
0001d0 ad 36 32 be 2a a3 9f 3d 56 a0 aa be 6f 19 9e be
       -0.1740367 0.07794793 -0.33325452 -0.3087878
0001e0 9e 6a aa bd 9c c6 28 3e cf e9 c6 3b a6 ed b2 be
       -0.08321117 0.16482013 0.0060703526 -0.34946936
0001f0 8d a1 b2 3d 08 0e 2c be e6 50 55 be 9c d8 8e be
       0.087222196 -0.16802227 -0.20831642 -0.27899635
000200 5a 22 1d be 89 d4 c4 3d 99 74 47 3d 5d e5 87 be
       -0.15345135 0.0961085 0.04869518 -0.26542178
000210 0c f7 80 3d 75 4b f7 bd 80 d4 1c 3d d1 63 d0 bd
       0.062971205 -0.12074939 0.038288593 -0.101752885
000220 b7 be 4c 3d c5 39 45 be 11 2e 2b bd 06 68 2f 3d
       0.049986567 -0.19260319 -0.04179198 0.042823814
000230 93 79 d7 bb a5 c8 47 3c d4 ce 10 3d b4 b1 23 3e
       -0.006575772 0.0121938335 0.035353497 0.15985757
000240 08 91 f3 3c 04 55 d4 3d 9c 01 92 be d2 59 94 be
       0.029732242 0.10367778 -0.28516853 -0.28974777
000250 78 ec bf bc 40 19 a8 bb 80 8b 72 bd 79 4b be 3d
       -0.023428187 -0.005129963 -0.05921507 0.09291739
000260 50 cd 45 bc 27 1a 07 3d 13 80 8e bd b7 27 47 be
       -0.012072876 0.032983925 -0.06958022 -0.19448744
000270 af 91 cb 3a 96 b1 99 be 8c e7 d5 be ce c8 ec bd
       0.0015531088 -0.300183 -0.4177822 -0.11561738
000280 e6 5f 76 be 64 ac 97 3d 85 79 24 bc 75 c4 c2 bd
       -0.2406002 0.07405928 -0.010038738 -0.095101275
000290 68 a2 7b bd 9a 77 8f 3d 50 a7 d5 bd ff 1f 3a bb
       -0.06143418 0.07005234 -0.10432303 -0.0028400419
0002a0 0a bc 8d be 00 a0 e1 3a be 79 3d be a0 41 9f bb
       -0.27682525 0.0017213821 -0.18503472 -0.004860118
0002b0 d5 b2 5c 3d 9a 16 7d be c0 74 c5 3d c3 e6 e7 bd
       0.053881485 -0.24715653 0.09641409 -0.11323311
0002c0 3a a2 ae 3d c4 6b 43 bd 39 48 a0 bd b9 48 42 3e
       0.08527036 -0.047710195 -0.078262754 0.18973054
0002d0 d7 cd b3 bd b2 d2 4d 3e 67 75 74 be c0 f5 82 be
       -0.08779495 0.20099905 -0.2387291 -0.25578117
0002e0 cc aa f0 bd fe b6 19 3a 27 1e ae bc 02 81 b1 be
       -0.11751327 0.0005863755 -0.021254612 -0.34668738
0002f0 e2 5c b4 3c 58 c8 1a be 27 0e 1b be ab 39 31 be
       0.022016946 -0.15115488 -0.15142117 -0.17307155
000300 8b 60 95 be 01 bd f9 bc f8 40 d1 3b a7 11 ab be
       -0.2917522 -0.030485632 0.0063859187 -0.33411905
000310 a5 70 bb 3d f8 d4 9d be b8 f2 29 bb 66 bb b4 be
       0.091523446 -0.30826545 -0.0025932025 -0.35299224
000320 66 b2 a8 bd 4b 4f c3 3b a2 6a 40 bd b3 36 bb 3d
       -0.08237152 0.00596038 -0.046976693 0.091412924
000330 9e 0c 9f bc de ca 06 bc 80 73 8e 3a 5f 08 5b 3c
       -0.019415196 -0.008227078 0.0010868162 0.013368695
000340 62 2f 8f bd 82 03 90 bd 6b ca 9b be d0 f8 ed be
       -0.069914594 -0.07031919 -0.3042787 -0.4647889
000350 65 a6 95 3b ac 71 b4 bd 6c 1a d4 bd 50 db 44 3e
       0.004566955 -0.08810744 -0.10356602 0.19224286
000360 c8 20 f2 3c e4 0b 17 bd 8c 71 4e be fb d1 a5 be
       0.029556647 -0.036876574 -0.20160502 -0.32386765
000370 c2 8d b5 bd e4 eb 9a be e0 12 14 be 6b 57 8b be
       -0.08864929 -0.30258095 -0.14460325 -0.27215132
000380 cd ac 7f be 23 41 89 bc ce 59 87 3d b1 de b0 3d
       -0.24968262 -0.016754692 0.06608926 0.08636225
000390 fb 8a a4 b9 70 5a 15 3d 95 fd 2e bd 86 8c 4d 3d
       -0.00031384066 0.0364632 -0.042722303 0.05018284
0003a0 8f 0d bc be 6c cc fa bd 3e 0a c5 bc be 83 94 bd
       -0.36729094 -0.12246022 -0.024052735 -0.0725169
0003b0 7b d2 e3 3d 90 e2 45 be 4f 71 80 bd 8f 13 f2 bd
       0.1112413 -0.19324708 -0.06271612 -0.11820137
0003c0 ec ca b0 3d 10 42 cf bc e3 2c ff bd 87 6a e7 3d
       0.08632454 -0.025300056 -0.12459733 0.11299615
0003d0 9f f5 c2 bd fb 39 19 3b d6 c7 5b be 6c 32 76 be
       -0.09519505 0.0023380506 -0.2146295 -0.24042672
0003e0 c0 d3 3c bd 24 0e 1a 3e 74 9e c4 bc ae e7 3b be
       -0.046100378 0.15044457 -0.024001338 -0.18350098
0003f0 37 29 1a 3d ef a2 c4 be 63 d8 f2 bd b8 54 c3 be
       0.03763696 -0.38405558 -0.11857679 -0.38150573

fc2.bias f4 [64]
000000 1a a6 ad be 9c b5 12 3d 06 38 d1 bd 44 9f 4b bd
       -0.33915788 0.035817727 -0.10215764 -0.049712434
000010 87 31 6c 3f 2f d2 1d bd f8 5d 3a bd 3d 0e 4e be
       0.9226307 -0.038530525 -0.04549977 -0.20122619
000020 92 03 6d be d0 6d 41 bc b7 dc 3b be 15 8a 0a be
       -0.23145893 -0.0118059665 -0.18345915 -0.13529237
000030 95 fd 1c be c4 79 da 3c 11 34 73 3c 11 d0 0f be
       -0.15331109 0.02666939 0.014843957 -0.14044215
000040 10 2f 53 3f 33 75 fe bd 92 ce 57 3c b6 69 69 be
       0.82493687 -0.12424698 0.013171809 -0.22794232
000050 22 9a b8 bd ac 31 b4 bc 5a 64 72 3d 87 2f b1 bd
       -0.090137735 -0.021996342 0.059177734 -0.08651643
000060 a0 b3 97 bd a1 24 63 be 9e c0 02 3c 14 b6 85 bd
       -0.074073076 -0.22181942 0.007980494 -0.06528869
000070 01 bc 88 bc c5 16 13 be 99 b3 b5 bd 3f 1b b3 bd
       -0.01669121 -0.14364155 -0.08872146 -0.08745431
000080 f2 5f 65 be 10 be e6 bd c6 64 d6 bd 9c 1f 36 bc
       -0.22399881 -0.1126672 -0.1046844 -0.011115935
000090 31 17 05 3e f0 f4 87 bd 7a a8 88 bd 1a 65 4b be
       0.12997128 -0.06638515 -0.06672759 -0.19862786
0000a0 8a 6b 04 3d 12 ac 1b be ae 80 1b bc 64 fe 59 bc
       0.03232912 -0.15202358 -0.009491129 -0.01330528
0000b0 ae b2 3e be 59 e7 e2 bb f5 b7 33 3d 2c 82 44 3d
       -0.18622848 -0.0069245514 0.043876607 0.047975704
0000c0 d6 ab b1 bd 9a c1 fd bd c0 3b ce bd 79 40 01 be
       -0.08675353 -0.12390442 -0.1006999 -0.1262225
0000d0 21 bf 20 bd e8 39 e7 bd d8 51 08 be ca bd fb 3e
       -0.039244775 -0.112903416 -0.13312471 0.49168235
0000e0 b3 5b 7f bd c6 8f 94 be 7c 7e b5 3d a5 17 90 3e
       -0.06234331 -0.2901594 0.088620156 0.2814304
0000f0 fb f0 b3 be 44 77 09 bd 49 bf 77 bc 10 ad 2b bc
       -0.3514479 -0.033561006 -0.0151212895 -0.010478273

fc3.weight f4 [32, 64]
000000 9c ba 27 bd f5 cb 3f 3e 9c be 55 3e 3a de 7c bd
       -0.04094945 0.18730147 0.20873493 -0.06173537
000010 e5 1f d7 3e 99 50 c5 3d ec a7 97 3d b9 83 b9 3d
       0.4201652 0.096345134 0.074050754 0.09058327
000020 87 ef 81 3b 56 a9 73 3e 94 db d3 3d be 11 b6 be
       0.0039653215 0.23795065 0.103446156 -0.3556041
000030 6c f1 70 be eb 19 dc 3c 26 b6 57 bd 9d 91 0a 3e
       -0.23529595 0.026867827 -0.052663945 0.1353211
000040 a0 73 38 bf e7 e4 00 bd 84 e9 97 3e e1 1a 6f 3c
       -0.7205143 -0.0314683 0.29670346 0.014593811
000050 1c 29 88 bd 8c 62 de 3d 8e 90 4e 3e 9d 8d af 3d
       -0.06648466 0.1085864 0.2017233 0.085719325
000060 a5 04 c3 3d b4 33 90 3e 22 e1 47 3e bc d2 05 3d
       0.0952237 0.28164446 0.19519475 0.032671675
000070 01 df 22 be a4 02 79 3e 78 22 f3 bd ff c9 21 bd
       -0.15905382 0.24317414 -0.11871809 -0.03949928
000080 22 c7 44 3e db 2f 59 be 79 72 81 be d5 d3 64 3e
       0.19216588 -0.21209662 -0.25282648 0.22346433
000090 8f 20 b5 be 19 e7 17 be 22 c7 e6 bd 8f 11 b0 3d
       -0.35376403 -0.1483425 -0.1126845 0.08597099
0000a0 61 b3 e2 bc 32 b1 d8 bc 8c 2e 03 bd 8f 12 be 3d
       -0.027673425 -0.02645168 -0.032026812 0.092808835
0000b0 d7 ca 49 bd 52 96 4f be 6a 76 99 bd 8f 12 cf bd
       -0.04926571 -0.20272186 -0.07493289 -0.10110962
0000c0 de 7b 6b bd 80 c1 b6 bd 25 c6 2e bd af f6 98 3d
       -0.057491176 -0.08923626 -0.042669434 0.07468926
0000d0 4d a4 23 3e a4 7e 1f bd ad 75 68 3c 79 0d 74 3e
       0.15980645 -0.038939133 0.014188212 0.23833264
0000e0 fc e2 ed bd a3 da 96 3d 68 e3 30 3e 49 ee 3f 3d
       -0.116155595 0.073659204 0.17274249 0.046858106
0000f0 81 f0 fc 3d 18 c4 ff bd 0e 37 9a 3c 8e 3c e5 bd
       0.1235056 -0.12488574 0.01882508 -0.111931905
000100 e2 b4 8c 3e 4e 4d d9 be c7 e3 71 be 89 d1 53 be
       0.27481753 -0.4244179 -0.23622046 -0.206854
000110 81 cb 14 3d 00 97 32 bd 08 40 ac bc 62 5d ac bd
       0.03632689 -0.043601036 -0.021026626 -0.08416249
000120 f9 20 0e 3e c2 9b 91 3d 2e 1c cc be 40 d4 26 be
       0.13879766 0.071097866 -0.3986525 -0.16291904
000130 f4 95 ab 3c a9 34 e9 bc ac 04 1c 3c 1a 85 6d be
       0.020945527 -0.028467493 0.009522598 -0.23195305
000140 81 bf a9 be fb ca a8 3c 5f 77 0a 3e 00 f8 8e bd
       -0.33153918 0.020604601 0.13522099 -0.06980896
000150 40 ec b6 3d c6 9f 2f 3a f5 01 23 be 67 c3 50 3d
       0.0893178 0.00066995283 -0.15918715 0.0509676
000160 ee 33 6e be 8b ed cb be 40 5b 4d be 2c 92 39 bd
       -0.23261997 -0.39829668 -0.2005434 -0.045305416
000170 11 f8 de bc da 1c 37 3f 13 b9 a9 3d e1 14 b2 bd
       -0.027217897 0.715284 0.08287253 -0.086953886
000180 95 2e 62 be 05 d6 60 3d ae e1 76 bd 9f 74 95 bc
       -0.22088082 0.054891605 -0.06027382 -0.018244086
000190 8c 8f 1b 3e 30 30 0b 3d 97 6e 1d bd 48 47 ea bc
       0.15191478 0.033981502 -0.038435545 -0.028598443
0001a0 d4 c2 12 be 29 ce 16 3d 3a 37 23 be eb 5c a6 be
       -0.14332134 0.036817703 -0.15939036 -0.32492766
0001b0 84 07 e4 bd bc 17 83 3d 99 21 31 3d 85 41 b8 3d
       -0.11134246 0.06401011 0.04324493 0.08996872
0001c0 f8 41 1a bd b4 9f f6 bd 35 59 57 bb 52 fe 45 be
       -0.03766057 -0.1204218 -0.0032859568 -0.19335297
0001d0 1f d7 ee 3b 96 a1 a4 bd 10 62 91 bd ad 5d 4a be
       0.007288828 -0.080386326 -0.07098782 -0.19762297
0001e0 79 73 55 3d 3c f4 00 bd 39 4f 54 be b3 78 21 be
       0.052112076 -0.03148292 -0.20733346 -0.157687
0001f0 2b 59 d4 bd de e0 1f bd 77 eb a2 bc 92 64 98 3d
       -0.1036857 -0.03903281 -0.019887669 0.07441057
000200 40 01 f8 3d 26 02 e8 3d b7 a6 1b 3e 57 b6 5d 3e
       0.121096134 0.11328535 0.15200315 0.21651588
000210 48 e0 29 3f 0b 7e 44 3e bc ab 03 3d 1a 79 3d bd
       0.6635785 0.19188707 0.0321462 -0.04625807
000220 a9 b5 10 be 8c 60 2e 3e a9 7f ab bc 93 9a 45 be
       -0.14131798 0.17029017 -0.020934897 -0.19297247
000230 58 23 53 be 90 2b 49 3d 4e ec 6e 3d 0b 49 88 be
       -0.20618951 0.04911381 0.058330826 -0.26618227
000240 79 ba 7f bf 48 ce 55 bd 85 af ea 3e 77 ab 91 3d
       -0.9989391 -0.05219868 0.45837036 0.071127824
000250 52 97 ec bd 2a 96 5b bd 46 da 86 3e d6 ae b8 bc
       -0.115522996 -0.053610004 0.26338404 -0.022544306
000260 1c 20 21 3e 12 77 b6 3d 50 0d 6a be 4e 21 a0 3d
       0.15734905 0.089094296 -0.22856641 0.07818852
000270 04 21 98 be bc f8 0e 3f df 28 39 be 12 0d 34 3e
       -0.2971269 0.5584829 -0.18081997 0.17583111
000280 62 7d b1 be cb 22 61 be 2b 63 1c be f1 d2 f5 3d
       -0.34665972 -0.21985929 -0.15272205 0.120031245
000290 55 31 80 3e 00 aa 16 be f1 be 3b 3d 07 14 f4 3c
       0.25037637 -0.14713287 0.045836393 0.029794706
0002a0 c6 f0 5b be 03 da 3c be ad bc de bd d6 fd c7 3d
       -0.21478567 -0.1844254 -0.10875831 0.09765212
0002b0 b2 49 91 3d e9 57 30 be b8 3e d9 bd e5 4a 20 be
       0.070941344 -0.17221035 -0.10607666 -0.1565357
0002c0 ee 77 30 be c4 b1 27 3d 8c 75 e8 bc d8 7a 44 3e
       -0.1723325 0.040941015 -0.028376363 0.19187486
0002d0 34 46 c2 bd 64 99 df 3d be 85 73 3e aa 4c 89 3e
       -0.094860464 0.10917929 0.23781487 0.26816303
0002e0 f9 eb 9b be 95 0a 72 3d b3 0c 9b be 65 8b a3 be
       -0.3045347 0.059092123 -0.30283126 -0.31942287
0002f0 60 6b 9b 3e 66 a4 99 be bd 67 90 3e 2a 33 a7 bd
       0.30355358 -0.3000824 0.28204146 -0.08164056
000300 56 e7 93 bd 5d 36 0f 3d 93 66 70 3c 99 69 e7 3d
       -0.07221858 0.034963954 0.014672893 0.11299438
000310 b4 68 31 3c da f1 f5 3d 2e fc f1 bd 29 d7 17 3c
       0.010828186 0.1200902 -0.118156776 0.009267607
000320 17 e3 75 3e e8 35 54 3e b7 35 0c 3e c7 ca 38 be
       0.24012409 0.20723689 0.13692366 -0.18046103
000330 7c 9c 56 bd c6 ba 27 be fe 5e a8 3c a1 75 ff be
       -0.05239533 -0.16379842 0.020553108 -0.4989443
000340 65 5a be bd e1 74 95 bd e3 bf e9 3e e9 b9 e0 bd
       -0.09294585 -0.072976835 0.4565421 -0.109729595
000350 74 08 bb 3d db 86 85 bd 38 a4 59 3d a3 85 65 3c
       0.09132472 -0.06519862 0.053135127 0.014008912
000360 e1 ef 23 3c 4e e5 fd 3b fa 92 46 be 8c a3 c4 3d
       0.010005922 0.0077482825 -0.19392005 0.096015066
000370 40 c5 df 3c c9 d4 06 3f 73 ce 8f 3d 97 58 ba 3d
       0.027315736 0.52668434 0.07021799 0.090989284
000380 dc 0d e7 be 7e 87 0a be 34 f5 43 be 18 de d8 bc
       -0.4512776 -0.13528249 -0.19136506 -0.02647309
000390 82 41 c5 be ee e7 3c be bc 95 d6 bd e1 1c 00 3e
       -0.3852654 -0.18447849 -0.10477778 0.12511016
0003a0 5e 16 db bc 8d cd 2b be c2 e2 38 be 72 ef 02 3e
       -0.026744064 -0.1677763 -0.18055251 0.12786654
0003b0 15 c9 c1 bd e4 4a 14 be 17 9f fc bd 8d 4c 02 be
       -0.094621815 -0.14481694 -0.123350315 -0.12724514
0003c0 be 8c 0e 3c 14 ef ff 3d f7 64 be 3b e5 67 97 3d
       0.008700548 0.124967724 0.005810376 0.07392863
0003d0 e9 5a 45 bd a4 67 c7 bd 88 62 95 3d 58 85 0d be
       -0.0481824 -0.09736565 0.07294184 -0.13820398
0003e0 2a 89 05 be cd cc 31 3d 21 c8 5b bd 1a dd 0a bd
       -0.13040605 0.043408204 -0.053657655 -0.033902265
0003f0 f7 36 98 3d 61 8d 4f 3d a2 23 44 3e 14 88 ac bd
       0.07432359 0.05067194 0.19154218 -0.08424392

fc3.bias f4 [32]
000000 04 a8 0f bf 86 69 bb be 26 dd ad 3e a0 da 84 bf
       -0.56115746 -0.36603945 0.33957785 -1.0379219
000010 44 1f b4 3c 51 e4 b5 bf 3e dd 9b bf 4d d4 6a be
       0.021987565 -1.4210302 -1.2176893 -0.22932549
000020 40 75 1c 3f b6 8b 1f bf 8a 2f 34 bd 22 34 64 bf
       0.6111641 -0.62322557 -0.04399065 -0.8914205
000030 32 83 d7 bf bb 1d 9a bf cc 07 2b bf a9 76 d2 be
       -1.6836913 -1.2040323 -0.6680877 -0.41106156
000040 c6 19 21 bd 98 d7 32 bf 31 89 f1 be a3 a3 67 bf
       -0.03933122 -0.6986022 -0.4717498 -0.90484065
000050 1c 54 80 3f d8 f4 4b bf 70 25 69 bf de 84 8c 40
       1.0025668 -0.79670477 -0.9107275 4.391219
000060 e8 49 86 bf 42 c9 ab 3d 56 42 0b bf 6d 80 86 3d
       -1.0491304 0.08387996 -0.54398096 0.06567464
000070 7e 00 a9 bf 7b 2a c4 3e f0 20 df 3f 70 2b a5 3c
       -1.3203275 0.3831366 1.7431927 0.020162314

in_fn.weight f4 [33]
000000 b0 f3 cd 3f dc a0 00 3f bc 83 87 3e 31 b3 6e 3e
       1.6089993 0.5024545 0.26467693 0.23310544
000010 0f e2 4e bd 5a 0e 91 3e f3 8d 43 bc 16 92 0d 3e
       -0.050508555 0.28331262 -0.011935699 0.13825259
000020 e3 2b fe 3e c8 bc 00 3f a7 e7 30 bd 21 00 cb 3e
       0.49642858 0.5028806 -0.04318967 0.39648536
000030 b3 fe af 3e 6c c1 74 3b 1f 46 ee 3e 25 4e e6 3e
       0.34374008 0.0037346734 0.46537873 0.44981495
000040 8e 2b 57 3f ba 11 b6 3e 54 cf 3e 3e 83 58 81 3e
       0.84050834 0.355604 0.18633777 0.25262842
000050 ea 6d 82 3e 57 78 c1 3e 8c 5b dc 3e 32 58 a0 3e
       0.25474483 0.37787125 0.43038595 0.31317288
000060 88 43 83 3f 45 f5 15 be af 68 e2 3e 76 52 8b 3e
       1.0254984 -0.14644344 0.44220492 0.2721135
000070 c5 36 98 3f 89 d1 cc 3e fa fd 3d 3f 1b 00 5f 3f
       1.1891714 0.40003613 0.7421566 0.87109536
000080 24 96 8c 3f
       1.0983319

in_fn.bias f4 [33]
000000 bd e1 13 3f b0 15 47 bd ca db 5b bd 3b 95 c8 bd
       0.57766324 -0.048604667 -0.053676404 -0.097940885
000010 af 22 ce bc 16 38 15 3d 1d d6 bb bd e7 83 b0 bd
       -0.025163023 0.03643044 -0.09171698 -0.086189084
000020 28 ac 01 3d 82 e7 1a 3e a1 26 1a 3d 39 8e 74 3d
       0.03165832 0.15127376 0.037634496 0.059705947
000030 89 b8 9a bd 14 0a d4 bc a0 c1 a1 3c 78 80 49 3d
       -0.075547285 -0.025883712 0.019745648 0.049194783
000040 1b b0 f9 bd 23 81 db 3d ec f1 00 bd c2 b7 91 3c
       -0.121917926 0.1071799 -0.031480715 0.017787818
000050 02 98 92 bd 49 b1 c6 bb c2 7c 96 3d d6 66 29 bc
       -0.071578994 -0.0060636145 0.073480144 -0.010339459
000060 a3 3d 34 3e 36 eb d9 bd 08 99 7d 3e f0 d3 e9 bd
       0.17601638 -0.10640566 0.24765408 -0.11417377
000070 f3 38 8c 3c d6 af c0 bd a1 57 4e 3e e1 79 85 3e
       0.017117 -0.09408538 0.20150615 0.2606955
000080 db 8a 3e bd
       -0.04651914

in_fn.running_mean f4 [33]
000000 6b 18 10 40 36 8c cf 3b 2d ca b9 3b ed fc bc 3b
       2.2514904 0.006333853 0.005669853 0.005767456
000010 db c6 55 3b ec a4 d6 3b 95 12 60 3b 4a f1 61 3b
       0.0032619748 0.006550422 0.0034190763 0.0034476095
000020 9f 3f 25 3c 16 0b 00 3c 04 c2 6e 3b 0d 41 09 3c
       0.010085969 0.007815143 0.003643156 0.008377326
000030 e9 af 98 3c ad f9 89 3b 4c fd 14 3c 39 d9 19 3c
       0.018638568 0.004210672 0.009093594 0.009390169
000040 af 58 71 3d 49 49 b4 3b d8 62 d9 3b ff 77 c7 3b
       0.058922466 0.0055019003 0.0066340975 0.0060873027
000050 8b 18 d4 3b a9 4e 48 3c a0 5b db 3c 01 48 f8 3b
       0.0064726523 0.012225785 0.026777089 0.007576943
000060 2a fb ba 3e 1c 7c 76 3b 40 60 d6 3b 7b b0 41 3c
       0.36519748 0.0037610596 0.0065422356 0.011821861
000070 3d 36 f8 3d ae 7c 51 3c 1c 25 77 3d 70 66 25 3d
       0.1211972 0.012786074 0.060338125 0.040380895
000080 51 7b 11 3e
       0.14207198

in_fn.running_var f4 [33]
000000 7d cb dc 40 e8 e0 cd 3b a4 ab b8 3b 93 c5 bb 3b
       6.89984 0.0062829144 0.0056356955 0.00573034
000010 26 da 54 3b 76 20 d5 3b 87 08 5f 3b 9a df 60 3b
       0.003247866 0.006504114 0.0034032182 0.0034312964
000020 ae 7d 23 3c 4d 09 fe 3b ab b1 6d 3b 95 05 08 3c
       0.009978695 0.0077525736 0.0036269228 0.008302112
000030 66 64 94 3c 9f 3b 89 3b 1e 99 13 3c 41 27 18 3c
       0.01811428 0.0041880156 0.009008674 0.009286703
000040 4a b8 62 3d f7 45 b3 3b f8 46 d7 3b c7 2f c6 3b
       0.055351533 0.005470987 0.0065697394 0.006048176
000050 36 86 d2 3b a5 b3 45 3c 14 a4 d3 3c ed 0f f6 3b
       0.0064246906 0.012066756 0.025835074 0.0075092227
000060 2a ed 60 3e f9 31 75 3b 69 0d d5 3b 23 70 3e 3c
       0.21965471 0.003741382 0.0065018428 0.011623415
000070 09 ec d8 3d 7b 51 4e 3c 91 ea 66 3d 80 4a 1d 3d
       0.10591895 0.012592669 0.056376044 0.038401127
000080 e0 11 f7 3d
       0.12063956

fc1.weight f4 [64, 33]
000000 33 5f b1 3b 0d 9a e5 bd ef fb e5 bd f0 ca e6 bd
       0.00541296 -0.112110235 -0.11229693 -0.11269176
000010 45 67 0a be 10 52 05 be c3 fa da 3e 68 68 8c 3e
       -0.13515957 -0.13019586 0.4276944 0.27423406
000020 79 a0 ed 3e 85 e0 0c bf 94 f1 6a bd 0f 94 b7 be
       0.46411493 -0.5503009 -0.057359293 -0.35855147
000030 39 ac 8c be dd 21 bc bd 98 c6 0a be ac 27 f8 3e
       -0.27475145 -0.091861464 -0.1355232 0.48467767
000040 8d 61 45 be 89 b9 0f be b3 e2 ea be be 46 e9 3d
       -0.19275494 -0.1403562 -0.45876083 0.11390446
000050 de 0b 4e bd 7f 3e b8 be eb 69 8a 3d 21 7c d8 3d
       -0.050304286 -0.3598518 0.067584835 0.10570551
000060 5f 20 10 be 5e e0 a7 be 44 ad cb 3e 3a bd 72 3e
       -0.14074849 -0.32788366 0.3978063 0.23704997
000070 97 74 bd 3e f0 2a de 3d fb 42 62 bd dd 9b 95 be
       0.37003013 0.108480334 -0.05523966 -0.29220477
000080 3e f5 81 be 09 e4 9a be 40 b0 60 be 33 83 37 3e
       -0.25382417 -0.30252102 -0.21942234 0.17921142
000090 d2 26 a9 3b 52 75 b2 bd cd a2 f9 3d 96 fa ea bd
       0.0051620984 -0.08713783 0.12189255 -0.11473577
0000a0 f6 f2 96 bb c5 18 18 be e0 24 a5 bb 18 56 04 3e
       -0.0046066 -0.14853199 -0.0050397962 0.12923467
0000b0 82 f0 61 be e1 99 ae bd 6a 39 4b be 5b 29 6f bd
       -0.22064403 -0.08525444 -0.1984612 -0.05838905
0000c0 80 f0 22 be c1 5d 73 3d ac c4 04 bd 14 d1 ce 3d
       -0.15912056 0.059415583 -0.032414123 0.10098472
0000d0 92 5b 8e be 5d a6 93 3e 9b b4 a2 bd e8 bb 22 be
       -0.27804238 0.28837863 -0.07944604 -0.15891993
0000e0 23 65 9e bd ce ba 75 3d d6 cf f3 3e 49 3b ba bd
       -0.07734134 0.059992604 0.47619504 -0.09093339
0000f0 bb 68 14 bd d6 4d 6c 3d ad 27 38 bc 58 ba b5 bc
       -0.03623269 0.057691418 -0.011239928 -0.022183582
000100 6b 9d bd bd f8 cb ca bc 88 ee 46 bf 94 d0 3b 3c
       -0.09258541 -0.024755463 -0.7770772 0.011463303
000110 a0 41 98 bd f5 fa 25 be b7 43 38 3d 45 8f a3 3d
       -0.07434392 -0.16209014 0.044986453 0.07986311
000120 cb 9f 2b 3e eb 70 05 be c2 44 55 3e 68 e0 c6 be
       0.16760175 -0.13031356 0.2082701 -0.38843083
000130 c6 d7 4c 3e 26 b9 9a 3d bb 98 39 be ab 12 4d 3e
       0.20004186 0.075548455 -0.18124668 0.20026653
000140 8a e2 f9 bd a6 f3 8a be 0d a0 f6 3e 95 4c e5 be
       -0.12201412 -0.27139014 0.48168984 -0.4478499
000150 2c f7 55 3e 86 34 1f be 83 92 13 3d 5c bf 29 3e
       0.2089507 -0.1554738 0.036028396 0.16576904
000160 8e 54 4c be 08 16 b1 be 05 92 f0 3d 8b f8 36 3b
       -0.1995413 -0.3458712 0.11746601 0.002791914
000170 e7 60 45 3e a5 87 bc bd 26 a5 8a 3c c8 22 44 3c
       0.19275247 -0.0920556 0.016924452 0.011971183
000180 cb 19 5f be 6f 7a 11 be c3 b6 5c be b8 52 18 bf
       -0.21787183 -0.14206861 -0.21554093 -0.5950122
000190 f0 88 38 3e 83 12 b0 3d 9a 92 ef bd 5f ca af bd
       0.18020988 0.08597281 -0.11697884 -0.08583521
0001a0 9d 98 76 3e 1b c6 f9 3d a0 f9 33 3d 25 5a 19 be
       0.24081655 0.12195989 0.043939233 -0.14975794
0001b0 5e 72 c5 bd 20 d3 e3 3d 90 27 17 be ce b8 a7 bd
       -0.096409544 0.11124253 -0.14761186 -0.081895456
0001c0 14 11 34 be 21 b5 45 3d b6 88 00 3f d6 28 9b 3c
       -0.1758464 0.04826844 0.50208604 0.01894037
0001d0 a7 71 6a 3e 27 62 80 be 79 dd 3d 3e 2c a6 5a 3e
       0.22894917 -0.25074884 0.18541516 0.21352452
0001e0 bb c9 bf bd 91 35 f5 bd f3 cc b3 bd d9 e6 f5 bd
       -0.09364649 -0.119731076 -0.08779325 -0.12006921
0001f0 99 6e 0e 3e bb 46 b6 be 1f a0 f5 3d e8 a1 3b bd
       0.13909377 -0.35600838 0.11993431 -0.045808703
000200 df d6 42 3e 3c 3a f9 bd ee 5b 6a 3d f1 c9 23 be
       0.1902728 -0.121693105 0.057216577 -0.15995003
000210 52 fb ae be 2d 50 d0 bc 37 70 95 bb f9 6a c3 bc
       -0.34176117 -0.025428856 -0.004560496 -0.02385472
000220 61 2b c0 bd 24 3e c7 bc cf b2 18 3e a8 25 ff 3d
       -0.09383274 -0.024321623 0.1491196 0.12458354
000230 fd f4 49 be fd b3 d9 bd 84 9f 0c 3d fb 0e 12 be
       -0.19722362 -0.10630033 0.034331813 -0.14263527
000240 61 db 3e 3d 5e 22 86 3d b6 d0 32 bc 34 30 cb bd
       0.046595935 0.06549524 -0.010914018 -0.099213034
000250 8a b5 e2 3e 35 e6 0c be 49 37 b6 bd 03 79 af bd
       0.44279128 -0.13759692 -0.088972636 -0.08568003
000260 22 f2 cc 3c 3c 9a d4 3c 81 3b ac 3d e1 1b 52 bd
       0.025017802 0.02595245 0.08409787 -0.05129612
000270 e5 e9 e1 3d b0 14 f0 3d ee 3e 8a be 08 30 8e 3d
       0.1103094 0.11722696 -0.27001137 0.06942755
000280 5d 9a 9f 3d e0 ed 2a 3e 11 65 f6 bd 6b 68 18 3e
       0.07793114 0.16692305 -0.12030996 0.14883582
000290 e9 40 9c 3d 15 b3 ab be b2 58 63 3e 64 d8 b7 3e
       0.07629568 -0.33535066 0.22201803 0.3590728
0002a0 a8 df 5d 3e 41 95 06 3e fe b9 1c bf 06 90 ba 3d
       0.2166735 0.13142873 -0.612213 0.091095015
0002b0 4b 55 60 3e d9 3a 41 3e ab 61 e6 3d b7 7e 0a bf
       0.21907537 0.18870105 0.112490974 -0.540996
0002c0 45 51 0e be 1a 76 d5 be 8a af ed 3e 08 9d bd be
       -0.1389819 -0.41691667 0.46422988 -0.37033868
0002d0 6d 4d dd be cd 0a d0 bd 81 45 89 be 87 77 92 3e
       -0.43223134 -0.1015831 -0.2681084 0.28606817
0002e0 52 b2 df bd 1f ff da bd 99 7f 62 be 00 9b ca be
       -0.10922684 -0.10693192 -0.22118987 -0.3957138
0002f0 cb d2 d5 be 2a 7b a4 be 41 a6 c5 3e 7b 27 0a be
       -0.41762385 -0.32125217 0.38603404 -0.13491623
000300 3c 5d 3c be f3 1d f0 bd ec 47 2b 3e 71 2a 9f be
       -0.18394941 -0.11724462 0.16726655 -0.31087068
000310 e8 c6 8d be e2 d9 a0 be c7 e9 ae bf 7c 3c 6f bd
       -0.27690816 -0.3141623 -1.3665093 -0.05840729
000320 c0 a4 4d 3e ec 60 25 bc 42 f0 c6 3d 90 da b6 bc
       0.20082378 -0.010093909 0.09713794 -0.022321016
000330 73 cf 54 3e 82 4d ea 3d 6a 49 85 be 22 20 10 be
       0.2078226 0.11440565 -0.26032573 -0.14074758
000340 02 ce 27 3d f9 ff e2 bd 38 d9 8a bd d9 41 50 3e
       0.04096795 -0.11083979 -0.067797124 0.20337619
000350 f2 a6 84 3e d2 3c be 3e e0 8a 53 3e f7 1b a6 bd
       0.2590862 0.37155777 0.20658445 -0.081108026
000360 ae 2c 60 3e 43 d0 a1 bd bd dc 20 3e ae 5a b7 bd
       0.21892044 -0.07901051 0.15709205 -0.08952843
000370 58 44 dd 3d 7a 08 e0 3b 2a 27 55 3d 95 35 bb 3d
       0.10804051 0.006836948 0.052039303 0.09141079
000380 a3 e8 4e be e3 67 ad 3e 44 80 35 3d ad f4 51 3e
       -0.20205931 0.33868322 0.044311777 0.20503493
000390 3a 2b ee bd 5c c0 33 bd cb 5e 0b 3f 92 df bc be
       -0.116293386 -0.04388462 0.5444152 -0.3688932
0003a0 60 68 39 be 50 d4 6c 3c cf ef 7c bd 8f c7 95 bd
       -0.18106222 0.014454916 -0.061752137 -0.073134534
0003b0 81 a2 59 be 56 a7 07 bc b5 31 b8 3d 5f e3 b8 3c
       -0.21253397 -0.008279642 0.08993856 0.022569356
0003c0 e8 56 a9 be c5 f0 c7 bd fc 83 c5 bc 8f d9 9d bd
       -0.33074117 -0.0976272 -0.024110787 -0.07707512
0003d0 e8 0f 1c 3e 0c df f6 3e 26 52 67 be 50 13 53 3d
       0.15240443 0.48217046 -0.22589931 0.05153209
0003e0 00 89 8a bd ca 8c e3 bb c2 93 2f 3f 4a 86 c6 bc
       -0.06764412 -0.0069442736 0.68584836 -0.024233956
0003f0 8e b4 0b bd 05 d9 c7 3d cb e7 ff bd 6a 66 84 3c
       -0.034107737 0.0975819 -0.12495383 0.016162116

fc1.bias f4 [64]
000000 55 f8 57 be 93 81 ae be 96 45 59 be b9 f7 b8 be
       -0.21090825 -0.34083232 -0.21217951 -0.36126497
000010 b8 20 4e be 9f 27 37 3e bc 01 21 bf e6 a0 a4 be
       -0.20129669 0.17886208 -0.6289327 -0.32154006
000020 8d de 3d bd 27 dd fc be ed 16 30 3e 4b 6b a1 be
       -0.04635482 -0.49387476 0.17196245 -0.3152717
000030 c2 55 7f be 50 69 3d bf 59 d1 bd be a3 09 cf bd
       -0.24935058 -0.7398882 -0.37073782 -0.1010926
000040 81 5d 26 bf 75 fd a3 bd 01 c1 b1 be 46 50 86 3e
       -0.64986426 -0.080073275 -0.34717563 0.2623312
000050 bc 9d 4d be 14 c5 5a be 13 3a 0b bf 13 4c 77 be
       -0.20079702 -0.21364242 -0.5438549 -0.24150114
000060 56 70 17 bf d0 0c 32 bf dc cb d4 be a3 f1 0a bf
       -0.59155786 -0.695508 -0.41561782 -0.5427496
000070 2d b0 35 bf 15 ad 96 3d 42 bd c4 be c0 f1 7d be
       -0.7097195 0.073572315 -0.38425642 -0.24799252
000080 26 8a 0f be be d0 a1 be 2a b7 dd be ac 0e 13 bf
       -0.14017543 -0.3160457 -0.43303806 -0.5744426
000090 28 28 ab be 80 51 f7 bd d8 37 bd be 49 1a 9e be
       -0.33429074 -0.12076092 -0.36956668 -0.3087943
0000a0 d0 0b 99 bd 33 fe 46 bf 73 6f 18 3e df ad 44 be
       -0.07472956 -0.7773163 0.14886265 -0.19206952
0000b0 7e 4d b2 bc 8e db 97 3d 59 0a a0 3e d4 59 98 be
       -0.021765467 0.074149236 0.31257895 -0.29756033
0000c0 b2 14 90 bf 46 42 1f bf ea ff 01 be 4c a9 3c bf
       -1.1256316 -0.622105 -0.1269528 -0.73695827
0000d0 73 ef 60 bf ec 38 0b bf 88 ae cf be c5 2f 81 be
       -0.8786537 -0.5438373 -0.40562844 -0.25231758
0000e0 50 cd 10 bf f9 81 06 bf e2 d1 9c be 86 ef 54 be
       -0.5656328 -0.5254207 -0.30628878 -0.20794496
0000f0 51 8c 79 bf 95 95 37 bf c5 65 4f be 17 95 56 bd
       -0.9747973 -0.7171262 -0.20253666 -0.052388277

fc2.weight f4 [64, 64]
000000 46 73 05 be 24 5f a0 bc 87 ec 83 bd 44 39 38 be
       -0.13032255 -0.019576617 -0.064415984 -0.17990595
000010 0f b5 c9 3c 9a 4b 3b 3c 97 26 84 3c 8c 06 e6 3d
       0.024622468 0.011431599 0.016131682 0.112317175
000020 61 c7 fd bc de f4 5b bd e3 ca ff bd fe bc ed bd
       -0.03097886 -0.05370032 -0.124898694 -0.11608313
000030 8a d1 d4 bd 88 76 eb bd 84 3e 75 3c 9d f4 f7 bd
       -0.10391529 -0.114972174 0.014968518 -0.12107203
000040 0f d4 84 bc 10 5a 2a 3d 64 d0 ac bc bc a1 89 bd
       -0.016214399 0.041589797 -0.021095462 -0.067203015
000050 5a 59 bf bb 25 ee 30 be 98 5e f0 bd d4 b0 20 3b
       -0.005839509 -0.17278345 -0.11736792 0.002451946
000060 11 7b c7 bd 14 57 e2 bd ac 38 81 bd 52 3e 25 be
       -0.0974027 -0.11051765 -0.063096374 -0.16137055
000070 69 d7 3a bd 39 f3 3f be c4 d3 7e bd ec b4 01 be
       -0.045615587 -0.18745126 -0.062213674 -0.12666672
000080 91 45 0e be d0 af 66 3d 70 e2 a0 bd b0 6e 01 3d
       -0.13893725 0.05632001 -0.078556895 0.0315997
000090 7b 6f 11 bc 8f ac 09 bd 01 88 b5 bd d3 61 d7 3d
       -0.008876677 -0.03361183 -0.08863831 0.10516705
0000a0 e3 4f fa bd 04 b3 27 bb 91 21 3f bd 44 19 3d 3d
       -0.122222684 -0.002558888 -0.04666287 0.046166673
0000b0 50 9d 78 3d 83 db a4 bd 8b 8b 0a bb 78 e7 78 3d
       0.0606969 -0.08049681 -0.0021140303 0.06076762
0000c0 fb c0 d3 bd e9 ce 14 bc 68 96 be 3a 50 ce 1d 3d
       -0.103395425 -0.009082534 0.0014540674 0.038526833
0000d0 8d 3b 14 be d9 b6 8d bd f1 6d ff bb 1d 9a fa bd
       -0.14475842 -0.06919641 -0.0077950885 -0.12236426
0000e0 27 e0 02 3e 18 e4 3e bd ee 1f d8 3b 1f 63 dd bd
       0.1278082 -0.046604246 0.006595603 -0.108099215
0000f0 f6 ca 81 bd 33 a7 0f be c7 c3 07 3e 27 8a da 3c
       -0.0633754 -0.14028625 0.13258277 0.026677204
000100 27 a5 d9 be 1d e6 51 bd eb 02 c8 bd d4 9f 38 3d
       -0.42508814 -0.051244844 -0.097661816 0.0450743
000110 75 63 14 bd a9 1c 67 bd 7b 61 c9 3e 06 22 8a be
       -0.036227662 -0.056423817 0.39332184 -0.26979083
000120 19 c3 43 be e6 bc e0 bd 55 e6 0d 3e 64 17 bf bd
       -0.19117393 -0.109735295 0.13857396 -0.09330633
000130 bc c4 b0 3d 02 3e ed bc 67 a2 8c be f8 ee fb bc
       0.08631274 -0.028960232 -0.27467653 -0.030753598
000140 73 40 9e be 60 8d c7 bb 3d 4e 6f be d2 1d 3d be
       -0.30908546 -0.0060898513 -0.2336969 -0.18468407
000150 5e 1f 92 3b 62 da a6 3d a0 f8 83 be af a7 ae 3c
       0.0044593057 0.08147122 -0.25775623 0.021320192
000160 20 9b 6b be 40 ee c0 bd f8 f5 6b be 1b 84 ae bd
       -0.23008394 -0.094204426 -0.23043048 -0.08521291
000170 90 1d 59 be 4b b8 68 3d 64 7b 4d be f4 00 6a be
       -0.21202683 0.05681638 -0.20066601 -0.22851926
000180 b1 79 15 bf 3f 0c b0 be 54 7a 12 3d b1 8c 9f be
       -0.5838881 -0.34384343 0.035761192 -0.31162027
000190 30 b7 f1 be c2 22 79 bd 9d a7 01 be 71 ae d1 bc
       -0.47210073 -0.060824163 -0.12661596 -0.025595875
0001a0 82 73 3c 3c 7c 24 57 bc 5b 3a ac be 23 e8 2a bc
       0.011502149 -0.013131257 -0.33638272 -0.010431322
0001b0 ec 11 b6 be fc 9c c6 bd 99 fb cd be c8 9a cb be
       -0.35560548 -0.09697911 -0.40231016 -0.39766526
0001c0 6c fa 4b be 27 3e fc be 62 04 28 be 8f ab c6 bd
       -0.19919747 -0.49266168 -0.16407922 -0.09700691
0001d0 6d cf 94 be 71 24 d9 bd 3d 2a c6 3e 08 08 19 ba
       -0.29064503 -0.10602654 0.387041 -0.00058376836
0001e0 f5 95 bb be 81 11 7b 3d 7b 0a 9b be fb 26 07 be
       -0.36637846 0.06129599 -0.30281433 -0.13198464
0001f0 72 47 50 be 20 4d 99 be 76 95 c3 3d 34 ed b9 bd
       -0.20339754 -0.29941654 0.09549992 -0.09078446
000200 60 84 6a be 56 5a 4f be 6c 32 ca be 0c 2f 1f 3e
       -0.2290206 -0.20249304 -0.39491594 0.1554529
000210 b0 aa 03 3c f9 6b b0 bd 28 56 05 be 8e 66 e9 bd
       0.008036301 -0.08614344 -0.13021147 -0.11396514
000220 a7 42 71 be c2 bd 5b 3d 31 d3 85 be 0b a1 41 be
       -0.23560582 0.053647764 -0.2613769 -0.1890909
000230 e1 25 da 3b 6d 3b 8e be 61 6e 88 be a1 fe 81 be
       0.0066573475 -0.27779713 -0.26646712 -0.2538958
000240 55 07 f2 3d 33 d7 bf be 14 98 18 bd 74 37 68 bd
       0.11817805 -0.3746887 -0.037254408 -0.05669351
000250 ff 42 2a be 37 f1 11 be aa cb 5b be d0 c3 38 be
       -0.1662712 -0.14252172 -0.2146441 -0.18043447
000260 1f 8e cb be c2 05 5d bc 7b eb 7f bc ae b7 27 bd
       -0.39756867 -0.013490142 -0.015620108 -0.040946655
000270 60 66 31 3c ec d2 12 be 33 3f a8 bd 7b a6 72 be
       0.010827631 -0.14338273 -0.08215179 -0.2369632
000280 cf d9 57 3d d9 1b fb bd 55 39 ae 3d f1 a7 1e bd
       0.052697953 -0.12261171 0.08507029 -0.03873438
000290 85 d7 06 3e 72 a6 71 be 9f 06 2b bd 88 6c 0a be
       0.13168152 -0.2359865 -0.04175436 -0.13517964
0002a0 f0 d5 9e be 58 b7 7b 3d 57 31 78 bc c2 4f 08 be
       -0.31022596 0.061454147 -0.015148482 -0.13311675
0002b0 d9 2f ab 3d dc fd 64 be 0c 79 3e be a3 83 82 be
       0.083587356 -0.22362465 -0.18600863 -0.25491056
0002c0 1d 76 80 bd 1b ad 4f bd 6c 39 6b be 04 67 c0 ba
       -0.06272528 -0.050702196 -0.22971123 -0.0014679139
0002d0 db d7 34 be 23 5e a9 3d 2b e1 59 be 1a b9 0a 3b
       -0.17660467 0.08269908 -0.21277301 0.0021167458
0002e0 a0 82 c4 be 4c 97 ac 3c 74 8a a2 be 91 64 a9 3d
       -0.3838091 0.021068238 -0.31746256 0.08271135
0002f0 ca 95 d4 3d fb e1 1c be 44 a6 6c be 0a 7e 65 bd
       0.103801325 -0.1532058 -0.231103 -0.056028403
000300 65 df 9c bd 43 0d 4b bd 6d ff 25 be ab 3e a7 3d
       -0.076597966 -0.049573194 -0.16210718 0.0816625
000310 8d f2 4c bd 3a a1 82 3c 8d 7c a4 be ed 2d bd bd
       -0.050036002 0.01594602 -0.32126275 -0.09237275
000320 86 94 4e bd 73 19 01 3d 9e 8e 63 3c 22 b9 5e be
       -0.05043461 0.03151841 0.013888983 -0.2175031
000330 b4 aa 22 be c6 7c 27 be 9a 16 1c be bd 01 a3 bc
       -0.1588543 -0.16356191 -0.15242997 -0.01989829
000340 f2 4b 3e be ac 08 91 bd 13 2a bd 3d 60 c9 34 be
       -0.18583658 -0.07081732 0.09236541 -0.17654943
000350 32 f1 62 be 54 65 0a bd de 2a cc bd 18 6c 16 be
       -0.22162321 -0.03378804 -0.09969114 -0.14689672
000360 12 37 6c be b3 41 8e bd 10 64 09 be 5f c8 d9 bc
       -0.23067883 -0.06946125 -0.13417077 -0.026584802
000370 73 66 40 3d 76 a9 02 bd a6 5e 9d 3a 2d 27 9a bd
       0.046972703 -0.03189989 0.0012006357 -0.075270034
000380 65 49 ea bd 6f ce 80 bc 51 45 9d 3c 24 09 d3 bc
       -0.1143978 -0.015723435 0.019198092 -0.025761195
000390 c8 f3 33 be a7 eb 99 3c a8 8e 27 be 40 69 e2 3d
       -0.17573464 0.018789126 -0.16363013 0.11055231
0003a0 51 c4 45 be 73 75 7a bd 90 c2 67 bd e7 f0 6e bd
       -0.1931317 -0.061147165 -0.056582034 -0.05833521
0003b0 96 2a 41 be 7d c5 36 be 98 69 65 bd 60 c1 d6 bd
       -0.18863901 -0.17848773 -0.056008905 -0.10486102
0003c0 75 a1 01 bd f3 26 dc 3c 40 a8 2d 3d 3a 94 8f bd
       -0.031648118 0.026874041 0.042396784 -0.07010694
0003d0 f3 a2 02 3d 56 47 ce bd 8f e9 f7 bc 14 85 73 bc
       0.03189368 -0.100722 -0.030262737 -0.014863271
0003e0 c4 71 ec 3c c2 00 83 3d 07 fe 61 be 40 24 e7 bc
       0.028862841 0.06396629 -0.2206956 -0.028215528
0003f0 bd b1 5c bb 7c f4 cb bd a8 62 d3 3c 3d fe 82 3b
       -0.0033675276 -0.09958741 0.025803879 0.0039975927

fc2.bias f4 [64]
000000 ff 22 b7 bd b6 a7 5d 3e f5 db bb 3c 2a 86 a5 bd
       -0.08942222 0.21646008 0.022932032 -0.080822304
000010 c6 05 bc be 42 93 95 39 29 b4 3b bd da aa ba 3e
       -0.36723155 0.0002852921 -0.04582611 0.36458474
000020 f8 73 99 3d f6 64 37 be 86 b9 41 3c d0 46 fb ba
       0.074928224 -0.17909607 0.011824017 -0.0019170884
000030 83 48 49 bd 55 ce 00 3c 8d c0 23 be 1d 0c 20 be
       -0.04914142 0.007861693 -0.15991421 -0.15629621
000040 c9 dd fd bb 45 06 f5 3d c5 d8 4b bd 9f b9 3f be
       -0.007747386 0.119640864 -0.049767274 -0.18723153
000050 c6 9f fc bd af 4a 4f 3f c3 66 2b be f6 5b 0e be
       -0.12335162 0.80973333 -0.16738419 -0.13902268
000060 d9 8b 35 3f 77 a3 14 bd 02 06 dd bd 16 f1 c2 be
       0.70916516 -0.036288705 -0.107921615 -0.3807456
000070 b5 ac 98 3c f5 df 04 be 94 fd e6 bd a6 86 61 be
       0.01863704 -0.12976058 -0.11278835 -0.2202402
000080 1c 6f 10 3c e8 a4 00 3d 15 d8 15 be 99 f5 c9 bc
       0.008815553 0.031407267 -0.1463321 -0.024653243
000090 ae 5e 61 bd be 62 54 be 3b af 60 bd ea e3 dd bd
       -0.055021934 -0.20740792 -0.054854613 -0.10834487
0000a0 c4 e8 29 bf 0e 00 54 3c e6 61 1a 3d 4d e9 ca bd
       -0.663708 0.012939466 0.03769102 -0.0990778
0000b0 53 18 d5 bd e8 f5 3f bd 1e d2 32 3e 10 a8 b0 3e
       -0.1040503 -0.046865374 0.17462966 0.34503222
0000c0 14 8e af bc 11 99 48 bd 56 a3 60 3c 47 84 8b bd
       -0.021430053 -0.0489741 0.013710817 -0.06812339
0000d0 a4 a2 33 be e9 c4 63 bd 35 d5 55 be 24 dd e9 bd
       -0.17542511 -0.05560771 -0.20882113 -0.11419132
0000e0 ad e9 03 be ab c3 10 bf 74 87 37 be 96 79 fd bd
       -0.12882109 -0.56548566 -0.17922765 -0.12376706
0000f0 54 02 86 bc 47 0a fd 3e 03 9e a0 bd f8 ba 80 3c
       -0.016358532 0.49421903 -0.07842638 0.015714154

fc3.weight f4 [1, 64]
000000 84 2a 0c bb 46 c3 64 3e ce b6 e7 3b 34 01 b1 3c
       -0.0021387646 0.22340116 0.0070713526 0.021607019
000010 e6 16 61 bd 36 ed dc bb f2 4c c4 bb aa 66 5e bd
       -0.05495348 -0.006742145 -0.005990618 -0.054297127
000020 1e 82 38 bc 65 a5 83 bd 91 c5 4a 3c 00 7e 46 bc
       -0.011261491 -0.06428031 0.012376205 -0.012115002
000030 5b 50 16 bc bb b3 8c bc 75 3b 01 3d a1 0e da 3c
       -0.009174432 -0.017175546 0.031550843 0.026618304
000040 74 26 bb 3b 09 1f e7 3c 6f a6 cf bb 29 35 5a 3c
       0.005711371 0.02821304 -0.006336979 0.013318338
000050 05 8b dc 3c 4a b9 ee bd 5c bd 87 3d 72 eb 91 3c
       0.026921758 -0.11656435 0.06627914 0.017812464
000060 02 bb 08 be 62 9b 71 bc 4f 96 6a bb 10 11 5b 3a
       -0.13352588 -0.014746519 -0.0035795157 0.00083567295
000070 3c e5 67 bb 8b e2 1d 3b de a0 f9 bb e9 21 81 3b
       -0.0035384437 0.002409133 -0.007618054 0.00394081
000080 de a4 54 bc 7c 7f 4c bc 17 35 a3 bb 40 01 11 bc
       -0.0129787605 -0.0124815665 -0.004980694 -0.008850396
000090 89 8b 35 bb b7 33 63 bd 52 d9 63 bb d0 aa 94 bb
       -0.0027701578 -0.05546924 -0.0034766984 -0.004536964
0000a0 51 a2 b9 bd 15 d9 37 3d 37 82 78 bb ff 0c 6d 3b
       -0.090641625 0.04488476 -0.003791941 0.0036171076
0000b0 b9 1d 70 3e 33 86 2a 3c 34 c0 bf 3c d6 9a b8 3d
       0.23448838 0.010407972 0.02340708 0.090139076
0000c0 b4 f2 ae b9 eb 17 be bb e7 d7 82 bc 87 d8 27 3c
       -0.00033368694 -0.005801191 -0.01597209 0.010244495
0000d0 14 de ae ba 53 c4 e0 3b 7a 27 00 3c 4a 0c 05 bd
       -0.0013341331 0.006859341 0.007821912 -0.032482423
0000e0 91 14 36 bc 18 f5 82 3d 00 5f 35 bc ee 62 5a 3d
       -0.011113302 0.06394404 -0.011070013 0.053317003
0000f0 60 50 c4 bd c2 bf 30 bd a7 60 75 3d 67 3c 47 3b
       -0.09585643 -0.043151625 0.059906628 0.0030400993

fc1.weight f4 [64, 1]
000000 4f fd a2 3f 7b 4e d5 be 7b 57 55 be 54 d9 79 3e
       1.2733554 -0.41661438 -0.20834152 0.2439931
000010 90 fc 64 bf 7f 7b af 3f 85 d4 1a bf da 80 b2 bc
       -0.8944788 1.3709563 -0.6048053 -0.021789957
000020 d2 6b f6 bd 2f 00 48 3f a9 c2 8e be fe f5 4d be
       -0.12032284 0.7812528 -0.2788289 -0.2011337
000030 0b 31 8b bd 3c 5d ec be 30 51 95 bd e9 b5 b2 be
       -0.067964636 -0.46164882 -0.07290876 -0.3490441
000040 30 6c 14 3e 00 e7 82 bb 6a bc ae bd dd 58 19 3f
       0.14494395 -0.0039948225 -0.08532031 0.5990122
000050 6b 0a 90 bf 36 9d 1a bf 70 a3 2b be d9 49 84 bf
       -1.1253179 -0.60396135 -0.16761565 -1.0335037
000060 33 ad 91 be 91 fc f5 be c3 ba c9 bc bd d5 b8 3f
       -0.28452453 -0.48044255 -0.024625188 1.4440228
000070 20 df b7 bf 75 99 2f be 6e 6c 52 3f 37 42 2b 3f
       -1.4364967 -0.17148383 0.821967 0.6689791
000080 22 b1 83 be bb 24 6a bf b0 04 60 bf 7c b3 e7 be
       -0.2572108 -0.91462296 -0.8750715 -0.45254123
000090 1a 69 c0 3e 15 91 2a be 23 e2 db bd 51 0c 4e bf
       0.37580186 -0.16656907 -0.107364915 -0.80487543
0000a0 76 0b a0 3f 5c a0 d8 be 14 54 a2 3e bb dc 38 be
       1.2503498 -0.42309844 0.31704772 -0.18052952
0000b0 bf da 7f bf 21 a3 8c bd 22 f3 03 bf dc e0 1c be
       -0.99943155 -0.06867052 -0.51542866 -0.15320152
0000c0 c6 46 c8 be 00 88 e0 bd 90 0c 59 bf 1e 2e 6c bf
       -0.39116496 -0.1096344 -0.84784794 -0.9225787
0000d0 d0 58 20 3b c7 24 d4 be dd 7c c1 3f c0 1e be 3f
       0.0024467 -0.4143431 1.511623 1.4853134
0000e0 20 ca 3f bd dc a3 9a bf c1 67 4c 3e ed 0e 65 3f
       -0.04682362 -1.2081256 0.19961454 0.894759
0000f0 7f 7b a5 bf 50 bf a3 3f c0 ed c6 3f 4a 12 4c 3f
       -1.2928313 1.2792759 1.5541306 0.79715407

fc1.bias f4 [64]
000000 70 5b 65 be a8 a6 a0 be df 1a 02 be 5f 1c 86 3f
       -0.22398162 -0.3137715 -0.12705563 1.0477408
000010 4f b2 4e bf 4f c0 66 be d0 31 9e be b2 ee ad bc
       -0.8074083 -0.22534297 -0.3089738 -0.021231983
000020 b6 24 9e bd 1e bd b4 be 12 5e 0f be 6b 81 02 3e
       -0.07721846 -0.35300535 -0.14000729 0.12744682
000030 34 d4 52 3d 08 c6 95 be ae 15 6d bf ec ce 38 be
       0.051471904 -0.29252648 -0.92611206 -0.18047684
000040 e2 ff 33 bf 83 27 41 bf cc a2 68 3e cf 1f a6 be
       -0.7031232 -0.75450915 0.22718352 -0.32446143
000050 1d 28 7d 3e 3c 42 14 bf 52 94 63 bf f3 0a 00 bd
       0.24722333 -0.57913566 -0.88898194 -0.031260442
000060 54 17 5e be 9c ca c7 3d 94 36 c6 3d 9b f6 84 be
       -0.21688586 0.097554415 0.09678379 -0.25969395
000070 b1 ed 35 bd 04 e6 aa 3e ca 58 3a be da 5b a0 be
       -0.044416133 0.33378613 -0.18197933 -0.31320077
000080 41 f4 fe bd a3 0d 7c 3d 1b 24 03 bf d9 7c af be
       -0.124489315 0.061536442 -0.5122697 -0.3427494
000090 55 c2 0a 3f 38 76 3d be 94 f5 a0 3e bf 1f ad bd
       0.5420278 -0.18502128 0.3143736 -0.08453321
0000a0 4b ba 94 be c0 b5 59 bf 5f ba 27 3f a1 76 c6 bd
       -0.2904838 -0.85042953 0.65518755 -0.096905954
0000b0 dc 3b 66 3e bd 35 31 bd 3c f6 9f be 6d b7 9b 3e
       0.22483772 -0.04326414 -0.3124255 0.3041338
0000c0 8a ed 07 3e 72 e0 29 bf 5a 90 15 be 16 1c 3a bd
       0.13274208 -0.663581 -0.14605847 -0.04543694
0000d0 d0 c6 d6 3e 71 83 5a be d4 64 91 be a7 52 89 be
       0.41948557 -0.21339203 -0.28397238 -0.2682087
0000e0 50 d2 1a bf ac f7 8b 3e 82 b7 28 3f 2b 7d f1 bd
       -0.6047716 0.27337396 0.6590501 -0.11791452
0000f0 16 6a 28 bd df 57 6e be bc 9f 8c be 35 14 15 be
       -0.041116796 -0.23275708 -0.27465618 -0.1455849
