maddpg_pytorch/models/cache_data/model/run50/incremental/model_ep8001.pt (torch, 690099 bytes, 168 tensors)

fc1.weight f4 [64, 1]
0	0x3f182875	0.5943673
1	0xbed54c8a	-0.41659957
2	0xbe555717	-0.20834003
3	0x3ee55dc4	0.447981
4	0xbf64fc67	-0.89447635
5	0x3fab1e92	1.3368704
6	0xbf035989	-0.51308495
7	0xbcb5ed7d	-0.02220797
8	0xbdf67d99	-0.120356746
9	0x3eaab8f9	0.33344248
10	0xbe81ddfd	-0.25364676
11	0xbdddf001	-0.10836793
12	0x3c8f5316	0.017495673
13	0xbeec5d03	-0.46164712
14	0xbd955130	-0.07290876
15	0xbea4146f	-0.3204684
16	0x3e146c30	0.14494395
17	0xbb82e700	-0.0039948225
18	0x3c5a460f	0.013322367
19	0x3e852d66	0.260112
20	0xbf885b94	-1.0652947
21	0xbf1a9d36	-0.60396135
22	0xbe2ba370	-0.16761565
23	0xbf80c134	-1.0058961
24	0xbe91ad05	-0.28452316
25	0xbe4a96ab	-0.19784038
26	0x3c607697	0.013700149
27	0x3fabe6ea	1.3429844
28	0xbfad6bbb	-1.3548502
29	0xbcb85f82	-0.02250648
30	0x3edfa7c9	0.43682697
31	0x3e664c0b	0.22489946
32	0xbdf4cd67	-0.1195324
33	0xbf17f7e6	-0.5936264
34	0xbf5a4bb7	-0.8527178
35	0xbee7b346	-0.45253962
36	0x3ef5d865	0.48016658
37	0xbe2a9110	-0.166569
38	0x3e399534	0.18123323
39	0xbf12a8fe	-0.5728911
40	0x3f1df5b0	0.61703014
41	0xbed8a05c	-0.42309844
42	0x3eac9141	0.3370457
43	0xbe31d8a7	-0.17367803
44	0xbf7eaaf7	-0.9947962
45	0xbd8cfc67	-0.068840794
46	0xbf8cd5e6	-1.1002777
47	0xbd72d1f0	-0.059282243
48	0xbec8b6fe	-0.39202112
49	0xbde08800	-0.1096344
50	0xbf5035a6	-0.8133186
51	0xbf487208	-0.78299
52	0x3df29a8b	0.11845883
53	0xbec08cb6	-0.37607354
54	0x3fc9b1f5	1.5757433
55	0x3fad9b4c	1.3563018
56	0xbd3fca20	-0.04682362
57	0xbfa8daba	-1.319175
58	0x3e667f74	0.22509557
59	0x3e35e7ba	0.17764178
60	0xbfa0bf15	-1.2558314
61	0x3f1ff095	0.62476474
62	0x3fcb7bc2	1.5897143
63	0x3f4afb79	0.79289967

fc1.bias f4 [64]
0	0xbf45e726	-0.7730583
1	0xbea0a89d	-0.31378642
2	0xbe021b2d	-0.12705679
3	0x3ecdc167	0.40186617
4	0xbf4eb274	-0.8074105
5	0xbe2b3946	-0.16721067
6	0xbeb76fdd	-0.35827532
7	0xbcb19081	-0.02167535
8	0xbd9efcca	-0.077630594
9	0xbf6f4c46	-0.9347576
10	0xbe35a527	-0.17738782
11	0xbda83ee4	-0.082151204
12	0xbd8b5d1f	-0.06804871
13	0xbe95c611	-0.29252675
14	0xbf6d15ae	-0.92611206
15	0xbe5e99a6	-0.217383
16	0xbf33ffe2	-0.7031232
17	0xbf412780	-0.754509
18	0xbd528f91	-0.051406447
19	0xbf7981d7	-0.97463745
20	0xbd88c858	-0.066788375
21	0xbf14423c	-0.57913566
22	0xbf639452	-0.88898194
23	0xbd88dc63	-0.066826604
24	0xbe5e1763	-0.21688609
25	0x3e7483b1	0.23878361
26	0xbd891480	-0.06693363
27	0xbdf95ec6	-0.1217628
28	0xbdc8169f	-0.0976994
29	0xbce4ade0	-0.027914941
30	0xbf5aed65	-0.85518485
31	0xbf6c1ba4	-0.92229676
32	0xbdb07aaf	-0.0861715
33	0xbec1f566	-0.37882537
34	0xbf0e87f1	-0.5567618
35	0xbeaf7d15	-0.34275118
36	0x3e19b215	0.15009339
37	0xbe3d7638	-0.18502128
38	0xbe24e425	-0.16102655
39	0xbecb0c25	-0.39657703
40	0xbf8eefa4	-1.1166883
41	0xbf59b5c0	-0.85042953
42	0x3ec2ca35	0.38044897
43	0xbde8d3ff	-0.1136856
44	0xbd3f99d7	-0.046777572
45	0xbd32c7f0	-0.043647707
46	0xbd2e7bb7	-0.042598452
47	0x3d843d94	0.064570576
48	0x3db4a96e	0.08821379
49	0xbf29e072	-0.663581
50	0xbd5189bd	-0.051156748
51	0xbd6fcec0	-0.05854678
52	0x3def9715	0.116987385
53	0xbe87453b	-0.26420006
54	0xbe1247b0	-0.14285159
55	0xbe879335	-0.26479498
56	0xbf1ad250	-0.6047716
57	0xbd75ed0c	-0.06004052
58	0x3ed0e9e9	0.4080346
59	0xbf248ad8	-0.6427436
60	0xbd7fcab1	-0.06244916
61	0xbf36f164	-0.7146208
62	0xbe2a0771	-0.16604401
63	0xbe8c52db	-0.27406964

fc2.weight f4 [64, 64]
0	0x3ccb82dd	0.024842674
1	0x3f69a88d	0.91272813
2	0x3e1e51da	0.15460911
3	0xbe244250	-0.16040921
4	0x3df37a3f	0.11888551
5	0x3c7858df	0.015157907
6	0x3e10411a	0.14087334
7	0xbfab2a7b	-1.3372339
8	0x3bc727c6	0.0060777394
9	0xbeb36651	-0.35039
10	0xbeea2ca0	-0.4573717
11	0x3e9262b2	0.28590924
12	0xbf01c4ee	-0.50691116
13	0x3ecfeede	0.4061193
14	0xbd9cea70	-0.07661903
15	0x3e1c0eba	0.15239993
16	0x3d1e7530	0.038685977
17	0xbce7dea8	-0.028304413
18	0xbf7d1ead	-0.9887493
19	0xbf25fe02	-0.6484071
20	0x3eaefe9d	0.3417863
21	0x3dac66ce	0.08418046
22	0xbd2d63e4	-0.04233159
23	0x3ebc43d9	0.36770514
24	0x3d21c467	0.039493944
25	0x3deb9a9c	0.11504099
26	0xbf54b2f8	-0.83085585
27	0xbe0b2f4b	-0.1359226
28	0x3eaa077c	0.33208835
29	0xbee7eac9	-0.45296314
30	0x3db6021a	0.088871196
31	0xbf0c3001	-0.5476075
32	0xbebbbbbb	-0.36666664
33	0x3ed6062e	0.4180159
34	0x3e2ea3d7	0.17054687
35	0x3de1290c	0.10994157
36	0xbefeef53	-0.49791965
37	0x3cde04c0	0.027101874
38	0xbea7ba64	-0.32759392
39	0x3dbe62b4	0.0929617
40	0xbef49118	-0.47766948
41	0xbd695980	-0.05697012
42	0xbea69da1	-0.32542136
43	0x3ed27951	0.41108182
44	0x3e88d645	0.26725975
45	0xbf119ccb	-0.5687987
46	0xbd7565aa	-0.059911408
47	0xbc93093c	-0.01794874
48	0x3dc86ca1	0.09786344
49	0x3b826e60	0.003980443
50	0x3ebad9a0	0.3649416
51	0x3eb07140	0.34461403
52	0xbe2648db	-0.1623873
53	0x3d8725c1	0.06598998
54	0xbe6346cf	-0.2219498
55	0xbe0d3d96	-0.13793024
56	0xbda51dec	-0.08062348
57	0x3ede123d	0.4337329
58	0xbea6de62	-0.3259154
59	0xbdc78c2e	-0.09743534
60	0x3ea2f89f	0.31830308
61	0xbe610e10	-0.2197802
62	0x3d373318	0.04472646
63	0xbfd120e0	-1.6338158
64	0xbe8f462c	-0.27983224
65	0x3d22400e	0.03961187
66	0x3e313708	0.17306149
67	0xbebd0536	-0.36918038
68	0xbcc288db	-0.023746898
69	0xbe1434ce	-0.14473268
70	0x3e65df8a	0.22448555
71	0xbe9fde10	-0.31224108
72	0x3cf30aac	0.029668175
73	0xbd7e364d	-0.062063504
74	0xbbb63afd	-0.005561231
75	0x3bfc984e	0.007708586
76	0xbd36d682	-0.044638164
77	0x3de7329b	0.11288949
78	0xbc1f80f0	-0.009735331
79	0x3db49725	0.08817891
80	0x3cae1308	0.02124931
81	0x3d715ad4	0.05892451
82	0xbe50fa87	-0.20408069
83	0xbe47a624	-0.19496971
84	0xbd7ad3dd	-0.061237205
85	0x3dba816e	0.09106718
86	0x3ddf327a	0.108982995
87	0x3e2601b9	0.16211595
88	0x3e01d52d	0.12678976
89	0xbe235821	-0.15951587
90	0xbe647fe0	-0.22314405
91	0xbdedbe0f	-0.116085164
92	0xbdd16400	-0.102241516
93	0xbdef4f2c	-0.11685023
94	0xbebd215f	-0.36939523
95	0xbe9c2cab	-0.3050283
96	0xbe224e6d	-0.1585023
97	0xbcd6c22e	-0.026215639
98	0xbc17b63e	-0.0092597585
99	0x3dda0881	0.10646153
100	0xbd1ae60c	-0.037817046
101	0x3df21d0c	0.118219465
102	0xbe1237a5	-0.14279039
103	0xbc5b3e4d	-0.013381553
104	0xbdc6ffb3	-0.097167395
105	0xbcda2388	-0.02662827
106	0xbe3a5fb4	-0.1820057
107	0x3d5d78ee	0.054070406
108	0xbd257f1b	-0.04040442
109	0xbdf5829d	-0.11987803
110	0x3e0bfdea	0.1367108
111	0xbe4a3b1f	-0.19749115
112	0xbd2f7bf0	-0.042842805
113	0xbc3365c0	-0.010949552
114	0x3d2a54ce	0.041584782
115	0x3d772c49	0.060344968
116	0xbe40224e	-0.18763086
117	0x3d9fa32a	0.07794793
118	0xbeaaa056	-0.33325452
119	0xbe9e196f	-0.3087878
120	0xbdaa6a9e	-0.08321117
121	0x3dbc032f	0.09180295
122	0xbc8aaefd	-0.016929144
123	0xbeb2eda6	-0.34946936
124	0x3d26192b	0.040551346
125	0xbe2c0e08	-0.16802227
126	0xbe5550e6	-0.20831642
127	0xbe8ed89c	-0.27899635
128	0xbe1d225a	-0.15345135
129	0x3dc4d489	0.0961085
130	0x3d477499	0.04869518
131	0xbecc5c81	-0.39914325
132	0x3d80f70c	0.062971205
133	0xbdf74b75	-0.12074939
134	0x3d1cd480	0.038288593
135	0xbdd063d1	-0.101752885
136	0x3d4cbeb7	0.049986567
137	0xbe4539c5	-0.19260319
138	0xbd2b2e11	-0.04179198
139	0x3d2f6806	0.042823814
140	0xbbd77993	-0.006575772
141	0x3c47c8a5	0.0121938335
142	0x3d10ced4	0.035353497
143	0x3e23b1b4	0.15985757
144	0x3cf39108	0.029732242
145	0x3dd45504	0.10367778
146	0xbe92019c	-0.28516853
147	0xbe9459d2	-0.28974777
148	0xbd7c4656	-0.061590515
149	0xbba81940	-0.005129963
150	0xbd728b80	-0.05921507
151	0x3d451ff3	0.048126172
152	0xbc45cd50	-0.012072876
153	0xbd3e5d33	-0.0464756
154	0xbd8e8013	-0.06958022
155	0xbe4727b7	-0.19448744
156	0xbd27e7a0	-0.04099238
157	0xbe99b196	-0.300183
158	0xbed5e78c	-0.4177822
159	0xbdecc8ce	-0.11561738
160	0xbe765fe6	-0.2406002
161	0x3d97ac64	0.07405928
162	0xbc247985	-0.010038738
163	0xbdc2c475	-0.095101275
164	0xbd5c7f9f	-0.053832646
165	0x3d8f779a	0.07005234
166	0xbdd5a750	-0.10432303
167	0xbb3a1fff	-0.0028400419
168	0xbe8dbc0a	-0.27682525
169	0x3ae1a000	0.0017213821
170	0xbe8872de	-0.26650137
171	0xbb9f41a0	-0.004860118
172	0x3be896b2	0.0070980424
173	0xbe7d169a	-0.24715653
174	0x3c991527	0.018686844
175	0xbe1033cf	-0.14082263
176	0xbc3f6e96	-0.011684081
177	0xbd436bc4	-0.047710195
178	0xbe1bb7d5	-0.15206845
179	0x3deac296	0.114628956
180	0xbdec3250	-0.11533034
181	0x3e4dd2b2	0.20099905
182	0xbe747567	-0.2387291
183	0xbe82f5c0	-0.25578117
184	0xbdf0aacc	-0.11751327
185	0xbd14f39f	-0.036365148
186	0xbdf9a3fe	-0.12189482
187	0xbeb18102	-0.34668738
188	0xbcf37822	-0.02972037
189	0xbe1ac858	-0.15115488
190	0xbe1b0e27	-0.15142117
191	0xbe3139ab	-0.17307155
192	0xbe95608b	-0.2917522
193	0xbcf9bd01	-0.030485632
194	0x3bd140f8	0.0063859187
195	0xbecfff01	-0.4062424
196	0x3dbb70a5	0.091523446
197	0xbe9dd4f8	-0.30826545
198	0xbb29f2b8	-0.0025932025
199	0xbeb4bb66	-0.35299224
200	0xbda8b266	-0.08237152
201	0x3bc34f4b	0.00596038
202	0xbd406aa2	-0.046976693
203	0x3d807923	0.06273105
204	0xbc9f0c9e	-0.019415196
205	0xbc06cade	-0.008227078
206	0x3a8e7380	0.0010868162
207	0x3c5b085f	0.013368695
208	0xbd8f2f62	-0.069914594
209	0xbd900382	-0.07031919
210	0xbe9bca6b	-0.3042787
211	0xbeedf8d0	-0.4647889
212	0xbd43c228	-0.047792584
213	0xbdb471ac	-0.08810744
214	0xbdd41a6c	-0.10356602
215	0x3e1a5093	0.15069799
216	0x3cf220c8	0.029556647
217	0xbdae09bc	-0.084979504
218	0xbe4e718c	-0.20160502
219	0xbea5d1fb	-0.32386765
220	0xbe21807b	-0.15771668
221	0xbe9c766c	-0.305591
222	0xbe1412e0	-0.14460325
223	0xbe8b576b	-0.27215132
224	0xbe8c00c4	-0.27344334
225	0xbc894123	-0.016754692
226	0x3d8759ce	0.06608926
227	0x3db0deb1	0.08636225
228	0xbc17639e	-0.009240059
229	0x3d155a70	0.0364632
230	0xbd34071d	-0.043952096
231	0x3d4d8c86	0.05018284
232	0xbebc0d8f	-0.36729094
233	0xbdfacc6c	-0.12246022
234	0xbd378a8f	-0.044809874
235	0xbd9483be	-0.0725169
236	0x3d8d4cfd	0.0689945
237	0xbe45e290	-0.19324708
238	0xbd80714f	-0.06271612
239	0xbe007e25	-0.1254812
240	0x3d8c1213	0.06839385
241	0xbccf4210	-0.025300056
242	0xbe397d75	-0.18114264
243	0x3da4fdb2	0.08056201
244	0xbdd84949	-0.10560853
245	0x3b1939fb	0.0023380506
246	0xbe5bc7d6	-0.2146295
247	0xbe76326c	-0.24042672
248	0xbd3cd3c0	-0.046100378
249	0x3d8d2cf1	0.068933375
250	0xbd49c265	-0.049257655
251	0xbe3be7ae	-0.18350098
252	0xbc5bbe67	-0.013412095
253	0xbec4a2ef	-0.38405558
254	0xbdf2d863	-0.11857679
255	0xbec354b8	-0.38150573

fc2.bias f4 [64]
0	0xbdc59160	-0.09646869
1	0xbd4164ad	-0.047215153
2	0xbe53dece	-0.20690462
3	0xbe10d31d	-0.14143033
4	0x3f3ee534	0.74568486
5	0xbdb6fa26	-0.08934431
6	0xbd3a5df8	-0.04549977
7	0xbea3b6dc	-0.31975448
8	0xbe6d0392	-0.23145893
9	0xbc416dd0	-0.0118059665
10	0xbe4e0825	-0.20120294
11	0xbe0a8a15	-0.13529237
12	0xbe1cfd95	-0.15331109
13	0x3cda79c4	0.02666939
14	0x3c733411	0.014843957
15	0xbd03b326	-0.03215327
16	0x3f870d3a	1.0550911
17	0xbdfe7533	-0.12424698
18	0xbe5017df	-0.20321606
19	0xbe8cb85f	-0.27484414
20	0xbdb89a22	-0.090137735
21	0xbe86485b	-0.26227078
22	0xbe68c547	-0.22731505
23	0xbdb12f87	-0.08651643
24	0xbe1266f3	-0.14297085
25	0xbe8ee741	-0.27910808
26	0xbec473db	-0.3836964
27	0xbd85b614	-0.06528869
28	0xbc88bc01	-0.01669121
29	0xbe1316c5	-0.14364155
30	0xbe3947d4	-0.18093807
31	0xbdb31b3f	-0.08745431
32	0xbd41b2ba	-0.047289588
33	0xbde6be10	-0.1126672
34	0xbdd664c6	-0.1046844
35	0xbe154e48	-0.14580643
36	0x3e051731	0.12997128
37	0xbd87f4f0	-0.06638515
38	0xbe40a98d	-0.18814678
39	0xbe4b651a	-0.19862786
40	0xbc5e4fd8	-0.013568841
41	0xbe1bac12	-0.15202358
42	0xbc1b80ae	-0.009491129
43	0xbe6f7536	-0.23384556
44	0xbe3eb2ae	-0.18622848
45	0xbbe2e759	-0.0069245514
46	0x3d33b7f5	0.043876607
47	0x3d44822c	0.047975704
48	0xbdb1abd6	-0.08675353
49	0xbdfdc19a	-0.12390442
50	0xbdce3bc0	-0.1006999
51	0xbe3a4e6f	-0.18193983
52	0xbd20bf21	-0.039244775
53	0xbde739e8	-0.112903416
54	0xbe4aeb0b	-0.19816224
55	0x3f4a39b1	0.7899428
56	0xbd7f5bb3	-0.06234331
57	0xbe948fc6	-0.2901594
58	0xbd1c80b7	-0.03820869
59	0x3f47980a	0.7796637
60	0xbeb3f0fb	-0.3514479
61	0xbd097744	-0.033561006
62	0x3b1b87fd	0.0023732178
63	0xbea42073	-0.32056007

fc3.weight f4 [32, 64]
0	0xbb9341e8	-0.0044939406
1	0x3e5a5edb	0.21325247
2	0xbea0840e	-0.3135075
3	0xbd7be8f0	-0.061501443
4	0x3ebe0715	0.37114778
5	0x3db6c3e4	0.08924082
6	0x3d97a7ec	0.074050754
7	0xbeac1da0	-0.33616352
8	0x3b81ef87	0.0039653215
9	0x3e73a956	0.23795065
10	0x3dd5b94d	0.10435734
11	0xbeb611be	-0.3556041
12	0xbe70f16c	-0.23529595
13	0x3cdc19eb	0.026867827
14	0xbd57b626	-0.052663945
15	0xbc8593a0	-0.016305745
16	0xbecd2d1e	-0.40073484
17	0xbd00e4e7	-0.0314683
18	0x3d9189f1	0.07106388
19	0x3c16dd43	0.009208026
20	0xbd88291c	-0.06648466
21	0xbebdf36c	-0.3709978
22	0xbdcb3de5	-0.09923915
23	0x3daf8d9d	0.085719325
24	0xbdaf6d95	-0.08565823
25	0x3e903433	0.28164825
26	0x3f9e62bc	1.2373881
27	0x3d05d2bc	0.032671675
28	0xbe22df01	-0.15905382
29	0x3e7902a4	0.24317414
30	0xbdf2cb0b	-0.118551336
31	0xbd21c9ff	-0.03949928
32	0xbf489fdd	-0.7836893
33	0xbe592fdb	-0.21209662
34	0xbe817279	-0.25282648
35	0x3e653dce	0.22386858
36	0xbeb5208f	-0.35376403
37	0xbe17e719	-0.1483425
38	0xbde6af66	-0.11263923
39	0x3db0118f	0.08597099
40	0x3e90e2ab	0.28297934
41	0xbcd8b132	-0.02645168
42	0xbd032e8c	-0.032026812
43	0xbd199f4c	-0.037505433
44	0xbd49cad7	-0.04926571
45	0xbe4f9652	-0.20272186
46	0xbd99766a	-0.07493289
47	0xbdcf128f	-0.10110962
48	0xbd6b7bde	-0.057491176
49	0xbdb6c180	-0.08923626
50	0xbd2ec625	-0.042669434
51	0x3d990532	0.07471694
52	0x3e23a44d	0.15980645
53	0xbd1f7ea4	-0.038939133
54	0x3c68975d	0.014196244
55	0x3f06b116	0.5261396
56	0xbdede2fc	-0.116155595
57	0x3d96daa3	0.073659204
58	0x3e30155b	0.17195646
59	0x3e63b14d	0.22235604
60	0x3dfcf081	0.1235056
61	0xbdffc418	-0.12488574
62	0xbe575697	-0.21029125
63	0xbe3304bd	-0.17482276
64	0x3e47744a	0.19477955
65	0xbed8ea60	-0.42366314
66	0xbcac50a9	-0.021034556
67	0xbe51bbed	-0.20481844
68	0xbf4af447	-0.7927899
69	0xbd3b3b14	-0.04571064
70	0xbcac4008	-0.021026626
71	0x3d911abe	0.07085179
72	0x3e0e20f9	0.13879766
73	0x3d919bc2	0.071097866
74	0xbecb9e09	-0.3976901
75	0xbe26d440	-0.16291904
76	0x3cab95f4	0.020945527
77	0xbce934a9	-0.028467493
78	0x3c1c04ac	0.009522598
79	0xbe14fc15	-0.14549287
80	0xbf00a6bd	-0.5025442
81	0x3ca8cafb	0.020604601
82	0xbdbd8c55	-0.09255282
83	0xbd8dbbc7	-0.06920581
84	0x3db6ec40	0.0893178
85	0xbdf4ab18	-0.11946696
86	0xbd2db7de	-0.042411678
87	0x3d50c367	0.0509676
88	0xbddd449c	-0.10804102
89	0xbecbe9a1	-0.39826682
90	0x3cddee70	0.027091235
91	0xbd39922c	-0.045305416
92	0xbcdef811	-0.027217897
93	0x3f371cda	0.715284
94	0x3da9cb7b	0.08290764
95	0xbdb214e1	-0.086953886
96	0x3ef96ecd	0.48717347
97	0x3d60d605	0.054891605
98	0xbd76e1ae	-0.06027382
99	0xbc83fe87	-0.016112579
100	0x3e1b8f8c	0.15191478
101	0x3d0b3030	0.033981502
102	0xbd1d5d44	-0.038419023
103	0xbcea4748	-0.028598443
104	0xbe3282e1	-0.17432739
105	0x3d16ce29	0.036817703
106	0xbe23373a	-0.15939036
107	0xbf4211a1	-0.7580815
108	0xbde40784	-0.11134246
109	0x3d8317bc	0.06401011
110	0x3d312199	0.04324493
111	0x3db84185	0.08996872
112	0xbd1a41f8	-0.03766057
113	0xbdf69fb4	-0.1204218
114	0xbb575935	-0.0032859568
115	0xbe45ef40	-0.19329548
116	0x3beed71f	0.007288828
117	0xbda4a196	-0.080386326
118	0xbd915e36	-0.070980474
119	0xbeb139b7	-0.34614345
120	0x3d557379	0.052112076
121	0xbd00f43c	-0.03148292
122	0xbe56efa2	-0.2098985
123	0xbe370576	-0.17873177
124	0xbdd4592b	-0.1036857
125	0xbd1fe0de	-0.03903281
126	0x3cf42e83	0.029807335
127	0x3e0ec4c1	0.13942243
128	0xbd751cad	-0.0598418
129	0x3e0156d1	0.12630774
130	0x3e99079b	0.29888615
131	0x3e5dca93	0.21659307
132	0x3eac0c84	0.336033
133	0x3e4426fe	0.191555
134	0x3d03abbc	0.0321462
135	0x3ca49a10	0.020092994
136	0xbe10b5a9	-0.14131798
137	0x3e2e608c	0.17029017
138	0xbcaaa86d	-0.020832265
139	0xbe459a93	-0.19297247
140	0xbe532358	-0.20618951
141	0x3d492b90	0.04911381
142	0x3d6eec4e	0.058330826
143	0xbd7c7daa	-0.06164328
144	0xbf5978ec	-0.8495014
145	0xbd55ce48	-0.05219868
146	0x3f2a42c1	0.6650811
147	0x3d91223d	0.070866086
148	0xbdec9752	-0.115522996
149	0xbdd42329	-0.10358269
150	0x3ebb3d8c	0.36570394
151	0xbcb8aed6	-0.022544306
152	0x3e7be3a1	0.24598552
153	0x3db67774	0.089095026
154	0x3f0b4fc6	0.544186
155	0x3da0214e	0.07818852
156	0xbe982104	-0.2971269
157	0x3f0ef8bc	0.5584829
158	0xbe391fa8	-0.18078482
159	0x3e340d12	0.17583111
160	0xbc04bb95	-0.008101364
161	0xbe6122cb	-0.21985929
162	0xbe1c632b	-0.15272205
163	0x3df4be28	0.11950332
164	0x3e803155	0.25037637
165	0xbe16aa00	-0.14713287
166	0x3d3bcfb7	0.04585239
167	0x3cf41407	0.029794706
168	0xbb8c7db3	-0.0042874455
169	0xbe3cda03	-0.1844254
170	0xbddebcad	-0.10875831
171	0x3d966085	0.073426284
172	0x3d9149b2	0.070941344
173	0xbe3057e9	-0.17221035
174	0xbdd93eb8	-0.10607666
175	0xbe204ae5	-0.1565357
176	0xbe3077ee	-0.1723325
177	0x3d27b1c4	0.040941015
178	0xbce8758c	-0.028376363
179	0x3e447df8	0.19188678
180	0xbdc24634	-0.094860464
181	0x3ddf9964	0.10917929
182	0x3e738727	0.23782025
183	0x3d938f3d	0.07205055
184	0xbe9bebf9	-0.3045347
185	0x3d720a95	0.059092123
186	0xbe9b9af4	-0.30391657
187	0xbd3110f5	-0.043229062
188	0x3e9b6b60	0.30355358
189	0xbe99a466	-0.3000824
190	0x3eafbf8a	0.3432582
191	0xbc3d4a00	-0.0115532875
192	0xbc301beb	-0.010748844
193	0x3d4664f6	0.048436128
194	0xbd9b81ad	-0.07593093
195	0x3de68f0a	0.11257751
196	0x3f4e229f	0.8052158
197	0x3de45393	0.11148753
198	0xbdf1fc2e	-0.118156776
199	0xbd7aeec9	-0.06126288
200	0x3e75e317	0.24012409
201	0x3e5435e8	0.20723689
202	0x3e0c6e44	0.13713938
203	0xbe38cac7	-0.18046103
204	0xbd569c7c	-0.05239533
205	0xbe27bac6	-0.16379842
206	0x3ca85efe	0.020553108
207	0x3e3500ab	0.17676036
208	0xbe1b17b8	-0.15145767
209	0xbd9574e1	-0.072976835
210	0x3edc0714	0.4297415
211	0xbde0c9c0	-0.10975981
212	0x3dbb0874	0.09132472
213	0xbd585649	-0.052816663
214	0xbbc4ba8d	-0.006003684
215	0x3c6585a3	0.014008912
216	0xbc6e3b33	-0.014540481
217	0x3bfdcd69	0.007745434
218	0xbcb45f0c	-0.022017978
219	0x3dc4a38c	0.096015066
220	0x3cdfc540	0.027315736
221	0x3f06d4c9	0.52668434
222	0x3d9006fc	0.07032582
223	0x3dba5897	0.090989284
224	0xbec1609b	-0.37769017
225	0xbe0a877e	-0.13528249
226	0xbe43f534	-0.19136506
227	0xbcd96c95	-0.026541034
228	0xbec54182	-0.3852654
229	0xbe3ce7ee	-0.18447849
230	0xbdd6842e	-0.1047443
231	0x3e001ce1	0.12511016
232	0x3e9b1d90	0.30295992
233	0xbe2bcd8d	-0.1677763
234	0xbe38e2c2	-0.18055251
235	0xbc658f7c	-0.01401126
236	0xbdc1c915	-0.094621815
237	0xbe144ae4	-0.14481694
238	0xbdfc9f17	-0.123350315
239	0xbe024c8d	-0.12724514
240	0x3c0e8cbe	0.008700548
241	0x3dffef14	0.124967724
242	0x3bbe64f7	0.005810376
243	0x3d975538	0.07389301
244	0xbd455ae9	-0.0481824
245	0xbdc767a4	-0.09736565
246	0x3d9565a4	0.07294777
247	0xbd16bdd0	-0.036802113
248	0xbe05892a	-0.13040605
249	0x3d31cccd	0.043408204
250	0xbd5e671f	-0.054297563
251	0xbe048dda	-0.12944737
252	0x3d9836f7	0.07432359
253	0x3d4f8d61	0.05067194
254	0x3df021ec	0.1172522
255	0xbd424110	-0.04742533

fc3.bias f4 [32]
0	0xbfa57305	-1.2925726
1	0x3f5d2cf7	0.86396736
2	0xbf7e1990	-0.99257755
3	0xbfacd42d	-1.3502251
4	0x3f6598ce	0.89686286
5	0xbf8bf1e0	-1.0933189
6	0xbee931ad	-0.45545712
7	0xbf7dd2f1	-0.99149996
8	0x3ec7b601	0.39006045
9	0xbd809bb4	-0.06279698
10	0xbf44953b	-0.7679021
11	0xbfa3a45f	-1.2784537
12	0xbf97731b	-1.1832002
13	0xbfa946eb	-1.3224767
14	0xbf5306de	-0.82432353
15	0x3ec07b4a	0.37594062
16	0x3fca8cd8	1.5824232
17	0xbf0b2ed0	-0.54368305
18	0xbf7ad95c	-0.97987914
19	0xbfb3a2d4	-1.4034066
20	0xbdcddccb	-0.100518785
21	0xc0010791	-2.0160868
22	0xbffe0247	-1.9844445
23	0x4099ad31	4.8023915
24	0x3e6996d6	0.22811446
25	0xbea9d558	-0.3317058
26	0xbf2f20fc	-0.68409705
27	0x3ebe094f	0.37116477
28	0xbfe9c489	-1.8263103
29	0x3ee007cf	0.43755957
30	0x405920cc	3.3926268
31	0xbeb737ea	-0.35784847

in_fn.weight f4 [33]
0	0x3fd5c69f	1.6701239
1	0x3ec16e2b	0.37779364
2	0x3e79f4bf	0.2440977
3	0x3e74c768	0.23904192
4	0x3cfe5a87	0.031049026
5	0x3e486494	0.19569618
6	0x3c073f84	0.008254889
7	0x3d415a0c	0.047205016
8	0x3e511d01	0.2042122
9	0x3ebf91db	0.37415966
10	0xbd49929e	-0.04921209
11	0x3e15fa9c	0.14646381
12	0x3ea98140	0.33106422
13	0x3e0c4cba	0.13701144
14	0x3eb8fa7f	0.36128613
15	0x3ea0963a	0.31364614
16	0x3f535765	0.8255523
17	0x3e9ac101	0.30225375
18	0x3dc1cb08	0.09462553
19	0x3ebb0236	0.36525124
20	0x3ea2e930	0.31818533
21	0x3e187e77	0.14891993
22	0x3eecf689	0.4628184
23	0x3e51a8ed	0.20474596
24	0x3f8e6983	1.112595
25	0x3a6fe1db	0.00091507816
26	0x3ebd7bfb	0.37008652
27	0x3e67585b	0.22592299
28	0x3fa34b1a	1.2757294
29	0x3e985835	0.29754797
30	0x3f54b934	0.830951
31	0x3f58b191	0.84645945
32	0x3f695299	0.9114166

in_fn.bias f4 [33]
0	0x3f2c4fc8	0.67309237
1	0xbc9a2ad0	-0.018819243
2	0xbd002fc6	-0.03129556
3	0xbdcdeb8b	-0.10054692
4	0xbd075b2a	-0.033045925
5	0x3e19a1e7	0.15003167
6	0xbd3b5661	-0.045736674
7	0xbe1b9265	-0.15192564
8	0x3dcdd8b3	0.10051098
9	0x3e684106	0.22681054
10	0x3dbbf8bb	0.09178301
11	0x3dc36804	0.09541324
12	0x3cc7c7b5	0.02438722
13	0x39f7ce30	0.00047265133
14	0x3cb5ed5e	0.022207912
15	0x3e23d6aa	0.15999857
16	0xbc88c3db	-0.016694954
17	0x3e2fbcc8	0.17161858
18	0xbd75e1ef	-0.06002992
19	0x3d693b20	0.05694115
20	0x3c0db930	0.008650109
21	0x3e08caee	0.13358662
22	0x3d0b94b3	0.034077358
23	0x3d0b78ba	0.03405068
24	0x3ee7e909	0.4529498
25	0xbde0b65d	-0.10972283
26	0x3eaecfa6	0.34142798
27	0xbd096f45	-0.03355338
28	0x3e0a4170	0.13501525
29	0xbda28d07	-0.07937055
30	0x3e89b1ed	0.2689356
31	0x3eaf60b1	0.34253457
32	0xbbcddd13	-0.0062824576

in_fn.running_mean f4 [33]
0	0x400f48b3	2.2388122
1	0x3b51455f	0.0031932218
2	0x3b606091	0.0034237246
3	0x3b52f3f2	0.003218886
4	0x3b113c73	0.0022161275
5	0x3bc2d863	0.0059462055
6	0x3acc99e6	0.001560983
7	0x3ae98db7	0.0017818724
8	0x3bbd8c5e	0.0057845553
9	0x3bc3a5da	0.005970699
10	0x3b0c1300	0.002137363
11	0x3b9741f0	0.0046160147
12	0x3c90e626	0.017687868
13	0x3acced28	0.0015634643
14	0x3bbe3da1	0.0058056866
15	0x3c10322b	0.0088010235
16	0x3d0d0628	0.0344297
17	0x3bd63089	0.0065365476
18	0x3b40dcfd	0.0029428594
19	0x3b46249d	0.0030234226
20	0x3b212347	0.0024587677
21	0x3bb510b4	0.005525673
22	0x3cc92d76	0.02455781
23	0x3b9eb752	0.004843631
24	0x3ecc483e	0.39898866
25	0x3b06ea91	0.002058659
26	0x3c5105a7	0.012757695
27	0x3bd9aa56	0.00664262
28	0x3e31356c	0.17305535
29	0x3bf944be	0.0076070717
30	0x3d6a7036	0.05723592
31	0x3dc874d4	0.09787908
32	0x3daf9d13	0.085748814

in_fn.running_var f4 [33]
0	0x40d5b767	6.678638
1	0x3b506fd4	0.0031804936
2	0x3b5f8240	0.0034104735
3	0x3b51dd6f	0.0032022854
4	0x3b10ecf2	0.0022113887
5	0x3bc19fdb	0.005908949
6	0x3acc4909	0.0015585731
7	0x3ae90740	0.001777865
8	0x3bbc35cd	0.0057437182
9	0x3bc24901	0.005929113
10	0x3b0bbf89	0.002132388
11	0x3b9662ba	0.004589406
12	0x3c8df7ed	0.017330134
13	0x3acc7add	0.0015600581
14	0x3bbceaed	0.00576531
15	0x3c0ef56b	0.008725504
16	0x3d081fb9	0.033233378
17	0x3bd4d73a	0.0064953836
18	0x3b403526	0.0029328554
19	0x3b456b04	0.00301236
20	0x3b20a4b6	0.0024512238
21	0x3bb37a8b	0.0054772547
22	0x3cc445ea	0.023959119
23	0x3b9dfd0d	0.004821426
24	0x3e7560e8	0.23962748
25	0x3b068391	0.0020525197
26	0x3c4def23	0.012569222
27	0x3bd7be66	0.0065839766
28	0x3e10ee84	0.14153486
29	0x3bf7362e	0.0075443005
30	0x3d5cee3d	0.05393814
31	0x3db47d23	0.088129304
32	0x3d9ef5e2	0.07761742

fc1.weight f4 [64, 33]
0	0xbe60f23e	-0.21967408
1	0xbdfdf66f	-0.12400519
2	0xbe9023ac	-0.28152215
3	0xbe1fd648	-0.15609086
4	0xbebc2cf3	-0.36753044
5	0xbe87c452	-0.26516968
6	0x3e802a46	0.25032252
7	0x3e0b7df6	0.13622269
8	0x3e9ac5cf	0.3022904
9	0xbf178711	-0.5919047
10	0xbec971c0	-0.39344597
11	0xbe83c275	-0.25734296
12	0xbee9e086	-0.4567911
13	0xbe840da5	-0.2579166
14	0x3e338b5a	0.17533627
15	0x3efe8bbc	0.49715984
16	0xbe73d1cf	-0.23810504
17	0xbdc0b1e9	-0.09408934
18	0xbee41a17	-0.44551155
19	0x3e39923d	0.18122192
20	0x3f1b18c9	0.60584694
21	0x3cde73db	0.027154854
22	0xbe66292a	-0.2247664
23	0x3dca997b	0.09892555
24	0xbe009e0c	-0.1256029
25	0xbe9417b1	-0.28924325
26	0x3ec6cebb	0.38829598
27	0x3deb01cb	0.11474951
28	0x3e4ccc6b	0.19999854
29	0xbe978533	-0.2959381
30	0xbdaa4a59	-0.08314962
31	0xbeee1cbd	-0.465063
32	0xbe82c408	-0.25540185
33	0xbeb6aa8a	-0.35676986
34	0xbe532dd1	-0.20622946
35	0x3e090440	0.13380527
36	0x3bcdadec	0.0062768366
37	0xbda1101c	-0.07864401
38	0x3e09e1c0	0.13465023
39	0xbded977a	-0.116011575
40	0x3a099a8a	0.00052491634
41	0xbe0c0a62	-0.13675836
42	0xbb8f2163	-0.0043679937
43	0x3e01270e	0.12612554
44	0xbe5382de	-0.2065539
45	0xbdad7d79	-0.08471198
46	0xbe3c9838	-0.18417442
47	0xbd7c8a6d	-0.06165545
48	0xbe0f65f5	-0.14003737
49	0x3cdb45cc	0.02676668
50	0xbd00e942	-0.031472452
51	0x3e174bc5	0.14774998
52	0xbeadc063	-0.33935842
53	0x3ec6cfd3	0.38830432
54	0xbd872b1e	-0.06600021
55	0xbe2c619c	-0.1683411
56	0xbdb68077	-0.089112215
57	0x3d654bfe	0.055980675
58	0x3ef464ee	0.47733253
59	0xbdb65a40	-0.089039326
60	0xbd0339c1	-0.0320375
61	0x3c8fec20	0.017568648
62	0xbc0ef8f9	-0.008726352
63	0xbcedcfe9	-0.029029803
64	0xbdbaf107	-0.091280036
65	0xbc819f2b	-0.015822968
66	0xbfa588a8	-1.2932329
67	0x3e0fb766	0.14034805
68	0xbe8b82cb	-0.27248225
69	0xbe4018a5	-0.18759401
70	0x3e0be5cd	0.13661881
71	0x3dbc1b32	0.091848746
72	0x3e88e0ba	0.26733953
73	0x3dea9132	0.11453475
74	0xbe13b948	-0.14426148
75	0xbf324915	-0.69642764
76	0x3ea46114	0.32105315
77	0x3e2c1ef2	0.1680868
78	0xbe8ee28a	-0.2790721
79	0x3e51b1b0	0.20477939
80	0x3e34cf66	0.17657241
81	0xbde0f0e8	-0.10983449
82	0x3f1f9e96	0.6235136
83	0xbf3f502f	-0.74731725
84	0xbd99488e	-0.07484542
85	0xbea41cf4	-0.3205334
86	0x3d9da9cb	0.07698401
87	0x3e3044a0	0.17213678
88	0xbde6cb6e	-0.1126927
89	0xbf09964a	-0.5374495
90	0x3d68a827	0.056800988
91	0x3e8df438	0.27725387
92	0xbe128711	-0.14309336
93	0x3db6f3c0	0.089332104
94	0x3e71110b	0.23541658
95	0xbe0272fb	-0.12739174
96	0xbe38f012	-0.1806033
97	0x3e058a0a	0.13040939
98	0xbe8212c9	-0.25404957
99	0xbf3b6124	-0.731951
100	0x3ee94756	0.45562238
101	0xbddc0eb4	-0.10744992
102	0xbe1e9bd9	-0.15489139
103	0xbe4e30cc	-0.20135802
104	0xbd43f012	-0.04783637
105	0x3e5d0a4e	0.21585962
106	0x3e9aca07	0.3023226
107	0xbe23bf85	-0.15991028
108	0xbe49e0fd	-0.19714732
109	0x3dafa896	0.08577077
110	0xbea4a39f	-0.32156083
111	0x3f2a2aa2	0.664713
112	0xbe88c1ed	-0.26710454
113	0x3e49b8c9	0.19699396
114	0x3f1a7803	0.60339373
115	0xbdb8e8bc	-0.090287656
116	0xbcceb598	-0.025233075
117	0xbdd1b50b	-0.10239609
118	0x3e05f1e4	0.13080555
119	0x3ed3a4d4	0.4133669
120	0xbe21a544	-0.157857
121	0xbdf00c6b	-0.117211185
122	0xbe9a7fd9	-0.30175665
123	0xbd83b43e	-0.06430863
124	0x3e5ce57f	0.21571921
125	0xbefe3168	-0.4964707
126	0x3d8dd0a1	0.069245584
127	0x3c06193b	0.008184726
128	0xbdafa911	-0.08577169
129	0xbdc5fafe	-0.096670136
130	0x3bd193e3	0.0063958033
131	0xbddd7001	-0.10812379
132	0xbebb029b	-0.36525425
133	0x3d53b9d1	0.05169088
134	0xbe47fcee	-0.19530079
135	0x3d713402	0.05888749
136	0xbdce5c13	-0.100761555
137	0xbd2f9a64	-0.042871848
138	0x3e04fc35	0.12986834
139	0x3e4e23af	0.201308
140	0xbeaf5ffd	-0.3425292
141	0xbe13a9f1	-0.14420296
142	0x3d3aa325	0.045565743
143	0xbe4fc749	-0.20290865
144	0x3dbc6572	0.09199037
145	0x3d45ea7d	0.04831933
146	0x3b1c3d94	0.0023840414
147	0xbeaf8bca	-0.34286338
148	0x3e92eed9	0.2869785
149	0xbe8ab4fd	-0.27091208
150	0xbcb13b66	-0.021634769
151	0xbea263f8	-0.31716895
152	0x3cf80911	0.03027776
153	0xbcf706a7	-0.03015454
154	0x3cf092ed	0.029366935
155	0xbda99f42	-0.08282329
156	0x3e6da45b	0.23207228
157	0x3e1ccce9	0.15312542
158	0xbef93d93	-0.4867979
159	0x3d7d4887	0.061836746
160	0x3db6e3e8	0.089301884
161	0x3e07517c	0.13214678
162	0xbe19d9a3	-0.15024428
163	0x3e6ae0ee	0.22937366
164	0x3d263dea	0.04058639
165	0xbfb996fb	-1.44992
166	0x3ea7961b	0.3273171
167	0x3e8f77cd	0.28021088
168	0x3d5a3e09	0.053281818
169	0xbd005df4	-0.0313396
170	0xbf8b26f5	-1.0871264
171	0x3df0f9d4	0.11766401
172	0x3e5ffbf1	0.21873452
173	0x3e18c7a5	0.14919908
174	0x3d426710	0.04746157
175	0xbe8d0ede	-0.27550405
176	0xbe1df1b0	-0.15424228
177	0xbee6791e	-0.4501428
178	0x3ec8a8d5	0.3919131
179	0xbf082a92	-0.5318996
180	0xbe90f01c	-0.2830819
181	0xbd95000a	-0.07275398
182	0xbf20c1d5	-0.62795764
183	0x3e43b9b3	0.19113807
184	0xbc9e4553	-0.019320166
185	0x3e8058d9	0.25067785
186	0xbe102b2e	-0.14078972
187	0xbf16c5f3	-0.58895797
188	0xbf0cc978	-0.54994917
189	0xbe8be09a	-0.27319795
190	0x3ecc0c7e	0.3985328
191	0x3d8e25d3	0.06940808
192	0xbe65b090	-0.22430634
193	0xbc9d30e7	-0.019188358
194	0x3d6d102b	0.057876747
195	0xbdb7da10	-0.08977139
196	0xbe9658f7	-0.2936475
197	0xbef2742d	-0.4735426
198	0xbfc24711	-1.5177938
199	0xbd754339	-0.05987856
200	0xb97394e1	-0.00023229748
201	0x3ceb4e18	0.028723761
202	0x3d5f6570	0.054540098
203	0xbdcbbcd9	-0.09948129
204	0x3e3ec095	0.18628152
205	0x3e22bccb	0.15892331
206	0xbe9ac282	-0.30226523
207	0xbe3ea0c6	-0.18616018
208	0xbc70396f	-0.014662131
209	0xbe2472fa	-0.16059485
210	0xbdb6a2e0	-0.08917785
211	0x3e1bf849	0.15231432
212	0xbce597f5	-0.02802656
213	0x3e75b8eb	0.23996322
214	0x3e7ae0a3	0.24499755
215	0xbe145612	-0.14485958
216	0x3ea8e1d6	0.329848
217	0xbd8a24bc	-0.06745288
218	0x3e3cf586	0.18453035
219	0xbd999e5e	-0.07500909
220	0xbbf07574	-0.0073382203
221	0xbdb3bafb	-0.08775898
222	0x3e228ae8	0.15873301
223	0x3e04c309	0.12965025
224	0xbe9ee390	-0.3103299
225	0x3ef8b2fc	0.48574054
226	0x3d3b3e16	0.045713507
227	0x3dc52c84	0.09627631
228	0xbb34daa6	-0.0027596145
229	0x3c427dcd	0.011870814
230	0x3edd99c1	0.43281367
231	0xbf017d67	-0.50581974
232	0x3d5d5fdd	0.0540465
233	0xbda0dc51	-0.07854522
234	0xbc1e5a74	-0.00966512
235	0xbe12c19a	-0.14331666
236	0xbedf438e	-0.43606228
237	0xbd5a5575	-0.053304154
238	0x3d453b71	0.04815239
239	0xbd8c4ab9	-0.0685019
240	0xbf24ca09	-0.6437078
241	0xbd1513a1	-0.036395673
242	0xbe266369	-0.1624886
243	0xbe36118b	-0.1778013
244	0x3e9372eb	0.28798613
245	0x3e8c708a	0.2742961
246	0xbf280050	-0.65625477
247	0x3caad26d	0.020852292
248	0xbe3b6084	-0.18298537
249	0x3da6f7a8	0.081527054
250	0x3f12b1e7	0.5730271
251	0xbe3736ff	-0.17892073
252	0xbe067e88	-0.13134205
253	0x3e0124c4	0.12611681
254	0xbe761ad1	-0.24033667
255	0x3e86b003	0.2630616

fc1.bias f4 [64]
0	0xbe61cc49	-0.22050585
1	0xbeb13d2d	-0.34616986
2	0xbefcf696	-0.4940688
3	0xbf03414e	-0.5127152
4	0xbeb0b8b4	-0.34515917
5	0xbd7bcfc6	-0.061477445
6	0xbf4b546f	-0.7942571
7	0xbf166a58	-0.5875602
8	0xbe1a54c5	-0.150714
9	0xbf00cc19	-0.5031143
10	0x3dcff605	0.101543464
11	0xbeff76c5	-0.498953
12	0xbe78f11d	-0.24310727
13	0xbf47b559	-0.7801109
14	0xbf04ab2d	-0.51823694
15	0xbe337e67	-0.17528687
16	0xbf5746d2	-0.8409244
17	0xbe6ad08e	-0.2293112
18	0xbf1f1f02	-0.6215669
19	0x3e7ec66b	0.24880378
20	0xbe82706f	-0.25476405
21	0xbe92e1b6	-0.2868783
22	0xbf526b9c	-0.8219545
23	0xbe97989e	-0.29608625
24	0xbf595656	-0.84897363
25	0xbf5c3cde	-0.86030376
26	0xbf4e1734	-0.80504155
27	0xbf52a524	-0.82283235
28	0xbf34d8a0	-0.70643044
29	0xbe425c99	-0.18980636
30	0xbef28452	-0.47366577
31	0xbe969864	-0.2941314
32	0xbe5661c5	-0.20935734
33	0xbec03b12	-0.37545067
34	0xbefcfbfc	-0.49411
35	0xbf5d881e	-0.86535823
36	0xbec54025	-0.385255
37	0xbed0ba0c	-0.40766943
38	0xbf39fe74	-0.7265389
39	0xbebf53ff	-0.3736877
40	0xbe23da4e	-0.16001245
41	0xbf801248	-1.0005579
42	0x3c632fd2	0.013866382
43	0xbe4f7990	-0.20261216
44	0xbe0ef383	-0.1396008
45	0x3d5f9b8f	0.05459171
46	0x3eb59c6f	0.35470912
47	0xbf1078be	-0.5643424
48	0xbfbffb69	-1.4998599
49	0xbf323a0d	-0.6961983
50	0xbe4c75ce	-0.19966814
51	0xbf576deb	-0.84152097
52	0xbf85f93d	-1.0466686
53	0xbf31ca93	-0.6944973
54	0xbeda7eed	-0.42674962
55	0xbe90b4c7	-0.28262922
56	0xbf641bfc	-0.891052
57	0xbf247034	-0.6423371
58	0xbef66fbf	-0.4813213
59	0xbed5d4bf	-0.41763875
60	0xbf5eeb48	-0.8707776
61	0xbf63a69a	-0.8892609
62	0xbe628490	-0.22120881
63	0xbe6a9c39	-0.22911157

fc2.weight f4 [64, 64]
0	0xbe4598bd	-0.19296546
1	0xbca05f24	-0.019576617
2	0xbd83ec87	-0.064415984
3	0xbe383944	-0.17990595
4	0x3cc9b50f	0.024622468
5	0x3c3b4b9a	0.011431599
6	0x3c4ccd39	0.012500101
7	0x3da2ba51	0.07945693
8	0xbd083e5b	-0.03326259
9	0xbd5c6263	-0.053804766
10	0xbe290479	-0.16505612
11	0xbe07b26c	-0.13251656
12	0xbdd4d18a	-0.10391529
13	0xbdeb7688	-0.114972174
14	0x3c753e84	0.014968518
15	0xbdf7f49d	-0.12107203
16	0xbc84d40f	-0.016214399
17	0x3d2a5a10	0.041589797
18	0xbcacd064	-0.021095462
19	0xbd89a1bc	-0.067203015
20	0xbbbf595a	-0.005839509
21	0xbe30ee25	-0.17278345
22	0xbdf05653	-0.11735215
23	0x3b20b0d4	0.002451946
24	0xbdc77b11	-0.0974027
25	0xbde25714	-0.11051765
26	0xbd8138ac	-0.063096374
27	0xbe253e52	-0.16137055
28	0xbd3f5235	-0.046709258
29	0xbe4178ad	-0.1889369
30	0xbd7ed3c4	-0.062213674
31	0xbe1badd1	-0.15203024
32	0xbe0e4591	-0.13893725
33	0x3d66afd0	0.05632001
34	0xbda0e270	-0.078556895
35	0x3d016eb0	0.0315997
36	0xbc116f7b	-0.008876677
37	0xbe1919cf	-0.14951251
38	0xbdb58801	-0.08863831
39	0x3dd761d3	0.10516705
40	0xbdfa4fe3	-0.122222684
41	0xbb27b304	-0.002558888
42	0xbd3b1107	-0.045670535
43	0x3d3d1944	0.046166673
44	0xbd848ce1	-0.06472183
45	0xbda4db83	-0.08049681
46	0xbda0b840	-0.07847643
47	0x3d42c0d8	0.04754719
48	0xbdd3c0fb	-0.103395425
49	0xbc14cee9	-0.009082534
50	0x3abe9668	0.0014540674
51	0x3d1dce50	0.038526833
52	0xbe0c6763	-0.13711314
53	0xbddd489f	-0.10804867
54	0xbcffaabc	-0.031209342
55	0xbdfa9a1d	-0.12236426
56	0xbbf153bb	-0.007364718
57	0xbd3ee418	-0.046604246
58	0x3bd81fee	0.006595603
59	0xbddd631f	-0.108099215
60	0xbd81caf6	-0.0633754
61	0xbe0aba63	-0.13547663
62	0x3e07c3c7	0.13258277
63	0xbdc25e39	-0.09490628
64	0xbe8258e7	-0.25458452
65	0xbd789bfd	-0.060695637
66	0xbca3788b	-0.01995494
67	0xbd900ce1	-0.070337065
68	0xbd2d1e25	-0.042265076
69	0xbe647b86	-0.22312745
70	0x3ee11080	0.439579
71	0xbe5ac37c	-0.21363634
72	0xbe36b454	-0.17842227
73	0xbde0bce6	-0.109735295
74	0x3d495f38	0.049163073
75	0xbe5f64da	-0.21815816
76	0x3dac06a8	0.08399707
77	0xbced3e02	-0.028960232
78	0xbe83890b	-0.25690493
79	0xbd04b8fb	-0.032402974
80	0xbedb49f5	-0.42829862
81	0xbbc91f1a	-0.006137741
82	0xbc1426c1	-0.009042443
83	0xbe4b2653	-0.19838838
84	0xbc03e922	-0.008051189
85	0x3da6da62	0.08147122
86	0xbd242e63	-0.0400833
87	0xbda749a3	-0.08168342
88	0xbe70dcc7	-0.2352172
89	0xbdc0e73b	-0.09419104
90	0x3e9f3baf	0.31100222
91	0x3e209bb7	0.156844
92	0xbeb3678c	-0.35039937
93	0xbcd33b94	-0.025785245
94	0xbe4d7b64	-0.20066601
95	0xbe73840b	-0.23780839
96	0xbf3454f7	-0.70442146
97	0xbec8ca37	-0.39216778
98	0x3d127a54	0.035761192
99	0xbe89880e	-0.26861614
100	0xbef2a3dd	-0.47390643
101	0xbe316799	-0.17324676
102	0xbe07121c	-0.13190502
103	0xbcd1ae71	-0.025595875
104	0x3b39dd56	0.0028360686
105	0xbc195b64	-0.009360168
106	0xbefdde74	-0.4958378
107	0xbcd697fc	-0.026195519
108	0xbf3227aa	-0.6959177
109	0xbee31aca	-0.44356376
110	0xbf361772	-0.71129525
111	0xbee0340f	-0.43789718
112	0xbe4bfa6c	-0.19919747
113	0xbf41c2e3	-0.75688
114	0xbe3e23a1	-0.18568279
115	0xbdc6ab8f	-0.09700691
116	0xbe8f53a3	-0.27993497
117	0xbdcd9324	-0.100378305
118	0x3efea141	0.49732402
119	0xbb6015ee	-0.0034192759
120	0xbebddc96	-0.37082356
121	0xbe6b0f21	-0.2295499
122	0xbeba7cb9	-0.3642328
123	0xbdd77ee9	-0.10522253
124	0xbed598ee	-0.4171824
125	0xbee5bf3a	-0.44872457
126	0x3dc0d876	0.09416287
127	0xbe5972f1	-0.21235253
128	0xbe87ab97	-0.264981
129	0xbe502840	-0.20327854
130	0xbeca2aa6	-0.39485663
131	0x3d2599bd	0.04042982
132	0x3c03aab0	0.008036301
133	0xbdd08b21	-0.10182787
134	0xbe05a175	-0.13049872
135	0xbde9668e	-0.11396514
136	0xbe6e5511	-0.23274638
137	0x3d5bbdc2	0.053647764
138	0xbe888a42	-0.26667982
139	0xbe41a10b	-0.1890909
140	0x3bda25e1	0.0066573475
141	0xbe8e3b6d	-0.27779713
142	0xbe886e61	-0.26646712
143	0xbe81fea1	-0.2538958
144	0x3dd934b2	0.10605754
145	0xbebfd733	-0.3746887
146	0xbd186051	-0.03720123
147	0xbdb12409	-0.08649451
148	0xbe2a42ff	-0.1662712
149	0xbe11f137	-0.14252172
150	0xbe5c8777	-0.2153605
151	0xbe38c3d0	-0.18043447
152	0xbecb8e1f	-0.39756867
153	0xbc5d05c2	-0.013490142
154	0xbc7feb7b	-0.015620108
155	0xbd18b622	-0.03728307
156	0x3c316660	0.010827631
157	0xbe36b193	-0.17841177
158	0xbda83f33	-0.08215179
159	0xbe742753	-0.23843126
160	0x3d17f536	0.037099086
161	0xbdfb1bd9	-0.12261171
162	0x3dae3955	0.08507029
163	0x3c87f9f2	0.016598675
164	0x3e06d785	0.13168152
165	0xbe71a672	-0.2359865
166	0xbd2b069f	-0.04175436
167	0xbe0a6c88	-0.13517964
168	0xbe9ed5f0	-0.31022596
169	0x3d7bb758	0.061454147
170	0xbc783157	-0.015148482
171	0xbe084fc2	-0.13311675
172	0x3cfd8e12	0.030951533
173	0xbe7746c1	-0.24148084
174	0xbe3e3b41	-0.18577291
175	0xbe82c716	-0.25542516
176	0xbd80761d	-0.06272528
177	0xbddb2771	-0.10700882
178	0xbe6bdebe	-0.23034188
179	0xbac06704	-0.0014679139
180	0xbe3419df	-0.17587994
181	0x3d13f545	0.03612258
182	0xbe783f50	-0.24242902
183	0x3b0ab91a	0.0021167458
184	0xbec45bbf	-0.38351247
185	0x3cac974c	0.021068238
186	0xbea5ebb5	-0.32406393
187	0x3d85ee17	0.06539553
188	0x3dd495ca	0.103801325
189	0xbe18b99e	-0.14914557
190	0xbe6b05f3	-0.22951488
191	0xbd657e0a	-0.056028403
192	0xbd9cdf65	-0.076597966
193	0xbd4b0d43	-0.049573194
194	0xbe25ff6d	-0.16210718
195	0x3da73eab	0.0816625
196	0xbd4cf28d	-0.050036002
197	0x3c82a13a	0.01594602
198	0xbea47c8d	-0.32126275
199	0xbdbd2ded	-0.09237275
200	0xbd4e9486	-0.05043461
201	0x3d011973	0.03151841
202	0x3c638e9e	0.013888983
203	0xbe5eb922	-0.2175031
204	0xbe22aab4	-0.1588543
205	0xbe277cc6	-0.16356191
206	0xbe1c169a	-0.15242997
207	0xbca301bd	-0.01989829
208	0xbe3e4bf2	-0.18583658
209	0xbd9108ac	-0.07081732
210	0x3dbd2a13	0.09236541
211	0xbe34c960	-0.17654943
212	0xbe62f132	-0.22162321
213	0xbd0a6554	-0.03378804
214	0xbdcc2ade	-0.09969114
215	0xbe166c18	-0.14689672
216	0xbe6c3712	-0.23067883
217	0xbd8e41b3	-0.06946125
218	0xbe096410	-0.13417077
219	0xbcd9c85f	-0.026584802
220	0x3d406673	0.046972703
221	0xbd02a976	-0.03189989
222	0x3a9d5ea6	0.0012006357
223	0xbd9a272d	-0.075270034
224	0xbdea4965	-0.1143978
225	0xbc80ce6f	-0.015723435
226	0x3c9d4551	0.019198092
227	0xbcd30924	-0.025761195
228	0xbe33f3c8	-0.17573464
229	0x3c99eba7	0.018789126
230	0xbe278ea8	-0.16363013
231	0x3de26940	0.11055231
232	0xbe45c451	-0.1931317
233	0xbd7a7573	-0.061147165
234	0xbd67c290	-0.056582034
235	0xbd6ef0e7	-0.05833521
236	0xbe412a96	-0.18863901
237	0xbe36c57d	-0.17848773
238	0xbd656998	-0.056008905
239	0xbdd6c160	-0.10486102
240	0xbd01a175	-0.031648118
241	0x3cdc26f3	0.026874041
242	0x3d2da840	0.042396784
243	0xbd8f943a	-0.07010694
244	0x3d02a2f3	0.03189368
245	0xbdce4756	-0.100722
246	0xbcf7e98f	-0.030262737
247	0xbc738514	-0.014863271
248	0x3cec71c4	0.028862841
249	0x3d8300c2	0.06396629
250	0xbe61fe07	-0.2206956
251	0xbce72440	-0.028215528
252	0xbb5cb1bd	-0.0033675276
253	0xbdcbf47c	-0.09958741
254	0x3cd362a8	0.025803879
255	0x3b82fe3d	0.0039975927

fc2.bias f4 [64]
0	0xbe10f8eb	-0.14157455
1	0x3e7784de	0.24171779
2	0xbcd953b1	-0.026529165
3	0xbda5862a	-0.080822304
4	0xbebc05c6	-0.36723155
5	0xbc0578b7	-0.008146456
6	0xbd999393	-0.07498851
7	0x3e672698	0.22573316
8	0x3bad9aea	0.005298008
9	0xbe7aea9d	-0.2450356
10	0xb8cf8a57	-9.896297e-05
11	0xbc1c0380	-0.009522319
12	0xbd7a123d	-0.06105255
13	0xbdca71c4	-0.0988498
14	0xbe23c08d	-0.15991421
15	0xbe2ee170	-0.17078185
16	0xbc8fc1d8	-0.017548487
17	0x3ccb213b	0.024796119
18	0xbdd89357	-0.10574978
19	0xbe4cd343	-0.20002465
20	0xbeb14b51	-0.34627774
21	0x3f7aaa32	0.9791595
22	0xbe2b66c3	-0.16738419
23	0xbe21172b	-0.15731494
24	0x3f2dd545	0.6790355
25	0xbd63cf3a	-0.05561755
26	0xbe411ba1	-0.18858196
27	0xbec2f116	-0.3807456
28	0xbc952c4e	-0.018209603
29	0xbe0f199f	-0.13974617
30	0xbdff384e	-0.12461911
31	0xbe65948d	-0.22419949
32	0xbbd222de	-0.006412848
33	0xbe880b2e	-0.2657103
34	0xbe19a184	-0.1500302
35	0xbe499730	-0.1968658
36	0xbd73efdf	-0.05955493
37	0xbe5462be	-0.20740792
38	0xbdbec0e8	-0.09314138
39	0xbddde3ea	-0.10834487
40	0xbf29e8c4	-0.663708
41	0xbcc0aff3	-0.0235214
42	0xbecfbad4	-0.40572226
43	0xbe0fb491	-0.14033724
44	0xbdd51853	-0.1040503
45	0xbd3d113c	-0.046159014
46	0xbdc10eb4	-0.094266325
47	0x3f13f508	0.57795763
48	0xbd0b73bf	-0.03404593
49	0xbd93a046	-0.07208304
50	0x3bb0fb5e	0.005401059
51	0xbea441e5	-0.32081524
52	0xbe34cb57	-0.17655693
53	0xbd872c2b	-0.06600221
54	0xbe55e159	-0.20886745
55	0xbde9dd24	-0.11419132
56	0xbf2ecc64	-0.68280625
57	0xbf10c3ab	-0.56548566
58	0xbe40bc9e	-0.18821952
59	0xbdfd7996	-0.12376706
60	0xbd159849	-0.036522184
61	0x3edbb62d	0.42912427
62	0xbda09e03	-0.07842638
63	0x3b3ec976	0.002911178

fc3.weight f4 [1, 64]
0	0x3d0814d1	0.033222977
1	0x3e8556fc	0.26042926
2	0x3a45c86f	0.00075448205
3	0x3cb10134	0.021607019
4	0xbd6116e6	-0.05495348
5	0xbc79f1aa	-0.015255371
6	0x3c98fbf0	0.01867482
7	0xbd8343c1	-0.064094074
8	0xbce0cdf4	-0.027441956
9	0x3cda1bcc	0.026624583
10	0x3c0970ce	0.008388711
11	0xbc45a2b8	-0.012062721
12	0x3c2f7dd1	0.010711149
13	0x3ddbe127	0.10736304
14	0x3d013b75	0.031550843
15	0x3cc5b352	0.024133358
16	0x3ba19e3b	0.0049321926
17	0xba6eb0d9	-0.0009105332
18	0x3d0cae5b	0.034345966
19	0x3c286ac8	0.010279365
20	0xbdc8719a	-0.09787293
21	0xbe0aa60c	-0.13539904
22	0x3d87bd5c	0.06627914
23	0x3c78cebc	0.015186008
24	0xbe1b5331	-0.15168454
25	0xbb919dce	-0.0044438606
26	0x3cc7f502	0.024408821
27	0x3a5b1110	0.00083567295
28	0x3cd51832	0.026012514
29	0xbb2c9d17	-0.002633875
30	0xbb3b080a	-0.0028538727
31	0x3afe8a6d	0.0019419916
32	0xbc2ad8c3	-0.010427657
33	0x3e132ce9	0.143726
34	0xb90cf5f3	-0.00013443064
35	0x3dba2d86	0.09090714
36	0x3c29ba13	0.010359305
37	0xbd6333b7	-0.05546924
38	0x3cd7a84b	0.026325366
39	0xbb94aad0	-0.004536964
40	0xbdb9a251	-0.090641625
41	0x3d9dac03	0.07698824
42	0x3de104a9	0.10987217
43	0x3b7414ea	0.003724391
44	0x3e701db9	0.23448838
45	0x3c17e88a	0.00927175
46	0xbd41a470	-0.04727596
47	0x3dc0e63c	0.09418914
48	0xbc6659d7	-0.014059505
49	0x3b4fe72b	0.003172348
50	0xbc32cc67	-0.010912991
51	0xbe370813	-0.17874174
52	0xba69246c	-0.0008893672
53	0x3b1f3226	0.0024291365
54	0x3c01a94a	0.007913897
55	0xbd050c4a	-0.032482423
56	0x3d59fae9	0.053217802
57	0x3d82f518	0.06394404
58	0xbc068061	-0.008209319
59	0x3d5a62ee	0.053317003
60	0xbdc1d4e3	-0.09464433
61	0xbcccc062	-0.024994079
62	0x3d7560a7	0.059906628
63	0x39629498	0.00021608395

fc1.weight f4 [64, 1]
0	0x3f25b781	0.6473313
1	0xbed54cef	-0.41660258
2	0xbe55577b	-0.20834152
3	0x3eecaff2	0.46227986
4	0xbf64fc90	-0.8944788
5	0x3fa889b8	1.3167028
6	0xbf036e36	-0.51340044
7	0xbcb5ed4a	-0.022207875
8	0xbdf67d6e	-0.120356426
9	0x3ee1f08d	0.44128838
10	0xbe81ec12	-0.2537542
11	0xbde1bb7f	-0.1102209
12	0x3c8f528c	0.017495416
13	0xbeec5d3c	-0.46164882
14	0xbd955130	-0.07290876
15	0xbea4218a	-0.32056838
16	0x3e146c30	0.14494395
17	0xbb82e700	-0.0039948225
18	0x3c5b85af	0.013398572
19	0x3e906b6d	0.2820696
20	0xbf89e1ed	-1.0772072
21	0xbf1a9d36	-0.60396135
22	0xbe2ba370	-0.16761565
23	0xbf82984b	-1.0202726
24	0xbe91ad33	-0.28452453
25	0xbe6fa0ec	-0.2340123
26	0x3c639e9a	0.013892794
27	0x3fa954d1	1.3229009
28	0xbfae738c	-1.3629012
29	0xbcafe5c7	-0.021471871
30	0x3f0097d7	0.5023169
31	0x3e93d93b	0.2887667
32	0xbdf76882	-0.1208048
33	0xbf180822	-0.5938741
34	0xbf5a5a89	-0.85294396
35	0xbee7b37c	-0.45254123
36	0x3efa2d0d	0.48862496
37	0xbe2a9115	-0.16656907
38	0x3e1113cd	0.1416771
39	0xbf12c4ec	-0.5733173
40	0x3f332201	0.6997376
41	0xbed8a05c	-0.42309844
42	0x3eba8025	0.36425892
43	0xbe31dfa5	-0.1737047
44	0xbf80949d	-1.0045353
45	0xbd8cfc6b	-0.068840824
46	0xbf8cd76b	-1.100324
47	0xbcc85477	-0.024454338
48	0xbec67165	-0.38758388
49	0xbde08800	-0.1096344
50	0xbf53e398	-0.82769156
51	0xbf4e6629	-0.80624634
52	0x3e0d5b33	0.13804321
53	0xbec0a1b5	-0.37623373
54	0x3fc2e7c8	1.5226984
55	0x3fa84fc6	1.3149345
56	0xbd3fca20	-0.04682362
57	0xbfaa029a	-1.3282044
58	0x3e8170a7	0.2528126
59	0x3e8fdd9f	0.2809877
60	0xbfa1b833	-1.2634338
61	0x3f2aeaef	0.6676473
62	0x3fc90dc8	1.5707331
63	0x3f4e3f96	0.80565774

fc1.bias f4 [64]
0	0xbf462203	-0.7739565
1	0xbea0a85d	-0.3137845
2	0xbe021adf	-0.12705563
3	0x3edeac73	0.43490943
4	0xbf4eb24f	-0.8074083
5	0xbe35c749	-0.17751803
6	0xbeb75afc	-0.35811603
7	0xbcb1907e	-0.021675345
8	0xbd9efca0	-0.07763028
9	0xbf6526cc	-0.89512324
10	0xbe3580b5	-0.17724879
11	0xbda64709	-0.08119018
12	0xbd8b5984	-0.06804183
13	0xbe95c608	-0.29252648
14	0xbf6d15ae	-0.92611206
15	0xbe5e79a9	-0.21726097
16	0xbf33ffe2	-0.7031232
17	0xbf412783	-0.75450915
18	0xbd51a444	-0.051182047
19	0xbf74be7c	-0.95603156
20	0xbd7f7729	-0.0623695
21	0xbf14423c	-0.57913566
22	0xbf639452	-0.88898194
23	0xbd7b74e8	-0.061390787
24	0xbe5e1754	-0.21688586
25	0x3e740554	0.23830158
26	0xbd88b5fd	-0.066753365
27	0xbe15382d	-0.1457221
28	0xbdd88c3b	-0.10573622
29	0xbcd69bd8	-0.026197359
30	0xbf5686f6	-0.83799684
31	0xbf64128e	-0.8909081
32	0xbdae6f4c	-0.08517322
33	0xbec1e28b	-0.3786815
34	0xbf0e6d76	-0.55635774
35	0xbeaf7cd9	-0.3427494
36	0x3e25b68f	0.16182922
37	0xbe3d7638	-0.18502128
38	0xbdfe9207	-0.12430196
39	0xbecaefe2	-0.3963614
40	0xbf8c31d8	-1.0952711
41	0xbf59b5c0	-0.85042953
42	0x3ebfb53b	0.37442955
43	0xbde8b20b	-0.11362084
44	0xbd1f5b0d	-0.038905192
45	0xbd32c7d2	-0.043647595
46	0xbd8205f6	-0.06348793
47	0x3d883d2c	0.066522926
48	0x3dce7592	0.100810185
49	0xbf29e072	-0.663581
50	0xbd0ea009	-0.03482059
51	0xbd2d0066	-0.042236708
52	0x3dfb33ca	0.12265737
53	0xbe872a7a	-0.26399595
54	0xbe5769be	-0.21036431
55	0xbeb757b4	-0.358091
56	0xbf1ad250	-0.6047716
57	0xbd3df7bf	-0.046378847
58	0x3ecbe853	0.39825687
59	0xbf1f59b1	-0.62246233
60	0xbd9512b3	-0.07278957
61	0xbf36d15f	-0.71413225
62	0xbe325a8b	-0.17417352
63	0xbe62eac3	-0.22159867
