maddpg_pytorch/models/cache_data/model/run50/incremental/model_ep6001.pt (torch, 690099 bytes, 168 tensors)

fc1.weight f4 [64, 1]
000000 e5 9b 91 3f 8a 4c d5 be 17 57 55 be 65 02 ac 3e
       1.13757 -0.41659957 -0.20834003 0.33595577
000010 67 fc 64 bf 1f f8 b6 3f e8 a3 10 bf 7d ed b5 bc
       -0.89447635 1.429447 -0.565001 -0.02220797
000020 99 7d f6 bd 89 0d 19 3f bf 13 8b be b2 55 97 be
       -0.120356746 0.5978628 -0.27163503 -0.29557568
000030 0b 6d 71 3d 03 5d ec be 30 51 95 bd 23 86 ac be
       0.058941882 -0.46164712 -0.07290876 -0.33696088
000040 30 6c 14 3e 00 e7 82 bb f8 94 28 3d ca 29 1e 3f
       0.14494395 -0.0039948225 0.041157693 0.61782515
000050 51 07 99 bf 36 9d 1a bf 70 a3 2b be 42 fa 90 bf
       -1.1955358 -0.60396135 -0.16761565 -1.1326373
000060 05 ad 91 be cb 7c e4 be 16 27 f8 3d f1 8a b1 3f
       -0.28452316 -0.4462646 0.1211683 1.3870527
000070 07 93 bd bf b8 b5 ae bd 9a ad 1d 3f 04 e0 0e 3f
       -1.4810494 -0.08530754 0.6159302 0.5581057
000080 3b dc ce be 55 df 59 bf 54 04 60 bf 46 b3 e7 be
       -0.40402398 -0.851064 -0.87506604 -0.45253962
000090 a5 13 0d 3f 10 91 2a be 92 f8 06 3d ed 61 59 bf
       0.551081 -0.166569 0.0329519 -0.8491505
0000a0 69 76 85 3f 5c a0 d8 be 8d 40 f0 3e d6 01 38 be
       1.0426761 -0.42309844 0.46924248 -0.1796945
0000b0 79 3e 8d bf 67 fc 8c bd b9 f2 03 bf b1 b3 12 bd
       -1.103469 -0.068840794 -0.5154224 -0.0358159
0000c0 83 2e 85 be 00 88 e0 bd 81 27 69 bf 44 95 77 bf
       -0.26012048 -0.1096344 -0.91075903 -0.96712136
0000d0 20 6f 0a 3e b6 f6 d1 be 95 e9 b8 3f d4 ba b6 3f
       0.13518953 -0.41008538 1.4446284 1.4275765
0000e0 20 ca 3f bd 75 a1 b2 bf 0c 27 b3 3e a4 00 16 3f
       -0.04682362 -1.3955523 0.34990728 0.5859473
0000f0 1d f2 af bf d4 9c 8f 3f 72 e2 c5 3f eb 96 55 3f
       -1.3745762 1.1219735 1.5459731 0.8343341

fc1.bias f4 [64]
000000 05 67 c5 be 9d a8 a0 be 2d 1b 02 be f7 26 20 3f
       -0.3855516 -0.31378642 -0.12705679 0.62559456
000010 74 b2 4e bf 2c 92 38 be c0 1d aa be 81 90 b1 bc
       -0.8074105 -0.1802451 -0.33225822 -0.02167535
000020 ca fc 9e bd 4f 13 19 bf 1b 86 1d be 52 fc 69 bd
       -0.077630594 -0.5979509 -0.15383188 -0.057125397
000030 db 02 ab bc 11 c6 95 be ae 15 6d bf a1 2e 4a be
       -0.020875385 -0.29252675 -0.92611206 -0.1974435
000040 e2 ff 33 bf 80 27 41 bf 90 10 e8 3d f2 9d c0 be
       -0.7031232 -0.754509 0.11331284 -0.37620503
000050 5b 98 ef bd 3c 42 14 bf 52 94 63 bf c3 f1 10 be
       -0.116989814 -0.57913566 -0.88898194 -0.14154725
000060 63 17 5e be 15 f7 a2 3d 45 3d 5c 3d 9d d3 b0 be
       -0.21688609 0.079572834 0.05376937 -0.34536448
000070 72 e8 0d be e2 c0 2c 3e d4 99 14 bf 55 39 ff be
       -0.13858202 0.16870454 -0.58047223 -0.49848428
000080 97 9c 9b 3d 1f d8 2e be 31 24 03 bf 15 7d af be
       0.075982265 -0.17074631 -0.512271 -0.34275118
000090 39 42 f7 3e 38 76 3d be 1b 92 1f 3e ef af 6f be
       0.4829271 -0.18502128 0.15583079 -0.23406957
0000a0 f6 34 2e bf c0 b5 59 bf 7d f5 14 3f 4d e9 ca bd
       -0.6804956 -0.85042953 0.58187085 -0.0990778
0000b0 d8 67 85 bd f0 c7 32 bd 73 f6 9f be 39 49 30 3e
       -0.06513947 -0.043647707 -0.31242713 0.17215432
0000c0 58 b6 4c 3e 72 e0 29 bf 2a 17 2a be 0d b3 2c be
       0.19991434 -0.663581 -0.16610399 -0.16865177
0000d0 86 eb 94 3e 09 70 61 be 6a bf f0 be 9b 1b e9 be
       0.2908594 -0.22015394 -0.47021037 -0.45528874
0000e0 50 d2 1a bf 59 00 f5 bd 1d 5c 0d 3f f8 8d d5 be
       -0.6047716 -0.11962957 0.5521868 -0.41709876
0000f0 71 83 18 be 97 31 c4 be 3c a2 d6 be e2 ec 0b be
       -0.14893891 -0.38319084 -0.4192065 -0.13664582

fc2.weight f4 [64, 64]
000000 dd 82 cb 3c 8d a8 69 3f da 51 1e 3e de 14 e0 be
       0.024842674 0.91272813 0.15460911 -0.4376592
000010 3f 7a f3 3d df 58 78 3c 5a 39 0f 3e 7b 2a ab bf
       0.11888551 0.015157907 0.13986722 -1.3372339
000020 c6 27 c7 3b 51 66 b3 be f5 7b ea be 71 dc 59 bd
       0.0060777394 -0.35039 -0.45797697 -0.053188745
000030 ee c4 01 bf de ee cf 3e 70 ea 9c bd 4e 30 1b 3e
       -0.50691116 0.4061193 -0.07661903 0.15155146
000040 30 75 1e 3d a8 de e7 bc ad 1e 7d bf 02 fe 25 bf
       0.038685977 -0.028304413 -0.9887493 -0.6484071
000050 25 aa 4a 3e ce 66 ac 3d e4 63 2d bd 35 24 76 3e
       0.19791467 0.08418046 -0.04233159 0.2403725
000060 67 c4 21 3d 7c 66 17 be f8 b2 54 bf 4b 2f 0b be
       0.039493944 -0.14785188 -0.83085585 -0.1359226
000070 b6 70 1c 3e 3c 6d 5c bf 1a 02 b6 3d 01 30 0c bf
       0.15277371 -0.8610418 0.088871196 -0.5476075
000080 2f a4 31 bf cf 69 d5 3e 6d 9a c0 3d 0c 29 e1 3d
       -0.6939115 0.41682288 0.094044544 0.10994157
000090 2d f7 41 bf c0 04 de 3c d0 79 00 bf 80 27 be 3d
       -0.75767785 0.027101874 -0.5018587 0.09284878
0000a0 18 91 f4 be 80 59 69 bd 51 f6 1a bf 4b dd d1 3e
       -0.47766948 -0.05697012 -0.605321 0.40989146
0000b0 25 9c 06 3e cb 9c 11 bf ef df 0e 3f 0e 75 5b be
       0.13145502 -0.5687987 0.55810446 -0.21431372
0000c0 b8 66 9f 3d 60 6e 82 3b f4 c9 33 3e e5 66 72 3e
       0.07783264 0.003980443 0.17557508 0.23672064
0000d0 55 a9 09 bf b3 75 86 3d cf 46 63 be 96 3d 0d be
       -0.53774005 0.06565418 -0.2219498 -0.13793024
0000e0 ec 1d a5 bd 27 0a 74 3e 8e 49 18 bf 2e 8c c7 bd
       -0.08062348 0.23831998 -0.59487236 -0.09743534
0000f0 ff af 21 3e 10 0e 61 be 18 33 37 3d e0 20 d1 bf
       0.15789793 -0.2197802 0.04472646 -1.6338158
000100 2c 46 8f be 0e 40 22 3d 08 37 31 3e 8b 71 a3 be
       -0.27983224 0.03961187 0.17306149 -0.31922564
000110 db 88 c2 bc ce 34 14 be 8a df 65 3e 10 de 9f be
       -0.023746898 -0.14473268 0.22448555 -0.31224108
000120 ac 0a f3 3c 4d 36 7e bd fd 3a b6 bb 90 20 4a 3d
       0.029668175 -0.062063504 -0.005561231 0.04934746
000130 82 d6 36 bd 9b 32 e7 3d f0 80 1f bc 25 97 b4 3d
       -0.044638164 0.11288949 -0.009735331 0.08817891
000140 08 13 ae 3c d4 5a 71 3d a2 0f 4f be 24 a6 47 be
       0.02124931 0.05892451 -0.20220807 -0.19496971
000150 68 b5 8d bc 6e 81 ba 3d 7a 32 df 3d 49 66 4e 3e
       -0.017298415 0.09106718 0.108982995 0.20156206
000160 2d d5 01 3e 6d 60 ec bd e0 7f 64 be 0f be ed bd
       0.12678976 -0.11541829 -0.22314405 -0.116085164
000170 96 96 31 bd 57 4e da bd 5f 21 bd be ab 2c 9c be
       -0.0433565 -0.106594734 -0.36939523 -0.3050283
000180 24 bc 14 be 2e c2 d6 bc f9 3d 1f bc 81 08 da 3d
       -0.14524895 -0.026215639 -0.009719365 0.10646153
000190 c5 2b e7 bc 0c 1d f2 3d ab ce 0a be 4d 3e 5b bc
       -0.028219113 0.118219465 -0.135554 -0.013381553
0001a0 b3 ff c6 bd 88 23 da bc eb 11 27 be ee 78 5d 3d
       -0.097167395 -0.02662827 -0.16315429 0.054070406
0001b0 f2 f7 48 b8 9d 82 f5 bd f1 22 27 3e 3f 24 3d be
       -4.7914633e-05 -0.11987803 0.16321923 -0.18470858
0001c0 1c bf b7 bc c0 65 33 bc 2f 55 bd 3d ed 19 b9 3d
       -0.022429995 -0.010949552 0.09244763 0.09038148
0001d0 ad 36 32 be 2a a3 9f 3d 56 a0 aa be 6f 19 9e be
       -0.1740367 0.07794793 -0.33325452 -0.3087878
0001e0 9e 6a aa bd 9c c6 28 3e cf e9 c6 3b a6 ed b2 be
       -0.08321117 0.16482013 0.0060703526 -0.34946936
0001f0 8d a1 b2 3d 08 0e 2c be e6 50 55 be 9c d8 8e be
       0.087222196 -0.16802227 -0.20831642 -0.27899635
000200 5a 22 1d be 89 d4 c4 3d 99 74 47 3d 5d e5 87 be
       -0.15345135 0.0961085 0.04869518 -0.26542178
000210 0c f7 80 3d 75 4b f7 bd 80 d4 1c 3d d1 63 d0 bd
       0.062971205 -0.12074939 0.038288593 -0.101752885
000220 b7 be 4c 3d c5 39 45 be 11 2e 2b bd 06 68 2f 3d
       0.049986567 -0.19260319 -0.04179198 0.042823814
000230 93 79 d7 bb a5 c8 47 3c d4 ce 10 3d b4 b1 23 3e
       -0.006575772 0.0121938335 0.035353497 0.15985757
000240 08 91 f3 3c 04 55 d4 3d 9c 01 92 be d2 59 94 be
       0.029732242 0.10367778 -0.28516853 -0.28974777
000250 78 ec bf bc 40 19 a8 bb 80 8b 72 bd 79 4b be 3d
       -0.023428187 -0.005129963 -0.05921507 0.09291739
000260 50 cd 45 bc 27 1a 07 3d 13 80 8e bd b7 27 47 be
       -0.012072876 0.032983925 -0.06958022 -0.19448744
000270 af 91 cb 3a 96 b1 99 be 8c e7 d5 be ce c8 ec bd
       0.0015531088 -0.300183 -0.4177822 -0.11561738
000280 e6 5f 76 be 64 ac 97 3d 85 79 24 bc 75 c4 c2 bd
       -0.2406002 0.07405928 -0.010038738 -0.095101275
000290 68 a2 7b bd 9a 77 8f 3d 50 a7 d5 bd ff 1f 3a bb
       -0.06143418 0.07005234 -0.10432303 -0.0028400419
0002a0 0a bc 8d be 00 a0 e1 3a be 79 3d be a0 41 9f bb
       -0.27682525 0.0017213821 -0.18503472 -0.004860118
0002b0 d5 b2 5c 3d 9a 16 7d be c0 74 c5 3d c3 e6 e7 bd
       0.053881485 -0.24715653 0.09641409 -0.11323311
0002c0 3a a2 ae 3d c4 6b 43 bd 39 48 a0 bd b9 48 42 3e
       0.08527036 -0.047710195 -0.078262754 0.18973054
0002d0 d7 cd b3 bd b2 d2 4d 3e 67 75 74 be c0 f5 82 be
       -0.08779495 0.20099905 -0.2387291 -0.25578117
0002e0 cc aa f0 bd fe b6 19 3a 27 1e ae bc 02 81 b1 be
       -0.11751327 0.0005863755 -0.021254612 -0.34668738
0002f0 e2 5c b4 3c 58 c8 1a be 27 0e 1b be ab 39 31 be
       0.022016946 -0.15115488 -0.15142117 -0.17307155
000300 8b 60 95 be 01 bd f9 bc f8 40 d1 3b a7 11 ab be
       -0.2917522 -0.030485632 0.0063859187 -0.33411905
000310 a5 70 bb 3d f8 d4 9d be b8 f2 29 bb 66 bb b4 be
       0.091523446 -0.30826545 -0.0025932025 -0.35299224
000320 66 b2 a8 bd 4b 4f c3 3b a2 6a 40 bd b3 36 bb 3d
       -0.08237152 0.00596038 -0.046976693 0.091412924
000330 9e 0c 9f bc de ca 06 bc 80 73 8e 3a 5f 08 5b 3c
       -0.019415196 -0.008227078 0.0010868162 0.013368695
000340 62 2f 8f bd 82 03 90 bd 6b ca 9b be d0 f8 ed be
       -0.069914594 -0.07031919 -0.3042787 -0.4647889
000350 65 a6 95 3b ac 71 b4 bd 6c 1a d4 bd 50 db 44 3e
       0.004566955 -0.08810744 -0.10356602 0.19224286
000360 c8 20 f2 3c e4 0b 17 bd 8c 71 4e be fb d1 a5 be
       0.029556647 -0.036876574 -0.20160502 -0.32386765
000370 c2 8d b5 bd e4 eb 9a be e0 12 14 be 6b 57 8b be
       -0.08864929 -0.30258095 -0.14460325 -0.27215132
000380 cd ac 7f be 23 41 89 bc ce 59 87 3d b1 de b0 3d
       -0.24968262 -0.016754692 0.06608926 0.08636225
000390 fb 8a a4 b9 70 5a 15 3d 95 fd 2e bd 86 8c 4d 3d
       -0.00031384066 0.0364632 -0.042722303 0.05018284
0003a0 8f 0d bc be 6c cc fa bd 3e 0a c5 bc be 83 94 bd
       -0.36729094 -0.12246022 -0.024052735 -0.0725169
0003b0 7b d2 e3 3d 90 e2 45 be 4f 71 80 bd 8f 13 f2 bd
       0.1112413 -0.19324708 -0.06271612 -0.11820137
0003c0 ec ca b0 3d 10 42 cf bc e3 2c ff bd 87 6a e7 3d
       0.08632454 -0.025300056 -0.12459733 0.11299615
0003d0 9f f5 c2 bd fb 39 19 3b d6 c7 5b be 6c 32 76 be
       -0.09519505 0.0023380506 -0.2146295 -0.24042672
0003e0 c0 d3 3c bd 24 0e 1a 3e 74 9e c4 bc ae e7 3b be
       -0.046100378 0.15044457 -0.024001338 -0.18350098
0003f0 37 29 1a 3d ef a2 c4 be 63 d8 f2 bd b8 54 c3 be
       0.03763696 -0.38405558 -0.11857679 -0.38150573

fc2.bias f4 [64]
000000 1a a6 ad be 9c b5 12 3d 06 38 d1 bd 44 9f 4b bd
       -0.33915788 0.035817727 -0.10215764 -0.049712434
000010 32 61 1f 3f 2f d2 1d bd f8 5d 3a bd 80 06 48 be
       0.62257683 -0.038530525 -0.04549977 -0.1953373
000020 92 03 6d be d0 6d 41 bc b7 dc 3b be 15 8a 0a be
       -0.23145893 -0.0118059665 -0.18345915 -0.13529237
000030 95 fd 1c be c4 79 da 3c 11 34 73 3c a6 52 a8 3c
       -0.15331109 0.02666939 0.014843957 0.020547222
000040 d9 7e 6f 3f 33 75 fe bd 92 ce 57 3c 5f b8 8c be
       0.9355293 -0.12424698 0.013171809 -0.27484414
000050 22 9a b8 bd ac 31 b4 bc a0 05 e2 3c 87 2f b1 bd
       -0.090137735 -0.021996342 0.027590573 -0.08651643
000060 a0 b3 97 bd a1 24 63 be db 73 c4 be 14 b6 85 bd
       -0.074073076 -0.22181942 -0.3836964 -0.06528869
000070 01 bc 88 bc c5 16 13 be 99 b3 b5 bd 3f 1b b3 bd
       -0.01669121 -0.14364155 -0.08872146 -0.08745431
000080 f2 5f 65 be 10 be e6 bd c6 64 d6 bd 9c 1f 36 bc
       -0.22399881 -0.1126672 -0.1046844 -0.011115935
000090 31 17 05 3e f0 f4 87 bd 7a a8 88 bd 1a 65 4b be
       0.12997128 -0.06638515 -0.06672759 -0.19862786
0000a0 46 06 93 ba 12 ac 1b be ae 80 1b bc eb 74 6f be
       -0.001121708 -0.15202358 -0.009491129 -0.23384444
0000b0 ae b2 3e be 59 e7 e2 bb f5 b7 33 3d 2c 82 44 3d
       -0.18622848 -0.0069245514 0.043876607 0.047975704
0000c0 d6 ab b1 bd 9a c1 fd bd c0 3b ce bd 79 40 01 be
       -0.08675353 -0.12390442 -0.1006999 -0.1262225
0000d0 21 bf 20 bd e8 39 e7 bd d8 51 08 be 4e 59 55 3f
       -0.039244775 -0.112903416 -0.13312471 0.83339393
0000e0 b3 5b 7f bd c6 8f 94 be 7c 7e b5 3d 1b 3f a3 3e
       -0.06234331 -0.2901594 0.088620156 0.31884083
0000f0 fb f0 b3 be 44 77 09 bd 49 bf 77 bc 10 ad 2b bc
       -0.3514479 -0.033561006 -0.0151212895 -0.010478273

fc3.weight f4 [32, 64]
000000 9c ba 27 bd f5 cb 3f 3e 9c be 55 3e 3a de 7c bd
       -0.04094945 0.18730147 0.20873493 -0.06173537
000010 0d 31 eb 3e 99 50 c5 3d ec a7 97 3d 3a 50 b9 3d
       0.4593586 0.096345134 0.074050754 0.09048505
000020 87 ef 81 3b 56 a9 73 3e 94 db d3 3d be 11 b6 be
       0.0039653215 0.23795065 0.103446156 -0.3556041
000030 6c f1 70 be eb 19 dc 3c 26 b6 57 bd 8e b9 e0 3a
       -0.23529595 0.026867827 -0.052663945 0.0017145143
000040 e3 cc e1 be e7 e4 00 bd 84 e9 97 3e 43 dd 16 3c
       -0.4410163 -0.0314683 0.29670346 0.009208026
000050 1c 29 88 bd 8c 62 de 3d 3d 6b 4d 3e 9d 8d af 3d
       -0.06648466 0.1085864 0.2006044 0.085719325
000060 a5 04 c3 3d b4 33 90 3e bc 62 9e 3f bc d2 05 3d
       0.0952237 0.28164446 1.2373881 0.032671675
000070 01 df 22 be a4 02 79 3e 78 22 f3 bd ff c9 21 bd
       -0.15905382 0.24317414 -0.11871809 -0.03949928
000080 22 c7 44 3e db 2f 59 be 79 72 81 be d5 d3 64 3e
       0.19216588 -0.21209662 -0.25282648 0.22346433
000090 8f 20 b5 be 19 e7 17 be 22 c7 e6 bd 8f 11 b0 3d
       -0.35376403 -0.1483425 -0.1126845 0.08597099
0000a0 4f 49 91 3e 32 b1 d8 bc 8c 2e 03 bd ff 9f 19 bd
       0.28376243 -0.02645168 -0.032026812 -0.0375061
0000b0 d7 ca 49 bd 52 96 4f be 6a 76 99 bd 8f 12 cf bd
       -0.04926571 -0.20272186 -0.07493289 -0.10110962
0000c0 de 7b 6b bd 80 c1 b6 bd 25 c6 2e bd af f6 98 3d
       -0.057491176 -0.08923626 -0.042669434 0.07468926
0000d0 4d a4 23 3e a4 7e 1f bd ad 75 68 3c 91 4b 85 3e
       0.15980645 -0.038939133 0.014188212 0.26034215
0000e0 fc e2 ed bd a3 da 96 3d 68 e3 30 3e 5f 25 d5 3e
       -0.116155595 0.073659204 0.17274249 0.41630074
0000f0 81 f0 fc 3d 18 c4 ff bd 0e 37 9a 3c 8e 3c e5 bd
       0.1235056 -0.12488574 0.01882508 -0.111931905
000100 e2 b4 8c 3e 4e 4d d9 be c7 e3 71 be 89 d1 53 be
       0.27481753 -0.4244179 -0.23622046 -0.206854
000110 a1 77 75 3d 00 97 32 bd 08 40 ac bc d2 04 ae bd
       0.05992854 -0.043601036 -0.021026626 -0.08497013
000120 f9 20 0e 3e c2 9b 91 3d 2e 1c cc be 40 d4 26 be
       0.13879766 0.071097866 -0.3986525 -0.16291904
000130 f4 95 ab 3c a9 34 e9 bc ac 04 1c 3c 81 d0 0a be
       0.020945527 -0.028467493 0.009522598 -0.135561
000140 eb a9 d7 be fb ca a8 3c 5f 77 0a 3e c7 bb 8d bd
       -0.42121825 0.020604601 0.13522099 -0.06920581
000150 40 ec b6 3d c6 9f 2f 3a 76 64 23 be 67 c3 50 3d
       0.0893178 0.00066995283 -0.15956292 0.0509676
000160 ee 33 6e be 8b ed cb be 70 ee dd 3c 2c 92 39 bd
       -0.23261997 -0.39829668 0.027091235 -0.045305416
000170 11 f8 de bc da 1c 37 3f 13 b9 a9 3d e1 14 b2 bd
       -0.027217897 0.715284 0.08287253 -0.086953886
000180 95 2e 62 be 05 d6 60 3d ae e1 76 bd 9f 74 95 bc
       -0.22088082 0.054891605 -0.06027382 -0.018244086
000190 8c 8f 1b 3e 30 30 0b 3d 97 6e 1d bd 48 47 ea bc
       0.15191478 0.033981502 -0.038435545 -0.028598443
0001a0 03 f2 31 be 29 ce 16 3d 3a 37 23 be a1 11 42 bf
       -0.17377476 0.036817703 -0.15939036 -0.7580815
0001b0 84 07 e4 bd bc 17 83 3d 99 21 31 3d 85 41 b8 3d
       -0.11134246 0.06401011 0.04324493 0.08996872
0001c0 f8 41 1a bd b4 9f f6 bd 35 59 57 bb 52 fe 45 be
       -0.03766057 -0.1204218 -0.0032859568 -0.19335297
0001d0 1f d7 ee 3b 96 a1 a4 bd 10 62 91 bd 12 f7 3d be
       0.007288828 -0.080386326 -0.07098782 -0.18551281
0001e0 79 73 55 3d 3c f4 00 bd 39 4f 54 be a4 0e fe be
       0.052112076 -0.03148292 -0.20733346 -0.49620545
0001f0 2b 59 d4 bd de e0 1f bd 77 eb a2 bc 92 64 98 3d
       -0.1036857 -0.03903281 -0.019887669 0.07441057
000200 40 01 f8 3d 26 02 e8 3d b7 a6 1b 3e 57 b6 5d 3e
       0.121096134 0.11328535 0.15200315 0.21651588
000210 88 c1 35 3f 0b 7e 44 3e bc ab 03 3d d0 82 3d bd
       0.7099843 0.19188707 0.0321462 -0.04626733
000220 a9 b5 10 be 8c 60 2e 3e a9 7f ab bc 93 9a 45 be
       -0.14131798 0.17029017 -0.020934897 -0.19297247
000230 58 23 53 be 90 2b 49 3d 4e ec 6e 3d ee 13 60 bd
       -0.20618951 0.04911381 0.058330826 -0.054706506
000240 89 74 4c bf 48 ce 55 bd 85 af ea 3e 3d 22 91 3d
       -0.7986532 -0.05219868 0.45837036 0.070866086
000250 52 97 ec bd 2a 96 5b bd 20 c3 86 3e d6 ae b8 bc
       -0.115522996 -0.053610004 0.26320744 -0.022544306
000260 1c 20 21 3e 12 77 b6 3d c6 4f 0b 3f 4e 21 a0 3d
       0.15734905 0.089094296 0.544186 0.07818852
000270 04 21 98 be bc f8 0e 3f df 28 39 be 12 0d 34 3e
       -0.2971269 0.5584829 -0.18081997 0.17583111
000280 62 7d b1 be cb 22 61 be 2b 63 1c be f1 d2 f5 3d
       -0.34665972 -0.21985929 -0.15272205 0.120031245
000290 55 31 80 3e 00 aa 16 be f1 be 3b 3d 07 14 f4 3c
       0.25037637 -0.14713287 0.045836393 0.029794706
0002a0 71 dc 8e bb 03 da 3c be ad bc de bd 34 60 96 3d
       -0.0043597748 -0.1844254 -0.10875831 0.07342568
0002b0 b2 49 91 3d e9 57 30 be b8 3e d9 bd e5 4a 20 be
       0.070941344 -0.17221035 -0.10607666 -0.1565357
0002c0 ee 77 30 be c4 b1 27 3d 8c 75 e8 bc d8 7a 44 3e
       -0.1723325 0.040941015 -0.028376363 0.19187486
0002d0 34 46 c2 bd 64 99 df 3d be 85 73 3e 9c 29 7c 3e
       -0.094860464 0.10917929 0.23781487 0.24625248
0002e0 f9 eb 9b be 95 0a 72 3d b3 0c 9b be 37 c0 97 3c
       -0.3045347 0.059092123 -0.30283126 0.018524272
0002f0 60 6b 9b 3e 66 a4 99 be bd 67 90 3e 2a 33 a7 bd
       0.30355358 -0.3000824 0.28204146 -0.08164056
000300 56 e7 93 bd 5d 36 0f 3d 93 66 70 3c 99 69 e7 3d
       -0.07221858 0.034963954 0.014672893 0.11299438
000310 27 6c a2 3e da f1 f5 3d 2e fc f1 bd d8 25 18 3c
       0.3172314 0.1200902 -0.118156776 0.009286366
000320 17 e3 75 3e e8 35 54 3e b7 35 0c 3e c7 ca 38 be
       0.24012409 0.20723689 0.13692366 -0.18046103
000330 7c 9c 56 bd c6 ba 27 be fe 5e a8 3c 30 21 39 3e
       -0.05239533 -0.16379842 0.020553108 0.18079066
000340 98 5b 20 3e e1 74 95 bd e3 bf e9 3e c0 c9 e0 bd
       0.1565994 -0.072976835 0.4565421 -0.10975981
000350 74 08 bb 3d db 86 85 bd 1b 15 5a 3d a3 85 65 3c
       0.09132472 -0.06519862 0.053242784 0.014008912
000360 e1 ef 23 3c 4e e5 fd 3b 0c 5f b4 bc 8c a3 c4 3d
       0.010005922 0.0077482825 -0.022017978 0.096015066
000370 40 c5 df 3c c9 d4 06 3f 73 ce 8f 3d 97 58 ba 3d
       0.027315736 0.52668434 0.07021799 0.090989284
000380 dc 0d e7 be 7e 87 0a be 34 f5 43 be 18 de d8 bc
       -0.4512776 -0.13528249 -0.19136506 -0.02647309
000390 82 41 c5 be ee e7 3c be bc 95 d6 bd e1 1c 00 3e
       -0.3852654 -0.18447849 -0.10477778 0.12511016
0003a0 5c b9 98 3e 8d cd 2b be c2 e2 38 be 15 90 65 bc
       0.29828918 -0.1677763 -0.18055251 -0.014011403
0003b0 15 c9 c1 bd e4 4a 14 be 17 9f fc bd 8d 4c 02 be
       -0.094621815 -0.14481694 -0.123350315 -0.12724514
0003c0 be 8c 0e 3c 14 ef ff 3d f7 64 be 3b e5 67 97 3d
       0.008700548 0.124967724 0.005810376 0.07392863
0003d0 e9 5a 45 bd a4 67 c7 bd 88 62 95 3d b7 7c 85 bd
       -0.0481824 -0.09736565 0.07294184 -0.06517928
0003e0 2a 89 05 be cd cc 31 3d 21 c8 5b bd 35 1d c1 3d
       -0.13040605 0.043408204 -0.053657655 0.09429399
0003f0 f7 36 98 3d 61 8d 4f 3d a2 23 44 3e 14 88 ac bd
       0.07432359 0.05067194 0.19154218 -0.08424392

fc3.bias f4 [32]
000000 1d d1 38 bf 4a 57 3e 3f 96 18 b1 3c f8 e4 91 bf
       -0.7219408 0.7435194 0.021618169 -1.1398001
000010 bc 3b 9e 3f 7d 36 73 bf 60 84 5f bf e1 7d 7c bf
       1.236198 -0.9500502 -0.87311363 -0.98629576
000020 13 97 2c 3e 81 4f 76 be fa 53 24 bf c3 78 9b bf
       0.16854505 -0.24053766 -0.6419064 -1.2146229
000030 d3 a8 b7 bf ee b1 73 bf 76 1e 25 bf db 39 79 be
       -1.4348396 -0.95193374 -0.64499605 -0.24338476
000040 10 39 77 3f a0 bb 82 bf f2 8c 95 bf 81 0d b2 bf
       0.96571445 -1.0213509 -1.1683638 -1.3910371
000050 25 c0 03 3e 3b f3 e0 bf fb 3d b4 bf 4b 50 b5 40
       0.12866266 -1.7574228 -1.4081415 5.6660514
000060 38 76 b1 3f c0 fe 4a be bf 1b 43 bf c5 93 e9 3a
       1.3864202 -0.19823742 -0.7621421 0.0017820528
000070 ea b6 f8 bf 12 43 d0 3e a8 77 16 40 19 93 1b be
       -1.9430821 0.4067617 2.3510532 -0.15192832

in_fn.weight f4 [33]
000000 cd 65 d2 3f 8a 98 d9 3e 22 1b 2e 3e 7a 8b 6e 3e
       1.6437317 0.4249919 0.17002538 0.23295394
000010 62 73 d8 3d 5c 14 9c 3e 49 f9 bc bd 74 9d d8 3c
       0.105688825 0.30484283 -0.09227235 0.026442267
000020 bc e4 e1 3e 23 a8 0b 3f 58 0e c0 bd 7b d0 c2 3e
       0.44119823 0.5455343 -0.09377736 0.38049683
000030 1c a3 6c 3e b2 62 eb 3d 3d a8 da 3e 85 f5 ba 3e
       0.23109096 0.11493434 0.4270648 0.36515442
000040 d1 80 4b 3f c0 f2 98 3e 6f 56 00 3e 4f 35 8e 3e
       0.79493433 0.29872704 0.12532972 0.27775046
000050 d6 e4 7c 3e af 82 5a 3e 26 55 05 3f c7 10 9e 3e
       0.24696669 0.21338914 0.5208305 0.30872175
000060 a7 ea 86 3f 7c d0 96 bd 78 cf ca 3e d4 d4 7f 3e
       1.054036 -0.07363984 0.3961141 0.24983531
000070 0e fa 9a 3f f5 0a 9a 3e db 13 3e 3f 16 28 69 3f
       1.2107561 0.30086485 0.7424905 0.9107679
000080 a0 61 82 3f
       1.0186043

in_fn.bias f4 [33]
000000 19 a6 0a 3f f6 59 0c bd c9 ca 5c bd 56 9b fc bd
       0.54159695 -0.03426548 -0.05390433 -0.123343155
000010 14 ae 66 bd 37 11 d7 3d 4f 2b bf bd be c3 02 be
       -0.056318358 0.1050133 -0.09334432 -0.12769982
000020 fc 21 cb 3c 42 a5 64 3e 68 08 4b bd 0f bc b0 3d
       0.024796478 0.22328666 -0.049568564 0.08629619
000030 57 c4 2a bd 11 51 31 bd 91 d5 b6 3c ea da db 3d
       -0.04169115 -0.0432902 0.022318633 0.10735114
000040 e4 52 cc bd 07 87 21 3e 00 5e 6f b9 f7 5f 05 3e
       -0.09976748 0.15774165 -0.00022827834 0.13024889
000050 0c 05 90 bd 43 c3 81 3d 9b 4b 88 3d 88 47 42 3d
       -0.070322126 0.06336071 0.066550456 0.0474315
000060 ac 06 61 3e 02 64 12 be cf 54 87 3e a4 93 84 bd
       0.21975201 -0.14295962 0.2643189 -0.06473473
000070 49 05 25 3d d3 18 83 bd 1a 08 37 3e 87 df 96 3e
       0.040288243 -0.06401219 0.17874184 0.29467413
000080 b4 f1 37 bd
       -0.04490824

in_fn.running_mean f4 [33]
000000 40 14 10 40 4e 26 de 3b ce ce b5 3b 12 70 b3 3b
       2.251236 0.0067794686 0.0055483347 0.0054760063
000010 e0 1a 8c 3b ff 5a b9 3b 4e 75 90 3b 78 57 4c 3b
       0.0042756647 0.0056565995 0.004408515 0.0031180065
000020 da a1 09 3c 58 af 2a 3c 3e 97 3d 3b 60 2c 3d 3c
       0.008400405 0.010417782 0.0028929259 0.011546224
000030 94 ef a0 3c 5b 4e af 3b fa a7 8c 3c 07 72 36 3c
       0.01964549 0.005349917 0.017169941 0.011135585
000040 a7 03 fd 3c ad 4b d1 3b f5 58 9a 3b cf b1 93 3b
       0.03088553 0.006387195 0.0047103115 0.0045072804
000050 19 c0 ce 3b 28 52 10 3c 93 04 ac 3c 29 54 a1 3b
       0.006309521 0.00880865 0.020998275 0.0049233628
000060 d0 fe bc 3e c4 8f b1 3b fd dd b9 3b e2 2c 49 3c
       0.36913157 0.0054187495 0.005672215 0.012278767
000070 91 97 ce 3d b2 65 10 3c c0 89 66 3d 6c ba e3 3d
       0.10087503 0.008813309 0.056283712 0.111195415
000080 7e c4 f7 3d
       0.12098025

in_fn.running_var f4 [33]
000000 5a 73 d8 40 1e ac dc 3b 4b cf b4 3b 79 67 b2 3b
       6.764081 0.006734385 0.0055178753 0.005444464
000010 31 79 8b 3b 13 3d b8 3b cd ac 8f 3b 6c 9c 4b 3b
       0.0042563905 0.005622515 0.004384613 0.0031068576
000020 09 68 08 3c 81 e0 28 3c 2c 0e 3d 3b de fd 3a 3c
       0.008325585 0.010307432 0.0028847558 0.011413066
000030 4d 4a 9d 3c b8 0f ae 3b 21 11 8a 3c 5d 62 34 3c
       0.019200468 0.0053119324 0.01685387 0.01100978
000040 51 4e f3 3c 69 e9 cf 3b bb 30 99 3b a7 d9 92 3b
       0.02970043 0.0063449633 0.0046749986 0.0044815126
000050 0d 4f cd 3b 74 fe 0e 3c 06 4b a6 3c c7 31 a0 3b
       0.006265527 0.008727659 0.020299446 0.0048887464
000060 fc 46 69 3e 8d 88 b0 3b 60 a4 b8 3b bf 72 46 3c
       0.22780985 0.005387372 0.0056348294 0.012112319
000070 de 47 b9 3d 85 7a 0e 3c ed c6 58 3d 96 5a c6 3d
       0.09046911 0.008696203 0.052924085 0.09685247
000080 20 a1 d6 3d
       0.10479951

fc1.weight f4 [64, 33]
000000 da 3b 0a be 86 b4 a8 bd c2 7f e6 bd dc 54 4b bd
       -0.13499394 -0.08237557 -0.112548366 -0.049641475
000010 9f 3b ba bd f5 5f 48 be 40 fe f1 3e c0 cc 8a 3e
       -0.09093403 -0.19567855 0.4726429 0.27109337
000020 ab 5b d8 3e 34 31 1b bf 89 31 b0 bc 96 6e cf be
       0.42257437 -0.60621953 -0.021507995 -0.40514058
000030 44 87 6e be ef 63 f6 bd 5b 86 07 be af 6f ab 3e
       -0.23293787 -0.120307796 -0.13234846 0.33483645
000040 6f 1f 0f be 56 3b 14 be e2 2d 0e bf 88 0e 9f 3d
       -0.13976835 -0.1447576 -0.5553876 0.077664435
000050 66 40 68 bd 65 a2 c3 be 3c a4 19 3d 8a bf 95 3e
       -0.05670204 -0.38209835 0.03751014 0.29247695
000060 36 0c 98 bd e8 54 a3 be a1 ba b6 3e 32 2f 71 3e
       -0.07424204 -0.31900716 0.35689262 0.2355316
000070 f4 c6 c8 3e b9 b7 80 3d 89 5c b1 bd c0 0b 95 be
       0.3921429 0.06285042 -0.08660228 -0.29110527
000080 43 22 51 be 9a 83 84 be 93 ad 27 be 4b 41 17 3e
       -0.20423226 -0.25881654 -0.16374807 0.14771001
000090 81 44 44 3c 51 27 90 bd 38 af be 3d 1a de df bd
       0.011979223 -0.07038749 0.09310764 -0.109310344
0000a0 fa 3d 14 3b be 5a 15 be 95 d2 0b bc 8f 41 03 3e
       0.0022619949 -0.14585397 -0.008534093 0.12817977
0000b0 ba fb 6a be 77 55 98 bd 59 9d 39 be 4b 84 28 bd
       -0.22947589 -0.07438176 -0.1812643 -0.04114179
0000c0 71 7c 3c be 90 64 a8 3d cb 23 13 bd fd 19 d2 3d
       -0.18406846 0.08222306 -0.035922807 0.10258863
0000d0 e9 b2 a7 be d5 24 66 3e 00 33 99 bd 86 44 1b be
       -0.32753685 0.22474988 -0.074804306 -0.15162858
0000e0 d4 92 81 bd e8 72 0b 3e ee 04 00 3f 83 bc d9 bd
       -0.06326833 0.13618052 0.5000752 -0.10631659
0000f0 84 56 3c bc 86 e6 e8 3d 63 1f 52 3b 54 80 fc bc
       -0.011495236 0.11372094 0.0032062165 -0.03082291
000100 d7 28 db bd 2f 75 f9 3b 90 6f 73 bf 98 13 87 bb
       -0.10701149 0.0076128463 -0.95092106 -0.004122209
000110 16 1f 0e be d2 aa 28 be e4 75 20 3c a8 a6 28 3e
       -0.13879046 -0.16471413 0.009793732 0.16469824
000120 ea c1 7c 3e ca af 50 3a 64 22 d8 3d e1 f6 f7 be
       0.24683347 0.0007960765 0.105534345 -0.4843054
000130 b3 e1 70 3e ea 0f e1 3c 1a 2a 96 be 94 db 48 3e
       0.23523597 0.027473409 -0.29328996 0.19615012
000140 28 21 ed 3a 1a 3f 92 be 26 e4 16 3f 48 8c 09 bf
       0.0018091546 -0.28563768 0.58941877 -0.5372968
000150 8b 57 57 3e 50 53 61 be f6 63 4f 3e da df f0 3d
       0.21029489 -0.22004437 0.20252976 0.11761446
000160 91 7c 23 be dd a9 78 be d7 fa 87 3d 83 69 4d 3c
       -0.15965487 -0.24283548 0.06639641 0.012537363
000170 6b 6e e9 3d 7c 63 12 be 50 16 df 3d 1c ef 86 3d
       0.11398014 -0.14295763 0.10892928 0.06588575
000180 7d 22 80 be dc 07 78 bc 2d f0 46 be fb a0 24 bf
       -0.25026312 -0.015138593 -0.19427557 -0.64308137
000190 fe 32 9f 3e d6 88 28 bd 62 18 e5 bd c0 b7 63 be
       0.3109359 -0.041146122 -0.11186291 -0.22238064
0001a0 5e fd 34 3e 2b ba 3b 3e dd bc 93 3d db d9 14 be
       0.17674777 0.18332736 0.07213757 -0.1453623
0001b0 b5 e2 19 be a3 44 bc 3d 02 82 f5 bd 3b 43 08 3e
       -0.15027888 0.09192779 -0.11987688 0.13306896
0001c0 96 7a dd bd fd 11 35 3e b2 fe 11 3f e0 77 b8 3c
       -0.10814397 0.17682643 0.5702926 0.022518098
0001d0 54 21 ce 3d 07 b4 ba be b7 a4 cb 3d ba 98 b3 3e
       0.100649506 -0.36465475 0.09943526 0.3507746
0001e0 2d ee 4b bc 37 ee e6 bd bf e6 c2 bd be 97 e4 bd
       -0.012446922 -0.112759046 -0.095166676 -0.11161755
0001f0 e6 07 e1 3d 53 a6 c0 be 65 b2 0d 3e fb 7d 19 bd
       0.10987835 -0.37626895 0.13837583 -0.03747366
000200 47 51 76 3d f3 00 0d be 5f 21 86 3d bf bb 12 be
       0.060136106 -0.13769893 0.06549334 -0.14329432
000210 7e fb b6 be 1f 3f d2 bc 37 f3 1c bc 8b bd ba bc
       -0.35738748 -0.025664864 -0.009579471 -0.02279546
000220 af 18 c4 bd 6e 45 d0 bc 5a 05 1d 3e f1 63 04 3e
       -0.095750205 -0.025423732 0.15334073 0.1292875
000230 8a df 44 be fe 50 db bd b8 b5 1b 3d 90 24 12 be
       -0.19225898 -0.107088074 0.038015097 -0.1427176
000240 04 cc 47 3d 78 e2 88 3d 74 6a e7 bb d9 43 b2 bd
       0.04877855 0.066838205 -0.0070622507 -0.08704347
000250 69 69 e2 3e dc d6 0e be 9e b7 c7 bd 97 aa 10 be
       0.44221047 -0.1394915 -0.09751819 -0.14127575
000260 b2 06 d9 3c 2c 58 d1 3c d7 48 8a 3d 39 a2 53 bd
       0.02649245 0.025554739 0.06752174 -0.05166838
000270 29 14 d4 3d fd 30 f5 3d 00 5b 8b be cb 3c 7e 3d
       0.10355408 0.119722344 -0.27217865 0.062069695
000280 1c 02 a0 3d 6f c9 27 3e 54 cb fc bd f4 95 1b 3e
       0.07812902 0.16385435 -0.12343469 0.15193921
000290 6e ac b3 3d de 89 11 bf a2 53 49 3e c9 9f 83 3e
       0.08773123 -0.56850994 0.1966081 0.25707844
0002a0 e3 ff 17 3e 8c 2a f2 3d bf 29 3c bf 09 69 fc 3d
       0.14843707 0.118245214 -0.735012 0.12324721
0002b0 4e 99 6b 3e 80 f3 23 3e 88 96 58 3e 38 7c ed be
       0.230077 0.16010857 0.21151173 -0.46383834
0002c0 f8 3f ca bd 35 31 eb be 58 c6 f5 3e dc b2 9a be
       -0.09875482 -0.4593598 0.48002887 -0.30214584
0002d0 25 92 cc be fb 21 0d bd 3c ee a9 be ad 74 87 3e
       -0.3995525 -0.034456234 -0.3318957 0.26456204
0002e0 c2 38 33 bd 54 19 e5 bd e2 cf 72 be c5 c7 c7 be
       -0.0437553 -0.111864716 -0.23712113 -0.390196
0002f0 44 c5 86 be 11 11 35 be e2 49 bb 3e ae 18 2e be
       -0.26322377 -0.17682292 0.36579806 -0.17001602
000300 3b 15 ff bd 3f 4c 03 bd a6 9d 5a 3d 86 1b a8 be
       -0.12455221 -0.032055136 0.053373 -0.328335
000310 a5 c2 7d be bf 2a b2 be 7a 82 b7 bf a1 57 4e bd
       -0.24781282 -0.34798238 -1.4336693 -0.05037654
000320 6e e2 a3 3d 23 e0 55 3d 7b 1c d7 3d d1 62 cc bc
       0.080021724 0.052215707 0.10503479 -0.024949463
000330 ca 5e 3c 3e 85 6d 83 3d b0 4d 8e be 54 77 11 be
       0.18395534 0.064173736 -0.27793646 -0.14205676
000340 09 fe bb 3c 75 61 cb bd a5 72 e4 bd cb b1 46 3e
       0.022948282 -0.09930698 -0.11154679 0.1940376
000350 df 59 9c 3e 58 32 7e 3e 84 f1 51 3e f6 43 a3 bd
       0.30537316 0.24823892 0.20502287 -0.07971947
000360 40 77 78 3e d4 12 a1 bd 4b 02 a2 3c 56 11 45 bd
       0.2426424 -0.07864919 0.019776484 -0.048112236
000370 42 be 84 3d a5 75 30 bc 1e aa 62 3d 5a fc 99 3d
       0.06481601 -0.010770236 0.055338018 0.07518835
000380 b5 68 4e be 7f 09 d5 3e 8d 7a 64 3d 89 00 2a 3e
       -0.2015713 0.41608807 0.055780936 0.16601767
000390 91 1e b9 bd da 2b 86 bd 8d 83 06 3f ab e7 38 bf
       -0.09039033 -0.06551333 0.5254448 -0.722285
0003a0 78 15 3f be 2e c3 4a bb f4 bd b0 bd 2d e7 d5 bd
       -0.18660533 -0.003093909 -0.08629981 -0.10444484
0003b0 d0 44 99 be 85 44 46 bd 54 cf 5e 3d 07 a6 04 3e
       -0.29935312 -0.04840519 0.054396942 0.1295396
0003c0 ff e0 b6 be e0 22 c6 bd 67 7a 0d bd fd 0f 8e bd
       -0.35718533 -0.09674621 -0.03454056 -0.06936643
0003d0 40 5a 14 3e d6 a3 df 3e e8 8d 98 be 32 94 01 3c
       0.14487553 0.43679684 -0.29795766 0.007908868
0003e0 18 fd d1 bd a5 57 eb ba 9b 93 1c 3f e8 aa 0b be
       -0.10253352 -0.0017955197 0.6116273 -0.13639414
0003f0 57 bc 8e bd e0 c6 2d 3e 7b 40 23 be 40 28 90 bd
       -0.06969517 0.16970396 -0.15942566 -0.07038927

fc1.bias f4 [64]
000000 d2 86 90 be 86 3f ce be 82 48 9c be 53 8e c5 be
       -0.2822786 -0.4028284 -0.3052407 -0.38585147
000010 d9 d4 50 be bb bd c4 3d 43 c0 25 bf 7c 91 a0 be
       -0.20393695 0.09606501 -0.64746493 -0.31360996
000020 3c ab 8d bd 4c 64 fa be c2 b0 45 3e 02 c8 92 be
       -0.06917426 -0.48904645 0.19305709 -0.2866822
000030 63 3a 7b be d3 b9 3f bf b5 38 ca be 72 d1 1c be
       -0.24533992 -0.7489292 -0.3949639 -0.15314272
000040 1e 2a 41 bf aa d7 15 be cf 60 d0 be f5 22 58 3e
       -0.7545489 -0.1463305 -0.4069886 0.21107085
000050 0e 2a 5b be c2 af 5d be cf 3c 2b bf 4a fb a8 be
       -0.21402761 -0.21649078 -0.6688966 -0.33004218
000060 2e 4b 2f bf 86 2b 39 bf a1 09 ed be dd cb 36 bf
       -0.6847409 -0.72332036 -0.4629641 -0.7140482
000070 3f 74 2b bf ae 51 13 3d 65 14 ee be 40 28 80 be
       -0.6697425 0.035966568 -0.46499935 -0.25030708
000080 4f 19 59 be ba f0 b9 be 57 84 e8 be 64 04 1a bf
       -0.2120106 -0.36316472 -0.45413467 -0.6016295
000090 26 b7 ad be 2e b9 c1 bd 84 90 07 bf f4 27 a9 be
       -0.33928794 -0.09459148 -0.5295489 -0.33038294
0000a0 f5 fe 91 bd 30 66 50 bf fa d9 e5 3d e0 71 44 be
       -0.07128707 -0.81405926 0.11223216 -0.19184065
0000b0 18 40 b3 bd b5 05 f0 3c 92 30 c2 3e 02 40 ce be
       -0.08752459 0.029299596 0.3792768 -0.4028321
0000c0 d0 fb a2 bf 39 01 46 bf 8a 00 36 be 4b 27 40 bf
       -1.2733097 -0.77345616 -0.17773643 -0.75059956
0000d0 09 a5 68 bf 21 ca 0d bf 40 84 bc be fa ba 89 be
       -0.90876824 -0.5538655 -0.3681965 -0.26900464
0000e0 db 10 36 bf a7 10 07 bf ac 82 a9 be c0 d9 7a be
       -0.7111947 -0.52759784 -0.33107507 -0.24497128
0000f0 cf 20 80 bf 9c 9c 61 bf 0f 3a 67 be 43 31 05 be
       -1.0010012 -0.8812959 -0.22580741 -0.13007073

fc2.weight f4 [64, 64]
000000 46 73 05 be 24 5f a0 bc 87 ec 83 bd 44 39 38 be
       -0.13032255 -0.019576617 -0.064415984 -0.17990595
000010 0f b5 c9 3c 9a 4b 3b 3c 97 26 84 3c 8c 06 e6 3d
       0.024622468 0.011431599 0.016131682 0.112317175
000020 61 c7 fd bc de f4 5b bd e3 ca ff bd fe bc ed bd
       -0.03097886 -0.05370032 -0.124898694 -0.11608313
000030 8a d1 d4 bd 88 76 eb bd 84 3e 75 3c 9d f4 f7 bd
       -0.10391529 -0.114972174 0.014968518 -0.12107203
000040 0f d4 84 bc 10 5a 2a 3d 64 d0 ac bc bc a1 89 bd
       -0.016214399 0.041589797 -0.021095462 -0.067203015
000050 5a 59 bf bb 25 ee 30 be 98 5e f0 bd d4 b0 20 3b
       -0.005839509 -0.17278345 -0.11736792 0.002451946
000060 11 7b c7 bd 14 57 e2 bd ac 38 81 bd 52 3e 25 be
       -0.0974027 -0.11051765 -0.063096374 -0.16137055
000070 69 d7 3a bd 39 f3 3f be c4 d3 7e bd ec b4 01 be
       -0.045615587 -0.18745126 -0.062213674 -0.12666672
000080 91 45 0e be d0 af 66 3d 70 e2 a0 bd b0 6e 01 3d
       -0.13893725 0.05632001 -0.078556895 0.0315997
000090 7b 6f 11 bc 8f ac 09 bd 01 88 b5 bd d3 61 d7 3d
       -0.008876677 -0.03361183 -0.08863831 0.10516705
0000a0 e3 4f fa bd 04 b3 27 bb 91 21 3f bd 44 19 3d 3d
       -0.122222684 -0.002558888 -0.04666287 0.046166673
0000b0 50 9d 78 3d 83 db a4 bd 8b 8b 0a bb 78 e7 78 3d
       0.0606969 -0.08049681 -0.0021140303 0.06076762
0000c0 fb c0 d3 bd e9 ce 14 bc 68 96 be 3a 50 ce 1d 3d
       -0.103395425 -0.009082534 0.0014540674 0.038526833
0000d0 8d 3b 14 be d9 b6 8d bd f1 6d ff bb 1d 9a fa bd
       -0.14475842 -0.06919641 -0.0077950885 -0.12236426
0000e0 27 e0 02 3e 18 e4 3e bd ee 1f d8 3b 1f 63 dd bd
       0.1278082 -0.046604246 0.006595603 -0.108099215
0000f0 f6 ca 81 bd 33 a7 0f be c7 c3 07 3e 27 8a da 3c
       -0.0633754 -0.14028625 0.13258277 0.026677204
000100 50 d9 d9 be 1d e6 51 bd c1 79 fc 3d d4 9f 38 3d
       -0.4254861 -0.051244844 0.1232791 0.0450743
000110 f0 85 e0 bc 26 63 a2 3d 1e fa d5 3e 11 b8 d1 bd
       -0.027407616 0.07929067 0.41792387 -0.10240186
000120 c6 3c 0c be e6 bc e0 bd a7 a5 24 3e 64 17 bf bd
       -0.13695058 -0.109735295 0.16078816 -0.09330633
000130 bc c4 b0 3d 02 3e ed bc 67 a2 8c be 36 86 f6 bc
       0.08631274 -0.028960232 -0.27467653 -0.030093294
000140 73 40 9e be 32 1f c9 bb 3d 4e 6f be 08 28 50 be
       -0.30908546 -0.006137752 -0.2336969 -0.2032777
000150 b7 93 e4 bb 62 da a6 3d 77 cc 81 be af a7 ae 3c
       -0.006975617 0.08147122 -0.25351307 0.021320192
000160 20 9b 6b be 3b e7 c0 bd f8 f5 6b be b7 9b 20 3e
       -0.23008394 -0.09419104 -0.23043048 0.156844
000170 fd 20 59 be f8 69 c8 3d 64 7b 4d be f4 00 6a be
       -0.2120399 0.09785837 -0.20066601 -0.22851926
000180 16 d3 21 bf 3f 0c b0 be 54 7a 12 3d 39 47 c3 be
       -0.63212717 -0.34384343 0.035761192 -0.38140276
000190 30 b7 f1 be 58 50 cd bc 9d a7 01 be 71 ae d1 bc
       -0.47210073 -0.025062725 -0.12661596 -0.025595875
0001a0 82 73 3c 3c 7c 24 57 bc 5b 3a ac be c3 e5 db bc
       0.011502149 -0.013131257 -0.33638272 -0.026842957
0001b0 71 f8 c1 be e3 af 3d be 34 77 fc be 54 95 ca be
       -0.37884858 -0.18524127 -0.49309695 -0.39567053
0001c0 6c fa 4b be 14 81 fb be 0d 8c 30 be 8f ab c6 bd
       -0.19919747 -0.49121916 -0.17240925 -0.09700691
0001d0 6d cf 94 be 76 b4 b1 bd d4 c9 e0 3e 08 08 19 ba
       -0.29064503 -0.08676998 0.43903983 -0.00058376836
0001e0 f5 95 bb be 81 11 7b 3d 01 1b ba be 33 38 34 be
       -0.36637846 0.06129599 -0.36348727 -0.17599563
0001f0 72 47 50 be 1e f7 90 be aa b2 bf 3d 34 ed b9 bd
       -0.20339754 -0.28313535 0.09360249 -0.09078446
000200 60 84 6a be 56 5a 4f be 6c 32 ca be 0c 2f 1f 3e
       -0.2290206 -0.20249304 -0.39491594 0.1554529
000210 b0 aa 03 3c f9 6b b0 bd 28 56 05 be 8e 66 e9 bd
       0.008036301 -0.08614344 -0.13021147 -0.11396514
000220 3b 0e 6e be c2 bd 5b 3d b2 82 85 be 0b a1 41 be
       -0.23247616 0.053647764 -0.26076275 -0.1890909
000230 e1 25 da 3b 6d 3b 8e be 61 6e 88 be a1 fe 81 be
       0.0066573475 -0.27779713 -0.26646712 -0.2538958
000240 55 07 f2 3d 33 d7 bf be 14 98 18 bd fc 6b 5d bd
       0.11817805 -0.3746887 -0.037254408 -0.05405806
000250 ff 42 2a be 37 f1 11 be 7d 75 5d be d0 c3 38 be
       -0.1662712 -0.14252172 -0.2162685 -0.18043447
000260 1f 8e cb be c2 05 5d bc 7b eb 7f bc 22 b6 18 bd
       -0.39756867 -0.013490142 -0.015620108 -0.03728307
000270 60 66 31 3c ec d2 12 be 33 3f a8 bd 0c ab 72 be
       0.010827631 -0.14338273 -0.08215179 -0.23698062
000280 cf d9 57 3d d9 1b fb bd 55 39 ae 3d f1 a7 1e bd
       0.052697953 -0.12261171 0.08507029 -0.03873438
000290 85 d7 06 3e 72 a6 71 be 9f 06 2b bd 88 6c 0a be
       0.13168152 -0.2359865 -0.04175436 -0.13517964
0002a0 f0 d5 9e be 58 b7 7b 3d 57 31 78 bc c2 4f 08 be
       -0.31022596 0.061454147 -0.015148482 -0.13311675
0002b0 71 cd b1 3d dc fd 64 be 15 7b 3e be a3 83 82 be
       0.08681763 -0.22362465 -0.1860164 -0.25491056
0002c0 1d 76 80 bd 25 5a 4a bd 7c ff 6a be 04 67 c0 ba
       -0.06272528 -0.049402375 -0.22949022 -0.0014679139
0002d0 db d7 34 be 8a 15 b7 3d 4d 12 5a be 1a b9 0a 3b
       -0.17660467 0.08939655 -0.21296044 0.0021167458
0002e0 a0 82 c4 be 4c 97 ac 3c 74 8a a2 be 91 64 a9 3d
       -0.3838091 0.021068238 -0.31746256 0.08271135
0002f0 ca 95 d4 3d fb e1 1c be 5a 85 6c be 0a 7e 65 bd
       0.103801325 -0.1532058 -0.23097745 -0.056028403
000300 65 df 9c bd 43 0d 4b bd 6d ff 25 be ab 3e a7 3d
       -0.076597966 -0.049573194 -0.16210718 0.0816625
000310 8d f2 4c bd 3a a1 82 3c 8d 7c a4 be ed 2d bd bd
       -0.050036002 0.01594602 -0.32126275 -0.09237275
000320 86 94 4e bd 73 19 01 3d 9e 8e 63 3c 22 b9 5e be
       -0.05043461 0.03151841 0.013888983 -0.2175031
000330 b4 aa 22 be c6 7c 27 be 9a 16 1c be bd 01 a3 bc
       -0.1588543 -0.16356191 -0.15242997 -0.01989829
000340 f2 4b 3e be ac 08 91 bd 13 2a bd 3d 60 c9 34 be
       -0.18583658 -0.07081732 0.09236541 -0.17654943
000350 32 f1 62 be 54 65 0a bd de 2a cc bd 18 6c 16 be
       -0.22162321 -0.03378804 -0.09969114 -0.14689672
000360 12 37 6c be b3 41 8e bd 10 64 09 be 5f c8 d9 bc
       -0.23067883 -0.06946125 -0.13417077 -0.026584802
000370 73 66 40 3d 76 a9 02 bd a6 5e 9d 3a 2d 27 9a bd
       0.046972703 -0.03189989 0.0012006357 -0.075270034
000380 65 49 ea bd 6f ce 80 bc 51 45 9d 3c 24 09 d3 bc
       -0.1143978 -0.015723435 0.019198092 -0.025761195
000390 c8 f3 33 be a7 eb 99 3c a8 8e 27 be 40 69 e2 3d
       -0.17573464 0.018789126 -0.16363013 0.11055231
0003a0 51 c4 45 be 73 75 7a bd 90 c2 67 bd e7 f0 6e bd
       -0.1931317 -0.061147165 -0.056582034 -0.05833521
0003b0 96 2a 41 be 7d c5 36 be 98 69 65 bd 60 c1 d6 bd
       -0.18863901 -0.17848773 -0.056008905 -0.10486102
0003c0 75 a1 01 bd f3 26 dc 3c 40 a8 2d 3d 3a 94 8f bd
       -0.031648118 0.026874041 0.042396784 -0.07010694
0003d0 f3 a2 02 3d 56 47 ce bd 8f e9 f7 bc 14 85 73 bc
       0.03189368 -0.100722 -0.030262737 -0.014863271
0003e0 c4 71 ec 3c c2 00 83 3d 07 fe 61 be 40 24 e7 bc
       0.028862841 0.06396629 -0.2206956 -0.028215528
0003f0 bd b1 5c bb 7c f4 cb bd a8 62 d3 3c 3d fe 82 3b
       -0.0033675276 -0.09958741 0.025803879 0.0039975927

fc2.bias f4 [64]
000000 ff 22 b7 bd 8c 15 82 3e f2 ab e2 3c 2a 86 a5 bd
       -0.08942222 0.25407064 0.02766988 -0.080822304
000010 c6 05 bc be 54 bb 7e bb 87 9f 50 bd 8e fa 9c 3e
       -0.36723155 -0.003886898 -0.050933387 0.30659908
000020 40 23 54 3d f6 64 37 be fc b9 41 3c d0 46 fb ba
       0.05179143 -0.17909607 0.011824127 -0.0019170884
000030 09 e0 68 bd c4 71 ca bd 8d c0 23 be 1d 0c 20 be
       -0.05685428 -0.0988498 -0.15991421 -0.15629621
000040 c9 dd fd bb 07 99 d8 3d 5a a8 52 bd 9f b9 3f be
       -0.007747386 0.10576063 -0.051430084 -0.18723153
000050 f7 24 8e be 1e 7d 61 3f c3 66 2b be f6 5b 0e be
       -0.27762577 0.8808154 -0.16738419 -0.13902268
000060 0b 03 42 3f 30 1d 21 bd f3 a2 e5 bd 16 f1 c2 be
       0.75785893 -0.039334476 -0.11212721 -0.3807456
000070 7c d4 cc 3c f5 df 04 be 0f 32 f0 bd fa b3 66 be
       0.025003664 -0.12976058 -0.11728298 -0.22529593
000080 09 cc c9 3b 3d 29 39 3d 27 67 19 be e9 fa 1b be
       0.006158356 0.045205344 -0.14980756 -0.15232433
000090 ae 5e 61 bd be 62 54 be a3 4b 7b bd ea e3 dd bd
       -0.055021934 -0.20740792 -0.06135143 -0.10834487
0000a0 c4 e8 29 bf 6b cf b1 3c e6 61 1a 3d 4d e9 ca bd
       -0.663708 0.02170535 0.03769102 -0.0990778
0000b0 53 18 d5 bd e8 f5 3f bd 2a ff 31 3e 41 04 d6 3e
       -0.1040503 -0.046865374 0.17382494 0.4180012
0000c0 1a ba e2 bc f3 b8 21 bd a4 cd c0 3b 84 af 94 bd
       -0.02767663 -0.039483022 0.0058838893 -0.072600394
0000d0 a4 a2 33 be 3f 1e 73 bd 59 e1 55 be 24 dd e9 bd
       -0.17542511 -0.059355017 -0.20886745 -0.11419132
0000e0 ad e9 03 be ab c3 10 bf ff b0 3d be 96 79 fd bd
       -0.12882109 -0.56548566 -0.1852455 -0.12376706
0000f0 54 02 86 bc 79 e1 fa 3e 03 9e a0 bd db 11 6a 3c
       -0.016358532 0.49000147 -0.07842638 0.014286484

fc3.weight f4 [1, 64]
000000 84 2a 0c bb b4 77 70 3e 2b 0d d8 3b 34 01 b1 3c
       -0.0021387646 0.23483163 0.0065933666 0.021607019
000010 e6 16 61 bd d8 3b 85 bc 8b 32 be bb 47 80 6a bd
       -0.05495348 -0.016263887 -0.005804365 -0.05725124
000020 88 7a 0e 3d 65 a5 83 bd ba c5 4a 3c 00 7e 46 bc
       0.034784824 -0.06428031 0.012376243 -0.012115002
000030 e8 43 8a bb 27 e1 db 3d 75 3b 01 3d a1 0e da 3c
       -0.004219521 0.10736304 0.031550843 0.026618304
000040 74 26 bb 3b 61 28 49 3c f9 62 91 bb 29 35 5a 3c
       0.005711371 0.0122776935 -0.0044368473 0.013318338
000050 d4 75 82 bd 0f 0c f6 bd 5c bd 87 3d 72 eb 91 3c
       -0.0637013 -0.12014019 0.06627914 0.017812464
000060 72 3f 0c be d1 8b 44 bb cf c6 92 bb 10 11 5b 3a
       -0.13696077 -0.0029990564 -0.0044792662 0.00083567295
000070 f9 52 05 bc 8b e2 1d 3b 4b 28 f0 bb c6 03 a0 ba
       -0.008137458 0.002409133 -0.007329022 -0.0012208156
000080 6a 51 54 bc ae 8f d5 bc e2 03 4e bb 8b 4e ca 3d
       -0.012958864 -0.026069488 -0.003143542 0.09878262
000090 89 8b 35 bb b7 33 63 bd 33 56 15 bc d0 aa 94 bb
       -0.0027701578 -0.05546924 -0.00911479 -0.004536964
0000a0 51 a2 b9 bd b0 1a 28 3d 37 82 78 bb ff 0c 6d 3b
       -0.090641625 0.041041076 -0.003791941 0.0036171076
0000b0 b9 1d 70 3e 33 86 2a 3c fe 3a 32 bb 7d 28 b9 3d
       0.23448838 0.010407972 -0.0027195807 0.09040926
0000c0 07 e0 e3 3a 19 fb 4a 3b 99 0f 3c bc 84 db 23 3c
       0.0017385491 0.003097242 -0.011478328 0.010001067
0000d0 14 de ae ba dd 30 ef 3b 4a a9 01 3c 4a 0c 05 bd
       -0.0013341331 0.007299526 0.007913897 -0.032482423
0000e0 91 14 36 bc 18 f5 82 3d 46 f6 17 bc ee 62 5a 3d
       -0.011113302 0.06394404 -0.009275025 0.053317003
0000f0 60 50 c4 bd a8 0c 38 bd a7 60 75 3d 5a 28 0c 3b
       -0.09585643 -0.044933945 0.059906628 0.0021386356

fc1.weight f4 [64, 1]
000000 26 52 9c 3f ef 4c d5 be 7b 57 55 be a0 36 86 3e
       1.221257 -0.41660258 -0.20834152 0.2621355
000010 90 fc 64 bf 22 13 b6 3f da bb 15 bf b9 e7 b5 bc
       -0.8944788 1.4224589 -0.58489764 -0.02220522
000020 6e 7d f6 bd db dc 39 3f 9a 30 8d be 83 17 a2 be
       -0.120356426 0.72602624 -0.27576143 -0.31658563
000030 78 fe 49 bc 3c 5d ec be 30 51 95 bd a5 a5 af be
       -0.0123287365 -0.46164882 -0.07290876 -0.34306064
000040 30 6c 14 3e 00 e7 82 bb f1 f5 5d bc f2 8d 1d 3f
       0.14494395 -0.0039948225 -0.0135474065 0.61544716
000050 48 17 a0 bf 36 9d 1a bf 70 a3 2b be 8a 18 98 bf
       -1.2507105 -0.60396135 -0.16761565 -1.1882489
000060 33 ad 91 be 30 32 02 bf ba 78 85 3d 4b bd b7 3f
       -0.28452453 -0.5085783 0.065171674 1.4354643
000070 f1 79 c3 bf 7d 45 fd bd d2 1c 3b 3f 1e ad 25 3f
       -1.5271589 -0.123667695 0.7309085 0.6471728
000080 9c c0 99 be fa 44 73 bf b0 04 60 bf 7c b3 e7 be
       -0.30029762 -0.95027125 -0.8750715 -0.45254123
000090 86 9d f8 3e 15 91 2a be e4 2e 38 bd 91 47 7b bf
       0.4855768 -0.16656907 -0.044966593 -0.98156077
0000a0 56 9c 96 3f 5c a0 d8 be cc 6b c2 3e 59 03 38 be
       1.176646 -0.42309844 0.37972867 -0.17970027
0000b0 2e 9c 90 bf 08 fc 8c bd 22 f3 03 bf 7b 44 f6 bd
       -1.1297662 -0.06884009 -0.51542866 -0.1202478
0000c0 bb 6c b5 be 00 88 e0 bd c4 d5 83 bf e6 f6 85 bf
       -0.35434517 -0.1096344 -1.0299611 -1.0465972
0000d0 ff b9 61 3d 82 fa d1 be f7 23 be 3f f5 bd bb 3f
       0.05510902 -0.41011435 1.4854726 1.4667345
0000e0 20 ca 3f bd 94 20 ba bf 03 04 88 3e 5b 40 3e 3f
       -0.04682362 -1.4541192 0.2656556 0.7431695
0000f0 c6 a2 b5 bf 8a a7 9b 3f ca 5f c8 3f 00 ab 52 3f
       -1.41903 1.2160504 1.5654233 0.82292175

fc1.bias f4 [64]
000000 ba 4c a2 be 5d a8 a0 be df 1a 02 be af 29 2d 3f
       -0.31699163 -0.3137845 -0.12705563 0.6764173
000010 4f b2 4e bf 2f f2 79 be d8 58 a4 be 94 8a b1 bc
       -0.8074083 -0.24408792 -0.32099032 -0.021672525
000020 66 fb 9e bd 5c b9 e8 be 56 26 17 be 48 ab bf bc
       -0.07762794 -0.45453918 -0.14760718 -0.023397103
000030 93 c9 8c 3d 08 c6 95 be ae 15 6d bf 5b 8e 41 be
       0.06874385 -0.29252648 -0.92611206 -0.1890196
000040 e2 ff 33 bf 83 27 41 bf 88 5c 3c 3e 6f 6d c2 be
       -0.7031232 -0.75450915 0.18394673 -0.37974116
000050 8b 7a b8 bc 3c 42 14 bf 52 94 63 bf 2e 3b a3 bd
       -0.02251937 -0.57913566 -0.88898194 -0.07970272
000060 54 17 5e be c8 29 e8 3d 73 ca f3 3d 3f 22 9d be
       -0.21688586 0.11336094 0.119038485 -0.3069019
000070 6f 69 cd bd d8 dc 46 3e 40 64 cf be d8 cb c0 be
       -0.100298755 0.19420183 -0.40506172 -0.3765552
000080 a7 b7 93 bd 61 1c c1 bd 1b 24 03 bf d9 7c af be
       -0.07212763 -0.09429241 -0.5122697 -0.3427494
000090 a4 8a 08 3f 38 76 3d be 4f bc 53 3e 80 4e f5 bd
       0.5333655 -0.18502128 0.20677303 -0.11977863
0000a0 6b a8 fe be c0 b5 59 bf 16 6d 22 3f de e1 ca bd
       -0.49737868 -0.85042953 0.634477 -0.09906362
0000b0 76 65 b2 3b 5e c5 32 bd 3c f6 9f be cb 35 4c 3e
       0.005444224 -0.043645255 -0.3124255 0.19942395
0000c0 19 38 7d 3e 72 e0 29 bf b0 08 a2 bd b4 6c bf bd
       0.24728431 -0.663581 -0.07911813 -0.09346905
0000d0 e0 97 a8 3e 7e 64 61 be cc 51 dc be d3 1e d6 be
       0.3292837 -0.22010991 -0.43031156 -0.41820392
0000e0 50 d2 1a bf 49 4f 9e bd d6 04 17 3f 7d e3 96 be
       -0.6047716 -0.07729966 0.58991754 -0.29470435
0000f0 cb b7 d2 bd 8c 26 a2 be 97 ab cb be 72 a7 0a be
       -0.10288962 -0.31670034 -0.3977935 -0.13540438
