maddpg_pytorch/models/cache_data/model/run50/incremental/model_ep7001.pt (torch, 690099 bytes, 168 tensors)

fc1.weight f4 [64, 1]
0	0x3f53d0b5	0.82740337
1	0xbed54c8a	-0.41659957
2	0xbe555717	-0.20834003
3	0x3f0584d1	0.52155787
4	0xbf64fc67	-0.89447635
5	0x3fade782	1.3586276
6	0xbf05959d	-0.52181417
7	0xbcb5ed7d	-0.02220797
8	0xbdf67d99	-0.120356746
9	0x3f1efb9d	0.6210268
10	0xbe831877	-0.25604603
11	0xbe6c9a6f	-0.23105787
12	0x3c8f5316	0.017495673
13	0xbeec5d03	-0.46164712
14	0xbd955130	-0.07290876
15	0xbea57fe1	-0.32324126
16	0x3e146c30	0.14494395
17	0xbb82e700	-0.0039948225
18	0x3c5a5cfe	0.013327835
19	0x3ef5c5eb	0.48002562
20	0xbf87c9b3	-1.0608429
21	0xbf1a9d36	-0.60396135
22	0xbe2ba370	-0.16761565
23	0xbf81414e	-1.0098054
24	0xbe91ad05	-0.28452316
25	0xbe9f0c9b	-0.31064305
26	0x3caf4c04	0.021398552
27	0x3fa13768	1.2595034
28	0xbfae4a3c	-1.3616405
29	0x3ca91260	0.020638645
30	0x3f320d2f	0.69551367
31	0x3efa156f	0.48844478
32	0xbe69dd4e	-0.22838327
33	0xbf19032e	-0.59770477
34	0xbf6d4102	-0.9267732
35	0xbee7b346	-0.45253962
36	0x3f08179a	0.53161013
37	0xbe2a9110	-0.166569
38	0x3dce4136	0.10071032
39	0xbf14a1fd	-0.58059675
40	0x3f5d37b3	0.86413115
41	0xbed8a05c	-0.42309844
42	0x3ef9c57c	0.4878348
43	0xbe3270b1	-0.17425801
44	0xbf775936	-0.966205
45	0xbd8cfc67	-0.068840794
46	0xbf279a22	-0.65469563
47	0x3d49d34e	0.04927378
48	0xbe35186a	-0.17685094
49	0xbde08800	-0.1096344
50	0xbf4dc5d0	-0.8037996
51	0xbf5e6951	-0.8687945
52	0x3e564efe	0.2092857
53	0xbec265f6	-0.37968415
54	0x3fb212ac	1.3911948
55	0x3fadd076	1.3579242
56	0xbd3fca20	-0.04682362
57	0xbfa665c8	-1.2999811
58	0x3ec468fc	0.38361347
59	0x3f048bc6	0.5177578
60	0xbf9ea7e5	-1.2394987
61	0x3f504dd5	0.8136876
62	0x3fbf7aa2	1.49593
63	0x3f2126a0	0.6294956

fc1.bias f4 [64]
0	0xbf317e30	-0.6933317
1	0xbea0a89d	-0.31378642
2	0xbe021b2d	-0.12705679
3	0x3f17aa2d	0.5924404
4	0xbf4eb274	-0.8074105
5	0xbe05f714	-0.13082534
6	0xbeb5328b	-0.35390124
7	0xbcb19081	-0.02167535
8	0xbd9efcca	-0.077630594
9	0xbf4cb5a0	-0.7996464
10	0xbe327544	-0.17427546
11	0x3d85519c	0.065097064
12	0xbd8b5d1f	-0.06804871
13	0xbe95c611	-0.29252675
14	0xbf6d15ae	-0.92611206
15	0xbe5b2ada	-0.21403065
16	0xbf33ffe2	-0.7031232
17	0xbf412780	-0.754509
18	0xbd528c9b	-0.051403623
19	0xbf2ecda2	-0.6828252
20	0xbd854eb1	-0.0650915
21	0xbf14423c	-0.57913566
22	0xbf639452	-0.88898194
23	0xbcabe510	-0.020983249
24	0xbe5e1763	-0.21688609
25	0x3dc2b7fd	0.09507749
26	0xbd8424ef	-0.06452357
27	0xbea939f3	-0.33052024
28	0xbbb2317e	-0.005438029
29	0x3d9f6d82	0.07784559
30	0xbf357f4c	-0.70897365
31	0xbf3baeaf	-0.7331342
32	0x3cd8adab	0.026449999
33	0xbec0d21b	-0.37660298
34	0xbee58f2f	-0.44835803
35	0xbeaf7d15	-0.34275118
36	0x3eadd1b0	0.3394904
37	0xbe3d7638	-0.18502128
38	0x3da2b965	0.079455175
39	0xbec9221a	-0.3928383
40	0xbf809a0a	-1.0047009
41	0xbf59b5c0	-0.85042953
42	0x3eeee544	0.4665929
43	0xbde608ae	-0.11232124
44	0xbd13db6f	-0.03609794
45	0xbd32c7f0	-0.043647707
46	0xbe47c57e	-0.19508931
47	0x3ddd6b7b	0.10811516
48	0x3df5a463	0.11994245
49	0xbf29e072	-0.663581
50	0x3c838269	0.016053395
51	0xbd5ddc6c	-0.05416529
52	0x3e4cb002	0.19989017
53	0xbe84f3b8	-0.25967193
54	0xbef5809f	-0.47949693
55	0xbeea0f20	-0.45714664
56	0xbf1ad250	-0.6047716
57	0x3dc5a598	0.09650725
58	0x3ee62e7a	0.44957334
59	0xbf07933c	-0.52959037
60	0xbd05ac4f	-0.03263503
61	0xbf289a4c	-0.6586044
62	0xbea68228	-0.32521176
63	0xbc85ce92	-0.016333852

fc2.weight f4 [64, 64]
0	0x3ccb82dd	0.024842674
1	0x3f69a88d	0.91272813
2	0x3e1e51da	0.15460911
3	0xbe336279	-0.17518033
4	0x3df37a3f	0.11888551
5	0x3c7858df	0.015157907
6	0x3e1014bf	0.14070414
7	0xbfab2a7b	-1.3372339
8	0x3bc727c6	0.0060777394
9	0xbeb36651	-0.35039
10	0xbeea39f6	-0.45747346
11	0x3e87c122	0.26514536
12	0xbf01c4ee	-0.50691116
13	0x3ecfeede	0.4061193
14	0xbd9cea70	-0.07661903
15	0x3e1be950	0.1522572
16	0x3d1e7530	0.038685977
17	0xbce7dea8	-0.028304413
18	0xbf7d1ead	-0.9887493
19	0xbf25fe02	-0.6484071
20	0x3f01ee56	0.50754297
21	0x3dac66ce	0.08418046
22	0xbd2d63e4	-0.04233159
23	0x3f0a2c4c	0.5397384
24	0x3d21c467	0.039493944
25	0x3df80a3a	0.121113256
26	0xbf54b2f8	-0.83085585
27	0xbe0b2f4b	-0.1359226
28	0x3effcf42	0.49962813
29	0xbf3d4988	-0.73940325
30	0x3db6021a	0.088871196
31	0xbf0c3001	-0.5476075
32	0xbef4eba1	-0.4783602
33	0x3ed5ebe2	0.41781527
34	0x3e131cdc	0.14366478
35	0x3de1290c	0.10994157
36	0xbf3117b3	-0.6917679
37	0x3cde04c0	0.027101874
38	0xbeea71b3	-0.4578987
39	0x3dbe58c1	0.09294272
40	0xbef49118	-0.47766948
41	0xbd695980	-0.05697012
42	0xbee8f81f	-0.455018
43	0x3ed25f16	0.4108817
44	0x3ed6450f	0.41849563
45	0xbf119ccb	-0.5687987
46	0x3f108c9f	0.5646457
47	0xbdfec0c3	-0.1243911
48	0x3e6c968f	0.23104309
49	0x3b826e60	0.003980443
50	0x3f038d8c	0.5138786
51	0x3ef83bbd	0.48483077
52	0xbede5707	-0.43425772
53	0x3d870828	0.065933526
54	0xbe6346cf	-0.2219498
55	0xbe0d3d96	-0.13793024
56	0xbda51dec	-0.08062348
57	0x3f1c652b	0.6109187
58	0xbed9bf96	-0.4252898
59	0xbdc78c2e	-0.09743534
60	0x3ef25646	0.47331446
61	0xbe610e10	-0.2197802
62	0x3d373318	0.04472646
63	0xbfd120e0	-1.6338158
64	0xbe8f462c	-0.27983224
65	0x3d22400e	0.03961187
66	0x3e313708	0.17306149
67	0xbeb44a1b	-0.35212788
68	0xbcc288db	-0.023746898
69	0xbe1434ce	-0.14473268
70	0x3e65df8a	0.22448555
71	0xbe9fde10	-0.31224108
72	0x3cf30aac	0.029668175
73	0xbd7e364d	-0.062063504
74	0xbbb63afd	-0.005561231
75	0x3ce8dc78	0.02842544
76	0xbd36d682	-0.044638164
77	0x3de7329b	0.11288949
78	0xbc1f80f0	-0.009735331
79	0x3db49725	0.08817891
80	0x3cae1308	0.02124931
81	0x3d715ad4	0.05892451
82	0xbe50fa87	-0.20408069
83	0xbe47a624	-0.19496971
84	0xbd2ac9d3	-0.04169638
85	0x3dba816e	0.09106718
86	0x3ddf327a	0.108982995
87	0x3e387eec	0.18017167
88	0x3e01d52d	0.12678976
89	0xbe1334a7	-0.14375554
90	0xbe647fe0	-0.22314405
91	0xbdedbe0f	-0.116085164
92	0xbd95cdd9	-0.07314653
93	0xbdeb60e6	-0.11493091
94	0xbebd215f	-0.36939523
95	0xbe9c2cab	-0.3050283
96	0xbe1f8233	-0.15577011
97	0xbcd6c22e	-0.026215639
98	0xbc1f3df9	-0.009719365
99	0x3dda0881	0.10646153
100	0xbd15c096	-0.036560617
101	0x3df21d0c	0.118219465
102	0xbe117caf	-0.1420772
103	0xbc5b3e4d	-0.013381553
104	0xbdc6ffb3	-0.097167395
105	0xbcda2388	-0.02662827
106	0xbe34dfe2	-0.1766353
107	0x3d5d78ee	0.054070406
108	0xbcb877a4	-0.022517987
109	0xbdf5829d	-0.11987803
110	0x3e2722f1	0.16321923
111	0xbe46f39c	-0.19428867
112	0xbd12e5f3	-0.035863828
113	0xbc3365c0	-0.010949552
114	0x3d8493d7	0.06473511
115	0x3d960fcd	0.073272325
116	0xbe3d17f5	-0.1846617
117	0x3d9fa32a	0.07794793
118	0xbeaaa056	-0.33325452
119	0xbe9e196f	-0.3087878
120	0xbdaa6a9e	-0.08321117
121	0x3e049668	0.12948
122	0xbc220db0	-0.009890959
123	0xbeb2eda6	-0.34946936
124	0x3d805f61	0.06268192
125	0xbe2c0e08	-0.16802227
126	0xbe5550e6	-0.20831642
127	0xbe8ed89c	-0.27899635
128	0xbe1d225a	-0.15345135
129	0x3dc4d489	0.0961085
130	0x3d477499	0.04869518
131	0xbe87e55d	-0.26542178
132	0x3d80f70c	0.062971205
133	0xbdf74b75	-0.12074939
134	0x3d1cd480	0.038288593
135	0xbdd063d1	-0.101752885
136	0x3d4cbeb7	0.049986567
137	0xbe4539c5	-0.19260319
138	0xbd2b2e11	-0.04179198
139	0x3d2f6806	0.042823814
140	0xbbd77993	-0.006575772
141	0x3c47c8a5	0.0121938335
142	0x3d10ced4	0.035353497
143	0x3e23b1b4	0.15985757
144	0x3cf39108	0.029732242
145	0x3dd45504	0.10367778
146	0xbe92019c	-0.28516853
147	0xbe9459d2	-0.28974777
148	0xbcbfec78	-0.023428187
149	0xbba81940	-0.005129963
150	0xbd728b80	-0.05921507
151	0x3dbe4b79	0.09291739
152	0xbc45cd50	-0.012072876
153	0x3d071a27	0.032983925
154	0xbd8e8013	-0.06958022
155	0xbe4727b7	-0.19448744
156	0x3acb91af	0.0015531088
157	0xbe99b196	-0.300183
158	0xbed5e78c	-0.4177822
159	0xbdecc8ce	-0.11561738
160	0xbe765fe6	-0.2406002
161	0x3d97ac64	0.07405928
162	0xbc247985	-0.010038738
163	0xbdc2c475	-0.095101275
164	0xbd7ba268	-0.06143418
165	0x3d8f779a	0.07005234
166	0xbdd5a750	-0.10432303
167	0xbb3a1fff	-0.0028400419
168	0xbe8dbc0a	-0.27682525
169	0x3ae1a000	0.0017213821
170	0xbe3d79be	-0.18503472
171	0xbb9f41a0	-0.004860118
172	0x3d5cb2d5	0.053881485
173	0xbe7d169a	-0.24715653
174	0x3dc574c0	0.09641409
175	0xbde7e6c3	-0.11323311
176	0x3daea23a	0.08527036
177	0xbd436bc4	-0.047710195
178	0xbda04839	-0.078262754
179	0x3e4248b9	0.18973054
180	0xbdb3cdd7	-0.08779495
181	0x3e4dd2b2	0.20099905
182	0xbe747567	-0.2387291
183	0xbe82f5c0	-0.25578117
184	0xbdf0aacc	-0.11751327
185	0x3a19b6fe	0.0005863755
186	0xbcae1e27	-0.021254612
187	0xbeb18102	-0.34668738
188	0x3cb45ce2	0.022016946
189	0xbe1ac858	-0.15115488
190	0xbe1b0e27	-0.15142117
191	0xbe3139ab	-0.17307155
192	0xbe95608b	-0.2917522
193	0xbcf9bd01	-0.030485632
194	0x3bd140f8	0.0063859187
195	0xbecfff01	-0.4062424
196	0x3dbb70a5	0.091523446
197	0xbe9dd4f8	-0.30826545
198	0xbb29f2b8	-0.0025932025
199	0xbeb4bb66	-0.35299224
200	0xbda8b266	-0.08237152
201	0x3bc34f4b	0.00596038
202	0xbd406aa2	-0.046976693
203	0x3d807923	0.06273105
204	0xbc9f0c9e	-0.019415196
205	0xbc06cade	-0.008227078
206	0x3a8e7380	0.0010868162
207	0x3c5b085f	0.013368695
208	0xbd8f2f62	-0.069914594
209	0xbd900382	-0.07031919
210	0xbe9bca6b	-0.3042787
211	0xbeedf8d0	-0.4647889
212	0xbd43c228	-0.047792584
213	0xbdb471ac	-0.08810744
214	0xbdd41a6c	-0.10356602
215	0x3e1a5093	0.15069799
216	0x3cf220c8	0.029556647
217	0xbdae09bc	-0.084979504
218	0xbe4e718c	-0.20160502
219	0xbea5d1fb	-0.32386765
220	0xbe21807b	-0.15771668
221	0xbe9c766c	-0.305591
222	0xbe1412e0	-0.14460325
223	0xbe8b576b	-0.27215132
224	0xbe8c00c4	-0.27344334
225	0xbc894123	-0.016754692
226	0x3d8759ce	0.06608926
227	0x3db0deb1	0.08636225
228	0xbc17639e	-0.009240059
229	0x3d155a70	0.0364632
230	0xbd34071d	-0.043952096
231	0x3d4d8c86	0.05018284
232	0xbebc0d8f	-0.36729094
233	0xbdfacc6c	-0.12246022
234	0xbd378a8f	-0.044809874
235	0xbd9483be	-0.0725169
236	0x3d8d4cfd	0.0689945
237	0xbe45e290	-0.19324708
238	0xbd80714f	-0.06271612
239	0xbe007e25	-0.1254812
240	0x3d8c1213	0.06839385
241	0xbccf4210	-0.025300056
242	0xbe397d75	-0.18114264
243	0x3da4fdb2	0.08056201
244	0xbdd84949	-0.10560853
245	0x3b1939fb	0.0023380506
246	0xbe5bc7d6	-0.2146295
247	0xbe76326c	-0.24042672
248	0xbd3cd3c0	-0.046100378
249	0x3d8d2cf1	0.068933375
250	0xbd49c265	-0.049257655
251	0xbe3be7ae	-0.18350098
252	0xbc5bbe5e	-0.013412086
253	0xbec4a2ef	-0.38405558
254	0xbdf2d863	-0.11857679
255	0xbec354b8	-0.38150573

fc2.bias f4 [64]
0	0xbd09d626	-0.033651493
1	0xbc2199ed	-0.009863359
2	0xbdd13806	-0.10215764
3	0xbe10d31d	-0.14143033
4	0x3f64d73d	0.8939093
5	0xbdb6fa26	-0.08934431
6	0xbd3a5df8	-0.04549977
7	0xbe5dd5c4	-0.21663576
8	0xbe6d0392	-0.23145893
9	0xbc416dd0	-0.0118059665
10	0xbe4e0816	-0.20120272
11	0xbe0a8a15	-0.13529237
12	0xbe1cfd95	-0.15331109
13	0x3cda79c4	0.02666939
14	0x3c733411	0.014843957
15	0xbbcdad49	-0.0062767607
16	0x3f7b705d	0.9821833
17	0xbdfe7533	-0.12424698
18	0x3c8e5bc1	0.017377736
19	0xbe8cb85f	-0.27484414
20	0xbdb89a22	-0.090137735
21	0xbcb431ac	-0.021996342
22	0x3ce205a0	0.027590573
23	0xbdb12f87	-0.08651643
24	0xbd97b3a0	-0.074073076
25	0xbe8ee741	-0.27910808
26	0xbec473db	-0.3836964
27	0xbd85b614	-0.06528869
28	0xbc88bc01	-0.01669121
29	0xbe1316c5	-0.14364155
30	0xbe3947a6	-0.18093738
31	0xbdb31b3f	-0.08745431
32	0xbd417aa9	-0.04723612
33	0xbde6be10	-0.1126672
34	0xbdd664c6	-0.1046844
35	0xbc361f9c	-0.011115935
36	0x3e051731	0.12997128
37	0xbd87f4f0	-0.06638515
38	0xbe40a945	-0.18814571
39	0xbe4b651a	-0.19862786
40	0xbc5e4fd8	-0.013568841
41	0xbe1bac12	-0.15202358
42	0xbc1b80ae	-0.009491129
43	0xbe6f7536	-0.23384556
44	0xbe3eb2ae	-0.18622848
45	0xbbe2e759	-0.0069245514
46	0x3d33b7f5	0.043876607
47	0x3d44822c	0.047975704
48	0xbdb1abd6	-0.08675353
49	0xbdfdc19a	-0.12390442
50	0xbdce3bc0	-0.1006999
51	0xbe3a4e61	-0.18193962
52	0xbd20bf21	-0.039244775
53	0xbde739e8	-0.112903416
54	0xbe4aeaf5	-0.19816191
55	0x3f1e3914	0.61805844
56	0xbd7f5bb3	-0.06234331
57	0xbe948fc6	-0.2901594
58	0x3db57e7c	0.088620156
59	0x3ec9ac13	0.39389095
60	0xbeb3f0fb	-0.3514479
61	0xbd097744	-0.033561006
62	0xbc77bf49	-0.0151212895
63	0xbea42073	-0.32056007

fc3.weight f4 [32, 64]
0	0x3dd34e3d	0.10317657
1	0x3e593d7a	0.21214858
2	0x3e55be9c	0.20873493
3	0xbd7be8f0	-0.061501443
4	0x3f1567a7	0.58361286
5	0x3db6c3e4	0.08924082
6	0x3d97a7ec	0.074050754
7	0x3db91177	0.09036534
8	0x3b81ef87	0.0039653215
9	0x3e73a956	0.23795065
10	0x3dd5b94d	0.10435734
11	0xbeb611be	-0.3556041
12	0xbe70f16c	-0.23529595
13	0x3cdc19eb	0.026867827
14	0xbd57b626	-0.052663945
15	0xbc870656	-0.016482513
16	0xbefbcd92	-0.49180275
17	0xbd00e4e7	-0.0314683
18	0x3e97e989	0.2967036
19	0x3c16dd43	0.009208026
20	0xbd88291c	-0.06648466
21	0x3dde628c	0.1085864
22	0x3e4d6b3d	0.2006044
23	0x3daf8d9d	0.085719325
24	0x3dc304a5	0.0952237
25	0x3e903433	0.28164825
26	0x3f9e62bc	1.2373881
27	0x3d05d2bc	0.032671675
28	0xbe22df01	-0.15905382
29	0x3e7902a4	0.24317414
30	0xbdf2cb0b	-0.118551336
31	0xbd21c9ff	-0.03949928
32	0xbf48a0d3	-0.783704
33	0xbe592fdb	-0.21209662
34	0xbe817279	-0.25282648
35	0x3e64d3d5	0.22346433
36	0xbeb5208f	-0.35376403
37	0xbe17e719	-0.1483425
38	0xbde6af66	-0.11263923
39	0x3db0118f	0.08597099
40	0x3e90e2ab	0.28297934
41	0xbcd8b132	-0.02645168
42	0xbd032e8c	-0.032026812
43	0xbd199f4c	-0.037505433
44	0xbd49cad7	-0.04926571
45	0xbe4f9652	-0.20272186
46	0xbd99766a	-0.07493289
47	0xbdcf128f	-0.10110962
48	0xbd6b7bde	-0.057491176
49	0xbdb6c180	-0.08923626
50	0xbd2ec625	-0.042669434
51	0x3d990532	0.07471694
52	0x3e23a44d	0.15980645
53	0xbd1f7ea4	-0.038939133
54	0x3c68975d	0.014196244
55	0x3ec02ecc	0.37535703
56	0xbdede2fc	-0.116155595
57	0x3d96daa3	0.073659204
58	0x3e30e368	0.17274249
59	0x3d838d43	0.06423428
60	0x3dfcf081	0.1235056
61	0xbdffc418	-0.12488574
62	0x3c9a370e	0.01882508
63	0xbe3304bd	-0.17482276
64	0x3e92264c	0.28544843
65	0xbed784b6	-0.42093438
66	0xbe71e3c7	-0.23622046
67	0xbe51bbed	-0.20481844
68	0xbe4fc923	-0.20291571
69	0xbd3b3b14	-0.04571064
70	0xbcac4008	-0.021026626
71	0xbdadcbec	-0.08486161
72	0x3e0e20f9	0.13879766
73	0x3d919bc2	0.071097866
74	0xbecb9e09	-0.3976901
75	0xbe26d440	-0.16291904
76	0x3cab95f4	0.020945527
77	0xbce934a9	-0.028467493
78	0x3c1c04ac	0.009522598
79	0xbe15bbc0	-0.14622402
80	0xbeda4618	-0.42631602
81	0x3ca8cafb	0.020604601
82	0x3e0a768e	0.13521788
83	0xbd8dbbc7	-0.06920581
84	0x3db6ec40	0.0893178
85	0x3a2f9fc6	0.00066995283
86	0xbe236476	-0.15956292
87	0x3d50c367	0.0509676
88	0xbe6e33ee	-0.23261997
89	0xbecbe9a1	-0.39826682
90	0x3cddee70	0.027091235
91	0xbd39922c	-0.045305416
92	0xbcdef811	-0.027217897
93	0x3f371cda	0.715284
94	0x3da9cb7b	0.08290764
95	0xbdb214e1	-0.086953886
96	0x3ef96a63	0.4871398
97	0x3d60d605	0.054891605
98	0xbd76e1ae	-0.06027382
99	0xbc95749f	-0.018244086
100	0x3e1b8f8c	0.15191478
101	0x3d0b3030	0.033981502
102	0xbd1d5d44	-0.038419023
103	0xbcea4748	-0.028598443
104	0xbe3282e1	-0.17432739
105	0x3d16ce29	0.036817703
106	0xbe23373a	-0.15939036
107	0xbf4211a1	-0.7580815
108	0xbde40784	-0.11134246
109	0x3d8317bc	0.06401011
110	0x3d312199	0.04324493
111	0x3db84185	0.08996872
112	0xbd1a41f8	-0.03766057
113	0xbdf69fb4	-0.1204218
114	0xbb575935	-0.0032859568
115	0xbe45ef40	-0.19329548
116	0x3beed71f	0.007288828
117	0xbda4a196	-0.080386326
118	0xbd915e36	-0.070980474
119	0xbe5cda65	-0.21567686
120	0x3d557379	0.052112076
121	0xbd00f43c	-0.03148292
122	0xbe544f39	-0.20733346
123	0xbeb05d52	-0.34446198
124	0xbdd4592b	-0.1036857
125	0xbd1fe0de	-0.03903281
126	0xbca2eb77	-0.019887669
127	0x3e0ec4c1	0.13942243
128	0x3de5d460	0.11222148
129	0x3e01959f	0.12654732
130	0x3e1ba6b7	0.15200315
131	0x3e5dca93	0.21659307
132	0x3f057956	0.5213827
133	0x3e4426fe	0.191555
134	0x3d03abbc	0.0321462
135	0xbd3d75e9	-0.046255026
136	0xbe10b5a9	-0.14131798
137	0x3e2e608c	0.17029017
138	0xbcaaa86d	-0.020832265
139	0xbe459a93	-0.19297247
140	0xbe532358	-0.20618951
141	0x3d492b90	0.04911381
142	0x3d6eec4e	0.058330826
143	0xbd7923b5	-0.06082507
144	0xbf526868	-0.8219056
145	0xbd55ce48	-0.05219868
146	0x3eeaaf15	0.45836702
147	0x3d91223d	0.070866086
148	0xbdec9752	-0.115522996
149	0xbd5b962a	-0.053610004
150	0x3e86c320	0.26320744
151	0xbcb8aed6	-0.022544306
152	0x3e21201c	0.15734905
153	0x3db67774	0.089095026
154	0x3f0b4fc6	0.544186
155	0x3da0214e	0.07818852
156	0xbe982104	-0.2971269
157	0x3f0ef8bc	0.5584829
158	0xbe391fa8	-0.18078482
159	0x3e340d12	0.17583111
160	0xbc0601f6	-0.008179178
161	0xbe6122cb	-0.21985929
162	0xbe1c632b	-0.15272205
163	0x3df5d2f1	0.120031245
164	0x3e803155	0.25037637
165	0xbe16aa00	-0.14713287
166	0x3d3bcfb7	0.04585239
167	0x3cf41407	0.029794706
168	0xbb8c7db3	-0.0042874455
169	0xbe3cda03	-0.1844254
170	0xbddebcad	-0.10875831
171	0x3d966085	0.073426284
172	0x3d9149b2	0.070941344
173	0xbe3057e9	-0.17221035
174	0xbdd93eb8	-0.10607666
175	0xbe204ae5	-0.1565357
176	0xbe3077ee	-0.1723325
177	0x3d27b1c4	0.040941015
178	0xbce8758c	-0.028376363
179	0x3e447df8	0.19188678
180	0xbdc24634	-0.094860464
181	0x3ddf9964	0.10917929
182	0x3e738727	0.23782025
183	0x3db37cc3	0.08764031
184	0xbe9bebf9	-0.3045347
185	0x3d720a95	0.059092123
186	0xbe9b0cb3	-0.30283126
187	0x3e1d48b0	0.1535976
188	0x3e9b6b60	0.30355358
189	0xbe99a466	-0.3000824
190	0x3e9067bd	0.28204146
191	0xbc3d4a00	-0.0115532875
192	0xbdd9bea7	-0.10632067
193	0x3d46619d	0.048432935
194	0x3c706693	0.014672893
195	0x3de68f0a	0.11257751
196	0x3efdb1b3	0.49549636
197	0x3de45393	0.11148753
198	0xbdf1fc2e	-0.118156776
199	0x3c1b3ca2	0.009474905
200	0x3e75e317	0.24012409
201	0x3e5435e8	0.20723689
202	0x3e0c6e44	0.13713938
203	0xbe38cac7	-0.18046103
204	0xbd569c7c	-0.05239533
205	0xbe27bac6	-0.16379842
206	0x3ca85efe	0.020553108
207	0x3e3516b8	0.17684448
208	0x3b664105	0.003513397
209	0xbd9574e1	-0.072976835
210	0x3ee9bfbc	0.45654094
211	0xbde0c9c0	-0.10975981
212	0x3dbb0874	0.09132472
213	0xbd8586db	-0.06519862
214	0x3d5a151b	0.053242784
215	0x3c6585a3	0.014008912
216	0x3c23efe1	0.010005922
217	0x3bfdcd69	0.007745434
218	0xbcb45f0c	-0.022017978
219	0x3dc4a38c	0.096015066
220	0x3cdfc540	0.027315736
221	0x3f06d4c9	0.52668434
222	0x3d9006fc	0.07032582
223	0x3dba5897	0.090989284
224	0xbec16083	-0.37768945
225	0xbe0a877e	-0.13528249
226	0xbe43f534	-0.19136506
227	0xbcd8de18	-0.02647309
228	0xbec54182	-0.3852654
229	0xbe3ce7ee	-0.18447849
230	0xbdd6842e	-0.1047443
231	0x3e001ce1	0.12511016
232	0x3e9b1d90	0.30295992
233	0xbe2bcd8d	-0.1677763
234	0xbe38e2c2	-0.18055251
235	0xbc658f7c	-0.01401126
236	0xbdc1c915	-0.094621815
237	0xbe144ae4	-0.14481694
238	0xbdfc9f17	-0.123350315
239	0xbe024c8d	-0.12724514
240	0x3c0e8cbe	0.008700548
241	0x3dffef14	0.124967724
242	0x3bbe64f7	0.005810376
243	0x3d975538	0.07389301
244	0xbd455ae9	-0.0481824
245	0xbdc767a4	-0.09736565
246	0x3d9565a4	0.07294777
247	0xbcad5a86	-0.021161329
248	0xbe05892a	-0.13040605
249	0x3d31cccd	0.043408204
250	0xbd5bc821	-0.053657655
251	0x3cd5fb91	0.026120933
252	0x3d9836f7	0.07432359
253	0x3d4f8d61	0.05067194
254	0x3e4423a2	0.19154218
255	0xbd424110	-0.04742533

fc3.bias f4 [32]
0	0xbfa81979	-1.3132774
1	0x3f3593a3	0.709284
2	0xbedd2a85	-0.43196502
3	0xbfb8a547	-1.4425439
4	0x3f790898	0.9727874
5	0xbf93eecf	-1.1557254
6	0xbf82ab80	-1.0208588
7	0xbf461b9c	-0.7738588
8	0x3d9be3e1	0.07611824
9	0xbe9ea7d1	-0.3098741
10	0xbf813241	-1.0093461
11	0xbf949bf9	-1.1610099
12	0xbf9ccd35	-1.2250124
13	0xbf9e8d81	-1.2386934
14	0xbefdb2d2	-0.49550492
15	0x3da83587	0.082133345
16	0x3fb9bd0a	1.4510815
17	0xbf716d0c	-0.9430702
18	0xbf65149a	-0.8948456
19	0xbf4400e4	-0.7656386
20	0x3e0a357f	0.1349697
21	0xc00898b4	-2.1343203
22	0xbfc8a4aa	-1.5675251
23	0x40b18129	5.5470166
24	0x3ef2b746	0.47405452
25	0xbe12aad4	-0.14322978
26	0xbee80977	-0.4531972
27	0x3e374831	0.17898633
28	0xbfeb17b1	-1.8366605
29	0x3ec3041d	0.38089076
30	0x402f580a	2.7397485
31	0xbe4f9281	-0.2027073

in_fn.weight f4 [33]
0	0x3fd3f37f	1.6558684
1	0x3ef2d79b	0.4743012
2	0x3e8d2e6a	0.27574474
3	0x3e666d73	0.22502689
4	0x3bab8818	0.0052347295
5	0x3e83cacf	0.25740668
6	0xbdb89255	-0.090122856
7	0xbd43c64d	-0.047796536
8	0x3ed88eb9	0.4229639
9	0x3edb1984	0.42792904
10	0xbc4e9daa	-0.012610832
11	0x3e65543e	0.22395417
12	0x3e91fd1c	0.2851342
13	0x3dab6a96	0.08369939
14	0x3ebf260b	0.37333712
15	0x3eb3176f	0.34978816
16	0x3f3a7783	0.7283861
17	0x3eb823ba	0.35964757
18	0x3e8f18cb	0.27948603
19	0x3e7eee64	0.24895626
20	0x3e93649b	0.28787693
21	0x3e9aa95b	0.30207333
22	0x3f0a6135	0.54054576
23	0x3e8428fa	0.25812513
24	0x3f8856b8	1.0651464
25	0xbdd5046c	-0.10401234
26	0x3ea737ef	0.3265986
27	0x3e8c6238	0.27418685
28	0x3f9becc6	1.2181633
29	0x3ea22f36	0.31676644
30	0x3f294e2d	0.6613491
31	0x3f5eefa7	0.8708443
32	0x3f732e46	0.9499248

in_fn.bias f4 [33]
0	0x3f0907cc	0.5352752
1	0xbc93dfed	-0.018051112
2	0xbcae11ea	-0.021248776
3	0xbdf9577a	-0.12174888
4	0x3ca91cf0	0.020643681
5	0x3de7b51c	0.11313841
6	0xbd4312c8	-0.047625333
7	0xbd1519e5	-0.036401648
8	0x3d68a83d	0.05680107
9	0x3e23d448	0.15998948
10	0xbb90dfc7	-0.0044212076
11	0x3d8a7a2c	0.06761584
12	0xbd30a259	-0.043123577
13	0xbd55b9c5	-0.052179117
14	0xbcc585a1	-0.02411157
15	0x3d7d5177	0.06184527
16	0xbd0abfef	-0.03387445
17	0x3e0f7441	0.14009191
18	0x3ca92c13	0.020650899
19	0x3da00ae2	0.07814576
20	0xbd90d045	-0.07070974
21	0x3d7c7620	0.06163609
22	0x3c3ce982	0.011530282
23	0x3cdf8f68	0.027290061
24	0x3e9ff695	0.31242815
25	0xbdc648bb	-0.09681841
26	0x3e72ad7f	0.23698996
27	0xbd873a91	-0.066029675
28	0x3df46975	0.11934177
29	0xbdbd1a46	-0.09233527
30	0x3e42013d	0.18945785
31	0x3e98ce68	0.29844975
32	0xbd4ad604	-0.049520507

in_fn.running_mean f4 [33]
0	0x400eac04	2.229249
1	0x3b7aa384	0.0038244436
2	0x3baafb5f	0.005217954
3	0x3bc6871b	0.0060585863
4	0x3b134bb7	0.002247555
5	0x3b8a3e8a	0.004218881
6	0x3b2be0d9	0.002622655
7	0x3b2632a6	0.0025359779
8	0x3bf1d9e1	0.0073807095
9	0x3c0a3dc4	0.008437578
10	0x3b331ea7	0.0027331503
11	0x3bc7a6fc	0.006092904
12	0x3c993a93	0.018704688
13	0x3b25287d	0.0025201135
14	0x3be12479	0.006870803
15	0x3c40401d	0.011734036
16	0x3cd27485	0.025690326
17	0x3b921eb1	0.004459225
18	0x3b95d726	0.004572767
19	0x3bccc8b2	0.0062495107
20	0x3c2d459e	0.01057568
21	0x3c756b8d	0.014979255
22	0x3c8e7e75	0.017394284
23	0x3bd2fc3a	0.006438759
24	0x3ec7ba7e	0.3900947
25	0x3b6f945d	0.0036556937
26	0x3bd6d8f8	0.0065566264
27	0x3c2965a2	0.010339173
28	0x3e0a112a	0.1348311
29	0x3bfd33c5	0.0077271187
30	0x3d5ff28b	0.054674666
31	0x3da49daf	0.08037888
32	0x3e054e7a	0.13018218

in_fn.running_var f4 [33]
0	0x40d63a64	6.694628
1	0x3b7925b5	0.003801686
2	0x3ba9f29d	0.0051863925
3	0x3bc552da	0.0060218396
4	0x3b12ed28	0.0022419188
5	0x3b898470	0.004196696
6	0x3b2b4a32	0.0026136753
7	0x3b25c20e	0.0025292668
8	0x3befb7da	0.007315618
9	0x3c08f36a	0.008358816
10	0x3b32a9a9	0.002726177
11	0x3bc5d857	0.0060377526
12	0x3c962614	0.018328704
13	0x3b24a2f4	0.0025121542
14	0x3bdf3650	0.0068118945
15	0x3c3ddac5	0.011587803
16	0x3cca3862	0.024685089
17	0x3b916794	0.0044373963
18	0x3b94cbe4	0.004540907
19	0x3bcb7e31	0.0062101115
20	0x3c2b5161	0.010456414
21	0x3c706828	0.01467327
22	0x3c8a9b38	0.016919717
23	0x3bd1b061	0.0063992
24	0x3e70f60e	0.23531362
25	0x3b6eb190	0.0036421753
26	0x3bd58180	0.0065156817
27	0x3c2778d9	0.010221683
28	0x3deb9898	0.11503714
29	0x3bfaba66	0.007651615
30	0x3d53125d	0.051531184
31	0x3d96c6ae	0.07362114
32	0x3de76578	0.112986505

fc1.weight f4 [64, 33]
0	0xbe55c23c	-0.20874876
1	0xbdad41c1	-0.08459807
2	0xbe051474	-0.12996083
3	0xbd97826a	-0.073979214
4	0xbdc5b5ad	-0.096537925
5	0xbe34fda8	-0.17674887
6	0x3edc8691	0.43071416
7	0x3e5720fe	0.2100868
8	0x3ec8b939	0.39203814
9	0xbf032985	-0.5123523
10	0xbceba4a7	-0.028765036
11	0xbec59aec	-0.3859476
12	0xbe994f24	-0.29943192
13	0xbdebd5a2	-0.115153566
14	0xbe23fe40	-0.16014957
15	0x3ee1af86	0.44079226
16	0xbe4717eb	-0.19442718
17	0xbdfc8df8	-0.12331766
18	0xbf07f142	-0.53102505
19	0x3e56bd06	0.20970544
20	0xbe004992	-0.12528065
21	0xbeb2af5a	-0.34899408
22	0xbdb39ef8	-0.08770555
23	0x3e5dd1b2	0.21662024
24	0xbe01d5dd	-0.12679239
25	0xbe956e33	-0.29185638
26	0x3e917aa7	0.2841389
27	0x3e6c67ed	0.2308652
28	0x3ea98607	0.33110067
29	0xbd84368b	-0.06455716
30	0xbdb0b03c	-0.08627364
31	0xbea9529c	-0.33070838
32	0xbe73cc37	-0.2380837
33	0xbe8157e3	-0.25262365
34	0xbe2e1cdc	-0.17003196
35	0x3e30ef38	0.17278755
36	0x3c38c745	0.011277978
37	0xbd91d420	-0.07120538
38	0x3db62f46	0.088957354
39	0xbde0cd41	-0.10976649
40	0x3af5ad7b	0.0018743718
41	0xbe17e35b	-0.14832823
42	0xbc01b97b	-0.007917757
43	0x3e027ac5	0.12742145
44	0xbe6efbdf	-0.23338269
45	0xbd9e99c7	-0.077441745
46	0xbe3ba519	-0.18324699
47	0xbd49cb6c	-0.049266264
48	0xbe359ca2	-0.17735532
49	0x3d9fd672	0.07804574
50	0xbd0f4c4b	-0.034984868
51	0x3df370a1	0.11886717
52	0xbea5d103	-0.32386026
53	0x3e994919	0.29938582
54	0xbd994dba	-0.07485528
55	0xbe1dc3ab	-0.15406673
56	0xbd924089	-0.07141215
57	0x3df88f37	0.12136691
58	0x3efd1eb9	0.49437502
59	0xbdd7c7b8	-0.1053614
60	0xbc924165	-0.017853448
61	0x3dd0255a	0.10163374
62	0x390a931b	0.00013215507
63	0xbce34234	-0.027741529
64	0xbdd48a00	-0.10377884
65	0x3afd0aa8	0.0019305544
66	0xbf8ec1d6	-1.1152904
67	0x3e23b916	0.15988573
68	0xbe94d9a5	-0.290723
69	0xbea3b66c	-0.31975114
70	0xbc649d77	-0.013953558
71	0x3dd19ae5	0.10234622
72	0x3e4b60be	0.19861123
73	0x3e104ccd	0.14091797
74	0x3e0bf098	0.13665998
75	0xbf0057e2	-0.501341
76	0x3e385260	0.18000174
77	0x3e3eca0e	0.18631765
78	0xbe2c84f4	-0.16847593
79	0x3e3c7c97	0.18406902
80	0xbccec4f7	-0.025240405
81	0x3e525413	0.20539884
82	0x3f20da4c	0.62833095
83	0xbf0f94d7	-0.56086487
84	0x3e353aa4	0.17698151
85	0xbe535aab	-0.20640056
86	0x3cd237b5	0.025661329
87	0x3e4176fe	0.18893048
88	0xbe2407bd	-0.16018577
89	0xbe55cc12	-0.20878628
90	0x3d1b8736	0.037970744
91	0x3e538403	0.20655827
92	0xbd03b593	-0.032155585
93	0xbe40ad20	-0.18816042
94	0x3ddbc987	0.10731798
95	0x3cc8e224	0.024521895
96	0xbe67aa5d	-0.22623582
97	0x3e8dae05	0.2767183
98	0xbe80f10c	-0.25183904
99	0xbf2ff12a	-0.6872736
100	0x3e9f9632	0.31169277
101	0xbdb41be8	-0.08794385
102	0xbe051c58	-0.12999094
103	0xbd8be51a	-0.06830807
104	0xbc2d9f3a	-0.010597045
105	0x3e441bda	0.1915125
106	0x3e864880	0.26227188
107	0xbe36034d	-0.17774697
108	0xbe378749	-0.17922701
109	0x3dd76313	0.10516944
110	0xbe8a9c89	-0.27072552
111	0x3e15a11e	0.14612243
112	0xbe833363	-0.25625142
113	0x3e97984a	0.29608375
114	0x3f2d93e5	0.67803794
115	0x3df8a5c8	0.12140995
116	0xbb519e01	-0.0031985047
117	0xbde2ad84	-0.11068252
118	0x3db2e5f8	0.08735269
119	0x3eb6ef9b	0.3572968
120	0xbde94d69	-0.11391718
121	0xbdf46f1d	-0.11935256
122	0xbeac7285	-0.3368112
123	0xbb69cee3	-0.0035676293
124	0x3e51174d	0.20419045
125	0xbf06f680	-0.5271988
126	0x3e2519b9	0.16123094
127	0xbc028ce0	-0.0079681575
128	0x3c998565	0.018740365
129	0xbdafe198	-0.085879505
130	0x3d816a1d	0.063190676
131	0xbdcb3cb2	-0.09923686
132	0xbed63a83	-0.41841516
133	0xbc33e17c	-0.010979053
134	0xbb40a31c	-0.0029394096
135	0xbb7a8930	-0.0038228743
136	0xbdfd7d2e	-0.12377392
137	0xbd1b83ce	-0.037967496
138	0x3e2121ea	0.15735593
139	0x3e05c9e9	0.13065304
140	0xbe6d7f8f	-0.23193191
141	0xbdf65b8c	-0.1202918
142	0x3d27b97f	0.040948387
143	0xbe3553ce	-0.1770775
144	0x3d89eab1	0.06734217
145	0x3d727743	0.059195768
146	0x39ce19b3	0.0003931053
147	0xbe0b925c	-0.1363005
148	0x3ed56065	0.41675106
149	0xbe44681b	-0.19180338
150	0x3c3a4b6e	0.011370523
151	0xbe60a3a5	-0.21937425
152	0x3cd79d3d	0.026320094
153	0x3c02ca01	0.007982732
154	0x3cf8ddc6	0.030379187
155	0xbd6a075b	-0.05713592
156	0x3e0ac271	0.13550736
157	0x3e01f9e2	0.12692979
158	0xbea926b9	-0.33037356
159	0x3d8d373e	0.06895302
160	0x3df63721	0.12022234
161	0x3e4be54d	0.1991169
162	0xbe0a9643	-0.13533883
163	0x3e2470a8	0.160586
164	0x3da6675a	0.081251815
165	0xbf3d5b80	-0.7396774
166	0x3eb1a013	0.3469244
167	0x3e9df4f6	0.30850953
168	0x3e1883a6	0.1489397
169	0x3df7d008	0.12100226
170	0xbf5f5388	-0.87236834
171	0x3ddbcfe7	0.107330136
172	0x3e9133a8	0.28359723
173	0x3dfa4c47	0.1222158
174	0x3dabdf81	0.08392239
175	0xbf16a2cf	-0.58842176
176	0xbd9e3d0e	-0.07726489
177	0xbef8b4a1	-0.4857531
178	0x3ee0c00a	0.43896514
179	0xbe9fde65	-0.3122436
180	0xbeddf5e8	-0.43351674
181	0xbd10eca5	-0.03538193
182	0xbec0c7c4	-0.3765241
183	0x3ec3d55c	0.38248718
184	0x3c65fdf0	0.014037594
185	0xbe54c0b0	-0.2077663
186	0xbeacac0a	-0.33725005
187	0xbeadce28	-0.33946347
188	0xbedc45a7	-0.4302189
189	0xbe33d897	-0.17563091
190	0x3ef20a19	0.4727333
191	0xbdea9d6a	-0.114558056
192	0xbe089f69	-0.1334206
193	0xbcd8ed31	-0.02648029
194	0x3cd04627	0.025424076
195	0xbe9c1294	-0.30482924
196	0xbe09256b	-0.1339318
197	0xbea83269	-0.3285096
198	0xbfb537d1	-1.4157659
199	0xbda77225	-0.08176068
200	0x3dc402a7	0.095708184
201	0x3c7abdd4	0.015304048
202	0x3d97b295	0.07407109
203	0xbdcc3faa	-0.099730805
204	0x3e2e85d8	0.17043245
205	0x3d9e159f	0.07718968
206	0xbe8ba64a	-0.27275306
207	0xbe200858	-0.15628183
208	0x3b3eeaa5	0.0029131558
209	0xbe24498b	-0.1604368
210	0xbe0c02be	-0.13672921
211	0x3e6846b3	0.2268322
212	0x3e219243	0.1577845
213	0x3e28b113	0.16473798
214	0x3e7b1943	0.24521355
215	0xbdfd015a	-0.123537734
216	0x3e73f3e7	0.2382351
217	0xbda274fa	-0.07932468
218	0x3dfaba53	0.1224257
219	0xbd67370d	-0.056448985
220	0x3d153a51	0.036432568
221	0xbd9ff6eb	-0.07810768
222	0x3d94c7f1	0.07264698
223	0x3dd28ac9	0.102803774
224	0xbe7059b7	-0.23471723
225	0x3ed28a98	0.41121364
226	0x3d897d66	0.06713371
227	0x3e36412c	0.17798299
228	0xbd33fb9b	-0.04394112
229	0xbd0e6194	-0.034761027
230	0x3f030ec0	0.5119438
231	0xbf1df958	-0.61708593
232	0xbe223da0	-0.1584382
233	0xbd26b1ca	-0.040696897
234	0xbda27a53	-0.07933488
235	0xbd68108b	-0.0566564
236	0xbe666415	-0.22499116
237	0xbdaee06c	-0.08538899
238	0xbc2a2dbb	-0.01038688
239	0xbd70aef0	-0.058760583
240	0xbe891397	-0.26772758
241	0xbd05a088	-0.032623798
242	0xbde92e91	-0.11385835
243	0xbe635dbf	-0.2220373
244	0x3e35eccb	0.1776611
245	0x3ef8aa09	0.48567227
246	0xbeae8df5	-0.3409268
247	0xbe1b26a1	-0.15151455
248	0xbdeff0b6	-0.11715834
249	0x3c611f39	0.013740354
250	0x3f25fa1f	0.6483478
251	0xbe7287a3	-0.23684554
252	0xbd86b88d	-0.06578169
253	0x3e21a53b	0.15785687
254	0xbe843447	-0.25821134
255	0x3d35011b	0.044190507

fc1.bias f4 [64]
0	0xbe653fa6	-0.22387561
1	0xbec896a8	-0.39177442
2	0xbe911f5b	-0.28344235
3	0xbf085fc4	-0.53271127
4	0xbe77759b	-0.24165957
5	0x3ce5b440	0.028040051
6	0xbf340128	-0.70314264
7	0xbe9e6099	-0.30933073
8	0xbdb1e341	-0.08685923
9	0xbefe597f	-0.49677655
10	0x3e30856b	0.17238395
11	0xbeacede5	-0.3377525
12	0xbe79ca4c	-0.24393576
13	0xbf441531	-0.76594836
14	0xbecd40a1	-0.4008837
15	0xbe2867bc	-0.16445822
16	0xbf41b17a	-0.7566143
17	0xbe43c974	-0.19119817
18	0xbee0a74a	-0.4387763
19	0x3e633658	0.22188699
20	0xbe63090b	-0.22171418
21	0xbe5ff502	-0.21870807
22	0xbf37f798	-0.71862173
23	0xbebbbdaf	-0.36668155
24	0xbf4282c7	-0.759808
25	0xbf322b0c	-0.69596934
26	0xbf33c319	-0.7021957
27	0xbf3b4bf9	-0.731628
28	0xbf228720	-0.63487434
29	0xbde7f94d	-0.11326847
30	0xbeeffc31	-0.46872094
31	0xbe916546	-0.28397578
32	0xbe81eb65	-0.25374904
33	0xbeb14679	-0.3462408
34	0xbef0c623	-0.47026166
35	0xbf4a0103	-0.78907794
36	0xbea5d657	-0.3239009
37	0xbe39601b	-0.18103068
38	0xbf25e7c8	-0.64806795
39	0xbec35ccf	-0.38156745
40	0xbe1180d0	-0.14209294
41	0xbf5bbc00	-0.8583374
42	0x3e0188ac	0.12649792
43	0xbe4926ef	-0.19643758
44	0xbdb2265a	-0.08698721
45	0x3daf31af	0.08554398
46	0x3ebdc9c1	0.3706799
47	0xbee8572f	-0.45379016
48	0xbfb356ed	-1.4010903
49	0xbf12425b	-0.571325
50	0xbe2dd0d7	-0.16974197
51	0xbf4e5d6f	-0.8061132
52	0xbf7b03dc	-0.98052764
53	0xbf1e1d54	-0.617635
54	0xbeb3cfeb	-0.35119566
55	0xbe8a3d90	-0.27000093
56	0xbf4c59ab	-0.7982432
57	0xbf0cd8c5	-0.55018264
58	0xbed3612c	-0.41285074
59	0xbe547286	-0.20746812
60	0xbf73eeab	-0.95286053
61	0xbf7b607b	-0.9819409
62	0xbe89e5cd	-0.26933137
63	0xbe3f2691	-0.18667056

fc2.weight f4 [64, 64]
0	0xbe065e85	-0.13121994
1	0xbca05f24	-0.019576617
2	0xbd83ec87	-0.064415984
3	0xbe383944	-0.17990595
4	0x3cc9b50f	0.024622468
5	0x3c3b4b9a	0.011431599
6	0x3c4ccd39	0.012500101
7	0x3da2ba51	0.07945693
8	0xbcd951d2	-0.026528273
9	0xbd5c6263	-0.053804766
10	0xbe290479	-0.16505612
11	0xbe07b26c	-0.13251656
12	0xbdd4d18a	-0.10391529
13	0xbdeb7688	-0.114972174
14	0x3c753e84	0.014968518
15	0xbdf7f49d	-0.12107203
16	0xbc84d40f	-0.016214399
17	0x3d2a5a10	0.041589797
18	0xbcacd064	-0.021095462
19	0xbd89a1bc	-0.067203015
20	0xbbbf595a	-0.005839509
21	0xbe30ee25	-0.17278345
22	0xbdf05653	-0.11735215
23	0x3b20b0d4	0.002451946
24	0xbdc77b11	-0.0974027
25	0xbde25714	-0.11051765
26	0xbd8138ac	-0.063096374
27	0xbe253e52	-0.16137055
28	0xbd3f5235	-0.046709258
29	0xbe4178ad	-0.1889369
30	0xbd7ed3c4	-0.062213674
31	0xbe01b4ec	-0.12666672
32	0xbe0e4591	-0.13893725
33	0x3d66afd0	0.05632001
34	0xbda0e270	-0.078556895
35	0x3d016eb0	0.0315997
36	0xbc116f7b	-0.008876677
37	0xbe1919cf	-0.14951251
38	0xbdb58801	-0.08863831
39	0x3dd761d3	0.10516705
40	0xbdfa4fe3	-0.122222684
41	0xbb27b304	-0.002558888
42	0xbd3b1107	-0.045670535
43	0x3d3d1944	0.046166673
44	0xbd848ce1	-0.06472183
45	0xbda4db83	-0.08049681
46	0xbda0b840	-0.07847643
47	0x3d804638	0.06263393
48	0xbdd3c0fb	-0.103395425
49	0xbc14cee9	-0.009082534
50	0x3abe9668	0.0014540674
51	0x3d1dce50	0.038526833
52	0xbe01536b	-0.12629478
53	0xbd843404	-0.06455234
54	0xbcffaabc	-0.031209342
55	0xbdfa9a1d	-0.12236426
56	0x3e02f9c1	0.12790586
57	0xbd3ee418	-0.046604246
58	0x3bd81fee	0.006595603
59	0xbddd631f	-0.108099215
60	0xbd81caf6	-0.0633754
61	0xbe0aba63	-0.13547663
62	0x3e07c3c7	0.13258277
63	0xbdc25e39	-0.09490628
64	0xbecec71b	-0.4038628
65	0xbd51e61d	-0.051244844
66	0x3e017b39	0.12644662
67	0x3d8085b9	0.062755056
68	0xbc55e99f	-0.013056188
69	0xbd24bc39	-0.040218566
70	0x3ec8663c	0.391405
71	0xbe5ac37c	-0.21363634
72	0xbe27d0af	-0.163882
73	0xbde0bce6	-0.109735295
74	0x3e09a3d4	0.13441402
75	0xbde99f24	-0.11407307
76	0x3db0c4bc	0.08631274
77	0xbced3e02	-0.028960232
78	0xbe8ca267	-0.27467653
79	0xbd04b8fb	-0.032402974
80	0xbedd8853	-0.4326807
81	0xbbc91f1a	-0.006137741
82	0x3c9dc169	0.019257264
83	0xbe66e95d	-0.22549959
84	0xbbe493b7	-0.006975617
85	0x3da6da62	0.08147122
86	0xbdc5bcd4	-0.09655157
87	0x3c9aefff	0.018913267
88	0xbe70dcc7	-0.2352172
89	0xbdc0e73b	-0.09419104
90	0x3eb6407a	0.35596067
91	0x3e209bb7	0.156844
92	0xbea1993f	-0.3156223
93	0x3d7f6f21	0.06236184
94	0xbe4d7b64	-0.20066601
95	0xbe6cfd2c	-0.23143452
96	0xbf24eac1	-0.64420706
97	0xbeb00c3f	-0.34384343
98	0x3d127a54	0.035761192
99	0xbe8989be	-0.268629
100	0xbef1b730	-0.47210073
101	0xbdd1a56a	-0.10236628
102	0xbe0351f4	-0.12824231
103	0xbcd1ae71	-0.025595875
104	0x3bc11402	0.0058922777
105	0xbc57247c	-0.013131257
106	0xbec9be61	-0.3940306
107	0xbc559d00	-0.01303792
108	0xbee871ce	-0.45399326
109	0xbebcf02c	-0.36901987
110	0xbf23edae	-0.64034545
111	0xbeca92c5	-0.395651
112	0xbe4bfa6c	-0.19919747
113	0xbf1e3d66	-0.61812437
114	0xbe3a4e4b	-0.18193929
115	0xbdc6ab8f	-0.09700691
116	0xbe8f545d	-0.27994052
117	0xbe5b8c05	-0.21440132
118	0x3ee514a5	0.44742313
119	0xba190808	-0.00058376836
120	0xbeb1361c	-0.34611595
121	0x3d7bf0a5	0.061508793
122	0xbeba7cb9	-0.3642328
123	0xbe3e0c4c	-0.18559378
124	0xbe9622e8	-0.29323506
125	0xbe93cf2e	-0.28869003
126	0x3d908d31	0.0705818
127	0xbdedfda7	-0.11620646
128	0xbe87ab97	-0.264981
129	0xbe5033d7	-0.20332275
130	0xbeca2aa6	-0.39485663
131	0x3e0a69da	0.13516942
132	0x3c03aab0	0.008036301
133	0xbdb68e0f	-0.08913814
134	0xbe05a175	-0.13049872
135	0xbde9668e	-0.11396514
136	0xbe6e5511	-0.23274638
137	0x3d5bbdc2	0.053647764
138	0xbe888a42	-0.26667982
139	0xbe41a10b	-0.1890909
140	0x3bda25e1	0.0066573475
141	0xbe8e3b6d	-0.27779713
142	0xbe886e61	-0.26646712
143	0xbe81fea1	-0.2538958
144	0x3df800d0	0.1210953
145	0xbebfd733	-0.3746887
146	0xbd186051	-0.03720123
147	0xbdb12409	-0.08649451
148	0xbe2a42ff	-0.1662712
149	0xbe11f137	-0.14252172
150	0xbe5fa85b	-0.21841566
151	0xbe38c3d0	-0.18043447
152	0xbecb8e1f	-0.39756867
153	0xbc5d05c2	-0.013490142
154	0xbc7feb7b	-0.015620108
155	0xbd18b622	-0.03728307
156	0x3c316660	0.010827631
157	0xbe0ccee9	-0.13750805
158	0xbda83f33	-0.08215179
159	0xbe7516dc	-0.23934501
160	0x3d7510b2	0.059830375
161	0xbdfb1bd9	-0.12261171
162	0x3dae3955	0.08507029
163	0x3c8dc0e5	0.017303893
164	0x3e06d785	0.13168152
165	0xbe71a672	-0.2359865
166	0xbd2b069f	-0.04175436
167	0xbe0a6c88	-0.13517964
168	0xbe9ed5f0	-0.31022596
169	0x3d7bb758	0.061454147
170	0xbc783157	-0.015148482
171	0xbe084fc2	-0.13311675
172	0x3cf75a4c	0.030194424
173	0xbe7746c1	-0.24148084
174	0xbe3fbdcf	-0.1872475
175	0xbe82c692	-0.25542122
176	0xbd80761d	-0.06272528
177	0xbd4a5a0b	-0.049402278
178	0xbe6bdebe	-0.23034188
179	0xbac06704	-0.0014679139
180	0xbe351de7	-0.17687188
181	0x3d13f545	0.03612258
182	0xbe585673	-0.21126728
183	0x3b0ab91a	0.0021167458
184	0xbec4fc13	-0.38473567
185	0x3cac974c	0.021068238
186	0xbea5ebb5	-0.32406393
187	0x3ddc0c34	0.10744515
188	0x3dd495ca	0.103801325
189	0xbe1b0ac3	-0.15140824
190	0xbe6b05f3	-0.22951488
191	0xbd657e0a	-0.056028403
192	0xbd9cdf65	-0.076597966
193	0xbd4b0d43	-0.049573194
194	0xbe25ff6d	-0.16210718
195	0x3da73eab	0.0816625
196	0xbd4cf28d	-0.050036002
197	0x3c82a13a	0.01594602
198	0xbea47c8d	-0.32126275
199	0xbdbd2ded	-0.09237275
200	0xbd4e9486	-0.05043461
201	0x3d011973	0.03151841
202	0x3c638e9e	0.013888983
203	0xbe5eb922	-0.2175031
204	0xbe22aab4	-0.1588543
205	0xbe277cc6	-0.16356191
206	0xbe1c169a	-0.15242997
207	0xbca301bd	-0.01989829
208	0xbe3e4bf2	-0.18583658
209	0xbd9108ac	-0.07081732
210	0x3dbd2a13	0.09236541
211	0xbe34c960	-0.17654943
212	0xbe62f132	-0.22162321
213	0xbd0a6554	-0.03378804
214	0xbdcc2ade	-0.09969114
215	0xbe166c18	-0.14689672
216	0xbe6c3712	-0.23067883
217	0xbd8e41b3	-0.06946125
218	0xbe096410	-0.13417077
219	0xbcd9c85f	-0.026584802
220	0x3d406673	0.046972703
221	0xbd02a976	-0.03189989
222	0x3a9d5ea6	0.0012006357
223	0xbd9a272d	-0.075270034
224	0xbdea4965	-0.1143978
225	0xbc80ce6f	-0.015723435
226	0x3c9d4551	0.019198092
227	0xbcd30924	-0.025761195
228	0xbe33f3c8	-0.17573464
229	0x3c99eba7	0.018789126
230	0xbe278ea8	-0.16363013
231	0x3de26940	0.11055231
232	0xbe45c451	-0.1931317
233	0xbd7a7573	-0.061147165
234	0xbd67c290	-0.056582034
235	0xbd6ef0e7	-0.05833521
236	0xbe412a96	-0.18863901
237	0xbe36c57d	-0.17848773
238	0xbd656998	-0.056008905
239	0xbdd6c160	-0.10486102
240	0xbd01a175	-0.031648118
241	0x3cdc26f3	0.026874041
242	0x3d2da840	0.042396784
243	0xbd8f943a	-0.07010694
244	0x3d02a2f3	0.03189368
245	0xbdce4756	-0.100722
246	0xbcf7e98f	-0.030262737
247	0xbc738514	-0.014863271
248	0x3cec71c4	0.028862841
249	0x3d8300c2	0.06396629
250	0xbe61fe07	-0.2206956
251	0xbce72440	-0.028215528
252	0xbb5cb1bd	-0.0033675276
253	0xbdcbf47c	-0.09958741
254	0x3cd362a8	0.025803879
255	0x3b82fe3d	0.0039975927

fc2.bias f4 [64]
0	0xbdeb3095	-0.11483876
1	0x3e7117d0	0.2354424
2	0xbc20fbf8	-0.009825699
3	0xbda5862a	-0.080822304
4	0xbebc05c6	-0.36723155
5	0xbb8875a4	-0.0041644145
6	0xbd99923d	-0.07498596
7	0x3e821015	0.25402895
8	0x3d235262	0.03987349
9	0xbe3764f6	-0.17909607
10	0x3c41b9fc	0.011824127
11	0xbafb46d0	-0.0019170884
12	0xbd75de54	-0.06002648
13	0xbdca71c4	-0.0988498
14	0xbe23c08d	-0.15991421
15	0xbe2ee170	-0.17078185
16	0xbc8fb39e	-0.017541703
17	0x3d24cb7c	0.04023312
18	0xbd5cfbfe	-0.053951256
19	0xbe461346	-0.1934329
20	0xbeb14b51	-0.34627774
21	0x3f6b1e66	0.9184326
22	0xbe2b66c3	-0.16738419
23	0xbe1b3698	-0.15157545
24	0x3f3e2a18	0.7428298
25	0xbd46ffe1	-0.04858387
26	0xbde1a1b1	-0.11017168
27	0xbec2f116	-0.3807456
28	0x3c4bf908	0.01244951
29	0xbe0a30a1	-0.13495113
30	0xbdd8c650	-0.105847
31	0xbe67d6d3	-0.22640543
32	0x3bc9cc09	0.006158356
33	0xbe880b2e	-0.2657103
34	0xbe18fef6	-0.1494101
35	0xbe40069d	-0.18752523
36	0xbd73fe68	-0.059568793
37	0xbe5462be	-0.20740792
38	0xbdbec0e8	-0.09314138
39	0xbddde3ea	-0.10834487
40	0xbf29e8c4	-0.663708
41	0xbccf8321	-0.025331082
42	0xbecfbad4	-0.40572226
43	0xbdc8a580	-0.097971916
44	0xbdd51853	-0.1040503
45	0xbd3ff5e8	-0.046865374
46	0x3e51a4f8	0.20473087
47	0x3ef4dbce	0.47823948
48	0xbcf95758	-0.030437157
49	0xbd92f946	-0.071764514
50	0x3bc0cda4	0.0058838893
51	0xbd94af84	-0.072600394
52	0xbe33a2a4	-0.17542511
53	0xbd872c2b	-0.06600221
54	0xbe55e159	-0.20886745
55	0xbde9dd24	-0.11419132
56	0xbe03e9ad	-0.12882109
57	0xbf10c3ab	-0.56548566
58	0xbe3f111f	-0.18658875
59	0xbdfd7996	-0.12376706
60	0xbc860254	-0.016358532
61	0x3eeacb1a	0.4585808
62	0xbda09e03	-0.07842638
63	0x3b8aa6f8	0.00423133

fc3.weight f4 [1, 64]
0	0x3d131688	0.03591016
1	0x3e677798	0.22604215
2	0x3c8958c3	0.016765958
3	0x3cb10134	0.021607019
4	0xbd6116e6	-0.05495348
5	0xbc8522da	-0.01625197
6	0x3c98f78d	0.018672729
7	0xbd1b2f5a	-0.037886955
8	0xbc3ad3f3	-0.011403072
9	0xbd83a565	-0.06428031
10	0x3c4ac5ba	0.012376243
11	0xbc467e00	-0.012115002
12	0xbb30cb28	-0.002697656
13	0x3ddbe127	0.10736304
14	0x3d013b75	0.031550843
15	0x3cc5b352	0.024133358
16	0x3ba1a05b	0.004932446
17	0x3b0b5672	0.0021261242
18	0xbb5fb255	-0.0034133394
19	0x3c3461dc	0.01100966
20	0xbdc8719a	-0.09787293
21	0xbe0740dd	-0.13208337
22	0x3d87bd5c	0.06627914
23	0x3c83bc90	0.016081125
24	0xbe07a09f	-0.13244866
25	0xbbb9d2d4	-0.0056708846
26	0x3d40a226	0.047029637
27	0x3a5b1110	0.00083567295
28	0x3aad5f97	0.001322734
29	0xbb9551ae	-0.004556856
30	0xbccb3719	-0.024806546
31	0x3a019ab8	0.00049440144
32	0xbc54516a	-0.012958864
33	0x3e132ce9	0.143726
34	0xbb55da90	-0.0032631494
35	0x3dbab4c7	0.09116512
36	0x3c29b747	0.010358638
37	0xbd6333b7	-0.05546924
38	0x3cd7a84b	0.026325366
39	0xbb94aad0	-0.004536964
40	0xbdb9a251	-0.090641625
41	0x3d621b92	0.055202074
42	0x3de104a9	0.10987217
43	0x3b82b6f2	0.003989094
44	0x3e701db9	0.23448838
45	0x3c2a8633	0.010407972
46	0xbd08caca	-0.03339652
47	0x3dae077f	0.084975235
48	0x3acf2254	0.0015803077
49	0x3b2cfed9	0.0026397018
50	0xbc3c0f99	-0.011478328
51	0x3c23db84	0.010001067
52	0xbaaede14	-0.0013341331
53	0x3b1f3226	0.0024291365
54	0x3c01a94a	0.007913897
55	0xbd050c4a	-0.032482423
56	0xbc361491	-0.011113302
57	0x3d82f518	0.06394404
58	0xbc10c454	-0.008835871
59	0x3d5a62ee	0.053317003
60	0xbdc45060	-0.09585643
61	0xbd60a08e	-0.054840617
62	0x3d7560a7	0.059906628
63	0x3ac74f33	0.0015206098

fc1.weight f4 [64, 1]
0	0x3f6ba6f9	0.92051655
1	0xbed54cef	-0.41660258
2	0xbe55577b	-0.20834152
3	0x3ed77f23	0.42089185
4	0xbf64fc90	-0.8944788
5	0x3fb227a8	1.3918352
6	0xbf0f7b1a	-0.56047213
7	0xbcb5ed4a	-0.022207875
8	0xbdf67d6e	-0.120356426
9	0x3f26280b	0.6490485
10	0xbe8a0a17	-0.26960823
11	0xbea419f9	-0.32051066
12	0x3c8f095a	0.017460514
13	0xbeec5d3c	-0.46164882
14	0xbd955130	-0.07290876
15	0xbeabc970	-0.33552122
16	0x3e146c30	0.14494395
17	0xbb82e700	-0.0039948225
18	0x3ccc1c34	0.024915792
19	0x3ef33115	0.47498384
20	0xbf9cb44c	-1.2242522
21	0xbf1a9d36	-0.60396135
22	0xbe2ba370	-0.16761565
23	0xbf95be77	-1.169875
24	0xbe91ad33	-0.28452453
25	0xbed5ed9e	-0.4178285
26	0x3d2d0a7f	0.042246338
27	0x3fa9e6c0	1.3273544
28	0xbfc27b70	-1.519392
29	0xbccc17bd	-0.024913663
30	0x3f3689c7	0.7130398
31	0x3eeb8c06	0.46005267
32	0xbe96c148	-0.29444337
33	0xbf217bda	-0.6307961
34	0xbf60cbf3	-0.878112
35	0xbee7b37c	-0.45254123
36	0x3ef34bbd	0.4751872
37	0xbe2a9115	-0.16656907
38	0x3d46fd64	0.048581496
39	0xbf23180d	-0.63708574
40	0x3f64a47d	0.8931349
41	0xbed8a05c	-0.42309844
42	0x3ed522b4	0.4162804
43	0xbe36005a	-0.17773572
44	0xbf910063	-1.1328243
45	0xbd8cfc6b	-0.068840824
46	0xbf05522c	-0.5207851
47	0xbc21423a	-0.00984245
48	0xbe8bc58d	-0.27299157
49	0xbde08800	-0.1096344
50	0xbf7677b4	-0.962764
51	0xbf814c8d	-1.0101486
52	0x3e0ba1f1	0.13635994
53	0xbecce4c3	-0.4001828
54	0x3fbb5e87	1.4638222
55	0x3fb6cc61	1.4281121
56	0xbd3fca20	-0.04682362
57	0xbfbb088a	-1.4611981
58	0x3e9bc8da	0.30426675
59	0x3f0bcfab	0.5461375
60	0xbfb4210a	-1.4072583
61	0x3f681ba6	0.9066719
62	0x3fc440c3	1.5332264
63	0x3f1ae286	0.605019

fc1.bias f4 [64]
0	0xbf1cd4c4	-0.61262155
1	0xbea0a85d	-0.3137845
2	0xbe021adf	-0.12705563
3	0x3f10bec2	0.56541073
4	0xbf4eb24f	-0.8074083
5	0xbe0756ca	-0.13216701
6	0xbeab4648	-0.33452058
7	0xbcb1907e	-0.021675345
8	0xbd9efca0	-0.07763028
9	0xbf3e22d5	-0.742719
10	0xbe2042bc	-0.15650457
11	0xbb96a612	-0.004597434
12	0xbd894c8b	-0.067040525
13	0xbe95c608	-0.29252648
14	0xbf6d15ae	-0.92611206
15	0xbe4bf595	-0.19917901
16	0xbf33ffe2	-0.7031232
17	0xbf412783	-0.75450915
18	0xbc8d5a1a	-0.017254878
19	0xbf1db825	-0.6160911
20	0xbd80bce5	-0.06286029
21	0xbf14423c	-0.57913566
22	0xbf639452	-0.88898194
23	0xbd5b8d09	-0.0536013
24	0xbe5e1754	-0.21688586
25	0x3e0d8e9f	0.13823937
26	0xbd22a73b	-0.039710265
27	0xbe9e8fdb	-0.30969128
28	0xbd47a58a	-0.048741855
29	0x3dbc9f06	0.09210019
30	0xbf2bb71d	-0.67076284
31	0xbf390593	-0.7227413
32	0x3d3cdbd2	0.046108074
33	0xbeb6c398	-0.356961
34	0xbf0230bd	-0.5085562
35	0xbeaf7cd9	-0.3427494
36	0x3ebeeb16	0.3728873
37	0xbe3d7638	-0.18502128
38	0x3da7e505	0.08197979
39	0xbeba7064	-0.36413872
40	0xbf731990	-0.9496088
41	0xbf59b5c0	-0.85042953
42	0x3efbd6f8	0.49187446
43	0xbdd4f304	-0.10397914
44	0xbd3fec4d	-0.046856213
45	0xbd32c7d2	-0.043647595
46	0xbe9dbfea	-0.3081048
47	0x3de1a7d9	0.110183425
48	0x3e28819a	0.16455689
49	0xbf29e072	-0.663581
50	0xbd0c5a6d	-0.034265924
51	0xbd8ed594	-0.069743305
52	0x3e56a265	0.20960386
53	0xbe6f0f8f	-0.23345779
54	0xbede8bb4	-0.4346596
55	0xbed78420	-0.4209299
56	0xbf1ad250	-0.6047716
57	0x3bf54f53	0.007486263
58	0x3ef3b76f	0.47600886
59	0xbf00b6c8	-0.502789
60	0xbd78d4d9	-0.060749862
61	0xbf16acb1	-0.58857256
62	0xbeb07ada	-0.34468728
63	0xbdbff674	-0.09373179
