maddpg_pytorch/models/cache_data/model/run52/model.pt (torch, 690099 bytes, 168 tensors)

fc1.weight f4 [64, 1]
0.079308294 -0.61747736 -0.5718373 -0.024499316 -1.5833502 0.15931028 -0.06363987 0.19339268
-0.2843999 -0.72488886 -0.18687455 -0.034220617 -0.071332976 -0.7710188 -0.07290876 -0.072549805
-0.13847566 -0.0039948225 0.087541565 0.05552169 -0.08476218 -0.6541749 -0.16761565 -0.10549073
-0.9794783 0.047856204 -0.006957834 1.6347945 -0.949373 -0.16859564 -0.13763884 0.093312606
-0.024865884 -0.54933393 -0.95299804 -0.5678248 -0.030158775 -1.5993884 -0.07596189 -0.9899473
1.8936325 -0.42309844 -0.17237936 -0.29719314 -0.34912667 -0.00928331 -0.23687081 -0.10254792
-0.1231002 -0.1096344 -0.7220318 -0.42485 -0.042873763 -0.08670652 0.13879503 0.081949495
-0.04682362 0.0051176464 -0.11768416 0.05723422 -0.009737894 -0.03946245 0.30600712 0.106858015
00000000: 636c a23d ff12 1ebf ee63 12bf cab2 c8bc
00000010: 38ab cabf 3c22 233e 9f55 82bd bb08 463e
00000020: dd9c 91be 5192 39bf 0b5c 3fbe eb2a 0cbd
00000030: 0617 92bd 7d61 45bf 3051 95bd fe94 94bd
00000040: 90cc 0dbe 00e7 82bb fe48 b33d b66a 633d
00000050: cb97 adbd 0278 27bf 70a3 2bbe 860b d8bd
00000060: 17bf 7abf de04 443d 8bfe e3bb f240 d13f
00000070: 1c0a 73bf 56a4 2cbe 32f1 0cbe ae1a bf3d
00000080: 8ab3 cbbc 26a1 0cbf aef7 73bf f75c 11bf
00000090: 890f f7bc c2b8 ccbf e891 9bbd 306d 7dbf
000000a0: 8d62 f23f 5ca0 d8be 3784 30be b329 98be
000000b0: bbc0 b2be 0619 18bc 438e 72be a504 d2bd
000000c0: f51b fcbd 0088 e0bd 13d7 38bf f085 d9be
000000d0: 669c 2fbd 3093 b1bd 4920 0e3e 23d5 a73d
000000e0: 20ca 3fbd eeb1 a73b 6504 f1bd 6e6e 6a3d
000000f0: b08b 1fbc 61a3 21bd f7ac 9c3e 60d8 da3d

fc1.bias f4 [64]
-1.1158538 -0.79585284 -0.8871522 -0.064182736 -1.2431085 -1.3160889 -0.17981328 -1.7614405
-0.5403617 -1.167825 -0.3035503 -0.09422463 -0.13216631 -1.2528722 -0.92611206 -0.22026405
-1.0208582 -0.754509 -1.2124399 -0.63554657 -0.14185378 -0.28630787 -0.88898194 -0.5941777
-1.1288413 -0.32361272 -0.061266772 -1.3628224 -0.8722856 -0.53097486 -1.0833 -2.0290692
-0.058667824 -0.71249866 -1.3186668 -1.2628685 -0.11475526 -0.84650856 -0.17891207 -0.77308434
-0.6113995 -0.85042953 -0.37449014 -0.4049897 -1.0070988 -0.110919744 -1.0187835 -0.7290479
-0.16735812 -0.663581 -1.0716109 -1.0912161 -0.5057984 -0.20351934 -2.064333 -2.1237323
-0.6047716 -0.66963595 -0.15346467 -0.84750336 -0.08634296 -1.3477015 -2.1164114 -1.4974476
00000000: 4cd4 8ebf 03bd 4bbf 681c 63bf 3d72 83bd
00000010: 2e1e 9fbf 9a75 a8bf f920 38be e276 e1bf
00000020: 2555 0abf 4a7b 95bf f26a 9bbe d8f8 c0bd
00000030: 9b56 07be 1e5e a0bf ae15 6dbf e68c 61be
00000040: 7bab 82bf 8027 41bf 3b31 9bbf 2eb3 22bf
00000050: 1e42 11be f296 92be 5294 63bf 081c 18bf
00000060: df7d 90bf 91b0 a5be def2 7abd f770 aebf
00000070: 1c4e 5fbf f8ed 07bf 93a9 8abf 45dc 01c0
00000080: ac4d 70bd 5066 36bf 13ca a8bf ada5 a1bf
00000090: ce04 ebbd c9b4 58bf ba34 37be dbe8 45bf
000000a0: ad84 1cbf c0b5 59bf 2cbd bfbe cf5a cfbe
000000b0: 9de8 80bf e429 e3bd 7f67 82bf e2a2 3abf
000000c0: ed5f 2bbe 72e0 29bf 8c2a 89bf f8ac 8bbf
000000d0: 017c 01bf 6067 50be 081e 04c0 3beb 07c0
000000e0: 50d2 1abf 436d 2bbf d825 1dbe fbf5 58bf
000000f0: 94d4 b0bd 7c81 acbf 4973 07c0 5dac bfbf

fc2.weight f4 [64, 64]
0.072021365 0.010746537 -0.18009663 -0.22818954 0.0856796 0.082831696 -0.06343543 -0.005998991
-0.09169516 -0.056971766 -0.55278724 -0.15018438 -0.3634192 -0.15756747 -0.07661903 -0.10681332
0.038685977 -0.028304413 -0.094590984 -0.045500804 -0.035949983 0.051417656 -0.04233159 -0.018194454
-0.071397 -0.20707725 -0.5532891 -0.080452025 -0.12999356 -0.4998794 0.088871196 -0.12819608
-0.5615196 0.018269636 0.026970005 0.06486844 -0.6422591 -0.2488279 -0.37185183 -0.15012006
-0.1904519 -0.05697012 -0.5014588 -0.13317896 -0.10551896 -0.31722757 0.11213762 -0.227499
-0.06337962 0.003980443 -0.1209538 -0.053358406 -0.43781534 -0.14380702 -0.10768737 -0.024691075
-0.08062348 0.08885789 -0.518914 -0.09743534 -0.047759492 -0.14972562 0.04472646 -0.15357432
-0.15006807 -0.21741073 -0.21870495 -0.13737933 -0.16095929 -0.033809282 0.16737157 -0.1596407
0.016241739 -0.59058785 0.05864426 -0.05348833 0.030189116 -0.2007425 -0.009735331 0.24689156
0.02124931 0.05892451 -0.10199066 -0.06880654 0.2437519 0.0011560152 0.108982995 -0.008811037
-0.35815245 -0.13150826 -0.09051151 0.102695875 -0.19377366 -0.16515091 -0.008490732 -0.22253387
-0.18398601 -0.18412428 -0.1295022 -0.13678566 -0.15159537 -0.23171541 -0.17541367 -0.24268654
-0.1316806 -0.02662827 -0.3367992 0.10877755 -0.21129017 -0.1399217 -0.19664927 0.0942583
-0.023736754 -0.010949552 -0.04188495 0.0072704116 -0.38043135 0.14609429 -0.26543915 -0.24603806
-0.08321117 0.00601311 -0.2693886 0.06956045 -0.12769033 -0.04376805 -0.078496665 -0.19435601
-0.2809307 -0.52141154 -1.4168931 -0.081419945 -1.8714539 -0.037511647 0.09547234 -0.7144892
0.12212425 -2.4010117 0.077770084 -0.07153366 0.10641923 -0.9721767 0.035353497 0.244739
0.029732242 0.10367778 -0.36747572 -0.24909347 0.11625183 -4.4577813 -0.05921507 0.7183125
-1.7484566 0.09974794 0.030588726 -0.9476351 -0.9883068 -0.22962365 -0.05886276 -0.40122968
0.2745081 -0.34384778 -0.8253989 -2.0285904 0.29913723 -2.5658724 0.13373324 0.7986535
-4.1244125 0.0017213821 0.14175545 0.007788445 0.6890983 -0.15379149 0.47568318 0.0035541125
0.3622339 -0.047710195 -0.67309177 0.6682995 0.27342153 0.3125441 -0.7055085 -0.5924304
-0.11751327 -0.04398428 0.36428303 -0.13149765 0.5387936 -0.25309062 -0.05681283 -0.41475493
-0.15491702 -0.13481216 -0.106201366 -0.134543 0.052165568 -0.18649398 -0.22291291 -0.05412291
-0.20930593 -0.10969221 -0.02646209 -0.0012005522 0.027792143 -0.22246411 0.0010868162 -0.18252401
-0.069914594 -0.07031919 -0.0525855 -0.11833391 -0.22514443 -0.08810744 -0.10356602 -0.035578262
-0.15347654 -0.145069 -0.124100596 -0.28393358 -0.19501373 -0.16154335 0.10303644 -0.07337819
-0.13406253 -0.13143474 -0.008153591 0.003852134 0.025474062 0.12653911 -0.029629368 -0.14808622
-0.16994841 -0.12246022 -0.024670798 -0.053385418 -0.111966416 -0.07222816 -0.20558275 -0.18021114
-0.121260986 -0.025300056 -0.20073718 -0.12022066 -0.09229792 -0.1806661 -0.06778937 -0.08114407
-0.046100378 0.033057433 -0.043185104 -0.0037353372 -0.15182257 -0.16809528 -0.09217881 -0.11771736
00000000: f07f 933d 3e12 303c 406b 38be 85aa 69be
00000010: c978 af3d aaa3 a93d 6fea 81bd 2f93 c4bb
00000020: acca bbbd 3a5b 69bd 7783 0dbf efc9 19be
00000030: 1512 babe 5e59 21be 70ea 9cbd f1c0 dabd
00000040: 3075 1e3d a8de e7bc ebb8 c1bd 0d5f 3abd
00000050: 4a40 13bd 529b 523d e463 2dbd 890c 95bc
00000060: 9738 92bd 0f0c 54be 5ba4 0dbf 08c4 a4bd
00000070: 081d 05be 31f0 ffbe 1a02 b63d d545 03be
00000080: c0bf 0fbf 34aa 953c 33f0 dc3c bfd9 843d
00000090: 186b 24bf becc 7ebe 5d63 bebe 13b9 19be
000000a0: d305 43be 8059 69bd 9b5f 00bf 1160 08be
000000b0: 531a d8bd a76b a2be 69a8 e53d 7ff5 68be
000000c0: 2dcd 81bd 606e 823b a0b6 f7bd 588e 5abd
000000d0: 5529 e0be 2642 13be 328b dcbd f044 cabc
000000e0: ec1d a5bd 20fb b53d 8cd7 04bf 2e8c c7bd
000000f0: 759f 43bd ac51 19be 1833 373d 9642 1dbe
00000100: 72ab 19be eba0 5ebe 31f4 5fbe 2bad 0cbe
00000110: 83d2 24be 9a7b 0abd 7463 2b3e da78 23be
00000120: 650d 853c c430 17bf f734 703d 9416 5bbd
00000130: 2a4f f73c 718f 4dbe f080 1fbc 24d1 7c3e
00000140: 0813 ae3c d45a 713d 7be0 d0bd 71ea 8cbd
00000150: 199a 793e 6f85 973a 7a32 df3d 2b5c 10bc
00000160: c25f b7be 1aaa 06be 195e b9bd 3752 d23d
00000170: 9a6c 46be 521d 29be b61c 0bbc ebdf 63be
00000180: d466 3cbe 138b 3cbe 3a9c 04be 8a11 0cbe
00000190: d13b 1bbe ce46 6dbe a49f 33be d282 78be
000001a0: 47d7 06be 8823 dabc f270 acbe c4c6 de3d
000001b0: 735c 58be a247 0fbe 6d5e 49be 7f0a c13d
000001c0: 9573 c2bc c065 33bc 8e8f 2bbd a23c ee3b
000001d0: e6c7 c2be be99 153e a4e7 87be 67f1 7bbe
000001e0: 9e6a aabd 9f09 c53b 4ded 89be b675 8e3d
000001f0: 41c1 02be 2046 33bd dcc2 a0bd 4305 47be
00000200: 26d6 8fbe 3a7b 05bf c15c b5bf 80bf a6bd
00000210: cd8b efbf d0a5 19bd 0187 c33d c4e8 36bf
00000220: 471c fa3d 2daa 19c0 ec45 9f3d 3d80 92bd
00000230: 53f2 d93d 92e0 78bf d4ce 103d dc9c 7a3e
00000240: 0891 f33c 0455 d43d c725 bcbe 5c12 7fbe
00000250: 7015 ee3d 25a6 8ec0 808b 72bd 54e3 373f
00000260: 6dcd dfbf a648 cc3d 3595 fa3c 3798 72bf
00000270: ad01 7dbf 7622 6bbe 141a 71bd fa6d cdbe
00000280: 538c 8c3e d10c b0be 584d 53bf 6dd4 01c0
00000290: 8428 993e 4137 24c0 5ef1 083e 8e74 4c3f
000002a0: 30fb 83c0 00a0 e13a 5728 113e 3636 ff3b
000002b0: bf68 303f 847b 1dbe bf8c f33e 1dec 683b
000002c0: b976 b93e c46b 43bd be4f 2cbf ad15 2b3f
000002d0: e8fd 8b3e c805 a03e 349c 34bf 85a9 17bf
000002e0: ccaa f0bd dc28 34bd 4e83 ba3e 52a7 06be
000002f0: 61ee 093f 1895 81be 92b4 68bd c25a d4be
00000300: 91a2 1ebe 330c 0abe 1a80 d9bd a4c5 09be
00000310: 90ab 553d 47f8 3ebe 4843 64be fcaf 5dbd
00000320: 4b54 56be 4fa6 e0bd 06c7 d8bc d95b 9dba
00000330: 59ac e33c a2cd 63be 8073 8e3a 93e7 3abe
00000340: 622f 8fbd 8203 90bd e563 57bd 0d59 f2bd
00000350: 438c 66be ac71 b4bd 6c1a d4bd 83ba 11bd
00000360: f428 1dbe f88c 14be 7428 febd be5f 91be
00000370: aeb1 47be 9f6b 25be c504 d33d 4e47 96bd
00000380: b047 09be d496 06be a496 05bc 1674 7c3b
00000390: fbae d03c 7893 013e 4ab9 f2bc eaa3 17be
000003a0: f506 2ebe 6ccc fabd 6a1a cabc abaa 5abd
000003b0: a64e e5bd 5cec 93bd 4984 52be 4589 38be
000003c0: ae57 f8bd 1042 cfbc 0c8e 4dbe 4036 f6bd
000003d0: b106 bdbd 8900 39be 27d5 8abd dd2e a6bd
000003e0: c0d3 3cbd 3b67 073d dde2 30bd 8fcc 74bb
000003f0: 6077 1bbe 2b21 2cbe 3ec8 bcbd cd15 f1bd

fc2.bias f4 [64]
-0.34189153 -0.26891363 -0.08556954 -0.23664549 -0.4759974 -0.10332926 -0.35545123 -0.28584635
-0.27465123 -0.022233842 -0.22371627 -0.03166336 -1.1447898 -1.3271786 -0.12907076 -0.18902075
-0.07292008 -0.28721935 -0.32639232 -0.39567402 -0.5226682 -0.16157158 -0.22717157 -0.086522855
-0.06985431 -0.14278838 -0.24162447 -0.3827616 -0.31142098 -0.41615 -0.8639836 -0.74485654
-0.5848509 0.8869845 -0.09003803 -0.21527505 -0.0319274 -0.05459659 -0.43882936 0.10649897
-0.04782278 -0.4641125 -0.32861832 -0.38252056 -0.12717272 -0.13440992 -0.7025606 -0.18051358
-0.79581976 -0.48604703 -0.1172018 -0.17341445 -0.12899356 -0.37001747 -0.10433082 -0.049411204
-0.12324322 -0.26452827 -0.099261954 -0.11141988 0.9165831 -0.5628014 -0.24818349 -0.20906101
00000000: 680c afbe 0caf 89be 153f afbd 3253 72be
00000010: eeb5 f3be 4b9e d3bd b4fd b5be 745a 92be
00000020: 169f 8cbe bf23 b6bc e115 65be 70b1 01bd
00000030: 7988 92bf fde0 a9bf 202b 04be a88e 41be
00000040: 1f57 95bd 6a0e 93be e51c a7be c995 cabe
00000050: 95cd 05bf 0573 25be aa9f 68be e532 b1bd
00000060: c70f 8fbd 1e37 12be 686c 77be 54f9 c3be
00000070: 9272 9fbe 9d11 d5be 072e 5dbf ebae 3ebf
00000080: cab8 15bf 6b11 633f dc65 b8bd 1071 5cbe
00000090: 4ec6 02bd ada0 5fbd 3eae e0be 221c da3d
000000a0: d2e1 43bd 27a0 edbe a940 a8be bcd9 c3be
000000b0: 9139 02be c1a2 09be 03db 33bf 8dd8 38be
000000c0: d8ba 4bbf 28db f8be 7f07 f0bd 8f93 31be
000000d0: e316 04be ee72 bdbe 66ab d5bd 6763 4abd
000000e0: f166 fcbd 4070 87be da49 cbbd 1b30 e4bd
000000f0: 31a5 6a3f c113 10bf d023 7ebe 1714 56be

fc3.weight f4 [32, 64]
-0.21239363 -0.11042666 0.4174736 0.0013805974 -1.6431003 -0.048044294 0.012897637 0.17900053
-0.027612155 0.060253654 0.17566346 1.3501287 1.3330842 -0.20381452 0.22394459 -0.13577218
-2.5579865 -0.8093581 0.09627254 0.11274532 -0.01556834 1.2432811 0.1278132 0.08583809
0.12786436 -0.32647926 -0.16488436 0.036642358 -0.21729761 0.002294194 0.32555553 -0.18889141
0.023762332 -0.59494734 -1.3336943 2.643595 0.65314656 -0.0028328751 -0.39156014 3.047285
2.213026 0.6082433 -0.034884907 0.08268668 -0.3950597 -0.113334715 -0.84640944 0.57935596
0.43044323 -0.5660898 0.024970818 0.0019643975 1.7951782 0.20778847 -0.07151102 0.25266668
-0.15758061 -0.10378943 -0.06486087 0.093505464 0.8954927 -0.2129391 -0.077593714 -0.16026613
0.16356441 0.4277053 -0.86119545 -0.10232955 -0.20306735 0.024631709 0.37070534 0.20914187
-0.26027164 -0.22003391 -0.001039872 -1.5007212 -0.36550486 0.065053545 1.1115748 -0.017187143
-2.270262 -0.26896542 -0.23814073 -0.16162272 0.48717847 0.46192813 -0.04509873 0.051056407
-0.109129906 0.03659285 -0.031192642 -0.05489477 0.3370462 0.020126289 -1.2823961 -0.23648375
0.21047395 -1.6897355 1.3240707 -0.6659347 0.7200039 0.08450258 0.17100118 2.195158
0.63251144 -0.9262704 -0.15014558 -0.0037176933 0.154853 0.16137144 -0.45247492 0.32031438
0.37539834 0.019431667 -0.088519074 -0.25586128 1.54326 -0.28302822 0.075285114 0.07801705
-0.21056403 0.009129382 -0.14809874 -0.33878657 1.4325591 -0.12904383 0.118588865 -0.10454898
0.0019434309 -0.60096383 -0.3832576 0.043283343 -0.9728194 -0.076838456 -0.13392521 0.23911512
0.44342124 -0.16866483 -0.06389605 1.4887601 2.8023775 0.7424699 -0.33214828 0.013540471
0.052895427 0.08615799 0.051811077 -0.041620716 0.072509885 -1.5151882 0.064578086 -0.022486594
0.12610203 -0.19248109 -0.24516465 0.08011277 -0.23207454 0.034182426 0.8752054 -0.0037171072
0.0010226528 -2.8454132 1.4663461 -0.7140232 -1.5038295 0.10580218 -0.18381396 3.0203426
-1.0225705 0.03253348 -0.097990245 -0.049901687 -0.16540535 0.067174755 0.7266757 -0.99372166
-0.03801288 1.5700246 0.11784677 0.21650514 0.74664503 0.12008107 0.04165947 -0.17267953
0.28752673 0.03641693 0.051031552 0.10378098 4.104484 -0.09368748 0.023785219 -0.21565986
-0.040350027 0.22814962 0.9633597 0.10714301 0.94132406 -0.007906615 -0.3750502 -0.34345984
-0.7430492 -0.7749992 0.005568494 -1.4628828 2.3280103 -2.9666934 3.608228 0.064410225
-0.07414571 -0.014367683 0.1850493 0.03296604 0.13052125 1.3883982 -0.18727022 0.013997502
0.026141906 0.19581571 0.11761922 0.16706552 0.009402941 -0.31586885 -0.64299995 0.24631767
-0.011962764 -0.24114902 -2.0380535 -0.73526657 0.63761294 -0.14552236 0.56914204 5.9141088
-2.5230777 -0.20117943 -0.1704589 -0.062404253 -0.29193002 0.020146228 0.12118549 0.19173749
-0.3208603 -1.1328082 -0.027177786 0.072158575 0.20326169 -0.09619472 0.16676433 -0.0018175311
0.05048035 0.06805903 -0.12600084 -0.006700438 -0.80769396 0.095713705 0.45590642 -0.21470015
00000000: b77d 59be 5f27 e2bd 1abf d53e 29f5 b43a
00000010: 1c51 d2bf 18ca 44bd 9c50 533c ea4b 373e
00000020: e332 e2bc 89cc 763d 1fe1 333e 04d1 ac3f
00000030: 81a2 aa3f c1b4 50be bb51 653e dd07 0bbe
00000040: 0db6 23c0 1832 4fbf 8a2a c53d 05e7 e63d
00000050: 5a12 7fbc d623 9f3f 77e1 023e e1cb af3d
00000060: e0ee 023e 4a28 a7be 72d7 28be 4c16 163d
00000070: 4483 5ebe 305a 163b 37af a63e c06c 41be
00000080: 39a9 c23c 784e 18bf 7fb6 aabf a930 2940
00000090: 9d34 273f c2a7 39bb 927a c8be b806 4340
000000a0: 38a2 0d40 d5b5 1b3f 7ae3 0ebd a257 a93d
000000b0: 4445 cabe 081c e8bd 4aae 58bf ac50 143f
000000c0: 0e63 dc3e 43eb 10bf 9a8f cc3c 1fbd 003b
000000d0: 66c8 e53f 80c6 543e 5f74 92bd 875d 813e
000000e0: d05c 21be 8d8f d4bd c7d5 84bd cb7f bf3d
000000f0: 023f 653f b50c 5abe 74e9 9ebd ce1c 24be
00000100: 6e7d 273e 30fc da3e 4e77 5cbf 2892 d1bd
00000110: e3f0 4fbe 70c8 c93c 17cd bd3e 4929 563e
00000120: 5342 85be 9250 61be 504c 88ba a217 c0bf
00000130: 7423 bbbe cb3a 853d 1548 8e3f 0dcc 8cbc
00000140: f94b 11c0 d6b5 89be 2adb 73be 6d80 25be
00000150: 756f f93e d881 ec3e 72b9 38bd 8620 513d
00000160: 807f dfbd 62e2 153d b687 ffbc 57d9 60bd
00000170: 5291 ac3e e3df a43c 8e25 a4bf cc28 72be
00000180: 7c86 573e 4149 d8bf 267b a93f b27a 2abf
00000190: 2d52 383f b00f ad3d ef1a 2f3e 787d 0c40
000001a0: 45ec 213f 0f20 6dbf c3bf 19be 8ba4 73bb
000001b0: c991 1e3e 8e3e 253e cbaa e7be 3f00 a43e
000001c0: 3634 c03e 292f 9f3c 7d49 b5bd 4000 83be
000001d0: 8b89 c53f 13e9 90be 152f 9a3d 67c7 9f3d
000001e0: 199e 57be 6793 153c 32a7 17be 6f75 adbe
000001f0: 195e b73f 1124 04be b8de f23d c71d d6bd
00000200: b8ba fe3a c4d8 19bf 573a c4be e049 313d
00000210: b10a 79bf 7b5d 9dbd b123 09be 98da 743e
00000220: 1c08 e33e 79b6 2cbe efdb 82bd b18f be3f
00000230: 275a 3340 8212 3e3f 570f aabe dad8 5d3c
00000240: e0a8 583d 9a73 b03d da37 543d 7c7a 2abd
00000250: 1080 943d b0f1 c1bf 8441 843d ce35 b8bc
00000260: e420 013e c319 45be 710c 7bbe 2a12 a43d
00000270: f3a4 6dbe df02 0c3d 760d 603f b69a 73bb
00000280: 890a 863a 401b 36c0 3bb1 bb3f 39ca 36bf
00000290: 7c7d c0bf d0ae d83d ba39 3cbe 4b4d 4140
000002a0: 97e3 82bf d441 053d 1caf c8bd b665 4cbd
000002b0: 0560 29be eb92 893d 6b07 3a3f 8b64 7ebf
000002c0: 65b3 1bbd 91f6 c83f a659 f13d 86b3 5d3e
000002d0: 2124 3f3f 10ed f53d 1fa3 2a3d e7d2 30be
000002e0: b436 933e eb29 153d 7606 513d 1f8b d43d
000002f0: ef57 8340 39df bfbd 38d9 c23c f0d5 5cbe
00000300: 1246 25bd 0ea0 693e be9e 763f cb6d db3d
00000310: 9dfa 703f bf8a 01bc 9406 c0be f8d9 afbe
00000320: 7938 3ebf 5966 46bf ea77 b63b be3f bbbf
00000330: 1ffe 1440 4ede 3dc0 35ed 6640 82e9 833d
00000340: b5d9 97bd 6e66 6bbc 907d 3d3e 6607 073d
00000350: 5da7 053e 08b7 b13f c4c3 3fbe c755 653c
00000360: 8d27 d63c ea83 483e 58e2 f03d 3913 2b3e
00000370: cb0e 1a3c 90b9 a1be a59b 24bf b33a 7c3e
00000380: 78ff 43bc c5ef 76be 786f 02c0 6e3a 3cbf
00000390: 9a3a 233f d003 15be 4bb3 113f 6140 bd40
000003a0: 1b7a 21c0 fb01 4ebe c78c 2ebe 9a9b 7fbd
000003b0: da77 95be b409 a53c 1930 f83d d556 443e
000003c0: cd47 a4be dcff 90bf f3a3 debc e0c7 933d
000003d0: d523 503e bd01 c5bd 45c4 2a3e 393a eeba
000003e0: 7cc4 4e3d 8862 8b3d 5d06 01be 598f dbbb
000003f0: 08c5 4ebf 8c05 c43d 916c e93e 5bda 5bbe

fc3.bias f4 [32]
-1.0683225 -0.58015525 0.75332594 1.9421167 2.5956063 -0.28798136 -0.7430938 -2.238623
-2.7898428 -3.436287 2.3553774 -3.5606463 -1.6486973 -0.7912043 -0.754007 1.0737866
-2.1330416 -1.1879501 -3.423327 1.5896701 -3.4301398 -2.2460988 -0.8503234 0.24691579
-0.65745914 -1.6577011 -0.043362428 -0.8173074 4.0175414 -6.145926 -2.686281 1.680413
00000000: cbbe 88bf 0e85 14bf f8d9 403f 4897 f83f
00000010: 6a1e 2640 4b72 93be 653b 3ebf 9945 0fc0
00000020: c98c 32c0 20ec 5bc0 81be 1640 a1e1 63c0
00000030: 8308 d3bf 5d8c 4abf 9a06 41bf d771 893f
00000040: c183 08c0 c00e 98bf ca17 5bc0 4f7a cb3f
00000050: 6987 5bc0 15c0 0fc0 cbae 59bf 7ed7 7c3e
00000060: 3e4f 28bf 8d2f d4bf cd9c 31bd 0f3b 51bf
00000070: b38f 8040 6dab c4c0 07ec 2bc0 c617 d73f

in_fn.weight f4 [33]
2.1304283 0.20710242 0.2513485 0.2866015 0.89789593 0.30443755 0.35215065 0.23571576
-0.049697723 0.18424597 0.30978164 0.9409852 -0.22335465 0.32116258 0.2631971 0.17859164
0.6940596 0.29901683 -0.17189255 0.04853005 0.3629503 0.1809289 -0.09776393 0.29179758
0.7291879 -0.4248933 0.23806836 0.2661397 0.74173707 0.6666356 0.7950324 0.53304327
0.42446136
00000000: f058 0840 a812 543e c0b0 803e 6fbd 923e
00000010: 82dc 653f 3ddf 9b3e 174d b43e 795f 713e
00000020: d78f 4bbd faaa 3c3e b39b 9e3e 68e4 703f
00000030: 15b7 64be 6c6f a43e c5c1 863e bae0 363e
00000040: e4ad 313f bc18 993e 9a04 30be 72c7 463d
00000050: 9fd4 b93e 6d45 393e 7538 c8bd 7e66 953e
00000060: 0fac 3a3f 9d8b d9be 31c8 733e 7643 883e
00000070: 7be2 3d3f a1a8 2a3f 3e87 4b3f 8675 083f
00000080: 0053 d93e

in_fn.bias f4 [33]
0.51109636 -0.025954425 -0.04276385 0.07456088 0.95175266 0.116638765 0.047322635 0.05032057
0.04318961 -0.005297285 0.043407444 0.24552308 0.012051143 -0.05232624 0.054153856 0.24778484
0.2872011 -0.16642888 0.025923496 0.01022084 0.082872994 -0.030377632 -0.040469617 0.007479353
0.210806 -0.019259298 -0.02009007 0.06162049 0.20842817 0.18336555 0.9297305 0.23850958
0.19629115
00000000: 36d7 023f 609e d4bc 2629 2fbd 60b3 983d
00000010: 10a6 733f 4ee0 ee3d 61d5 413d f11c 4e3d
00000020: 97e7 303d d994 adbb 01cc 313d 676a 7b3e
00000030: 2872 453c 0a54 56bd 6fd0 5d3d 4fbb 7d3e
00000040: 060c 933e 556c 2abe 835d d43c 4f75 273c
00000050: 51b9 a93d 83da f8bc 78c3 25bd 5c15 f53b
00000060: 87dd 573e adc5 9dbc ee93 a4bc c465 7c3d
00000070: 326e 553e 2ec4 3b3e d102 6e3f db3b 743e
00000080: 8c00 493e

in_fn.running_mean f4 [33]
2.2938948 0.003892013 0.005351658 0.027064713 0.054980244 0.08033824 0.060078178 0.007842081
0.0028552408 0.0072290557 0.0051470664 0.11088393 0.0014956133 0.020359227 0.005919407 0.0038327803
0.079797715 0.0099795805 0.008409366 0.0017629778 0.013366073 0.0075576734 0.0025387332 0.02054596
0.14890552 0.024654599 0.0039809183 0.009063752 0.026789077 0.08951413 0.06343922 0.025269305
0.067155965
00000000: 2ccf 1240 2511 7f3b f65c af3b d1b6 dd3c
00000010: f732 613d 6088 a43d 8914 763d 127c 003c
00000020: fe1e 3b3b b7e1 ec3b b9a8 a83b 1d17 e33d
00000030: 7408 c43a 65c8 a63c 96f7 c13b 622f 7b3b
00000040: fc6c a33d 6581 233c 70c7 093c b813 e73a
00000050: 60fd 5a3c 5ca6 f73b e060 263b 0050 a83c
00000060: b07a 183e 71f8 c93c 5d72 823b 2280 143c
00000070: c474 db3c 2f53 b73d 6cec 813d 9301 cf3c
00000080: 1189 893d

in_fn.running_var f4 [33]
7.034993 0.0038772963 0.0053199786 0.026308144 0.050724484 0.072006 0.056067448 0.0077621555
0.0028460952 0.007133104 0.0050937785 0.09682383 0.001491171 0.019938342 0.0058782296 0.0038181068
0.07335456 0.00986501 0.008316618 0.001758286 0.01318404 0.0074878656 0.0025320083 0.019935733
0.12589127 0.02402648 0.003965034 0.008976678 0.025651136 0.08025251 0.05647495 0.024589855
0.061928578
00000000: aa1e e140 3d1a 7e3b 3753 ae3b 2d84 d73c
00000010: 7ac4 4f3d e277 933d fba6 653d ae59 fe3b
00000020: 8e85 3a3b d0bc e93b b6e9 a63b 924b c63d
00000030: 6573 c33a bc55 a33c 2a9e c03b 3439 7a3b
00000040: ea3a 963d daa0 213c 6d42 083c 4a76 e63a
00000050: df01 583c c55c f53b 0df0 253b 4350 a33c
00000060: a4e9 003e 2ed3 c43c 1eed 813b eb12 133c
00000070: 5522 d23c 6e5b a43d 4752 673d aa70 c93c
00000080: d2a8 7d3d

fc1.weight f4 [64, 33]
0.06334301 -0.5774082 -0.2525001 0.25718004 -1.7214618 -0.17510965 0.4790928 -0.21940434
-0.22882979 0.33933222 0.079056926 -0.27079555 0.3986828 -0.15883829 -0.10648711 -0.116075225
-0.078594245 0.2524599 -0.3289359 0.029281767 -0.080808036 0.0059058242 0.25858417 0.013213308
0.33126816 -0.22205916 0.022363689 -0.32807988 0.3183439 0.41437355 -1.5903699 -0.8568007
0.10822874 -0.23024148 0.12981203 0.21012251 -0.1837736 -1.1641718 0.19758464 0.3090177
-0.6174915 -0.023668874 0.2619621 0.027389916 -0.19975331 -0.317697 0.14356883 -0.10875669
-1.2254546 -0.32496026 1.6978993 -0.30244884 0.21430397 -0.7796224 0.00818277 0.4674722
0.44093186 0.1366065 -0.06416385 -0.15440132 -0.47699925 -0.229676 -0.21200211 -1.3856746
-0.886302 -0.8877638 -2.3217485 0.5367292 -0.27399594 0.35016385 0.35243064 0.50262964
-0.37857994 -0.28205585 0.21931471 -0.67779064 -0.14393415 -0.013975605 -0.76541317 0.43928367
0.28096363 0.54962814 0.51083285 0.8376439 0.5404495 0.09494878 0.55367404 0.36142743
0.01942017 -0.33616766 0.5958077 -0.2971139 0.44089124 0.4098486 -0.2137202 0.28987885
-0.40365443 0.08244735 -0.44246092 -1.4522253 -0.5952826 -0.14081909 -0.64684105 -1.7944992
-0.77709067 -0.15303965 -0.9938328 0.053732738 0.20857333 -0.36044475 -0.31628463 0.25314316
-0.07133131 0.05540123 -0.50886536 -0.12771612 0.27153498 -0.053389106 -0.2644641 -0.22758879
0.49320993 0.13994616 0.35251355 0.3125398 0.64607775 0.2901194 -0.4304718 0.81982476
1.0101407 -1.0647212 -0.27138403 0.121641554 -2.7390244 -0.50003904 -0.6371648 -0.86178803
-1.6321429 -0.86073416 0.31369257 0.5081625 -0.33238405 0.79299706 0.05880945 -0.6607479
-0.10760132 -0.023992408 -0.63738483 0.10410215 0.18238406 0.66623735 0.7289917 0.19100374
-1.0371127 0.050301507 0.439706 0.55567986 -0.23625171 -0.3681454 0.84602284 0.47961757
0.42887795 -0.56286836 -0.38545886 1.1417418 0.25001755 -1.09596 0.15563907 0.21318765
0.09968644 -1.7336556 -0.38105902 0.12882875 -0.35521516 -1.2660322 -0.38092303 -0.48488015
-1.2303429 -0.05539134 0.14255925 -0.5383074 0.0726746 -0.020711504 -0.062661625 -0.18366128
0.03469642 -0.07426265 0.57665104 -0.06298504 0.01883771 0.2955482 -0.4673073 0.27772957
-0.4150565 -0.18470655 -0.37599438 -1.658493 -1.1655236 -0.70308423 -1.2984815 -0.16694017
0.12904124 0.027053993 -2.0475428 -0.33265036 0.35894442 -0.26512673 -0.20704417 0.12153052
0.28373453 -0.78638315 -0.16056262 0.35500142 -0.46835282 -0.25270772 -0.58108395 0.3535735
-0.24570088 -0.3821988 0.744307 0.49420705 0.19757631 -0.23556612 0.066258416 -0.23870747
0.22092958 -0.6347447 0.18880168 -0.37949005 -2.7497065 -1.2807856 0.664391 -0.13705361
-0.23458566 0.36157486 0.4537426 -1.388884 -0.13632633 0.5827821 0.0060897307 0.033480052
0.42595562 0.48961836 0.3726881 -0.109302185 0.21053942 0.19148526 -0.40397504 -0.37009937
0.5780116 -0.7171956 -0.2864664 -0.2011553 0.25030243 0.25662342 0.25664148 -0.3002317
00000000: fbb9 813d 06d1 13bf b147 81be 1aad 833e
00000010: dc58 dcbf f24f 33be a74b f53e 88ab 60be
00000020: 5b52 6abe f4bc ad3e 99e8 a13d b7a5 8abe
00000030: 2720 cc3e 81a6 22be ea15 dabd d9b8 edbd
00000040: 05f6 a0bd 6d42 813e 496a a8be 51e0 ef3c
00000050: af7e a5bd a585 c13b 2565 843e a17c 583c
00000060: fb9b a93e 7a63 63be 0e34 b73c 16fa a7be
00000070: f9fd a23e c528 d43e 3e91 cbbf 4a57 5bbf
00000080: 08a7 dd3d 6cc4 6bbe 72ed 043e 5b2a 573e
00000090: 262f 3cbe 9503 95bf a153 4a3e 9137 9e3e
000000a0: ec13 1ebf 3ae5 c1bc e51f 863e d160 e03c
000000b0: 228c 4cbe 2ea9 a2be b503 133e d4bb debd
000000c0: b2db 9cbf 3161 a6be c454 d93f 93da 9abe
000000d0: 8072 5b3e 5595 47bf 0611 063c 8458 ef3e
000000e0: d2c1 e13e 93e2 0b3e 5668 83bd 611b 1ebe
000000f0: 3f39 f4be 2f30 6bbe 1517 59be c95d b1bf
00000100: b0e4 62bf 7d44 63bf 8797 14c0 1667 093f
00000110: 3249 8cbe ad48 b33e ca71 b43e 56ac 003f
00000120: 3bd5 c1be a069 90be 0994 603e b083 2dbf
00000130: 7963 13be f0f9 64bc 1ef2 43bf cae9 e03e
00000140: 77da 8f3e 6eb4 0c3f f1c5 023f d56f 563f
00000150: e65a 0a3f 8274 c23d 95bd 0d3f 040d b93e
00000160: 0c17 9f3c 2b1e acbe da86 183f 501f 98be
00000170: 7fbc e13e add7 d13e 78d9 5abe 006b 943e
00000180: cbab cebe 28da a83d 3d8a e2be 85e2 b9bf
00000190: 7164 18bf e132 10be 6097 25bf 26b2 e5bf
000001a0: 6aef 46bf 6db6 1cbe d46b 7ebf dc16 5c3d
000001b0: 3f94 553e 378c b8be 0ff0 a1be fb9b 813e
000001c0: 2616 92bd 66ec 623d 0045 02bf 04c8 02be
000001d0: a206 8b3e 89ae 5abd d767 87be 090d 69be
000001e0: 0386 fc3e 0c4e 0f3e a87c b43e 3705 a03e
000001f0: 5a65 253f 888a 943e cd66 dcbe 09e0 513f
00000200: 4a4c 813f c948 88bf d9f2 8abe 351f f93d
00000210: 2d4c 2fc0 8f02 00bf 3b1d 23bf 249e 5cbf
00000220: 0fea d0bf 1359 5cbf 509c a03e f016 023f
00000230: 3e2e aabe db01 4b3f 2ee2 703d c626 29bf
00000240: 155e dcbd ba8b c4bc a72b 23bf 8233 d53d
00000250: e3c2 3a3e 888e 2a3f 339f 3a3f 7c96 433e
00000260: 1cc0 84bf f408 4e3d 2521 e13e 0941 0e3f
00000270: f8eb 71be 8e7d bcbe f494 583f 6f90 f53e
00000280: e495 db3e 2418 10bf dd5a c5be 9824 923f
00000290: 4d02 803e 6b48 8cbf d95f 1f3e dd4d 5a3e
000002a0: 6728 cc3d 6de8 ddbf 2b1a c3be afeb 033e
000002b0: c3de b5be 580d a2bf 5808 c3be 3642 f8be
000002c0: e07b 9dbf 08e2 62bd 0dfb 113e 84ce 09bf
000002d0: 6cd6 943d 2cab a9bc bd54 80bd b411 3cbe
000002e0: d51d 0e3d 0417 98bd 679f 133f 4dfe 80bd
000002f0: 8b51 9a3c 1852 973e e742 efbe 9232 8e3e
00000300: 4982 d4be b723 3dbe 5682 c0be 8049 d4bf
00000310: e12f 95bf 54fd 33bf a434 a6bf 5df2 2abe
00000320: 6323 043e 56a0 dd3c f10a 03c0 2651 aabe
00000330: 90c7 b73e b1be 87be 6303 54be fee4 f83d
00000340: a745 913e 6850 49bf 876a 24be bfc2 b53e
00000350: f1cb efbe e862 81be ebc1 14bf 9607 b53e
00000360: 0399 7bbe 90af c3be e78a 3e3f b508 fd3e
00000370: 7251 4a3e 3f38 71be 7eb2 873d bb6f 74be
00000380: 5d3b 623e a17e 22bf 3a55 413e 854c c2be
00000390: 31fb 2fc0 c8f0 a3bf 8715 2a3f c857 0cbe
000003a0: 3937 70be 5720 b93e f350 e83e f3c6 b1bf
000003b0: 2199 0bbe 3531 153f 5d8c c73b 6122 093d
000003c0: db16 da3e 42af fa3e fad0 be3e d3d9 dfbd
000003d0: a597 573e b614 443e d1d5 cebe aa7d bdbe
000003e0: 91f8 133f 219a 37bf b9ab 92be a8fb 4dbe
000003f0: a427 803e 2564 833e 8366 833e f8b7 99be

fc1.bias f4 [64]
-1.3243864 -1.265307 -1.0657471 -2.063537 -2.1429408 -1.1883315 -2.8274448 -1.609247
-1.6592678 -0.77430785 -0.5171409 -1.0714185 -1.7199131 -0.29757452 -2.5339072 -0.67464143
-0.07223077 -1.7668487 -1.4817351 0.3953502 -1.4296883 -1.6073214 -0.7824701 -1.3827043
-1.2141142 -2.6024008 -1.216421 -1.4754775 -1.3104393 -0.6405528 -2.4110224 -1.0881754
-0.23544344 -1.1128242 -1.8373473 -1.6599553 -1.5622941 -1.4473749 -2.7490385 -1.4910756
0.027685711 -2.347228 0.044703577 -1.0863502 -2.5866342 -2.956448 -2.814602 -1.0266414
-1.5146029 -3.4295413 -1.4630095 -1.1853313 -2.2317505 -2.2344322 -1.9550683 -1.5940069
-1.9874439 -1.4605271 -2.800403 -1.0519577 -2.2078264 -2.2421517 -2.3307643 -1.8003055
00000000: 7e85 a9bf 94f5 a1bf 676a 88bf fd10 04c0
00000010: f125 09c0 3f1b 98bf dbf4 34c0 cefb cdbf
00000020: e362 d4bf 0a39 46bf 5963 04bf 3e24 89bf
00000030: 1d26 dcbf b05b 98be 892b 22c0 4db5 2cbf
00000040: baed 93bd 1928 e2bf 7fa9 bdbf 576b ca3e
00000050: 0700 b7bf b5bc cdbf f64f 48bf 74fc b0bf
00000060: 1868 9bbf bc8d 26c0 afb3 9bbf 72dc bcbf
00000070: 7abc a7bf 45fb 23bf 314e 1ac0 5549 8bbf
00000080: 1618 71be 0671 8ebf 322e ebbf 6a79 d4bf
00000090: 41f9 c7bf 9543 b9bf 3ff0 2fc0 91db bebf
000000a0: 25cd e23c fc38 16c0 191b 373d 860d 8bbf
000000b0: 6a8b 25c0 7236 3dc0 7022 34c0 fc68 83bf
000000c0: 82de c1bf 9b7d 5bc0 e543 bbbf f0b8 97bf
000000d0: 00d5 0ec0 f000 0fc0 ae3f fabf 6b08 ccbf
000000e0: 9064 febf 8df2 babf ce39 33c0 8da6 86bf
000000f0: 074d 0dc0 6a7f 0fc0 3e2b 15c0 6970 e6bf

fc2.weight f4 [64, 64]
-0.09980689 0.04191103 -0.05148782 -0.16659687 -0.01782681 -0.045080543 -0.008229055 0.06944848
-0.12496623 -0.10442596 -0.33349028 -0.46068725 5.5367993e-05 -0.34212524 -0.01055188 -0.2396081
-0.29650092 0.033074602 -0.04807977 -0.4864646 -0.17763127 -0.22725144 -0.27903244 -0.04469555
-0.025831498 -0.0967853 -0.08224117 -0.15466347 -0.06274659 -0.20493236 -0.06002251 -0.26763275
-0.17250611 -0.094242424 -0.009286009 0.04311674 0.016195398 -0.121905856 -0.25000322 0.019192498
-0.13121697 0.05228562 -0.028968327 0.09302267 -0.14213067 -0.021146253 -0.1982842 -0.030991515
-0.20815141 0.013637627 -0.057776526 -0.0044815093 -0.09103619 -0.03698873 -0.19249791 -0.20543979
-0.02901846 -0.07642582 0.070454344 -0.048182245 -0.0032260644 -0.20501634 0.09823387 0.059574027
-0.31390545 -0.68029094 -0.77541476 -0.2864264 -0.39039174 -0.8775869 0.025366751 0.011097963
-0.19153161 -0.33483362 -0.14615102 0.13272384 -0.24119273 -0.2744168 0.1129404 -0.083860874
-0.9157521 -0.36532238 -1.3264376 -0.47417516 -0.079174764 -0.026236402 -0.9508572 -0.11948389
-0.53767854 -0.31290042 -0.23841365 0.17406756 -0.10581378 -0.4218321 -0.31478426 -0.18289708
-0.5230733 -0.6336055 -0.10567438 -0.08532521 0.020109074 -0.10482741 -0.181568 -0.25091094
-0.6067415 0.34043553 -0.2778888 0.023494374 -0.090061 0.003974619 -0.44815254 -0.19529852
-0.13820106 -0.19808109 -0.04848362 -0.5406846 -0.21529718 -0.38166887 -0.42877784 -0.080481954
-0.4204712 -0.18735732 -0.09855905 -1.0959749 -0.16951059 -0.29368713 -0.17095642 -0.0055625886
-0.21733029 -0.78934866 -0.5661573 -0.11957676 -0.3168848 -0.21016929 -0.18830559 -0.30896217
-0.22378072 -0.16204818 -0.64409596 -0.31884125 -0.03145086 -0.68785036 -0.48143896 0.014501475
-0.28996477 -0.16110583 -0.4111318 -0.19229949 -0.1648514 -0.27283505 -0.27802178 -0.039775595
-0.34378883 -0.6562428 0.0524906 -0.014846642 0.09091466 -0.23448311 0.028882729 -0.13925163
0.010755414 -0.36199516 0.18319203 0.028855676 -0.07951655 -0.14748923 -0.22982173 0.054564524
-0.04253802 0.023593191 -0.023090186 -0.003751683 0.1495016 -0.022627065 -0.32377315 0.055545326
0.08964472 -0.13477448 0.0043598516 -0.14985688 -0.6566765 -0.026310636 -0.3267109 -0.10511783
-1.0024557 0.00079637836 0.30446532 -0.03558428 -0.13633499 -0.41061795 -0.020484528 0.08332237
-0.34382978 -0.08435379 -0.23267367 -0.1927714 -0.51582426 0.49911183 -0.2246262 0.09721775
-0.34692717 -0.065185286 0.14914595 -0.8001972 -0.24125616 -0.45802468 -0.41474658 -0.14263642
-0.39138094 0.0418125 -0.26661667 -1.6852244 -0.09170633 0.1408435 -0.38157105 -0.61875165
-0.048472274 0.031092556 -0.27373344 -0.0664689 -0.0052410434 -0.5123817 -0.13147654 -0.18683338
-1.411168 0.18845238 0.25475058 -0.04602224 -0.16638601 -0.06466193 -0.6997714 0.23760825
-0.5817092 0.1663434 -0.3951803 -0.050547104 0.2459135 -0.09731708 0.46641538 -0.122617155
0.03521866 -0.15472285 -0.33367833 0.011278715 -0.20304382 -0.1664742 -0.43477166 -0.07062586
-0.13428532 0.07981738 -0.11163416 -0.61730176 0.12826829 -0.19562817 -0.22089365 -0.36153543
00000000: 8e67 ccbd e6aa 2b3d e4e4 52bd 5f98 2abe
00000010: 8809 92bc 60a6 38bd 29d3 06bc 013b 8e3d
00000020: 4bee ffbd 47dd d5bd 3dbf aabe 33df ebbe
00000030: ee3a 6838 0a2b afbe cbe1 2cbc d35b 75be
00000040: f8ce 97be 3c79 073d 4bef 44bd e311 f9be
00000050: f9e4 35be 9ab4 68be 57dd 8ebe ae12 37bd
00000060: 949c d3bc 5f37 c6bd 0f6e a8bd 1a60 1ebe
00000070: 4981 80bd cad9 51be 2ada 75bd 2907 89be
00000080: 71a5 30be 2c02 c1bd 5824 18bc 2e9b 303d
00000090: 36ac 843c c7a9 f9bd 6c00 80be 9639 9d3c
000000a0: be5d 06be 7229 563d fc4e edbc ab82 be3d
000000b0: b48a 11be e83a adbc 030b 4bbe ebe1 fdbc
000000c0: a525 55be 5a70 5f3c 14a7 6cbd a0d9 92bb
000000d0: 2f71 babd 7f81 17bd 2c1e 45be cf5e 52be
000000e0: 1fb8 edbc 2485 9cbd 5e4a 903d bf5a 45bd
000000f0: 616c 53bb ceef 51be d72e c93d e503 743d
00000100: 37b8 a0be 8c27 2ebf 9581 46bf 7ba6 92be
00000110: 6de1 c7be 89a9 60bf efcd cf3c 3bd4 353c
00000120: dd20 44be 506f abbe 9da8 15be c2e8 073e
00000130: 3afb 76be 5c80 8cbe 4c4d e73d 40bf abbd
00000140: bb6e 6abf 890b bbbe b5c8 a9bf 16c7 f2be
00000150: 6126 a2bd b9ed d6bc 616b 73bf f8b3 f4bd
00000160: 4da5 09bf 7c34 a0be b522 74be c43e 323e
00000170: e5b4 d8bd 61fa d7be 672b a1be 5f49 3bbe
00000180: 22e8 05bf f833 22bf cf6b d8bd fcbe aebd
00000190: c9bb a43c c1af d6bd f6ec 39be 6677 80be
000001a0: 6953 1bbf 914d ae3e 7147 8ebe 4677 c03c
000001b0: e771 b8bd 853d 823b 4074 e5be 56fc 47be
000001c0: 9484 0dbe c5d5 4abe c396 46bd 4e6a 0abf
000001d0: dd76 5cbe 1a6a c3be c588 dbbe b9d3 a4bd
000001e0: 0048 d7be 99da 3fbe 54d9 c9bd e848 8cbf
000001f0: 2f94 2dbe 295e 96be 330f 2fbe 6046 b6bb
00000200: d58b 5ebe c112 4abf afef 10bf a9e4 f4bd
00000210: b93e a2be 9e36 57be 2ed3 40be 4a30 9ebe
00000220: c626 65be f5ef 25be 79e3 24bf 293f a3be
00000230: 9ed2 00bd f616 30bf 2b7f f6be 9897 6d3c
00000240: 4376 94be edf8 24be de7f d2be 28ea 44be
00000250: cece 28be 09b1 8bbe df58 8ebe bceb 22bd
00000260: 1705 b0be 87ff 27bf 6200 573d 543f 73bc
00000270: 7731 ba3d 571c 70be 799b ec3c fb97 0ebe
00000280: 7a37 303c 6e57 b9be b196 3b3e bd62 ec3c
00000290: 93d9 a2bd 6b07 17be 6356 6bbe 0d7f 5f3d
000002a0: 593c 2ebd 8246 c13c a127 bdbc ccde 75bb
000002b0: f316 193e 655c b9bc 98c5 a5be 7f83 633d
000002c0: a797 b73d 5202 0abe 16dd 8e3b 1574 19be
000002d0: f31b 28bf 6789 d7bc a746 a7be 0448 d7bd
000002e0: 7850 80bf 0cc4 503a e1e2 9b3e d2c0 11bd
000002f0: 669b 0bbe 843c d2be 2bcf a7bc eba4 aa3d
00000300: 750a b0be aec1 acbd 0242 6ebe de65 45be
00000310: 0f0d 04bf 968b ff3e 6904 66be 1a1a c73d
00000320: 70a0 b1be dd7f 85bd b7b9 183e b9d9 4cbf
00000330: db0b 77be 3682 eabe aa59 d4be 480f 12be
00000340: 1563 c8be 9643 2b3d fb81 88be 6fb5 d7bf
00000350: 87d0 bbbd 4739 103e 485d c3be 8266 1ebf
00000360: dd8a 46bd d1b5 fe3c ca26 8cbe d920 88bd
00000370: 0fbd abbb 722b 03bf c9a1 06be 4051 3fbe
00000380: 27a1 b4bf a9f9 403e ab6e 823e d181 3cbd
00000390: 1861 2abe 796d 84bd 3824 33bf 944f 733e
000003a0: e5ea 14bf ed55 2a3e 1355 cabe 7b0a 4fbd
000003b0: c0d0 7b3e 2d4e c7bd ffcd ee3e b41e fbbd
000003c0: 7141 103d ab6f 1ebe e3d7 aabe 5cca 383c
000003d0: b8ea 4fbe 3678 2abe 649a debe 4aa4 90bd
000003e0: 1782 09be 4b77 a33d 73a0 e4bd 7d07 1ebf
000003f0: c358 033e c052 48be f231 62be 2c1b b9be

fc2.bias f4 [64]
-0.2236474 -0.6407708 -0.48411492 -1.0229628 -0.122858286 -0.5034278 -0.34239152 -0.27158433
-0.65370566 -0.21814893 -0.583073 -0.53629416 0.13190566 -0.1894958 -1.2380154 -0.3449252
-0.4411668 -0.8244149 0.46025783 0.80052173 -0.39014655 -0.21391913 -0.16465245 -0.60781145
-0.5090429 -0.33223367 -0.17058794 -0.82450134 2.2889802 0.4931408 -0.4986968 -0.4321151
-0.5640853 -0.532601 -0.4124771 -0.2625278 -0.24123596 -0.31866348 -0.11274062 -0.46503338
-0.8030161 -0.40873054 -0.2164039 0.6221178 -0.21689728 -0.4171539 -0.28153756 -0.8401176
-0.15063415 -0.27711594 -0.2873632 -0.76381856 -0.58506054 -0.2370706 -0.8521494 -0.4303
-0.34592557 0.8249699 -0.17093457 -0.42651045 -0.05975327 -0.010649193 -0.36412632 -0.45710856
00000000: d303 65be 8e09 24bf e9dd f7be 72f0 82bf
00000010: 209d fbbd a5e0 00bf f14d afbe 1a0d 8bbe
00000020: 4159 27bf 6f62 5fbe 4644 15bf 934a 09bf
00000030: 4712 073e 300b 42be 4a77 9ebf 099a b0be
00000040: 9de0 e1be db0c 53bf eaa6 eb3e feee 4c3f
00000050: 4ac1 c7be 9e0d 5bbe a79a 28be 8899 1bbf
00000060: a350 02bf 881a aabe 9bae 2ebe 8512 53bf
00000070: a77e 1240 f37c fc3e 3055 ffbe 313e ddbe
00000080: e567 10bf 8a58 08bf 3330 d3be 0b6a 86be
00000090: 8f06 77be dc27 a3be 8ee4 e6bd db18 eebe
000000a0: 7792 4dbf 2145 d1be fc98 5dbe 1d43 1f3f
000000b0: 521a 5ebe 3295 d5be b125 90be f211 57bf
000000c0: d73f 1abe 24e2 8dbe 4521 93be 9d89 43bf
000000d0: 87c6 15bf a3c2 72be 7726 5abf 4850 dcbe
000000e0: 281d b1be 3a31 533f 7909 2fbe 945f dabe
000000f0: d8bf 74bd f479 2ebc c46e babe 220a eabe

fc3.weight f4 [1, 64]
0.10851966 0.029880628 0.062783115 0.008313889 -0.010983765 -0.1491553 -0.31065717 0.011764021
-0.06928761 -0.0014768484 -0.14706005 -0.29938954 0.090853445 -0.12491087 -0.017829215 0.019291228
0.13993351 -0.10699635 0.32202283 0.15388735 -0.08983716 0.014750405 0.04274971 0.20585276
0.0546645 0.29558548 -0.027364543 -0.18857698 0.16278465 -0.058757894 0.069826595 -0.2453788
0.3079412 0.017151913 -0.11018019 0.22612679 0.08184112 0.09777236 -0.010552809 -0.020810064
-0.23717012 -0.21648465 -0.2766019 -0.1277806 -0.23885669 0.07238999 -0.054088727 -0.21625467
-0.15350354 0.047240056 -0.021436729 0.0022204665 0.17422716 -0.014133254 0.025005598 0.20748912
0.2774171 0.20875365 0.0043668286 0.015437042 -0.001679152 0.06971673 -0.16008887 0.08638884
00000000: 8e3f de3d 38c8 f43c 6f94 803d fa36 083c
00000010: 40f5 33bc 2bbc 18be 750e 9fbe e1bd 403c
00000020: aae6 8dbd cf92 c1ba e996 16be 9649 99be
00000030: 5f11 ba3d 45d1 ffbd 930e 92bc a308 9e3c
00000040: bb4a 0f3e e720 dbbd 2de0 a43e a594 1d3e
00000050: 8cfc b7bd afab 713c 521a 2f3d 11cb 523e
00000060: e2e7 5f3d fb56 973e 9b2b e0bc 531a 41be
00000070: 05b1 263e 1eac 70bd 3f01 8f3d 9544 7bbe
00000080: 78aa 9d3e 2b82 8c3c 27a6 e1bd c88d 673e
00000090: 519c a73d e03c c83d b0e5 2cbc de79 aabc
000000a0: b9dc 72be 27ae 5dbe c49e 8dbe ebd8 02be
000000b0: d996 74be 3441 943d 248c 5dbd dd71 5dbe
000000c0: 0830 1dbe ca7e 413d 149c afbc 3f85 113b
000000d0: 9b68 323e 2a8f 67bc 8ad8 cc3c 0778 543e
000000e0: 9d09 8e3e 84c3 553e 9d17 8f3b a6eb 7c3c
000000f0: fe16 dcba a5c7 8e3d 56ee 23be a2ec b03d

fc1.weight f4 [64, 1]
0.0793089 -0.6174838 -0.57202446 -0.024499303 -1.5832913 0.1593107 -0.06364031 0.19339415
-0.28440234 -0.7251197 -0.18687488 -0.034220364 -0.07133378 -0.7713467 -0.07290876 -0.07255047
-0.13847439 -0.0039948225 0.087541796 0.055521965 -0.08476272 -0.6550877 -0.16761565 -0.10549027
-0.979572 0.04785606 -0.0069578015 1.6332047 -0.9493673 -0.16859563 -0.13763843 0.093313016
-0.024866056 -0.54933774 -0.9530607 -0.56801736 -0.030158954 -1.5993664 -0.07596209 -0.98996514
1.8882643 -0.42309844 -0.17237905 -0.29719055 -0.34932727 -0.009283293 -0.23669419 -0.10254729
-0.12310047 -0.1096344 -0.722106 -0.42500392 -0.042873476 -0.08670733 0.13879624 0.08195013
-0.04682362 0.005117646 -0.11768464 0.05723448 -0.009737872 -0.039462227 0.30600902 0.10685819
00000000: b46c a23d 6b13 1ebf 3270 12bf c3b2 c8bc
00000010: 4aa9 cabf 5822 233e da55 82bd 1e09 463e
00000020: 2f9d 91be 72a1 39bf 215c 3fbe a72a 0cbd
00000030: 7217 92bd fa76 45bf 3051 95bd 5795 94bd
00000040: 3bcc 0dbe 00e7 82bb 1d49 b33d 006b 633d
00000050: 1498 adbd d4b3 27bf 70a3 2bbe 480b d8bd
00000060: 3bc5 7abf b704 443d 45fe e3bb da0c d13f
00000070: bc09 73bf 55a4 2cbe 17f1 0cbe e51a bf3d
00000080: e6b3 cbbc 66a1 0cbf c9fb 73bf 9669 11bf
00000090: e90f f7bc 0ab8 ccbf 0392 9bbd 5b6e 7dbf
000000a0: a5b2 f13f 5ca0 d8be 2284 30be 5c29 98be
000000b0: 06db b2be f418 18bc f65f 72be 5004 d2bd
000000c0: 191c fcbd 0088 e0bd f0db 38bf 1d9a d9be
000000d0: 199c 2fbd 9d93 b1bd 9a20 0e3e 78d5 a73d
000000e0: 20ca 3fbd edb1 a73b a504 f1bd b46e 6a3d
000000f0: 988b 1fbc 25a3 21bd 37ad 9c3e 77d8 da3d

fc1.bias f4 [64]
-1.1158537 -0.79585093 -0.8870139 -0.06418272 -1.243175 -1.3160897 -0.17981324 -1.7614323
-0.54036134 -1.1675754 -0.30355036 -0.09422424 -0.13216524 -1.2525113 -0.92611206 -0.22026397
-1.0208558 -0.75450915 -1.2124372 -0.6355441 -0.1418525 -0.2856334 -0.88898194 -0.5941725
-1.1287606 -0.32361034 -0.061266743 -1.4050115 -0.872282 -0.5309736 -1.0832976 -2.0290515
-0.058667608 -0.7124938 -1.3186142 -1.2626954 -0.11475507 -0.84656924 -0.17891172 -0.77308196
-0.5887333 -0.85042953 -0.3744889 -0.40498862 -1.0069616 -0.11091951 -1.0185128 -0.729046
-0.16735734 -0.663581 -1.0715384 -1.0910872 -0.5057966 -0.20351952 -2.0643137 -2.1237276
-0.6047716 -0.669632 -0.15346348 -0.8474984 -0.086343005 -1.3476921 -2.116408 -1.497443
00000000: 4bd4 8ebf e3bc 4bbf 5813 63bf 3b72 83bd
00000010: 5c20 9fbf a175 a8bf f620 38be 9d76 e1bf
00000020: 1f55 0abf 1c73 95bf f46a 9bbe a3f8 c0bd
00000030: 5356 07be 4a52 a0bf ae15 6dbf e18c 61be
00000040: 67ab 82bf 8327 41bf 2431 9bbf 05b3 22bf
00000050: c841 11be 8a3e 92be 5294 63bf b01b 18bf
00000060: 3a7b 90bf 41b0 a5be d6f2 7abd 6bd7 b3bf
00000070: e04d 5fbf e3ed 07bf 7fa9 8abf fbdb 01c0
00000080: 724d 70bd fe65 36bf 5ac8 a8bf 01a0 a1bf
00000090: b504 ebbd c3b8 58bf a234 37be b3e8 45bf
000000a0: 3ab7 16bf c0b5 59bf 02bd bfbe ab5a cfbe
000000b0: 1ee4 80bf c529 e3bd a15e 82bf c2a2 3abf
000000c0: b95f 2bbe 72e0 29bf 2c28 89bf bfa8 8bbf
000000d0: e37b 01bf 6c67 50be b71d 04c0 27eb 07c0
000000e0: 50d2 1abf 016d 2bbf 8825 1dbe a8f5 58bf
000000f0: 9ad4 b0bd 2d81 acbf 3b73 07c0 36ac bfbf

fc2.weight f4 [64, 64]
0.072021365 0.010746588 -0.18009636 -0.22818841 0.08567989 0.082831696 -0.06343543 -0.0059989574
-0.09169476 -0.05697148 -0.55278295 -0.15018374 -0.36341733 -0.15756728 -0.07661903 -0.106812745
0.038685977 -0.028304413 -0.094590805 -0.045500554 -0.035949647 0.05141781 -0.04233159 -0.01819443
-0.07139638 -0.20707643 -0.5532896 -0.080452025 -0.12999265 -0.4998793 0.088871196 -0.12819557
-0.56151503 0.018269679 0.026970102 0.06486891 -0.6422556 -0.24882802 -0.37185138 -0.15011966
-0.19045119 -0.05697012 -0.5014559 -0.13317852 -0.10551858 -0.31722668 0.11213842 -0.22749849
-0.06337955 0.003980443 -0.12095322 -0.053358316 -0.43781295 -0.14380604 -0.10768744 -0.024691075
-0.08062348 0.088858314 -0.51890963 -0.09743534 -0.0477592 -0.14972478 0.04472646 -0.15357375
-0.15006751 -0.21741039 -0.2187038 -0.13737915 -0.16095878 -0.033809092 0.16737223 -0.15964003
0.016241815 -0.5905843 0.058644507 -0.05348833 0.030189315 -0.20074193 -0.009735331 0.24689087
0.02124931 0.05892451 -0.10199073 -0.06880655 0.2437512 0.0011560227 0.108982995 -0.008811019
-0.35815126 -0.1315081 -0.09051086 0.102695554 -0.19377266 -0.16515048 -0.008490829 -0.22253342
-0.18398556 -0.18412414 -0.12950091 -0.1367846 -0.15159488 -0.23171552 -0.17541292 -0.24268577
-0.13167946 -0.02662827 -0.33679786 0.10877746 -0.21128899 -0.1399213 -0.19664858 0.094257765
-0.023736736 -0.010949552 -0.041884784 0.007270446 -0.3804315 0.14609484 -0.26543912 -0.24603704
-0.08321117 0.0060131596 -0.26938793 0.069559805 -0.12769042 -0.04376792 -0.07849605 -0.1943553
-0.28093037 -0.52140707 -1.4168932 -0.081419654 -1.8714505 -0.03751203 0.09547221 -0.7144846
0.12212444 -2.4010086 0.077770345 -0.07153347 0.10641935 -0.9721736 0.035353497 0.24473915
0.029732242 0.10367778 -0.36747342 -0.24909326 0.11625189 -4.4577403 -0.05921507 0.7183171
-1.7484503 0.09974809 0.030588852 -0.94764024 -0.9883026 -0.22962339 -0.05886318 -0.40122756
0.27450797 -0.34384614 -0.825397 -2.0285747 0.29913664 -2.5658514 0.13373432 0.79865825
-4.1244307 0.0017213827 0.14175563 0.0077884486 0.68910486 -0.15379278 0.47568575 0.003554105
0.36223713 -0.047710195 -0.6730891 0.6683028 0.27342018 0.3125447 -0.7055081 -0.59243196
-0.117513284 -0.043984357 0.3642816 -0.13149767 0.53879964 -0.25308904 -0.05681278 -0.41475782
-0.15491635 -0.13481168 -0.10620105 -0.13454197 0.052165568 -0.18649343 -0.22291191 -0.054122746
-0.20930564 -0.10969166 -0.026461974 -0.0012005516 0.027792275 -0.22246338 0.0010868162 -0.18252376
-0.069914594 -0.07031919 -0.05258532 -0.11833359 -0.2251441 -0.08810744 -0.10356602 -0.035578236
-0.1534754 -0.14506817 -0.12410034 -0.2839315 -0.19501245 -0.1615429 0.103036046 -0.073378235
-0.13406216 -0.13143359 -0.008153598 0.0038521516 0.025474211 0.12653856 -0.02962922 -0.14808565
-0.16994716 -0.12246022 -0.024670666 -0.05338514 -0.11196632 -0.072227865 -0.20558184 -0.1802111
-0.121260926 -0.025300056 -0.20073597 -0.12022008 -0.09229751 -0.18066558 -0.0677888 -0.08114398
-0.046100378 0.033057697 -0.043184914 -0.0037353174 -0.15182137 -0.16809495 -0.0921783 -0.11771743
00000000: f07f 933d 7512 303c 2e6b 38be 39aa 69be
00000010: f078 af3d aaa3 a93d 6fea 81bd e792 c4bb
00000020: 76ca bbbd ed5a 69bd 2f83 0dbf c4c9 19be
00000030: d611 babe 5159 21be 70ea 9cbd a4c0 dabd
00000040: 3075 1e3d a8de e7bc d3b8 c1bd ca5e 3abd
00000050: f03f 13bd 7b9b 523d e463 2dbd 7c0c 95bc
00000060: 4438 92bd d80b 54be 63a4 0dbf 08c4 a4bd
00000070: cb1c 05be 2ef0 ffbe 1a02 b63d b345 03be
00000080: 73bf 0fbf 4baa 953c 67f0 dc3c fed9 843d
00000090: dd6a 24bf c6cc 7ebe 4e63 bebe f8b8 19be
000000a0: a305 43be 8059 69bd 6a5f 00bf f35f 08be
000000b0: 201a d8bd 896b a2be d4a8 e53d 5df5 68be
000000c0: 23cd 81bd 606e 823b 52b6 f7bd 408e 5abd
000000d0: 0529 e0be e441 13be 3c8b dcbd f044 cabc
000000e0: ec1d a5bd 59fb b53d 43d7 04bf 2e8c c7bd
000000f0: 279f 43bd 7451 19be 1833 373d 7042 1dbe
00000100: 4cab 19be d4a0 5ebe e4f3 5fbe 1fad 0cbe
00000110: 61d2 24be 677b 0abd a063 2b3e ad78 23be
00000120: 8e0d 853c 8830 17bf 3935 703d 9416 5bbd
00000130: 954f f73c 4b8f 4dbe f080 1fbc f6d0 7c3e
00000140: 0813 ae3c d45a 713d 84e0 d0bd 73ea 8cbd
00000150: ea99 793e af85 973a 7a32 df3d 185c 10bc
00000160: 9a5f b7be 0faa 06be c25d b9bd 0c52 d23d
00000170: 576c 46be 351d 29be 1e1d 0bbc cddf 63be
00000180: b666 3cbe 0a8b 3cbe e39b 04be 4311 0cbe
00000190: b03b 1bbe d546 6dbe 729f 33be 9e82 78be
000001a0: fbd6 06be 8823 dabc c570 acbe b8c6 de3d
000001b0: 245c 58be 8747 0fbe 3f5e 49be 370a c13d
000001c0: 8b73 c2bc c065 33bc 618f 2bbd ec3c ee3b
000001d0: ebc7 c2be e399 153e a3e7 87be 22f1 7bbe
000001e0: 9e6a aabd 0a0a c53b 37ed 89be 5f75 8e3d
000001f0: 47c1 02be fe45 33bd 89c2 a0bd 1305 47be
00000200: 1bd6 8fbe ef7a 05bf c25c b5bf 59bf a6bd
00000210: b18b efbf 37a6 19bd ef86 c33d 76e8 36bf
00000220: 611c fa3d 20aa 19c0 0f46 9f3d 2480 92bd
00000230: 63f2 d93d 5ee0 78bf d4ce 103d e69c 7a3e
00000240: 0891 f33c 0455 d43d 7a25 bcbe 4e12 7fbe
00000250: 7915 ee3d cfa5 8ec0 808b 72bd a1e3 373f
00000260: 38cd dfbf ba48 cc3d 7995 fa3c 8d98 72bf
00000270: 6601 7dbf 6522 6bbe 851a 71bd b36d cdbe
00000280: 4f8c 8c3e 9a0c b0be 384d 53bf 2bd4 01c0
00000290: 7028 993e e936 24c0 a6f1 083e de74 4c3f
000002a0: 56fb 83c0 05a0 e13a 6328 113e 3e36 ff3b
000002b0: 2d69 303f db7b 1dbe 158d f33e fdeb 683b
000002c0: 2577 b93e c46b 43bd 914f 2cbf e415 2b3f
000002d0: bbfd 8b3e dc05 a03e 2e9c 34bf 9fa9 17bf
000002e0: ceaa f0bd f128 34bd 1e83 ba3e 53a7 06be
000002f0: c6ee 093f e394 81be 85b4 68bd 235b d4be
00000300: 64a2 1ebe 130c 0abe f07f d9bd 5fc5 09be
00000310: 90ab 553d 22f8 3ebe 0543 64be d0af 5dbd
00000320: 3854 56be 05a6 e0bd c8c6 d8bc d45b 9dba
00000330: a0ac e33c 71cd 63be 8073 8e3a 82e7 3abe
00000340: 622f 8fbd 8203 90bd b463 57bd e258 f2bd
00000350: 2d8c 66be ac71 b4bd 6c1a d4bd 7cba 11bd
00000360: a828 1dbe c08c 14be 5228 febd 785f 91be
00000370: 58b1 47be 816b 25be 9004 d33d 5447 96bd
00000380: 9747 09be 8796 06be ab96 05bc 6174 7c3b
00000390: 4baf d03c 5393 013e fab8 f2bc c4a3 17be
000003a0: a106 2ebe 6ccc fabd 231a cabc 60aa 5abd
000003b0: 994e e5bd 34ec 93bd 0c84 52be 4289 38be
000003c0: a657 f8bd 1042 cfbc bb8d 4dbe f235 f6bd
000003d0: 7a06 bdbd 6600 39be dbd4 8abd d12e a6bd
000003e0: c0d3 3cbd 8267 073d aae2 30bd 3acc 74bb
000003f0: 1077 1bbe 1521 2cbe fac7 bcbd d615 f1bd

fc2.bias f4 [64]
-0.34189108 -0.2689111 -0.08556888 -0.23664483 -0.47599572 -0.103328854 -0.35545117 -0.2858448
-0.27465102 -0.022233766 -0.22371508 -0.031663325 -1.1447859 -1.2886932 -0.12907027 -0.18902068
-0.072920024 -0.2872187 -0.3263909 -0.3956724 -0.5226647 -0.16157122 -0.22717066 -0.086522564
-0.0698541 -0.14278829 -0.24162331 -0.38275906 -0.31142116 -0.41614962 -0.8639791 -0.74485314
-0.5848503 0.85433704 -0.09003775 -0.21527505 -0.031927075 -0.054596603 -0.4388292 0.31496483
-0.04782253 -0.46411052 -0.32861713 -0.38252065 -0.12717186 -0.13440935 -0.7025577 -0.18051359
-0.79581517 -0.48604506 -0.11720185 -0.17341319 -0.12899278 -0.37001556 -0.10433021 -0.049410995
-0.12324278 -0.26452717 -0.099261574 -0.11141945 0.93721944 -0.5627966 -0.2481828 -0.20905977
00000000: 590c afbe b7ae 89be bd3e afbd 0653 72be
00000010: b6b5 f3be 149e d3bd b2fd b5be 405a 92be
00000020: 0f9f 8cbe 9623 b6bc 9115 65be 67b1 01bd
00000030: 5888 92bf e6f3 a4bf ff2a 04be a38e 41be
00000040: 1857 95bd 540e 93be b51c a7be 9395 cabe
00000050: 5bcd 05bf ed72 25be 6d9f 68be be32 b1bd
00000060: ab0f 8fbd 1837 12be 1a6c 77be fff8 c3be
00000070: 9872 9fbe 9011 d5be bc2d 5dbf b2ae 3ebf
00000080: c0b8 15bf d5b5 5a3f b665 b8bd 1071 5cbe
00000090: f7c5 02bd b0a0 5fbd 39ae e0be 1243 a13e
000000a0: 8fe1 43bd e59f edbe 8140 a8be bfd9 c3be
000000b0: 5739 02be 9ba2 09be d2da 33bf 8ed8 38be
000000c0: 8bba 4bbf e6da f8be 8607 f0bd 3a93 31be
000000d0: af16 04be ae72 bdbe 14ab d5bd 2f63 4abd
000000e0: b666 fcbd 1b70 87be a749 cbbd e12f e4bd
000000f0: 9ded 6f3f 7013 10bf a223 7ebe c413 56be
