maddpg_pytorch/models/cache_data/model/run48/incremental/model_ep4001.pt (torch, 690099 bytes, 168 tensors)

fc1.weight f4 [64, 1]
0.6980035 -0.8563678 -1.2989087 -0.004111277 -0.73318774 0.32306826 -0.31929705 0.5899662
-0.1264177 -0.1342285 -0.06251818 -0.115873575 -0.010166484 -0.7824541 -0.07290876 -0.120635726
0.14494395 -0.0039948225 0.48579133 0.074150406 -0.07288784 -0.5338763 -0.16761565 -0.5699826
-0.57849836 -0.19697382 0.17138849 1.2647725 -0.52420306 0.15594701 0.17419863 1.0461043
0.1995765 -0.5546431 -1.8073443 -1.1608883 0.6124939 0.019168599 0.037902012 -0.38951606
1.262287 -0.42309844 0.4935795 -0.07298667 -0.3265045 0.16578278 -1.4588923 -0.1521329
-0.3276678 -0.1096344 -1.0430585 -0.55260795 0.14504439 -0.16023244 1.3431773 0.90655273
-0.04682362 -0.66012824 0.2308264 0.17838094 -0.51560336 0.8265361 0.36691323 0.8508868
00000000: 5bb0 323f ec3a 5bbf a442 a6bf e4b7 86bb
00000010: 31b2 3bbf 3469 a53e e77a a3be 0608 173f
00000020: a473 01be 3273 09be 8809 80bd 204f edbd
00000030: 5391 26bc e94e 48bf 3051 95bd dd0f f7bd
00000040: 306c 143e 00e7 82bb a4b9 f83e 2bdc 973d
00000050: 3846 95bd 1eac 08bf 70a3 2bbe 61ea 11bf
00000060: 7818 14bf 81b3 49be 7780 2f3e 11e4 a13f
00000070: 2c32 06bf 93b0 1f3e 2061 323e bfe6 853f
00000080: c85d 4c3e 17fd 0dbf 0f57 e7bf fd97 94bf
00000090: 66cc 1c3f 7707 9d3c 243f 1b3d a66e c7be
000000a0: 9f92 a13f 5ca0 d8be 74b6 fc3e 097a 95bd
000000b0: 992b a7be f6c2 293e fcbc babf bac8 1bbe
000000c0: 13c4 a7be 0088 e0bd f182 85bf b777 0dbf
000000d0: 8486 143e f913 24be 3ced ab3f d713 683f
000000e0: 20ca 3fbd 2afe 28bf c15d 6c3e 7ea9 363e
000000f0: 95fe 03bf df97 533f 0ddc bb3e b8d3 593f

fc1.bias f4 [64]
-0.70997286 0.08296743 -0.10157628 -0.28851494 -0.95664644 -1.0215358 -0.38411808 -0.5944437
0.2654294 -0.17672458 0.1604992 -0.14055368 0.37102085 -0.12289123 -0.92611206 0.104759425
-0.7031232 -0.754509 -0.2051038 -0.23764665 0.21753007 -0.6494596 -0.88898194 -0.13264859
0.3334233 0.06255606 0.5310455 -0.916846 0.8980903 0.56593806 -0.77185714 -0.37499267
0.6181907 0.9485192 -0.82322866 -0.7073132 0.9816651 -0.3707026 0.52378917 -0.46551818
-1.0731556 -0.85042953 1.0876148 -0.1290518 0.12894857 0.53385526 -0.10898039 0.29194757
0.60400486 -0.663581 0.60935885 -0.06156935 0.76195675 0.35074773 -1.0568398 -0.9447241
-0.6047716 0.6245887 0.9494538 -0.760193 0.31274033 -0.8462345 -1.1605477 -0.20561706
00000000: c8c0 35bf d4ea a93d 3a07 d0bd 3bb8 93be
00000010: c8e6 74bf afc1 82bf 20ab c4be 762d 18bf
00000020: 5de6 873e 4af7 34be e759 243e 4eed 0fbe
00000030: 72f6 bd3e 66ae fbbd ae15 6dbf 1c8c d63d
00000040: e2ff 33bf 8027 41bf bb06 52be a559 73be
00000050: 34c0 5e3e fc42 26bf 5294 63bf 08d5 07be
00000060: 75b6 aa3e 641d 803d 99f2 073f 6bb6 6abf
00000070: 3fe9 653f 51e1 103f 6e98 45bf 0aff bfbe
00000080: bf41 1e3f 27d2 723f 1dbf 52bf 7a12 35bf
00000090: 674e 7b3f bbcc bdbe 0c17 063f 6658 eebe
000000a0: 2a5d 89bf c0b5 59bf f636 8b3f 2826 04be
000000b0: 180b 043e bdaa 083f 1c31 dfbd 277a 953e
000000c0: 10a0 1a3f 72e0 29bf f1fe 1b3f 2530 7cbd
000000d0: 990f 433f 3595 b33e 8746 87bf 70d9 71bf
000000e0: 50d2 1abf 0ce5 1f3f 670f 733f 029c 42bf
000000f0: 801f a03e d3a2 58bf d48c 94bf 478d 52be

fc2.weight f4 [64, 64]
0.072021365 0.052911546 -0.14171998 -0.029544126 0.057095136 0.082831696 -0.011842793 0.08882907
-0.013402126 -0.053600047 -0.17844526 -0.19630101 -0.14920458 -0.1031466 -0.07661903 -0.044635423
0.038685977 -0.028304413 0.048042595 0.04039809 -0.012791285 0.04561361 -0.04233159 0.032951415
-0.07873181 -0.095658556 -0.17680238 -0.080452025 -0.15850571 -0.11165447 0.088871196 -0.04084763
-0.15228006 -0.03735296 -0.02238136 0.017328715 -0.15500242 0.027101874 -0.13925284 -0.11623718
-0.0996148 -0.05697012 -0.13207598 -0.032533 -0.065964684 -0.02706824 0.03751665 0.029408773
-0.0047050533 0.003980443 -0.17121938 0.008517032 -0.12503025 -0.0999654 -0.10768737 -0.024691075
-0.08062348 0.029487276 -0.20180869 -0.09743534 -0.09219826 -0.06758943 0.04472646 -0.0481157
-0.33782408 -0.29255918 -0.20413226 -0.18485384 -0.00028084987 -0.07008261 -0.039545238 -0.3068469
-0.08622212 -0.34175286 0.047029804 -0.15005079 0.010473113 -0.11959611 -0.009735331 -0.12189443
0.02124931 0.05892451 -0.10043432 -0.15942176 -0.3045305 0.09106718 0.108982995 -0.07133491
-0.1910347 -0.18403973 -0.12392328 -0.11814738 -0.3568232 0.035749305 -0.06374508 -0.3126018
-0.014617189 -0.35224664 -0.30397338 -0.17461629 0.03438908 0.118219465 -0.08471913 -0.26313275
-0.12609598 -0.02662827 -0.119877264 0.069083266 -0.2961496 0.007785831 -0.12970302 -0.17848818
-0.25266364 -0.010949552 -0.2263543 -0.17247799 -0.12750693 -0.14471908 -0.36527738 -0.3333832
-0.08321117 -0.15574141 0.038387015 -0.054878026 -0.15711705 -0.19115047 -0.037250124 -0.24345009
-0.29947495 -0.40593266 -0.54281986 -0.059582543 0.15606101 -0.084922045 -0.024885578 -0.0982399
0.020325912 -0.32888418 0.012764384 -0.057212647 0.048122026 -0.10927545 0.035353497 0.083673604
0.029732242 0.10367778 -0.16888833 -0.23619586 -0.090072244 -0.054430902 -0.05921507 0.02526077
-0.49023396 0.06435062 0.03807488 -0.20367558 -0.3891163 -0.11899286 -0.07979958 -0.1982594
-0.092154406 -0.32068303 -0.40994367 -0.47766203 0.008357865 0.07005234 -0.043325618 -0.12181309
-0.46148235 0.0017213821 -0.13329752 -0.09371617 -0.019442441 -0.12125627 -0.27311003 -0.072231665
0.031546455 -0.047710195 -0.5434499 0.11818928 -0.027602617 0.1480284 -0.4307477 -0.454869
-0.11751327 -0.39429677 0.030501964 -0.17197141 -0.1220204 -0.30060706 -0.12024109 -0.16879918
-0.48288998 -0.57750726 -0.5755679 -0.1595689 -0.0003209712 -0.2648652 -0.047778618 -0.30051175
-0.03792694 -0.39417493 0.039640855 0.08035957 0.08130556 -0.14122312 0.0010868162 -0.028700242
-0.069914594 -0.07031919 -0.19367245 -0.2825523 -0.09037701 -0.08810744 -0.10356602 0.11503673
-0.63388115 -0.042739052 -0.13519707 -0.36509293 -0.5154142 -0.23556338 0.07899408 -0.3896767
-0.13842613 -0.44562635 -0.4605923 -0.45870304 0.09922375 0.0364632 0.067508526 -0.042804178
-0.62196845 -0.12246022 0.084608346 -0.11119164 0.016768606 -0.08608773 -0.48079163 -0.020380424
0.038005143 -0.025300056 -0.6032972 0.035489168 0.020444898 -0.05322974 -0.5069856 -0.5600249
-0.046100378 -0.28336877 0.09038153 -0.034612067 -0.13539752 -0.5934332 -0.13221918 -0.3614107
00000000: f07f 933d c7b9 583d 0b1f 11be 8606 f2bc
00000010: 97dc 693d aaa3 a93d 4608 42bc 04ec b53d
00000020: 9794 5bbc b98b 5bbd 5bba 36be 2203 49be
00000030: 16c9 18be 863e d3bd 70ea 9cbd a2d3 36bd
00000040: 3075 1e3d a8de e7bc 50c8 443d 7878 253d
00000050: 8a92 51bc 56d5 3a3d e463 2dbd 10f8 063d
00000060: 253e a1bd a2e8 c3bd af0b 35be 08c4 a4bd
00000070: 524f 22be 19ab e4bd 1a02 b63d d84f 27bd
00000080: 4eef 1bbe 6bff 18bd 1d59 b7bc f3f4 8d3c
00000090: f4b8 1ebe c004 de3c 4c98 0ebe c20d eebd
000000a0: d802 ccbd 8059 69bd ed3e 07be 5341 05bd
000000b0: 7e18 87bd 37be ddbc 0fab 193d abea f03c
000000c0: d92c 9abb 606e 823b 2254 2fbe 058b 0b3c
000000d0: ee07 00be a9ba ccbd 328b dcbd f044 cabc
000000e0: ec1d a5bd 4d8f f13c f0a6 4ebe 2e8c c7bd
000000f0: 71d2 bcbd 546c 8abd 1833 373d f814 45bd
00000100: 47f7 acbe 51ca 95be 0c08 51be 534a 3dbe
00000110: 083f 93b9 7987 8fbd 30fa 21bd 091b 9dbe
00000120: 3995 b0bd 3bfa aebe 53a2 403d eaa6 19be
00000130: 6b97 2b3c ceee f4bd f080 1fbc c9a3 f9bd
00000140: 0813 ae3c d45a 713d 82b0 cdbd 753f 23be
00000150: 6ceb 9bbe 6e81 ba3d 7a32 df3d 0a18 92bd
00000160: 9a9e 43be e974 3cbe 7dcb fdbd 41f7 f1bd
00000170: 88b1 b6be dd6d 123d c88c 82bd 580d a0be
00000180: ef7c 6fbc ac59 b4be 66a2 9bbe 9dce 32be
00000190: 90db 0c3d 0c1d f23d 3981 adbd 56b9 86be
000001a0: 4e1f 01be 8823 dabc 3682 f5bd 877b 8d3d
000001b0: eca0 97be 4920 ff3b ded0 04be 9bc5 36be
000001c0: 215d 81be c065 33bc 6cc9 67be 129e 30be
000001d0: 2d91 02be 3d31 14be a305 bbbe 34b1 aabe
000001e0: 9e6a aabd ad7a 1fbe b43b 1d3d c8c7 60bd
000001f0: 4be3 20be f3bc 43be 9693 18bd fb4a 79be
00000200: c854 99be 68d6 cfbe 3ef6 0abf d30c 74bd
00000210: 75ce 1f3e 9ceb adbd d7dc cbbc 0032 c9bd
00000220: 8782 a63c 8263 a8be b521 513c cf57 6abd
00000230: 9a1b 453d cfcb dfbd d4ce 103d 115d ab3d
00000240: 0891 f33c 0455 d43d 10f1 2cbe 54dd 71be
00000250: cc77 b8bd f0f2 5ebd 808b 72bd adef ce3c
00000260: f2ff fabe 42ca 833d 68f4 1b3d 5590 50be
00000270: 403a c7be 87b2 f3bd f66d a3bd 8304 4bbe
00000280: 73bb bcbd 9130 a4be 23e4 d1be 1e90 f4be
00000290: 6def 083c 9a77 8f3d 3476 31bd 2479 f9bd
000002a0: 6a47 ecbe 00a0 e13a 257f 08be 43ee bfbd
000002b0: c145 9fbc 3555 f8bd 14d5 8bbe 32ee 93bd
000002c0: db36 013d c46b 43bd 881f 0bbf 390d f23d
000002d0: e21e e2bc c294 173e f68a dcbe 97e4 e8be
000002e0: ccaa f0bd 44e1 c9be 41df f93c 4619 30be
000002f0: d5e5 f9bd 2be9 99be f640 f6bd b1d9 2cbe
00000300: 5b3d f7be 84d7 13bf 6b58 13bf 0866 23be
00000310: 0648 a8b9 699c 87be 83b3 43bd addc 99be
00000320: 4759 1bbd 4cd1 c9be 735e 223d 8f93 a43d
00000330: 8883 a63d cb9c 10be 8073 8e3a c51c ebbc
00000340: 622f 8fbd 8203 90bd 1252 46be b2aa 90be
00000350: 9517 b9bd ac71 b4bd 6c1a d4bd 6198 eb3d
00000360: 0946 22bf 250f 2fbd 1a71 0abe 76ed babe
00000370: 2ff2 03bf 8737 71be a6c7 a13d b483 c7be
00000380: 94bf 0dbe 2329 e4be c1d2 ebbe 20db eabe
00000390: d235 cb3d 705a 153d e941 8a3d 6f53 2fbd
000003a0: 5339 1fbf 6ccc fabd 2447 ad3d 71b8 e3bd
000003b0: 515e 893c c44e b0bd 522a f6be d9f4 a6bc
000003c0: 48ab 1b3d 1042 cfbc af71 1abf 175d 113d
000003d0: 0f7c a73c 6e07 5abd cfc9 01bf cb5d 0fbf
000003e0: c0d3 3cbd b615 91be f419 b93d 62c5 0dbd
000003f0: a6a5 0abe 3deb 17bf 7764 07be d30a b9be

fc2.bias f4 [64]
-0.17459543 -0.09713149 -0.089651436 -0.025648346 0.034372244 -0.047862783 -0.04549977 -0.20280284
0.06042996 0.25558364 -0.17945729 0.05808122 -0.110027865 0.026670387 0.03273883 -0.15244392
-0.075238764 -0.3487725 -0.03426148 0.0040132254 -0.33459985 0.187483 0.5025043 -0.08651859
-0.054895192 0.36713102 -0.126893 -0.06528869 -0.052464023 -0.09952211 -0.12648992 -0.17832626
-0.24790351 -0.5402467 -0.18775214 -0.026296519 -0.06253451 -0.05489246 -0.18616171 -0.20052746
0.5468864 -0.1520285 -0.012363022 0.015874898 -0.027122645 -0.023200542 0.040462412 0.047783863
-0.086714685 -0.12390442 -0.100691654 -0.061492108 -0.03777216 -0.112903416 -0.116034694 -0.034713056
-0.25040087 0.0021412969 0.020630157 -0.01561209 -0.11588706 0.0026081803 -0.029934304 -0.010478273
00000000: 25c9 32be e0ec c6bd 2c9b b7bd 7b1c d2bc
00000010: e9c9 0c3d c40b 44bd f85d 3abd 8cab 4fbe
00000020: 6885 773d dcdb 823e a7c3 37be 93e6 6d3d
00000030: 4a56 e1bd db7b da3c 2719 063d 421a 1cbe
00000040: c816 9abd 4f92 b2be c455 0cbd 6081 833b
00000050: ac50 abbe 8bfb 3f3e 1fa4 003f a930 b1bd
00000060: c8d9 60bd 99f8 bb3e 3df0 01be 14b6 85bd
00000070: 84e4 56bd 3fd2 cbbd 9386 01be 299b 36be
00000080: 6bda 7dbe 9c4d 0abf 1942 40be cc6b d7bc
00000090: 1812 80bd ebd6 60bd 2da1 3ebe 1257 4dbe
000000a0: bf00 0c3f 5cad 1bbe 468e 4abc 130c 823c
000000b0: 4f30 debc 100f bebc eabb 253d 03b9 433d
000000c0: 7897 b1bd 9ac1 fdbd 6d37 cebd 26df 7bbd
000000d0: fbb6 1abd e839 e7bd 99a3 edbd 472f 0ebd
000000e0: 8b34 80be 0055 0c3b 9300 a93c dac9 7fbc
000000f0: 3256 edbd 01ee 2a3b c938 f5bc 10ad 2bbc

fc3.weight f4 [32, 64]
-0.15775847 -0.046448775 -0.07908016 -0.0675505 -0.08026771 -0.023098206 0.074050754 -0.16431665
0.11822589 -0.16719532 -0.06570135 -0.051641595 -0.119354784 -0.09179743 -0.07380201 -0.12741095
-0.065528385 0.3213223 -0.09067032 0.041470796 -0.09559427 -0.40151468 -0.40362123 -0.031399254
0.08460766 0.14837283 0.10934834 0.032671675 -0.082533896 -0.14894162 0.09983456 -0.035883296
-0.14565818 -0.110692605 -0.11030099 -0.22418177 0.0739494 0.0799622 -0.047974598 0.104121596
0.08491321 -0.02714792 -0.14617845 -0.04298427 -0.124205455 0.18188849 -0.14649299 -0.22418459
-0.17254962 -0.08923626 -0.043916322 0.009278493 0.046344507 -0.038939133 -0.012073077 0.0832476
-0.03197729 -0.10217604 -0.39461502 0.13795982 -0.08819705 0.018225994 -0.05595095 -0.111931905
0.15705843 -0.25258663 -0.36735252 -0.27469832 0.09356683 -0.0403194 -0.021026626 -0.08693108
-0.034211382 0.24157444 0.07779187 -0.051998075 0.27341315 -0.028422313 -0.08625709 0.011438035
-0.05205589 -0.24326101 0.019697934 -0.072822094 0.038030587 -0.021377686 -1.1170968 0.05103913
0.046017893 0.8309628 0.14031602 -0.045305416 0.22553682 0.013227078 0.15874793 -0.123261556
0.21246749 0.40783447 0.053106293 0.27018642 -0.05865684 0.33953702 -0.027207835 0.004640195
0.628682 0.036885004 -0.15921114 -0.27868053 -0.10879896 0.20906445 0.046658985 0.5392921
-0.037473753 -0.1204218 -0.0030763862 -0.2931259 0.007773237 -0.080386326 0.043693725 0.145549
0.12195792 -0.03632301 -0.39333105 -0.37841225 0.08801873 0.22126134 0.0062585636 0.07441057
-0.0617089 -0.21444713 -0.31838617 -0.2500242 -0.0034246258 0.09605044 0.0321462 -0.2463044
0.063195944 0.08294531 -0.049687084 -0.0077047385 0.11854783 0.16887875 0.21474251 -0.011404216
-0.1894902 -0.35139897 0.10127775 0.07243559 -0.033754405 0.3667158 -0.54392374 0.09277264
-0.19309054 0.65349674 -0.116838686 0.07818852 0.08468091 0.12547718 -0.012492889 0.015712235
0.05291671 0.3073709 0.19087899 -0.2771445 0.016832069 0.17209527 0.12179383 0.017377563
0.64635444 -0.18332359 -0.10857146 -0.035792757 0.09486505 0.010435717 -0.1414211 0.2512004
-0.17215279 0.040941015 -0.027857171 -0.4250291 -0.094557114 0.10917929 0.5876563 -0.044637468
0.09565149 0.033333093 -0.10125242 -0.41019046 0.027184546 0.12383857 0.05227872 -0.08164056
0.0080968235 -0.11749835 -0.45487717 -0.11679092 0.0058546597 0.14155799 -0.118156776 -0.09022631
0.032351255 0.048260383 0.10726583 -0.028460091 0.013064078 -0.16366366 -0.47043186 0.11974843
-0.13025907 -0.8086757 0.033289313 -0.109578505 0.16554675 -0.20240298 0.37211987 0.01413765
0.0151317185 -0.77374625 0.17459528 0.096015066 0.12981763 -0.0056191143 0.16428828 0.06980828
0.15279327 0.21975964 0.15679915 -0.48030314 0.008167699 0.011611506 -0.068388395 0.14046744
-0.5145677 -0.16762723 -0.062051583 -0.095148675 -0.064461544 -0.0069284285 -0.096871674 -0.30673194
0.12714344 0.124967724 0.007796581 -0.031014672 0.068523705 -0.09736565 0.46747765 0.20198739
-0.005045663 0.06849031 -0.02046581 -0.20402835 0.043821305 0.16409074 0.24874052 -0.08424392
00000000: 708b 21be 1241 3ebd c7f4 a1bd eb57 8abd
00000010: 6663 a4bd 7338 bdbc eca7 973d a042 28be
00000020: 6a20 f23d 4035 2bbe 6e8e 86bd 2386 53bd
00000030: 4870 f4bd 4a00 bcbd 8225 97bd 0478 02be
00000040: bf33 86bd 5b84 a43e 5cb1 b9bd 48dd 293d
00000050: eec6 c3bd 5593 cdbe 71a7 cebe 819c 00bd
00000060: c846 ad3d 0cef 173e 06f2 df3d bcd2 053d
00000070: 8807 a9bd 2784 18be 1076 cc3d 5dfa 12bd
00000080: 6b27 15be ceb2 e2bd 7ce5 e1bd e88f 65be
00000090: c872 973d 39c3 a33d 0381 44bd b43d d53d
000000a0: fae6 ad3d 5165 debc ceaf 15be 4610 30bd
000000b0: 6e5f febd fa40 3a3e 4202 16be a590 65be
000000c0: d9b0 30be 80c1 b6bd 9ae1 33bd d204 183c
000000d0: bdd3 3d3d a47e 1fbd 28ce 45bc b87d aa3d
000000e0: 9efa 02bd ac41 d1bd fb0a cabe 5745 0d3e
000000f0: a8a0 b4bd ae4e 953c d32c 65bd 8e3c e5bd
00000100: edd3 203e 0953 81be a115 bcbe 42a5 8cbe
00000110: f79f bf3d f525 25bd 0840 acbc ec08 b2bd
00000120: 3c21 0cbd 4a5f 773e 5851 9f3d effb 54bd
00000130: cffc 8b3e e9d5 e8bc 8fa7 b0bd 9966 3b3c
00000140: 8f38 55bd 6a19 79be 905d a13c c023 95bd
00000150: f6c5 1b3d 4220 afbc 07fd 8ebf 680e 513d
00000160: 427d 3c3d fab9 543f 01af 0f3e 2c92 39bd
00000170: 20f3 663e 63b6 583c d18e 223e 8e70 fcbd
00000180: 1491 593e aecf d03e fc85 593d e055 8a3e
00000190: 2842 70bd ccd7 ad3e f7e2 debc c70c 983b
000001a0: 4ef1 203f bb14 173d 3f08 23be 37af 8ebe
000001b0: fdd1 debd fe14 563e 7e1d 3f3d 0c0f 0a3f
000001c0: 147e 19bd b49f f6bd 329d 49bb 9914 96be
000001d0: a3b6 fe3b 96a1 a4bd 31f8 323d cc0a 153e
000001e0: 13c5 f93d 70c7 14bd b062 c9be 40bf c1be
000001f0: 2a43 b43d 5592 623e a314 cd3b 9264 983d
00000200: 79c2 7cbd 0798 5bbe 8303 a3be 2c03 80be
00000210: b06f 60bb 18b6 c43d bcab 033d 3837 7cbe
00000220: e06c 813d 3bdf a93d af84 4bbd 0878 fcbb
00000230: 34c9 f23d 8dee 2c3e 76e5 5b3e c0d8 3abc
00000240: b809 42be 91ea b3be b66a cf3d 1c59 943d
00000250: 0f42 0abd 2cc2 bb3e 963e 0bbf 95ff bd3d
00000260: 87b9 45be 904b 273f 1f49 efbd 4e21 a03d
00000270: 2f6d ad3d 177d 003e f9ae 4cbc f2b6 803c
00000280: 31bf 583d b85f 9d3e c875 433e e2e5 8dbe
00000290: 68e3 893c be39 303e 0b6f f93d 645b 8e3c
000002a0: 7c77 253f 2eb9 3bbe b75a debd 6d9b 12bd
000002b0: 9b48 c23d 92fa 2a3c b1d0 10be 579d 803e
000002c0: d248 30be c4b1 273d b934 e4bc 6a9d d9be
000002d0: 29a7 c1bd 6499 df3d a570 163f c7d5 36bd
000002e0: eee4 c33d 4888 083d 6e5d cfbd 7c04 d2be
000002f0: 20b2 de3c 149f fd3d 3622 563d 2a33 a7bd
00000300: 8aa8 043c faa2 f0bd a9e5 e8be 1430 efbd
00000310: 72d8 bf3b 94f4 103e 2efc f1bd 92c8 b8bd
00000320: c082 043d aeac 453d 30ae db3d 2325 e9bc
00000330: b70a 563c 7297 27be 72dc f0be aa3e f53d
00000340: a262 05be 5f05 4fbf 605a 083d b26a e0bd
00000350: 1685 293e ba42 4fbe 7f86 be3e 9aa1 673c
00000360: 07eb 773c 3c14 46bf 1bc9 323e 8ca3 c43d
00000370: eaee 043e 8c20 b8bb 303b 283e a5f7 8e3d
00000380: d775 1c3e ac08 613e f58f 203e 4bea f5be
00000390: d0d1 053c 303e 3e3c 370f 8cbd b2d6 0f3e
000003a0: b5ba 03bf 79a6 2bbe cd29 7ebd 4fdd c2bd
000003b0: 6a04 84bd df07 e3bb a864 c6bd f80b 9dbe
000003c0: e431 023e 14ef ff3d 767a ff3b 7b12 febc
000003d0: 2856 8c3d a467 c7bd 3b59 ef3e c8d5 4e3e
000003e0: 1756 a5bb a644 8c3d eaa7 a7bc cfec 50be
000003f0: f87d 333d 6707 283e d6b5 7e3e 1488 acbd

fc3.bias f4 [32]
-0.06431375 -0.6200264 -0.51527804 0.4685638 0.023398558 0.014553441 0.16093315 -0.34814504
-0.4037706 -1.0482143 0.908611 -0.7128857 0.25640473 -0.075281605 0.5042552 -0.8008549
0.42587155 0.13798179 -0.095812805 -0.6795411 -0.84005857 -0.44513282 -0.28669968 0.3361479
0.851955 0.07861106 0.75888985 -0.2561652 0.21209426 -0.40983272 -0.023423055 0.1477479
00000000: edb6 83bd 0dba 1ebf 43e9 03bf 98e7 ef3e
00000010: 55ae bf3c 8e71 6e3c a9cb 243e 1140 b2be
00000020: 05bb cebe e32b 86bf bb9a 683f ad7f 36bf
00000030: 7b47 833e 3e2d 9abd de16 013f d404 4dbf
00000040: d60b da3e 194b 0d3e 8139 c4bd 68f6 2dbf
00000050: 140e 57bf 73e8 e3be 4dca 92be 941b ac3e
00000060: b919 5a3f d6fe a03d 9b46 423f 1628 83be
00000070: 3d2f 593e 98d5 d1be b5e1 bfbc 3a4b 173e

in_fn.weight f4 [33]
1.6114411 0.61517143 0.47021094 0.400315 0.33910942 0.4215647 0.23265868 0.28335685
0.24340658 0.6034201 0.3841637 0.5786306 0.1625382 0.4295874 0.35357338 0.33036754
0.67679995 0.6037514 0.5509918 0.3297613 0.37408328 0.2939188 0.49655446 0.2964756
0.8880346 0.5733835 0.273044 0.58697104 0.55296075 0.4281793 0.68347836 0.7116429
1.032957
00000000: b443 ce3f e07b 1d3f 7dbf f03e 16f6 cc3e
00000010: c09f ad3e 54d7 d73e 143e 6e3e 2614 913e
00000020: 933f 793e bd79 1a3f 1bb1 c43e 2321 143f
00000030: 6a70 263e e1f2 db3e 9207 b53e ef25 a93e
00000040: c342 2d3f 748f 1a3f cc0d 0d3f 79d6 a83e
00000050: d887 bf3e 867c 963e 633c fe3e a6cb 973e
00000060: 3c56 633f 43c9 123f 6ccc 8b3e bc43 163f
00000070: d68e 0d3f 513a db3e 70f8 2e3f 3b2e 363f
00000080: ef37 843f

in_fn.bias f4 [33]
0.114206135 0.0024951808 0.06322452 0.06082071 0.048155036 0.018455341 -0.14361805 -0.04654811
-0.091658555 0.064706825 0.050859857 -0.011066699 0.0183796 0.012709493 0.1142137 0.061713237
0.088102035 -0.06687924 0.075935826 0.028750377 -0.036899455 -0.021056801 0.07113822 -0.06721867
0.05888973 0.04801248 0.06329687 -0.026850738 0.08815147 -0.14095621 0.15190482 0.16858493
0.038189247
00000000: e8e4 e93d 3086 233b db7b 813d 231f 793d
00000010: 373e 453d a82f 973c 9c10 13be 3ba9 3ebd
00000020: 7bb7 bbbd 0385 843d 6d52 503d 1a51 35bc
00000030: d190 963c 7a3b 503c dfe8 e93d 05c7 7c3d
00000040: d76e b43d fcf7 88bd 3e84 9b3d e985 eb3c
00000050: e223 17bd 507f acbc eab0 913d f1a9 89bd
00000060: 5c36 713d bca8 443d caa1 813d 14f6 dbbc
00000070: c288 b43d d356 10be f08c 1b3e 87a1 2c3e
00000080: 546c 1c3d

in_fn.running_mean f4 [33]
2.2830384 0.005252902 0.008333108 0.008904174 0.02053086 0.0113776 0.011285294 0.006920712
0.007768122 0.043330155 0.025471155 0.05743748 0.008036309 0.019879164 0.008604808 0.013197151
0.058979344 0.045158733 0.016578984 0.015502993 0.012270264 0.007973961 0.043945864 0.0052031884
0.06838398 0.07738219 0.011717909 0.07488015 0.019221935 0.011894736 0.019757489 0.058204487
0.19661479
00000000: 4d1d 1240 8920 ac3b 9787 083c d0e2 113c
00000010: 5630 a83c 1d69 3a3c f4e5 383c 24c7 e23b
00000020: bb8b fe3b f67a 313d e2a8 d03c 9043 6b3d
00000030: b9aa 033c a1d9 a23c 2efb 0c3c dd38 583c
00000040: 5394 713d 5df8 383d a6d0 873c 4400 7e3c
00000050: 3809 493c 37a5 023c 9400 343d 827f aa3b
00000060: e60c 8c3d 8e7a 9e3d 79fc 3f3c c45a 993d
00000070: 5277 9d3c 24e2 423c 75da a13c d467 6e3d
00000080: 6355 493e

in_fn.running_var f4 [33]
7.120212 0.005211771 0.008255192 0.008825828 0.02010555 0.011232554 0.011141645 0.006872173
0.007681404 0.04110645 0.024681423 0.05410637 0.007939261 0.019469481 0.008522885 0.013014575
0.055382043 0.043055423 0.016121203 0.015259729 0.012086736 0.007909003 0.041536853 0.00517713
0.062731706 0.07054654 0.011581236 0.0665738 0.01881182 0.011748857 0.01936184 0.054726567
0.1568383
00000000: c7d8 e340 81c7 aa3b c940 073c 359a 103c
00000010: 65b4 a43c bf08 383c 728b 363c f72f e13b
00000020: 49b4 fb3b 3d5f 283d b230 ca3c a49e 5d3d
00000030: ad13 023c 767e 9f3c 92a3 0b3c 153b 553c
00000040: 48d8 623d e25a 303d 9d10 843c f103 7a3c
00000050: 7207 463c c394 013c 8c22 2a3d eaa4 a93b
00000060: 7b79 803d b47a 903d 39bf 3d3c d857 883d
00000070: 3f1b 9a3c 477e 403c b99c 9e3c f728 603d
00000080: 389a 203e

fc1.weight f4 [64, 33]
0.78630733 -0.06285083 -0.36611563 -0.06408383 -0.039881654 -0.49783748 -0.03991621 -0.08302159
0.076065205 0.29509014 -0.035977453 0.11749366 0.20458128 -0.03356763 0.23885196 -0.003000284
0.0088666165 0.27565798 -0.25228012 -0.32060948 0.09270342 0.337491 -0.08983332 -0.19170722
0.4794128 0.21886237 -0.07103481 0.3496644 0.25909466 0.59124243 -0.28535268 0.03048218
-0.0381493 -0.06970319 -0.35041064 0.25287348 0.23048607 -0.117574625 0.17416105 0.057845913
0.11498578 -0.08542505 0.27148876 0.15941049 -0.14141095 -0.1087284 -0.15118793 -0.0871314
-0.04690243 -0.08156924 0.4237764 -0.11018448 -0.19069849 -0.08591623 -0.17399633 -0.10578283
-0.068048604 -0.11345404 -0.087410785 -0.10137347 -0.056825183 0.07730338 -0.071531564 -0.09414422
-0.08376914 -0.089911796 -0.8113269 -0.2416115 -0.3809093 -0.058087982 -0.020665387 -0.28098735
-0.18379803 0.22107112 -0.07581671 -0.3275424 -0.3207939 -0.10062867 0.05208222 0.64806235
0.46894228 0.059598807 0.08837078 -0.24288459 -0.10501133 0.011638466 0.10527477 -0.15308389
0.10024652 -0.16120036 -0.45463887 0.032720115 0.17586468 0.36462903 -0.34231055 -0.004981868
-0.00083963445 -0.46968508 0.5170247 -0.94117373 -0.048593346 -0.031301502 -0.17978346 0.07060456
-0.031291988 0.041204333 -0.2777714 -0.38177177 0.05124176 0.13887112 -0.28957102 0.11871637
-0.12660944 0.02660383 -0.0730619 0.06163401 0.13137923 0.027403738 0.13659242 -0.16554241
0.022548819 -0.085494526 -0.011319456 -0.12503725 0.10961264 -0.27726185 0.038139973 -0.008057885
-0.18960758 0.08564277 0.10448601 0.10794687 -0.49526662 -0.114230424 0.010277622 0.09752425
0.00333627 0.023374263 0.1880102 -0.09083844 -0.07352335 0.04710967 0.11322371 0.15524095
0.10821734 0.06825308 0.025627516 -0.15849964 -0.12045772 0.12840988 -0.18116073 -0.10781512
0.11991432 -0.13391313 -0.04936978 0.018322757 -0.1389976 0.038612444 0.15041806 0.11461746
-0.13228522 0.037603844 -0.13205841 -0.17458846 0.09644098 -0.57593083 0.33799347 0.08786491
0.23526269 -0.41624963 -0.08086087 0.22726795 -0.011180913 -0.027078029 0.13470499 0.23824726
0.20468915 -0.06692187 0.21398394 -0.11649261 0.0060008336 -0.33729315 0.16607288 -0.33710858
0.39017868 -0.12774673 0.23317549 -0.20339271 -0.18877304 -0.32228732 0.34399056 -0.13130507
-0.03360344 -0.27038658 0.0303529 -0.21473576 -0.387395 -0.4493613 -0.6967259 -0.18352385
0.08244522 -0.076732755 0.1832306 -0.032183807 0.08972801 0.11583948 0.07398592 0.14283898
0.16682592 0.18808989 0.15748414 0.16566098 0.017466618 0.1836348 -0.17858323 -0.16064888
0.23259711 0.049367115 0.18263061 -0.18138146 0.059323315 0.09296027 -0.18789014 0.2119338
0.053223006 0.39052773 -0.15347195 0.19996762 -0.18916483 -0.2084332 0.14595562 -0.022693597
0.027437665 -0.0061804717 0.03294661 0.031128619 -0.0124688 0.114829734 0.010441565 0.046902332
-0.04022192 0.031206429 0.089118846 -0.008157589 0.023471791 -0.008760546 -0.026443059 0.05958329
0.064025916 0.03102936 -0.02840936 0.0384521 0.014281402 0.05725512 0.0630237 0.043281548
00000000: 704b 493f f0b7 80bd 8273 bbbe 623e 83bd
00000010: f25a 23bd 8ee4 febe 2e7f 23bd 3907 aabd
00000020: 13c8 9b3d 0e16 973e 185d 13bd 84a0 f03d
00000030: c17d 513e 367e 09bd 9c95 743e 6aa0 44bb
00000040: 4945 113c 0b23 8d3e dc2a 81be ed26 a4be
00000050: 4adb bd3d 9fcb ac3e 88fa b7bd e64e 44be
00000060: 9875 f53e 751d 603e b37a 91bd 3607 b33e
00000070: 0ea8 843e aa5b 173f bf19 92be c4b5 f93c
00000080: 7142 1cbd 8cc0 8ebd 0669 b3be a278 813e
00000090: 8a04 6c3e f7ca f0bd 4657 323e d6ef 6c3d
000000a0: aa7d eb3d 54f3 aebd 9300 8b3e 813c 233e
000000b0: 08ce 10be ffac debd 02d1 1abe f371 b2bd
000000c0: c31c 40bd c60d a7bd 38f9 d83e 67a8 e1bd
000000d0: 7746 43be d9f4 afbd 182c 32be aba4 d8bd
000000e0: 115d 8bbd 975a e8bd 6d04 b3bd e59c cfbd
000000f0: 86c1 68bd 3c51 9e3d 247f 92bd afce c0bd
00000100: 288f abbd ad23 b8bd 1fb3 4fbf 0169 77be
00000110: 8b06 c3be aaed 6dbd 754a a9bc 93dd 8fbe
00000120: 8d35 3cbe 7860 623e cb45 9bbd a3b3 a7be
00000130: 193f a4be 6716 cebd 2a54 553d 6ae7 253f
00000140: 3419 f03e e11d 743d bdfb b43d bdb6 78be
00000150: 2e10 d7bd 44af 3e3c 4c9a d73d 06c2 1cbe
00000160: 0c4e cd3d b511 25be 6dc6 e8be 8705 063d
00000170: df15 343e a8b0 ba3e 5443 afbe f03e a3bb
00000180: ea1a 5cba 907a f0be bb5b 043f c3f0 70bf
00000190: d109 47bd 0136 00bd 2819 38be 2099 903d
000001a0: 072c 00bd e0c5 283d 0e38 8ebe 9777 c3be
000001b0: e1e2 513d 3b34 0e3e a742 94be 9121 f33d
000001c0: e8a5 01be 46f0 d93c 7aa1 95bd f273 7c3d
000001d0: 4788 063e ce7d e03c e2de 0b3e f383 29be
000001e0: 4db8 b83c c117 afbd 3d75 39bc c409 00be
000001f0: 987c e03d 44f5 8dbe a938 1c3d 3805 04bc
00000200: 7d28 42be 7a65 af3d c3fc d53d 4013 dd3d
00000210: 9693 fdbe a4f1 e9bd 7963 283c cbba c73d
00000220: 53a5 5a3b 627b bf3c bf85 403e 8109 babd
00000230: 6993 96bd 12f6 403d d5e1 e73d 7cf7 1e3e
00000240: 0ea1 dd3d 45c8 8b3d ccf0 d13c bb4d 22be
00000250: 89b2 f6bd e17d 033e 3382 39be 2cce dcbd
00000260: a495 f53d 8620 09be f737 4abd 9b19 963c
00000270: 6355 0ebe 1528 1e3d 3107 1a3e 8fbc ea3d
00000280: c775 07be 7d06 1a3d 523a 07be 51c7 32be
00000290: d982 c53d 3470 13bf 7b0d ad3e 85f2 b33d
000002a0: b4e8 703e ac1e d5be 629a a5bd eeb8 683e
000002b0: 2630 37bc bed2 ddbc 1bf0 093e 17f7 733e
000002c0: 089a 513e 550e 89bd 9b1e 5b3e ad93 eebd
000002d0: a4a2 c43b b0b1 acbe 020f 2a3e 7f99 acbe
000002e0: 80c5 c73e 0ad0 02be 8ec5 6e3e 2e46 50be
000002f0: b84d 41be d802 a5be 881f b03e d674 06be
00000300: c3a3 09bd 1c70 8abe a5a6 f83c b1e3 5bbe
00000310: a358 c6be af12 e6be a15c 32bf aded 3bbe
00000320: 0ad9 a83d 1026 9dbd cda0 3b3e 2bd3 03bd
00000330: 52c3 b73d 403d ed3d ee85 973d 6244 123e
00000340: 6ad4 2a3e a39a 403e 8643 213e 08a3 293e
00000350: 2716 8f3c c30a 3c3e 86de 36be 2481 24be
00000360: f02d 6e3e 2c35 4a3d 8503 3b3e 10bc 39be
00000370: 01fd 723d f461 be3d 4666 40be 2d05 593e
00000380: 5e00 5a3d 40f3 c73e c027 1dbe 50c4 4c3e
00000390: 6db4 41be 836f 55be 6475 153e ece7 b9bc
000003a0: f4c4 e03c 8e85 cabb 06f3 063d 7201 ff3c
000003b0: f049 4cbc da2b eb3d 1913 2b3c a91c 403d
000003c0: bdbf 24bd a0a4 ff3c f183 b63d 68a7 05bc
000003d0: ea47 c03c 6588 0fbc 1d9f d8bc 9c0d 743d
000003e0: 0520 833d 4931 fe3c bfba e8bc f37f 1d3d
000003f0: 8bfc 693c 5884 6a3d 9212 813d fe47 313d

fc1.bias f4 [64]
-0.37451655 -0.07344384 0.20650455 -0.15594363 -0.14980374 0.06363953 -0.21239853 -0.31533355
-0.10381661 -0.36626896 0.2348515 -0.48279658 -0.0872659 -0.15163586 -0.36076513 -0.040242698
-0.28042722 -0.06855436 -0.19210304 0.23608872 -0.02778641 -0.21515283 -0.119365856 -0.1952652
-0.58362484 -0.624463 -0.6607005 -0.29465118 -0.34050578 -0.0074017523 -0.35651582 0.097711325
0.33808634 -0.31155992 -0.5708433 0.04855015 -0.38419002 -0.037309457 -0.21666929 -0.08771846
-0.20324528 -0.48303828 -0.20398937 -0.4117658 -0.35494646 -0.030224577 -0.45598313 0.004431509
-0.38412818 -0.9216428 -0.45551658 -0.48601902 -0.4829496 -0.12588167 -0.27327383 -0.103666335
-0.2971063 -0.21979329 -0.17676573 -0.02756531 -0.60162 0.012606791 -0.3368944 0.03852147
00000000: a2c0 bfbe b969 96bd ee75 533e b0af 1fbe
00000010: 2766 19be 7155 823d 007f 59be 6673 a1be
00000020: ce9d d4bd 9b87 bbbe e97c 703e 1d31 f7be
00000030: 77b8 b2bd 6e46 1bbe 35b6 b8be 87d5 24bd
00000040: 2894 8fbe 3a66 8cbd a9b6 44be 3ec1 713e
00000050: 53a0 e3bc 0651 5cbe 1676 f4bd 9af3 47be
00000060: 7068 15bf cfdc 1fbf ab23 29bf 85dc 96be
00000070: c656 aebe 668a f2bb 3e89 b6be e01c c83d
00000080: a719 ad3e c884 9fbe c922 12bf 86dc 463d
00000090: 8eb4 c4be cdd1 18bd 8ede 5dbe bca5 b3bd
000000a0: 881f 50be cb50 f7be 97e2 50be f8d2 d2be
000000b0: 8bbb b5be 8899 f7bc 9f76 e9be 3136 913b
000000c0: 73ac c4be c8f0 6bbf 7839 e9be 7cd7 f8be
000000d0: 2c45 f7be 20e7 00be 8cea 8bbe 044f d4bd
000000e0: 511e 98be 7e11 61be 1302 35be a5d0 e1bc
000000f0: c503 1abf b78c 4e3c 6c7d acbe b0c8 1d3d

fc2.weight f4 [64, 64]
-0.13376787 0.031086093 -0.10384999 -0.23599172 0.022630509 0.076244995 -0.012890874 0.053075656
-0.07763685 0.013479926 -0.16701716 -0.12028502 -0.061547846 -0.15561563 -0.028933404 -0.20322907
-0.13363437 -0.04672666 -0.020305935 -0.20407832 -0.018381799 -0.23514521 -0.06321341 -0.049494084
-0.065839015 -0.116745755 -0.035930473 -0.15804829 0.032823116 -0.1428151 -0.0855681 -0.13033845
0.023661302 0.006599189 -0.08465171 0.008634397 0.035817593 -0.051030956 -0.12487747 0.054361936
-0.16546486 -0.035268124 -0.13775772 0.062507786 0.03234307 -0.09200549 0.03457013 0.037668306
-0.11352579 0.050413705 0.005735754 0.041149754 -0.06264205 0.068576604 -0.021096688 -0.12402637
-0.0032945198 0.012977299 0.048547048 0.016906377 -0.028376747 -0.27177307 0.059368398 0.015174841
0.021336501 -0.3404165 -0.5840403 -0.5234641 0.027061254 -0.30209497 -0.16247301 -0.041908864
0.08733334 -0.49672595 -0.2329079 -0.14222458 -0.028274259 0.12191274 -0.06974612 0.19103782
0.20367852 0.14505501 -0.4084783 0.23946878 0.2109547 0.22261263 -0.0774523 0.036928006
-0.107523285 0.14774011 -0.56806016 -0.04973537 0.018801758 -0.33325523 0.036020733 0.15410888
-0.62270844 -0.27300087 0.07571443 -0.29507136 -0.008633016 -0.034513857 -0.048444383 -0.103650086
0.1241146 -0.128192 0.05374715 0.00874012 0.07412393 0.0713103 -0.25766394 0.14439288
-0.14874607 -0.12608062 -0.033656627 0.07231599 -0.13834883 0.094762675 -0.036359556 -0.21661802
-0.103108525 -0.39472845 -0.523162 -0.1337435 -0.3155451 -0.02339167 -0.020373477 0.2551594
-0.20152298 0.12642473 -0.57722306 0.2960478 0.04863988 0.16105272 -0.2962058 -0.050185457
-0.088125356 0.16077687 -0.21796015 0.07804967 -0.16780417 -0.35332978 -0.26383984 -0.32890958
-0.043160915 -0.16715537 -0.08785671 -0.280394 0.0181702 -0.18330938 -0.009753677 -0.0902591
-0.017460939 -0.26096958 0.26795265 -0.07506007 0.03545063 0.12103145 -0.20376447 -0.2587776
0.13174948 -0.3339466 0.028117295 -0.10079432 0.053783603 -0.08258545 0.0036287196 -0.2834537
-0.1474686 -0.042868502 0.0873227 -0.01828312 -0.04105745 -0.11316277 -0.45814177 -0.15819071
0.050982755 0.031164277 -0.06958066 0.102411546 -0.19070691 0.13599074 -0.10960523 -0.17946227
-0.07809543 0.04320445 -0.06494823 -0.17432989 0.29698092 -0.08585702 0.17526664 -0.17987639
-0.14616096 -0.023782836 -0.11314627 0.058308862 -0.068090476 0.058755707 -0.40968722 -0.04454087
-0.06794546 -0.0016624633 0.09458609 -0.12553164 -0.22962677 -0.25982374 -0.17157906 -0.10716274
-0.11292901 -0.057523377 -0.05898218 -0.19106145 -0.1943783 -0.05396458 -0.2178655 -0.26806366
-0.1706018 -0.076367885 -0.19660465 -0.05789498 0.14665228 0.042098433 0.07035635 -0.05217864
-0.13148582 0.0011373691 -0.11040411 0.0046436447 -0.01157437 0.08407909 -0.15447168 -0.09463633
-0.10111083 -0.08116586 0.04972751 -0.07129237 -0.20086202 -0.2108998 0.06793731 -0.05293741
-0.05043438 0.03858998 0.041700765 -0.06712296 0.110607885 -0.2230709 0.032867912 -0.06384841
-0.1152783 0.09855332 -0.24876824 0.09567467 0.04734734 -0.16051856 -0.17333305 -0.03358114
00000000: 72fa 08be 43a8 fe3c 4eaf d4bd d0a7 71be
00000010: 9e63 b93c 5626 9c3d 3f34 53bc dc65 593d
00000020: 1200 9fbd e8da 5c3c 8c06 2bbe fe57 f6bd
00000030: 9819 7cbd b459 1fbe bf05 edbc 481b 50be
00000040: 73d7 08be 7464 3fbd a258 a6bc e8f9 50be
00000050: 6d95 96bc e8c9 70be 0876 81bd 4fba 4abd
00000060: 9bd6 86bd 6618 efbd d52b 13bd 69d7 21be
00000070: 8871 063d 1f3e 12be 543e afbd 7177 05be
00000080: 59d5 c13c 023e d83b e05d adbd 4977 0d3c
00000090: 78b5 123d d605 51bd c2bf ffbd 9faa 5e3d
000000a0: 9f6f 29be 4f75 10bd 5c10 0dbe 1504 803d
000000b0: 2b7a 043d 606d bcbd 6999 0d3d 154a 1a3d
000000c0: 3680 e8bd 9a7e 4e3d fef2 bb3b a58c 283d
000000d0: 7a4a 80bd e471 8c3d f6d2 acbc 8a01 febd
000000e0: dfe8 57bb bd9e 543c 45d9 463d 3e7f 8a3c
000000f0: 5a76 e8bc d725 8bbe 472c 733d e59f 783c
00000100: e3c9 ae3c 124b aebe aa83 15bf be01 06bf
00000110: 90af dd3c 31ac 9abe 535f 26be a1a8 2bbd
00000120: d2db b23d dd52 febe 697f 6ebe 52a3 11be
00000130: 6b9f e7bc 63ad f93d 0ed7 8ebd 6b9f 433e
00000140: 1a91 503e 4d89 143e 1124 d1be 4e37 753e
00000150: 8204 583e 91f4 633e 509f 9ebd d241 173d
00000160: 2b35 dcbd 2f49 173e 646c 11bf 51b7 4bbd
00000170: 2506 9a3c 6ea0 aabe 7a8a 133d b8ce 1d3e
00000180: d269 1fbf c5c6 8bbe 2b10 9b3d 9813 97be
00000190: 7e71 0dbc 675e 0dbd 9e6d 46bd 7f46 d4bd
000001a0: cc2f fe3d c344 03be f925 5c3d b832 0f3c
000001b0: 49ce 973d 220b 923d 87ec 83be badb 133e
000001c0: e450 18be 471b 01be 88db 09bd 681a 943d
000001d0: 51ab 0dbe ef12 c23d c2ed 14bd 1dd1 5dbe
000001e0: 902a d3bd d919 cabe f2ed 05bf 0ef4 08be
000001f0: 218f a1be e39f bfbc 47e6 a6bc 41a4 823e
00000200: 0a5c 4ebe 7c75 013e e4c4 13bf 9493 973e
00000210: 9c3a 473d 01eb 243e 49a8 97be 448f 4dbd
00000220: 117b b4bd b1a2 243e f230 5fbe 81d8 9f3d
00000230: dbd4 2bbe a4e7 b4be 0416 87be d666 a8be
00000240: 80c9 30bd c72a 2bbe 38ee b3bd cd8f 8fbe
00000250: acd9 943c 74b5 3bbe e3cd 1fbc c3d9 b8bd
00000260: 3e0a 8fbc ce9d 85be 1731 893e 18b9 99bd
00000270: ae34 113d 56df f73d a2a7 50be 7f7e 84be
00000280: 56e9 063e 0cfb aabe 3e56 e63c 416d cebd
00000290: 324c 5c3d 8f22 a9bd d0cf 6d3b d820 91be
000002a0: 0202 17be e296 2fbd 3ed6 b23d 7bc6 95bc
000002b0: db2b 28bd e2c1 e7bd 8f91 eabe bffc 21be
000002c0: 4bd3 503d 3a4c ff3c 4e80 8ebd 25bd d13d
000002d0: ac48 43be 2841 0b3e b578 e0bd f5c4 37be
000002e0: 7ff0 9fbd 26f7 303d 9403 85bd 8983 32be
000002f0: e20d 983e ced5 afbd 1979 333e 8431 38be
00000300: 38ab 15be 39d4 c2bc 3bb9 e7bd 46d5 6e3d
00000310: 0573 8bbd d3a9 703d 86c2 d1be 7d70 36bd
00000320: fd26 8bbd 03e7 d9ba 5ab6 c13d 5e8b 00be
00000330: 4823 6bbe 9e07 85be 6cb2 2fbe 2378 dbbd
00000340: 5347 e7bd a29d 6bbd 4c97 71bd 9da5 43be
00000350: 1b0b 47be f709 5dbd 2218 5fbe a43f 89be
00000360: 3db2 2ebe c466 9cbd bb52 49be 4923 6dbd
00000370: 042c 163e 686f 2c3d fd16 903d 45b9 55bd
00000380: 38a4 06be c613 953a 8d1b e2bd b729 983b
00000390: 6da2 3dbc a831 ac3d d32d 1ebe b1d0 c1bd
000003a0: 3213 cfbd 493a a6bd 13af 4b3d bc01 92bd
000003b0: c6ae 4dbe 1ef6 57be b722 8b3d e6d4 58bd
000003c0: 4894 4ebd 8710 1e3d 6cce 2a3d c377 89bd
000003d0: 6386 e23d b36c 64be 81a0 063d f5c2 82bd
000003e0: 0817 ecbd 53d6 c93d 1abd 7ebe 15f1 c33d
000003f0: 49ef 413d fa5e 24be 387e 31be 618c 09bd

fc2.bias f4 [64]
-0.15225966 0.35720298 -0.108086646 -0.021102542 -0.14972462 0.02291337 0.030430779 0.6223694
0.20988265 -0.028329352 0.114528224 0.02536485 -0.0015918844 0.027837606 -0.064196825 -0.16197927
0.040267304 0.4331338 -0.17468062 0.009643033 0.080031455 -0.011769343 -0.054444306 -0.0862023
0.004819129 0.46068585 0.15131408 -0.13777742 0.41940653 -0.09156793 -0.092970595 -0.004148711
0.05547779 0.10162555 -0.09822428 -0.04077708 -0.051694535 -0.2023007 -0.038779713 -0.06364
-0.13298512 -0.024978578 0.06882376 0.08310808 -0.030827053 0.022339191 0.31364968 0.06836311
-0.019197289 -0.19865698 0.2244665 -0.024873836 -0.13461255 -0.026498826 -0.16213548 -0.10318565
-0.09644609 -0.03589011 -0.19390157 -0.13848335 0.115706444 0.4004324 -0.0009963956 0.22171684
00000000: f5e9 1bbe 4fe3 b63e 885c ddbd 3ddf acbc
00000010: 6951 19be d2b4 bb3c f849 f93c 9a53 1f3f
00000020: 7aeb 563e f512 e8bc c68d ea3d f2c9 cf3c
00000030: c7a6 d0ba b10b e43c a079 83bd e5dd 25be
00000040: 54ef 243d b7c3 dd3e 7adf 32be d0fd 1d3c
00000050: 88e7 a33d 34d4 40bc fe00 5fbd d58a b0bd
00000060: c9e9 9d3b 04df eb3e 14f2 1a3e 8615 0dbe
00000070: 74bc d63e f887 bbbd 5e67 bebd e9f1 87bb
00000080: ae3c 633d 0e21 d03d d029 c9bd de05 27bd
00000090: a6bd 53bd ea27 4fbe 7ad7 1ebd b055 82bd
000000a0: 402d 08be e09f ccbc 79f3 8c3d 9234 aa3d
000000b0: 0489 fcbc ae00 b73c b196 a03e f501 8c3d
000000c0: a243 9dbc bc6c 4bbe 8cda 653e 37c4 cbbc
000000d0: dfd7 09be 1114 d9bc d806 26be 0053 d3bd
000000e0: 8785 c5bd 8201 13bd 228e 46be 94ce 0dbe
000000f0: 80f7 ec3d 7a05 cd3e 7d99 82ba bd09 633e

fc3.weight f4 [1, 64]
0.022604277 0.114008866 0.11218103 -0.017089423 0.13454813 0.028088348 0.006834555 -0.14393158
0.031552535 -0.0029253205 -0.0013899307 0.0036999339 0.038801096 0.002106631 -0.0041927407 0.018836502
0.00074048917 -0.05378704 -0.15509458 0.018990295 -0.08779997 -0.029768746 -0.0026435824 -7.2702125e-05
0.0042984174 0.11860055 0.07772555 0.012840842 0.08768379 -0.032703437 -0.004642036 -0.009648747
0.009736557 0.016700596 0.003020425 0.018087745 -0.0012638466 0.06758495 -0.031326145 -0.053017586
-0.05446544 -0.04733902 0.027374158 -0.012437843 0.00014747963 -0.008395331 0.054527763 0.018610789
0.0017225001 0.017769337 0.025763512 0.01286189 0.008471109 0.0015129431 -0.028543863 -0.03043935
-0.01607839 0.0212385 0.059365734 0.049178153 0.03281433 -0.1021601 -0.012239329 0.04700465
00000000: 9b2c b93c 7b7d e93d 2bbf e53d 1eff 8bbc
00000010: fcc6 093e 8919 e63c 67f4 df3b cd62 13be
00000020: 3b3d 013d bcb6 3fbb 562e b6ba 977a 723b
00000030: e6ed 1e3d 670f 0a3b 4263 89bb 024f 9a3c
00000040: 631d 423a cd4f 5cbd 1dd1 1ebe 8991 9b3c
00000050: 78d0 b3bd 96dd f3bc f43f 2dbb a877 98b8
00000060: bdd9 8c3b d8e4 f23d 932e 9f3d 6562 523c
00000070: 8f93 b33d 0af4 05bd 381c 98bb c715 1ebc
00000080: 1486 1f3c b0cf 883c 53f2 453b c02c 943c
00000090: a8a7 a5ba fa69 8a3d d84f 00bd f828 59bd
000000a0: 2717 5fbd 8fe6 41bd c53f e03c 18c8 4bbc
000000b0: c3a4 1a39 928c 09bc 8158 5f3d a775 983c
000000c0: 83c5 e13a 0091 913c 000e d33c adba 523c
000000d0: 68ca 0a3c f24d c63a d2d4 e9bc f25b f9bc
000000e0: d4b6 83bc 5dfc ad3c 7c29 733d 086f 493d
000000f0: 5268 063d 5139 d1bd 7787 48bc f387 403d

fc1.weight f4 [64, 1]
0.67141765 -0.85667497 -1.2219008 0.010756619 -0.7334037 0.32490158 -0.35711467 0.5694427
-0.036905646 -0.13424303 -0.04069372 -0.115879424 0.062538095 -0.711197 -0.07290876 -0.11788602
0.14494395 -0.0039948225 0.5430727 0.07423377 -0.12910573 -0.53388345 -0.16761565 -0.5261941
-0.5946008 -0.1867953 0.25583 1.093838 -0.6256179 0.21702176 0.17420463 1.0700673
0.27619818 -0.6712575 -1.826562 -1.1863023 0.6746539 0.018602248 0.11445687 -0.44470164
1.2240505 -0.42309844 0.57306963 -0.0729812 -0.31526953 0.23650053 -1.392359 -0.063638344
-0.3473581 -0.1096344 -1.04353 -0.5128289 0.23302898 -0.20804155 1.2454848 0.8756177
-0.04682362 -0.6848586 0.32145232 0.17838745 -0.50412875 0.806145 0.36697274 0.88677275
00000000: 07e2 2b3f 0d4f 5bbf 3f67 9cbf 883c 303c
00000010: 58c0 3bbf 8059 a63e bcd7 b6be ffc6 113f
00000020: 602a 17bd 0177 09be 75ae 26bd 3152 edbd
00000030: f913 803d 0211 36bf 3051 95bd 3a6e f1bd
00000040: 306c 143e 00e7 82bb d006 0b3f e007 983d
00000050: 4b34 04be 96ac 08bf 70a3 2bbe a8b4 06bf
00000060: c237 18bf 4447 3fbe 26fc 823e e202 8c3f
00000070: 7f28 20bf f43a 5e3e b362 323e f7f7 883f
00000080: d969 8d3e 88d7 2bbf c9cc e9bf c1d8 97bf
00000090: 1eb6 2c3f be63 983c 5d68 ea3d efaf e3be
000000a0: b0ad 9c3f 5ca0 d8be b1b4 123f 2b77 95bd
000000b0: 026b a1be 322d 723e d238 b2bf d254 82bd
000000c0: ecd8 b1be 0088 e0bd 6492 85bf c148 03bf
000000d0: 269f 6e3e d808 55be 0c6c 9f3f 7b28 603f
000000e0: 20ca 3fbd e552 2fbf 6695 a43e 33ab 363e
000000f0: 950e 01bf 855f 4e3f dae3 bb3e 8a03 633f

fc1.bias f4 [64]
-0.6936935 0.13386613 -0.038794916 -0.27093294 -0.9564562 -1.0199119 -0.3432005 -0.57222664
0.31858727 -0.17669868 0.17600374 -0.1404852 0.42275798 -0.019920917 -0.92611206 0.13816969
-0.7031232 -0.75450915 -0.08388322 -0.23761767 0.19010969 -0.64945465 -0.88898194 -0.043682676
0.37446326 0.089893036 0.5869525 -1.0759273 0.8736108 0.61042476 -0.7718514 -0.19536172
0.6679803 0.906098 -0.8055695 -0.6806689 1.0270118 -0.3701364 0.5742015 -0.40198168
-1.0436852 -0.85042953 1.1317457 -0.12904143 0.1682167 0.57843435 -0.0413748 0.34958968
0.59934306 -0.663581 0.674441 -0.111096576 0.8131979 0.3267376 -1.1000984 -0.9280277
-0.6047716 0.65763235 1.0051743 -0.76018524 0.37462074 -0.8119603 -1.1604996 -0.013437128
00000000: e695 31bf 3414 093e 6be7 1ebd b9b7 8abe
00000010: 50da 74bf 798c 82bf fab7 afbe 727d 12bf
00000020: df1d a33e 80f0 34be 533a 343e 5adb 0fbe
00000030: bc73 d83e 3131 a3bc ae15 6dbf 5b7c 0d3e
00000040: e2ff 33bf 8327 41bf f7ca abbd 0c52 73be
00000050: 1dac 423e a942 26bf 5294 63bf 9bec 32bd
00000060: a6b9 bf3e d719 b83d 8542 163f fcb7 89bf
00000070: f5a4 5f3f cc44 1c3f 0e98 45bf e70c 48be
00000080: c200 2b3f 0af6 673f ce39 4ebf 5140 2ebf
00000090: 1f75 833f 8582 bdbe dffe 123f 8bd0 cdbe
000000a0: 7a97 85bf c0b5 59bf 0bdd 903f 7023 04be
000000b0: 0041 2c3e 4614 143f 9f78 29bd 6bfd b23e
000000c0: 8c6e 193f 72e0 29bf 2aa8 2c3f 9a86 e3bd
000000d0: bd2d 503f 274a a73e 06d0 8cbf 3993 6dbf
000000e0: 50d2 1abf 985a 283f 8da9 803f 809b 42bf
000000f0: 4ace bf3e a1dc 4fbf 408b 94bf 6627 5cbc

fc2.weight f4 [64, 64]
0.072021365 0.052914638 -0.14171736 -0.029541446 0.057097893 0.082831696 -0.011838411 0.08882907
-0.01339759 -0.053596072 -0.17844146 -0.19629613 -0.14920029 -0.103142336 -0.07661903 -0.044630922
0.038685977 -0.028304413 0.048042595 0.04039809 -0.012786904 0.045615498 -0.04233159 0.032955706
-0.07872862 -0.09565436 -0.17679954 -0.080452025 -0.15850107 -0.11165168 0.088871196 -0.040847663
-0.15227666 -0.037348967 -0.022378236 0.017331956 -0.15499757 0.027101874 -0.13924834 -0.116233036
-0.0996148 -0.05697012 -0.13207194 -0.032528788 -0.06596018 -0.027065456 0.037520956 0.029413294
-0.004700642 0.003980443 -0.17121479 0.00852141 -0.1250256 -0.09996087 -0.10768744 -0.024691075
-0.08062348 0.02949155 -0.20180497 -0.09743534 -0.09219373 -0.06758943 0.04472646 -0.04811571
-0.33780137 -0.29254252 -0.20411484 -0.1848416 -0.00027787595 -0.070070416 -0.03953195 -0.30682835
-0.086209305 -0.34173676 0.047039375 -0.1500404 0.010482992 -0.11958736 -0.009735331 -0.12188339
0.02124931 0.05892451 -0.1004213 -0.15940355 -0.30451408 0.09106718 0.108982995 -0.07132114
-0.19101737 -0.18403001 -0.12391267 -0.11812948 -0.35680762 0.035759978 -0.06374677 -0.31258297
-0.014606627 -0.35222995 -0.30395862 -0.17460054 0.03439892 0.118219465 -0.08470957 -0.26312253
-0.12607507 -0.02662827 -0.11986744 0.06908179 -0.29613298 0.0077963066 -0.12968971 -0.17847736
-0.25265092 -0.010949552 -0.22633791 -0.17246513 -0.12749642 -0.14470576 -0.3652575 -0.33336318
-0.08321117 -0.15572536 0.03839732 -0.05487695 -0.15710568 -0.19112977 -0.037246283 -0.24343374
-0.29944396 -0.40589467 -0.5427763 -0.059579 0.15605934 -0.08490953 -0.024881352 -0.098223865
0.020334363 -0.32886556 0.012774052 -0.057207104 0.04813354 -0.10926707 0.035353497 0.08367922
0.029732242 0.10367778 -0.16887847 -0.2361836 -0.0900657 -0.054428365 -0.05921507 0.02526723
-0.4901976 0.064358175 0.0380843 -0.20365827 -0.3890887 -0.11898656 -0.07980115 -0.1982357
-0.0921457 -0.32065406 -0.40991178 -0.4776328 0.008368318 0.07005234 -0.043314703 -0.12180401
-0.4614487 0.0017213827 -0.13328563 -0.09371459 -0.01943454 -0.12124428 -0.2730837 -0.07222142
0.031551983 -0.047710195 -0.5434177 0.11819627 -0.027591556 0.14803444 -0.43071222 -0.45483378
-0.117513284 -0.39426816 0.030513478 -0.1719688 -0.12200891 -0.30057564 -0.12022945 -0.1687825
-0.48283464 -0.57744884 -0.5755047 -0.15954529 -0.00031834657 -0.2648518 -0.04776826 -0.3004881
-0.03789866 -0.39414576 0.039678156 0.08036278 0.0813415 -0.141204 0.0010868162 -0.028676832
-0.069914594 -0.07031919 -0.19364049 -0.28253502 -0.09034958 -0.08810744 -0.10356602 0.115054734
-0.63381743 -0.042707857 -0.13515756 -0.36508125 -0.5153657 -0.23551692 0.078993745 -0.38962817
-0.13838756 -0.4455789 -0.4605525 -0.45866272 0.09925915 0.0364632 0.06754151 -0.042795777
-0.621903 -0.12246022 0.08464093 -0.11118631 0.016793657 -0.08604689 -0.48074514 -0.020352624
0.038036305 -0.025300056 -0.6032403 0.035505403 0.020478727 -0.053197175 -0.5069379 -0.5599541
-0.046100378 -0.2833214 0.09041304 -0.034608867 -0.1353756 -0.5933792 -0.13220575 -0.36137432
00000000: f07f 933d 05bd 583d 5b1e 11be e700 f2bc
00000010: 7bdf 693d aaa3 a93d e5f5 41bc 04ec b53d
00000020: 9181 5bbc 8e87 5bbd 5cb9 36be da01 49be
00000030: f6c7 18be 4a3c d3bd 70ea 9cbd eace 36bd
00000040: 3075 1e3d a8de e7bc 50c8 443d 7878 253d
00000050: 2a80 51bc 51d7 3a3d e463 2dbd 90fc 063d
00000060: 793c a1bd 6fe6 c3bd f00a 35be 08c4 a4bd
00000070: 1b4e 22be a3a9 e4bd 1a02 b63d e14f 27bd
00000080: 6aee 1bbe 3bfb 18bd 9052 b7bc bffb 8d3c
00000090: afb7 1ebe c004 de3c 1e97 0ebe 960b eebd
000000a0: d802 ccbd 8059 69bd de3d 07be e83c 05bd
000000b0: 2116 87bd 60b8 ddbc 93af 193d 26f4 f03c
000000c0: d807 9abb 606e 823b ee52 2fbe 629d 0b3c
000000d0: b606 00be 49b8 ccbd 3c8b dcbd f044 cabc
000000e0: ec1d a5bd 4398 f13c f6a5 4ebe 2e8c c7bd
000000f0: 11d0 bcbd 546c 8abd 1833 373d fb14 45bd
00000100: 4df4 acbe 22c8 95be 7b03 51be 1e47 3dbe
00000110: e1af 91b9 1481 8fbd 41ec 21bd 9b18 9dbe
00000120: 818e b0bd 1ff8 aebe 5cac 403d 31a4 19be
00000130: dbc0 2b3c 38ea f4bd f080 1fbc 009e f9bd
00000140: 0813 ae3c d45a 713d afa9 cdbd af3a 23be
00000150: 45e9 9bbe 6e81 ba3d 7a32 df3d d110 92bd
00000160: 0f9a 43be 5d72 3cbe edc5 fdbd deed f1bd
00000170: 7daf b6be 0e79 123d ab8d 82bd e00a a0be
00000180: a250 6fbc 7c57 b4be 77a0 9bbe 7cca 32be
00000190: e2e5 0c3d 0c1d f23d 367c adbd ffb7 86be
000001a0: d319 01be 8823 dabc 0f7d f5bd c17a 8d3d
000001b0: be9e 97be 2978 ff3b 61cd 04be c5c2 36be
000001c0: 765b 81be c065 33bc 20c5 67be b39a 30be
000001d0: 6c8e 02be bf2d 14be 0803 bbbe 94ae aabe
000001e0: 9e6a aabd 7876 1fbe 8246 1d3d a7c6 60bd
000001f0: 50e0 20be 86b7 43be 8f8f 18bd b246 79be
00000200: b850 99be 6dd1 cfbe 63f3 0abf 1c09 74bd
00000210: 05ce 1f3e 0ce5 adbd fad3 cbbc 9829 c9bd
00000220: 4094 a63c 1161 a8be 424a 513c ff51 6abd
00000230: ad27 453d 6ac7 dfbd d4ce 103d 0360 ab3d
00000240: 0891 f33c 0455 d43d 7aee 2cbe 1dda 71be
00000250: 5e74 b8bd 47f0 5ebd 808b 72bd 39fd ce3c
00000260: 2efb fabe 38ce 833d 48fe 1b3d cb8b 50be
00000270: a236 c7be 3aaf f3bd c96e a3bd 4dfe 4abe
00000280: e2b6 bcbd c52c a4be f5df d1be 498c f4be
00000290: 451b 093c 9a77 8f3d c26a 31bd 6174 f9bd
000002a0: 0143 ecbe 05a0 e13a 077c 08be 6fed bfbd
000002b0: 2f35 9fbc ec4e f8bd a0d1 8bbe d3e8 93bd
000002c0: a73c 013d c46b 43bd 6c1d 0bbf e310 f23d
000002d0: b007 e2bc 5796 173e 5086 dcbe f9df e8be
000002e0: ceaa f0bd 84dd c9be 67f7 f93c 9718 30be
000002f0: cfdf f9bd 0de5 99be dc3a f6bd 52d5 2cbe
00000300: 1a36 f7be b0d3 13bf 4754 13bf d75f 23be
00000310: c1e7 a6b9 a89a 87be a7a8 43bd 94d9 99be
00000320: a03b 1bbd 79cd c9be 9085 223d 3e95 a43d
00000330: 5f96 a63d c897 10be 8073 8e3a adeb eabc
00000340: 622f 8fbd 8203 90bd b149 46be 6ea8 90be
00000350: 3309 b9bd ac71 b4bd 6c1a d4bd d1a1 eb3d
00000360: dc41 22bf 6fee 2ebd be66 0abe eeeb babe
00000370: 02ef 03bf 592b 71be 79c7 a13d 587d c7be
00000380: 78b5 0dbe eb22 e4be 8acd ebbe d7d5 eabe
00000390: 6248 cb3d 705a 153d 3453 8a3d a04a 2fbd
000003a0: 0935 1fbf 6ccc fabd 3958 ad3d a6b5 e3bd
000003b0: da92 893c 5a39 b0bd 3a24 f6be 8cba a6bc
000003c0: f5cb 1b3d 1042 cfbc f56d 1abf 1d6e 113d
000003d0: 01c3 a73c 48e5 59bd afc6 01bf 2759 0fbf
000003e0: c0d3 3cbd 810f 91be 792a b93d 07c2 0dbd
000003f0: e79f 0abe b3e7 17bf f260 07be 0e06 b9be

fc2.bias f4 [64]
-0.1745911 -0.0971175 -0.08964295 -0.025615107 0.03437838 -0.04785731 -0.04549981 -0.20279394
0.06042996 0.3861231 -0.17945105 0.058084074 -0.11002367 0.02667341 0.032750282 -0.15244077
-0.07523285 -0.3485165 -0.03426148 0.0040132254 -0.33428165 0.20277445 0.5113853 -0.08651553
-0.054887902 0.3175007 -0.12687989 -0.06528869 -0.052459836 -0.099519014 -0.12645589 -0.1783179
-0.24789537 -0.5480837 -0.18774435 0.0760312 -0.06253451 -0.05485466 -0.1861527 -0.20052285
0.4430455 -0.15202627 -0.012360131 0.015920714 -0.027115328 -0.023188226 0.04046497 0.15316743
-0.08671149 -0.12390442 -0.10068878 -0.061488155 -0.037769407 -0.112903416 -0.102904595 -0.03470614
-0.2503198 0.0021412969 0.02067808 -0.015609841 -0.11588706 0.0026134339 -0.029927755 -0.010478274
00000000: 02c8 32be 8ae5 c6bd b996 b7bd c6d6 d1bc
00000010: 58d0 0c3d 0706 44bd 025e 3abd 37a9 4fbe
00000020: 6885 773d edb1 c53e 04c2 37be 91e9 6d3d
00000030: 1754 e1bd 3282 da3c 2925 063d 6f19 1cbe
00000040: ae13 9abd c170 b2be c455 0cbd 6081 833b
00000050: f726 abbe 1ba4 4f3e 26ea 023f 0e2f b1bd
00000060: 23d2 60bd 748f a23e cdec 01be 14b6 85bd
00000070: 20e0 56bd a0d0 cbbd a77d 01be f898 36be
00000080: 49d8 7dbe 374f 0cbf 0e40 40be 3fb6 9b3d
00000090: 1812 80bd 48af 60bd d09e 3ebe dd55 4dbe
000000a0: dcd6 e23e c6ac 1bbe 2682 4abc 286c 823c
000000b0: f720 debc 3cf5 bdbc 99be 253d ecd7 1c3e
000000c0: cb95 b1bd 9ac1 fdbd eb35 cebd 01db 7bbd
000000d0: 18b4 1abd e839 e7bd a5bf d2bd 0728 0ebd
000000e0: eb29 80be 0055 0c3b 1465 a93c 6bc0 7fbc
000000f0: 3256 edbd 2546 2b3b 0d2b f5bc 11ad 2bbc
