maddpg_pytorch/models/cache_data/model/run48/incremental/model_ep3001.pt (torch, 690099 bytes, 168 tensors)

fc1.weight f4 [64, 1]
00000000: 218d 3f3f d757 5fbf 421b 8fbf e304 183e
00000010: 31b2 3bbf 5569 a53e 3f0a d0be 5c39 283f
00000020: fd86 de3d 3273 09be 8cd1 ad3d 204f edbd
00000030: 4c9e 563e 9082 21bf 3051 95bd a719 1ebe
00000040: 306c 143e 00e7 82bb b471 1d3f 2bdc 973d
00000050: 725a 19be 1eac 08bf 70a3 2bbe a8c0 00bf
00000060: 8e1a 13bf 884f 2fbe ba6b cf3e 7f0b 6b3f
00000070: a8d2 54bf 4fcf b03e 2061 323e e87e 903f
00000080: 5b25 da3e 630c 5bbf 9710 ebbf b458 9abf
00000090: 7cd9 4d3f 7707 9d3c 1912 853e 1674 06bf
000000a0: facb a93f 5ca0 d8be 2fc3 373f 097a 95bd
000000b0: d59b 63be 0dce be3e 3217 a6bf 3526 ce3d
000000c0: 8122 a1be 0088 e0bd dc8f 77bf c356 03bf
000000d0: 7114 c73e 507b 5cbe 147d 973f 32e3 743f
000000e0: 20ca 3fbd 98a7 42bf 7522 f23e 7ea9 363e
000000f0: 68ff 06bf 9464 6b3f 0ddc bb3e b833 703f
0.7482472 -0.8724341 -1.1180193 0.14845614 -0.73318774 0.32306924 -0.40632817 0.65712523
0.10865591 -0.1342285 0.084872335 -0.115873575 0.20958823 -0.6308985 -0.07290876 -0.15439473
0.14494395 -0.0039948225 0.6150162 0.074150406 -0.14975908 -0.5338763 -0.16761565 -0.5029397
-0.57462394 -0.17120183 0.40511876 0.91814417 -0.83133936 0.34533164 0.17419863 1.1288729
0.42606625 -0.85565776 -1.8364438 -1.205832 0.8040998 0.019168599 0.2599037 -0.52520883
1.3265374 -0.42309844 0.717822 -0.07298667 -0.22227414 0.3726658 -1.2975829 0.10065881
-0.31471637 -0.1096344 -0.96703887 -0.5130426 0.38882783 -0.21531415 1.1835046 0.9565917
-0.04682362 -0.7603698 0.47291914 0.17838094 -0.5273347 0.91950345 0.36691323 0.93828917

fc1.bias f4 [64]
00000000: 9931 dfbe d8a2 973e 13c5 7c3e 716f e0bd
00000010: c8e6 74bf acc1 82bf 579a 93be 0ad8 acbe
00000020: deed c13e 4af7 34be b17e 853e 4eed 0fbe
00000030: 4f61 f93e b333 053e ae15 6dbf cd05 343e
00000040: e2ff 33bf 8027 41bf cc8f 273d a559 73be
00000050: 718a 4f3e fc42 26bf 5294 63bf 95e4 5c3d
00000060: b3fb 083f e160 453e 268d 273f 2004 99bf
00000070: b228 5b3f 72a8 2b3f 6e98 45bf d967 84bd
00000080: 690b 3b3f 0b44 623f 7d70 4abf 3cdf 26bf
00000090: 344d 8c3f bbcc bdbe e4f1 203f 7208 98be
000000a0: a785 35bf c0b5 59bf 9165 973f 2826 04be
000000b0: 7a54 8f3e 1d1b 243f cbaf 923e 746a e33e
000000c0: d833 1f3f 72e0 29bf eaf7 683f aebe d6bc
000000d0: 92ce 5f3f e175 a73e ec0a 71bf 30fc 25bf
000000e0: 50d2 1abf 7827 3c3f 6568 893f 029c 42bf
000000f0: 1a94 fd3e dc04 f5be d48c 94bf 9fd3 923d
-0.43592528 0.29616427 0.24684553 -0.10958756 -0.95664644 -1.0215354 -0.2882869 -0.33758575
0.3787679 -0.17672458 0.2607322 -0.14055368 0.48707053 0.13008003 -0.92611206 0.17580338
-0.7031232 -0.754509 0.04090862 -0.23764665 0.20267655 -0.6494596 -0.88898194 0.05392893
0.5350906 0.19275238 0.6544975 -1.1954384 0.8560897 0.670539 -0.77185714 -0.0646512
0.73064286 0.88385075 -0.79077893 -0.6518438 1.096106 -0.3707026 0.62869096 -0.29693943
-0.7090706 -0.85042953 1.1827871 -0.1290518 0.27994138 0.6410387 0.28649744 0.44417155
0.6218848 -0.663581 0.91003287 -0.02621397 0.87424576 0.32707122 -0.9415729 -0.6483793
-0.6047716 0.73497725 1.0734984 -0.760193 0.49527055 -0.4785527 -1.1605477 0.0716927

fc2.weight f4 [64, 64]
00000000: f07f 933d c7b9 583d 0b1f 11be 8606 f2bc
00000010: 97dc 693d aaa3 a93d 4608 42bc 04ec b53d
00000020: 9794 5bbc b98b 5bbd 5bba 36be 2203 49be
00000030: 16c9 18be 863e d3bd 70ea 9cbd a2d3 36bd
00000040: 3075 1e3d a8de e7bc 50c8 443d 7878 253d
00000050: 8a92 51bc 56d5 3a3d e463 2dbd 10f8 063d
00000060: 253e a1bd a2e8 c3bd af0b 35be 08c4 a4bd
00000070: 524f 22be 19ab e4bd 1a02 b63d d84f 27bd
00000080: 4eef 1bbe 6bff 18bd 1d59 b7bc f3f4 8d3c
00000090: f4b8 1ebe c004 de3c 4c98 0ebe c20d eebd
000000a0: d802 ccbd 8059 69bd ed3e 07be 5341 05bd
000000b0: 7e18 87bd 37be ddbc 0fab 193d abea f03c
000000c0: d92c 9abb 606e 823b 2254 2fbe 058b 0b3c
000000d0: ee07 00be a9ba ccbd 328b dcbd f044 cabc
000000e0: ec1d a5bd 4d8f f13c f0a6 4ebe 2e8c c7bd
000000f0: 71d2 bcbd 546c 8abd 1833 373d f814 45bd
00000100: 47f7 acbe 51ca 95be 0c08 51be 534a 3dbe
00000110: 083f 93b9 7987 8fbd 30fa 21bd 091b 9dbe
00000120: 3995 b0bd 3bfa aebe 53a2 403d eaa6 19be
00000130: 6b97 2b3c ceee f4bd f080 1fbc c9a3 f9bd
00000140: 0813 ae3c d45a 713d 82b0 cdbd 753f 23be
00000150: 6ceb 9bbe 6e81 ba3d 7a32 df3d 0a18 92bd
00000160: 9a9e 43be e974 3cbe 7dcb fdbd 41f7 f1bd
00000170: 88b1 b6be dd6d 123d c88c 82bd 580d a0be
00000180: ef7c 6fbc ac59 b4be 66a2 9bbe 9dce 32be
00000190: 90db 0c3d 0c1d f23d 3981 adbd 56b9 86be
000001a0: 4e1f 01be 8823 dabc 3682 f5bd 877b 8d3d
000001b0: eca0 97be 4920 ff3b ded0 04be 9bc5 36be
000001c0: 215d 81be c065 33bc 6cc9 67be 129e 30be
000001d0: 2d91 02be 3d31 14be a305 bbbe 34b1 aabe
000001e0: 9e6a aabd ad7a 1fbe b43b 1d3d c8c7 60bd
000001f0: 4be3 20be f3bc 43be 9693 18bd fb4a 79be
00000200: c854 99be 68d6 cfbe 3ef6 0abf d30c 74bd
00000210: 75ce 1f3e 9ceb adbd d7dc cbbc 0032 c9bd
00000220: 8782 a63c 8263 a8be b521 513c cf57 6abd
00000230: 9a1b 453d cfcb dfbd d4ce 103d 115d ab3d
00000240: 0891 f33c 0455 d43d 10f1 2cbe 54dd 71be
00000250: cc77 b8bd f0f2 5ebd 808b 72bd adef ce3c
00000260: f2ff fabe 42ca 833d 68f4 1b3d 5590 50be
00000270: 403a c7be 87b2 f3bd f66d a3bd 8304 4bbe
00000280: 73bb bcbd 9130 a4be 23e4 d1be 1e90 f4be
00000290: 6def 083c 9a77 8f3d 3476 31bd 2479 f9bd
000002a0: 6a47 ecbe 00a0 e13a 257f 08be 43ee bfbd
000002b0: c145 9fbc 3555 f8bd 14d5 8bbe 32ee 93bd
000002c0: db36 013d c46b 43bd 881f 0bbf 390d f23d
000002d0: e21e e2bc c294 173e f68a dcbe 97e4 e8be
000002e0: ccaa f0bd 44e1 c9be 41df f93c 4619 30be
000002f0: d5e5 f9bd 2be9 99be f640 f6bd b1d9 2cbe
00000300: 5b3d f7be 84d7 13bf 6b58 13bf 0866 23be
00000310: 0648 a8b9 699c 87be 83b3 43bd addc 99be
00000320: 4759 1bbd 4cd1 c9be 735e 223d 8f93 a43d
00000330: 8883 a63d cb9c 10be 8073 8e3a c51c ebbc
00000340: 622f 8fbd 8203 90bd 1252 46be b2aa 90be
00000350: 9517 b9bd ac71 b4bd 6c1a d4bd 6198 eb3d
00000360: 0946 22bf 250f 2fbd 1a71 0abe 76ed babe
00000370: 2ff2 03bf 8737 71be a6c7 a13d b483 c7be
00000380: 94bf 0dbe 2329 e4be c1d2 ebbe 20db eabe
00000390: d235 cb3d 705a 153d e941 8a3d 6f53 2fbd
000003a0: 5339 1fbf 6ccc fabd 2447 ad3d 71b8 e3bd
000003b0: 515e 893c c44e b0bd 522a f6be d9f4 a6bc
000003c0: 48ab 1b3d 1042 cfbc af71 1abf 175d 113d
000003d0: 0f7c a73c 6e07 5abd cfc9 01bf cb5d 0fbf
000003e0: c0d3 3cbd b615 91be f419 b93d 62c5 0dbd
000003f0: a6a5 0abe 3deb 17bf 7764 07be d30a b9be
0.072021365 0.052911546 -0.14171998 -0.029544126 0.057095136 0.082831696 -0.011842793 0.08882907
-0.013402126 -0.053600047 -0.17844526 -0.19630101 -0.14920458 -0.1031466 -0.07661903 -0.044635423
0.038685977 -0.028304413 0.048042595 0.04039809 -0.012791285 0.04561361 -0.04233159 0.032951415
-0.07873181 -0.095658556 -0.17680238 -0.080452025 -0.15850571 -0.11165447 0.088871196 -0.04084763
-0.15228006 -0.03735296 -0.02238136 0.017328715 -0.15500242 0.027101874 -0.13925284 -0.11623718
-0.0996148 -0.05697012 -0.13207598 -0.032533 -0.065964684 -0.02706824 0.03751665 0.029408773
-0.0047050533 0.003980443 -0.17121938 0.008517032 -0.12503025 -0.0999654 -0.10768737 -0.024691075
-0.08062348 0.029487276 -0.20180869 -0.09743534 -0.09219826 -0.06758943 0.04472646 -0.0481157
-0.33782408 -0.29255918 -0.20413226 -0.18485384 -0.00028084987 -0.07008261 -0.039545238 -0.3068469
-0.08622212 -0.34175286 0.047029804 -0.15005079 0.010473113 -0.11959611 -0.009735331 -0.12189443
0.02124931 0.05892451 -0.10043432 -0.15942176 -0.3045305 0.09106718 0.108982995 -0.07133491
-0.1910347 -0.18403973 -0.12392328 -0.11814738 -0.3568232 0.035749305 -0.06374508 -0.3126018
-0.014617189 -0.35224664 -0.30397338 -0.17461629 0.03438908 0.118219465 -0.08471913 -0.26313275
-0.12609598 -0.02662827 -0.119877264 0.069083266 -0.2961496 0.007785831 -0.12970302 -0.17848818
-0.25266364 -0.010949552 -0.2263543 -0.17247799 -0.12750693 -0.14471908 -0.36527738 -0.3333832
-0.08321117 -0.15574141 0.038387015 -0.054878026 -0.15711705 -0.19115047 -0.037250124 -0.24345009
-0.29947495 -0.40593266 -0.54281986 -0.059582543 0.15606101 -0.084922045 -0.024885578 -0.0982399
0.020325912 -0.32888418 0.012764384 -0.057212647 0.048122026 -0.10927545 0.035353497 0.083673604
0.029732242 0.10367778 -0.16888833 -0.23619586 -0.090072244 -0.054430902 -0.05921507 0.02526077
-0.49023396 0.06435062 0.03807488 -0.20367558 -0.3891163 -0.11899286 -0.07979958 -0.1982594
-0.092154406 -0.32068303 -0.40994367 -0.47766203 0.008357865 0.07005234 -0.043325618 -0.12181309
-0.46148235 0.0017213821 -0.13329752 -0.09371617 -0.019442441 -0.12125627 -0.27311003 -0.072231665
0.031546455 -0.047710195 -0.5434499 0.11818928 -0.027602617 0.1480284 -0.4307477 -0.454869
-0.11751327 -0.39429677 0.030501964 -0.17197141 -0.1220204 -0.30060706 -0.12024109 -0.16879918
-0.48288998 -0.57750726 -0.5755679 -0.1595689 -0.0003209712 -0.2648652 -0.047778618 -0.30051175
-0.03792694 -0.39417493 0.039640855 0.08035957 0.08130556 -0.14122312 0.0010868162 -0.028700242
-0.069914594 -0.07031919 -0.19367245 -0.2825523 -0.09037701 -0.08810744 -0.10356602 0.11503673
-0.63388115 -0.042739052 -0.13519707 -0.36509293 -0.5154142 -0.23556338 0.07899408 -0.3896767
-0.13842613 -0.44562635 -0.4605923 -0.45870304 0.09922375 0.0364632 0.067508526 -0.042804178
-0.62196845 -0.12246022 0.084608346 -0.11119164 0.016768606 -0.08608773 -0.48079163 -0.020380424
0.038005143 -0.025300056 -0.6032972 0.035489168 0.020444898 -0.05322974 -0.5069856 -0.5600249
-0.046100378 -0.28336877 0.09038153 -0.034612067 -0.13539752 -0.5934332 -0.13221918 -0.3614107

fc2.bias f4 [64]
00000000: 25c9 32be e0ec c6bd 2c9b b7bd 7b1c d2bc
00000010: e9c9 0c3d c40b 44bd f85d 3abd 8cab 4fbe
00000020: 6885 773d 920a ce3e a7c3 37be 93e6 6d3d
00000030: 4a56 e1bd db7b da3c 2719 063d 421a 1cbe
00000040: c816 9abd 4f92 b2be c455 0cbd 6081 833b
00000050: ac50 abbe e104 843e a16b fe3e a930 b1bd
00000060: c8d9 60bd 792a 8e3e 3df0 01be 14b6 85bd
00000070: 84e4 56bd 3fd2 cbbd 9386 01be 299b 36be
00000080: 6bda 7dbe dd61 0cbf 1942 40be aa43 7f3e
00000090: 1812 80bd ebd6 60bd 2da1 3ebe 1257 4dbe
000000a0: c407 813e 5cad 1bbe 468e 4abc 130c 823c
000000b0: 4f30 debc 100f bebc eabb 253d 46d4 f03d
000000c0: 7897 b1bd 9ac1 fdbd 6d37 cebd 26df 7bbd
000000d0: fbb6 1abd e839 e7bd e0de 25bd 472f 0ebd
000000e0: 8b34 80be 0055 0c3b 9300 a93c dac9 7fbc
000000f0: 3256 edbd 01ee 2a3b c938 f5bc 10ad 2bbc
-0.17459543 -0.09713149 -0.089651436 -0.025648346 0.034372244 -0.047862783 -0.04549977 -0.20280284
0.06042996 0.4024244 -0.17945729 0.05808122 -0.110027865 0.026670387 0.03273883 -0.15244392
-0.075238764 -0.3487725 -0.03426148 0.0040132254 -0.33459985 0.25784972 0.4969149 -0.08651859
-0.054895192 0.2776678 -0.126893 -0.06528869 -0.052464023 -0.09952211 -0.12648992 -0.17832626
-0.24790351 -0.5483683 -0.18775214 0.24928156 -0.06253451 -0.05489246 -0.18616171 -0.20052746
0.25201237 -0.1520285 -0.012363022 0.015874898 -0.027122645 -0.023200542 0.040462412 0.11759238
-0.086714685 -0.12390442 -0.100691654 -0.061492108 -0.03777216 -0.112903416 -0.040495753 -0.034713056
-0.25040087 0.0021412969 0.020630157 -0.01561209 -0.11588706 0.0026081803 -0.029934304 -0.010478273

fc3.weight f4 [32, 64]
00000000: 708b 21be 1241 3ebd c7f4 a1bd eb57 8abd
00000010: 6663 a4bd 7338 bdbc eca7 973d a042 28be
00000020: 6a20 f23d 9063 4fbe 6e8e 86bd 2386 53bd
00000030: 4870 f4bd 4a00 bcbd 8225 97bd 0478 02be
00000040: bf33 86bd 5b84 a43e 5cb1 b9bd 48dd 293d
00000050: eec6 c3bd 84b8 cdbe b4d3 e1bd 819c 00bd
00000060: c846 ad3d f0fa 113e 06f2 df3d bcd2 053d
00000070: 8807 a9bd 2784 18be 1076 cc3d 5dfa 12bd
00000080: 6b27 15be 0ef8 78be 7ce5 e1bd 100e 87be
00000090: c872 973d 39c3 a33d 0381 44bd b43d d53d
000000a0: 0edf 1d3e 5165 debc ceaf 15be 4610 30bd
000000b0: 6e5f febd fa40 3a3e 4202 16be 6c43 06bd
000000c0: d9b0 30be 80c1 b6bd 9ae1 33bd d204 183c
000000d0: bdd3 3d3d a47e 1fbd 06df acbb b87d aa3d
000000e0: 9efa 02bd ac41 d1bd fb0a cabe 5745 0d3e
000000f0: a8a0 b4bd ae4e 953c d32c 65bd 8e3c e5bd
00000100: edd3 203e 0953 81be a115 bcbe 42a5 8cbe
00000110: f79f bf3d f525 25bd 0840 acbc ec08 b2bd
00000120: 3c21 0cbd 3e69 17bc 5851 9f3d effb 54bd
00000130: cffc 8b3e e9d5 e8bc 8fa7 b0bd 9966 3b3c
00000140: 8f38 55bd 6a19 79be 905d a13c c023 95bd
00000150: f6c5 1b3d c194 afbc 12a6 10bf 680e 513d
00000160: 427d 3c3d 213d 46be 01af 0f3e 2c92 39bd
00000170: 20f3 663e 63b6 583c d18e 223e 8e70 fcbd
00000180: 1491 593e 263a 1f3f fc85 593d 2a88 0dbd
00000190: 2842 70bd ccd7 ad3e f7e2 debc c70c 983b
000001a0: 9c24 03be bb14 173d 3f08 23be 37af 8ebe
000001b0: fdd1 debd fe14 563e 7e1d 3f3d d048 ab3c
000001c0: 147e 19bd b49f f6bd 329d 49bb 9914 96be
000001d0: a3b6 fe3b 96a1 a4bd 4931 2d3d cc0a 153e
000001e0: 13c5 f93d 70c7 14bd b062 c9be 40bf c1be
000001f0: 2a43 b43d 5592 623e a314 cd3b 9264 983d
00000200: 79c2 7cbd 0798 5bbe 8303 a3be 2c03 80be
00000210: b06f 60bb 18b6 c43d bcab 033d 3837 7cbe
00000220: e06c 813d 8d01 8cbc af84 4bbd 0878 fcbb
00000230: 34c9 f23d 8dee 2c3e 76e5 5b3e c0d8 3abc
00000240: b809 42be 91ea b3be b66a cf3d 1c59 943d
00000250: 0f42 0abd 9ccb bb3e 68b3 4ebf 95ff bd3d
00000260: 87b9 45be e30e f43e 1f49 efbd 4e21 a03d
00000270: 2f6d ad3d 177d 003e f9ae 4cbc f2b6 803c
00000280: 31bf 583d 7591 553e c875 433e 6c95 babe
00000290: 68e3 893c be39 303e 0b6f f93d 645b 8e3c
000002a0: 79bd 013e 2eb9 3bbe b75a debd 6d9b 12bd
000002b0: 9b48 c23d 92fa 2a3c b1d0 10be 80a9 b4bd
000002c0: d248 30be c4b1 273d b934 e4bc 6a9d d9be
000002d0: 29a7 c1bd 6499 df3d 654e 1b3f c7d5 36bd
000002e0: eee4 c33d 4888 083d 6e5d cfbd 7c04 d2be
000002f0: 20b2 de3c 149f fd3d 3622 563d 2a33 a7bd
00000300: 8aa8 043c faa2 f0bd a9e5 e8be 1430 efbd
00000310: 72d8 bf3b 94f4 103e 2efc f1bd 92c8 b8bd
00000320: c082 043d bf04 623d 30ae db3d 2325 e9bc
00000330: b70a 563c 7297 27be 72dc f0be aa3e f53d
00000340: a262 05be 5f05 4fbf 605a 083d b26a e0bd
00000350: 1685 293e 3856 4fbe e0ab eb3e 9aa1 673c
00000360: 07eb 773c e13f cabd 1bc9 323e 8ca3 c43d
00000370: eaee 043e 8c20 b8bb 303b 283e a5f7 8e3d
00000380: d775 1c3e fb71 abbe f58f 203e 88d0 ffbe
00000390: d0d1 053c 303e 3e3c 370f 8cbd b2d6 0f3e
000003a0: a6e1 3cbb 79a6 2bbe cd29 7ebd 4fdd c2bd
000003b0: 6a04 84bd df07 e3bb a864 c6bd 4846 70bd
000003c0: e431 023e 14ef ff3d 767a ff3b 7b12 febc
000003d0: 2856 8c3d a467 c7bd 9526 f23e c8d5 4e3e
000003e0: 1756 a5bb a644 8c3d eaa7 a7bc cfec 50be
000003f0: f87d 333d 6707 283e d6b5 7e3e 1488 acbd
-0.15775847 -0.046448775 -0.07908016 -0.0675505 -0.08026771 -0.023098206 0.074050754 -0.16431665
0.11822589 -0.20252824 -0.06570135 -0.051641595 -0.119354784 -0.09179743 -0.07380201 -0.12741095
-0.065528385 0.3213223 -0.09067032 0.041470796 -0.09559427 -0.40179837 -0.11026707 -0.031399254
0.08460766 0.14255881 0.10934834 0.032671675 -0.082533896 -0.14894162 0.09983456 -0.035883296
-0.14565818 -0.24313375 -0.11030099 -0.26377916 0.0739494 0.0799622 -0.047974598 0.104121596
0.1541712 -0.02714792 -0.14617845 -0.04298427 -0.124205455 0.18188849 -0.14649299 -0.032779142
-0.17254962 -0.08923626 -0.043916322 0.009278493 0.046344507 -0.038939133 -0.00527561 0.0832476
-0.03197729 -0.10217604 -0.39461502 0.13795982 -0.08819705 0.018225994 -0.05595095 -0.111931905
0.15705843 -0.25258663 -0.36735252 -0.27469832 0.09356683 -0.0403194 -0.021026626 -0.08693108
-0.034211382 -0.0092414 0.07779187 -0.051998075 0.27341315 -0.028422313 -0.08625709 0.011438035
-0.05205589 -0.24326101 0.019697934 -0.072822094 0.038030587 -0.021433236 -0.56503403 0.05103913
0.046017893 -0.19359256 0.14031602 -0.045305416 0.22553682 0.013227078 0.15874793 -0.123261556
0.21246749 0.621981 0.053106293 -0.034553684 -0.05865684 0.33953702 -0.027207835 0.004640195
-0.12806934 0.036885004 -0.15921114 -0.27868053 -0.10879896 0.20906445 0.046658985 0.020908743
-0.037473753 -0.1204218 -0.0030763862 -0.2931259 0.007773237 -0.080386326 0.04228333 0.145549
0.12195792 -0.03632301 -0.39333105 -0.37841225 0.08801873 0.22126134 0.0062585636 0.07441057
-0.0617089 -0.21444713 -0.31838617 -0.2500242 -0.0034246258 0.09605044 0.0321462 -0.2463044
0.063195944 -0.017090583 -0.049687084 -0.0077047385 0.11854783 0.16887875 0.21474251 -0.011404216
-0.1894902 -0.35139897 0.10127775 0.07243559 -0.033754405 0.3667878 -0.807425 0.09277264
-0.19309054 0.47667608 -0.116838686 0.07818852 0.08468091 0.12547718 -0.012492889 0.015712235
0.05291671 0.20856269 0.19087899 -0.36442125 0.016832069 0.17209527 0.12179383 0.017377563
0.12669934 -0.18332359 -0.10857146 -0.035792757 0.09486505 0.010435717 -0.1414211 -0.08821392
-0.17215279 0.040941015 -0.027857171 -0.4250291 -0.094557114 0.10917929 0.60666496 -0.044637468
0.09565149 0.033333093 -0.10125242 -0.41019046 0.027184546 0.12383857 0.05227872 -0.08164056
0.0080968235 -0.11749835 -0.45487717 -0.11679092 0.0058546597 0.14155799 -0.118156776 -0.09022631
0.032351255 0.055180307 0.10726583 -0.028460091 0.013064078 -0.16366366 -0.47043186 0.11974843
-0.13025907 -0.8086757 0.033289313 -0.109578505 0.16554675 -0.20247734 0.46029568 0.01413765
0.0151317185 -0.09875465 0.17459528 0.096015066 0.12981763 -0.0056191143 0.16428828 0.06980828
0.15279327 -0.33485398 0.15679915 -0.49963784 0.008167699 0.011611506 -0.068388395 0.14046744
-0.002882102 -0.16762723 -0.062051583 -0.095148675 -0.064461544 -0.0069284285 -0.096871674 -0.058660775
0.12714344 0.124967724 0.007796581 -0.031014672 0.068523705 -0.09736565 0.4729506 0.20198739
-0.005045663 0.06849031 -0.02046581 -0.20402835 0.043821305 0.16409074 0.24874052 -0.08424392

fc3.bias f4 [32]
00000000: 4253 e83c 795d 5d3e ed4b 15bf c971 2e3e
00000010: 8e5a f6bd 2eb4 92be 2efe 843e 11b9 013d
00000020: 94bf de3e 33e7 9fbd d801 7f3e a72c 68be
00000030: 4d91 8abe e4d5 2a3d 09f3 6bbf a1d9 c4be
00000040: 0f22 093e 8095 0f3f a9ce c0be 26b3 c5be
00000050: 3fe5 15bf 9ca8 a3bc 4203 37bf 61ee 343e
00000060: ad8d 013f ad67 2c3c bda8 7ebe ea86 bcbe
00000070: 6b4c 25bd e8c8 0dbe 3ee1 1c3e 42b3 863e
0.028360013 0.21617688 -0.5831898 0.17035593 -0.12028991 -0.2865309 0.25975174 0.031670634
0.43505538 -0.078077696 0.24903047 -0.22673284 -0.2706398 0.04170789 -0.9216772 -0.38447288
0.13391899 0.56087494 -0.3765767 -0.38613242 -0.58552927 -0.01997786 -0.71489346 0.1766906
0.50606805 0.010522765 -0.24869056 -0.3682168 -0.04035608 -0.13846171 0.15320298 0.26308638

in_fn.weight f4 [33]
00000000: 9b6a c53f eaa8 223f 1180 0c3f 52aa d53e
00000010: dc92 023f cae6 0b3f 378d ab3e 1511 d83d
00000020: 8167 c23e 3474 2d3f 5e6b f03e 8edb 2e3f
00000030: 4bc0 803e 1a58 fc3e 654c af3e a178 d33e
00000040: f89d 4c3f d0f2 363f 35f3 2a3f 0a92 d33e
00000050: ca93 b13e 42e6 b33e 0c4d f33e c8d8 563e
00000060: 38d4 793f f104 393f 4335 a23e 796d e93e
00000070: a550 333f 8f73 e03e 7476 283f 3402 523f
00000080: e736 873f
1.5423158 0.6353899 0.54882914 0.41731507 0.5100534 0.5464903 0.33506176 0.10550133
0.37969592 0.67755437 0.46956915 0.68303764 0.25146708 0.49285966 0.34237972 0.4130297
0.7992854 0.7146425 0.66777354 0.41322356 0.34683067 0.3513661 0.4751972 0.20981133
0.97589445 0.72273165 0.3168126 0.45591334 0.7004493 0.43838164 0.65805745 0.8203461
1.056363

in_fn.bias f4 [33]
00000000: 2bc0 223d 9cfe 2e3d 17a4 7e3d 359d 1b3d
00000010: 7970 b63c a4a8 af3d 1448 d1bd 3d24 b2bd
00000020: febe 14be fd31 b63d 86e4 853c 2670 9c3c
00000030: 5ca5 7ebd 1857 0ebc eb12 683d 6552 793d
00000040: 9d85 b03c 6b51 e6bb 3432 c53d 4674 183d
00000050: 57d5 b2bc 3484 73bd 5663 bf3c 21db 13bd
00000060: 3472 1d3d ce5e 4f3d 32a2 9f3b 6928 89bd
00000070: 0047 bb3d 9aac 37be 8bc7 b73d 81cf 413e
00000080: 08dc 613c
0.039734047 0.042723283 0.062168207 0.03799172 0.022270428 0.085770875 -0.10218826 -0.08698318
-0.14525983 0.08896253 0.01634432 0.019096445 -0.062169418 -0.008687757 0.056658667 0.060869593
0.021548087 -0.0070287487 0.09628716 0.037220262 -0.021830244 -0.05945225 0.023362797 -0.03609765
0.03843899 0.050627522 0.00487163 -0.06697161 0.091444016 -0.17936936 0.08973607 0.18926813
0.01378537

in_fn.running_mean f4 [33]
00000000: 3918 1140 0d63 fb3b b86a 3b3c a025 003c
00000010: 67ce 9f3c aa14 7a3c ccf4 4c3c 7ed7 1d3c
00000020: 34d8 1e3c 1cf3 b03c be37 9b3c f51a 4f3d
00000030: 3745 4d3c 249f b13c 5f93 073c 209e 003c
00000040: 8a84 5b3d 407e 0b3d 9420 0e3d 861b a43c
00000050: 245a 393c 9037 fd3b ac51 5e3c 1e30 4a3b
00000060: 272e 0e3e c673 403d b350 3c3c ac8f 643c
00000070: 8df3 303d b6d7 0e3c 4150 963c 4b97 aa3d
00000080: 6c6c 633e
2.2671034 0.00767172 0.011439018 0.0078214705 0.0195076 0.015263716 0.012509536 0.009633897
0.0096951015 0.021600299 0.018947478 0.050562818 0.012528709 0.02168233 0.008274882 0.0078502
0.053593196 0.03405595 0.034699038 0.020032655 0.011312995 0.007727571 0.013569277 0.0030851434
0.13884793 0.04698541 0.01149385 0.01395027 0.043201018 0.008718422 0.018348815 0.08329638
0.22209328

in_fn.running_var f4 [33]
00000000: 8fb5 e040 cc1f f93b 961a 393c 50ec fc3b
00000010: eda8 9c3c 8182 743c a62d 493c ec4e 1c3c
00000020: 1c3b 1d3c 9a79 ac3c e614 983c 6860 433d
00000030: 028a 4a3c d41a ad3c 1c79 063c 1179 fd3b
00000040: 289a 4d3d d10b 063d 3a30 093d 977c a03c
00000050: f22c 373c 059c fa3b e338 5b3c de95 493b
00000060: 5fdb f13d 887b 373d d9ed 393c ed54 613c
00000070: 6492 273d 2995 0d3c 5082 933c 76c7 9b3d
00000080: d355 303e
7.022163 0.0076026674 0.0112978425 0.0077186003 0.019123519 0.014923693 0.01227895 0.009540301
0.009596612 0.021054078 0.018564653 0.047699362 0.012362005 0.021130957 0.008207586 0.0077353795
0.050195843 0.032726113 0.033493258 0.019590659 0.011180149 0.0076479935 0.013380262 0.0030759494
0.1180942 0.044795543 0.011348211 0.013753158 0.040911093 0.00864152 0.018006474 0.076064035
0.1722024

fc1.weight f4 [64, 33]
00000000: e15a 5d3f c9ce 98bd ca91 a5be bf49 24be
00000010: 54ca 943d 205f 4ebe 28d2 823c c436 a4bc
00000020: 46af e93c 2b30 293e 08e6 30be 48b8 033e
00000030: afdc 843e ae8b f03c 6689 233e 9449 863d
00000040: 00a2 023e 0421 113e 1b3d cabd 3049 5a3c
00000050: b160 0f3e 11a6 573e b602 18be 2da2 ffbd
00000060: a10b d73e 81cc 813e 7d40 15be e78e 733e
00000070: 3adf ae3e a91f ba3e 948f 92be f868 9c3d
00000080: cca4 4dbe fdd1 5abd e476 98be c8a5 843e
00000090: 2a52 a13e 2c66 e2bd 9d2b 9a3d 64c4 153e
000000a0: a4bc 4a3d e37a d6bd 7d89 583e 2bc9 103e
000000b0: 409a 10be 9925 c1bd 0a38 e8bd 7ed9 acbd
000000c0: 7ebd 0fbe ab8c d3bd e14d ce3e e5cb a7bd
000000d0: 71be 4bbe de0b b6bc 599e fabd 6c13 b7bd
000000e0: 66ec c0bd 0041 47be b443 05be b610 97bd
000000f0: 2f9b f8bd 808d aebd b3a1 81bd 1c15 b4bd
00000100: 160e cd3d 72b1 08be b01f 45bf 154d 5fbe
00000110: 50b0 77be 1fc4 afbc d2a1 21bb 3b10 3fbe
00000120: 3abd e2bd 03bc b33e 244d 66bd fdc9 5dbe
00000130: b9b0 9bbe e441 43bb d135 643d b481 c63e
00000140: f4ac d13e b2f6 353c 0e57 463d 9f15 01be
00000150: c868 2bbd 1b4c f2bb f75b 0b3e 4821 b7bd
00000160: f7a8 f73d 2215 0abe 3cff b1be 6112 963c
00000170: 6e7c dc3d f8b5 e03d 4b15 90be 6a40 bcbd
00000180: 53ed d83c d57c d4be d828 c73e 1acb 55bf
00000190: 8a0e 0b3d 5da9 abbd c0e5 40bc 804b a83d
000001a0: c66a 753d 56c1 f53c 6b14 67be 25c6 6bbe
000001b0: 1a09 cf3c 0326 273e 39f6 31be f110 bd3d
000001c0: 81d9 50ba 0938 78bc 83f9 43bd ead4 793d
000001d0: 6f15 e33d 7d0a 1cbe 57fc 123d 575f 04be
000001e0: e302 5f3d e98e b4bd 3224 f9bd e074 38bd
000001f0: 74b0 20be 1ccd 0dbe 481c 873c a8bc 053e
00000200: e7d0 2bbe 3cbc b53d c081 083e 37a0 bd3d
00000210: 2a36 f8be dd69 cabd ab04 03bd 182f cb3d
00000220: 0fd5 c93d a10c 2f3e f935 2c3e c197 afbd
00000230: c72b debd 7bb8 e93d 788f ae3d 229e c53d
00000240: 3eae 063e 1340 e33d 87ca 1d3d 42f7 16be
00000250: ad6a 96bd e599 bd3d b4fb 3abe bd53 eebc
00000260: 1aca 033e 3459 2fbe 3ea0 6bbd 952c 16bb
00000270: 0147 20be 84f4 f53c c777 9b3d 9e56 a53d
00000280: c6a6 eebd 2113 d6bb 41c6 e5bd d3e0 25be
00000290: ee98 ab3d e88d 00bf 039c 733e 0176 1c3d
000002a0: 2a01 753e b87a acbe 2d70 433d 8723 853e
000002b0: 7419 b3bc 7464 36bd a367 263e 8880 273e
000002c0: 0f28 343e 269b 8d3c 431a 5f3e 0404 a1bc
000002d0: 4420 fcbb daa4 82be 48dc 253e 000e 8dbe
000002e0: 590c 1b3d 5e56 303e bd10 903e 9b8b 4fbe
000002f0: e00d 44be 0dbb aabe 088b a13e 3455 cbbd
00000300: 85ac b4bd 0f53 25be ae47 203d 6479 79be
00000310: 1c03 b4be c32c e1be ece1 10bf a411 4cbe
00000320: 91f5 863d 5d2b 11be 90bd 233e d8b0 38bc
00000330: a8e2 083e 7ec8 ba3d eda7 c03d d635 e33d
00000340: 0ee8 a83d 8781 793e 003a 153e 0f43 253e
00000350: 42ab e73b 7584 1e3e 4923 00be 3b8d 29be
00000360: 4260 023e 1373 21be 67bb 383e 2ce3 f0bd
00000370: e4a1 c63d 413a c03d b43e 43be 137d 583e
00000380: b2e3 d23d fedb 8ebb 0d64 f1bd 7fb4 20bd
00000390: 011e 1cbe 0189 16be 1a90 4b3e 675a f1bc
000003a0: 2c91 db3c abc4 c7bb 60ba 073d ba47 fa3c
000003b0: ab9e 3dbc 8442 fe3d 8c80 253c 728e 383d
000003c0: dce5 25bd 711d 013d 1011 b33d 50aa 0abc
000003d0: 6196 be3c 3fae e1bb 56be d9bc d5b0 643d
000003e0: 7c47 813d 5947 fe3c 6a8b e8bc 5e63 193d
000003f0: bbc1 5f3c 1de7 693d e815 923d 36c7 2d3d
0.86466795 -0.07461316 -0.3233779 -0.16043757 0.072651535 -0.20153475 0.015969351 -0.020045646
0.02852596 0.16522281 -0.1727525 0.12863266 0.25949618 0.02936348 0.15970382 0.06557003
0.1275711 0.1417275 -0.09874936 0.013323113 0.14001729 0.21059443 -0.14844784 -0.124821045
0.4200106 0.25351337 -0.14575382 0.23784982 0.34154683 0.3635228 -0.28625166 0.07637209
-0.20082396 -0.053422917 -0.29778206 0.2590773 0.31508 -0.11054644 0.0752785 0.14625698
0.049496308 -0.104726575 0.21146198 0.1413924 -0.14121342 -0.09430999 -0.113388136 -0.08439921
-0.1403713 -0.10329565 0.40293792 -0.08193187 -0.19896866 -0.022222456 -0.12237234 -0.08939251
-0.094200894 -0.1945839 -0.13014108 -0.07376234 -0.12138974 -0.08523083 -0.0632967 -0.08793089
0.10012452 -0.1334894 -0.77001476 -0.21806748 -0.24188352 -0.021455823 -0.0024663103 -0.18658535
-0.11071248 0.3510438 -0.05622591 -0.21659084 -0.30408266 -0.0029793913 0.055715386 0.3877083
0.40952265 0.01110618 0.048422866 -0.12605904 -0.041847974 -0.0073943264 0.136093 -0.08941895
0.12092774 -0.13484624 -0.3476504 0.01831931 0.107659206 0.10972208 -0.28141245 -0.091919735
0.026480353 -0.4150149 0.3889835 -0.83513033 0.033949412 -0.08381913 -0.011773527 0.082175255
0.05991628 0.029999416 -0.22566383 -0.23024805 0.025272895 0.16323094 -0.17379083 0.09231747
-0.0007966981 -0.015150079 -0.047845375 0.060994066 0.110880725 -0.15238376 0.03588518 -0.12926994
0.054446112 -0.088163204 -0.12165107 -0.045033336 -0.15692312 -0.13847774 0.016492978 0.13060248
-0.16778909 0.088737935 0.13330746 0.09259074 -0.48478824 -0.09883473 -0.031986874 0.09921092
0.09855091 0.17094661 0.16817464 -0.08573867 -0.108481936 0.1141214 0.08523458 0.09649302
0.13152406 0.110962056 0.038523223 -0.14742759 -0.073445655 0.09257869 -0.1826008 -0.029092664
0.12870064 -0.17123872 -0.057525866 -0.0022914757 -0.15652086 0.03002382 0.07591205 0.080731615
-0.11652903 -0.006533042 -0.112194546 -0.16199045 0.083787784 -0.5021653 0.23789982 0.038198475
0.23926225 -0.33687377 0.0477144 0.26003668 -0.021862723 -0.044529393 0.16250472 0.16357625
0.17593406 0.017285895 0.21787362 -0.019655235 -0.007694276 -0.25516397 0.16197312 -0.27549744
0.037853573 0.17220446 0.2813777 -0.20268099 -0.19145918 -0.33345833 0.31551385 -0.099283606
-0.08821968 -0.16144966 0.03913086 -0.24362713 -0.35158622 -0.43979463 -0.5659473 -0.19928604
0.06589807 -0.14176698 0.15990281 -0.011272632 0.13367712 0.09120272 0.09407029 0.11094253
0.08247386 0.24365817 0.14572906 0.16138862 0.007069976 0.15480216 -0.1251346 -0.16557781
0.12732032 -0.15766554 0.18040238 -0.117620796 0.09698847 0.09386111 -0.19066888 0.21141462
0.10297336 -0.004359721 -0.11786661 -0.039234634 -0.1524582 -0.147007 0.19879189 -0.029462053
0.026802622 -0.0060964427 0.033136725 0.03055178 -0.011573474 0.124150306 0.010101449 0.04505772
-0.040502414 0.03152222 0.08743489 -0.008463457 0.023265066 -0.006887227 -0.026580017 0.055832703
0.06312463 0.03103988 -0.02838679 0.03744828 0.013657029 0.057105172 0.071330845 0.04242631

fc1.bias f4 [64]
00000000: 0d35 9ebe d071 debc 93bb f23d aaec 14be
00000010: 81e0 e5bd b3fe 353d 786b 3bbe 5064 9fbe
00000020: fa82 8abd 6c9a 42be 31c3 8c3e 5180 e8be
00000030: 54ab 36bd cf31 ffbd a62e b3be e187 64bd
00000040: 123a 80be 00e5 bcbd ae69 22be c30e 5e3e
00000050: 0e98 3abc ba24 d6bd 6b57 50be 0b6a 33be
00000060: 5a28 ddbe 4e68 1abf 6dd9 e7be 43e1 41be
00000070: 7609 a9be 5678 593d 40c8 aebe 9db0 603d
00000080: 8ec3 9c3e ebbd 9dbe afd4 f2be ede4 343c
00000090: b9e2 85be 0dfd 6cbd 2b12 57be 7a99 a4bc
000000a0: 8861 64be ca68 e1be 2b2f bcbd 5c5c bcbe
000000b0: 7770 c1be baa9 5d3d 8d9c ccbe 60ac c7b8
000000c0: b624 5fbe 5911 2dbf 2d24 a6be 75f2 dbbe
000000d0: 982f d7be 00aa 1cbe f2c7 68be 2aaf aabd
000000e0: c4db c5be 6e3e 7dbe 9472 3bbe b16b 39bc
000000f0: cfae ddbe 7a2d a83c 1e99 a4be e416 3a3c
-0.3089985 -0.02715388 0.11852183 -0.14543405 -0.11224461 0.044432353 -0.18302715 -0.3113122
-0.06763263 -0.1900422 0.2749267 -0.45410398 -0.044596985 -0.12460672 -0.34996527 -0.055793647
-0.25044304 -0.09223366 -0.15860626 0.21685319 -0.011388792 -0.10456224 -0.20345847 -0.17520921
-0.43194848 -0.60315406 -0.4528307 -0.18933587 -0.3301503 0.053093277 -0.34137154 0.05485593
0.30617946 -0.30808958 -0.4742789 0.011040908 -0.26149538 -0.057858516 -0.21003024 -0.020092715
-0.2230283 -0.4402526 -0.09188684 -0.36789215 -0.37781116 0.054116942 -0.3996319 -9.521167e-05
-0.21791348 -0.67604595 -0.32449475 -0.42958418 -0.420285 -0.15299225 -0.22732523 -0.08334191
-0.3864423 -0.24730846 -0.18305427 -0.01131718 -0.4329743 0.020529497 -0.3214807 0.011357997

fc2.weight f4 [64, 64]
00000000: 72fa 08be 43a8 fe3c 4eaf d4bd d0a7 71be
00000010: 9e63 b93c 5626 9c3d 3f34 53bc dc65 593d
00000020: 1200 9fbd e8da 5c3c 8c06 2bbe fe57 f6bd
00000030: 9819 7cbd b459 1fbe bf05 edbc 481b 50be
00000040: 73d7 08be 7464 3fbd a258 a6bc e8f9 50be
00000050: 6d95 96bc e8c9 70be 0876 81bd 4fba 4abd
00000060: 9bd6 86bd 6618 efbd d52b 13bd 69d7 21be
00000070: 8871 063d 1f3e 12be 543e afbd 7177 05be
00000080: 59d5 c13c 023e d83b e05d adbd 4977 0d3c
00000090: 78b5 123d d605 51bd c2bf ffbd 9faa 5e3d
000000a0: 9f6f 29be 4f75 10bd 5c10 0dbe 1504 803d
000000b0: 2b7a 043d 606d bcbd 6999 0d3d 154a 1a3d
000000c0: 3680 e8bd 9a7e 4e3d fef2 bb3b a58c 283d
000000d0: 7a4a 80bd e471 8c3d f6d2 acbc 8a01 febd
000000e0: dfe8 57bb bd9e 543c 45d9 463d 3e7f 8a3c
000000f0: 5a76 e8bc d725 8bbe 472c 733d e59f 783c
00000100: ce3d 783d c9f1 82be dac7 f0be d164 e1be
00000110: 8413 b73b 19c4 1bbe e20e f3bd 31f6 2cbd
00000120: 40a8 b13d 3a5b ebbe 02e8 01be af9e 91bd
00000130: cf2c 023e 90af 153e d88c c5bd ac9b 433e
00000140: 4960 673e f0f9 d53d 0678 b5be 9d5c 5d3e
00000150: d771 323e b238 623e 3333 febc 5fc6 183d
00000160: 81ce 3cbd 891d 1d3e a295 0bbf f4c6 4cbd
00000170: d9cd c53b 80f1 55be e46e 8cbb c82f ce3d
00000180: 13ab 3cbf 56f5 6bbe 6a11 b63d a2e3 94bd
00000190: 5bdf a33d 0d7d b8bb 1894 9cbd 2935 f1bd
000001a0: a385 033e 19fb 3dbd 1124 b13d dd9d a03d
000001b0: feea a93d 7f4f a23d 0232 3dbe 8219 1d3e
000001c0: 22b8 12be 96fc 01be 69e9 293d ea84 953d
000001d0: f17a 10be 6727 8a3e 39fd 053c ceab 4dbd
000001e0: 1156 62bd c745 b9be 01c4 c8be d084 1abd
000001f0: 9439 89be 25f9 033e 1b99 e1ba c31d 713e
00000200: 2e52 75bd ce06 1fbc 05fa ccbe 1d88 833e
00000210: a199 173d 60d2 8a3d 4165 87be 448f 4dbd
00000220: 48e5 c4bc 0b83 2a3e cd62 f8bd 81d8 9f3d
00000230: dbd4 2bbe f106 9dbe a116 87be 5726 8dbe
00000240: 55bc 83bd d381 67be dadf a2bd 799e 75be
00000250: 902d 6b3c c488 11be 532f 7d3c 020b cebd
00000260: bb07 8fbc 76c0 63be 02fe 463e 5bbe 91bd
00000270: 0469 553d 7360 023e cbe4 11be 1264 21be
00000280: b0be d53d c73d 80be 8f5a e63c 50d9 0abd
00000290: fc3d be3d 3e3e d4bd cfcf 6d3b cbd9 5cbe
000002a0: aa74 3cbe 419f fbbc 53cd a73d 7bc6 95bc
000002b0: db2b 28bd 88a5 65be 1763 e9be 54fc f1bd
000002c0: 4bd3 503d 5fd4 3cbc 45c8 8abd 3d00 ec3d
000002d0: 3143 27be 2075 be3d 0f46 f8bd 2284 10be
000002e0: 62e3 9fbd 3f91 2e3d a5bf a5bd 70e7 17be
000002f0: a152 673e 64f2 84bd 4bdb 033e 754c e0bd
00000300: bee9 14be 63ad afbc 3bb9 e7bd 58c9 6e3d
00000310: b053 8abd ef6a 7b3d efc8 d0be 7d70 36bd
00000320: dcee 8abd 03e7 d9ba e095 c63d 5e8b 00be
00000330: d264 6bbe 9e07 85be 6cb2 2fbe 2378 dbbd
00000340: dfa6 e4bd a29d 6bbd 0a71 6dbd 898d 43be
00000350: 1b0b 47be f709 5dbd 2218 5fbe a43f 89be
00000360: 3db2 2ebe c466 9cbd bb52 49be 4923 6dbd
00000370: 042c 163e ea3c 343d fd16 903d 45b9 55bd
00000380: 7f98 06be 7b4e 813a b51a e1bd c8a2 c83b
00000390: 6da2 3dbc 5bfb ad3d d32d 1ebe ca1f bfbd
000003a0: 3213 cfbd 493a a6bd 3593 4c3d bc01 92bd
000003b0: c6ae 4dbe 1ef6 57be 7bcd 8a3d e6d4 58bd
000003c0: 4894 4ebd 8710 1e3d 6cce 2a3d c377 89bd
000003d0: 6386 e23d b36c 64be 81a0 063d 7880 80bd
000003e0: 5119 e9bd 0042 cf3d be08 7fbe 9290 c73d
000003f0: 49ef 413d 59f6 20be 387e 31be 5067 05bd
-0.13376787 0.031086093 -0.10384999 -0.23599172 0.022630509 0.076244995 -0.012890874 0.053075656
-0.07763685 0.013479926 -0.16701716 -0.12028502 -0.061547846 -0.15561563 -0.028933404 -0.20322907
-0.13363437 -0.04672666 -0.020305935 -0.20407832 -0.018381799 -0.23514521 -0.06321341 -0.049494084
-0.065839015 -0.116745755 -0.035930473 -0.15804829 0.032823116 -0.1428151 -0.0855681 -0.13033845
0.023661302 0.006599189 -0.08465171 0.008634397 0.035817593 -0.051030956 -0.12487747 0.054361936
-0.16546486 -0.035268124 -0.13775772 0.062507786 0.03234307 -0.09200549 0.03457013 0.037668306
-0.11352579 0.050413705 0.005735754 0.041149754 -0.06264205 0.068576604 -0.021096688 -0.12402637
-0.0032945198 0.012977299 0.048547048 0.016906377 -0.028376747 -0.27177307 0.059368398 0.015174841
0.060605817 -0.25575092 -0.47027475 -0.4402223 0.0055870432 -0.15211524 -0.11868073 -0.042226974
0.08674669 -0.45968038 -0.1268616 -0.071103446 0.12712406 0.14617753 -0.096460044 0.19102353
0.22595324 0.104480624 -0.35443133 0.2161736 0.17426239 0.2209194 -0.031030273 0.037298556
-0.046095375 0.15343298 -0.54525197 -0.049994424 0.006036502 -0.20892906 -0.00428568 0.10067707
-0.7369854 -0.23042807 0.0889004 -0.0726998 0.08001586 -0.0056301416 -0.07645434 -0.117777176
0.12843947 -0.046382044 0.08649457 0.0784261 0.08296774 0.07925319 -0.18476108 0.15341762
-0.14328054 -0.1269401 0.041482363 0.07300742 -0.14109398 0.26983187 0.008178049 -0.050212674
-0.05525786 -0.36186048 -0.3921204 -0.037724316 -0.2680174 0.1288801 -0.0017211767 0.2354651
-0.059892826 -0.009706212 -0.400345 0.25689784 0.037011746 0.06778407 -0.26444438 -0.050185457
-0.024035111 0.16651551 -0.1212822 0.07804967 -0.16780417 -0.30669358 -0.26384452 -0.27568313
-0.06432406 -0.22608118 -0.079528525 -0.23986234 0.014354125 -0.14212328 0.0154531775 -0.10060693
-0.01745974 -0.22241387 0.19432834 -0.071163855 0.052102104 0.12732105 -0.14247434 -0.1576083
0.104367614 -0.25047132 0.028119354 -0.03389865 0.09289166 -0.10363434 0.0036287194 -0.21567456
-0.18403879 -0.030715587 0.08193459 -0.01828312 -0.04105745 -0.22426426 -0.45583412 -0.11815706
0.050982755 -0.011525243 -0.0677648 0.11523483 -0.16334225 0.092996836 -0.121227376 -0.14112905
-0.07807042 0.042618986 -0.08093194 -0.1483438 0.22590114 -0.06491545 0.12876622 -0.10952083
-0.1454229 -0.021444982 -0.11314627 0.058297485 -0.067542434 0.061381277 -0.407783 -0.04454087
-0.0678384 -0.0016624633 0.09696555 -0.12553164 -0.22987679 -0.25982374 -0.17157906 -0.10716274
-0.11164641 -0.057523377 -0.05796913 -0.1909696 -0.1943783 -0.05396458 -0.2178655 -0.26806366
-0.1706018 -0.076367885 -0.19660465 -0.05789498 0.14665228 0.044003405 0.07035635 -0.05217864
-0.1314411 0.0009865308 -0.10991422 0.0061229207 -0.01157437 0.08495208 -0.15447168 -0.09332235
-0.10111083 -0.08116586 0.049945075 -0.07129237 -0.20086202 -0.2108998 0.067774735 -0.05293741
-0.05043438 0.03858998 0.041700765 -0.06712296 0.110607885 -0.2230709 0.032867912 -0.062745035
-0.11381782 0.101200104 -0.24905679 0.097443715 0.04734734 -0.15718974 -0.17333305 -0.03256923

fc2.bias f4 [64]
00000000: f5e9 1bbe 12d9 593e efad 5fbd 6357 9abc
00000010: 18fd f0bc 28ad 1b3d 16aa 773d 9d01 083f
00000020: ad43 5c3e 7817 d1bc b4d8 0c3e a2d9 e93c
00000030: 1375 cc3b 6fec 003d 8984 74bd e5dd 25be
00000040: 4980 263d 2915 c93e 13ed d1bd fe6e 1c3c
00000050: 645e 953d 0a9f 2bbb 80c2 53bd 9268 97bd
00000060: f43d 963b 4dd1 c33e 0897 c93d 8615 0dbe
00000070: bdaa a83e 3b68 b2bd 5e67 bebd 9c06 443a
00000080: 9031 763d 0ca4 be3d d029 c9bd 1600 0dbd
00000090: 65f4 53bd 3eaf 30be 7ad7 1ebd b055 82bd
000000a0: 402d 08be e09f ccbc 44d1 8a3d 5095 d43d
000000b0: 0489 fcbc 0e51 c83c 2d98 9e3e 60d8 513d
000000c0: 1b89 9dbc bc6c 4bbe b40a 863e 152f c8bc
000000d0: 412a 07be 2c9e b3bc d806 26be 0053 d3bd
000000e0: 8785 c5bd 63be d1bc 228e 46be 94ce 0dbe
000000f0: 64e6 0b3e 9f5c ae3e 2ce5 1d3c 5cc1 383e
-0.15225966 0.21274212 -0.054609235 -0.018840497 -0.02941756 0.03800693 0.06046494 0.5312746
0.21510191 -0.025523886 0.1375454 0.028546158 0.0062395423 0.03147548 -0.059696708 -0.16197927
0.040649686 0.39273956 -0.102502964 0.009547947 0.07293394 -0.0026187324 -0.05169916 -0.07392992
0.004585022 0.3824562 0.0984326 -0.13777742 0.32942763 -0.08711287 -0.092970595 0.00074777915
0.06010586 0.09308633 -0.09822428 -0.03442391 -0.051746745 -0.1725435 -0.038779713 -0.06364
-0.13298512 -0.024978578 0.067781955 0.103800416 -0.030827053 0.024452712 0.30975476 0.051231742
-0.019230416 -0.19865698 0.2618004 -0.024436513 -0.13199712 -0.021926008 -0.16213548 -0.10318565
-0.09644609 -0.025603479 -0.19390157 -0.13848335 0.13662106 0.3405504 0.009637158 0.18042511

fc3.weight f4 [1, 64]
00000000: 9b2c b93c 9876 fc3d 4156 af3d 5996 8cbc
00000010: dcba 69bd 038f 103d 8e4f 603c 0731 10be
00000020: c51e 51bc 0b79 bcbb dd61 32bd e0b8 12bb
00000030: b52a 1f3d 1437 7ebb a552 4eba 024f 9a3c
00000040: cf9e 7d3a f461 8fbd d947 55be 3f6f 9a3c
00000050: 182f 9abd 2bca f6bc 014e 61bb 9a19 103c
00000060: f97a 8b3b baee 163e 4096 c43d 6562 523c
00000070: ab4b 983d 4aee 07bd 381c 98bb 9ae0 34bc
00000080: f011 ae3b 0983 833c 53f2 453b a4e3 02bc
00000090: 560c ab3b eff7 8c3d d84f 00bd f828 59bd
000000a0: 2717 5fbd 8fe6 41bd 2f97 df3c 2a35 dabc
000000b0: c3a4 1a39 d45a 07bc 40e3 983d 604e 563d
000000c0: b780 d53a 0091 913c 3ae0 173d d72f 533c
000000d0: 7200 103c b666 bfbb d2d4 e9bc f25b f9bc
000000e0: d4b6 83bc 21c3 0f3d 7c29 733d 086f 493d
000000f0: f9fa 213d faba 90bd 4890 1ebc 6aae 1e3d
0.022604277 0.123273075 0.085613735 -0.017161535 -0.05706297 0.035292637 0.013690842 -0.14081202
-0.012763684 -0.005751734 -0.04355036 -0.0022388026 0.038859088 -0.0038790153 -0.00078705914 0.018836502
0.00096748484 -0.07001105 -0.20828189 0.018851874 -0.07528514 -0.030125698 -0.003437877 0.008795166
0.004256603 0.14739504 0.095989704 0.012840842 0.074363075 -0.033186235 -0.004642036 -0.011039877
0.005312197 0.016053693 0.003020425 -0.007988844 0.0052199764 0.06883227 -0.031326145 -0.053017586
-0.05446544 -0.04733902 0.02729377 -0.026636679 0.00014747963 -0.008261401 0.074652195 0.052320838
0.001628897 0.017769337 0.037079073 0.012889824 0.008789169 -0.0058411015 -0.028543863 -0.03043935
-0.01607839 0.0350982 0.059365734 0.049178153 0.039545987 -0.07066913 -0.009677954 0.038740553

fc1.weight f4 [64, 1]
00000000: aa51 283f bea5 57bf 5ec9 85bf 04e9 083e
00000010: 6962 3cbf 1efc b03e 6a02 ccbe 0757 0d3f
00000020: 7c8f 093e bfa2 09be 50ea e33d cd73 edbd
00000030: 77cd 713e f3fe 1cbf 3051 95bd e64c 27be
00000040: 306c 143e 00e7 82bb 6bf4 173f eff6 993d
00000050: 96d7 26be 97af 08bf 70a3 2bbe 3d2c 03bf
00000060: 7a8e 02bf 36a0 38be edd2 dc3e ab83 583f
00000070: a9f1 45bf 2303 bd3e c372 323e 5425 863f
00000080: 06ff e43e 35e4 49bf ae29 e8bf f7d9 97bf
00000090: 85ed 533f 9c91 473c d408 913e 9510 01bf
000000a0: 13b4 9a3f 5ca0 d8be 34be 3e3f 6f56 95bd
000000b0: edb7 60be b1a4 ce3e 428f 9dbf fdaf ec3d
000000c0: eba1 aabe 0088 e0bd 1569 74bf 06ee 04bf
000000d0: c549 d33e 8cbe 6ebe aacb 8c3f 41f0 5e3f
000000e0: 20ca 3fbd eba1 29bf 08a0 003f dbbf 363e
000000f0: 9516 eebe 170a 513f 423a bc3e 3b98 603f
0.6574961 -0.8423728 -1.0452077 0.13370138 -0.7358766 0.3456735 -0.39845592 0.5521092
0.13433641 -0.13440989 0.11128676 -0.11594353 0.23613535 -0.6132652 -0.07290876 -0.16337928
0.14494395 -0.0039948225 0.5935733 0.07517802 -0.16293177 -0.5339293 -0.16761565 -0.5123938
-0.5099865 -0.18029866 0.43129674 0.8457591 -0.7732187 0.36916456 0.1742659 1.0480142
0.44725817 -0.7886384 -1.813772 -1.1863393 0.827843 0.012180712 0.28327048 -0.5041593
1.2086204 -0.42309844 0.74508977 -0.072918765 -0.21945162 0.40360025 -1.2309344 0.115570046
-0.3332666 -0.1096344 -0.9547284 -0.51925695 0.4126722 -0.23314875 1.0999653 0.8708535
-0.04682362 -0.6626269 0.5024419 0.17846625 -0.46501604 0.8165602 0.36763197 0.87732285

fc1.bias f4 [64]
00000000: 96ac dfbe a574 b23e ffdc 2b3e e2e1 ebbd
00000010: b84a 74bf 602f 80bf 2832 8bbe 47d1 b9be
00000020: 1507 cf3e 57a2 34be d839 983e 6e0f 0fbe
00000030: 4150 033f d9f3 b13d ae15 6dbf e420 5d3e
00000040: e2ff 33bf 8327 41bf 9b20 8c3d 2afb 72be
00000050: 5447 773e a53f 26bf 5294 63bf 964c 5f3d
00000060: c7c5 133f 8fb7 733e 3284 2d3f d4ed 9dbf
00000070: 9a41 653f cf3f 323f 2e94 45bf 6532 1dbd
00000080: cc07 403f f8f2 693f e0d3 44bf cc28 20bf
00000090: 5b86 8f3f 1839 babe 81a6 263f 1669 95be
000000a0: 7242 3fbf c0b5 59bf 03c7 993f 2d05 04be
000000b0: 65ab a93e 375f 2b3f bd4a 4e3e 656c f23e
000000c0: d6b4 273f 72e0 29bf eafa 6f3f 8777 f2bc
000000d0: 57e6 643f 5b6c b53e bf9a 81bf 98a5 21bf
000000e0: 50d2 1abf d2a6 493f 8e2b 8d3f 7996 42bf
000000f0: 1d45 0c3f add9 02bf 1378 94bf 44d3 9f3d
-0.4368636 0.34854618 0.16783522 -0.11517693 -0.9542651 -1.0014458 -0.27186704 -0.36292478
0.4043509 -0.17640053 0.2973163 -0.1397073 0.5129433 0.086890884 -0.92611206 0.21594578
-0.7031232 -0.75450915 0.068421565 -0.23728624 0.24148303 -0.64940864 -0.88898194 0.054516397
0.5772366 0.23800491 0.6777984 -1.2338204 0.89553225 0.69628614 -0.7717923 -0.038378138
0.750119 0.91386366 -0.76885796 -0.6256225 1.1212877 -0.36371684 0.65097815 -0.29181737
-0.7471076 -0.85042953 1.2013859 -0.128926 0.33138576 0.6694216 0.20145698 0.47348323
0.6551031 -0.663581 0.9374224 -0.02959801 0.8941397 0.3543423 -1.012535 -0.631433
-0.6047716 0.7877017 1.1028917 -0.76010853 0.5479296 -0.51113397 -1.1599144 0.078039676

fc2.weight f4 [64, 64]
00000000: f07f 933d c0e2 583d d414 11be abbf f1bc
00000010: c9fd 693d aaa3 a93d 0d25 41bc 04ec b53d
00000020: 63aa 5abc a055 5bbd ddab 36be 95f4 48be
00000030: 98ba 18be 8622 d3bd 70ea 9cbd 599a 36bd
00000040: 3075 1e3d a8de e7bc 50c8 443d 7878 253d
00000050: c5b0 50bc a2ed 3a3d e463 2dbd 7330 073d
00000060: 4c29 a1bd dbcb c3bd 7a02 35be 08c4 a4bd
00000070: b141 22be e198 e4bd 1a02 b63d e14f 27bd
00000080: f3e5 1bbe 86c9 18bd f307 b7bc af47 8e3c
00000090: 93aa 1ebe c004 de3c 8089 0ebe f7f1 edbd
000000a0: d802 ccbd 8059 69bd 3e30 07be f20a 05bd
000000b0: 4efc 86bd a475 ddbc 56e2 193d b35f f13c
000000c0: 2565 98bb 606e 823b 9d46 2fbe e66c 0c3c
000000d0: 58f2 ffbd 279e ccbd 3c8b dcbd f044 cabc
000000e0: ec1d a5bd 98fb f13c 5898 4ebe 2e8c c7bd
000000f0: 79b6 bcbd 546c 8abd 1833 373d fb14 45bd
00000100: f2d1 acbe 28ad 95be 74ce 50be a423 3dbe
00000110: bc03 80b9 7c39 8fbd ab4f 21bd 6ffb 9cbe
00000120: 7d43 b0bd d4e0 aebe 121c 413d 9886 19be
00000130: e196 2d3c 57b6 f4bd f080 1fbc 6f5b f9bd
00000140: 0813 ae3c d45a 713d 5f5a cdbd ad04 23be
00000150: acd2 9bbe 6e81 ba3d 7a32 df3d 0ebf 91bd
00000160: f566 43be de54 3cbe 4086 fdbd a781 f1bd
00000170: d897 b6be acf6 123d 3598 82bd 66ed 9fbe
00000180: 0659 6dbc bc3f b4be 1888 9bbe 369b 32be
00000190: 9b5c 0d3d 0c1d f23d 6143 adbd 20a7 86be
000001a0: 9cda 00be 8823 dabc ff3f f5bd c471 8d3d
000001b0: 0287 97be 7bae 013c 65a6 04be d6a3 36be
000001c0: 7e47 81be c065 33bc de92 67be 1474 30be
000001d0: dd70 02be 2b07 14be eee3 babe a28f aabe
000001e0: 9e6a aabd a047 1fbe 2dc2 1d3d abb9 60bd
000001f0: 24c0 20be 0179 43be 725f 18bd af13 79be
00000200: c922 99be 309a cfbe e4d2 0abf e0dc 73bd
00000210: 93c7 1f3e 199c adbd c770 cbbc 41cb c8bd
00000220: 4b5c a73c f745 a8be 4113 533c 8e0f 6abd
00000230: 3eae 453d 2095 dfbd d4ce 103d 0680 ab3d
00000240: 0891 f33c 0455 d43d eed0 2cbe 97b6 71be
00000250: a64c b8bd e9d0 5ebd 808b 72bd 2b95 cf3c
00000260: 61c5 fabe 69fa 833d f36f 1c3d 6b59 50be
00000270: fc0b c7be 4a89 f3bd 5078 a3bd 98b5 4abe
00000280: 9d80 bcbd df02 a4be 28b1 d1be 345f f4be
00000290: 5b0b 0b3c 9a77 8f3d ede9 30bd a83c f9bd
000002a0: 590f ecbe 05a0 e13a 5b5a 08be 34e2 bfbd
000002b0: 2a78 9ebc c208 f8bd 05a8 8bbe 3aaa 93bd
000002c0: 397e 013d c46b 43bd 1404 0bbf 9439 f23d
000002d0: dd01 e1bc 93a8 173e ca50 dcbe b7a9 e8be
000002e0: ceaa f0bd a7b2 c9be 1609 fb3c b910 30be
000002f0: f29a f9bd dfb5 99be 50f4 f5bd 47a4 2cbe
00000300: 11e3 f6be 43a6 13bf 0526 13bf c318 23be
00000310: 0f4d 97b9 6d86 87be 002c 43bd 23b6 99be
00000320: abec 19bd 54a2 c9be ed40 243d d2a6 a43d
00000330: ab6d a73d 8a5f 10be 8073 8e3a abbf e8bc
00000340: 622f 8fbd 8203 90bd c9eb 45be 8c8d 90be
00000350: 8c65 b8bd ac71 b4bd 6c1a d4bd cb0a ec3d
00000360: 5e10 22bf eb79 2dbd def1 09be 76d9 babe
00000370: 56cb 03bf 35a0 70be 79c7 a13d d433 c7be
00000380: 5c43 0dbe 7ddd e3be 5f92 ebbe 1f9a eabe
00000390: bd19 cc3d 705a 153d c218 8b3d 74e4 2ebd
000003a0: e903 1fbf 6ccc fabd 251b ae3d d394 e3bd
000003b0: 27e5 8b3c 0246 afbd 02de f5be 4023 a4bc
000003c0: 4a3f 1d3d 1042 cfbc 5a45 1abf 942c 123d
000003d0: 9be5 aa3c 8261 58bd 44a3 01bf 5322 0fbf
000003e0: c0d3 3cbd d8c7 90be 60e5 b93d da9b 0dbd
000003f0: 3c5d 0abe 43bd 17bf c637 07be d2d0 b8be
0.072021365 0.05295062 -0.14168102 -0.02951034 0.057126794 0.082831696 -0.011788619 0.08882907
-0.013346287 -0.053548455 -0.17838998 -0.1962455 -0.1491493 -0.10309319 -0.07661903 -0.04458079
0.038685977 -0.028304413 0.048042595 0.04039809 -0.012737458 0.04563678 -0.04233159 0.03300519
-0.07869205 -0.09560367 -0.17676726 -0.080452025 -0.15845372 -0.11161972 0.088871196 -0.040847663
-0.15224437 -0.037301563 -0.022342658 0.017368166 -0.15494756 0.027101874 -0.1391964 -0.11618417
-0.0996148 -0.05697012 -0.13201997 -0.03248114 -0.06591092 -0.027033634 0.037569366 0.029464578
-0.0046507292 0.003980443 -0.1711678 0.008570885 -0.12497395 -0.09991103 -0.10768744 -0.024691075
-0.08062348 0.029538915 -0.20175302 -0.09743534 -0.092144914 -0.06758943 0.04472646 -0.04811571
-0.33753926 -0.2923367 -0.20391256 -0.18470627 -0.00024416845 -0.06993386 -0.039382618 -0.3066058
-0.08606622 -0.34155905 0.04714591 -0.1499275 0.010595054 -0.11948841 -0.009735331 -0.12175643
0.02124931 0.05892451 -0.100270025 -0.15919752 -0.30434167 0.09106718 0.108982995 -0.07116519
-0.19082244 -0.1839175 -0.12379122 -0.11792307 -0.35662723 0.035879776 -0.063766874 -0.31235808
-0.014486557 -0.35204875 -0.3037727 -0.17442021 0.034512144 0.118219465 -0.08460117 -0.2629938
-0.12583393 -0.02662827 -0.11975097 0.06906465 -0.2959519 0.007915135 -0.129541 -0.17835936
-0.25249857 -0.010949552 -0.22614619 -0.1723178 -0.12738366 -0.1445586 -0.36502022 -0.33312708
-0.08321117 -0.15554667 0.03851526 -0.054864567 -0.15698296 -0.19089128 -0.0372004 -0.24323915
-0.2990935 -0.40547323 -0.54228044 -0.059536815 0.15603475 -0.08477039 -0.02483405 -0.098043926
0.02042975 -0.3286588 0.012883008 -0.05714374 0.048261873 -0.10917115 0.035353497 0.08374028
0.029732242 0.10367778 -0.16876575 -0.23604809 -0.089989945 -0.05439845 -0.05921507 0.025339684
-0.48978713 0.06444246 0.0381927 -0.2034661 -0.3887633 -0.1189142 -0.07981932 -0.19795835
-0.092042185 -0.3203344 -0.40955472 -0.47728884 0.008486594 0.07005234 -0.04319184 -0.121697724
-0.4610546 0.0017213827 -0.13315718 -0.09369317 -0.019344408 -0.121110454 -0.27276626 -0.072102025
0.031614516 -0.047710195 -0.543031 0.118273884 -0.027466709 0.148104 -0.43030387 -0.45441982
-0.117513284 -0.39394113 0.030643981 -0.17193879 -0.121877566 -0.3002157 -0.120094895 -0.16859542
-0.48220113 -0.5767557 -0.5747989 -0.15927415 -0.00028858377 -0.26469746 -0.047649384 -0.30021772
-0.03757922 -0.3938166 0.04010098 0.08039631 0.081752144 -0.14098945 0.0010868162 -0.028411707
-0.069914594 -0.07031919 -0.19328226 -0.28232992 -0.090037435 -0.08810744 -0.10356602 0.11525496
-0.63306224 -0.0423526 -0.13471171 -0.36494035 -0.5148214 -0.23498614 0.078993745 -0.3890673
-0.13795227 -0.4450492 -0.4601011 -0.4582071 0.09965847 0.0364632 0.067918316 -0.04269834
-0.6211534 -0.12246022 0.08501271 -0.1111237 0.017077042 -0.08558275 -0.4802094 -0.02003634
0.038390435 -0.025300056 -0.6026207 0.035687044 0.020861438 -0.052827366 -0.5063975 -0.5591175
-0.046100378 -0.2827747 0.09076953 -0.03457246 -0.13512129 -0.59273165 -0.1320487 -0.36096817

fc2.bias f4 [64]
00000000: c4ba 32be 8390 c6bd 4a64 b7bd babf cebc
00000010: 301a 0d3d 01c3 43bd 025e 3abd cf8c 4fbe
00000020: 6885 773d 14ed b63e d7ad 37be ff08 6e3d
00000030: 293a e1bd 7ec7 da3c 46ab 063d 7d11 1cbe
00000040: f9ee 99bd 43f2 b0be c455 0cbd 6081 833b
00000050: 1a4e a9be f782 8e3e 510f f63e c01d b1bd
00000060: 8a7b 60bd 65ba 973e 5fc7 01be 14b6 85bd
00000070: eaad 56bd 27bf cbbd 0518 01be 857e 36be
00000080: 70c0 7dbe f2a0 08bf d929 40be 7349 873e
00000090: 1812 80bd 6cec 5ebd 9a83 3ebe 4646 4dbe
000000a0: c551 873e 21a4 1bbe c3f7 49bc baab 863c
000000b0: a270 ddbc cbcf bcbc 8fde 253d 46d4 f03d
000000c0: 7f84 b1bd 9ac1 fdbd 9f24 cebd aaa9 7bbd
000000d0: 5e92 1abd e839 e7bd f3bf 113d 30d6 0dbd
000000e0: 2361 7fbe 0055 0c3b 6ad9 ad3c b252 7fbc
000000f0: 3256 edbd 0c2f 2f3b ca8c f4bc 11ad 2bbc
-0.17454058 -0.09695532 -0.089546755 -0.025237907 0.034448802 -0.047793392 -0.04549981 -0.20268558
0.06042996 0.3572775 -0.17937408 0.058114048 -0.10997421 0.026706453 0.032878183 -0.15241046
-0.075162835 -0.3455983 -0.03426148 0.0040132254 -0.330674 0.27834293 0.4805856 -0.086482525
-0.054805316 0.29634395 -0.1267371 -0.06528869 -0.05241195 -0.09948569 -0.12606819 -0.17821701
-0.2478044 -0.53370583 -0.18765964 0.26423225 -0.06253451 -0.05442469 -0.1860489 -0.20046338
0.26429573 -0.15199329 -0.012327137 0.016439307 -0.027031247 -0.023048302 0.04049545 0.11759238
-0.0866785 -0.12390442 -0.10065579 -0.0614411 -0.037737243 -0.112903416 0.035583448 -0.034628093
-0.24939398 0.0021412969 0.021221835 -0.015583681 -0.11588706 0.0026730923 -0.02985229 -0.010478274
