maddpg_pytorch/models/cache_data/model/run48/incremental/model_ep5001.pt (torch, 690099 bytes, 168 tensors)

fc1.weight f4 [64, 1]
00000000: a222 5f3f a3bf 68bf ad3e b7bf e4b7 86bb
00000010: 31b2 3bbf e1b1 8e3e fb78 a3be 5dd5 603f
00000020: 9613 83bd 3273 09be a4b1 6bbd 204f edbd
00000030: 5a22 a2bd 60e7 64bf 3051 95bd 0b9f 21bd
00000040: 306c 143e 00e7 82bb 13b5 ce3e 2a2f 903d
00000050: d71d 06be 1eac 08bf 70a3 2bbe 2b08 22bf
00000060: da29 26bf 037c f1bd 933b fe3d 80c8 ac3f
00000070: 328c 42be 2a8b d93d 2061 323e 1a32 7f3f
00000080: f66d 323e 42ec aebe d3d5 f6bf d6d7 a7bf
00000090: c259 253f 7707 9d3c 39a7 f3bc 2c6c c7be
000000a0: 4791 aa3f 5ca0 d8be 3bf5 e93e 097a 95bd
000000b0: 408d 6dbe cce6 073e 0bc3 cabf 9f40 34be
000000c0: 7cb5 d2bd 0088 e0bd 80cc 8bbf 4566 19bf
000000d0: d642 b73d 5a90 05bd 2e28 b13f 5b55 883f
000000e0: 20ca 3fbd 42ee 37bf bece 253e 7ea9 363e
000000f0: ffa2 00bf ae3f 793f 88e7 af3e 2762 3e3f
0.8716222 -0.90917414 -1.4316002 -0.004111277 -0.73318774 0.27870086 -0.31928238 0.87825567
-0.0640022 -0.1342285 -0.05754246 -0.115873575 -0.07916708 -0.8941555 -0.07290876 -0.039458316
0.14494395 -0.0039948225 0.40372524 0.07040246 -0.1309732 -0.5338763 -0.16761565 -0.63293713
-0.6490761 -0.117912315 0.12413707 1.3498688 -0.18998793 0.106222466 0.17419863 0.99685824
0.1742476 -0.34164625 -1.9284004 -1.3112743 0.64590085 0.019168599 -0.029742824 -0.38949716
1.3325585 -0.42309844 0.45694908 -0.07298667 -0.23198414 0.13271636 -1.5840772 -0.17602776
-0.10288522 -0.1096344 -1.0921783 -0.59921676 0.08948295 -0.032608368 1.3840387 1.0651048
-0.04682362 -0.7184793 0.16192147 0.17838094 -0.5024871 0.9736279 0.34356332 0.7436852

fc1.bias f4 [64]
00000000: 25fd 19bf d66e e5bd d737 3abe 3bb8 93be
00000010: c8e6 74bf 043f 86bf f4ac c4be 0691 d1be
00000020: f96c 433e 4af7 34be ad76 613d 4eed 0fbe
00000030: 807f 553e b6b1 a0bd ae15 6dbf b6ca 97bd
00000040: e2ff 33bf 8027 41bf 9e26 b2be a407 74be
00000050: 9b0f 5e3c fc42 26bf 5294 63bf fad2 a7bd
00000060: 210c 833e 3358 54bd df90 be3e d08c 59bf
00000070: 371f 843f c466 ce3e 6e98 45bf f398 febe
00000080: 5902 f13e 8925 873f f706 63bf d836 40bf
00000090: 5ea9 5d3f bbcc bdbe 84cb b33e b75a eebe
000000a0: 334c 86bf c0b5 59bf 5902 713f 2826 04be
000000b0: 09ae d7bc 19d6 c93e 3aed 52be 9373 0f3e
000000c0: de78 223f 72e0 29bf a090 f03e f6a1 c3bd
000000d0: d375 193f a76f 923e f8ab 88bf 2756 51bf
000000e0: 50d2 1abf d112 023f 7e6a 443f 029c 42bf
000000f0: dfd3 663e 1ad5 3fbf 75dc 96bf de5c d3be
-0.6015189 -0.11202781 -0.18185364 -0.28851494 -0.95664644 -1.0487981 -0.38413203 -0.40930957
0.19084539 -0.17672458 0.05504482 -0.14055368 0.20849419 -0.07846396 -0.92611206 -0.07411711
-0.7031232 -0.754509 -0.34795088 -0.2383104 0.013553525 -0.6494596 -0.88898194 -0.081945375
0.2559519 -0.051841926 0.37219903 -0.8498049 1.0322026 0.4031278 -0.77185714 -0.49726066
0.47072104 1.055833 -0.886825 -0.75083685 0.8658656 -0.3707026 0.35116208 -0.46553585
-1.0492004 -0.85042953 0.9414421 -0.1290518 -0.026328104 0.39421156 -0.20598307 0.14008932
0.6346568 -0.663581 0.4698534 -0.09552376 0.5994541 0.2860081 -1.0677481 -0.81772083
-0.6047716 0.5080996 0.76724994 -0.760193 0.2254176 -0.7493454 -1.1786028 -0.4128179

fc2.weight f4 [64, 64]
00000000: f07f 933d c7b9 583d 0b1f 11be 8606 f2bc
00000010: 97dc 693d aaa3 a93d 4608 42bc 04ec b53d
00000020: 9794 5bbc b98b 5bbd 5bba 36be 2203 49be
00000030: 16c9 18be 863e d3bd 70ea 9cbd a2d3 36bd
00000040: 3075 1e3d a8de e7bc 50c8 443d 7878 253d
00000050: 8a92 51bc 56d5 3a3d e463 2dbd 10f8 063d
00000060: 253e a1bd a2e8 c3bd af0b 35be 08c4 a4bd
00000070: 524f 22be 19ab e4bd 1a02 b63d d84f 27bd
00000080: 4eef 1bbe 6bff 18bd 1d59 b7bc f3f4 8d3c
00000090: f4b8 1ebe c004 de3c 4c98 0ebe c20d eebd
000000a0: d802 ccbd 8059 69bd ed3e 07be 5341 05bd
000000b0: 7e18 87bd 37be ddbc 0fab 193d abea f03c
000000c0: d92c 9abb 606e 823b 2254 2fbe 058b 0b3c
000000d0: ee07 00be a9ba ccbd 328b dcbd f044 cabc
000000e0: ec1d a5bd 4d8f f13c f0a6 4ebe 2e8c c7bd
000000f0: 71d2 bcbd 546c 8abd 1833 373d f814 45bd
00000100: 47f7 acbe 51ca 95be 0c08 51be 534a 3dbe
00000110: 083f 93b9 7987 8fbd 30fa 21bd 091b 9dbe
00000120: 3995 b0bd 3bfa aebe 53a2 403d eaa6 19be
00000130: 6b97 2b3c ceee f4bd f080 1fbc c9a3 f9bd
00000140: 0813 ae3c d45a 713d 82b0 cdbd 753f 23be
00000150: 6ceb 9bbe 6e81 ba3d 7a32 df3d 0a18 92bd
00000160: 9a9e 43be e974 3cbe 7dcb fdbd 41f7 f1bd
00000170: 88b1 b6be dd6d 123d c88c 82bd 580d a0be
00000180: ef7c 6fbc ac59 b4be 66a2 9bbe 9dce 32be
00000190: 90db 0c3d 0c1d f23d 3981 adbd 56b9 86be
000001a0: 4e1f 01be 8823 dabc 3682 f5bd 877b 8d3d
000001b0: eca0 97be 4920 ff3b ded0 04be 9bc5 36be
000001c0: 215d 81be c065 33bc 6cc9 67be 129e 30be
000001d0: 2d91 02be 3d31 14be a305 bbbe 34b1 aabe
000001e0: 9e6a aabd ad7a 1fbe b43b 1d3d c8c7 60bd
000001f0: 4be3 20be f3bc 43be 9693 18bd fb4a 79be
00000200: c854 99be 68d6 cfbe 3ef6 0abf d30c 74bd
00000210: 75ce 1f3e 9ceb adbd d7dc cbbc 0032 c9bd
00000220: 8782 a63c 8263 a8be b521 513c cf57 6abd
00000230: 9a1b 453d cfcb dfbd d4ce 103d 115d ab3d
00000240: 0891 f33c 0455 d43d 10f1 2cbe 54dd 71be
00000250: cc77 b8bd f0f2 5ebd 808b 72bd adef ce3c
00000260: f2ff fabe 42ca 833d 68f4 1b3d 5590 50be
00000270: 403a c7be 87b2 f3bd f66d a3bd 8304 4bbe
00000280: 73bb bcbd 9130 a4be 23e4 d1be 1e90 f4be
00000290: 6def 083c 9a77 8f3d 3476 31bd 2479 f9bd
000002a0: 6a47 ecbe 00a0 e13a 257f 08be 43ee bfbd
000002b0: c145 9fbc 3555 f8bd 14d5 8bbe 32ee 93bd
000002c0: db36 013d c46b 43bd 881f 0bbf 390d f23d
000002d0: e21e e2bc c294 173e f68a dcbe 97e4 e8be
000002e0: ccaa f0bd 44e1 c9be 41df f93c 4619 30be
000002f0: d5e5 f9bd 2be9 99be f640 f6bd b1d9 2cbe
00000300: 5b3d f7be 84d7 13bf 6b58 13bf 0866 23be
00000310: 0648 a8b9 699c 87be 83b3 43bd addc 99be
00000320: 4759 1bbd 4cd1 c9be 735e 223d 8f93 a43d
00000330: 8883 a63d cb9c 10be 8073 8e3a c51c ebbc
00000340: 622f 8fbd 8203 90bd 1252 46be b2aa 90be
00000350: 9517 b9bd ac71 b4bd 6c1a d4bd 6198 eb3d
00000360: 0946 22bf 250f 2fbd 1a71 0abe 76ed babe
00000370: 2ff2 03bf 8737 71be a6c7 a13d b483 c7be
00000380: 94bf 0dbe 2329 e4be c1d2 ebbe 20db eabe
00000390: d235 cb3d 705a 153d e941 8a3d 6f53 2fbd
000003a0: 5339 1fbf 6ccc fabd 2447 ad3d 71b8 e3bd
000003b0: 515e 893c c44e b0bd 522a f6be d9f4 a6bc
000003c0: 48ab 1b3d 1042 cfbc af71 1abf 175d 113d
000003d0: 0f7c a73c 6e07 5abd cfc9 01bf cb5d 0fbf
000003e0: c0d3 3cbd b615 91be f419 b93d 62c5 0dbd
000003f0: a6a5 0abe 3deb 17bf 7764 07be d30a b9be
0.072021365 0.052911546 -0.14171998 -0.029544126 0.057095136 0.082831696 -0.011842793 0.08882907
-0.013402126 -0.053600047 -0.17844526 -0.19630101 -0.14920458 -0.1031466 -0.07661903 -0.044635423
0.038685977 -0.028304413 0.048042595 0.04039809 -0.012791285 0.04561361 -0.04233159 0.032951415
-0.07873181 -0.095658556 -0.17680238 -0.080452025 -0.15850571 -0.11165447 0.088871196 -0.04084763
-0.15228006 -0.03735296 -0.02238136 0.017328715 -0.15500242 0.027101874 -0.13925284 -0.11623718
-0.0996148 -0.05697012 -0.13207598 -0.032533 -0.065964684 -0.02706824 0.03751665 0.029408773
-0.0047050533 0.003980443 -0.17121938 0.008517032 -0.12503025 -0.0999654 -0.10768737 -0.024691075
-0.08062348 0.029487276 -0.20180869 -0.09743534 -0.09219826 -0.06758943 0.04472646 -0.0481157
-0.33782408 -0.29255918 -0.20413226 -0.18485384 -0.00028084987 -0.07008261 -0.039545238 -0.3068469
-0.08622212 -0.34175286 0.047029804 -0.15005079 0.010473113 -0.11959611 -0.009735331 -0.12189443
0.02124931 0.05892451 -0.10043432 -0.15942176 -0.3045305 0.09106718 0.108982995 -0.07133491
-0.1910347 -0.18403973 -0.12392328 -0.11814738 -0.3568232 0.035749305 -0.06374508 -0.3126018
-0.014617189 -0.35224664 -0.30397338 -0.17461629 0.03438908 0.118219465 -0.08471913 -0.26313275
-0.12609598 -0.02662827 -0.119877264 0.069083266 -0.2961496 0.007785831 -0.12970302 -0.17848818
-0.25266364 -0.010949552 -0.2263543 -0.17247799 -0.12750693 -0.14471908 -0.36527738 -0.3333832
-0.08321117 -0.15574141 0.038387015 -0.054878026 -0.15711705 -0.19115047 -0.037250124 -0.24345009
-0.29947495 -0.40593266 -0.54281986 -0.059582543 0.15606101 -0.084922045 -0.024885578 -0.0982399
0.020325912 -0.32888418 0.012764384 -0.057212647 0.048122026 -0.10927545 0.035353497 0.083673604
0.029732242 0.10367778 -0.16888833 -0.23619586 -0.090072244 -0.054430902 -0.05921507 0.02526077
-0.49023396 0.06435062 0.03807488 -0.20367558 -0.3891163 -0.11899286 -0.07979958 -0.1982594
-0.092154406 -0.32068303 -0.40994367 -0.47766203 0.008357865 0.07005234 -0.043325618 -0.12181309
-0.46148235 0.0017213821 -0.13329752 -0.09371617 -0.019442441 -0.12125627 -0.27311003 -0.072231665
0.031546455 -0.047710195 -0.5434499 0.11818928 -0.027602617 0.1480284 -0.4307477 -0.454869
-0.11751327 -0.39429677 0.030501964 -0.17197141 -0.1220204 -0.30060706 -0.12024109 -0.16879918
-0.48288998 -0.57750726 -0.5755679 -0.1595689 -0.0003209712 -0.2648652 -0.047778618 -0.30051175
-0.03792694 -0.39417493 0.039640855 0.08035957 0.08130556 -0.14122312 0.0010868162 -0.028700242
-0.069914594 -0.07031919 -0.19367245 -0.2825523 -0.09037701 -0.08810744 -0.10356602 0.11503673
-0.63388115 -0.042739052 -0.13519707 -0.36509293 -0.5154142 -0.23556338 0.07899408 -0.3896767
-0.13842613 -0.44562635 -0.4605923 -0.45870304 0.09922375 0.0364632 0.067508526 -0.042804178
-0.62196845 -0.12246022 0.084608346 -0.11119164 0.016768606 -0.08608773 -0.48079163 -0.020380424
0.038005143 -0.025300056 -0.6032972 0.035489168 0.020444898 -0.05322974 -0.5069856 -0.5600249
-0.046100378 -0.28336877 0.09038153 -0.034612067 -0.13539752 -0.5934332 -0.13221918 -0.3614107

fc2.bias f4 [64]
00000000: 25c9 32be e0ec c6bd 2c9b b7bd 7b1c d2bc
00000010: e9c9 0c3d c40b 44bd f85d 3abd 8cab 4fbe
00000020: 6885 773d 51d2 453e a7c3 37be 5033 2ebd
00000030: 4a56 e1bd db7b da3c 2719 063d 421a 1cbe
00000040: c816 9abd 4f92 b2be c455 0cbd 6081 833b
00000050: ac50 abbe 8bfb 3f3e 0cff 0d3f a930 b1bd
00000060: c8d9 60bd 0b44 a63e 3df0 01be 14b6 85bd
00000070: 84e4 56bd 3fd2 cbbd 9386 01be 299b 36be
00000080: 6bda 7dbe 32fc 04bf 1942 40be 4498 d7bc
00000090: 1812 80bd ebd6 60bd 2da1 3ebe 1257 4dbe
000000a0: 82bf e83e 5cad 1bbe 468e 4abc 130c 823c
000000b0: 4f30 debc 100f bebc eabb 253d a52a 88be
000000c0: 7897 b1bd 9ac1 fdbd 6d37 cebd 26df 7bbd
000000d0: fbb6 1abd e839 e7bd 71d4 363e 472f 0ebd
000000e0: 8b34 80be 0055 0c3b 9300 a93c dac9 7fbc
000000f0: 8336 c0be 01ee 2a3b c938 f5bc 9397 8c3e
-0.17459543 -0.09713149 -0.089651436 -0.025648346 0.034372244 -0.047862783 -0.04549977 -0.20280284
0.06042996 0.1931851 -0.17945729 -0.042529404 -0.110027865 0.026670387 0.03273883 -0.15244392
-0.075238764 -0.3487725 -0.03426148 0.0040132254 -0.33459985 0.187483 0.55467296 -0.08651859
-0.054895192 0.32473788 -0.126893 -0.06528869 -0.052464023 -0.09952211 -0.12648992 -0.17832626
-0.24790351 -0.5194732 -0.18775214 -0.026317723 -0.06253451 -0.05489246 -0.18616171 -0.20052746
0.4545861 -0.1520285 -0.012363022 0.015874898 -0.027122645 -0.023200542 0.040462412 -0.26595035
-0.086714685 -0.12390442 -0.100691654 -0.061492108 -0.03777216 -0.112903416 0.17854477 -0.034713056
-0.25040087 0.0021412969 0.020630157 -0.01561209 -0.3754159 0.0026081803 -0.029934304 0.27459392

fc3.weight f4 [32, 64]
00000000: 708b 21be 1241 3ebd c7f4 a1bd eb57 8abd
00000010: 6663 a4bd 7338 bdbc eca7 973d a042 28be
00000020: 6a20 f23d e737 2bbe 6e8e 86bd 3c85 40be
00000030: 4870 f4bd 4a00 bcbd 8225 97bd 0478 02be
00000040: bf33 86bd 5b84 a43e 5cb1 b9bd 48dd 293d
00000050: eec6 c3bd 5593 cdbe 48c8 08bf 819c 00bd
00000060: c846 ad3d 5b21 b43e 06f2 df3d bcd2 053d
00000070: 8807 a9bd 2784 18be 1076 cc3d 5dfa 12bd
00000080: 6b27 15be e972 b73e 7ce5 e1bd a491 65be
00000090: c872 973d 39c3 a33d 0381 44bd b43d d53d
000000a0: ac09 0e3e 5165 debc ceaf 15be 4610 30bd
000000b0: 6e5f febd fa40 3a3e 4202 16be e368 b3be
000000c0: d9b0 30be 80c1 b6bd 9ae1 33bd d204 183c
000000d0: bdd3 3d3d a47e 1fbd dc88 dbbe b87d aa3d
000000e0: 9efa 02bd ac41 d1bd fb0a cabe 5745 0d3e
000000f0: 8e23 34be ae4e 953c d32c 65bd cc8c 373e
00000100: edd3 203e 0953 81be a115 bcbe 42a5 8cbe
00000110: f79f bf3d f525 25bd 0840 acbc ec08 b2bd
00000120: 3c21 0cbd a954 773e 5851 9f3d 9def 98bd
00000130: cffc 8b3e e9d5 e8bc 8fa7 b0bd 9966 3b3c
00000140: 8f38 55bd 6a19 79be 905d a13c c023 95bd
00000150: f6c5 1b3d 4220 afbc 0064 a4bf 680e 513d
00000160: 427d 3c3d 4d21 663f 01af 0f3e 2c92 39bd
00000170: 20f3 663e 63b6 583c d18e 223e 8e70 fcbd
00000180: 1491 593e 0573 393f fc85 593d 4659 8a3e
00000190: 2842 70bd ccd7 ad3e f7e2 debc c70c 983b
000001a0: bb84 323f bb14 173d 3f08 23be 37af 8ebe
000001b0: fdd1 debd fe14 563e 7e1d 3f3d 024a 3c3e
000001c0: 147e 19bd b49f f6bd 329d 49bb 9914 96be
000001d0: a3b6 fe3b 96a1 a4bd ef6c 103e cc0a 153e
000001e0: 13c5 f93d 70c7 14bd b062 c9be 40bf c1be
000001f0: 60fb 993d 5592 623e a314 cd3b 2522 f7be
00000200: 79c2 7cbd 0798 5bbe 8303 a3be 2c03 80be
00000210: b06f 60bb 18b6 c43d bcab 033d 3837 7cbe
00000220: e06c 813d 6a4d a93d af84 4bbd 21c8 b4be
00000230: 34c9 f23d 8dee 2c3e 76e5 5b3e c0d8 3abc
00000240: b809 42be 91ea b3be b66a cf3d 1c59 943d
00000250: 0f42 0abd 2cc2 bb3e 1c7c 49bf 95ff bd3d
00000260: 87b9 45be 3ecd e83e 1f49 efbd 4e21 a03d
00000270: 2f6d ad3d 177d 003e f9ae 4cbc f2b6 803c
00000280: 31bf 583d b469 4f3d c875 433e 13e5 8dbe
00000290: 68e3 893c be39 303e 0b6f f93d 645b 8e3c
000002a0: 88d2 463e 2eb9 3bbe b75a debd 6d9b 12bd
000002b0: 9b48 c23d 92fa 2a3c b1d0 10be e57d 9a3e
000002c0: d248 30be c4b1 273d b934 e4bc 6a9d d9be
000002d0: 29a7 c1bd 6499 df3d 27e6 0a3f c7d5 36bd
000002e0: eee4 c33d 4888 083d 6e5d cfbd 7c04 d2be
000002f0: 8088 523d 149f fd3d 3622 563d b374 553f
00000300: 8aa8 043c faa2 f0bd a9e5 e8be 1430 efbd
00000310: 72d8 bf3b 94f4 103e 2efc f1bd 92c8 b8bd
00000320: c082 043d 12f4 453d 30ae db3d ade2 6abf
00000330: b70a 563c 7297 27be 72dc f0be aa3e f53d
00000340: a262 05be 5f05 4fbf 605a 083d b26a e0bd
00000350: 1685 293e ba42 4fbe 3eaa 4b3c 9aa1 673c
00000360: 07eb 773c 96aa 26bf 1bc9 323e 8ca3 c43d
00000370: eaee 043e 8c20 b8bb 303b 283e a5f7 8e3d
00000380: d775 1c3e 8c62 bf3d f58f 203e 81ea f5be
00000390: d0d1 053c 303e 3e3c 370f 8cbd b2d6 0f3e
000003a0: e76c cfbe 79a6 2bbe cd29 7ebd 4fdd c2bd
000003b0: 6a04 84bd df07 e3bb a864 c6bd 7edf 70be
000003c0: e431 023e 14ef ff3d 767a ff3b 7b12 febc
000003d0: 2856 8c3d a467 c7bd 0b40 8b3e c8d5 4e3e
000003e0: 1756 a5bb a644 8c3d eaa7 a7bc cfec 50be
000003f0: b363 3b3d 6707 283e d6b5 7e3e 4b96 f03d
-0.15775847 -0.046448775 -0.07908016 -0.0675505 -0.08026771 -0.023098206 0.074050754 -0.16431665
0.11822589 -0.16720544 -0.06570135 -0.18800825 -0.119354784 -0.09179743 -0.07380201 -0.12741095
-0.065528385 0.3213223 -0.09067032 0.041470796 -0.09559427 -0.40151468 -0.53430605 -0.031399254
0.08460766 0.35181698 0.10934834 0.032671675 -0.082533896 -0.14894162 0.09983456 -0.035883296
-0.14565818 0.35829857 -0.11030099 -0.22418839 0.0739494 0.0799622 -0.047974598 0.104121596
0.13870877 -0.02714792 -0.14617845 -0.04298427 -0.124205455 0.18188849 -0.14649299 -0.3504096
-0.17254962 -0.08923626 -0.043916322 0.009278493 0.046344507 -0.038939133 -0.42877853 0.0832476
-0.03197729 -0.10217604 -0.39461502 0.13795982 -0.17591688 0.018225994 -0.05595095 0.17924803
0.15705843 -0.25258663 -0.36735252 -0.27469832 0.09356683 -0.0403194 -0.021026626 -0.08693108
-0.034211382 0.24153389 0.07779187 -0.074675776 0.27341315 -0.028422313 -0.08625709 0.011438035
-0.05205589 -0.24326101 0.019697934 -0.072822094 0.038030587 -0.021377686 -1.2843018 0.05103913
0.046017893 0.8989456 0.14031602 -0.045305416 0.22553682 0.013227078 0.15874793 -0.123261556
0.21246749 0.7244113 0.053106293 0.27021235 -0.05865684 0.33953702 -0.027207835 0.004640195
0.6973378 0.036885004 -0.15921114 -0.27868053 -0.10879896 0.20906445 0.046658985 0.18387607
-0.037473753 -0.1204218 -0.0030763862 -0.2931259 0.007773237 -0.080386326 0.14104055 0.145549
0.12195792 -0.03632301 -0.39333105 -0.37841225 0.07518649 0.22126134 0.0062585636 -0.48268238
-0.0617089 -0.21444713 -0.31838617 -0.2500242 -0.0034246258 0.09605044 0.0321462 -0.2463044
0.063195944 0.08266719 -0.049687084 -0.35308936 0.11854783 0.16887875 0.21474251 -0.011404216
-0.1894902 -0.35139897 0.10127775 0.07243559 -0.033754405 0.3667158 -0.78705 0.09277264
-0.19309054 0.45469087 -0.116838686 0.07818852 0.08468091 0.12547718 -0.012492889 0.015712235
0.05291671 0.050637916 0.19087899 -0.27713832 0.016832069 0.17209527 0.12179383 0.017377563
0.19416249 -0.18332359 -0.10857146 -0.035792757 0.09486505 0.010435717 -0.1414211 0.30174175
-0.17215279 0.040941015 -0.027857171 -0.4250291 -0.094557114 0.10917929 0.54257435 -0.044637468
0.09565149 0.033333093 -0.10125242 -0.41019046 0.051399708 0.12383857 0.05227872 0.83381194
0.0080968235 -0.11749835 -0.45487717 -0.11679092 0.0058546597 0.14155799 -0.118156776 -0.09022631
0.032351255 0.048328467 0.10726583 -0.9175213 0.013064078 -0.16366366 -0.47043186 0.11974843
-0.13025907 -0.8086757 0.033289313 -0.109578505 0.16554675 -0.20240298 0.012430726 0.01413765
0.0151317185 -0.65104043 0.17459528 0.096015066 0.12981763 -0.0056191143 0.16428828 0.06980828
0.15279327 0.09344968 0.15679915 -0.48030475 0.008167699 0.011611506 -0.068388395 0.14046744
-0.40512773 -0.16762723 -0.062051583 -0.095148675 -0.064461544 -0.0069284285 -0.096871674 -0.23522756
0.12714344 0.124967724 0.007796581 -0.031014672 0.068523705 -0.09736565 0.27197298 0.20198739
-0.005045663 0.06849031 -0.02046581 -0.20402835 0.045749377 0.16409074 0.24874052 0.11747416

fc3.bias f4 [32]
00000000: dc42 36be 838f 0abf d379 13bf 8c76 f4bd
00000010: f15e c9be 6cc6 02bf 82ff dbbd 23ea 0c3f
00000020: 3388 f9be 8ae2 89bf 98fb 053f 8435 0ebf
00000030: 512c ed3e 14fb 173f a136 753e 446f 5dbf
00000040: 48e0 a3bd 9f5f 13be d126 2ebf 83d2 8fbe
00000050: 9d13 a3bf a5d3 353e 47df 0bbf f245 b83e
00000060: 1bae 383f 870e d73e d008 273f 7340 06bf
00000070: 3ba8 d93e 792f bebe d0dc aa3d 8807 d43e
-0.17798942 -0.5412523 -0.57607764 -0.119366735 -0.39330247 -0.5108402 -0.107420936 0.55044764
-0.48736724 -1.0772259 0.52337027 -0.5555041 0.46322873 0.5936749 0.2394662 -0.864979
-0.08001763 -0.14391945 -0.6802798 -0.28090295 -1.274036 0.17756517 -0.5463757 0.35990864
0.72140664 0.4200327 0.6524782 -0.5244209 0.42511162 -0.37145594 0.08342898 0.41411996

in_fn.weight f4 [33]
00000000: 6295 c73f 64db 0c3f df09 e13e 9e9a e23e
00000010: 5967 953e f0e0 f13e 896a 843e 80c7 aa3d
00000020: fcae 993e db2c ed3e 468a b53e ab78 033f
00000030: e632 b03e e13c c93e 4754 b33e 9983 903e
00000040: a8f0 253f 67c4 143f 0425 a63e c06a 8f3e
00000050: 98e4 4f3e 111c 7c3e 5921 083f feb2 843d
00000060: e737 5b3f c8de f63e 5152 4a3e b834 bb3e
00000070: 6506 123f 5c66 d73e 5f4b 2f3f f3c0 233f
00000080: bc0d 843f
1.5592463 0.55022264 0.43952844 0.4425859 0.2918041 0.47241926 0.2586253 0.08338833
0.30016315 0.46323285 0.35457057 0.51356 0.34413832 0.3930426 0.35025236 0.282254
0.6482034 0.58112186 0.32450116 0.2801113 0.20302045 0.24620081 0.53175884 0.064794526
0.85632175 0.48216844 0.19757964 0.3656366 0.5704101 0.42070282 0.6847438 0.6396629
1.0316691

in_fn.bias f4 [33]
00000000: e37d 1c3e b9f8 4d3c 97ed b93d 617a a63d
00000010: 8b7f e03c 652a af3d 5ed1 febd 2653 babd
00000020: 6b59 6fbd 88f8 cc3d a4dd 983b e825 1a3c
00000030: a128 e63c 34ae ec3c 423f f03d ae1c 59bd
00000040: 7b42 853d 91c4 37bd d26a 9ebc 5761 713d
00000050: af08 0d3d ba63 09bd 02a3 183e 8b69 17bd
00000060: 7827 5c3d 18fa 5b3b 802f 753d 19ac 8dbd
00000070: b39a b83d 9292 2abe d3bb 103e e462 033e
00000080: 152d a33c
0.15282397 0.012571507 0.0907852 0.08128811 0.027404567 0.08553008 -0.12442277 -0.090978906
-0.058434885 0.10008341 0.0046650935 0.009408452 0.028095545 0.02889166 0.117308155 -0.053005867
0.06506821 -0.044865195 -0.019338045 0.05893072 0.03443211 -0.033542372 0.14905933 -0.036965888
0.053748578 0.0033565816 0.059859753 -0.06917591 0.090138815 -0.16657475 0.14134149 0.12830693
0.019918958

in_fn.running_mean f4 [33]
00000000: 5208 1640 6698 aa3b a088 213c 901b f43b
00000010: f9ea 223c a9f9 6b3c 3104 0b3c c0e3 8c3b
00000020: ba70 433c 8b9d aa3c dc7a 8f3c 6c54 373d
00000030: 39e4 1b3c 2ff9 963c bd63 963c 7f62 0d3c
00000040: eeef b93d ba2c b53c fd11 693c 8544 193c
00000050: 16a8 1d3c dea2 ee3b 6025 0c3d 70d9 8e3b
00000060: 11ff f73d 378f 093d e0c5 c13b a598 113d
00000070: 05ba 303d 3c77 543c 61b8 ad3d aad2 8f3d
00000080: 15b7 433e
2.3442578 0.0052061556 0.009859234 0.007449575 0.009943717 0.014402785 0.008484886 0.004299611
0.011928732 0.020827075 0.017514639 0.044758245 0.009514862 0.018429367 0.018358106 0.00862944
0.09078966 0.022116054 0.01422548 0.009354715 0.009622594 0.007282599 0.03421533 0.0043594167
0.12109197 0.033583846 0.005913481 0.035545964 0.043146152 0.012967881 0.08482433 0.07022603
0.19112809

in_fn.running_var f4 [33]
00000000: 805d e840 549b a93b 9bcb 1f3c 57aa f13b
00000010: e0a0 203c 913f 683c 7e25 093c f5ed 8b3b
00000020: 6723 413c 6c01 a73c 0a83 8b3c 64e4 2e3d
00000030: 1d25 1a3c 9fea 933c e78a 933c 2f01 0c3c
00000040: cb73 a83d 0538 af3c ae12 633c f017 173c
00000050: 36d1 1b3c 2e42 ec3b 264d 073d 0029 8e3b
00000060: 9efc d73d af23 043d 5c2b c03b b046 0c3d
00000070: 8f72 273d d397 513c e298 9a3d 781f 853d
00000080: 6dca 1d3e
7.2614136 0.0051759873 0.009753133 0.0073750424 0.009803981 0.014175312 0.008370755 0.00427031
0.011788226 0.02038642 0.017030258 0.04269828 0.009408263 0.018056212 0.01801057 0.008545204
0.08225211 0.021389017 0.013859434 0.009222016 0.009510329 0.0072100377 0.03303256 0.0043383837
0.1054623 0.032260593 0.005864544 0.0342471 0.040880736 0.012792545 0.07548691 0.06500143
0.1540925

fc1.weight f4 [64, 33]
00000000: 846a 533f 2a21 663d 6065 d5be 246e 99bc
00000010: 5674 dfbc dbcc 0cbf 2cce 363d 6af2 623d
00000020: c6ae 9b3d 2c8d ab3d 322a 463e 0c5d 4f3e
00000030: 18a5 f93d 0ede 89bd bf56 293e 750d 2dbc
00000040: 3eaa 063d 3446 673e c83d 4abe 1e01 8abd
00000050: 67f1 d13c 51b9 9b3e 28f4 e0bd be11 c4bd
00000060: cc8b 113f 6e7f 4d3d b29a 3ebe 9569 ff3e
00000070: 4ef8 723e b6fe 343f b541 85be d896 2b3d
00000080: a04a 45bd 419f b2bd 0c4f b3be bb9d 833e
00000090: a51c 4a3e ed1b e3bd 680e 8b3e 158a a93d
000000a0: 6a05 123e 78a5 7dbd 7925 3e3e 96b4 c43d
000000b0: 2ee9 d8bd 90eb 09be be46 13be 5dd6 babd
000000c0: bb2e cbbd b02c 8fbd 2ea3 dc3e e5a1 d9bd
000000d0: 2f17 36be fcdc aebd 85c1 2dbe 183d abbd
000000e0: 0fef b2bd 8858 abbd 04a4 91bd bbb4 cabd
000000f0: 03d6 43bd 1ca1 8c3b 0c0c 43bd f4a4 2abe
00000100: 6e1d a0bd 629a 93bd a611 5cbf 6884 80be
00000110: c7aa dfbe ff15 983d e4f1 09be 758a b6be
00000120: a90b 91be d6ed 053d c0a5 a5bc b845 eabe
00000130: d334 f5be e720 1ebe 5d30 483e 3f8d 2d3f
00000140: 27ce 9d3e 3bc5 e03c 3109 1b3e ffa0 bbbe
00000150: d385 05be 9156 93bc d01a 4c3e 286c e0bc
00000160: 3245 f23d d020 4dbc 47ac d6be 80da c5bd
00000170: 6f53 073e d2ed b33e edfd d7be bef1 efbc
00000180: e591 8cbd ce4f d7be 53dd 163f 3ff4 6dbf
00000190: 03b2 833d 52ae b5ba 717f 84be 8ec7 8bbc
000001a0: c291 af3c ebc5 bf3d 7b66 72be 0e1d 8bbe
000001b0: 40f8 873c b589 e73d c52e 91be ba2d 263e
000001c0: 6fc9 b9bd dfaf cf3c b0b1 4abd 8ced 5b3d
000001d0: 6054 253e 10c0 7b3d b26a 8e3d 72f0 44be
000001e0: 316b 0d3d 86f2 e1bd 0b20 bfbb be5a aebd
000001f0: 1b15 a03c 23f5 97be 94a3 8d3d 1200 0abd
00000200: 9db9 2abe 0b53 9cbc 9a88 c93d 1233 283c
00000210: 51ec ffbe 4591 f5bd b495 edbb d204 ed3d
00000220: 206b 7c3d 789b 643d 5838 283e fc7f 09be
00000230: f5f2 08be 0864 ee3c e123 053e ffa3 513e
00000240: e63f 7d3d d783 843d b84c 883c 4774 27be
00000250: a4d0 29be f621 3a3e 2863 1dbe 9c65 2abd
00000260: 14a9 ae3d 678a 56be 6891 aabd de20 463d
00000270: 03f2 2cbe a3f0 823d 40a6 fb3d 3e97 0b3e
00000280: cb42 13be 7373 583d bcc2 05be 4355 2fbe
00000290: 212f f53d f4f1 1abf 5f03 a53e 4c9e b33d
000002a0: d150 5b3e bfd4 f7be 0784 443d a8a1 8c3e
000002b0: d723 1dbc 3c27 1fbe eb11 6d3e e7be 793e
000002c0: c021 933d 55de 3dbe f8d7 913e 484d 24be
000002d0: d5e1 20bc e5f3 d1be 6ae9 4d3e 1ade c7be
000002e0: 7f38 d83e a630 59bd 2978 813e cae0 a3be
000002f0: 3c7a 52be 7e2a afbe ffa9 c93e ebc7 67be
00000300: 0873 c939 306e b2be df76 083d fad8 c5be
00000310: 1ea9 dabe 3fd6 e9be 80a9 51bf c190 4cbe
00000320: e73e 963d df53 3abe f0ac 953e 4d98 003e
00000330: 4078 673d 552a 0b3e 2cb0 123e c609 f93c
00000340: 9e8a ce3d 8740 4a3e bd79 3b3e 1f4a 2c3e
00000350: 958e 203d f681 253e c49b 15be cb9d 21be
00000360: 51f8 f63d 4245 b6bd db2c 053e 4c1d 40be
00000370: 73a1 243e 45f5 cd3d 36a7 a1be f5bb ea3d
00000380: 787c 823d 59cd 4a3e d91d 5abe 8017 ec3d
00000390: 5fe2 47be a468 34be b3df 653e d607 babc
000003a0: 6004 e53c c3c0 cbbb 4ec7 063d 4f8b ff3c
000003b0: 9594 43bc bc88 eb3d ec51 2d3c 318f 413d
000003c0: 44c7 23bd 3fd0 fe3c 5ec4 b73d 8a0c 07bc
000003d0: 0703 c13c 205b 17bc e349 dabc eac2 773d
000003e0: 83d3 833d 0816 003d e2eb e5bc 3ec1 1f3d
000003f0: 8403 6c3c 897e 6a3d c7c0 5a3d 552b 323d
0.82584405 0.05618397 -0.41678905 -0.018729277 -0.027277153 -0.55000085 0.044630215 0.055406965
0.07601695 0.08376536 0.19352034 0.20250338 0.12189692 -0.06731807 0.16536997 -0.01056229
0.0328772 0.22585374 -0.1975013 -0.06738494 0.025627805 0.30414823 -0.10984069 -0.095736966
0.5685394 0.050170355 -0.18613699 0.4988524 0.23727533 0.7070116 -0.26026693 0.041891903
-0.04816687 -0.087217815 -0.35021245 0.25706276 0.1973749 -0.11089311 0.2715943 0.0827829
0.14259878 -0.06192538 0.18568982 0.096047565 -0.105913505 -0.13468766 -0.14382455 -0.09122918
-0.099210225 -0.06990945 0.43093246 -0.10626582 -0.17782281 -0.08538243 -0.16968353 -0.08361262
-0.08737003 -0.08366495 -0.071113616 -0.09897753 -0.04781152 0.0042916667 -0.04761891 -0.16664487
-0.07818113 -0.072071806 -0.8596443 -0.25101018 -0.4368498 0.074260704 -0.1347118 -0.3565251
-0.28329208 0.03269752 -0.020220637 -0.45756316 -0.47891864 -0.15442239 0.19549699 0.6779365
0.30821344 0.027437797 0.15140225 -0.36646268 -0.13039331 -0.017985614 0.19932103 -0.027395323
0.11829604 -0.01252003 -0.41928312 -0.09660816 0.13215421 0.3514238 -0.42185917 -0.029290076
-0.06863765 -0.42053074 0.58931464 -0.92950815 0.064304374 -0.0013861156 -0.2587848 -0.017062929
0.021431807 0.09363922 -0.23671906 -0.27170604 0.016597867 0.113055624 -0.28355995 0.16228381
-0.090716235 0.025352417 -0.049485862 0.05369334 0.16145468 0.061462462 0.06953944 -0.19232348
0.034526054 -0.11032586 -0.0058326772 -0.085134014 0.019541314 -0.29679212 0.06915966 -0.033691473
-0.16672368 -0.019082567 0.09840508 0.010266082 -0.49984983 -0.119905986 -0.007250512 0.11573185
0.0616256 0.05581233 0.16427743 -0.13427728 -0.13373931 0.029100433 0.13001968 0.20472716
0.061828516 0.06470459 0.016638145 -0.1635295 -0.16583496 0.18177018 -0.15369856 -0.04160081
0.08528343 -0.20951234 -0.08328515 0.04837119 -0.16889195 0.06393554 0.12287569 0.13631913
-0.14380948 0.052844476 -0.13062567 -0.17122369 0.1197188 -0.6052544 0.32229134 0.08770427
0.21417548 -0.484045 0.047977474 0.27467084 -0.009591064 -0.1554231 0.23151366 0.2438923
0.07184172 -0.18541844 0.28485084 -0.16045105 -0.009819468 -0.4100639 0.20108572 -0.39036638
0.42230603 -0.05302491 0.25286987 -0.32007438 -0.20554441 -0.34212106 0.3938751 -0.22634856
0.00038423412 -0.3484969 0.03331649 -0.38642102 -0.4270715 -0.4567127 -0.8189926 -0.19977094
0.073362164 -0.18196057 0.29233503 0.12558098 0.056511164 0.13590367 0.14325017 0.030400168
0.10085033 0.19751178 0.18308158 0.1682515 0.039198477 0.16162857 -0.14610201 -0.1578285
0.12059081 -0.08899929 0.13005392 -0.18761176 0.16077213 0.10056547 -0.31572884 0.11461631
0.06371397 0.19804896 -0.21300448 0.1152792 -0.19519947 -0.17618042 0.22448616 -0.022708815
0.027956188 -0.0062180473 0.032904916 0.031194357 -0.01193728 0.115006894 0.010578614 0.0472557
-0.039984956 0.031105159 0.08973001 -0.008242736 0.023561014 -0.0092380345 -0.02664656 0.06048862
0.06436827 0.03127101 -0.02806658 0.03900265 0.014405135 0.05724958 0.053406503 0.043498356

fc1.bias f4 [64]
00000000: cb18 edbe 1733 bfbd 13dc 343e dfed 66be
00000010: 45b1 11be dcc8 cb3d c48a 66be 2c1f a2be
00000020: 4f24 b3bd 06b5 dabe 951e 7d3e 1ee4 04bf
00000030: 8d00 10bd 3138 49be 9443 c2be 9710 38bd
00000040: 3dfd b9be 9f30 b8bd 8a3a 08be 78d4 813e
00000050: 1cea 8fbc 56b9 62be e25c f6bd 35b1 66be
00000060: 0125 00bf 58a6 41bf 9c3e 42bf 50b0 8dbe
00000070: 75a5 acbe 3f6b 733c 8077 bbbe 3ba7 ff3d
00000080: 3e81 8f3e 1a39 a9be 8b5a 22bf b5d4 fcbc
00000090: 1efa cbbe 05ab 00be e32e 53be 952a b2bd
000000a0: 9013 6cbe c195 04bf abea 2cbe 1427 eabe
000000b0: b513 c2be e9a0 5ebd ebe3 edbe bd98 36bd
000000c0: adfa b9be 5dfa 84bf 04d9 e1be 5d0a f9be
000000d0: b5df 0abf 5bee 8dbe d028 a0be dccd 2ebe
000000e0: a687 ccbe 9abf bcbe 68c6 58be da1e 1b3b
000000f0: 7b1e 2dbf 10b2 043b 8d87 eabe d130 5b3c
-0.46307978 -0.093359165 0.17662077 -0.22551678 -0.14227779 0.0995042 -0.22513872 -0.31664407
-0.0874716 -0.42716235 0.24718697 -0.5191058 -0.035156775 -0.19650342 -0.37942183 -0.044937696
-0.36326018 -0.08993649 -0.13303581 0.25357413 -0.017567687 -0.22141013 -0.12029435 -0.22528537
-0.50056463 -0.75644445 -0.75876784 -0.27673578 -0.33719984 0.014857112 -0.3661461 0.124830686
0.2802829 -0.33051378 -0.6341941 -0.030863145 -0.39839262 -0.12565239 -0.20623355 -0.08699528
-0.23054338 -0.51791006 -0.16886394 -0.4573294 -0.3790566 -0.054352675 -0.4646295 -0.044579256
-0.36324063 -1.0388905 -0.44110882 -0.4864072 -0.542476 -0.27720913 -0.31281137 -0.17070717
-0.39947242 -0.3686493 -0.21169436 0.0023669512 -0.67624635 0.0020247735 -0.45806542 0.013378338

fc2.weight f4 [64, 64]
00000000: 72fa 08be 43a8 fe3c 4eaf d4bd d0a7 71be
00000010: 9e63 b93c 5626 9c3d 3f34 53bc dc65 593d
00000020: 1200 9fbd e8da 5c3c 8c06 2bbe fe57 f6bd
00000030: 9819 7cbd b459 1fbe bf05 edbc 481b 50be
00000040: 73d7 08be 7464 3fbd a258 a6bc e8f9 50be
00000050: 6d95 96bc e8c9 70be 0876 81bd 4fba 4abd
00000060: 9bd6 86bd 6618 efbd d52b 13bd 69d7 21be
00000070: 8871 063d 1f3e 12be 543e afbd 7177 05be
00000080: 59d5 c13c 023e d83b e05d adbd 4977 0d3c
00000090: 78b5 123d d605 51bd c2bf ffbd 9faa 5e3d
000000a0: 9f6f 29be 4f75 10bd 5c10 0dbe 1504 803d
000000b0: 2b7a 043d 606d bcbd 6999 0d3d 154a 1a3d
000000c0: 3680 e8bd 9a7e 4e3d fef2 bb3b a58c 283d
000000d0: 7a4a 80bd e471 8c3d f6d2 acbc 8a01 febd
000000e0: dfe8 57bb bd9e 543c 45d9 463d 3e7f 8a3c
000000f0: 5a76 e8bc d725 8bbe 472c 733d e59f 783c
00000100: cc4c 613d fde3 b5be e6f9 3abf e7c7 08bf
00000110: a292 033d 4fe0 e3be a0fc f9bd b3de 2bbd
00000120: 3034 6c3d 737a e3be f8c9 58be 733b 86bd
00000130: 1206 85bd 70cc 2a3e 0ac0 94bd 9fca 243e
00000140: 2345 323e 011b c93d 2664 d4be b4b8 5a3e
00000150: 73b7 323e d0b5 493e 11f1 01be 7cce bf3c
00000160: d270 d4bd 175f 113e 3b9a 0fbf 54a3 96bd
00000170: f389 3c3c f47b d1be d7ed f73c 651a 193e
00000180: 3b9e 49bf 5ccd c5ba dac9 e43d ea14 1cbe
00000190: 4188 893c e330 c9bd b215 b4bd 067c d7bd
000001a0: cc23 bc3d 5adf 08be 4394 a03b 3dc5 febc
000001b0: c858 8a3d 70be fb3c be13 7bbe 7462 0c3e
000001c0: e807 4abe cf96 8b3e 5cdc 193d b5b2 523d
000001d0: 206e 0abe b946 3c3e 2508 87bb 8b3a 59be
000001e0: 7c67 aabd aadc c6be 5f6a f5be 45a7 d5bd
000001f0: 445d d5be 75da b4bd dc28 41bd 1a33 6d3e
00000200: 35fb 63be ade1 133e dfa3 11bf d4be 893e
00000210: 02c9 873d d6cd 813e c41c 89be 448f 4dbd
00000220: 7a50 7fbd acf3 3a3e 4d9b 5ebe 81d8 9f3d
00000230: 87ad 20be b1b0 b3be 0416 87be 3ac7 8cbe
00000240: b8da 09bd a4f9 0cbe 6de3 8cbd 9ea7 a4be
00000250: a07f 893b eadc edbd a34c 00bd 5248 76bd
00000260: 3e0a 8fbc 630e 5cbe 5c8c 933e a3dd 99bd
00000270: 624e 0b3d baae aa3d 3019 3bbe 9dd3 96be
00000280: f5cd 1e3e 7291 adbe 3e56 e63c d2a1 bdbd
00000290: db8e 5b3d 1336 a3bd d0cf 6d3b 9d50 8ebe
000002a0: bc71 ddbd e296 2fbd 4db5 113d 7bc6 95bc
000002b0: db2b 28bd e2c1 e7bd 8f91 eabe 3517 d0bd
000002c0: 4bd3 503d 833e 843d fd7e 8ebd 25bd d13d
000002d0: 24fa 44be 2998 353e 3f78 e0bd c91b 0fbe
000002e0: 7ff0 9fbd 1e04 313d fef0 85bd 65e3 2dbe
000002f0: 1ceb 8b3e dfe1 e6bd f8f9 493e ede6 0abe
00000300: 2d89 15be c334 00bd 2305 e8bd 2d43 673d
00000310: d854 8bbd 5de0 4c3d 25f9 d2be 7d70 36bd
00000320: 96e3 8abd 03e7 d9ba b9a7 ae3d 5e8b 00be
00000330: fe28 6bbe 9e07 85be 6cb2 2fbe 2378 dbbd
00000340: a924 e6bd a29d 6bbd 3634 87bd 91a1 43be
00000350: 1b0b 47be f709 5dbd 2218 5fbe a43f 89be
00000360: 3db2 2ebe f147 a9bd bb52 49be 4923 6dbd
00000370: 042c 163e 9257 143d fd16 903d 45b9 55bd
00000380: 2a89 06be 863f ab3a a623 e2bd 99a5 223a
00000390: 6da2 3dbc ebd3 ac3d d32d 1ebe d29f d9bd
000003a0: 3213 cfbd 493a a6bd cd7d 4e3d bc01 92bd
000003b0: c6ae 4dbe 1ef6 57be 8015 8b3d e6d4 58bd
000003c0: 4894 4ebd 8710 1e3d 6cce 2a3d c377 89bd
000003d0: 6386 e23d b36c 64be 81a0 063d 3e3a 86bd
000003e0: fc2d eabd b0c8 b93d 3dbc 7ebe 4be9 b63d
000003f0: 49ef 413d 5c1a 30be 387e 31be c083 09bd
-0.13376787 0.031086093 -0.10384999 -0.23599172 0.022630509 0.076244995 -0.012890874 0.053075656
-0.07763685 0.013479926 -0.16701716 -0.12028502 -0.061547846 -0.15561563 -0.028933404 -0.20322907
-0.13363437 -0.04672666 -0.020305935 -0.20407832 -0.018381799 -0.23514521 -0.06321341 -0.049494084
-0.065839015 -0.116745755 -0.035930473 -0.15804829 0.032823116 -0.1428151 -0.0855681 -0.13033845
0.023661302 0.006599189 -0.08465171 0.008634397 0.035817593 -0.051030956 -0.12487747 0.054361936
-0.16546486 -0.035268124 -0.13775772 0.062507786 0.03234307 -0.09200549 0.03457013 0.037668306
-0.11352579 0.050413705 0.005735754 0.041149754 -0.06264205 0.068576604 -0.021096688 -0.12402637
-0.0032945198 0.012977299 0.048547048 0.016906377 -0.028376747 -0.27177307 0.059368398 0.015174841
0.05500488 -0.35525504 -0.73037565 -0.53430027 0.03212226 -0.4450707 -0.122063875 -0.04196043
0.057666957 -0.4442936 -0.21170795 -0.06554308 -0.064952984 0.16679549 -0.07263191 0.16092919
0.17409186 0.09819604 -0.41482657 0.21359521 0.17452793 0.19698262 -0.12689616 0.02341389
-0.10373081 0.1419643 -0.5609471 -0.07355371 0.011507499 -0.4091488 0.030264778 0.14951475
-0.78757066 -0.0015091109 0.11171313 -0.15242353 0.016788604 -0.098237775 -0.087932006 -0.105217025
0.09186515 -0.13366452 0.0049004867 -0.03109991 0.06755215 0.030730456 -0.2451925 0.13709432
-0.19729578 0.27263495 0.037563667 0.05143996 -0.13518572 0.18386354 -0.004120844 -0.21213739
-0.08320519 -0.38840228 -0.47932717 -0.10432295 -0.4167272 -0.0883073 -0.047158107 0.23164025
-0.22263797 0.14441557 -0.5689067 0.26903403 0.06630136 0.25352353 -0.2677976 -0.050185457
-0.062332608 0.18257016 -0.2173893 0.07804967 -0.15691195 -0.35095742 -0.26383984 -0.27495748
-0.033655852 -0.13767105 -0.068793155 -0.32159132 0.0041961223 -0.11614402 -0.031323086 -0.060127564
-0.017460939 -0.21489863 0.28818023 -0.07512977 0.0340103 0.08334108 -0.18271327 -0.29458323
0.15508254 -0.33900028 0.028117295 -0.092593804 0.053603034 -0.07969298 0.0036287196 -0.27795878
-0.10812709 -0.042868502 0.035573293 -0.01828312 -0.04105745 -0.11316277 -0.45814177 -0.101606764
0.050982755 0.06457236 -0.06957815 0.102411546 -0.19236046 0.17733826 -0.10960435 -0.13975443
-0.07809543 0.043216817 -0.06540106 -0.16981275 0.27327812 -0.1127355 0.19724262 -0.13564654
-0.1460311 -0.031300317 -0.11329105 0.05646055 -0.06803292 0.050018657 -0.41205707 -0.04454087
-0.0678169 -0.0016624633 0.08528084 -0.12553164 -0.22964856 -0.25982374 -0.17157906 -0.10716274
-0.11237461 -0.057523377 -0.06601755 -0.19104601 -0.1943783 -0.05396458 -0.2178655 -0.26806366
-0.1706018 -0.08265675 -0.19660465 -0.05789498 0.14665228 0.036216326 0.07035635 -0.05217864
-0.13138261 0.0013065196 -0.11041956 0.00062044855 -0.01157437 0.08438858 -0.15447168 -0.106261864
-0.10111083 -0.08116586 0.05041294 -0.07129237 -0.20086202 -0.2108998 0.0679121 -0.05293741
-0.05043438 0.03858998 0.041700765 -0.06712296 0.110607885 -0.2230709 0.032867912 -0.065540776
-0.11434552 0.09071481 -0.24876495 0.08931216 0.04734734 -0.17197555 -0.17333305 -0.033572912

fc2.bias f4 [64]
00000000: f5e9 1bbe ea93 d73e b1a1 63bd a5ac cdbc
00000010: df52 19be aef2 9a3d 4d5c 073d 99df 293f
00000020: ca34 6e3e ddf6 f6bc 02ab ed3d 4cf4 463d
00000030: bda6 adbc 5948 a33c ea10 8bbd e5dd 25be
00000040: dae8 213d ee21 d33e 07ac 37be 1698 4f3c
00000050: 95a4 c03d 34d4 40bc e7a1 6dbd b418 c6bd
00000060: d446 bb3b 5c78 f83e a449 e03d 8615 0dbe
00000070: c98c 153f f887 bbbd 5e67 bebd b836 f9bb
00000080: 95c9 873d f3ed 043e d029 c9bd 3b61 24bd
00000090: 2a84 53bd 5328 4fbe d615 2abd b055 82bd
000000a0: 402d 08be e09f ccbc 9015 a13d b6f1 b33d
000000b0: 0489 fcbc 7648 c53c 3418 903e 8f8b 0d3d
000000c0: c6fc 9dbc bc6c 4bbe c483 513e 37c4 cbbc
000000d0: dfd7 09be fda9 e0bc d806 26be 0053 d3bd
000000e0: 8785 c5bd 1c60 25bd 228e 46be 94ce 0dbe
000000f0: d0d3 dc3d d692 d13e 1dc1 3ebb 3a38 943e
-0.15225966 0.42105037 -0.055574123 -0.025106737 -0.14973019 0.07565819 0.03304701 0.6635681
0.23262325 -0.03014701 0.11604883 0.048572823 -0.021197671 0.019931959 -0.067903355 -0.16197927
0.039528705 0.41236824 -0.17936717 0.012670537 0.094063915 -0.011769343 -0.05801573 -0.096726805
0.0057152305 0.48529327 0.10951546 -0.13777742 0.58417946 -0.09156793 -0.092970595 -0.0076054
0.066302456 0.12981395 -0.09822428 -0.04013179 -0.051639713 -0.20230226 -0.04152473 -0.06364
-0.13298512 -0.024978578 0.07865441 0.08786337 -0.030827053 0.024082404 0.28143466 0.03455692
-0.01928557 -0.19865698 0.20460421 -0.024873836 -0.13461255 -0.027424807 -0.16213548 -0.10318565
-0.09644609 -0.04037486 -0.19390157 -0.13848335 0.107825875 0.4093234 -0.0029106804 0.28949147

fc3.weight f4 [1, 64]
00000000: 9b2c b93c 0a30 f63d 679c d13d a4f7 88bc
00000010: f9c8 093e f005 b03c 515d 23bc 67a6 02be
00000020: 6fd5 013d 1070 813a 5103 48bc 1f11 0d3d
00000030: 2ed2 453d d2ca 71bb b486 54bb 024f 9a3c
00000040: bb81 41ba 0c6e 16bd 9a86 1dbe fc2e a03c
00000050: 78e3 acbd 96dd f3bc 08ae 9f3a 2f81 9fbb
00000060: 6c01 c03b b37e ee3d d2c1 9d3d 6562 523c
00000070: 2fb3 be3d 0af4 05bd 381c 98bb 8aaf 20bc
00000080: 0ee8 263c 833b da3c 53f2 453b 2fd3 933c
00000090: a83a 5c38 f469 8a3d cc4f febc f828 59bd
000000a0: 2717 5fbd 8fe6 41bd 2410 e13c 2bdb e3bb
000000b0: c3a4 1a39 7bc4 26bc c461 643c a34e 083d
000000c0: b698 af3b 0091 913c a74b be3c adba 523c
000000d0: 68ca 0a3c 1ddd 7abc d2d4 e9bc f25b f9bc
000000e0: d4b6 83bc 6d04 973c 7c29 733d 086f 493d
000000f0: f6d0 e53b 2ee2 9ebd c776 debb 19ee 583d
0.022604277 0.120208815 0.102349095 -0.016719647 0.13455571 0.021487206 -0.009970979 -0.1275879
0.031697687 0.0009875316 -0.012207822 0.034440156 0.048296146 -0.0036894572 -0.0032428922 0.018836502
-0.0007381697 -0.036726043 -0.15383378 0.019553654 -0.08441824 -0.029768746 0.0012182603 -0.004867695
0.0058595445 0.1164526 0.07702984 0.012840842 0.0931152 -0.032703437 -0.004642036 -0.009807477
0.010187162 0.026639706 0.003020425 0.018045036 5.2506715e-05 0.0675849 -0.03104391 -0.053017586
-0.05446544 -0.04733902 0.027473517 -0.006953617 0.00014747963 -0.0101786805 0.013939325 0.03327812
0.0053587807 0.017769337 0.023229433 0.01286189 0.008471109 -0.015311507 -0.028543863 -0.03043935
-0.01607839 0.018434728 0.059365734 0.049178153 0.0070134355 -0.07757984 -0.0067890617 0.052961443

fc1.weight f4 [64, 1]
00000000: 33f6 473f 95b4 5fbf 1c7a a9bf 6874 3ebb
00000010: 37b3 3bbf b12f a23e d60a a5be 2db8 3e3f
00000020: af54 d2bd 7a73 09be aeb3 a2bd 764f edbd
00000030: 0f29 ddbc 8977 4ebf 3051 95bd 2206 97bd
00000040: 306c 143e 00e7 82bb fa3e d63e 2197 943d
00000050: 9802 b2bd 82ac 08bf 70a3 2bbe 421e 16bf
00000060: 7677 21bf 34f1 19be 18da 253e c87f a03f
00000070: 44d6 d5be de85 0d3e 7961 323e c9d7 783f
00000080: f852 4b3e d151 fdbe 13d7 eebf b1a1 9dbf
00000090: 3003 233f 59a7 9c3c 1091 783c e9b6 c9be
000000a0: 43f3 a13f 5ca0 d8be 94fb fe3e d579 95bd
000000b0: ec4b 8abe 1db3 243e 8a86 bdbf 817c 38be
000000c0: dd91 6abe 0088 e0bd de54 89bf 392b 0ebf
000000d0: d03d 0d3e 0c7d d9bd bd9a a83f 8f2c 7a3f
000000e0: 20ca 3fbd 05bb 2dbf 00e9 563e 91a9 363e
000000f0: f057 01bf 8234 653f 7cbf b63e 6ab4 3f3f
0.78110045 -0.8738492 -1.324039 -0.0029061083 -0.73320335 0.3167701 -0.3223483 0.7449978
-0.10270058 -0.13422957 -0.079444274 -0.115874216 -0.026997117 -0.80651146 -0.07290876 -0.073742166
0.14494395 -0.0039948225 0.41844922 0.07255388 -0.08691901 -0.53388226 -0.16761565 -0.5863992
-0.6307291 -0.15033418 0.16196477 1.2538996 -0.41765034 0.13820598 0.17419995 0.9720426
0.19855869 -0.49476483 -1.8659385 -1.2314969 0.6367674 0.019122766 0.015171304 -0.39397362
1.2652363 -0.42309844 0.49801314 -0.07298628 -0.2701105 0.16083951 -1.4806683 -0.18016244
-0.22907205 -0.1096344 -1.0729024 -0.555347 0.13793111 -0.10619554 1.3172222 0.9772424
-0.04682362 -0.67863494 0.2098732 0.17838122 -0.50524807 0.89533246 0.35692966 0.74884665

fc1.bias f4 [64]
00000000: 665a 2bbf 17fe 1bbb 48e8 4ebe a4fd 92be
00000010: f5e5 74bf b33f 83bf fff9 c2be 923e f5be
00000020: eeb9 573e d4f6 34be 721b a73d e3eb 0fbe
00000030: de1b 913e 6002 0fbe ae15 6dbf edd5 c7bc
00000040: e2ff 33bf 8327 41bf 8f70 a9be 87a3 73be
00000050: 613c ac3d bd42 26bf 5294 63bf fe65 e6bd
00000060: bc6b 953e 06da 69bc b0df e83e 9f26 76bf
00000070: 5b9d 783f ad50 f83e 3b98 45bf dedb 02bf
00000080: 1881 0a3f f216 803f e5a1 5cbf d8b5 3dbf
00000090: 0e65 6e3f b3c6 bdbe 5865 dd3e 8bb7 ebbe
000000a0: 94f3 8dbf c0b5 59bf 9c57 823f eb25 04be
000000b0: b361 9d3c 8953 ee3e b107 63be c51a 4c3e
000000c0: f7f2 133f 72e0 29bf d5e3 0b3f 3b56 02be
000000d0: 3bd9 2d3f 791e 8c3e 4876 90bf 2c5c 66bf
000000e0: 50d2 1abf 8926 163f 88d8 5c3f c79b 42bf
000000f0: b30e 7b3e 477e 50bf db89 95bf 0fda c9be
-0.6693481 -0.0023802572 -0.20205796 -0.28709137 -0.95663387 -1.0253814 -0.38081357 -0.478993
0.2106702 -0.17672282 0.08159532 -0.14054827 0.28341573 -0.1396575 -0.92611206 -0.024394
-0.7031232 -0.75450915 -0.33093688 -0.2379285 0.08409954 -0.64945585 -0.88898194 -0.11249922
0.29183757 -0.014273172 0.4548316 -0.9615268 0.97115105 0.4849905 -0.7718541 -0.5111674
0.5410323 1.0007002 -0.8618453 -0.74105597 0.9312295 -0.37065658 0.43241382 -0.4603847
-1.1089959 -0.85042953 1.0182986 -0.1290509 0.019211626 0.46548107 -0.22170903 0.19932087
0.5779261 -0.663581 0.5464452 -0.12728207 0.6790959 0.27367 -1.1286097 -0.89984393
-0.6047716 0.5865255 0.862679 -0.7601895 0.24517326 -0.81442684 -1.1682695 -0.39424178

fc2.weight f4 [64, 64]
00000000: f07f 933d f8b9 583d 041f 11be 2a06 f2bc
00000010: 00dd 693d aaa3 a93d d106 42bc 04ec b53d
00000020: 0293 5bbc 938b 5bbd 5eba 36be d702 49be
00000030: bcc8 18be 603e d3bd 70ea 9cbd 28d3 36bd
00000040: 3075 1e3d a8de e7bc 50c8 443d 7878 253d
00000050: f490 51bc 89d5 3a3d e463 2dbd 63f8 063d
00000060: f93d a1bd 97e8 c3bd 820b 35be 08c4 a4bd
00000070: 054f 22be edaa e4bd 1a02 b63d e14f 27bd
00000080: fcee 1bbe 3bff 18bd 9d58 b7bc 99f5 8d3c
00000090: a8b8 1ebe c004 de3c 2398 0ebe a90d eebd
000000a0: d802 ccbd 8059 69bd e33e 07be ee40 05bd
000000b0: 3718 87bd cebd ddbc 7eab 193d 74eb f03c
000000c0: cb29 9abb 606e 823b d553 2fbe 928c 0b3c
000000d0: b807 00be 67ba ccbd 3c8b dcbd f044 cabc
000000e0: ec1d a5bd 3c90 f13c fba6 4ebe 2e8c c7bd
000000f0: 22d2 bcbd 546c 8abd 1833 373d fb14 45bd
00000100: 19f7 acbe 54ca 95be c107 51be ff49 3dbe
00000110: 9c1e 93b9 de86 8fbd edf8 21bd fc1a 9dbe
00000120: 9494 b0bd fdf9 aebe 50a3 403d 9ca6 19be
00000130: bf9a 2b3c 65ee f4bd f080 1fbc 60a3 f9bd
00000140: 0813 ae3c d45a 713d 20b0 cdbd 083f 23be
00000150: 14eb 9bbe 6e81 ba3d 7a32 df3d 7617 92bd
00000160: 2c9e 43be c674 3cbe 11cb fdbd a2f6 f1bd
00000170: 62b1 b6be e16e 123d ee8c 82bd 490d a0be
00000180: 7079 6fbc 6259 b4be 6ca2 9bbe 4ace 32be
00000190: 45dc 0c3d 0c1d f23d cb80 adbd 4bb9 86be
000001a0: ed1e 01be 8823 dabc fd81 f5bd 5f7b 8d3d
000001b0: a4a0 97be 5027 ff3b 87d0 04be 4dc5 36be
000001c0: 075d 81be c065 33bc 2bc9 67be d29d 30be
000001d0: d790 02be dd30 14be 9405 bbbe 1cb1 aabe
000001e0: 9e6a aabd 3d7a 1fbe 7e3c 1d3d 9dc7 60bd
000001f0: f0e2 20be 90bc 43be 6f93 18bd cf4a 79be
00000200: 6b54 99be e0d5 cfbe 09f6 0abf ad0c 74bd
00000210: 64ce 1f3e f2ea adbd 00dc cbbc 3a31 c9bd
00000220: 0984 a63c 4563 a8be 3525 513c 5c57 6abd
00000230: c61c 453d 76cb dfbd d4ce 103d 655d ab3d
00000240: 0891 f33c 0455 d43d e5f0 2cbe ffdc 71be
00000250: 9477 b8bd d9f2 5ebd 808b 72bd edf0 ce3c
00000260: 82ff fabe a7ca 833d 15f5 1b3d da8f 50be
00000270: 123a c7be 32b2 f3bd 206e a3bd 2d04 4bbe
00000280: 41bb bcbd 2530 a4be b9e3 d1be eb8f f4be
00000290: 0ef3 083c 9a77 8f3d 3375 31bd de78 f9bd
000002a0: 2947 ecbe 05a0 e13a c57e 08be 3aee bfbd
000002b0: 8444 9fbc 9754 f8bd fcd4 8bbe e0ed 93bd
000002c0: 5637 013d c46b 43bd 771f 0bbf 9a0d f23d
000002d0: e61c e2bc eb94 173e a08a dcbe 58e4 e8be
000002e0: ceaa f0bd f9e0 c9be 36e1 f93c 1a19 30be
000002f0: 61e5 f9bd d9e8 99be 8f40 f6bd 46d9 2cbe
00000300: d63c f7be 58d7 13bf ff57 13bf 9965 23be
00000310: 8f2b a8b9 3f9c 87be c3b2 43bd 75dc 99be
00000320: c856 1bbd f4d0 c9be 9e61 223d e093 a43d
00000330: ee84 a63d 4f9c 10be 8073 8e3a c018 ebbc
00000340: 622f 8fbd 8203 90bd 4b51 46be 9caa 90be
00000350: 7616 b9bd ac71 b4bd 6c1a d4bd 5299 eb3d
00000360: d945 22bf 9c0c 2fbd 3370 0abe 5eed babe
00000370: e7f1 03bf a236 71be 79c7 a13d 4b83 c7be
00000380: b4be 0dbe 8728 e4be 4fd2 ebbe a6da eabe
00000390: 6e37 cb3d 705a 153d 3243 8a3d e452 2fbd
000003a0: fd38 1fbf 6ccc fabd 6b48 ad3d 52b8 e3bd
000003b0: af62 893c 134d b0bd e729 f6be 51f0 a6bc
000003c0: dead 1b3d 1042 cfbc 3c71 1abf ad5e 113d
000003d0: f381 a73c b804 5abd 90c9 01bf 915d 0fbf
000003e0: c0d3 3cbd 4f15 91be 511b b93d 1dc5 0dbd
000003f0: 49a5 0abe 1feb 17bf 4564 07be 570a b9be
0.072021365 0.05291173 -0.14171988 -0.029543955 0.057095528 0.082831696 -0.0118424455 0.08882907
-0.013401749 -0.053599905 -0.17844531 -0.1962999 -0.14920324 -0.103146315 -0.07661903 -0.044634968
0.038685977 -0.028304413 0.048042595 0.04039809 -0.012790907 0.0456138 -0.04233159 0.032951724
-0.078731485 -0.09565847 -0.17680171 -0.080452025 -0.15850456 -0.11165414 0.088871196 -0.040847663
-0.15227884 -0.03735278 -0.022381121 0.017329024 -0.15500128 0.027101874 -0.13925223 -0.11623699
-0.0996148 -0.05697012 -0.13207583 -0.032532625 -0.065964155 -0.027068045 0.037517063 0.029409148
-0.004704689 0.003980443 -0.17121823 0.008517401 -0.12502944 -0.09996491 -0.10768744 -0.024691075
-0.08062348 0.029487722 -0.20180885 -0.09743534 -0.09219767 -0.06758943 0.04472646 -0.04811571
-0.3378227 -0.29255927 -0.20413114 -0.18485259 -0.0002806083 -0.07008146 -0.039544035 -0.3068465
-0.08622089 -0.341751 0.047030747 -0.15004963 0.010473906 -0.11959533 -0.009735331 -0.121893644
0.02124931 0.05892451 -0.10043359 -0.15942013 -0.30452788 0.09106718 0.108982995 -0.07133381
-0.19103307 -0.1840392 -0.123922475 -0.118146196 -0.35682207 0.035750274 -0.063745365 -0.31260136
-0.014616355 -0.35224444 -0.30397356 -0.17461506 0.034389753 0.118219465 -0.08471831 -0.26313242
-0.12609453 -0.02662827 -0.11987684 0.06908297 -0.29614747 0.007786669 -0.12970172 -0.17848702
-0.25266287 -0.010949552 -0.22635333 -0.17247704 -0.12750565 -0.14471765 -0.36527693 -0.3333825
-0.08321117 -0.15573974 0.038387768 -0.054877866 -0.1571157 -0.191149 -0.03724998 -0.24344943
-0.29947218 -0.4059286 -0.5428167 -0.0595824 0.15606076 -0.08492078 -0.024885178 -0.09823842
0.020326631 -0.32888237 0.0127652185 -0.05721222 0.048123144 -0.10927479 0.035353497 0.08367423
0.029732242 0.10367778 -0.16888769 -0.2361946 -0.09007183 -0.054430816 -0.05921507 0.025261367
-0.49023062 0.06435137 0.038075525 -0.20367375 -0.38911492 -0.118992224 -0.07979989 -0.19825812
-0.09215403 -0.3206798 -0.4099405 -0.4776605 0.00835873 0.07005234 -0.04332466 -0.12181257
-0.4614804 0.0017213827 -0.13329609 -0.0937161 -0.01944185 -0.12125509 -0.27310932 -0.072231054
0.031546913 -0.047710195 -0.54344887 0.118190005 -0.02760167 0.14802901 -0.43074512 -0.45486712
-0.117513284 -0.39429453 0.030502897 -0.17197075 -0.12201954 -0.3006046 -0.12024032 -0.16879758
-0.48288602 -0.57750463 -0.57556146 -0.15956725 -0.0003207591 -0.26486394 -0.047777902 -0.30051008
-0.037924558 -0.3941723 0.039643876 0.080360174 0.08130823 -0.14122127 0.0010868162 -0.028698325
-0.069914594 -0.07031919 -0.19366948 -0.28255165 -0.09037487 -0.08810744 -0.10356602 0.11503853
-0.6338783 -0.042736635 -0.13519363 -0.36509222 -0.5154099 -0.23555997 0.078993745 -0.38967356
-0.13842279 -0.4456217 -0.4605889 -0.4586994 0.09922682 0.0364632 0.06751098 -0.04280366
-0.6219633 -0.12246022 0.08461078 -0.11119141 0.016770689 -0.08608451 -0.48078844 -0.020378264
0.03800761 -0.025300056 -0.6032903 0.03549068 0.020447707 -0.053227156 -0.50698185 -0.56002146
-0.046100378 -0.2833657 0.09038413 -0.03461181 -0.13539614 -0.5934314 -0.13221844 -0.361407

fc2.bias f4 [64]
00000000: fec8 32be 73ec c6bd c89a b7bd de16 d2bc
00000010: 5eca 0c3d 710b 44bd 025e 3abd 87ab 4fbe
00000020: 6885 773d 80f8 5e3e 9ac3 37be b25d 863d
00000030: 3156 e1bd 997c da3c 491a 063d f419 1cbe
00000040: a616 9abd c38f b2be c455 0cbd 6081 833b
00000050: 4c4d abbe a040 413e 46ab 083f 6630 b1bd
00000060: 29d9 60bd d72b 963e d3ef 01be 14b6 85bd
00000070: 2ae4 56bd fbd1 cbbd e385 01be 1e9b 36be
00000080: 32da 7dbe afcd 06bf d341 40be 5da1 93bc
00000090: 1812 80bd d1d3 60bd 06a1 3ebe 0b57 4dbe
000000a0: cd4c 023f 5cad 1bbe 5d8d 4abc ff13 823c
000000b0: 412f debc 060d bebc fdbb 253d 0c46 babc
000000c0: 2297 b1bd 9ac1 fdbd 4337 cebd fade 7bbd
000000d0: d6b6 1abd e839 e7bd c816 723d ad2e 0ebd
000000e0: c233 80be 0055 0c3b a508 a93c 4bc9 7fbc
000000f0: 0a96 4cbe 02f5 2a3b df37 f5bc 3b8d 343e
-0.17459485 -0.09713068 -0.08965069 -0.02564567 0.03437268 -0.047862474 -0.04549981 -0.20280276
0.06042996 0.21774483 -0.1794571 0.0656084 -0.11002768 0.02667074 0.03273991 -0.15244275
-0.07523851 -0.34875306 -0.03426148 0.0040132254 -0.3345741 0.18872309 0.5338634 -0.086518094
-0.0548946 0.29330322 -0.12689142 -0.06528869 -0.052463688 -0.0995216 -0.1264873 -0.1783261
-0.24790266 -0.526576 -0.1877511 -0.01802128 -0.06253451 -0.054889504 -0.18616113 -0.20052736
0.5089844 -0.1520285 -0.012362805 0.015878676 -0.027122142 -0.02319957 0.040462483 -0.02273848
-0.086714044 -0.12390442 -0.10069134 -0.061491944 -0.037772022 -0.112903416 0.059103757 -0.034712482
-0.25039488 0.0021412969 0.020634005 -0.015611957 -0.1997911 0.0026085977 -0.029933868 0.17632
