maddpg_pytorch/models/cache_data/model/run48/incremental/model_ep8001.pt (torch, 690099 bytes, 168 tensors)

fc1.weight f4 [64, 1]
000000 9c 4f 74 3f f5 56 73 bf 50 b9 a5 bf e4 b7 86 bb
       0.95433974 -0.9505456 -1.2947178 -0.004111277
000010 31 b2 3b bf 8d 23 60 3e fb 78 a3 be 2c 5a 67 3f
       -0.73318774 0.21888562 -0.31928238 0.90371966
000020 08 77 16 3d 32 73 09 be f8 49 72 3c 20 4f ed bd
       0.03673461 -0.1342285 0.014788143 -0.115873575
000030 aa 33 41 be cf ee 65 bf 30 51 95 bd df 08 21 bd
       -0.18867365 -0.8981752 -0.07290876 -0.0393151
000040 30 6c 14 3e 00 e7 82 bb 67 57 1a 3e 60 85 7f 3d
       0.14494395 -0.0039948225 0.15072404 0.062383056
000050 9f e9 9a bc 1e ac 08 bf 70 a3 2b be 8e 75 12 bf
       -0.018910227 -0.5338763 -0.16761565 -0.57210624
000060 87 a3 de be 8e 93 a9 bd d5 46 ac bb 58 5c 92 3f
       -0.43484136 -0.08280097 -0.0052574673 1.1434431
000070 a8 bf 13 bd a3 0a 06 3c 20 61 32 3e b3 34 9e 3f
       -0.03607145 0.008181247 0.17419863 1.2359833
000080 79 4e 9a 3e d0 54 26 be 30 c0 0f c0 7d a5 dd bf
       0.30137995 -0.16243291 -2.2461052 -1.7316128
000090 ae ee 54 3f 77 07 9d 3c 78 f3 ce 3d 2c 6c c7 be
       0.83176696 0.019168599 0.10105032 -0.38949716
0000a0 30 6e 57 3f 5c a0 d8 be a5 e6 dd 3e 09 7a 95 bd
       0.8415251 -0.42309844 0.4334003 -0.07298667
0000b0 85 11 ec bd f0 00 1a bd f0 1d b9 bf ff 2f e7 3c
       -0.11526779 -0.03759855 -1.4462261 0.028221129
0000c0 bc 7a ff bc 00 88 e0 bd 1d 6f 3b bf 23 fc 34 bf
       -0.031186454 -0.1096344 -0.7321642 -0.7069723
0000d0 4a 6d 67 3d 7c 7d 67 bd 72 49 69 3f 08 ef 2f 3f
       0.05650071 -0.056516156 0.91127694 0.6872411
0000e0 20 ca 3f bd ed 45 11 bf be 62 0e 3e 7e a9 36 3e
       -0.04682362 -0.56747323 0.13904855 0.17838094
0000f0 de bd 35 bd 56 eb 1e 3f 24 b8 27 3f d9 32 5b 3f
       -0.044370525 0.62077844 0.6551535 0.8562446

fc1.bias f4 [64]
000000 69 46 08 be 0f 5a b0 be 0a 29 22 bf 3b b8 93 be
       -0.1330811 -0.3444371 -0.6334387 -0.28851494
000010 c8 e6 74 bf 88 2e 8a bf f4 ac c4 be 49 9d 69 be
       -0.95664644 -1.079545 -0.38413203 -0.22813906
000020 d7 4f 26 be 4a f7 34 be cc bd 08 be 4e ed 0f be
       -0.16241394 -0.17672458 -0.13353652 -0.14055368
000030 94 08 24 3d bd aa a1 be ae 15 6d bf a1 15 98 bd
       0.040047243 -0.31575575 -0.92611206 -0.074260004
000040 e2 ff 33 bf 80 27 41 bf 44 e7 10 bf b1 64 75 be
       -0.7031232 -0.754509 -0.56602883 -0.23964192
000050 f5 fc 81 bd fc 42 26 bf 52 94 63 bf 12 b4 88 be
       -0.06347076 -0.6494596 -0.88898194 -0.26699883
000060 82 bc 63 be dd ac c1 bd e7 5e 19 3e 23 28 8a bf
       -0.22239879 -0.09456799 0.14977609 -1.0793499
000070 d2 aa 02 3f 29 68 14 3e 6e 98 45 bf 3e 64 55 3c
       0.510419 0.14492859 -0.77185714 0.013024388
000080 7c 43 ef 3d df 55 48 3f 70 ba 6f bf 46 81 37 bf
       0.116827935 0.7825603 -0.93643856 -0.7168163
000090 5f 64 c2 3e bb cc bd be 66 56 43 3d b7 5a ee be
       0.37967202 -0.3707026 0.047689818 -0.46553585
0000a0 09 6a b9 bf c0 b5 59 bf f2 b6 2c 3f 28 26 04 be
       -1.4485484 -0.85042953 0.6746665 -0.1290518
0000b0 48 b5 1c be 26 17 1d 3e 44 9d 2f bf 96 17 49 be
       -0.15303528 0.15340862 -0.68599343 -0.19637904
0000c0 1a ec 83 3e 72 e0 29 bf 36 b1 ac bd fc 07 71 be
       0.2576607 -0.663581 -0.08432238 -0.23538202
0000d0 ec c3 a2 3e 03 a8 02 be 79 0a d3 bf 9d 96 a7 bf
       0.31790102 -0.12759404 -1.6487571 -1.3092839
0000e0 50 d2 1a bf 34 d7 25 3e 94 37 c7 3e 02 9c 42 bf
       -0.6047716 0.16195375 0.3890959 -0.760193
0000f0 d0 af 96 be 97 1e 95 bf 7e 51 c3 bf f2 fb bb bd
       -0.2943101 -1.164996 -1.5259244 -0.09178914

fc2.weight f4 [64, 64]
000000 f0 7f 93 3d c7 b9 58 3d 0b 1f 11 be 86 06 f2 bc
       0.072021365 0.052911546 -0.14171998 -0.029544126
000010 97 dc 69 3d aa a3 a9 3d 46 08 42 bc 04 ec b5 3d
       0.057095136 0.082831696 -0.011842793 0.08882907
000020 97 94 5b bc b9 8b 5b bd 5b ba 36 be 22 03 49 be
       -0.013402126 -0.053600047 -0.17844526 -0.19630101
000030 16 c9 18 be 86 3e d3 bd 70 ea 9c bd a2 d3 36 bd
       -0.14920458 -0.1031466 -0.07661903 -0.044635423
000040 30 75 1e 3d a8 de e7 bc 50 c8 44 3d 78 78 25 3d
       0.038685977 -0.028304413 0.048042595 0.04039809
000050 8a 92 51 bc 56 d5 3a 3d e4 63 2d bd 10 f8 06 3d
       -0.012791285 0.04561361 -0.04233159 0.032951415
000060 25 3e a1 bd a2 e8 c3 bd af 0b 35 be 08 c4 a4 bd
       -0.07873181 -0.095658556 -0.17680238 -0.080452025
000070 52 4f 22 be 19 ab e4 bd 1a 02 b6 3d d8 4f 27 bd
       -0.15850571 -0.11165447 0.088871196 -0.04084763
000080 4e ef 1b be 6b ff 18 bd 1d 59 b7 bc f3 f4 8d 3c
       -0.15228006 -0.03735296 -0.02238136 0.017328715
000090 f4 b8 1e be c0 04 de 3c 4c 98 0e be c2 0d ee bd
       -0.15500242 0.027101874 -0.13925284 -0.11623718
0000a0 d8 02 cc bd 80 59 69 bd ed 3e 07 be 53 41 05 bd
       -0.0996148 -0.05697012 -0.13207598 -0.032533
0000b0 7e 18 87 bd 37 be dd bc 0f ab 19 3d ab ea f0 3c
       -0.065964684 -0.02706824 0.03751665 0.029408773
0000c0 d9 2c 9a bb 60 6e 82 3b 22 54 2f be 05 8b 0b 3c
       -0.0047050533 0.003980443 -0.17121938 0.008517032
0000d0 ee 07 00 be a9 ba cc bd 32 8b dc bd f0 44 ca bc
       -0.12503025 -0.0999654 -0.10768737 -0.024691075
0000e0 ec 1d a5 bd 4d 8f f1 3c f0 a6 4e be 2e 8c c7 bd
       -0.08062348 0.029487276 -0.20180869 -0.09743534
0000f0 71 d2 bc bd 54 6c 8a bd 18 33 37 3d f8 14 45 bd
       -0.09219826 -0.06758943 0.04472646 -0.0481157
000100 47 f7 ac be 51 ca 95 be 0c 08 51 be 53 4a 3d be
       -0.33782408 -0.29255918 -0.20413226 -0.18485384
000110 08 3f 93 b9 79 87 8f bd 30 fa 21 bd 09 1b 9d be
       -0.00028084987 -0.07008261 -0.039545238 -0.3068469
000120 39 95 b0 bd 3b fa ae be 53 a2 40 3d ea a6 19 be
       -0.08622212 -0.34175286 0.047029804 -0.15005079
000130 6b 97 2b 3c ce ee f4 bd f0 80 1f bc c9 a3 f9 bd
       0.010473113 -0.11959611 -0.009735331 -0.12189443
000140 08 13 ae 3c d4 5a 71 3d 82 b0 cd bd 75 3f 23 be
       0.02124931 0.05892451 -0.10043432 -0.15942176
000150 6c eb 9b be 6e 81 ba 3d 7a 32 df 3d 0a 18 92 bd
       -0.3045305 0.09106718 0.108982995 -0.07133491
000160 9a 9e 43 be e9 74 3c be 7d cb fd bd 41 f7 f1 bd
       -0.1910347 -0.18403973 -0.12392328 -0.11814738
000170 88 b1 b6 be dd 6d 12 3d c8 8c 82 bd 58 0d a0 be
       -0.3568232 0.035749305 -0.06374508 -0.3126018
000180 ef 7c 6f bc ac 59 b4 be 66 a2 9b be 9d ce 32 be
       -0.014617189 -0.35224664 -0.30397338 -0.17461629
000190 90 db 0c 3d 0c 1d f2 3d 39 81 ad bd 56 b9 86 be
       0.03438908 0.118219465 -0.08471913 -0.26313275
0001a0 4e 1f 01 be 88 23 da bc 36 82 f5 bd 87 7b 8d 3d
       -0.12609598 -0.02662827 -0.119877264 0.069083266
0001b0 ec a0 97 be 49 20 ff 3b de d0 04 be 9b c5 36 be
       -0.2961496 0.007785831 -0.12970302 -0.17848818
0001c0 21 5d 81 be c0 65 33 bc 6c c9 67 be 12 9e 30 be
       -0.25266364 -0.010949552 -0.2263543 -0.17247799
0001d0 2d 91 02 be 3d 31 14 be a3 05 bb be 34 b1 aa be
       -0.12750693 -0.14471908 -0.36527738 -0.3333832
0001e0 9e 6a aa bd ad 7a 1f be b4 3b 1d 3d c8 c7 60 bd
       -0.08321117 -0.15574141 0.038387015 -0.054878026
0001f0 4b e3 20 be f3 bc 43 be 96 93 18 bd fb 4a 79 be
       -0.15711705 -0.19115047 -0.037250124 -0.24345009
000200 c8 54 99 be 68 d6 cf be 3e f6 0a bf d3 0c 74 bd
       -0.29947495 -0.40593266 -0.54281986 -0.059582543
000210 75 ce 1f 3e 9c eb ad bd d7 dc cb bc 00 32 c9 bd
       0.15606101 -0.084922045 -0.024885578 -0.0982399
000220 87 82 a6 3c 82 63 a8 be b5 21 51 3c cf 57 6a bd
       0.020325912 -0.32888418 0.012764384 -0.057212647
000230 9a 1b 45 3d cf cb df bd d4 ce 10 3d 11 5d ab 3d
       0.048122026 -0.10927545 0.035353497 0.083673604
000240 08 91 f3 3c 04 55 d4 3d 10 f1 2c be 54 dd 71 be
       0.029732242 0.10367778 -0.16888833 -0.23619586
000250 cc 77 b8 bd f0 f2 5e bd 80 8b 72 bd ad ef ce 3c
       -0.090072244 -0.054430902 -0.05921507 0.02526077
000260 f2 ff fa be 42 ca 83 3d 68 f4 1b 3d 55 90 50 be
       -0.49023396 0.06435062 0.03807488 -0.20367558
000270 40 3a c7 be 87 b2 f3 bd f6 6d a3 bd 83 04 4b be
       -0.3891163 -0.11899286 -0.07979958 -0.1982594
000280 73 bb bc bd 91 30 a4 be 23 e4 d1 be 1e 90 f4 be
       -0.092154406 -0.32068303 -0.40994367 -0.47766203
000290 6d ef 08 3c 9a 77 8f 3d 34 76 31 bd 24 79 f9 bd
       0.008357865 0.07005234 -0.043325618 -0.12181309
0002a0 6a 47 ec be 00 a0 e1 3a 25 7f 08 be 43 ee bf bd
       -0.46148235 0.0017213821 -0.13329752 -0.09371617
0002b0 c1 45 9f bc 35 55 f8 bd 14 d5 8b be 32 ee 93 bd
       -0.019442441 -0.12125627 -0.27311003 -0.072231665
0002c0 db 36 01 3d c4 6b 43 bd 88 1f 0b bf 39 0d f2 3d
       0.031546455 -0.047710195 -0.5434499 0.11818928
0002d0 e2 1e e2 bc c2 94 17 3e f6 8a dc be 97 e4 e8 be
       -0.027602617 0.1480284 -0.4307477 -0.454869
0002e0 cc aa f0 bd 44 e1 c9 be 41 df f9 3c 46 19 30 be
       -0.11751327 -0.39429677 0.030501964 -0.17197141
0002f0 d5 e5 f9 bd 2b e9 99 be f6 40 f6 bd b1 d9 2c be
       -0.1220204 -0.30060706 -0.12024109 -0.16879918
000300 5b 3d f7 be 84 d7 13 bf 6b 58 13 bf 08 66 23 be
       -0.48288998 -0.57750726 -0.5755679 -0.1595689
000310 06 48 a8 b9 69 9c 87 be 83 b3 43 bd ad dc 99 be
       -0.0003209712 -0.2648652 -0.047778618 -0.30051175
000320 47 59 1b bd 4c d1 c9 be 73 5e 22 3d 8f 93 a4 3d
       -0.03792694 -0.39417493 0.039640855 0.08035957
000330 88 83 a6 3d cb 9c 10 be 80 73 8e 3a c5 1c eb bc
       0.08130556 -0.14122312 0.0010868162 -0.028700242
000340 62 2f 8f bd 82 03 90 bd 12 52 46 be b2 aa 90 be
       -0.069914594 -0.07031919 -0.19367245 -0.2825523
000350 95 17 b9 bd ac 71 b4 bd 6c 1a d4 bd 61 98 eb 3d
       -0.09037701 -0.08810744 -0.10356602 0.11503673
000360 09 46 22 bf 25 0f 2f bd 1a 71 0a be 76 ed ba be
       -0.63388115 -0.042739052 -0.13519707 -0.36509293
000370 2f f2 03 bf 87 37 71 be a6 c7 a1 3d b4 83 c7 be
       -0.5154142 -0.23556338 0.07899408 -0.3896767
000380 94 bf 0d be 23 29 e4 be c1 d2 eb be 20 db ea be
       -0.13842613 -0.44562635 -0.4605923 -0.45870304
000390 d2 35 cb 3d 70 5a 15 3d e9 41 8a 3d 6f 53 2f bd
       0.09922375 0.0364632 0.067508526 -0.042804178
0003a0 53 39 1f bf 6c cc fa bd 24 47 ad 3d 71 b8 e3 bd
       -0.62196845 -0.12246022 0.084608346 -0.11119164
0003b0 51 5e 89 3c c4 4e b0 bd 52 2a f6 be d9 f4 a6 bc
       0.016768606 -0.08608773 -0.48079163 -0.020380424
0003c0 48 ab 1b 3d 10 42 cf bc af 71 1a bf 17 5d 11 3d
       0.038005143 -0.025300056 -0.6032972 0.035489168
0003d0 0f 7c a7 3c 6e 07 5a bd cf c9 01 bf cb 5d 0f bf
       0.020444898 -0.05322974 -0.5069856 -0.5600249
0003e0 c0 d3 3c bd b6 15 91 be f4 19 b9 3d 62 c5 0d bd
       -0.046100378 -0.28336877 0.09038153 -0.034612067
0003f0 a6 a5 0a be 3d eb 17 bf 77 64 07 be d3 0a b9 be
       -0.13539752 -0.5934332 -0.13221918 -0.3614107

fc2.bias f4 [64]
000000 25 c9 32 be e0 ec c6 bd 2c 9b b7 bd 7b 1c d2 bc
       -0.17459543 -0.09713149 -0.089651436 -0.025648346
000010 e9 c9 0c 3d c4 0b 44 bd 47 49 9c bd 8c ab 4f be
       0.034372244 -0.047862783 -0.07631164 -0.20280284
000020 c6 87 2e be 41 d2 45 3e a7 c3 37 be d4 10 17 bf
       -0.17043981 0.19318487 -0.17945729 -0.5901005
000030 4a 56 e1 bd db 7b da 3c 27 19 06 3d 42 1a 1c be
       -0.110027865 0.026670387 0.03273883 -0.15244392
000040 c8 16 9a bd cc 2f f0 be c4 55 0c bd ef c1 85 be
       -0.075238764 -0.46911466 -0.03426148 -0.26124522
000050 14 11 e6 be 8b fb 3f 3e 79 10 19 3f a9 30 b1 bd
       -0.44934905 0.187483 0.5979076 -0.08651859
000060 c8 d9 60 bd f4 85 0c 3f 3d f0 01 be 14 b6 85 bd
       -0.054895192 0.54891896 -0.126893 -0.06528869
000070 84 e4 56 bd 3f d2 cb bd b6 49 88 be 29 9b 36 be
       -0.052464023 -0.09952211 -0.26618737 -0.17832626
000080 6b da 7d be d2 e3 2c bf 19 42 40 be 44 98 d7 bc
       -0.24790351 -0.67535126 -0.18775214 -0.026317723
000090 18 12 80 bd ae 45 d6 bd 2d a1 3e be 12 57 4d be
       -0.06253451 -0.10462509 -0.18616171 -0.20052746
0000a0 ae 77 53 3f 5c ad 1b be 46 8e 4a bc 13 0c 82 3c
       0.8260449 -0.1520285 -0.012363022 0.015874898
0000b0 4f 30 de bc 10 0f be bc b4 de 88 be cd ab 88 be
       -0.027122645 -0.023200542 -0.2673241 -0.26693574
0000c0 78 97 b1 bd 9a c1 fd bd 6d 37 ce bd 26 df 7b bd
       -0.086714685 -0.12390442 -0.100691654 -0.061492108
0000d0 fb b6 1a bd 84 99 bf be a0 98 f2 be 47 2f 0e bd
       -0.03777216 -0.3742181 -0.4738207 -0.034713056
0000e0 74 5b c3 be 59 06 d4 be 93 00 a9 3c da c9 7f bc
       -0.3815571 -0.41411093 0.020630157 -0.01561209
0000f0 bd 17 c1 be 01 ee 2a 3b c9 38 f5 bc 0f 5a 7d be
       -0.37713423 0.0026081803 -0.029934304 -0.24741386

fc3.weight f4 [32, 64]
000000 70 8b 21 be 12 41 3e bd c7 f4 a1 bd eb 57 8a bd
       -0.15775847 -0.046448775 -0.07908016 -0.0675505
000010 66 63 a4 bd 73 38 bd bc 2a 7f 1e 3f a0 42 28 be
       -0.08026771 -0.023098206 0.61912787 -0.16431665
000020 77 fa 07 bf e7 37 2b be 6e 8e 86 bd cb 4e 8b bb
       -0.53116554 -0.16720544 -0.06570135 -0.004251336
000030 48 70 f4 bd 4a 00 bc bd 82 25 97 bd 04 78 02 be
       -0.119354784 -0.09179743 -0.07380201 -0.12741095
000040 bf 33 86 bd 7f bd a6 3e 5c b1 b9 bd 5e 9b f4 3c
       -0.065528385 0.3256645 -0.09067032 0.029859241
000050 42 43 b1 bd 55 93 cd be 3c 44 1f bf 81 9c 00 bd
       -0.086554065 -0.40151468 -0.6221349 -0.031399254
000060 c8 46 ad 3d 52 e6 ad 3d 06 f2 df 3d bc d2 05 3d
       0.08460766 0.08491196 0.10934834 0.032671675
000070 88 07 a9 bd 27 84 18 be 12 aa cc 3d 5d fa 12 bd
       -0.082533896 -0.14894162 0.09993376 -0.035883296
000080 6b 27 15 be 41 fb 83 b9 7c e5 e1 bd a4 91 65 be
       -0.14565818 -0.00025173466 -0.11030099 -0.22418839
000090 c8 72 97 3d 90 0d a5 3d 03 81 44 bd b4 3d d5 3d
       0.0739494 0.080592275 -0.047974598 0.104121596
0000a0 2b c7 58 bc 51 65 de bc ce af 15 be 46 10 30 bd
       -0.013231079 -0.02714792 -0.14617845 -0.04298427
0000b0 6e 5f fe bd fa 40 3a 3e 4f b2 14 3e 17 66 b3 be
       -0.124205455 0.18188849 0.14521144 -0.35038826
0000c0 d9 b0 30 be 80 c1 b6 bd 9a e1 33 bd d2 04 18 3c
       -0.17254962 -0.08923626 -0.043916322 0.009278493
0000d0 bd d3 3d 3d 3e 6c cf 3e 63 a9 a7 3e b8 7d aa 3d
       0.046344507 0.4051227 0.3274642 0.0832476
0000e0 f5 bc 02 bd 33 6f 0a bf fb 0a ca be 57 45 0d 3e
       -0.031918485 -0.54075927 -0.39461502 0.13795982
0000f0 71 b8 34 be ae 4e 95 3c d3 2c 65 bd c0 c0 57 3e
       -0.17648484 0.018225994 -0.05595095 0.21069622
000100 ed d3 20 3e 09 53 81 be a1 15 bc be 42 a5 8c be
       0.15705843 -0.25258663 -0.36735252 -0.27469832
000110 f7 9f bf 3d f5 25 25 bd c4 84 70 3e ec 08 b2 bd
       0.09356683 -0.0403194 0.23488146 -0.08693108
000120 77 60 8d be a9 54 77 3e 58 51 9f 3d b8 49 f3 3e
       -0.2761266 0.24153389 0.07779187 0.4751718
000130 cf fc 8b 3e e9 d5 e8 bc 8f a7 b0 bd 99 66 3b 3c
       0.27341315 -0.028422313 -0.08625709 0.011438035
000140 8f 38 55 bd 9a a4 6a be 90 5d a1 3c 55 49 8b bd
       -0.05205589 -0.22914353 0.019697934 -0.06801096
000150 b3 1a 85 3d 42 20 af bc 79 58 66 bf 68 0e 51 3d
       0.06499233 -0.021377686 -0.8997875 0.05103913
000160 42 7d 3c 3d 92 45 a4 3f 01 af 0f 3e 2c 92 39 bd
       0.046017893 1.2833731 0.14031602 -0.045305416
000170 20 f3 66 3e 63 b6 58 3c 1a d6 20 3e 8e 70 fc bd
       0.22553682 0.013227078 0.15706673 -0.123261556
000180 14 91 59 3e cd 4d 00 3f fc 85 59 3d 46 59 8a 3e
       0.21246749 0.50118715 0.053106293 0.27021235
000190 28 42 70 bd ef 5b a9 3e f7 e2 de bc c7 0c 98 3b
       -0.05865684 0.33077952 -0.027207835 0.004640195
0001a0 0f ab 35 3f bb 14 17 3d 3f 08 23 be 37 af 8e be
       0.7096414 0.036885004 -0.15921114 -0.27868053
0001b0 fd d1 de bd fe 14 56 3e 5b b4 89 be c7 50 3c 3e
       -0.10879896 0.20906445 -0.26895413 0.18390189
0001c0 14 7e 19 bd b4 9f f6 bd 32 9d 49 bb 99 14 96 be
       -0.037473753 -0.1204218 -0.0030763862 -0.2931259
0001d0 a3 b6 fe 3b 1f df ca be 8c 14 3b bd cc 0a 15 3e
       0.007773237 -0.39623353 -0.045673892 0.145549
0001e0 db bb fa 3d a9 a4 40 be b0 62 c9 be 40 bf c1 be
       0.12242862 -0.18812813 -0.39333105 -0.37841225
0001f0 3d d0 99 3d 55 92 62 3e a3 14 cd 3b 82 8b ea be
       0.075104214 0.22126134 0.0062585636 -0.4580956
000200 79 c2 7c bd 07 98 5b be 83 03 a3 be 2c 03 80 be
       -0.0617089 -0.21444713 -0.31838617 -0.2500242
000210 b0 6f 60 bb 18 b6 c4 3d 35 22 ed 3f 38 37 7c be
       -0.0034246258 0.09605044 1.8526064 -0.2463044
000220 ea ce f6 3e 6a 4d a9 3d af 84 4b bd 3f 1a f4 be
       0.48204738 0.08266719 -0.049687084 -0.47676274
000230 34 c9 f2 3d 8d ee 2c 3e 76 e5 5b 3e c0 d8 3a bc
       0.11854783 0.16887875 0.21474251 -0.011404216
000240 b8 09 42 be e5 76 b0 be b6 6a cf 3d ad b7 93 3d
       -0.1894902 -0.3446571 0.10127775 0.07212768
000250 89 94 d2 bc 2c c2 bb 3e 7c 91 b6 be 95 ff bd 3d
       -0.025705593 0.3667158 -0.3565787 0.09277264
000260 87 b9 45 be e1 ec a1 3e 1f 49 ef bd 4e 21 a0 3d
       -0.19309054 0.31626037 -0.116838686 0.07818852
000270 2f 6d ad 3d 17 7d 00 3e 42 d6 4b bc f2 b6 80 3c
       0.08468091 0.12547718 -0.01244122 0.015712235
000280 31 bf 58 3d 61 4d fb be c8 75 43 3e 13 e5 8d be
       0.05291671 -0.49082473 0.19087899 -0.27713832
000290 68 e3 89 3c e9 6a 30 3e 0b 6f f9 3d 64 5b 8e 3c
       0.016832069 0.17228283 0.12179383 0.017377563
0002a0 ab e1 33 be 2e b9 3b be b7 5a de bd 6d 9b 12 bd
       -0.17566554 -0.18332359 -0.10857146 -0.035792757
0002b0 9b 48 c2 3d 92 fa 2a 3c cb ab 12 3e 69 85 9a 3e
       0.09486505 0.010435717 0.14323346 0.3017991
0002c0 d2 48 30 be c4 b1 27 3d b9 34 e4 bc 6a 9d d9 be
       -0.17215279 0.040941015 -0.027857171 -0.4250291
0002d0 29 a7 c1 bd 71 c8 dd 3e a9 2d 0c 3d c7 d5 36 bd
       -0.094557114 0.43316987 0.034223232 -0.044637468
0002e0 5c 4c c4 3d a6 ba fe 3c 6e 5d cf bd 7c 04 d2 be
       0.09584877 0.03109486 -0.10125242 -0.41019046
0002f0 94 2b 53 3d 14 9f fd 3d 36 22 56 3d c6 ec 5b 3f
       0.05155523 0.12383857 0.05227872 0.8590816
000300 8a a8 04 3c fa a2 f0 bd a9 e5 e8 be 14 30 ef bd
       0.0080968235 -0.11749835 -0.45487717 -0.11679092
000310 72 d8 bf 3b 94 f4 10 3e 43 de d6 be 92 c8 b8 bd
       0.0058546597 0.14155799 -0.41966447 -0.09022631
000320 b3 df 5a bd 12 f4 45 3d 30 ae db 3d 27 3a 40 3e
       -0.053435992 0.048328467 0.10726583 0.18772183
000330 b7 0a 56 3c 72 97 27 be 72 dc f0 be aa 3e f5 3d
       0.013064078 -0.16366366 -0.47043186 0.11974843
000340 a2 62 05 be 6e ce 4e bf 60 5a 08 3d ba 60 eb bd
       -0.13025907 -0.80783737 0.033289313 -0.114930585
000350 93 16 23 3e ba 42 4f be f8 f0 c6 be 9a a1 67 3c
       0.1592658 -0.20240298 -0.3885572 0.01413765
000360 07 eb 77 3c ac e8 12 3f 1b c9 32 3e 8c a3 c4 3d
       0.0151317185 0.5738628 0.17459528 0.096015066
000370 ea ee 04 3e 8c 20 b8 bb 81 13 28 3e a5 f7 8e 3d
       0.12981763 -0.0056191143 0.1641369 0.06980828
000380 d7 75 1c 3e 1d 1e 6c be f5 8f 20 3e 81 ea f5 be
       0.15279327 -0.23058362 0.15679915 -0.48030475
000390 d0 d1 05 3c d6 9f 2e 3c 37 0f 8c bd b2 d6 0f 3e
       0.008167699 0.010658225 -0.068388395 0.14046744
0003a0 cd 62 f3 be 79 a6 2b be cd 29 7e bd 4f dd c2 bd
       -0.47536317 -0.16762723 -0.062051583 -0.095148675
0003b0 6a 04 84 bd df 07 e3 bb 11 45 2e 3e 7f eb 70 be
       -0.064461544 -0.0069284285 0.17018534 -0.23527335
0003c0 e4 31 02 3e 14 ef ff 3d 76 7a ff 3b 7b 12 fe bc
       0.12714344 0.124967724 0.007796581 -0.031014672
0003d0 28 56 8c 3d 96 fc 55 be 99 23 86 3e c8 d5 4e 3e
       0.068523705 -0.20897135 0.26199034 0.20198739
0003e0 12 0c a4 bb 81 6f e5 3e ea a7 a7 bc cf ec 50 be
       -0.0050063217 0.44811633 -0.02046581 -0.20402835
0003f0 a0 70 3b 3d 67 07 28 3e d6 b5 7e 3e 24 65 b6 3d
       0.045761704 0.16409074 0.24874052 0.0890601

fc3.bias f4 [32]
000000 c7 bd f8 be d1 7c a9 bf ba c1 c3 bd 28 40 a3 bd
       -0.4858229 -1.3241216 -0.09558435 -0.07971221
000010 6f d0 15 bf 82 3c e8 bc af 07 29 be eb 3c 0c 3f
       -0.5852117 -0.028349165 -0.16506837 0.54780453
000020 84 68 43 bf 78 6c e5 bf 6a e9 89 3f ad df 6b bd
       -0.76331353 -1.7923727 1.0774357 -0.05758636
000030 24 d5 bd 3f 6e 9e 02 3f bc 4b 23 3f ca 4c dd bf
       1.483067 0.51022995 0.63787436 -1.7289059
000040 85 36 53 3e ad 5b 0c be 4e cd a9 be 8c cb dc be
       0.20626266 -0.13706847 -0.33164448 -0.43124044
000050 91 85 43 bf 32 7c 32 3f 7d c1 32 3e 56 c2 33 3f
       -0.7637568 0.69720757 0.17456622 0.7021841
000060 73 23 1f 3f 46 da 48 3f b9 bc c8 3f 8f a6 84 bf
       0.62163466 0.7845806 1.5682594 -1.036333
000070 47 cc a9 3f f7 4f f9 be 29 6f 6d bd c9 49 85 bf
       1.3265465 -0.4869382 -0.05796734 -1.0413142

in_fn.weight f4 [33]
000000 81 ea c8 3f 2a ed 09 3f 52 2c af 3e d2 62 df 3e
       1.5696565 0.5387751 0.342135 0.4363008
000010 80 dd 3a 3e 34 b9 ac 3e 30 5f 76 3e a3 22 28 3e
       0.18248558 0.3373505 0.24059749 0.16419463
000020 6c 3b a7 3e 30 b7 00 3f e0 f8 68 3e fa dc a9 3e
       0.32662523 0.5027952 0.22751188 0.33176404
000030 ef b5 aa 3e d1 b1 b1 3e d8 20 b4 3e e6 31 3b 3e
       0.3334193 0.34705976 0.35181308 0.18280753
000040 2d c3 11 3f 4b 73 e4 3e 26 55 88 3e 30 04 89 3e
       0.5693844 0.44619212 0.26627463 0.26761007
000050 25 58 55 3e fa df 73 3e 85 05 32 3f e5 5e 7a 3e
       0.20834406 0.23815909 0.6953967 0.24450262
000060 78 e4 3a 3f 71 c7 b0 3e 07 cd a1 3e 6b 76 94 3e
       0.73004866 0.34527162 0.31601736 0.28996596
000070 6f 56 08 3f 9e 04 9f 3e 6a 58 11 3f ff b4 2a 3f
       0.5325689 0.3105821 0.56775534 0.6668243
000080 da 8d 85 3f
       1.0433915

in_fn.bias f4 [33]
000000 de 0d 37 3e d6 d9 08 3d 42 56 a1 3d 35 35 81 3d
       0.17876384 0.03341087 0.078777805 0.063089766
000010 38 69 26 bc b6 71 15 3e f3 98 42 bd 49 d0 51 bd
       -0.010156922 0.14594159 -0.047509145 -0.051224027
000020 15 13 92 3c 6d eb f2 3d 5e 88 6c bc 99 33 95 3c
       0.017831365 0.1186131 -0.014436809 0.01821308
000030 29 0d 56 3d 26 1c 9a 3c 94 10 55 3d 7b 6e 15 bb
       0.052258644 0.01881225 0.052017763 -0.0022801447
000040 e0 57 03 3d a7 ef 28 bc 6f e9 10 3d d9 fd f4 bc
       0.032066226 -0.010311044 0.03537887 -0.0299062
000050 26 45 bf bb 9f d1 48 3d ce b9 e3 3d 3a c4 d9 bc
       -0.0058371006 0.049028035 0.11119424 -0.026582826
000060 93 e3 21 3d e9 75 bf 3c 7d 0d b2 3d 9a 2b 11 bd
       0.039523672 0.023371654 0.08693979 -0.035441972
000070 e5 c1 cd 3d 11 c4 0d be be 52 2f 3e dd a4 19 3e
       0.10046748 -0.13844325 0.17121407 0.15004297
000080 a6 ce 28 bb
       -0.0025757938

in_fn.running_mean f4 [33]
000000 94 69 13 40 e5 14 f8 3b 40 5c 06 3c 5d 6d 23 3c
       2.303319 0.00757085 0.008200705 0.009974805
000010 81 30 3e 3c fe f5 ca 3c c2 4d 21 3c 79 62 00 3c
       0.011608244 0.024775501 0.009845199 0.007835978
000020 c3 e6 32 3c bf c6 3f 3c 64 ca 31 3c 2c 3e 12 3d
       0.010919276 0.0117051 0.010851476 0.035703823
000030 70 a8 27 3c ce 4c e2 3c c3 6a 88 3c a5 21 a2 3c
       0.01023303 0.027624514 0.01665247 0.019791434
000040 72 39 74 3d 4f 58 ab 3c e8 f6 70 3c 4c 2d 07 3c
       0.059625097 0.020916132 0.014707305 0.008250546
000050 14 ea 30 3c 83 57 e1 3b cf ce cf 3c f2 c4 9e 3c
       0.010797996 0.0068768873 0.025367169 0.01938102
000060 25 16 d5 3d 66 2f eb 3c 5a f6 70 3c 25 dc fb 3c
       0.10404614 0.028709125 0.014707172 0.030744622
000070 c3 7c 64 3d 0a 00 76 3d 85 5d f4 3d 03 df a2 3d
       0.055783045 0.06005863 0.119319 0.07952692
000080 bc 70 f1 3d
       0.117890805

in_fn.running_var f4 [33]
000000 d0 d6 e5 40 4d 31 f6 3b 9e 4a 05 3c ec b1 21 3c
       7.182472 0.0075132013 0.008135466 0.00986908
000010 b7 e8 3b 3c 9f 4a c4 3c 34 a9 1f 3c 5a b3 fe 3b
       0.011469058 0.023961363 0.009744931 0.007772845
000020 ad ea 30 3c 93 1a 3d 3c b9 d0 2e 3c be ad 0c 3d
       0.010798139 0.01154198 0.010669881 0.03434538
000030 9b d2 25 3c 24 f8 db 3c 47 02 86 3c 7f a3 9e 3c
       0.010121013 0.026851721 0.016358508 0.01936507
000040 bf f4 64 3d c6 04 a7 3c 29 e8 6c 3c 4d 09 06 3c
       0.05589747 0.020388018 0.014459648 0.008180928
000050 d8 ed 2e 3c 5e ad df 3b 72 38 c9 3c 8f fc 99 3c
       0.010676824 0.006826087 0.024563048 0.018797187
000060 05 68 be 3d 9a b7 e3 3c af 81 6d 3c c4 61 f3 3c
       0.09297184 0.027797509 0.014496251 0.029709704
000070 17 2a 55 3d 66 92 5e 3d 8c 78 d4 3d 2b 38 95 3d
       0.052042093 0.054338835 0.10374555 0.07286104
000080 db e5 cb 3d
       0.09955951

fc1.weight f4 [64, 33]
000000 66 1a 6f 3f 73 5d 8c bd eb 86 40 be fa 1c e7 bd
       0.93399656 -0.068537615 -0.18801467 -0.11284824
000010 dc 3a 55 3e d9 bc 32 bf 94 f1 2d 3e 3b d4 d7 3d
       0.20823234 -0.6981941 0.16986686 0.105385266
000020 b6 7a db 3d 0b 49 76 3e 2e 02 9e 3e c3 1a 0e be
       0.10716765 0.24051301 0.30861038 -0.13877396
000030 c3 1f 99 3e 3e 54 9b 3e 74 7c 70 3e d6 c2 d4 3d
       0.29907045 0.3033771 0.23484975 0.103887245
000040 12 e0 27 3e 30 21 8d bb cb 80 9f be e1 cf 5b 3d
       0.1639407 -0.004306935 -0.3115295 0.053665046
000050 7a cb b7 3b 08 10 95 3d de a6 44 3e 83 12 af bd
       0.005608973 0.07278448 0.1920428 -0.08548453
000060 61 9f 45 3f 9a f2 ad 3d 26 01 f4 be 22 54 ae 3e
       0.7719632 0.08493538 -0.47657126 0.34048563
000070 4a 2f b8 3d 43 21 3e 3f 26 81 b7 3d 1d 29 a8 3d
       0.08993395 0.74269503 0.0896018 0.08210967
000080 6f 60 b0 3e c1 6c ba bd 5b b2 03 bf b2 b0 36 3e
       0.34448573 -0.091027744 -0.51444024 0.17840841
000090 5f ef 8c 3e 90 8c 4f be 9a ff 69 3e 30 84 28 3c
       0.27526376 -0.20268464 0.2285141 0.010285422
0000a0 04 43 1b 3e b9 94 dc bd fa 8b 28 3e f6 99 28 bd
       0.15162283 -0.10770554 0.16459647 -0.041162454
0000b0 54 9c e8 bd a9 ea 21 bd 2f f7 ae bd 0c 80 70 be
       -0.11357942 -0.03953043 -0.0854324 -0.23486346
0000c0 d6 b1 56 3d 96 e7 0f be 43 47 cd 3e d4 49 1d be
       0.05241569 -0.14053187 0.4009343 -0.15360194
0000d0 d0 21 ae be 7d 3d f6 bd 49 57 63 be b4 b1 1a be
       -0.34010172 -0.12023447 -0.22201265 -0.15106851
0000e0 07 2c 07 be 13 d3 3a bc 6d 1d 50 be c2 0d 35 be
       -0.13200389 -0.011402863 -0.20323725 -0.1768103
0000f0 43 8f fa 3d 66 0f e4 bc 55 13 65 bd bd f8 88 be
       0.12234356 -0.027839374 -0.05592664 -0.26752272
000100 de 51 b0 bd 4a 3a 66 bd a2 2e 72 bf d9 1c 8d be
       -0.08609365 -0.056207933 -0.94602406 -0.27561072
000110 8d 9f 07 bf 1f 6a 41 3c 33 4d a4 be bb 0e df be
       -0.5297783 0.011805086 -0.32090148 -0.43565926
000120 86 9b 50 be ec b1 2f be b5 14 00 3d 16 e1 eb be
       -0.20371827 -0.17157716 0.031269748 -0.46070164
000130 60 db 9d bd f8 f9 83 be 40 20 ff 3b fa ec 37 3f
       -0.07707858 -0.2577665 0.007785827 0.7184597
000140 e4 f5 93 3d 3c ca 72 3e 27 ba 7d 3e 1f 6c e6 be
       0.07224634 0.23709959 0.24778043 -0.45004365
000150 ac 11 88 be 7f 63 d8 3c 81 ff 33 3e bf 5b 01 3e
       -0.26575983 0.026414631 0.17577936 0.12632655
000160 53 bb 08 3f 42 7e 5c 3d 04 7c f9 be ae e9 7f be
       0.53410834 0.053831346 -0.4872743 -0.24991485
000170 6e 57 07 3d a1 57 63 3e 6d 79 08 bf 8b 29 01 3d
       0.033042364 0.22201397 -0.5331028 0.03153376
000180 65 a8 4e be 96 25 10 bf 9b d8 3b 3f cc ba 81 bf
       -0.20181425 -0.5630735 0.7337739 -1.0135131
000190 cb 75 4c bc 5b 38 0a 3d c5 58 ae be b3 5d cf bc
       -0.012479256 0.03374515 -0.340521 -0.025313234
0001a0 9d 14 00 3e dd ce e2 3c f8 28 23 be 1b 27 5b be
       0.12507863 0.02768653 -0.15933597 -0.21401636
0001b0 3d 75 31 bd 12 9d b2 bc 24 21 9e be c6 fe d6 3c
       -0.043324698 -0.021803413 -0.3088466 0.026244532
0001c0 1e e6 2f bd f0 34 c0 3c 32 27 6c bc f0 47 0a 3d
       -0.042944066 0.023462743 -0.014413642 0.03376001
0001d0 53 12 65 3e 88 17 d1 3e ec 65 57 bd d2 29 7a be
       0.22370271 0.40838265 -0.052587435 -0.24430016
0001e0 26 4d 53 3b 1c ef dd bd d1 fd 5f bb 5c e1 f9 bd
       0.003224203 -0.10836622 -0.0034178386 -0.12201187
0001f0 9c ad 85 3d 9a e9 9b be 50 a2 22 3d 0d ef 0e be
       0.06527254 -0.3045166 0.039705575 -0.13958378
000200 2d 9b af bd 77 85 1c 3d b9 c8 d2 bb 44 87 e2 ba
       -0.08574519 0.03821322 -0.0064326194 -0.0017282744
000210 3b 11 02 bf 3e 07 4e be d7 b1 80 3b 00 35 e3 3c
       -0.5080754 -0.2011995 0.00392745 0.027735233
000220 b3 61 f8 3d 13 c3 cf 3b e3 70 3e 3e a7 e5 2c be
       0.1212801 0.0063403933 0.1859775 -0.1688448
000230 a3 61 4f bc fa e4 59 3c 67 a8 4a 3e 0a 97 c9 3d
       -0.012657556 0.013299221 0.19790803 0.098432615
000240 2f 86 2e 3d 57 7e 13 3e 64 98 0c 3e d4 7b d3 bd
       0.042608436 0.14403664 0.13730007 -0.10326353
000250 24 35 42 bd 20 d3 26 3e 73 9c 4c be af 83 9b 3e
       -0.04741396 0.16291475 -0.19981556 0.30373904
000260 87 08 79 3d f5 87 58 be 5d 7b 02 bd ab 39 a4 3d
       0.060799148 -0.21145613 -0.03185593 0.08018812
000270 26 79 f3 bd e9 17 a1 3d 85 74 2e 3c 2d 01 40 3e
       -0.118883416 0.078658886 0.010647898 0.18750449
000280 68 32 56 be fa 69 ed 3d f6 8f 31 be 2b 11 29 be
       -0.20917666 0.11592479 -0.17340073 -0.16510455
000290 df 11 18 3e 15 0c 21 bf 9f 11 00 3f 04 0e 0b 3e
       0.14850567 -0.6290906 0.5002689 0.13579565
0002a0 d2 1c 8e 3e 35 9f b1 be 38 9e 91 bd 56 81 b1 3e
       0.27756363 -0.34691778 -0.07110256 0.34668988
0002b0 bb 20 42 3d 2b 06 3b be 69 e5 98 3e 69 48 86 3e
       0.047394495 -0.18264072 0.29862526 0.2622712
0002c0 36 df 52 bd 39 1c 8b be e7 05 91 3e a6 00 57 be
       -0.0514824 -0.2716997 0.28324816 -0.20996341
0002d0 fd 37 72 bd 79 0c be be 80 fa e2 3d 7f f5 00 bf
       -0.059135426 -0.3711889 0.11082935 -0.503746
0002e0 e8 7a 04 3f a1 20 56 be 52 86 82 3e ed 19 c7 be
       0.5175004 -0.20910884 0.25493103 -0.38886967
0002f0 ba a1 c4 be 3d 20 bc be 7a f0 c9 3e f2 c2 ac be
       -0.38404638 -0.36743346 0.39441282 -0.3374248
000300 cb e4 d6 bd 7b 1c ca be 23 91 38 bc 96 29 e1 be
       -0.104928575 -0.39474854 -0.011265072 -0.4397704
000310 5b 72 c0 be ff 39 cf be 92 39 7e bf ff 08 b6 be
       -0.37587246 -0.40473935 -0.99306595 -0.35553738
000320 57 08 77 3d c3 34 84 be 15 d6 93 3e 5d 71 59 bd
       0.060310688 -0.25821504 0.2887427 -0.053086627
000330 6b 26 e5 3d 9f f4 22 3e e8 0b 00 3e 31 f6 ee 3c
       0.11188968 0.15913628 0.12504542 0.029170128
000340 97 2a 36 be df bd 0d 3e 25 de e7 3d 42 81 2c 3d
       -0.17789684 0.13841961 0.113216676 0.042115457
000350 d5 2a 44 3e a1 da dc 3d 2e d0 31 3e 74 b3 a0 be
       0.19156964 0.10783888 0.1736457 -0.31386912
000360 58 27 91 3e ef af 9d be f3 72 f2 3d 30 0c 9f be
       0.2835033 -0.3079829 0.11838331 -0.31063986
000370 6c 80 c3 3d 5b 31 c6 3d df 80 99 be b8 3b 4c 3e
       0.09545979 0.096773826 -0.29981133 0.19944656
000380 7f 12 b6 3d 91 9e 15 3e 7f 88 a8 be 02 11 4e 3e
       0.088902466 0.1461127 -0.32916638 0.20123675
000390 ad 09 c3 be 29 ce bc be f0 3a 8a 3e 7c d0 b1 bc
       -0.3809332 -0.36876038 0.2699809 -0.021705858
0003a0 c0 42 e5 3c 27 9e cc bb 4d c4 06 3d b0 2d 00 3d
       0.02798593 -0.006244439 0.03290205 0.03129357
0003b0 ec be 4a bc fb a6 eb 3d 64 ae 2e 3c 68 ce 41 3d
       -0.012374621 0.11506458 0.010661695 0.047315985
0003c0 69 fd 24 bd b1 10 ff 3c bf 17 b8 3d dd 2d 07 bc
       -0.040280733 0.031135889 0.08988904 -0.008250681
0003d0 ab 56 c1 3c a3 b6 18 bc 45 70 d9 bc 89 ee 79 3d
       0.023600897 -0.009320888 -0.026542792 0.0610185
0003e0 e0 fd 83 3d b8 56 00 3d 69 76 e4 bc 16 01 20 3d
       0.06444907 0.0313327 -0.027888494 0.039063536
0003f0 51 96 6c 3c b1 5d 6a 3d 8e fc 45 3d d3 87 32 3d
       0.014440135 0.057218257 0.048336558 0.043586563

fc1.bias f4 [64]
000000 8a f2 45 bf e4 33 74 be c2 db 2c 3e 19 28 9d be
       -0.7732321 -0.2384792 0.16880706 -0.30694655
000010 ff f0 6e be aa 56 94 3d 8f c6 ac be 9e 68 a2 be
       -0.2333412 0.07243092 -0.33745238 -0.31720442
000020 73 37 87 be 0d e1 11 bf 5a 83 39 3e 07 48 0a bf
       -0.26409492 -0.56984025 0.18116513 -0.54016155
000030 c1 ad 05 be d7 9c a8 be dc 44 cf be 85 b2 1b be
       -0.13054563 -0.3293216 -0.40482223 -0.15204819
000040 d8 44 09 bf c3 7e 2f be ad 85 c9 bd e5 93 8f 3e
       -0.5362067 -0.171382 -0.0983995 0.28042522
000050 6e 18 fb bd 5a d6 a1 be 8d f0 7d bd f8 6d 85 be
       -0.12260519 -0.3160885 -0.061996985 -0.26060462
000060 c4 c0 23 bf 69 94 60 bf 61 b3 54 bf 3d 1b a2 be
       -0.6396601 -0.87726456 -0.8308621 -0.31661406
000070 5c ab c3 be 97 1b 46 bd 81 8e f4 be e4 bc 34 3d
       -0.38216674 -0.048366155 -0.47764972 0.044125453
000080 da cd 36 3e c9 1a a6 be bd d0 69 bf 4b 4f 82 bd
       0.17851964 -0.3244231 -0.91334134 -0.0636278
000090 70 ce ec be a4 db 4f be a0 01 74 be dc 41 d8 bd
       -0.4625125 -0.2029863 -0.23828745 -0.10559437
0000a0 3c 8c 96 be 28 27 3f bf 93 6c 60 be dc a8 fc be
       -0.29403865 -0.7466912 -0.21916418 -0.4934758
0000b0 af 3b ce be d6 89 09 be ca 3f 09 bf 27 df 79 be
       -0.4027991 -0.13431486 -0.5361296 -0.24401532
0000c0 a9 40 9e be ab 13 8c bf 19 3b ed be 38 fe 03 bf
       -0.30908707 -1.0943502 -0.4633415 -0.5155978
0000d0 42 0c 1c bf 89 3a a7 be 9a 76 a9 be 82 7d c0 be
       -0.60956204 -0.32661846 -0.33098298 -0.37595755
0000e0 73 3a bc be 2b 70 af be 1e 9f 9e be 2f 08 7f 3d
       -0.36763343 -0.34265265 -0.30980772 0.062263664
0000f0 b1 2c 47 bf bb bf 2b bd eb aa f3 be 89 09 8c bd
       -0.7780257 -0.041930895 -0.47591338 -0.06837756

fc2.weight f4 [64, 64]
000000 72 fa 08 be 43 a8 fe 3c 4e af d4 bd d0 a7 71 be
       -0.13376787 0.031086093 -0.10384999 -0.23599172
000010 9e 63 b9 3c 56 26 9c 3d 3f 34 53 bc dc 65 59 3d
       0.022630509 0.076244995 -0.012890874 0.053075656
000020 12 00 9f bd e8 da 5c 3c 8c 06 2b be fe 57 f6 bd
       -0.07763685 0.013479926 -0.16701716 -0.12028502
000030 98 19 7c bd b4 59 1f be bf 05 ed bc 48 1b 50 be
       -0.061547846 -0.15561563 -0.028933404 -0.20322907
000040 73 d7 08 be 74 64 3f bd a2 58 a6 bc e8 f9 50 be
       -0.13363437 -0.04672666 -0.020305935 -0.20407832
000050 6d 95 96 bc e8 c9 70 be 08 76 81 bd 4f ba 4a bd
       -0.018381799 -0.23514521 -0.06321341 -0.049494084
000060 9b d6 86 bd 66 18 ef bd d5 2b 13 bd 69 d7 21 be
       -0.065839015 -0.116745755 -0.035930473 -0.15804829
000070 88 71 06 3d 1f 3e 12 be 54 3e af bd 71 77 05 be
       0.032823116 -0.1428151 -0.0855681 -0.13033845
000080 59 d5 c1 3c 02 3e d8 3b e0 5d ad bd 49 77 0d 3c
       0.023661302 0.006599189 -0.08465171 0.008634397
000090 78 b5 12 3d d6 05 51 bd c2 bf ff bd 9f aa 5e 3d
       0.035817593 -0.051030956 -0.12487747 0.054361936
0000a0 9f 6f 29 be 4f 75 10 bd 5c 10 0d be 15 04 80 3d
       -0.16546486 -0.035268124 -0.13775772 0.062507786
0000b0 2b 7a 04 3d 60 6d bc bd 69 99 0d 3d 15 4a 1a 3d
       0.03234307 -0.09200549 0.03457013 0.037668306
0000c0 36 80 e8 bd 9a 7e 4e 3d fe f2 bb 3b a5 8c 28 3d
       -0.11352579 0.050413705 0.005735754 0.041149754
0000d0 7a 4a 80 bd e4 71 8c 3d f6 d2 ac bc 8a 01 fe bd
       -0.06264205 0.068576604 -0.021096688 -0.12402637
0000e0 df e8 57 bb bd 9e 54 3c 45 d9 46 3d 3e 7f 8a 3c
       -0.0032945198 0.012977299 0.048547048 0.016906377
0000f0 5a 76 e8 bc d7 25 8b be 47 2c 73 3d e5 9f 78 3c
       -0.028376747 -0.27177307 0.059368398 0.015174841
000100 85 b2 36 3e 71 e2 9c be 85 79 2b bf 26 43 bb be
       0.17841537 -0.3064151 -0.669823 -0.36574668
000110 fd 30 ac 3d b5 45 e3 be 25 58 f1 bd ef ca 2b bd
       0.08407781 -0.4438912 -0.1178439 -0.04194158
000120 4b 73 66 bc b0 83 ac be 41 f0 8f be a1 c7 7e bd
       -0.014065574 -0.3369422 -0.28112987 -0.0622021
000130 8b 0a 80 bd 50 91 0b 3e 84 77 96 bd cc 1d 80 3e
       -0.06252011 0.13629651 -0.073470145 0.25022733
000140 ee 54 29 3e ee e2 9a 3d 50 2d fc be eb e4 8a 3e
       0.16536304 0.07562815 -0.4925332 0.27127776
000150 dd 0e 19 3e 0f fd 0c 3e df be 71 be c7 1c 23 3d
       0.14947076 0.13768409 -0.23607968 0.039822366
000160 24 a9 13 3e d1 81 da 3d b9 e4 16 bf 4c 11 8b bd
       0.14419991 0.10669292 -0.58942753 -0.067904085
000170 68 2a 81 3c 5e 04 0c bf 12 44 d4 3c 8b 4d 40 3e
       0.015767291 -0.54694164 0.025911365 0.1877958
000180 5c 24 72 bf 04 85 ab 3d 70 d3 1c 3e 18 a0 07 be
       -0.9458673 0.0837498 0.15315032 -0.13244665
000190 8f 03 da bb ec 2e 93 be 1d 53 18 be b7 32 95 bd
       -0.0066532562 -0.28746736 -0.14875455 -0.07285064
0001a0 9c 00 a5 3d 8c 70 0e be 12 eb 28 bd 91 82 2a 3b
       0.08056757 -0.1391012 -0.041239806 0.0026017765
0001b0 a8 18 78 3d 38 38 a7 3c 7a ab 62 be c1 77 44 3d
       0.06057039 0.02041255 -0.22135726 0.04796577
0001c0 38 f9 d8 bd 17 8f 9a 3e 55 fd cc bd ff 1d 9e 3d
       -0.1059441 0.30187294 -0.10009257 0.07720565
0001d0 ab 08 30 be 7b 3b 35 3e 75 ca d1 bc 76 59 5c be
       -0.17190807 0.17698471 -0.025609234 -0.21518502
0001e0 d2 31 01 be 15 d4 a7 be 55 00 ba be ad 5a 45 be
       -0.12616661 -0.32778993 -0.36328378 -0.19272871
0001f0 5b ba 30 bf ae 44 69 be b0 a5 71 bd d9 97 48 3e
       -0.69034356 -0.22780105 -0.058995903 0.19589175
000200 6f c0 bb be 29 7c 35 3d 90 7f 28 bf 12 11 6a 3e
       -0.36670253 0.04430786 -0.65819645 0.22858074
000210 8a 5a b1 bd d4 06 84 3e c0 45 97 be 44 8f 4d bd
       -0.08659847 0.2578646 -0.29545403 -0.050185457
000220 29 5d 98 bd 48 1e b4 3d ac 6e 33 bd 5e 77 4b 3d
       -0.07439644 0.08794838 -0.043806717 0.049674384
000230 e2 10 d2 bd 62 fc ea be 04 16 87 be 7c 5b 9a be
       -0.102571264 -0.45895678 -0.26383984 -0.30147922
000240 22 ae d1 bd bf 9d 1b be 85 14 59 be 05 98 ed be
       -0.10238291 -0.15196894 -0.21199234 -0.46405044
000250 35 69 00 bb bc c8 dd bd b6 a5 e8 bc b7 e0 27 bd
       -0.0019593958 -0.10829303 -0.02839933 -0.04098579
000260 d4 51 65 bc 92 4e 56 be 78 39 8c 3e a3 dd 99 bd
       -0.01399656 -0.2092841 0.27387595 -0.07512977
000270 94 d4 4a 3d 17 26 5e 3c 30 19 3b be ea e7 d9 be
       0.049519137 0.013558886 -0.18271327 -0.4255975
000280 2a 3a 1e 3e 24 f4 e0 be cf e6 4e 3c 70 a9 6b bd
       0.15451875 -0.43936265 0.012628271 -0.057534635
000290 b6 38 31 3d 43 a5 a4 bd 62 63 29 3b da cb c5 be
       0.043266974 -0.08039334 0.002584659 -0.3863209
0002a0 03 f3 41 bd e2 96 2f bd 9c b4 0e 3c 7b c6 95 bc
       -0.047350895 -0.042868502 0.008710053 -0.01828312
0002b0 db 2b 28 bd a3 cc 43 3c 8f 91 ea be 3c be 7f bd
       -0.04105745 0.011950645 -0.45814177 -0.06243728
0002c0 e8 1c dd 3c 49 2c 63 bd 8f 27 8e bd fd 62 d1 3d
       0.026991323 -0.055462155 -0.06941139 0.10223959
0002d0 03 89 74 be 1c ee 44 3e 3f 78 e0 bd d7 0a fd be
       -0.23880391 0.19231457 -0.10960435 -0.49422333
0002e0 42 34 ba bd 9f 96 c1 bd ae 7a ff bc f9 4f 53 be
       -0.09091999 -0.09452557 -0.031186428 -0.20635976
0002f0 99 d5 60 3e 84 f9 7d be 7f b8 42 3e dc 72 73 be
       0.21956481 -0.24802214 0.19015692 -0.23774284
000300 b7 1a 27 be 2c b3 10 bd 54 eb de bd 1b b5 f5 3c
       -0.16318785 -0.03532712 -0.10884729 0.029993584
000310 a7 5e b0 bd 37 02 0a 3c c8 a0 db be 7d 70 36 bd
       -0.086118035 0.00842338 -0.42896104 -0.04454087
000320 4f c9 b0 bd eb ac d1 ba a8 7f af 3d 72 2e ff bd
       -0.086321466 -0.0015996968 0.0856927 -0.124600306
000330 21 f1 58 be 6d 62 89 be 6c b2 2f be 4c 9c df bd
       -0.21185733 -0.26832905 -0.17157906 -0.10918483
000340 b2 07 f3 bd a2 9d 6b bd b5 2c aa bd 18 d1 42 be
       -0.11866702 -0.057523377 -0.083093084 -0.19025075
000350 20 1b 48 be 0e 8e 5e bd 5b c1 5e be a1 3a 89 be
       -0.19541597 -0.054334693 -0.21753447 -0.26802543
000360 6a fc 33 be 0e 34 9e bd 11 ba 48 be 49 23 6d bd
       -0.17576757 -0.077247724 -0.19602229 -0.05789498
000370 04 2c 16 3e fd f0 9b 3d fd 16 90 3d 2b 64 58 bd
       0.14665228 0.07614324 0.07035635 -0.052829903
000380 d1 b2 24 be a4 92 dc bb eb 59 de bd 98 12 14 bc
       -0.16083838 -0.006731348 -0.10856994 -0.009037636
000390 6d a2 3d bc 90 28 da 3d d3 2d 1e be 73 cb de bd
       -0.01157437 0.10652268 -0.15447168 -0.108786486
0003a0 32 13 cf bd 49 3a a6 bd f9 75 43 3c bc 01 92 bd
       -0.10111083 -0.08116586 0.011929982 -0.07129237
0003b0 c6 ae 4d be e9 5d 67 be 1e 87 8b 3d 3f 4e 52 bd
       -0.20086202 -0.22594418 0.06812881 -0.051344153
0003c0 48 94 4e bd 87 10 1e 3d 6c ce 2a 3d c3 77 89 bd
       -0.05043438 0.03858998 0.041700765 -0.06712296
0003d0 63 86 e2 3d d1 7c 6c be 81 a0 06 3d 98 14 9e bd
       0.110607885 -0.23094489 0.032867912 -0.07718772
0003e0 d4 2a fc bd 38 3d c1 3d 1c 02 83 be 63 42 5e 3d
       -0.12312856 0.09435505 -0.25587547 0.05426253
0003f0 35 e1 3c 3d da 64 49 be 71 4e 31 be 07 64 09 bd
       0.04611321 -0.19667378 -0.1731508 -0.03354266

fc2.bias f4 [64]
000000 f5 e9 1b be 9d f5 c8 3e b2 43 1c bd b3 bb cb 3b
       -0.15225966 0.39249888 -0.038150497 0.006217444
000010 df 52 19 be ef 7e 73 3c 3c 49 94 be 7e 5c 45 3f
       -0.14973019 0.014861806 -0.28962123 0.77094257
000020 f3 68 1a 3e 9f 84 55 bd 9a a6 c5 3d ef ea 22 3c
       0.15079097 -0.05212843 0.09650917 0.009943708
000030 d6 9d 61 bd af 30 15 3c c1 f1 6e bd e5 dd 25 be
       -0.055082165 0.009105845 -0.058336023 -0.16197927
000040 0a 15 05 3d 94 81 c4 3e 68 4c 4d be 9b f8 c7 3b
       0.032490768 0.3838011 -0.20048678 0.006102634
000050 aa d6 14 bc 6d 1a 5f bc 89 6d 6f bd 5a 9c 1a be
       -0.009084383 -0.01361714 -0.05845407 -0.15098706
000060 11 ea 14 bd 6c ed f1 3e 55 f8 d9 3d 86 15 0d be
       -0.036356036 0.4725145 0.10643069 -0.13777742
000070 28 18 16 3f 31 a8 cb bd 5e 67 be bd 32 67 b8 bc
       0.5863061 -0.09944189 -0.092970595 -0.022510145
000080 88 39 25 3d e4 23 ed 3c 52 4c ce bd 2e ab 4f bd
       0.04033807 0.028947778 -0.10073151 -0.05070036
000090 24 b7 87 bd 53 28 4f be 5c 14 0e bd 10 4e a0 bd
       -0.06626728 -0.20230226 -0.034687385 -0.07827389
0000a0 fd cc 1e bf dd 16 78 bd a6 e0 a0 3d d3 22 9c 3d
       -0.6203154 -0.06056868 0.07855348 0.0762383
0000b0 04 89 fc bc c2 6b e6 bb 7e f8 81 3e 92 2e 3e bc
       -0.030827053 -0.0070318887 0.25384897 -0.011607783
0000c0 6a 5d 6c bd bc 6c 4b be c2 d7 36 3e 74 db 29 bd
       -0.057706274 -0.19865698 0.17855743 -0.041469052
0000d0 df d7 09 be 4a 27 30 bd 67 e6 2d be 00 53 d3 bd
       -0.13461255 -0.04300622 -0.16982423 -0.10318565
0000e0 45 d3 d4 bd 33 11 3a bd 22 8e 46 be 94 ce 0d be
       -0.10391859 -0.04542656 -0.19390157 -0.13848335
0000f0 33 19 b7 3d f5 13 cc 3e 23 38 c1 bc 42 b1 65 3e
       0.08940353 0.39858976 -0.023586338 0.224309

fc3.weight f4 [1, 64]
000000 9b 2c b9 3c 2c 8c e6 3d d2 81 9d 3d a3 d6 22 bc
       0.022604277 0.112572044 0.07690777 -0.009938869
000010 f9 c8 09 3e b5 28 53 3c c4 28 a3 3d ac 3d 0f be
       0.13455571 0.012888123 0.0796676 -0.1398837
000020 d0 aa 56 bc 57 9e 34 bc e3 af 3e 3c 72 dd ba 3c
       -0.013102248 -0.011024079 0.011638614 0.022810671
000030 1b 77 ab 3c a4 6c 1b bc 9a f2 a4 bb 02 4f 9a 3c
       0.020930817 -0.009486351 -0.005033803 0.018836502
000040 c1 93 a0 3b 78 ee 33 bd eb d8 17 be 26 65 9d 3c
       0.004900426 -0.043928593 -0.14828841 0.01921327
000050 f6 47 b2 bd 45 bc ce bc 41 f2 22 bb 76 77 c3 bc
       -0.08705132 -0.025236258 -0.0024863633 -0.023860674
000060 8a c0 36 bd fe 00 16 3e 48 2d 5e 3d 65 62 52 3c
       -0.044617213 0.14648816 0.054242402 0.012840842
000070 23 01 b1 3d 93 b3 05 bd 38 1c 98 bb 2d c1 d5 bb
       0.08642795 -0.03264196 -0.004642036 -0.0065232725
000080 50 b5 24 3c 52 83 0f 3d 58 32 03 3b 54 c3 87 3c
       0.010052994 0.035037346 0.002001902 0.016572632
000090 a5 56 02 bc f4 69 8a 3d 40 c7 3c bd 63 43 40 bd
       -0.007955228 0.0675849 -0.046088457 -0.046939265
0000a0 9e 26 44 3e f6 cf 30 bd ea 2f 5b 3c 5d 0b 4a bd
       0.19155356 -0.043167077 0.013378123 -0.049327243
0000b0 c3 a4 1a 39 d6 4f 68 bb a9 eb 55 3c 9f ff e0 3a
       0.00014747963 -0.0035447977 0.013056674 0.0017166025
0000c0 3d a1 83 bc 00 91 91 3c 76 79 cc 3c b2 9e 19 3c
       -0.016068095 0.017769337 0.02496026 0.009376215
0000d0 68 ca 0a 3c ec c5 41 3b da 4c 7e bc f2 5b f9 bc
       0.008471109 0.0029567434 -0.0155212525 -0.03043935
0000e0 ef b1 83 bc 45 7b 96 3c 7c 29 73 3d 08 6f 49 3d
       -0.016076056 0.018369326 0.059365734 0.049178153
0000f0 c3 c7 72 3b e8 ba b4 bd 3a 35 c9 bb af 2f c4 3c
       0.0037045337 -0.08824712 -0.0061403783 0.023948519

fc1.weight f4 [64, 1]
000000 89 62 6c 3f cd cd 68 bf 5f 70 aa bf 89 b2 86 bb
       0.9233785 -0.9093903 -1.3315543 -0.0041106385
000010 3d b2 3b bf 16 e1 61 3e 10 79 a3 be 41 bf 65 3f
       -0.73318845 0.2205852 -0.319283 0.89744955
000020 e2 93 0f 3d 56 73 09 be 2e 4f 61 3c 6c 4f ed bd
       0.03505314 -0.13422903 0.013751788 -0.11587414
000030 4a 5a 1b be 72 69 58 bf 30 51 95 bd 43 1c 21 bd
       -0.15171161 -0.84535897 -0.07290876 -0.039333593
000040 30 6c 14 3e 00 e7 82 bb 99 f3 1c 3e 44 bd 7f 3d
       0.14494395 -0.0039948225 0.153273 0.062436357
000050 d6 0a 9e bc 82 ac 08 bf 70 a3 2b be 1c 16 09 bf
       -0.019292276 -0.53388226 -0.16761565 -0.5354936
000060 27 35 d0 be c7 b8 a9 bd e5 d7 ca bb c3 e7 95 3f
       -0.40665552 -0.082871966 -0.0061902874 1.1711353
000070 87 e8 63 bc 21 b0 7f 3b 79 61 32 3e ba f6 93 3f
       -0.013910419 0.0039014893 0.17419995 1.155967
000080 1a 42 94 3e 8f 55 10 be 16 3a 0b c0 dc 96 d4 bf
       0.2895668 -0.14095138 -2.1754203 -1.6608539
000090 2b 88 4d 3f 74 07 9d 3c 8e 79 bb 3d ba 6c c7 be
       0.802859 0.019168593 0.09154044 -0.3895014
0000a0 3a 8b 60 3f 5c a0 d8 be c8 4f c8 3e dc 79 95 bd
       0.8771244 -0.42309844 0.39123368 -0.072986335
0000b0 7e 3d ed bd 0f c2 b9 bc df c9 bd bf 3e 5d d3 3c
       -0.11583994 -0.022675542 -1.4827231 0.025801297
0000c0 38 8d 5a bd 00 88 e0 bd e8 a6 33 bf 67 3b 2c bf
       -0.053357333 -0.1096344 -0.70176554 -0.6727814
0000d0 68 58 f8 3c e8 31 69 bd 66 dd 71 3f 41 29 37 3f
       0.030315593 -0.05693236 0.9447845 0.71547323
0000e0 20 ca 3f bd 27 8c 00 bf 8d f8 f8 3d 91 a9 36 3e
       -0.04682362 -0.50213856 0.12156782 0.17838122
0000f0 6d 5e 4a bd db 10 26 3f 06 39 30 3f ec db 4e 3f
       -0.049406458 0.6486947 0.6883701 0.80804324

fc1.bias f4 [64]
000000 e4 1c 3a be ab 12 be be 8f 9e 09 bf 40 b8 93 be
       -0.18175083 -0.37123618 -0.53757566 -0.2885151
000010 ca e6 74 bf 5a 12 8a bf a9 ac c4 be 87 f8 7f be
       -0.95664656 -1.078685 -0.3841298 -0.2499715
000020 89 aa 20 be 32 f7 34 be 2f d9 05 be 27 ed 0f be
       -0.15690054 -0.17672423 -0.1307113 -0.1405531
000030 fe db b6 3d f7 f6 b3 be ae 15 6d bf b3 07 98 bd
       0.08928679 -0.35149357 -0.92611206 -0.074233435
000040 e2 ff 33 bf 83 27 41 bf 69 93 10 bf 70 62 75 be
       -0.7031232 -0.75450915 -0.5647493 -0.23963332
000050 bb 0f 81 bd bd 42 26 bf 52 94 63 bf 52 d1 9b be
       -0.063018285 -0.64945585 -0.88898194 -0.30433136
000060 64 ad 7c be dd 7f c1 bd bd cc 6f 3e a5 54 82 bf
       -0.24675518 -0.09448216 0.23417945 -1.0182081
000070 df bd 00 3f 5b 38 63 3e 3b 98 45 bf 7e c4 1f bc
       0.5028972 0.22189467 -0.7718541 -0.009751437
000080 9b 2d 07 3e 98 6f 40 3f ba 71 80 bf b4 a2 47 bf
       0.13200991 0.7517028 -1.0034707 -0.7798264
000090 05 66 f0 3e 86 cc bd be 5f ee 9e 3d 6b 5a ee be
       0.46952835 -0.37070101 0.077603094 -0.46553358
0000a0 6b 04 b2 bf c0 b5 59 bf d5 e8 49 3f eb 25 04 be
       -1.3907598 -0.85042953 0.788709 -0.1290509
0000b0 ca 13 1c be 05 31 78 3e fb 46 16 bf f7 f3 43 be
       -0.15241924 0.2423745 -0.5870206 -0.19136034
0000c0 99 b7 9b 3e 72 e0 29 bf 53 56 05 be 46 3a 81 be
       0.3041351 -0.663581 -0.13021211 -0.25239772
0000d0 52 de d1 3e 2f 3d fd bd a6 59 c8 bf 6a 69 9d bf
       0.4098993 -0.123651855 -1.5652359 -1.2297795
0000e0 50 d2 1a bf dd 01 ef 3d 16 5d fb 3e c7 9b 42 bf
       -0.6047716 0.11670277 0.49094456 -0.7601895
0000f0 11 3f 93 be ac 18 8c bf 9f 5c ac bf f1 02 15 be
       -0.28759053 -1.0945029 -1.3465766 -0.14551903
